results/mimicagentfinale/RaceCar/RaceCar-217550.pt (torch, 543535 bytes, 47 tensors)

network_body._body_endoder.seq_layers.0.weight f4 [128, 13]
000000 49 c0 64 be 6a 10 77 bd 77 de 46 3e f8 f0 04 3e
       -0.22338976 -0.060318388 0.19420801 0.12982547
000010 ad db b2 3e 26 50 e9 be 6b 6f 52 be 96 22 41 bf
       0.34933224 -0.4556896 -0.20550315 -0.754434
000020 f2 0d df bc 83 1b 05 bd e6 d7 0f bd 03 d9 8a be
       -0.02722833 -0.03249694 -0.035118006 -0.27118692
000030 22 53 c6 be 29 b8 ec 3c f2 43 10 3e 42 2d 5f bd
       -0.387353 0.028896408 0.14088419 -0.05448652
000040 26 9a 90 be 6d 67 b8 be 36 37 81 bd 17 19 2d 3e
       -0.28242606 -0.36016408 -0.06309359 0.16904102
000050 b1 d2 bd 3e b2 d0 d6 bd 7e 8d 85 3e f9 47 8b 3e
       0.37074807 -0.10489024 0.26084512 0.27203348
000060 53 ef 1b 3c 87 0b 42 be 29 1b a8 be cd 29 a2 3d
       0.009517509 -0.1894971 -0.32833222 0.07918129
000070 02 04 89 be d1 76 15 be ce 31 70 be 46 f9 99 be
       -0.2676087 -0.14596106 -0.23456499 -0.30072993
000080 ec 1a f8 be 05 39 ee 3e 2a 36 99 be 32 fe 69 be
       -0.4845804 0.46527877 -0.29924136 -0.22850874
000090 d1 81 7b 3e 0a 47 f2 be 83 30 0a bf 04 fd 02 be
       0.2456124 -0.47319824 -0.53980273 -0.1279183
0000a0 51 89 43 3f 43 d9 aa bd 93 6c 03 3f a7 6c 07 be
       0.76381403 -0.08342221 0.51337546 -0.13225041
0000b0 9a bf c5 3e f9 72 16 be ac 1d cc bc 5e 4b b8 bd
       0.38622743 -0.14692296 -0.024916492 -0.0899875
0000c0 4c 05 b9 bd 06 4a eb 3e 35 60 d5 be e5 22 0e bb
       -0.090342134 0.45954913 -0.41674963 -0.002168828
0000d0 9a 16 f3 3e a5 a9 03 3d 19 03 55 be 20 fe 4f 3d
       0.4747818 0.032144208 -0.20801963 0.05077946
0000e0 fd 4e 43 bd 0c d4 77 3d 36 66 c4 be 21 d9 29 3e
       -0.04768275 0.060504958 -0.3835923 0.16586734
0000f0 82 1d 13 3e f2 20 e2 bc 33 d8 8c bc 5f 45 c7 3e
       0.14366725 -0.0276036 -0.017192936 0.38920113
000100 35 c3 af 3e 2c a4 9e bd 3a 51 6b 3e c0 8c 59 3e
       0.3432862 -0.07746157 0.22980204 0.21245098
000110 4f a9 f6 3c 11 2f f7 bc 3a 6d 08 3e ec 68 ae 3e
       0.03011003 -0.03017381 0.13322917 0.34064424
000120 c2 36 bd 3e 16 6e 45 be f8 99 88 3e 37 22 84 bd
       0.3695584 -0.19280276 0.2667997 -0.064518385
000130 1d 59 a1 3e 83 96 6a 3e 66 17 62 be 96 6a 9e be
       0.315133 0.22908978 -0.22079238 -0.30940694
000140 72 ef c7 3d b5 7e 1e bd 86 2b e3 bd d3 e6 98 bc
       0.097624674 -0.038695056 -0.11092286 -0.018664753
000150 d1 9a 0e 3f 9f dc 08 be 17 a8 51 be 6c e4 96 3e
       0.5570498 -0.1336541 -0.20474277 0.29471147
000160 4d 6e e3 bd f9 9d 20 bd 99 5d f6 bd da c4 0b 3f
       -0.111050226 -0.039213154 -0.12029571 0.54597247
000170 bb f7 44 3e 60 2b a5 be 04 6c 31 be d3 75 43 3e
       0.19235127 -0.32259655 -0.17326361 0.19087915
000180 49 50 a1 bd be ee 06 3d f6 e6 56 3d 20 52 e7 bd
       -0.07876641 0.032942526 0.052466355 -0.11294961
000190 55 63 63 3d cb 5b 58 3e 92 16 04 3e 3a 4e 89 3e
       0.055514652 0.21128766 0.12899235 0.26817495
0001a0 d0 e3 3a 3b 3f 6d 55 3e 8f 44 47 3e 77 85 20 3e
       0.0028517134 0.20842455 0.19459747 0.15675913
0001b0 1a 2e b4 be ca ce 8a 3e 74 d6 ad bd 0a 60 32 be
       -0.35191423 0.27110893 -0.08488169 -0.17419448
0001c0 86 6e d9 3d e4 a4 da 3e 5c e1 6b be 0d 09 b6 be
       0.10616784 0.42703927 -0.23035187 -0.3555378
0001d0 d5 53 05 3e 3a 8b 7c be 79 ec c1 bd dd c7 82 3e
       0.1302026 -0.24662486 -0.09468932 0.2554311
0001e0 04 c8 d1 3e e7 a6 ff be 4a 53 c3 3e e1 36 17 3e
       0.40972912 -0.49932024 0.38149482 0.14767028
0001f0 d7 ca a7 be a0 df e0 3c 56 b0 91 bd d6 89 96 3c
       -0.32771942 0.027450383 -0.071137115 0.018376272
000200 56 6b 95 3d b8 88 26 3e 0e ec 56 bc a6 99 0c be
       0.07295863 0.16263092 -0.013117803 -0.13730487
000210 92 ee 51 be c2 7d 0f bd a7 b9 14 3e 3b e2 fd bd
       -0.20501164 -0.03503204 0.14523946 -0.12396666
000220 de 89 a8 3d ca 57 d3 3e b8 18 fd be c6 5f a5 3e
       0.08229421 0.41277915 -0.4943292 0.32299632
000230 41 38 eb 3d c5 b7 85 bd 8a bd dd bd 8a a0 62 3e
       0.11485339 -0.06529192 -0.10827167 0.22131553
000240 ed cc 52 3e 87 4e 43 3e d1 ba 8b 3d 6a 06 2f bd
       0.20585985 0.19072925 0.06822742 -0.042730726
000250 b9 83 16 be b5 ad 09 be 25 d1 33 be c0 1b 2a 3b
       -0.14698686 -0.1344517 -0.17560251 0.0025956482
000260 53 00 40 3f 54 78 43 3e a7 e5 1f 3e af a0 52 3e
       0.75000495 0.1908887 0.15614949 0.20569108
000270 81 b6 40 be cb 2c 40 bd c3 94 9a be 72 ee 8e be
       -0.1881962 -0.046917718 -0.3019162 -0.27916294
000280 3b 04 ed bd d5 52 d9 3e 77 f2 5c 3e 0f df e6 be
       -0.115730725 0.42446008 0.21576868 -0.45092055
000290 5a e9 14 3e a9 1c 56 3e c7 2e 75 3e 69 0f 16 3b
       0.14542142 0.2090937 0.23943625 0.0022897369
0002a0 ee ab c8 3d 02 f3 d1 be cc 5a b2 3d dd 9e 23 bd
       0.09798418 -0.41005713 0.087087244 -0.039946426
0002b0 5a 9d 9c be aa 0d 28 3f 68 d9 f7 3d 69 e8 fd 3d
       -0.305888 0.6564585 0.12102014 0.12397844
0002c0 79 d9 15 3e c9 42 ed bc a4 b8 9a bd 52 6c 9c 3e
       0.1463374 -0.02896251 -0.07554749 0.30551392
0002d0 8a b9 c5 3e 5e 6b d2 bb 56 41 b5 3e 71 a6 88 bb
       0.38618118 -0.0064214906 0.3540141 -0.004170232
0002e0 5b 32 85 3d b7 15 ee be f8 09 69 bc ab 27 a7 3e
       0.06503745 -0.46500942 -0.014223568 0.32647452
0002f0 d8 20 5d 3e ca 81 02 bf 13 87 c0 3e 93 93 ab 3d
       0.2159456 -0.5097929 0.37603053 0.08377757
000300 ee 9c 9c be 2d 20 7c 3d 5d 3b c1 3e 1e 63 cb 3e
       -0.30588478 0.061554123 0.37740603 0.39724058
000310 67 28 90 3d a6 8b 3a be 82 c7 c5 bd dc b6 4b be
       0.07038956 -0.18217334 -0.09657194 -0.19893974
000320 b2 3d 2e be 21 0e 54 3e 7f 5c b1 be 01 d7 78 be
       -0.17015722 0.20708515 -0.3464088 -0.24300767
000330 57 25 68 be 4e b0 3a 3c 67 d0 62 bd 06 fa da bd
       -0.22670494 0.011394573 -0.05537453 -0.106922194
000340 8c a6 7f 3d f8 9e e4 bd e8 2c 7b 3e a7 20 7a 3e
       0.06241469 -0.111631334 0.24528849 0.24426518
000350 6f 9a d1 3d e2 d2 9e 3e 1e 49 0b be 85 a3 f6 3e
       0.10234534 0.31020266 -0.1360211 0.4817163
000360 4e 3c 06 3e c9 3b 19 3e 0b 3a 62 3c 90 41 12 3e
       0.13108942 0.14964212 0.013807784 0.14282823
000370 20 28 63 3e 15 fc 2f be de 2a 78 be 3c 41 0c 3f
       0.22183275 -0.17186005 -0.24235103 0.5478704
000380 60 37 31 bd 82 a2 14 bf 02 92 57 3e 3b 89 a7 be
       -0.0432657 -0.5806047 0.21051791 -0.32721886
000390 be d1 2a 3e ec af b2 3d 59 cf 46 be 9b 10 d2 be
       0.16681573 0.08724961 -0.19415034 -0.41028294
0003a0 4d a7 70 bd 72 13 fb bd 1b 98 34 bf b7 1a dd bd
       -0.0587533 -0.12259568 -0.70544595 -0.10796111
0003b0 fb 16 d9 3d d4 8c 40 3f bf d3 c0 be b8 49 a0 3e
       0.10600086 0.75214887 -0.3766155 0.31306243
0003c0 23 44 9c be e4 e4 cf 3e 9b 00 d2 3d 08 99 96 3e
       -0.30520734 0.40604317 0.10254022 0.2941363
0003d0 5f 3e aa be 7f 2f 4d be c0 72 40 3e cb d0 11 be
       -0.3325071 -0.2003765 0.18793774 -0.14239804
0003e0 9f 15 07 bd 4b 2e c2 3e 6b 57 7e 3d ab 09 8c be
       -0.032979604 0.37925944 0.062095087 -0.27351126
0003f0 1a 3d b6 3d 4d 63 96 3d a2 8e 8c 3e 03 d8 6e bb
       0.08898373 0.07343159 0.2745257 -0.003644467

network_body._body_endoder.seq_layers.0.bias f4 [128]
000000 31 4f cd bc aa 5b 33 3d fa 20 41 bd e9 83 d4 bc
       -0.025062175 0.04378859 -0.04715059 -0.025941806
000010 4a 23 41 bb 2f f6 37 3d 1f bf 5d 3c 86 eb de ba
       -0.0029470497 0.044912513 0.013534336 -0.0017007447
000020 64 1f 86 3a 6e 00 dd 3c ff 6d d8 3a 53 3b 02 bc
       0.0010232744 0.026977744 0.0016512274 -0.007948714
000030 47 ed 3a bd 38 ac ac 3c 2b 73 2b 3b 3f c7 2b 3a
       -0.04563644 0.021078214 0.0026161175 0.00065528223
000040 a0 36 0b bc df d4 93 3c d9 ca 45 bd 9d 82 dc 3c
       -0.00849691 0.01804584 -0.048289154 0.02691775
000050 8a 3c d0 3c 4c 9a 3b 3d 83 69 8d bb 94 0a da 3c
       0.025419492 0.045801446 -0.0043155565 0.026616372
000060 4d 41 1b 3b 5b 2c 16 3c 1d 83 2f bd 3c bb 1f 3d
       0.0023690045 0.009165849 -0.04284965 0.03899692
000070 95 2e 8f 3c f4 79 47 bc 56 b2 05 bb 0c 70 05 3c
       0.017478267 -0.012175072 -0.0020400486 0.00814439
000080 2c 00 eb bc 80 1f 98 bb 5e 21 5f bc bf 6f 27 bb
       -0.028686605 -0.004642427 -0.013618795 -0.0025548784
000090 a9 7d 55 bc 2c d4 3a ba 09 63 f6 ba c7 81 f6 3c
       -0.013030448 -0.0007126953 -0.0018797825 0.03009118
0000a0 24 64 e1 3b bb 3b bb 2e cb dc 06 bc 5c fe d7 bb
       0.006878393 8.514386e-11 -0.008231352 -0.0065916013
0000b0 05 c5 cf 3c 1b 54 ba bc a2 68 a6 3c 9f 8b a3 ba
       0.0253625 -0.022745183 0.020313565 -0.0012477523
0000c0 87 3f 1b bd 4c 92 5b ba 0c 74 0a 3d e7 5c 2c bc
       -0.03790238 -0.0008375987 0.033802077 -0.0105201965
0000d0 92 b1 a5 bc cf ea 14 bc ea 53 82 bd a9 83 12 bc
       -0.020226274 -0.009089186 -0.063636616 -0.008942523
0000e0 e8 8a 47 3d 19 a8 04 3d 5c eb 77 ba dc fa f2 3b
       0.048716456 0.032386873 -0.00094573735 0.0074151587
0000f0 13 6f 4c 3d be 89 fc bb b5 64 1f bc 13 d1 5b bd
       0.049910616 -0.00770685 -0.0097286 -0.053666186
000100 fc a0 d3 bb bc 24 38 bc c3 55 c9 ba 61 53 b6 bb
       -0.0064584 -0.011239227 -0.0015360642 -0.0055641388
000110 53 46 66 bc 07 49 92 bc f7 63 19 3c 05 25 49 bd
       -0.014054853 -0.017857088 0.009362212 -0.04910757
000120 1e f3 50 3c 08 7e 24 bd 2e d7 77 bc ea 1e 00 bd
       0.012753276 -0.040159255 -0.015126986 -0.031279482
000130 12 b9 25 3d ed 70 c6 3b 0d cb d7 3b a3 0e 57 bd
       0.0404597 0.0060559423 0.006585485 -0.052504193
000140 5d 20 9f bc 58 28 d4 ba 1c 73 16 3d f9 4a 02 bc
       -0.019424612 -0.001618634 0.03673087 -0.007952445
000150 c7 39 be bc 02 44 50 bd 5d 16 1d bd 05 e7 8e bc
       -0.02322091 -0.050846107 -0.038351405 -0.017444143
000160 04 45 b9 bc d8 4a d2 3b 1a c6 4d bc 8b d4 62 bd
       -0.022615917 0.0064176135 -0.012559438 -0.055378478
000170 94 af 23 bb 17 bc c4 3b f7 e6 26 3d c2 07 9f bc
       -0.002497648 0.0060038674 0.04074761 -0.019412879
000180 62 72 4b bd 9d 9c 1f bd e8 ae 1c b3 75 ef 5a 3b
       -0.04966963 -0.038967717 -3.6480657e-08 0.0033406888
000190 53 a1 33 bb 4e af 26 3b 2f fa da bb 47 2a 50 bc
       -0.002740939 0.002543408 -0.0066826562 -0.012705392
0001a0 95 1b 17 3c 2e b3 32 3d 46 1c 49 3d 87 f8 53 3d
       0.009222885 0.04362791 0.04909923 0.051750686
0001b0 fe 9a cc bb eb 49 6d ba 13 f2 8a 3c 09 a6 90 3a
       -0.0062440624 -0.0009051847 0.016961133 0.001103581
0001c0 53 16 ac bc e5 3a 0c 3d c6 aa a3 3c ae c2 89 bc
       -0.021006739 0.034235854 0.019978892 -0.016816463
0001d0 23 3d 92 bc 0e d4 71 bc 14 04 57 3b 6b 56 f1 3c
       -0.017851418 -0.01476003 0.0032808827 0.029460153
0001e0 56 91 b6 bb 18 b8 40 bd 09 c5 00 3d d8 04 fc bc
       -0.0055715246 -0.047050565 0.031437907 -0.030764028
0001f0 35 b0 24 3d 64 85 14 bd bd d6 5f bc 55 a2 b6 bb
       0.040207107 -0.036260024 -0.013662037 -0.0055735507

network_body._body_endoder.seq_layers.2.weight f4 [128, 128]
000000 b9 73 01 3d b8 84 fb 3c 1e 4a 13 be e1 bf 0d be
       0.031604502 0.030702934 -0.14383742 -0.13842727
000010 5d bb 0d be a8 2e a6 3d 5f e9 26 bd ff 1f c9 3d
       -0.13841005 0.08114368 -0.040749904 0.09820556
000020 a9 5d 93 3b 27 cf 0c 3c 6b f4 e3 3d 7c 9a c7 bd
       0.004497249 0.008594311 0.111306034 -0.097462624
000030 02 9c 18 3d b4 9e 14 3c 6b 4c 25 be 64 49 b0 bd
       0.037258156 0.009071041 -0.16142432 -0.08607748
000040 18 72 a4 bc 2e 9f ae 3d df 98 e8 3c af 68 ce bc
       -0.020073935 0.08526455 0.028393207 -0.025196401
000050 2a 4d 7a bd 40 ae 65 bd 06 d0 e4 bd 57 a1 7a 3d
       -0.061108746 -0.05607438 -0.1117249 0.061189022
000060 e9 09 04 3d 10 c5 82 3d 74 a1 53 3d ef 51 19 3c
       0.032236014 0.06385243 0.051667646 0.009357913
000070 89 4d 65 bc d4 f9 68 bd ed fa 4a be 1b db 67 3c
       -0.013995537 -0.05687888 -0.19822283 0.01415136
000080 3f dc 64 3d d0 7b 02 bd 49 2b ff 3c b0 3c 3e be
       0.055874106 -0.031856358 0.03114857 -0.18577838
000090 10 c6 0c 3d 77 2b c2 3d ac e1 59 bd c4 97 43 bd
       0.034368575 0.094809465 -0.053193733 -0.047752157
0000a0 9c ca 60 bd b4 72 f0 bd 02 ea 59 3d c9 0e 37 3d
       -0.054880723 -0.11740628 0.053201683 0.044691835
0000b0 fb 46 d5 bb b7 2f 60 bd da 66 88 3d 90 2a 31 be
       -0.0065087057 -0.054733004 0.066602424 -0.17301393
0000c0 b0 f2 e6 3d 86 d9 99 3d 16 c3 87 bd d0 6d 33 bd
       0.11276758 0.075121924 -0.066290066 -0.043805897
0000d0 aa e1 8c bd 2f 9a cf 3d d8 05 cf 3d ea 64 03 bd
       -0.068789795 0.1013683 0.101085365 -0.03207866
0000e0 e8 c6 f6 3c 9c 6b 33 bd b1 53 ab bd 37 e6 8a 3c
       0.030124143 -0.043803796 -0.08365572 0.016955478
0000f0 42 ed 14 bd f2 48 24 be 3e 77 82 bb b3 69 e4 3d
       -0.03635908 -0.16043451 -0.0039815 0.11152973
000100 09 ad 3d 3e e1 21 51 bc ed 14 9e 3c f7 51 22 bd
       0.18523039 -0.012764425 0.019297088 -0.03962895
000110 8d fa ac 3d 14 8a 78 bd 60 65 fd 3c 3b 86 e5 bd
       0.08446226 -0.060678557 0.030932128 -0.11207243
000120 fa f3 a2 3d 8c 69 26 3c 57 fc 10 3e 8a 59 cc 3d
       0.07956691 0.010157 0.1415876 0.09978016
000130 f1 b1 78 3d 9e dc cf 3d 2a ca 2a 3b c3 43 19 3e
       0.060716573 0.10149501 0.002606044 0.14967255
000140 49 95 85 bd ab f5 e2 3d 47 5f 20 3e e5 53 71 bd
       -0.065226145 0.11082014 0.15661345 -0.0589179
000150 51 0e f8 3d 25 d1 2f bd 8c 1a 6f 3d e4 fe 60 3c
       0.12112106 -0.042924065 0.058374926 0.013732646
000160 74 11 03 3c 45 2d c5 3c 65 ad 6c 3d e3 64 7f 3d
       0.007999767 0.024069438 0.05778255 0.062352072
000170 70 77 90 bd 28 26 cd 3d c7 1e b5 bd 99 eb 57 bd
       -0.07054031 0.10017043 -0.08843761 -0.052714918
000180 b7 29 a0 3d 7d 70 71 3d ad 77 19 bd d9 6a 95 3d
       0.078204565 0.058945168 -0.037467647 0.0729577
000190 ae 86 a2 3d 93 d0 09 3d 25 5f 16 be 07 35 96 bd
       0.07935844 0.033646178 -0.14684732 -0.07334333
0001a0 ed 48 e2 3c 3a e6 35 ba c2 98 0d 3e be 54 86 bd
       0.027622664 -0.00069389085 0.13827804 -0.06559132
0001b0 5d 61 82 bd e7 c2 80 bc 8c 7c 83 3c e5 28 11 be
       -0.06366227 -0.015717937 0.0160506 -0.14175756
0001c0 ad ed bf 3c c4 4b 92 bc 87 5e b8 bd a7 2b 37 bd
       0.023428762 -0.017858393 -0.09002405 -0.044719364
0001d0 de 7d 85 bd 60 9c d1 bd 3d cb 92 3c 8f 4e 8b ba
       -0.06518148 -0.10234904 0.017919177 -0.0010628271
0001e0 59 8a 66 bd cc c3 bd 3d de 6b 7c bd fd 7d 8f bb
       -0.056284282 0.09265861 -0.061626308 -0.0043790326
0001f0 ee e8 de bc 2f fb 14 bb be 38 81 3c 62 e3 92 ba
       -0.027210679 -0.0022732725 0.015774127 -0.0011206681
000200 cd 8f d9 bd 64 00 5a be f5 09 01 3e 5b e8 e2 bc
       -0.10623131 -0.21289212 0.12601455 -0.027698686
000210 17 cd 42 3e 23 fd 16 3e 1f 5f 32 3c 83 3e 7b bd
       0.19023548 0.14745001 0.010886936 -0.061338913
000220 1c 54 f5 3d f6 c6 1a 3e 19 d2 f4 bd cd 9a 85 be
       0.11978933 0.1511496 -0.119541354 -0.26094666
000230 fe cb b6 3d 2e 14 4f be ea 99 1a be 48 58 6a 3d
       0.08925627 -0.20222542 -0.15097776 0.057213098
000240 45 5d c8 bc 96 cb e1 bd cb 68 0f 3e 17 bb dc bd
       -0.024458537 -0.11025159 0.14004819 -0.10777872
000250 1a 25 ae bd c1 59 a6 bc be 6b 19 3d 10 3d 9d 3d
       -0.0850317 -0.02030647 0.037456267 0.076776624
000260 88 e3 d7 bd d8 3a 40 3d eb d3 cb bc 8b 86 ca 3d
       -0.10541445 0.046931118 -0.024881324 0.09888943
000270 7e 09 04 be c0 f0 b1 bd f0 66 f2 3d 40 11 d9 bd
       -0.12894246 -0.086884975 0.1183604 -0.10598993
000280 16 54 a1 bd 4f dd 9d 3d 26 23 5b 3e 60 4f f6 3b
       -0.07877366 0.07708227 0.21400127 0.0075167865
000290 39 42 bc 3c 45 cf 2d 3c 4c a3 c3 bc fa 70 fd bc
       0.022980796 0.010608499 -0.023881577 -0.03093766
0002a0 a6 44 08 be 45 32 49 be 0d 57 0d 3e 76 db 0f be
       -0.13307437 -0.19648083 0.13802738 -0.14048561
0002b0 7c ef 1c be 57 5e e4 bc e4 a4 92 3d 61 67 8e 3d
       -0.15325731 -0.027877016 0.07160357 0.06953312
0002c0 9e b5 2b 3e 1a 65 00 be 60 96 a6 bd 6a 58 17 3e
       0.167685 -0.12538567 -0.081341505 0.14779821
0002d0 10 d4 4f 3d 6a 1c f5 3d 8b 80 45 bd 22 14 16 bd
       0.050739348 0.1196831 -0.04821829 -0.036640294
0002e0 93 53 9e bd f1 90 0d be 58 b7 dd 3c 91 f9 d8 bc
       -0.07730784 -0.13824822 0.027064964 -0.02648619
0002f0 49 4a 10 bd 39 66 cb 3d 7e 3b c4 3c 50 2d bf 3d
       -0.035227094 0.09931607 0.02395415 0.093348145
000300 78 ee a8 bd 8f 0e 4f bd 5a fc 88 3d 95 fc 9f 3d
       -0.08248609 -0.050550994 0.06688757 0.07811848
000310 65 f8 8b bd 63 66 81 bc 9a 9c 41 3e b5 86 b9 3d
       -0.06834487 -0.015795892 0.18907395 0.090588965
000320 5f 0b 08 3d 8c 6a 62 3e ae 33 4f 39 61 4f ef 3d
       0.03321397 0.22110957 0.0001976031 0.11685062
000330 38 b8 45 bd dc 1e 24 be bb 84 d2 3d 13 c0 1b bd
       -0.048271388 -0.16027397 0.102792226 -0.038024973
000340 2d e2 3a 3e 89 fa ba bd 54 8b 98 bc 19 58 1a bd
       0.18250342 -0.09129817 -0.018621124 -0.037681673
000350 e3 1d 76 3d 78 7c 38 bd b5 0f 1c bc eb d7 d0 bc
       0.060087096 -0.045040578 -0.009525229 -0.025493583
000360 b9 c9 81 bd 71 fc d0 3d fe 42 51 bd 80 a1 9f ba
       -0.06337304 0.102043994 -0.05108928 -0.0012178868
000370 08 35 11 3b 9b aa 83 bd ed b5 c2 bd fd 92 1f 3e
       0.0022156853 -0.06429025 -0.09507356 0.15583415
000380 e0 49 f3 3d ab 4a 0b 3d ec 39 c9 bc fb 43 51 3d
       0.11879325 0.034006756 -0.024563752 0.05109022
000390 65 c9 1c bd 4c 21 8a 3d 50 54 2c 3d d0 c3 3d bd
       -0.038278002 0.06744632 0.042072594 -0.04632932
0003a0 e2 07 1e be f6 23 72 ba 99 eb 57 be d2 b2 45 be
       -0.15432695 -0.0009236926 -0.21085967 -0.19306496
0003b0 24 6a 58 bd d8 e5 f2 3a cd 2f ca bd da 9c 86 bc
       -0.0528356 0.0018531634 -0.098723985 -0.016432215
0003c0 a2 78 b5 bc 63 f5 40 bd fc b0 d4 3c 5d 0c 04 be
       -0.022152249 -0.04710902 0.025963299 -0.12895341
0003d0 17 bc 4e bc 31 07 b1 3d 1f 11 d4 3c 4e 2d 86 3d
       -0.012618086 0.0864395 0.02588707 0.0655161
0003e0 e4 ec 92 bd 07 36 9c 3c 10 6c 25 bd 29 01 a7 3d
       -0.071740896 0.019068731 -0.04038626 0.08154518
0003f0 4e ec 1d bd ef 8f da 3d 3e 75 ef 3d 7f 8f 4c bd
       -0.038555436 0.106719844 0.11692284 -0.049941536

network_body._body_endoder.seq_layers.2.bias f4 [128]
000000 4f cd 19 bd c5 b9 40 bd 62 e9 c8 3b f6 7d d1 bc
       -0.037549313 -0.047052164 0.006131337 -0.025572758
000010 4b 06 6c bc 92 61 ff 3c 2e b8 44 bb 51 5c 0d bd
       -0.014405797 0.031174455 -0.0030017006 -0.034511868
000020 bf a8 15 bc 53 05 26 3d 31 b8 31 3b aa 1d b2 bb
       -0.0091344705 0.04053242 0.0027117843 -0.005435665
000030 3a ab cc 3b c6 ca 09 bc b1 5e 49 3d a3 8f 33 3d
       0.0062459977 -0.008410161 0.04916257 0.043838155
000040 48 33 0b bd 02 fb 50 bb ad d3 b9 bb d0 6a eb 3b
       -0.033984452 -0.0031887894 -0.0056709857 0.007184364
000050 26 ee 51 bd 37 7d a5 bb b4 f1 16 3c 9f d1 8f bb
       -0.051252507 -0.005050327 0.0092129 -0.0043890025
000060 f0 1d 39 33 91 d7 dc 3c 09 e0 b8 3a a4 1a 50 3d
       4.3100897e-08 0.026958259 0.0014104854 0.050806656
000070 d6 4c 6e bb 53 cb 28 bb 6a d3 74 bc 73 37 0c 3d
       -0.0036361716 -0.0025755956 -0.014942983 0.034232568
000080 3c 9f 4b bd 10 4e f8 bb 37 da f5 3b af f6 09 3b
       -0.049712405 -0.007577665 0.00750282 0.0021051576
000090 a6 5d 96 bb 1f 8a d7 3b 5b 1c 66 bb c7 9e e2 bb
       -0.0045888005 0.0065777446 -0.0035112116 -0.0069159004
0000a0 a3 9a 4a bc 96 83 5d bc b3 e7 86 bb a8 d3 ea 3c
       -0.01236597 -0.013520142 -0.004116976 0.028665379
0000b0 c8 2b 93 3c 7f 5c 10 bc c9 9d 16 bc eb c6 1a bd
       0.017965212 -0.008811115 -0.009192892 -0.03778736
0000c0 8a 92 0e 3d 70 d2 29 bc 5f ad 95 3b ef b1 a2 3a
       0.03480772 -0.010365114 0.0045677866 0.0012412647
0000d0 1c 36 3e bd 05 75 8c b9 a4 3a 2b bc 37 b2 a1 ba
       -0.04643832 -0.00026790067 -0.010450993 -0.0012336437
0000e0 a6 01 e0 3b 58 01 8a bc ab a6 6a bc 6f 7d 6d bd
       0.006836134 -0.016846344 -0.014321963 -0.05798095
0000f0 9a 04 89 bc f3 c2 3f ba 01 f7 38 3d 87 db 9d bb
       -0.016725827 -0.00073151215 0.045157436 -0.0048174295
000100 a7 21 05 bc 37 21 d4 bc 3f 3f 3e bd 8e ab e4 bb
       -0.008125699 -0.025894744 -0.046447035 -0.0069784587
000110 8e 75 2f 3d c1 b9 15 bd 31 1e 36 3d 9f 78 d6 b7
       0.04283672 -0.0365541 0.044462387 -2.5566957e-05
000120 19 d8 c7 3c 54 f5 44 bb d3 22 b1 3b 64 ac 24 3d
       0.024395036 -0.0030053454 0.0054057627 0.040203467
000130 9b 52 cb 3c e5 1a bc bc c1 0c 6a bb 0a c7 1c 3d
       0.024819663 -0.022962043 -0.0035713168 0.038275756
000140 17 c8 09 3d 38 ec 87 bb fd 42 cd bb df 71 8c bc
       0.033638086 -0.0041480325 -0.006264089 -0.017144142
000150 7e ad 38 3d 06 e1 04 35 18 87 26 bb 0c b5 4f bd
       0.04508733 4.9501284e-07 -0.0025410112 -0.05070977
000160 96 a4 15 bd fb 95 be 3c f5 f6 be bb 85 44 85 ba
       -0.036533915 0.023264876 -0.0058277794 -0.0010167515
000170 4f cd 8b ba 1b f8 c0 ba 0a cb c3 3c 8f e4 98 bb
       -0.0010666045 -0.0014722379 0.023900528 -0.004665918
000180 e5 68 3a bd 9e e8 4a bb ce 7d c1 3a c0 65 c1 3b
       -0.04551019 -0.0030961405 0.0014762224 0.005902022
000190 a0 d7 f7 bc da 09 7a 3d 97 f8 b6 bc fa 3f e9 3c
       -0.030254185 0.06104455 -0.022335334 0.02847289
0001a0 04 47 c0 b5 01 7f cf 38 ba 88 c9 ba 9f 3b d4 b9
       -1.4325783e-06 9.8941855e-05 -0.0015375831 -0.00040480212
0001b0 29 37 2f 3c fe 79 17 3c a6 37 b4 bb ae 91 30 bd
       0.010694304 0.009245394 -0.005499798 -0.04310768
0001c0 33 99 35 bc 93 db 88 36 96 d1 bf bb c1 50 2b 3d
       -0.011083889 4.0786776e-06 -0.005853842 0.04182506
0001d0 16 ef 2c 3d d2 cf 61 bc f7 b4 b4 ba a8 89 32 bd
       0.042220198 -0.013782458 -0.0013786842 -0.04358831
0001e0 09 67 d9 bb b4 09 51 3b a6 0e 2a bd cf 48 7b 3b
       -0.006634597 0.0031896653 -0.041517876 0.0038342958
0001f0 50 60 d0 bb 81 d9 22 3d 72 68 5a bc 9e 35 e4 bc
       -0.0063591376 0.03975821 -0.013330566 -0.027857598

action_model._continuous_distribution.log_sigma f4 [1, 2]
000000 5f 34 14 be 0e 29 1a be
       -0.14473103 -0.15054724

action_model._continuous_distribution.mu.weight f4 [2, 128]
000000 5b 0f 02 bc b3 9b fa bb e8 4c 8e bc 88 2f 18 37
       -0.007938231 -0.0076479553 -0.017370656 9.070973e-06
000010 cf 61 2d bc a9 73 6f 3b b0 64 15 3b 5b c9 4d bc
       -0.010582401 0.0036537445 0.002279561 -0.012560214
000020 6f a6 a4 bb de 2b b2 3c db a6 18 bd 23 26 b7 3c
       -0.0050247232 0.021749433 -0.0372685 0.022357052
000030 05 08 92 3c 70 69 12 bc 8f a0 9e 3c e7 c2 38 3c
       0.01782609 -0.008936271 0.01936367 0.011276937
000040 c8 c0 4c bc 44 b1 e6 b9 3d a7 96 bc fc f6 c6 3b
       -0.0124971345 -0.00044001092 -0.018390292 0.0060719233
000050 40 26 1b bc a8 e7 8b 3b f3 f5 70 bc e0 ce 1d bc
       -0.009469569 0.004269559 -0.014707076 -0.009631842
000060 3c d2 86 3c 9b c5 71 3a cc 83 6f bc 5a 0a 0b 3d
       0.01645767 0.0009222866 -0.014618825 0.03394542
000070 9b 8b 1f 3c aa 77 b9 3b f0 ce 3f 3a 4e 0b 9b 3b
       0.009737874 0.005660017 0.0007316908 0.0047315722
000080 f7 3d f3 bc 5c 29 13 bd 33 0a 13 3d 0c 9d 8a 3b
       -0.029692633 -0.035928115 0.0358984 0.004230147
000090 5a d0 39 3b 1b 96 c2 3c 84 ac 34 3c e9 28 b2 ba
       0.0028352947 0.023753216 0.011027459 -0.0013592514
0000a0 1f 3d b4 3b f1 91 b1 bc 77 8e 10 bc cc c3 77 3b
       0.0055004503 -0.021676036 -0.008823029 0.0037805913
0000b0 c2 ae 59 3b 3b 32 69 ba bf 89 31 bc a0 dd 4a 37
       0.0033215736 -0.00088957296 -0.010836064 1.2091739e-05
0000c0 55 82 0b 3d fc d8 a1 bb 80 af 94 3c 18 b9 98 3c
       0.03405984 -0.0049391966 0.018150091 0.018642947
0000d0 c3 ae bc bb 4f eb 88 bb 35 41 aa bb e2 d0 88 bc
       -0.005758138 -0.0041784416 -0.0051957616 -0.016701166
0000e0 4c 7b 5c 3c e3 9a 00 bd d2 42 98 bc 01 52 e8 bb
       0.013457131 -0.03139771 -0.01858655 -0.0070898538
0000f0 2c c7 8d 3a 54 ad ca 3b 73 ef 47 3c f5 56 8d bc
       0.0010816804 0.006185213 0.012203085 -0.017253378
000100 06 7a 96 bb 92 b4 4f bb 9a 35 f6 ba 95 71 02 3c
       -0.004592183 -0.0031693322 -0.0018784285 0.00796165
000110 02 57 36 3c 6d e0 24 bd 67 be 9d 3c c5 3c cd 3b
       0.011129143 -0.04025309 0.01925583 0.006263348
000120 f3 c4 c5 3b 49 e9 f3 bb c2 0e 07 bd e6 f5 05 3c
       0.006035441 -0.0074435812 -0.03297306 0.008176303
000130 e4 45 5f 3a a3 02 1c 3c 18 7b f0 3b 2e bc da 3b
       0.00085171894 0.009522113 0.0073388927 0.006675265
000140 16 62 47 3c 21 5d c2 3a 9d 50 c4 ba 18 07 ba 3b
       0.012169382 0.001482878 -0.0014977638 0.005677115
000150 a3 ad a0 3c dc 54 9a bc ce 82 af bc c7 16 1b bb
       0.019614046 -0.018839292 -0.021424677 -0.00236647
000160 87 a9 24 bd 68 53 86 3c a2 c6 1f bc 30 03 23 3c
       -0.040200736 0.016397193 -0.009751948 0.00994949
000170 3b 6e d4 3b 42 3a 8f bb f1 d2 86 39 c9 fd d5 bc
       0.006482867 -0.0043709585 0.00025715635 -0.02612199
000180 1b 57 eb bc 24 b5 29 3c 74 45 72 3b 22 85 6b bc
       -0.028728059 0.010358129 0.0036967667 -0.014375003
000190 67 90 9a bb 37 88 08 3d d9 5c 13 3b 94 b5 b4 39
       -0.004716921 0.03333303 0.0022485761 0.00034467562
0001a0 9e f9 b0 3c 3e 43 db 3b 2a ed bb 3b 2a 57 97 ba
       0.021603402 0.0066913655 0.0057350593 -0.0011546363
0001b0 e0 5f 54 3c d6 d0 19 3b 8b 00 91 3a b6 20 f2 bc
       0.0129623115 0.0023470423 0.0011062784 -0.029556613
0001c0 9c d9 d1 bc a5 a1 83 3b 89 c8 0f bd 03 33 5a 3c
       -0.02561646 0.0040170723 -0.035103355 0.013317826
0001d0 84 0f 41 3c be 28 1a bb 38 7c 6c 3b 5c 3c ff bb
       0.011783484 -0.002352282 0.0036084782 -0.007789178
0001e0 09 33 c1 bc 74 9a 67 3c 17 dc da bc 05 fe 1e 3c
       -0.023583906 0.014135946 -0.026716275 0.009704118
0001f0 81 36 32 bb 5f af ca 3b 69 71 a9 bb 19 54 28 bd
       -0.0027193131 0.0061854566 -0.0051709902 -0.041095827
000200 fa 55 6e bb 8c 64 e8 3c 2b 49 37 3c 53 d0 ad 3c
       -0.0036367164 0.028368257 0.011186878 0.0212175
000210 8c 54 ea 3c 85 13 77 bb 5d f3 35 bb dd ee 3a bb
       0.028604768 -0.0037700844 -0.0027763464 -0.0028523721
000220 89 3f 0b 3c de 30 4e bc 1b 84 01 3c 48 0d 8f bc
       0.008499035 -0.012584893 0.007905032 -0.017462388
000230 c7 3a 46 3b 9d ea 54 3c bc e7 35 bc 59 51 27 bc
       0.0030247436 0.012995389 -0.011102613 -0.010212266
000240 f7 0b ce 3c 62 46 30 bc f3 08 98 3c ce aa f7 3b
       0.02515219 -0.010758968 0.018558955 0.0075582033
000250 74 ef ad 3c 29 73 9d 3c 79 4a 6b bd 47 8e 58 bc
       0.021232344 0.019219952 -0.05744407 -0.013217515
000260 a7 96 7f bb a1 d5 db ba 17 b5 82 bc c3 cc c7 bc
       -0.0038999708 -0.001677204 -0.015955491 -0.02438963
000270 f4 4c ad 3c 31 3f 64 3c f4 fb df 3a b1 44 5c bc
       0.021154858 0.013931082 0.0017088638 -0.013444112
000280 24 fa ae 3c 25 85 b5 3c 39 43 c5 bb eb 53 e3 bb
       0.02135951 0.022158215 -0.0060199765 -0.006937494
000290 d7 49 38 3c c4 3c f7 bb b7 d4 aa 3c 88 9a 86 3c
       0.011248074 -0.0075450856 0.020853383 0.016431108
0002a0 09 11 60 3c 43 b5 1c 3d ce 39 d7 bc 08 bf 36 bc
       0.0136759365 0.038258802 -0.02627268 -0.011153944
0002b0 89 dc 3a 3b d1 dd 25 3c bd 73 82 3a cc 3c 47 3c
       0.0028512797 0.010123686 0.0009952706 0.012160491
0002c0 66 cd 0b 3c a8 02 eb bc 64 50 3c bc 3d 1e dc 3c
       0.0085328575 -0.02868779 -0.011493776 0.026869887
0002d0 3f 36 f7 ba 6b 3f 92 3c 92 98 b9 ba 28 7a b1 3b
       -0.0018860771 0.017852506 -0.0014159849 0.0054161735
0002e0 ba b6 51 3b 5e 11 4d 3c 31 c1 21 3d 46 1e 98 3c
       0.0031999783 0.012516348 0.039490882 0.018569123
0002f0 c4 14 29 3c d6 21 4b bb 41 d2 2d bc 9b c8 99 3c
       0.010319892 -0.003099551 -0.0106092105 0.018772414
000300 31 5d e2 3b a2 d9 2e bb c3 1f 35 3b b1 5e 88 bc
       0.006908082 -0.0026680012 0.002763734 -0.016646715
000310 3e 67 97 3b 8b dc 63 bb 72 e8 10 bc 38 32 0c bc
       0.0046204617 -0.0034768905 -0.008844482 -0.008556895
000320 1b 44 0e 3b 05 0d 74 bb 8a ed 0a 3d 6e d3 16 bb
       0.0021708074 -0.0037239206 0.03391794 -0.0023014206
000330 6f a6 3f b9 86 b1 be 3b 52 0a 73 bc 3c 53 29 bb
       -0.00018277181 0.0058195023 -0.0148340035 -0.0025836965
000340 6c b5 9c ba f0 e5 8a 3c 59 c6 b2 bb e9 37 af 3c
       -0.0011955923 0.016955346 -0.005455774 0.021388965
000350 60 76 a0 bc 09 b4 22 bd 9a d1 07 bd b3 ac 1d 3c
       -0.019587696 -0.039722476 -0.033158876 0.009623694
000360 fe 1c b5 ba 94 58 c3 ba 06 99 19 bc fd a1 e1 bc
       -0.0013817844 -0.0014903718 -0.009374863 -0.027543062
000370 ff 20 30 3c 96 ad 36 3c 9b 5a 5c bc e7 ea da 3c
       0.010750054 0.011149785 -0.013449336 0.026723338
000380 18 6f 60 3b 52 ef ac 3c 3a 0f ee bc ab 1a be bc
       0.0034245905 0.02111021 -0.029059995 -0.023206076
000390 75 cf 01 3c c6 89 d3 bb b1 13 83 3c 4c dd 5d bc
       0.007922997 -0.006455633 0.0160006 -0.013541531
0003a0 21 23 1d 3b db d6 1c 3c ea 15 0f bd 11 98 74 3c
       0.0023977237 0.00957271 -0.03493301 0.014928834
0003b0 a2 17 f0 3b 89 82 c6 3a b6 4b 8a bc 7f 72 89 3b
       0.007327036 0.0015145104 -0.016881805 0.004194557
0003c0 53 d8 44 3c 16 32 02 bc ba 89 12 3d 1b a3 3c bc
       0.012014466 -0.007946512 0.035775878 -0.011513497
0003d0 57 de 09 bc 32 5f 8d b9 e5 77 73 3a cc 60 2f 3d
       -0.008414826 -0.00026964542 0.000928758 0.042816922
0003e0 46 6b b6 bb c8 d1 51 3a 4b 8f 1f bb 3d 8c 09 3c
       -0.005566987 0.0008003977 -0.0024346884 0.008395252
0003f0 ce b4 93 bb 81 fc d1 bc 8d 4a 6e ba 77 14 af 3b
       -0.0045076376 -0.025633099 -0.00090900884 0.005343016

action_model._continuous_distribution.mu.bias f4 [2]
000000 9b 06 1d 3d 79 b4 e6 bc
       0.038336378 -0.028162228

action_model._discrete_distribution.branches.0.weight f4 [1, 128]
000000 7a 09 d3 bb 7f 81 19 bc 86 bc 80 3a 0b e4 8c 3c
       -0.0064403387 -0.009369253 0.0009821809 0.017198583
000010 49 d5 26 3c 63 e8 7a bb 68 9c 00 ba 0f d3 0f 3c
       0.010182687 -0.0038285486 -0.0004906119 0.008778348
000020 c7 c7 17 3c 6f e7 46 3c 46 77 48 ba e5 a7 6b 39
       0.009263939 0.012140139 -0.00076471677 0.00022473892
000030 c7 78 c4 ba 12 32 1a 3c 6f f4 3b 3a 2f 69 97 3c
       -0.0014989608 0.009411352 0.00071699073 0.018482773
000040 61 58 20 3c eb e0 c0 3c 5a 3b ad bb 29 85 37 3b
       0.009786696 0.02354475 -0.0052866163 0.0028002954
000050 82 ad 23 bc 4b 08 d9 bb d7 2f bd 3b 17 aa d4 b9
       -0.009990098 -0.006623303 0.005773525 -0.00040562518
000060 5b 0c a4 bb d0 ba da bb c5 72 3a bc 92 d7 cd bb
       -0.0050063557 -0.006675102 -0.011379902 -0.0062818015
000070 5e 03 c5 bb 7b f2 1c bc 5a 25 87 3c 6b bd bd 3b
       -0.0060123643 -0.009579296 0.016497303 0.0057904026
000080 d2 a5 09 3d 07 b9 99 3b 03 bb b4 ba 0e 8a 94 bb
       0.033605404 0.0046912464 -0.0013788644 -0.004533059
000090 5a 89 49 bb b7 aa 2e 3c 98 50 7f bb b3 2f 66 bb
       -0.0030752034 0.010660819 -0.003895795 -0.0035123646
0000a0 4b 42 f4 3a 60 f5 eb bb f1 92 1e 3c 44 20 a1 3c
       0.001863548 -0.007200882 0.009678588 0.019668706
0000b0 8f a7 0a bc 40 f3 28 3c 3b 07 e0 bb 89 dc 24 bc
       -0.008462801 0.010311902 -0.0068367994 -0.010062345
0000c0 57 2c 93 3c 7b 3e a4 bb 18 fb d1 b9 77 11 d0 bb
       0.017965479 -0.005012331 -0.00040050666 -0.006349738
0000d0 b2 c1 45 3c 3b 9d a6 bb 2b f6 f9 b9 7c 32 c2 3a
       0.012070106 -0.0050846613 -0.0004767639 0.0014816071
0000e0 cd 9b e2 bb 57 a7 09 3c 0a f4 79 ba 15 65 3a bc
       -0.0069155456 0.008401713 -0.0009534961 -0.011376639
0000f0 f2 2b 60 3a 07 63 06 3c 18 bf 65 bc 22 f8 8e 3b
       0.000855147 0.008202321 -0.014022611 0.004363076
000100 02 81 6c bb 1a 8a cd bb 54 99 12 3b f9 e8 80 3b
       -0.0036087637 -0.0062725665 0.0022369223 0.0039340225
000110 f6 ab 87 bb ab cb 29 3c 97 1a 83 bc b7 4e 4f 3c
       -0.0041403724 0.0103635 -0.01600389 0.012653044
000120 b6 9d 48 3b c3 91 3d bc d4 40 8f 39 e2 84 75 bb
       0.0030611581 -0.011570397 0.00027323386 -0.0037463238
000130 17 bc aa 3b 9d fc 5e bc 1a 77 d4 3c c6 7f 26 3b
       0.0052104103 -0.013610032 0.025935698 0.0025405749
000140 17 ec 3b 3b b4 02 b8 bc 05 e3 69 3b e9 fd 1a 3c
       0.0028674656 -0.022462226 0.0035688293 0.009459951
000150 42 cf a4 3b f7 8f 9f bb 2d 34 fd 3b 1b 0a 0e bc
       0.00502959 -0.004869457 0.007727167 -0.0086694015
000160 d3 aa e0 3b 76 8c 39 bc e3 4a 3b 3c 08 44 d3 bb
       0.0068563013 -0.011324992 0.011431429 -0.006447319
000170 14 fb 9e 3b 7e 76 26 3c c7 b3 94 3b a9 25 22 bb
       0.004851708 0.010160087 0.0045380327 -0.0024741685
000180 d1 bc 34 3c 00 f3 b0 3b af 46 45 3c 3f ea 02 3c
       0.011031345 0.0054000616 0.012040778 0.007990419
000190 ee 71 4b 3b f3 73 fc bb 68 d5 0f bc 6f 85 07 bc
       0.003104325 -0.007704252 -0.008778907 -0.008271559
0001a0 7f 61 28 3a a7 b1 2c 3c 67 39 5f ba bc 7f 48 bc
       0.00064232195 0.0105404025 -0.00085153285 -0.0122374855
0001b0 5f ef 2f bc 59 94 0d 3c 1b 6f 4c 3c 7d 7a 41 3b
       -0.010738223 0.008641326 0.0124776615 0.0029522472
0001c0 cf 2f 4f bc 70 28 44 3a 1b 2d 9e 3c a7 ef ad 3a
       -0.012645676 0.00074828323 0.019308617 0.0013270275
0001d0 41 74 13 bc 72 c5 48 bb 6a 5d 30 3c 9b e8 78 3c
       -0.008999885 -0.0030635265 0.010764459 0.015192176
0001e0 7d fd d6 bb 35 ce f0 3b b3 9c 43 3c 63 4f a1 3b
       -0.00656098 0.0073488005 0.0119392155 0.0049227937
0001f0 be 5e 90 3b 96 11 34 ba 20 ec dc 3a e5 27 26 bc
       0.0044058254 -0.00068690756 0.0016855039 -0.010141348

exp_avg f4 [128, 13]
000000 90 b7 bc 39 04 0a 8a 36 b1 3d 99 3a 99 b6 02 33
       0.0003599492 4.1138865e-06 0.0011691359 3.0434055e-08
000010 d8 2d 8a 35 b0 b8 f6 b2 4f 8c 45 37 8a 38 c7 32
       1.0295144e-06 -2.8722155e-08 1.1774783e-05 2.319236e-08
000020 7e e0 96 b6 71 61 4b 33 64 22 1f 32 d4 77 d1 32
       -4.4964827e-06 4.7353243e-08 9.262838e-09 2.4385294e-08
000030 21 7f 4e b3 be 3b 20 bb 17 78 6a b8 05 bf a0 3b
       -4.8078736e-08 -0.0024449672 -5.590179e-05 0.004905584
000040 a4 ba 86 33 d4 d1 ab 38 f3 48 9a b3 d4 63 e3 b8
       6.273811e-08 8.192999e-05 -7.184453e-08 -0.00010842798
000050 85 4d 4d 34 a7 bd 88 36 cc d7 1c b5 9d 70 06 b5
       1.9120314e-07 4.0751943e-06 -5.8428554e-07 -5.0082764e-07
000060 a0 22 0d b3 06 e4 9e b4 d4 ad 21 39 fc bc 5c 36
       -3.2860612e-08 -2.9595702e-07 0.00015418913 3.2892558e-06
000070 34 60 19 bb 32 3f 8a b2 9c 72 fd b7 05 0b b7 32
       -0.0023403289 -1.6094052e-08 -3.021332e-05 2.1309015e-08
000080 57 91 1c 38 10 0b a2 b3 87 1c 52 b6 08 f9 38 34
       3.7328657e-05 -7.545725e-08 -3.1309044e-06 1.7226932e-07
000090 2e c8 16 34 07 e6 2f 32 16 46 d0 33 a6 2f ac 3b
       1.4042664e-07 1.0238643e-08 9.698503e-08 0.0052547036
0000a0 e4 7a 74 38 e9 bf 89 bb 8f 54 cc b3 30 40 49 b8
       5.8288584e-05 -0.0042037857 -9.5148714e-08 -4.7981914e-05
0000b0 9c 0f 9b 33 00 8b 81 38 3d ae 83 b4 70 f2 b4 37
       7.220589e-08 6.17709e-05 -2.4527426e-07 2.1570566e-05
0000c0 f1 a3 b7 34 7d 62 97 34 4c 78 bd 32 b1 4f ab 34
       3.420569e-07 2.81976e-07 2.20572e-08 3.1909215e-07
0000d0 23 11 df 36 c6 19 29 b3 24 c4 37 37 4c dd ec 2b
       6.647913e-06 -3.937182e-08 1.09533175e-05 1.6830231e-12
0000e0 10 a3 9c 33 ee 29 9c ac 06 6f 2a b3 37 17 bc ae
       7.293977e-08 -4.438442e-12 -3.9682185e-08 -8.553374e-11
0000f0 60 ed 25 30 50 4f 89 2f 93 9b 22 2f 68 f6 ca 2d
       6.036398e-10 2.497651e-10 1.4789085e-10 2.3074168e-11
000100 64 16 03 ae e3 f3 48 3c 00 37 38 34 60 57 82 3b
       -2.980584e-11 0.012265178 1.7156344e-07 0.003977701
000110 66 09 bc b1 7e 4b bc 37 9e 53 14 32 c8 64 b7 b6
       -5.4725886e-09 2.24465e-05 8.633746e-09 -5.4655575e-06
000120 60 b7 4e 32 4c 8e 91 35 1f 98 0c b4 f1 66 49 b4
       1.2032473e-08 1.0844756e-06 -1.3093857e-07 -1.8757034e-07
000130 af 2d da 33 e8 ad ae b2 a0 f8 de bc 04 b0 1d b9
       1.0159726e-07 -2.033535e-08 -0.027218163 -0.00015038258
000140 ba ab db bb 00 f3 1e 34 cf 66 9c 37 b2 bf 8a b3
       -0.006703821 1.48033e-07 1.8644523e-05 -6.460995e-08
000150 db b6 7c b8 62 d5 02 35 a1 84 8b b8 af db 07 b5
       -6.025178e-05 4.8739287e-07 -6.6527406e-05 -5.06111e-07
000160 32 70 e7 b4 01 2c 4c b3 89 24 20 b5 10 88 a8 b9
       -4.3108736e-07 -4.7537473e-08 -5.965781e-07 -0.00032144831
000170 d6 46 2d 36 3d 0e 1b ba 96 be e7 ae 0a 98 8b b6
       2.582024e-06 -0.00059149024 -1.0538519e-10 -4.1602225e-06
000180 4a 90 55 ae 04 1e 45 36 8b ac fa 31 18 8e e2 b2
       -4.8558747e-11 2.937276e-06 7.2955735e-09 -2.637448e-08
000190 19 91 2b 33 76 44 fb 32 10 c6 3b b0 61 bf 0d b2
       3.9946006e-08 2.9251378e-08 -6.831167e-10 -8.250795e-09
0001a0 d9 ac 8e 32 02 1e 17 ae a1 1b 84 31 3e 6c b0 a9
       1.6609578e-08 -3.4360077e-11 3.8448467e-09 -7.834747e-14
0001b0 43 d5 ba ab d9 5e 24 a9 51 40 68 ae 1b fa 04 29
       -1.3275287e-12 -3.6497582e-14 -5.2807817e-11 2.952682e-14
0001c0 92 e2 04 2e 86 38 79 a9 2a 7e 1c a9 7e 6a e6 a6
       3.021456e-11 -5.5338133e-14 -3.4748388e-14 -1.5988321e-15
0001d0 28 29 b1 a8 c1 0a 46 bd 90 c2 18 b9 22 2c aa bc
       -1.9668796e-14 -0.0483501 -0.0001456833 -0.020772997
0001e0 7c 47 a2 34 64 7e a6 b8 42 00 54 b4 f9 6b a4 38
       3.0226863e-07 -7.939039e-05 -1.9744132e-07 7.840241e-05
0001f0 ff 54 c8 34 c3 d9 e9 b8 71 f3 7b 34 a8 5b c3 32
       3.7314746e-07 -0.00011150867 2.346476e-07 2.2742668e-08
000200 38 06 03 34 69 0e 1b b5 8a a5 3d bc 6c 53 e5 b8
       1.2202588e-07 -5.776297e-07 -0.011575112 -0.000109351095
000210 bc c9 0c 39 05 ea b1 33 a3 22 02 38 af b2 ec b2
       0.00013426592 8.284773e-08 3.1026673e-05 -2.7555272e-08
000220 b4 e3 6a b8 52 9d c2 34 dc f1 29 b8 7e 59 e3 b4
       -5.6002013e-05 3.6249781e-07 -4.051799e-05 -4.234716e-07
000230 c7 f6 b7 b4 0a c0 58 b3 16 15 e7 b4 8d 1f 42 a3
       -3.426596e-07 -5.0466078e-08 -4.3042445e-07 -1.0523442e-17
000240 a7 da c8 a0 4e 7c 7b 24 ac 3e ac 19 bd 95 28 21
       -3.402601e-19 5.453224e-17 1.7809696e-23 5.711879e-19
000250 23 c9 96 99 b6 d1 82 a0 c2 dd 85 1c 4e 3e ef 99
       -1.5590875e-23 -2.2161632e-19 8.858525e-22 -2.4737185e-23
000260 f9 9a 93 9d ac 57 3c 9d 84 cd d7 9a 99 c1 7f 9c
       -3.9070814e-21 -2.4926918e-21 -8.9253944e-23 -8.462264e-22
000270 9c 86 22 3d d5 f7 67 39 ae 2b 21 3c 35 e6 84 b4
       0.039679155 0.00022122201 0.009837074 -2.4754414e-07
000280 1e 50 54 b7 d8 b7 07 34 ed a5 8f 38 7d a6 26 b5
       -1.2654838e-05 1.2639737e-07 6.8496774e-05 -6.208209e-07
000290 6d c8 d7 38 24 7a 3b 35 d1 31 25 35 6c c1 80 b1
       0.00010289331 6.9840667e-07 6.153978e-07 -3.74728e-09
0002a0 cc 47 57 35 76 f6 7c bc e6 4f 10 b9 c8 19 0d 3b
       8.019822e-07 -0.01543962 -0.00013762675 0.002153026
0002b0 09 cf 0e 34 ae 7f 63 38 43 46 9e b3 1c a5 8e b8
       1.33001e-07 5.423993e-05 -7.370229e-08 -6.801842e-05
0002c0 98 c7 d8 34 99 3a 55 b8 b0 0b 1f b5 53 8c 08 b5
       4.037836e-07 -5.083773e-05 -5.9249123e-07 -5.0868147e-07
0002d0 40 5e d4 af 0b ea 03 b5 25 07 87 28 61 74 8b 24
       -3.8629544e-10 -4.914188e-07 1.499111e-14 6.0478794e-17
0002e0 20 6c 19 27 74 51 ff 9e b2 cd 0b a4 c5 64 48 1f
       2.129163e-15 -2.7032863e-20 -3.031505e-17 4.2435002e-20
0002f0 80 7a 00 25 33 ba 12 a2 b4 e4 c0 22 27 9a b9 a2
       1.1143735e-16 -1.9885263e-18 5.2283853e-18 -5.0307566e-18
000300 ab 79 a9 a2 29 d9 f3 a0 8c 4c a2 21 c8 53 1d b9
       -4.5936363e-18 -4.1309506e-19 1.0997809e-18 -0.00015003898
000310 97 44 8e 35 1f 5a 92 b9 b8 cc 82 ae 0f 5f ee b5
       1.0599787e-06 -0.00027914435 -5.948081e-11 -1.7760048e-06
000320 fa b2 92 2e 60 bf a6 35 4d 7c f4 af 3a cd a8 b1
       6.671104e-11 1.2423661e-06 -4.4471662e-10 -4.912775e-09
000330 a7 6e 8b 31 f0 21 15 31 fe 31 fe af 92 0b a4 2f
       4.058012e-09 2.1701645e-09 -4.6237852e-10 2.9839647e-10
000340 4f a6 5f 27 ce 9c 5c a3 57 cd 2e 27 05 70 9c 1c
       3.1037623e-15 -1.19594286e-17 2.4258666e-15 1.035217e-21
000350 f4 10 98 23 f7 d2 31 1d 39 55 a9 a3 4b da b8 1f
       1.6487053e-17 2.3534821e-21 -1.835911e-17 7.8288167e-20
000360 b4 23 b9 1f 91 83 fa 9f 75 21 8a 9f 20 62 f3 1e
       7.8409613e-20 -1.06096777e-19 -5.8500623e-20 2.576921e-20
000370 01 ca bc 9f 82 ae da ba aa 45 34 36 f4 66 fe b9
       -7.9955284e-20 -0.0016684087 2.686264e-06 -0.0004852336
000380 7e 71 be af ea 19 52 b6 4d 4b 1f b0 39 de 03 36
       -3.464144e-10 -3.1307522e-06 -5.795087e-10 1.9649872e-06
000390 3f 91 02 b2 95 b5 c7 b3 80 9a 30 33 0a d2 4c 33
       -7.600021e-09 -9.299689e-08 4.111871e-08 4.768848e-08
0003a0 85 fc a7 b2 22 1f d9 31 ae a6 b6 bb c8 88 10 b8
       -1.9556191e-08 6.3190706e-09 -0.005574069 -3.4459663e-05
0003b0 ff 14 e1 ba bd ce 0d 33 95 f6 a9 36 2a 2a 4c b2
       -0.0017172395 3.3017148e-08 5.0652984e-06 -1.188395e-08
0003c0 dc c5 9d b7 e0 e3 1f 34 fa 6e 73 b7 8b 1f 28 b4
       -1.8807994e-05 1.489093e-07 -1.4509767e-05 -1.5657695e-07
0003d0 8a 7a 0a b4 99 6e f8 b2 e2 1e 40 b4 e6 83 81 bc
       -1.2896831e-07 -2.8921294e-08 -1.7892629e-07 -0.015809964
0003e0 3b c9 c5 b8 57 cb bf bb 08 fc af 32 ac 9a e2 b7
       -9.431174e-05 -0.0058530974 2.0487292e-08 -2.7013324e-05
0003f0 7c 44 02 33 34 2f 87 37 08 25 f9 33 e6 38 25 b8
       3.033027e-08 1.6115235e-05 1.1601702e-07 -3.9392056e-05

exp_avg_sq f4 [128, 13]
000000 e8 3e 75 3b df ac 55 37 73 84 0a 3a 8d 5c 04 2f
       0.0037421528 1.2736039e-05 0.00052840187 1.2038211e-10
000010 bb 8c b5 31 15 17 9e 2e 12 25 a7 31 f0 97 85 2b
       5.2837925e-09 7.189108e-11 4.864554e-09 9.49239e-13
000020 2a e5 11 31 73 5f c9 2c 0f 50 72 2f 2e b5 00 2d
       2.1230542e-09 5.7233606e-12 2.2038214e-10 7.316188e-12
000030 8e 97 53 2e 12 a5 a5 3c e2 f9 a5 38 ae 87 fb 3b
       4.8110453e-11 0.020220313 7.9143574e-05 0.0076760864
000040 5f 69 11 30 28 e7 3e 34 98 2d 02 30 7e 1f a7 33
       5.2900434e-10 1.7779223e-07 4.7358517e-10 7.782272e-08
000050 8d 46 49 2c 42 d3 03 32 c1 0e 1d 2d c8 73 98 2d
       2.8602982e-12 7.673238e-09 8.927693e-12 1.7331817e-11
000060 54 db 38 2c 48 96 22 2e a7 69 b6 3b 7f 80 b8 37
       2.6269724e-12 3.6968012e-11 0.005566794 2.1994345e-05
000070 e8 29 c8 3a ef 9c 36 2f 3b 12 10 33 97 90 ff 2e
       0.0015271278 1.6608558e-10 3.3544193e-08 1.1621742e-10
000080 a9 04 79 32 e1 29 7e 2b b1 54 12 31 6f 06 4a 2c
       1.4494767e-08 9.0297046e-13 2.1293938e-09 2.8709498e-12
000090 d0 b0 82 2e 26 28 06 2d 64 17 bb 2d 3e ff fc 3b
       5.943124e-11 7.625933e-12 2.1269826e-11 0.007720857
0000a0 c4 af 84 37 06 58 4d 3b 19 c9 06 2f ad 14 ac 33
       1.5817473e-05 0.0031332984 1.2258673e-10 8.013135e-08
0000b0 48 92 1a 2f b8 4f 10 33 6b 8d 40 2c 0a 12 a3 31
       1.4058188e-10 3.3600116e-08 2.7363344e-12 4.745975e-09
0000c0 d5 d5 0c 2d 0d 5a 5e 2f d9 04 f9 2c 80 ff 12 2f
       8.005559e-12 2.0222775e-10 7.077544e-12 1.3369394e-10
0000d0 a0 a4 50 39 ed e1 4d 31 4f 32 2e 39 e0 df 28 22
       0.00019897753 2.995985e-09 0.00016612675 2.2886764e-18
0000e0 d2 d7 de 31 9f 94 8a 22 7d a6 8a 31 a9 7c a7 29
       6.4855863e-09 3.7562334e-18 4.035256e-09 7.437915e-14
0000f0 93 25 3c 29 29 ca 93 2a 0e 16 10 2a 7e cd 4f 26
       4.1776976e-14 2.6252722e-13 1.2797421e-13 7.2096046e-16
000100 9a ac 39 29 75 c7 62 3d 21 43 04 39 93 c4 87 3b
       4.122796e-14 0.055366 0.00012613508 0.0041433065
000110 20 ad 06 31 08 ac bf 33 8c e0 16 31 7f 62 22 34
       1.9597977e-09 8.925423e-08 2.1955513e-09 1.5123258e-07
000120 9b ec b8 2d 14 5b 61 33 28 38 90 2e 12 67 e0 31
       2.1023452e-11 5.246973e-08 6.558337e-11 6.5309758e-09
000130 f7 42 41 30 ca 42 39 2f 71 df ed 3c ca b8 49 38
       7.0308154e-10 1.684938e-10 0.02903721 4.8094233e-05
000140 56 ba f7 3b bd 1a f5 2f 1c 91 22 34 91 5f ff 2f
       0.007560055 4.458424e-10 1.5140216e-07 4.6452134e-10
000150 86 e0 b6 33 74 b4 2d 2d 59 dc a5 32 25 40 c1 2d
       8.515876e-08 9.87398e-12 1.930873e-08 2.1970046e-11
000160 c7 6d 86 30 c6 34 99 2e c6 a0 c5 2f 69 19 6f 3a
       9.780984e-10 6.967009e-11 3.5948328e-10 0.0009120913
000170 95 36 78 32 dd f0 66 3a 7f 17 1d 24 36 18 f2 32
       1.444791e-08 0.0008809695 3.406385e-17 2.8183518e-08
000180 e0 f8 25 24 c6 8c bb 32 ab 95 04 2b a1 cf 8d 2b
       3.5989477e-17 2.1833682e-08 4.7103527e-13 1.0076281e-12
000190 0d 08 d1 2b 80 cd 55 2b 9f 7f 3d 28 86 56 87 2a
       1.4852578e-12 7.595799e-13 1.0519281e-14 2.4040855e-13
0001a0 3b 35 b1 32 78 34 6f 2c e3 d2 3c 2f d7 ca 4b 28
       2.0629718e-08 3.3993069e-12 1.7173422e-10 1.1312748e-14
0001b0 e3 64 cb 28 be f3 83 27 d0 c4 c3 29 25 73 05 24
       2.258128e-14 3.662407e-15 8.693881e-14 2.893731e-17
0001c0 5e 1f 9a 29 94 48 6e 25 88 64 39 27 8b 14 ed 25
       6.844415e-14 2.06678e-16 2.5728406e-15 4.1126867e-16
0001d0 a1 4a 51 25 ae ef b6 3d a5 44 48 39 c3 b6 8c 3c
       1.8153146e-16 0.08932434 0.00019099058 0.017176991
0001e0 e2 45 cb 30 fe 8c 91 34 41 a8 d8 30 da 74 55 34
       1.4790056e-09 2.711094e-07 1.5763889e-09 1.9879681e-07
0001f0 de a9 b5 2d b0 96 93 33 58 c5 95 2e ff 7a 53 31
       2.0652754e-11 6.872631e-08 6.810791e-11 3.0774456e-09
000200 c0 5a 35 2f 54 62 78 30 1b a5 60 3c 43 3a c3 37
       1.6494095e-10 9.0361607e-10 0.013711239 2.3272942e-05
000210 4c 28 89 3b 57 22 72 2f e9 34 cf 33 cc 32 52 2f
       0.004185712 2.2021972e-10 9.648813e-08 1.9117435e-10
000220 37 4c 56 33 af 72 b7 2c e8 15 0c 32 8d 38 81 2d
       4.9895075e-08 5.2139053e-12 8.154053e-09 1.4690716e-11
000230 d2 58 2a 30 20 b3 25 2e 4c 09 5f 2f 93 90 92 38
       6.197186e-10 3.767575e-11 2.0285035e-10 6.9887516e-05
000240 ad 2b de 2f ee c3 ab 37 13 a2 8d 20 46 30 0f 30
       4.0412598e-10 2.0476025e-05 2.399358e-19 5.20917e-10
000250 a7 45 2e 21 a7 64 37 30 f5 57 e1 28 5d 93 00 28
       5.9045677e-19 6.671805e-10 2.5018163e-14 7.137382e-15
000260 16 86 09 29 38 8d 66 28 34 c4 8f 24 fd bb 74 28
       3.0536412e-14 1.2798187e-14 6.2348745e-17 1.3585484e-14
000270 35 90 87 3d 4f bf f6 38 b2 8c 7c 3c 6f 4f 84 30
       0.06619302 0.00011765828 0.015414404 9.62684e-10
000280 17 b2 a9 34 09 3a 7a 30 cc c4 49 34 85 70 a9 2d
       3.160828e-07 9.1031943e-10 1.8791178e-07 1.9263044e-11
000290 b7 f5 27 33 10 db 65 2e 55 8a 28 31 1f 57 35 2f
       3.9106194e-08 5.2263138e-11 2.452585e-09 1.6492806e-10
0002a0 0a 37 27 30 af cd 78 3c 3b 64 ac 37 51 77 ac 3b
       6.083246e-10 0.015185758 2.0550671e-05 0.005263247
0002b0 07 c4 50 2f dc a4 15 34 4c 99 d9 2e 46 44 88 33
       1.8987133e-10 1.3936682e-07 9.8952485e-11 6.3454124e-08
0002c0 89 04 aa 2c ce ca ed 31 a8 ab 5b 2d 8f df bb 2f
       4.832194e-12 6.920664e-09 1.2486824e-11 3.417395e-10
0002d0 da b0 a7 2d bd 9e 04 2f 1f 5a d5 38 13 b5 5e 30
       1.906424e-11 1.2061725e-10 0.00010173418 8.102045e-10
0002e0 2c ae 39 38 81 cc 34 21 ca df a8 30 b7 1b 97 21
       4.4269647e-05 6.125703e-19 1.2287213e-09 1.0239494e-18
0002f0 00 76 ce 30 fc 18 18 29 2a 55 87 28 da e8 98 29
       1.502201e-09 3.377245e-14 1.5024945e-14 6.790549e-14
000300 73 4a 04 29 fc 7b 29 25 ae ed a2 28 f2 29 58 3a
       2.9374462e-14 1.4700421e-16 1.808869e-14 0.00082459964
000310 86 78 b2 32 79 f3 a7 3a 9b 54 b4 23 5f 03 4b 33
       2.0776735e-08 0.0012813649 1.9551471e-17 4.7267687e-08
000320 d3 9e df 23 e9 f4 fd 32 47 61 9a 2a d4 f1 9b 2a
       2.4244973e-17 2.9564449e-08 2.7423395e-13 2.7701333e-13
000330 a4 b6 09 2c b0 74 84 2b df fe c9 27 43 04 29 2a
       1.9570257e-12 9.411551e-13 5.606504e-15 1.5011694e-13
000340 a5 6c de 2d 60 d2 1d 25 68 26 a5 2c d5 cd b8 14
       2.5286726e-11 1.3688857e-16 4.693846e-12 1.8660438e-26
000350 b2 de b5 25 19 e6 bb 16 c4 71 f6 24 4b 4e 29 1e
       3.15494e-16 3.0356691e-25 1.0687822e-16 8.962976e-21
000360 3a 78 5b 1d 30 9d 1c 1e 09 0b 68 1d 80 d6 09 19
       2.9046564e-21 8.291077e-21 3.071065e-21 7.126052e-24
000370 42 10 ad 1d c3 c0 98 3b 12 a3 9e 34 aa 9d 2f 39
       4.580953e-21 0.004661651 2.9548443e-07 0.00016748035
000380 b6 ca 8c 2f 30 29 0a 32 05 40 30 2f e1 67 54 32
       2.5609886e-10 8.042022e-09 1.6029851e-10 1.2363643e-08
000390 13 35 8d 2c e6 ce ac 31 ed 7c 28 2d 92 aa 8a 30
       4.0133535e-12 5.0293805e-09 9.5774335e-12 1.00893e-09
0003a0 ce 1f 07 2f c2 fa 45 2e 6a 86 d3 3b 2a 69 bc 37
       1.2289478e-10 4.5015332e-11 0.0064552324 2.2460317e-05
0003b0 1a 0b a6 3a 93 f1 3a 2f 9b 22 9f 32 a1 4e 0d 2f
       0.0012668103 1.7002426e-10 1.8525773e-08 1.285181e-10
0003c0 76 67 0a 32 10 09 86 2b 70 17 20 31 e8 48 f0 2b
       8.0561815e-09 9.523788e-13 2.3296387e-09 1.7073261e-12
0003d0 34 ff 29 2f 76 2d a4 2d 8a d9 18 2e fb e7 76 3c
       1.5461127e-10 1.866483e-11 3.4754012e-11 0.015069957
0003e0 16 88 37 37 ab 38 7d 3a ad 27 db 2f 89 89 c0 32
       1.0939335e-05 0.0009659628 3.986406e-10 2.2414286e-08
0003f0 44 82 81 2f 68 9e 24 33 5f 43 b5 2c 8e d4 3d 32
       2.3557523e-10 3.8328295e-08 5.151809e-12 1.1049577e-08
