results/mimicagentfinale/RaceCar/RaceCar-1024.onnx (onnx, 77961 bytes, 8 tensors)

action_model._continuous_distribution.log_sigma f4 [1, 2]
0	0x00000000	0.0
1	0x00000000	0.0

action_model._continuous_distribution.mu.bias f4 [2]
0	0x00000000	0.0
1	0x00000000	0.0

action_model._continuous_distribution.mu.weight f4 [2, 128]
0	0x3c5d8b22	0.013521941
1	0x3c9a2dc0	0.018820643
2	0xbd04a5b9	-0.032384608
3	0x3bbc43f3	0.005745405
4	0x3c868851	0.016422423
5	0x3cd22a02	0.025654797
6	0xbc7b9895	-0.015356203
7	0xbc1c8853	-0.009553987
8	0xbc488201	-0.012238027
9	0xbcbb8605	-0.022891054
10	0x3bbf6b6b	0.0058416626
11	0xb9c8566e	-0.00038211368
12	0xbc0dbfdb	-0.008651699
13	0xbb3de8f2	-0.0028977958
14	0xbcc156c5	-0.023600945
15	0xbcb32a65	-0.021870801
16	0xbbbfe972	-0.0058566863
17	0x3c1cbce8	0.009566523
18	0xbaf6d9e7	-0.001883325
19	0x3b8adc3b	0.0042376793
20	0x3c096986	0.008386975
21	0xbbf50d27	-0.0074783745
22	0xbbb8ecda	-0.0056434693
23	0x3b2f8a3b	0.0026785273
24	0xbbfc6c57	-0.007703345
25	0x3d0b8dc1	0.034070734
26	0x3c31d2fe	0.010853527
27	0xbcc47627	-0.02398212
28	0x3c12a3f0	0.008950219
29	0x3c8f26f6	0.017474633
30	0xbb8a3de3	-0.0042188033
31	0xbbf0a0aa	-0.0073433714
32	0x3c0e8c8f	0.008700504
33	0xbc92a067	-0.017898751
34	0x3cad492b	0.021153053
35	0x39bf7726	0.0003651913
36	0xbce0e255	-0.027451674
37	0x3ba3baa1	0.004996613
38	0x3ba5c3fa	0.0050587626
39	0x3cd304ea	0.02575918
40	0x3cbd35a4	0.023096867
41	0x3c788353	0.015168029
42	0xbbc5c93b	-0.0060359514
43	0x3c71093a	0.014711672
44	0xbccad936	-0.024761777
45	0xbc0a6243	-0.008446279
46	0x3ce77295	0.02825288
47	0x3a124ea6	0.00055811775
48	0xbb4fd0c7	-0.0031710134
49	0xbc076e2d	-0.008266014
50	0x3cc0eb88	0.02354981
51	0x3b601ccb	0.003419685
52	0xbb11823a	-0.0022202865
53	0x3ad2694b	0.0016053108
54	0xbc87c50a	-0.016573448
55	0xbcf56ba3	-0.029958552
56	0xbbe3e932	-0.0069552893
57	0xbcc6737f	-0.024224995
58	0xbcd29a6a	-0.025708396
59	0xbc80e49d	-0.015734011
60	0x3d057e56	0.032591186
61	0xbc159e47	-0.009131975
62	0xbc07b997	-0.008283994
63	0xbc6bf78b	-0.014402281
64	0x3b533913	0.0032230064
65	0xbcccd065	-0.025001714
66	0x3b500038	0.0031738412
67	0x3a9f4905	0.0012152499
68	0xbbf589b8	-0.007493224
69	0xbd011e79	-0.0315232
70	0xbd3aa15f	-0.04556405
71	0xbc91691f	-0.017750321
72	0xbb4aa054	-0.0030918317
73	0x3c371f0b	0.011176835
74	0xbc17e5ac	-0.009271067
75	0xbd0df9c3	-0.03466202
76	0x3ceaee2f	0.028678028
77	0xbb0db87d	-0.0021624856
78	0x3b38da8f	0.0028206443
79	0xbceb8458	-0.02874963
80	0xbcf53ebb	-0.029937139
81	0x3ca5342a	0.020166475
82	0x3c79a5fb	0.015237327
83	0x3d189904	0.037255302
84	0x3c860f19	0.016364621
85	0x3c5734dd	0.013135162
86	0x3c1a8e5f	0.009433358
87	0x3bc778cc	0.006087398
88	0xbc8feccb	-0.017568966
89	0x3b023133	0.001986575
90	0x3aaa4a9c	0.0012992206
91	0x3ccfc072	0.02536032
92	0x3c814d7c	0.015784018
93	0xbba5ecf0	-0.0050636455
94	0xb942e70b	-0.00018587352
95	0x3caffba6	0.0214823
96	0x3d3d44ba	0.04620812
97	0x3c984053	0.01858536
98	0xbce01f2a	-0.02735861
99	0x3b9c4f78	0.0047702156
100	0xbbf5f2c3	-0.007505746
101	0xbc0fd67e	-0.008779166
102	0xbd1dc6a6	-0.038519524
103	0xbc840bb5	-0.016118864
104	0xbba4b84b	-0.0050268522
105	0xbc841cb4	-0.016126968
106	0x3c7d2ca2	0.015452536
107	0xbc6d9be2	-0.014502497
108	0x3acaffb2	0.001548758
109	0x3bcf29cf	0.0063221226
110	0x3b7a6b05	0.0038210761
111	0xba8820a6	-0.0010385707
112	0x3cabbcd5	0.020964066
113	0x3c22225f	0.00989589
114	0xbd4a2da7	-0.049359944
115	0xbc0a2d9d	-0.008433727
116	0x3a1eb0db	0.0006053575
117	0xbc85559e	-0.016276177
118	0x3c133d53	0.008986789
119	0x3c09a98f	0.008402242
120	0x3b8b2315	0.0042461255
121	0x3c11cf77	0.008899561
122	0x3c2a9ca9	0.010413327
123	0x3c94d7af	0.018169252
124	0x3bc42bdf	0.005986675
125	0x3acd73f3	0.0015674814
126	0x3c8b9d8d	0.0170429
127	0xbc3bf4db	-0.011471952
128	0x3cacf0c3	0.021110898
129	0xbcb97b33	-0.022641754
130	0x3b096d46	0.0020969673
131	0xbd288a38	-0.04114744
132	0x3c2954a7	0.010335124
133	0xbd1c0fdb	-0.03810106
134	0x3c2bbeb5	0.01048248
135	0x3c98b02b	0.018638691
136	0xbc88bf37	-0.01669274
137	0x3ccaa69b	0.024737647
138	0x3bad93a4	0.005297141
139	0x3a406436	0.00073391513
140	0xbcddae73	-0.027060723
141	0xbcf8cb0f	-0.030370263
142	0xbc2b7097	-0.010463855
143	0xbb992daf	-0.0046746354
144	0xbb182c1f	-0.0023219658
145	0x3ccc2d85	0.02492405
146	0x3c0504af	0.008118792
147	0xbc8c90b2	-0.01715884
148	0x3b094dc0	0.0020950884
149	0xbcb29140	-0.021797776
150	0x3cf19015	0.029487649
151	0xbc7954e7	-0.015217996
152	0x39a1e88e	0.0003088158
153	0xbc36f04f	-0.0111656925
154	0xbb9e2dc2	-0.004827232
155	0xbc7a5bc5	-0.015280669
156	0xbc1642c8	-0.009171195
157	0x3d0c6df2	0.03428454
158	0xbd202751	-0.039099995
159	0xbc66e4d2	-0.014092641
160	0xbc3a6e16	-0.011378786
161	0xbd0f0a2e	-0.034921817
162	0x3ceb66da	0.028735567
163	0x3ce3f81a	0.027828265
164	0xbc35952f	-0.011082931
165	0xbcc81e2e	-0.024428453
166	0x3afd843d	0.0019341778
167	0xbc047373	-0.008084166
168	0x3c49e77b	0.012323256
169	0xbbbaa2b6	-0.005695666
170	0x3c748993	0.014925378
171	0x3b2d44e3	0.0026438765
172	0xbc486617	-0.012231371
173	0x3c0ae994	0.008478541
174	0x3be80895	0.007081101
175	0xbb2acb73	-0.0026061207
176	0xbc4c1171	-0.01245533
177	0xbcb33132	-0.021874044
178	0x3c10109b	0.008793022
179	0xbc249d05	-0.010047202
180	0x3cbd14db	0.023081234
181	0x3bd18b62	0.0063947896
182	0xbba08114	-0.0048982
183	0xbbbc7da6	-0.005752283
184	0xbc0528a1	-0.0081273625
185	0xbc3e4e4b	-0.011615346
186	0xbc171ae4	-0.00922272
187	0xbb0742b5	-0.0020639126
188	0xbc2d59de	-0.010580508
189	0xbc918ffb	-0.01776885
190	0xbc239bf7	-0.009985915
191	0xbbf056fd	-0.0073345886
192	0x3bf090af	0.0073414664
193	0x3c9e7e58	0.019347355
194	0x39eef4da	0.00045577326
195	0xbcee515b	-0.029091528
196	0x3bb9dffc	0.005672453
197	0x3a567880	0.0008181408
198	0xbbba5ff8	-0.00568771
199	0xbba7beb3	-0.0051191687
200	0xbc7237eb	-0.01478384
201	0xbc7b0af3	-0.015322435
202	0xbc9ac864	-0.018894382
203	0xbd023e1c	-0.031797513
204	0xbb2124f9	-0.0024588688
205	0xbc7caf97	-0.015422723
206	0xbc8f0cc5	-0.017462144
207	0x3ca7ce62	0.020484153
208	0xbc674e7b	-0.014117832
209	0xbbd1817b	-0.006393609
210	0x3d1c10af	0.03810185
211	0xbc13b4af	-0.009015246
212	0xbc511ac2	-0.012762727
213	0x3c3208f6	0.010866394
214	0x3bb5befc	0.0055464488
215	0xbb66d5d8	-0.0035222676
216	0x3ccfc91b	0.02536445
217	0xbccec248	-0.025239125
218	0xbbc37415	-0.005964766
219	0x3cedea80	0.029042482
220	0x3b01e588	0.001982065
221	0x3c592728	0.0132539645
222	0x3c2ea76f	0.0106600365
223	0xbab656eb	-0.0013911402
224	0xbcbacb1a	-0.022801924
225	0x3cd4cd72	0.02597687
226	0x3c943662	0.018092338
227	0xbc3fadbf	-0.011699139
228	0x3c714f28	0.014728345
229	0xbd1d36b7	-0.03838226
230	0xbcd3ce25	-0.025855133
231	0xbbb6ed02	-0.0055824528
232	0xbd038ae1	-0.032114867
233	0xbaf1fe6a	-0.0018462662
234	0x3a6c969d	0.00090251287
235	0x3c816605	0.015795717
236	0xbb1f57a1	-0.0024313706
237	0xba8a27f7	-0.0010540475
238	0x3c195000	0.009357452
239	0x3c8d749a	0.017267514
240	0x3cd9c7b0	0.026584476
241	0xbb479c27	-0.0030458064
242	0xbb1436c3	-0.0022615648
243	0xbc25768c	-0.010099065
244	0x3c6d960f	0.014501109
245	0xbbd6f37f	-0.0065597887
246	0xbbc48109	-0.0059968275
247	0xbba2279b	-0.004948569
248	0x3c969a77	0.018384201
249	0x3ceb5028	0.028724745
250	0x39ccda68	0.00039072637
251	0xbbca7d01	-0.0061794524
252	0x3c3644cc	0.011124801
253	0xbc266c77	-0.010157696
254	0xbc9a8964	-0.018864341
255	0x3cdb4d4f	0.026770262

action_model._discrete_distribution.branches.0.weight f4 [1, 128]
0	0xb91351c2	-0.0001404947
1	0x3ced4c5b	0.028967073
2	0xbc057551	-0.008145646
3	0x3c53741a	0.012906099
4	0x3c735af8	0.014853232
5	0xbbed9470	-0.007250361
6	0x3bf77420	0.007551685
7	0xbc2691cf	-0.010166599
8	0xbb04c733	-0.0020260334
9	0xbbd7fc97	-0.0065913904
10	0x3b2f3c67	0.0026738883
11	0xbbd2ae47	-0.006429467
12	0xbc1935f2	-0.0093512405
13	0x3a580678	0.000824071
14	0xb915bf5c	-0.00014281034
15	0x3bacea6c	0.0052769687
16	0xbb68a002	-0.0035495763
17	0x3bd1dfb3	0.006404841
18	0xbafd509a	-0.0019326389
19	0x39e87827	0.0004434001
20	0xbc749fd0	-0.01493068
21	0xbc07dd2a	-0.008292476
22	0xbc5624a7	-0.013070262
23	0x3bcc67f8	0.00623798
24	0xbbae5a28	-0.005320806
25	0x3bfb805d	0.007675214
26	0x3c2d1943	0.010565105
27	0x3bbbe793	0.005734393
28	0x3c158403	0.009125712
29	0x3c694ab2	0.014239
30	0x3b481a5f	0.0030533297
31	0xbc0c7e43	-0.008575025
32	0x39ce3d1f	0.0003933692
33	0x3c2638c3	0.010145369
34	0x3c2571ad	0.010097903
35	0x3b4fa748	0.00316854
36	0xbc1aa4e1	-0.009438724
37	0xbb96fdef	-0.004607908
38	0xbb5f1848	-0.0034041572
39	0xbb522215	-0.0032063772
40	0x3c1f4a9a	0.009722376
41	0x3a8b4dd6	0.0010628055
42	0xbc3d4e4f	-0.011554315
43	0xbb65803b	-0.0035019058
44	0xbab43857	-0.0013749701
45	0x3c671412	0.014103906
46	0x3c0acbc5	0.008471434
47	0xbc762a92	-0.015024798
48	0xbbccd362	-0.0062507847
49	0xbb728812	-0.0037007374
50	0x3a740ca5	0.00093097455
51	0xbb11c8bb	-0.0022244889
52	0x3c8a56cf	0.016887097
53	0x3bbabc0b	0.005698686
54	0xbb215ffd	-0.0024623864
55	0x3b76aefa	0.0037640915
56	0x3c0ec193	0.008713144
57	0xbbec1182	-0.0072042355
58	0xbaf9bf3a	-0.0019054182
59	0xbb8f393b	-0.004370836
60	0xbc1419a0	-0.009039313
61	0x3b3bca74	0.0028654607
62	0x3b84202b	0.004032155
63	0x38a6f3f6	7.960938e-05
64	0xbaeeea10	-0.0018227715
65	0x3a9aae53	0.001180122
66	0x3bab4d09	0.005227689
67	0x3c16b48d	0.00919832
68	0xbc0ac266	-0.0084692
69	0x3aa88feb	0.0012860274
70	0xbba9927e	-0.005174934
71	0x3bb682e7	0.005569804
72	0x3c978b8d	0.01849916
73	0xbc9e0696	-0.01929025
74	0xbae0c0ad	-0.0017147266
75	0x3ba0f0a6	0.0049115
76	0xb9ea3333	-0.00044670104
77	0xbb835243	-0.004007609
78	0xbbbf5b8c	-0.0058397707
79	0xbc06193d	-0.008184728
80	0xbc3c0f80	-0.011478305
81	0xbb7d08da	-0.0038610012
82	0x3b2e6a8d	0.0026613802
83	0xbc188e17	-0.009311221
84	0xbbb454bf	-0.0055032666
85	0x3bce594a	0.006297265
86	0xbb71f7d2	-0.0036921394
87	0xbbad60ce	-0.005291081
88	0xbb89e79f	-0.0042085196
89	0xbc41a3f3	-0.011818874
90	0xbc4dd625	-0.012563263
91	0x3b82c26a	0.003990461
92	0x3b702be7	0.0036647262
93	0xbbe5e5b7	-0.0070159095
94	0x3bad9d26	0.0052982746
95	0xbc4dd383	-0.012562635
96	0x3b998c3d	0.004685907
97	0x391a98cf	0.0001474351
98	0xbb289ed3	-0.0025729432
99	0xbc35e439	-0.011101776
100	0xbbb75e83	-0.0055959835
101	0xbcc09544	-0.023508675
102	0xbbf41117	-0.0074483263
103	0xbc10647f	-0.008813023
104	0x3c58f013	0.013240832
105	0x3c051da2	0.008124741
106	0x3c69914d	0.014255834
107	0x3ad99afb	0.0016601974
108	0xbb157d36	-0.0022810227
109	0x3c898679	0.016787754
110	0xba83ebf2	-0.0010064824
111	0x3b424f0e	0.002964917
112	0xbb5d0688	-0.0033725817
113	0xbb2391c9	-0.002495872
114	0xbbe7b910	-0.0070716217
115	0xbc63048f	-0.013856067
116	0x3b0b0313	0.002121155
117	0xbbedfee2	-0.0072630504
118	0x3b040dca	0.002014982
119	0xbc181967	-0.0092834
120	0x3b7b07b7	0.003830416
121	0xbc8c4ee7	-0.017127467
122	0x3ab40e36	0.0013737145
123	0xbcbf2a03	-0.023335462
124	0xb9fcc9a7	-0.00048215428
125	0xbc091aa2	-0.008368166
126	0x3aa1f217	0.0012355474
127	0xbc1fc42f	-0.009751364

network_body._body_endoder.seq_layers.0.bias f4 [128]
0	0x00000000	0.0
1	0x00000000	0.0
2	0x00000000	0.0
3	0x00000000	0.0
4	0x00000000	0.0
5	0x00000000	0.0
6	0x00000000	0.0
7	0x00000000	0.0
8	0x00000000	0.0
9	0x00000000	0.0
10	0x00000000	0.0
11	0x00000000	0.0
12	0x00000000	0.0
13	0x00000000	0.0
14	0x00000000	0.0
15	0x00000000	0.0
16	0x00000000	0.0
17	0x00000000	0.0
18	0x00000000	0.0
19	0x00000000	0.0
20	0x00000000	0.0
21	0x00000000	0.0
22	0x00000000	0.0
23	0x00000000	0.0
24	0x00000000	0.0
25	0x00000000	0.0
26	0x00000000	0.0
27	0x00000000	0.0
28	0x00000000	0.0
29	0x00000000	0.0
30	0x00000000	0.0
31	0x00000000	0.0
32	0x00000000	0.0
33	0x00000000	0.0
34	0x00000000	0.0
35	0x00000000	0.0
36	0x00000000	0.0
37	0x00000000	0.0
38	0x00000000	0.0
39	0x00000000	0.0
40	0x00000000	0.0
41	0x00000000	0.0
42	0x00000000	0.0
43	0x00000000	0.0
44	0x00000000	0.0
45	0x00000000	0.0
46	0x00000000	0.0
47	0x00000000	0.0
48	0x00000000	0.0
49	0x00000000	0.0
50	0x00000000	0.0
51	0x00000000	0.0
52	0x00000000	0.0
53	0x00000000	0.0
54	0x00000000	0.0
55	0x00000000	0.0
56	0x00000000	0.0
57	0x00000000	0.0
58	0x00000000	0.0
59	0x00000000	0.0
60	0x00000000	0.0
61	0x00000000	0.0
62	0x00000000	0.0
63	0x00000000	0.0
64	0x00000000	0.0
65	0x00000000	0.0
66	0x00000000	0.0
67	0x00000000	0.0
68	0x00000000	0.0
69	0x00000000	0.0
70	0x00000000	0.0
71	0x00000000	0.0
72	0x00000000	0.0
73	0x00000000	0.0
74	0x00000000	0.0
75	0x00000000	0.0
76	0x00000000	0.0
77	0x00000000	0.0
78	0x00000000	0.0
79	0x00000000	0.0
80	0x00000000	0.0
81	0x00000000	0.0
82	0x00000000	0.0
83	0x00000000	0.0
84	0x00000000	0.0
85	0x00000000	0.0
86	0x00000000	0.0
87	0x00000000	0.0
88	0x00000000	0.0
89	0x00000000	0.0
90	0x00000000	0.0
91	0x00000000	0.0
92	0x00000000	0.0
93	0x00000000	0.0
94	0x00000000	0.0
95	0x00000000	0.0
96	0x00000000	0.0
97	0x00000000	0.0
98	0x00000000	0.0
99	0x00000000	0.0
100	0x00000000	0.0
101	0x00000000	0.0
102	0x00000000	0.0
103	0x00000000	0.0
104	0x00000000	0.0
105	0x00000000	0.0
106	0x00000000	0.0
107	0x00000000	0.0
108	0x00000000	0.0
109	0x00000000	0.0
110	0x00000000	0.0
111	0x00000000	0.0
112	0x00000000	0.0
113	0x00000000	0.0
114	0x00000000	0.0
115	0x00000000	0.0
116	0x00000000	0.0
117	0x00000000	0.0
118	0x00000000	0.0
119	0x00000000	0.0
120	0x00000000	0.0
121	0x00000000	0.0
122	0x00000000	0.0
123	0x00000000	0.0
124	0x00000000	0.0
125	0x00000000	0.0
126	0x00000000	0.0
127	0x00000000	0.0

network_body._body_endoder.seq_layers.0.weight f4 [128, 13]
0	0x3d1780e1	0.036988143
1	0x3b40557e	0.0029347832
2	0xbf0242b6	-0.5088304
3	0x3ee374a7	0.44424936
4	0x3e02bb55	0.12766774
5	0xbebe5f87	-0.37182257
6	0x3e8a081f	0.2695932
7	0x3eeefea3	0.46678647
8	0xbebb8552	-0.36625153
9	0xbdb2ea1d	-0.0873606
10	0xbd68db1b	-0.05684958
11	0x3df94b0e	0.12172519
12	0xbe374eeb	-0.17901199
13	0xbe9dfd2d	-0.3085722
14	0x3eea6bb6	0.45785302
15	0xbf09de2b	-0.53854626
16	0xbece25dd	-0.40263262
17	0xbed11a1a	-0.40840226
18	0x3e68244d	0.22670098
19	0xbdd2922f	-0.102817886
20	0x3f09a63f	0.53769296
21	0xbdaff252	-0.08591141
22	0x3f01b266	0.5066284
23	0xbd357174	-0.04429765
24	0x3e75ff7e	0.24023244
25	0x3d83b5c1	0.06431151
26	0x3eb7cb09	0.3589709
27	0x3dc4bb34	0.09606019
28	0xbf1845c8	-0.5948148
29	0xbe8c83f2	-0.27444416
30	0xbf23bfb0	-0.63964367
31	0xbeb2abfa	-0.34896833
32	0x3e10b742	0.14132407
33	0xbe99dd9a	-0.3005188
34	0x3e53318a	0.20624366
35	0xbdf67310	-0.12033665
36	0x3ea8c6cf	0.3296418
37	0x3e5a12ac	0.21296185
38	0xbeb19a61	-0.34688094
39	0x3e29bbd9	0.16575564
40	0x3ea26979	0.31721094
41	0x3dbbfdd2	0.09179272
42	0xbd91568c	-0.07096586
43	0xbd97e23b	-0.07416197
44	0xbe963e01	-0.2934418
45	0xbd98e8dc	-0.074662894
46	0x3f286240	0.6577492
47	0x3dc2107e	0.09475802
48	0xbe1c020b	-0.15235154
49	0x3f029813	0.51013297
50	0xbee617da	-0.44940072
51	0xbef0df13	-0.47045192
52	0xbcffe63b	-0.031237712
53	0xbd0f0d99	-0.034925077
54	0xbe15b3a7	-0.14619313
55	0x3e64918c	0.22321147
56	0xbe938d54	-0.28818762
57	0x3f15dce6	0.5854019
58	0xbe006c1b	-0.12541239
59	0x3cb6680b	0.022266408
60	0xbda9afe2	-0.082855
61	0x3ec86501	0.3913956
62	0x3ec027bb	0.37530312
63	0xbe18005f	-0.14843892
64	0x3f382b4d	0.7194107
65	0xbe8f96e6	-0.28044814
66	0xbe427ed0	-0.18993688
67	0xbe52e143	-0.20593743
68	0x3ddedfcb	0.10882529
69	0x3e3ab771	0.1823404
70	0x3ed225a0	0.4104433
71	0x3ed41fb5	0.4143044
72	0xbf08cb2c	-0.53435016
73	0xbcdb2e5a	-0.0267555
74	0x3f028496	0.5098356
75	0xbf3a21ae	-0.7270764
76	0xbe11fc51	-0.14256407
77	0xbdc5f57d	-0.09665964
78	0x3e058089	0.13037314
79	0xbe9872e5	-0.29775158
80	0x3c73bb81	0.014876247
81	0x3e3352ea	0.17512098
82	0x3c96ae21	0.018393578
83	0x3e3cf9d6	0.1845468
84	0x3e7c8f3d	0.24664016
85	0x3da502db	0.08057185
86	0xbec3d14a	-0.38245612
87	0xbe1b5649	-0.15169634
88	0xbe62dc40	-0.22154331
89	0xbed217fe	-0.4103393
90	0xbd37575c	-0.044761047
91	0xbe6684be	-0.22511575
92	0x3c1639aa	0.009169022
93	0xbdfe69d8	-0.12422532
94	0x3e7c6414	0.24647552
95	0x3c948406	0.01812936
96	0x3ee508e0	0.44733334
97	0x3d0776b3	0.033072185
98	0xbe9ad0de	-0.30237478
99	0xbe270967	-0.1631218
100	0x3e39b1ff	0.18134306
101	0x3e6a4595	0.22878106
102	0xbdf5c571	-0.120005496
103	0xbf155bca	-0.58343184
104	0xbea44ecd	-0.3209137
105	0x3d584a76	0.052805386
106	0x3d5ba81a	0.05362711
107	0xbe53bde9	-0.20677914
108	0xbf1ea647	-0.6197247
109	0xbe870198	-0.26368403
110	0x3c7a0f85	0.015262489
111	0xbf15f2b7	-0.5857348
112	0xbea13d6a	-0.31492168
113	0xbe988921	-0.2979212
114	0xbd222f62	-0.03959597
115	0xbe6f16ee	-0.2334859
116	0xbe0149b0	-0.12625766
117	0x3e45b83d	0.19308563
118	0xbe151ccf	-0.14561771
119	0xbdcd2bad	-0.10018096
120	0xbe7c51e7	-0.24640618
121	0x3e3a6fc3	0.18206696
122	0xbe0f7b0e	-0.14011785
123	0x3e928dd4	0.2862383
124	0x3ce2c13a	0.027680028
125	0xbe3b3160	-0.18280554
126	0x3e74ee32	0.2391899
127	0xbe44e1e8	-0.19226801
128	0x3c82c674	0.01596377
129	0x3e9c0c83	0.30478296
130	0xbec9bedb	-0.39403424
131	0xbe094441	-0.13404943
132	0x3d4a8aae	0.04944866
133	0x3bef0cd8	0.0072952323
134	0x3ec3545f	0.38150308
135	0xbe8573b6	-0.26064843
136	0xbeb44dd1	-0.3521562
137	0x3f2907db	0.6602761
138	0x3d10586f	0.035240587
139	0x3e09f10c	0.13470858
140	0xbeaa1123	-0.332162
141	0xbf9764a6	-1.182759
142	0xbe139eb3	-0.14416008
143	0xbe94132d	-0.2892088
144	0x3d66758b	0.05626444
145	0xbededde9	-0.4352868
146	0xbd909968	-0.0706051
147	0xbe3acbb3	-0.18241768
148	0xbdc75b90	-0.09734261
149	0xbe8ea610	-0.2786107
150	0xbe72c89e	-0.23709342
151	0xbe433496	-0.19063029
152	0xbea0fae0	-0.31441402
153	0xbde182fa	-0.1101131
154	0x3e78340c	0.24238604
155	0xbe9f74d9	-0.31143835
156	0xbcd1cf7a	-0.025611628
157	0x3dbae834	0.091263205
158	0xbd89d929	-0.06730873
159	0x3b88562f	0.0041606645
160	0xbccf415a	-0.025299717
161	0xbdd2cfad	-0.10293517
162	0x3e4d34e6	0.2003971
163	0x3ea5f9de	0.32417196
164	0xbde8e3ec	-0.11371598
165	0x3eaf2d78	0.34214377
166	0x3e3f1493	0.18660192
167	0xbecd4f89	-0.40099743
168	0x3db69b10	0.089162946
169	0x3d337e3b	0.043821555
170	0xbd9aa7cc	-0.07551536
171	0xbe4dc6cf	-0.2009537
172	0x3e90130e	0.28139538
173	0xbe8d0ee7	-0.27550432
174	0xbc806e39	-0.015677558
175	0x3e1d5550	0.15364575
176	0xbebc4a45	-0.36775413
177	0xbc1fe801	-0.009759904
178	0x3f0feb6b	0.56218594
179	0x3e517f5a	0.20458737
180	0x3e315606	0.17317972
181	0x3e852b0d	0.26009408
182	0xbe57511e	-0.21027038
183	0x3e837274	0.25673258
184	0xbdf82a92	-0.12117495
185	0xbd440771	-0.04785866
186	0xbeda7007	-0.42663595
187	0x3ea4e470	0.32205534
188	0xbd7e3d3f	-0.062070128
189	0xbe1ac68a	-0.15114799
190	0x3dba4ca3	0.090966485
191	0x3d6a9a7f	0.057276245
192	0xbe64c433	-0.22340469
193	0xbeb405cf	-0.35160682
194	0xbe0e0394	-0.13868552
195	0xbd80dd07	-0.062921576
196	0x3e3d8da6	0.18511066
197	0xbe643482	-0.22285655
198	0x3b2ad319	0.0026065765
199	0xbdad1265	-0.08450774
200	0xbd548708	-0.05188659
201	0x3d1a8a63	0.037729632
202	0x3f0b69d4	0.54458356
203	0x3e82b5ce	0.2552933
204	0xbe0aae37	-0.1354302
205	0x3d1e0d3d	0.038586844
206	0x3d1303aa	0.035892166
207	0x3e33d98e	0.1756346
208	0xbefa4060	-0.4887724
209	0xbe9e8838	-0.30963302
210	0xbe661a50	-0.22470975
211	0xbe1ca647	-0.15297805
212	0xbf4f86c6	-0.8106502
213	0x3d9d9c03	0.076957725
214	0x3dd433d9	0.10361452
215	0xbbfd93ad	-0.0077385516
216	0xbe79525e	-0.24347827
217	0x3e08eb2f	0.13370965
218	0xbe3bef7f	-0.1835308
219	0x3e97ff08	0.2968676
220	0xbc296d41	-0.01034099
221	0xbe03f9a2	-0.12888196
222	0x3eb3e93d	0.35138884
223	0xbece2358	-0.4026134
224	0xbea936b8	-0.3304956
225	0x3e14e25d	0.14539476
226	0x3cac8f58	0.021064445
227	0xbdb7f10f	-0.08981525
228	0x3ccdbb04	0.02511359
229	0x3cc3e0a9	0.023910837
230	0x3e58005c	0.21093887
231	0xbf11be11	-0.56930643
232	0x3da0a3a9	0.07843716
233	0x3e18d814	0.14926177
234	0xbed22da5	-0.4105045
235	0xbd8362c2	-0.06415321
236	0xbe40f61a	-0.1884388
237	0x3e1e466c	0.15456551
238	0x3e6bd4e0	0.23030424
239	0x3f0d83a4	0.5527899
240	0xbdba4bd2	-0.09096493
241	0x3eb8399d	0.35981455
242	0x3d9d4917	0.076799564
243	0x3ee47af2	0.4462505
244	0x3ebd21d6	0.36939877
245	0x3d875fed	0.06610093
246	0xbadd35ab	-0.0016876956
247	0x3e210c9d	0.15727468
248	0x3d1de148	0.038544923
249	0x3c9bf2be	0.019036647
250	0xbebc5087	-0.36780187
251	0xbdf24ea7	-0.11831408
252	0x3e23ac72	0.15983751
253	0x3edbc527	0.42923853
254	0x3e40b827	0.18820249
255	0x3cad6b05	0.021169195

network_body._body_endoder.seq_layers.2.bias f4 [128]
0	0x00000000	0.0
1	0x00000000	0.0
2	0x00000000	0.0
3	0x00000000	0.0
4	0x00000000	0.0
5	0x00000000	0.0
6	0x00000000	0.0
7	0x00000000	0.0
8	0x00000000	0.0
9	0x00000000	0.0
10	0x00000000	0.0
11	0x00000000	0.0
12	0x00000000	0.0
13	0x00000000	0.0
14	0x00000000	0.0
15	0x00000000	0.0
16	0x00000000	0.0
17	0x00000000	0.0
18	0x00000000	0.0
19	0x00000000	0.0
20	0x00000000	0.0
21	0x00000000	0.0
22	0x00000000	0.0
23	0x00000000	0.0
24	0x00000000	0.0
25	0x00000000	0.0
26	0x00000000	0.0
27	0x00000000	0.0
28	0x00000000	0.0
29	0x00000000	0.0
30	0x00000000	0.0
31	0x00000000	0.0
32	0x00000000	0.0
33	0x00000000	0.0
34	0x00000000	0.0
35	0x00000000	0.0
36	0x00000000	0.0
37	0x00000000	0.0
38	0x00000000	0.0
39	0x00000000	0.0
40	0x00000000	0.0
41	0x00000000	0.0
42	0x00000000	0.0
43	0x00000000	0.0
44	0x00000000	0.0
45	0x00000000	0.0
46	0x00000000	0.0
47	0x00000000	0.0
48	0x00000000	0.0
49	0x00000000	0.0
50	0x00000000	0.0
51	0x00000000	0.0
52	0x00000000	0.0
53	0x00000000	0.0
54	0x00000000	0.0
55	0x00000000	0.0
56	0x00000000	0.0
57	0x00000000	0.0
58	0x00000000	0.0
59	0x00000000	0.0
60	0x00000000	0.0
61	0x00000000	0.0
62	0x00000000	0.0
63	0x00000000	0.0
64	0x00000000	0.0
65	0x00000000	0.0
66	0x00000000	0.0
67	0x00000000	0.0
68	0x00000000	0.0
69	0x00000000	0.0
70	0x00000000	0.0
71	0x00000000	0.0
72	0x00000000	0.0
73	0x00000000	0.0
74	0x00000000	0.0
75	0x00000000	0.0
76	0x00000000	0.0
77	0x00000000	0.0
78	0x00000000	0.0
79	0x00000000	0.0
80	0x00000000	0.0
81	0x00000000	0.0
82	0x00000000	0.0
83	0x00000000	0.0
84	0x00000000	0.0
85	0x00000000	0.0
86	0x00000000	0.0
87	0x00000000	0.0
88	0x00000000	0.0
89	0x00000000	0.0
90	0x00000000	0.0
91	0x00000000	0.0
92	0x00000000	0.0
93	0x00000000	0.0
94	0x00000000	0.0
95	0x00000000	0.0
96	0x00000000	0.0
97	0x00000000	0.0
98	0x00000000	0.0
99	0x00000000	0.0
100	0x00000000	0.0
101	0x00000000	0.0
102	0x00000000	0.0
103	0x00000000	0.0
104	0x00000000	0.0
105	0x00000000	0.0
106	0x00000000	0.0
107	0x00000000	0.0
108	0x00000000	0.0
109	0x00000000	0.0
110	0x00000000	0.0
111	0x00000000	0.0
112	0x00000000	0.0
113	0x00000000	0.0
114	0x00000000	0.0
115	0x00000000	0.0
116	0x00000000	0.0
117	0x00000000	0.0
118	0x00000000	0.0
119	0x00000000	0.0
120	0x00000000	0.0
121	0x00000000	0.0
122	0x00000000	0.0
123	0x00000000	0.0
124	0x00000000	0.0
125	0x00000000	0.0
126	0x00000000	0.0
127	0x00000000	0.0

network_body._body_endoder.seq_layers.2.weight f4 [128, 128]
0	0x3df6d329	0.12051994
1	0xbc907e45	-0.017638335
2	0xbc968c6f	-0.01837751
3	0x3ddf668c	0.10908231
4	0x3c06ad0d	0.008219969
5	0x3d92b7cd	0.071639635
6	0x3d82a85c	0.06379768
7	0x3d3ef7a6	0.046622895
8	0xbe58673c	-0.21133131
9	0xbddac87c	-0.106827706
10	0xbbfeccdf	-0.0077758874
11	0x3dd9397d	0.10606668
12	0xbd8cc180	-0.06872845
13	0xbd0af188	-0.03392175
14	0xbdcbf129	-0.09958107
15	0x3e26d351	0.16291548
16	0xbe0a0290	-0.1347754
17	0xbdf456d9	-0.119306274
18	0xbde391f7	-0.11111825
19	0xbe1d7df9	-0.15380086
20	0x3d17e639	0.03708479
21	0x3c923fc7	0.017852677
22	0xbe57874f	-0.2104771
23	0xbc8610a4	-0.016365357
24	0xbe462e36	-0.19353566
25	0xbdbb9772	-0.09159745
26	0x3dd129e4	0.10213068
27	0xbc9c4a08	-0.01907827
28	0xbe577587	-0.21040927
29	0xbaeba1ce	-0.0017977299
30	0x3cfef4ac	0.031122528
31	0xbdbc5c76	-0.09197323
32	0x3bf68fb8	0.007524457
33	0xbd266f8b	-0.04063372
34	0xbb214bc0	-0.00246118
35	0xbdbfc75e	-0.09364198
36	0x3db11eb5	0.08648435
37	0xbdca2376	-0.09870045
38	0x3e28263b	0.16420834
39	0xbca94c09	-0.02066614
40	0x3e0c83d3	0.13722162
41	0x3e0685e5	0.13137014
42	0x3da73ff8	0.08166498
43	0xbd6ad914	-0.057335928
44	0xbe088298	-0.13331068
45	0xbd57d5a3	-0.052693974
46	0x3bdc365c	0.0067203473
47	0xbd57b218	-0.052660078
48	0xbc4363fd	-0.0119256945
49	0xbd99c375	-0.075079836
50	0xbdd3faa5	-0.10350541
51	0xbc3ab820	-0.011396438
52	0x3ce30158	0.027710602
53	0x3de02ca0	0.109460115
54	0xbc7b263c	-0.01532894
55	0x3e0b17db	0.13583319
56	0x3c8fd301	0.01755667
57	0x3e27650a	0.16347137
58	0xbd2d8d55	-0.042371113
59	0x3da4d361	0.0804813
60	0xbc6004e2	-0.013673039
61	0x3ad13fc9	0.0015964444
62	0x3d703394	0.05864294
63	0x3d533d24	0.05157198
64	0x3cdb787a	0.026790846
65	0xbd96f9ae	-0.07371841
66	0x3d869723	0.06571796
67	0xbc6888f4	-0.014192808
68	0xbcd82d20	-0.026388705
69	0x3d25408a	0.040344752
70	0xbb0e83ee	-0.0021746117
71	0xbdecda32	-0.11565055
72	0xbe2267e4	-0.15859944
73	0xbd8160bd	-0.063172795
74	0xbde1a4b3	-0.11017742
75	0x3d665821	0.05623639
76	0x3d1e4c28	0.038646847
77	0xbe02a7af	-0.12759279
78	0x3df48cea	0.1194094
79	0x3d8b97ce	0.06816064
80	0x3cff88d7	0.03119318
81	0x3c217d21	0.009856493
82	0x3d8ff0c2	0.07028343
83	0x3d500889	0.05078939
84	0xbc24c0dc	-0.010055747
85	0xbbd894f9	-0.006609556
86	0x3dc2169f	0.09476971
87	0x3bbb8c2a	0.005723496
88	0xbba3f988	-0.0050041117
89	0xbd892a78	-0.066975534
90	0x3d5efcdb	0.05444036
91	0xbc0b93f7	-0.008519164
92	0xbd979534	-0.07401505
93	0xbcd04000	-0.025421143
94	0x3e3d513b	0.18488018
95	0x3d8040f6	0.0626239
96	0x3dc2db16	0.095144436
97	0x3c8d4eb8	0.01724945
98	0x3df7650c	0.1207982
99	0x3d37c446	0.044864915
100	0xbe037a48	-0.12839615
101	0xbdcc4374	-0.09973803
102	0xbe26a469	-0.16273655
103	0xbdb663fc	-0.08905789
104	0xbd8c214f	-0.068422906
105	0x3d20e3b9	0.039279673
106	0x3be0f4f5	0.0068651387
107	0x3d90bf9d	0.07067797
108	0xbbb0f27c	-0.0054
109	0x3ca6e757	0.020373983
110	0xbcadf959	-0.021237062
111	0x3d2d4b67	0.042308237
112	0xbd08ca85	-0.033396263
113	0xbb89f8ca	-0.004210566
114	0x3d5d5fb4	0.054046348
115	0x3db28ac4	0.08717874
116	0xbc83c9cc	-0.016087435
117	0x3df62e02	0.12020494
118	0xbdff76ea	-0.12473853
119	0xbd40c12a	-0.047059216
120	0x3d1314cd	0.03590851
121	0xbbd49d1d	-0.006488456
122	0x3d266908	0.04062751
123	0x3c748a16	0.0149255
124	0x3cb5e5e2	0.022204343
125	0xbd94a30b	-0.072576605
126	0xbd890f92	-0.06692423
127	0x3d2abe6f	0.041685518
128	0xbdd4edcb	-0.10396918
129	0x3d8b11d5	0.067905106
130	0x3d04ff65	0.032470126
131	0xbdf8806d	-0.1213387
132	0xbe39ee3f	-0.1815729
133	0xbcfbe1cd	-0.030747319
134	0xbd208097	-0.039185133
135	0x3e38d95f	0.1805167
136	0x3d70a6ff	0.05875301
137	0xbd6045cd	-0.054754067
138	0xbd9d9f37	-0.076963834
139	0xbc57167e	-0.013127921
140	0xbc8d7f62	-0.017272655
141	0xbe0ee6c3	-0.13955216
142	0x3b363221	0.0027800875
143	0x3cc4c9dc	0.024022035
144	0x3a7b7f2f	0.0009593842
145	0x3d1e752f	0.038685974
146	0x3e16b420	0.1471715
147	0xbd359764	-0.04433383
148	0x3c063295	0.008190771
149	0x3d00e0ce	0.03146439
150	0xbe0e19fc	-0.138771
151	0x3c8907bd	0.016727323
152	0x3ab597a3	0.0013854395
153	0xbd6a452c	-0.057194874
154	0x3cc51b5f	0.024060903
155	0x3ca9aca9	0.020712214
156	0xbdaae245	-0.08343939
157	0x3d9db530	0.077005744
158	0x3e1bc396	0.15211329
159	0x3ddfe653	0.10932603
160	0xbd1bfd10	-0.038083136
161	0x3c4e96d6	0.012609204
162	0x3c9e9465	0.01935787
163	0xbd1b3799	-0.03789482
164	0xbc971575	-0.018442849
165	0xbd2c277e	-0.04202985
166	0xbe388a09	-0.18021406
167	0x3cf9c251	0.030488165
168	0x3bcfcd92	0.0063416446
169	0xbe31a61e	-0.17348525
170	0xbd9482c3	-0.07251503
171	0x3d263ebd	0.040587176
172	0x3ccc8a3f	0.024968265
173	0x3e38de2d	0.18053503
174	0x3d4b0f02	0.04957486
175	0x3e0c18c2	0.1368132
176	0xbe49e2ce	-0.19715425
177	0x3d6dac03	0.05802537
178	0x3cc0ec2d	0.023550117
179	0x3c1271a1	0.008938224
180	0x3cc51f29	0.02406271
181	0x3d6aae7d	0.05729531
182	0x3e2780eb	0.16357772
183	0x3c820af9	0.015874373
184	0xbd8b9c92	-0.06816973
185	0x3db9c96a	0.0907162
186	0x3d21863a	0.03943465
187	0xbcd97364	-0.02654428
188	0xbdd46167	-0.103701405
189	0xbda2713f	-0.07931756
190	0xbc8f5fbc	-0.017501704
191	0x3b955448	0.0045571662
192	0x3e5435bb	0.20723622
193	0x3dcf53e2	0.10123421
194	0xbdeafdcd	-0.1147419
195	0x3ca6ba4b	0.020352503
196	0x3d758d68	0.05994931
197	0x3dac7abb	0.084218465
198	0x3d90da90	0.070729375
199	0x3dd6d1c8	0.10489231
200	0xbce0c790	-0.027438909
201	0xbd01647c	-0.03158997
202	0x3d10dda5	0.035367627
203	0x3dd164a5	0.102242745
204	0xbc95865b	-0.018252542
205	0xbdc37354	-0.095434815
206	0x3d8eddba	0.06975885
207	0xbccd99de	-0.025097784
208	0x3dc42481	0.09577275
209	0x3da7e4e6	0.08197956
210	0xbdb8169e	-0.08988689
211	0x3d625af9	0.05526254
212	0x3d06e996	0.03293761
213	0x3db65539	0.08902974
214	0x3dd68082	0.1047373
215	0xbc1d238c	-0.009590995
216	0x3dfe94ed	0.12430749
217	0xbd69a318	-0.057040304
218	0xbc47f797	-0.012205026
219	0xbc2f3ad2	-0.010695176
220	0xbda0cb69	-0.078512974
221	0x3d752d5c	0.05985771
222	0x3d57d3bd	0.052692164
223	0xbd405afb	-0.046961766
224	0x3d73d367	0.05952778
225	0xbd306074	-0.043060735
226	0x3da2a28a	0.07941158
227	0xbd0c27cf	-0.034217652
228	0xbd952a99	-0.072835155
229	0x3d59d5f0	0.053182542
230	0xbd093003	-0.033493053
231	0x3de56721	0.11201311
232	0x3c85d98b	0.016339084
233	0xbd88a594	-0.066722065
234	0x3d99f3bd	0.075171925
235	0x3d149104	0.03627111
236	0xbd3b9173	-0.045793008
237	0xbe10cbab	-0.14140193
238	0x3de55a2f	0.11198842
239	0x3bbdd7c8	0.0057935454
240	0x3e1c8d1b	0.15288202
241	0xbcdef091	-0.02721432
242	0x3e071fdb	0.13195746
243	0x3db0f035	0.08639566
244	0xbc223d49	-0.009902307
245	0x3cc716b7	0.024302823
246	0x3da3aa3f	0.07991456
247	0x3af26c7b	0.0018495464
248	0x3b8b6938	0.0042544864
249	0x3de9e8a8	0.11421329
250	0x3e112e13	0.14177732
251	0x3d80018b	0.06250294
252	0x3d6f9d9a	0.05849991
253	0x3d424e96	0.047438227
254	0x3d9beb48	0.07613236
255	0x3d52010d	0.051270533
