results/mimicagentfinale/RaceCar/RaceCar-23872.onnx (onnx, 77961 bytes, 8 tensors)

action_model._continuous_distribution.log_sigma f4 [1, 2]
000000 4f 59 35 ba 97 7f 40 3b
       -0.000691791 0.0029372924

action_model._continuous_distribution.mu.bias f4 [2]
000000 9b 60 1b ba fa 69 9c bb
       -0.0005927176 -0.0047733756

action_model._continuous_distribution.mu.weight f4 [2, 128]
000000 76 fd 36 3c 0d bd 51 3c 9c ad 0b 3b d0 de 5f bb
       0.011168828 0.012801421 0.0021313196 -0.0034159906
000010 8c 3d ce 3a 19 d5 89 bc 0b 79 a6 3b d7 a8 5a 3d
       0.0015734895 -0.016825246 0.0050803474 0.053383674
000020 42 1a 2d 3c 3f d2 c1 3c 9a 82 c8 3a 75 da f2 bc
       0.010565342 0.023659823 0.0015297711 -0.029645184
000030 61 87 ca bc 48 f1 30 3c 0d cc 82 3c 85 34 63 bc
       -0.024722757 0.010799713 0.01596644 -0.013867502
000040 6b 4f 18 bc b5 a5 3b bc 47 6c 9f 3c 4f cb 88 3c
       -0.0092962785 -0.011453082 0.01946081 0.016698508
000050 f0 b8 3e bc 6d ed 92 3c 47 0c a9 3b f9 5f 03 bd
       -0.011640772 0.017935479 0.0051589343 -0.03207395
000060 06 26 1e 3a aa 85 60 3c a6 25 27 bb 65 44 35 bb
       0.00060328876 0.013703743 -0.0025504618 -0.0027659175
000070 c9 e9 ba 3c 38 18 78 bc d7 66 3f ba 26 1a ac bc
       0.022816556 -0.015142493 -0.0007301396 -0.021008562
000080 2c f5 e6 3a 56 1e b2 bc b9 8b 5c 3c f3 49 ba 3c
       0.0017620674 -0.02174298 0.013461047 0.02274034
000090 a4 8b 34 bc 89 9d 2a bd 8b 4f 13 bc 18 91 8f 3c
       -0.011019621 -0.041654143 -0.0089911325 0.01752524
0000a0 0a bf 26 3c d5 b5 c9 bb bd 69 a5 ba d8 4a d6 bc
       0.010177383 -0.0061557093 -0.0012620013 -0.026158735
0000b0 56 5b 9d bb e5 bc 73 ba 4a 08 88 3a 80 55 5b bb
       -0.004802148 -0.0009297862 0.0010378447 -0.003346771
0000c0 98 d5 3a bd f8 8b a8 39 fe c6 57 bc 96 3b 10 bc
       -0.045613855 0.00032147742 -0.013170002 -0.008803269
0000d0 86 4b 53 bc 11 b6 6f bc 31 29 46 bb 46 52 b6 bb
       -0.012896424 -0.01463081 -0.0030236954 -0.005564007
0000e0 c2 b2 c4 bb e9 ea dc 3b 0e b7 94 3c d3 78 13 bd
       -0.006002755 0.0067418707 0.018153694 -0.0360039
0000f0 ce 81 56 bc 72 b4 47 3d 1a df 70 bc da 2a 0b bc
       -0.013092471 0.04875607 -0.014701629 -0.008494103
000100 72 65 d8 b9 0b 32 1a bb 26 cf 6e 39 31 a4 a7 3c
       -0.00041274313 -0.0023528363 0.00022774618 0.020464035
000110 86 59 e3 bc 0e f3 de bc 77 2f 22 3c 6f 59 87 ba
       -0.027752649 -0.027215507 0.009899012 -0.0010326336
000120 3c c6 15 3c 3c 2d df 3b f7 61 70 bb dd 37 1a 3c
       0.009141501 0.0068108123 -0.0036679485 0.009412733
000130 a8 57 4e 3c 30 c0 a1 3b 2c d4 a6 3c cb 0c 9d bc
       0.012594141 0.0049362406 0.020364843 -0.01917114
000140 de 54 fa 3c f3 54 57 ba f0 fb be bc 05 e7 f7 bb
       0.030558046 -0.00082142575 -0.023313493 -0.0075653815
000150 da 57 88 3c a8 8e 22 3c 8f a4 a7 3b b1 3c a1 bb
       0.016643453 0.009921707 0.0051160525 -0.004920565
000160 f1 25 f8 bb c2 85 58 3c 55 02 16 3d dd 3c 29 3c
       -0.0075728823 0.013215484 0.036623318 0.010329452
000170 39 80 ab 3b 55 6b 4e 3b be e8 d8 3b f8 62 26 3c
       0.005233791 0.003149708 0.006619542 0.010155432
000180 71 81 8a ba d4 e1 b5 bb b8 e9 03 bb d2 7b 9e bb
       -0.0010567141 -0.0055506025 -0.002012832 -0.004836538
000190 5b 8f ab 3c 3e 61 5a bb 32 f6 0b bb 98 93 e4 bc
       0.02094238 -0.003332212 -0.002135646 -0.02790241
0001a0 47 07 a8 3c c4 47 64 bb c5 c9 85 bc d3 a6 f2 3c
       0.020511283 -0.0034832815 -0.016331563 0.029620564
0001b0 35 ea 82 3b bc 75 46 3c 65 98 d2 bb 11 66 05 bb
       0.003995205 0.012113031 -0.0064268583 -0.0020355026
0001c0 a4 68 66 3c 6e 6c 6a 3c 37 97 94 bb d6 3d 32 bc
       0.014063034 0.014308078 -0.004534628 -0.010879001
0001d0 fc 66 df 3c 10 57 20 3c 69 0e 29 bc ea e8 3e 3c
       0.027270786 0.009786382 -0.010318377 0.011652211
0001e0 86 91 73 3b 0c d9 0c bc c3 e8 0c bc de b2 a1 3b
       0.0037165596 -0.00859667 -0.008600417 0.0049346527
0001f0 88 73 f9 bb 96 fd a2 bb 37 74 c4 bb 97 8c 1b bc
       -0.0076126494 -0.0049740775 -0.005995299 -0.009493968
000200 1c 5d 1e bc c6 c5 b8 3c 47 88 8a 3b 45 6f 79 3c
       -0.009665754 0.022555243 0.0042276713 0.015224283
000210 9d 55 9a 3c 16 08 de 3c 01 0e 85 bc 33 76 5f bc
       0.018839652 0.027103465 -0.01624203 -0.013639021
000220 0f f2 c0 3b 76 42 4c 3c 6f ac 5a bc 00 63 e2 3b
       0.0058882306 0.012467017 -0.013346775 0.0069087744
000230 64 a4 83 3c 63 16 24 3c 16 30 12 bd 36 ea 22 3c
       0.016069598 0.010015103 -0.03569039 0.009943536
000240 b3 f4 53 3d c0 15 d5 ba 72 fa 69 bc 5a 36 a4 3b
       0.051747035 -0.0016257092 -0.014280902 0.005011362
000250 c2 19 1e 3d 22 e1 83 3b 0f 06 3b 3c 78 3c 22 3b
       0.038598783 0.0040246407 0.011415019 0.002475528
000260 2d 12 fd bc 17 d5 75 bc 58 11 f3 3c 7c 67 81 bb
       -0.030892456 -0.015004418 0.029671356 -0.003949104
000270 35 2c c6 bb b4 da 7a bb bb 4a 4e 3c fc d4 6a 3c
       -0.0060477504 -0.003827733 0.012591059 0.014333006
000280 c3 fd b2 3c 99 76 0b bd 11 fb 88 3b 9c 0a 8e 3c
       0.021849519 -0.03404865 0.00418032 0.017339043
000290 29 2e 9f bc 03 e1 c8 3c b4 3f c9 3b 3d 04 a7 3b
       -0.01943119 0.024521356 0.006141627 0.005096941
0002a0 72 23 18 bd 4c ea 46 3c 05 2b 8b bc e0 2d 4f bb
       -0.03714318 0.012140822 -0.016988287 -0.0031613037
0002b0 7c dd bf 3c d4 6a 56 3c 2f 56 19 bc dc 17 b6 3c
       0.023421042 0.013086993 -0.009358927 0.022228174
0002c0 9c 0f 4c 3d 84 d6 b0 bc c5 fc 91 bb fc 64 81 3c
       0.049819574 -0.021586664 -0.0044551813 0.015795223
0002d0 6c 99 84 bc 65 fe ea 3c 4c e5 1e 3c d8 2f ab ba
       -0.016186439 0.028685758 0.009698223 -0.0013060523
0002e0 82 f6 96 ba c3 28 50 bc b4 c9 3a bb e3 63 85 bb
       -0.0011517557 -0.012705031 -0.0028501572 -0.0040707453
0002f0 3e 21 6b bc bc de c3 3b 8c 6b 24 3c 8d bf be bc
       -0.014351187 0.0059774797 0.010035407 -0.023284698
000300 e9 61 7d bc 61 12 0d 3d de 4c cd 37 40 94 8f bc
       -0.015465238 0.034441356 2.4473698e-05 -0.017526746
000310 b1 1e 12 bd 93 ae f4 3a 67 06 fd bb cc f8 29 bc
       -0.0356738 0.001866775 -0.0077217105 -0.010374259
000320 7c 5f f6 bc b3 4f 03 3c 3e 4f c0 bc 68 b3 7c 3c
       -0.030074827 0.008014607 -0.023475286 0.015423633
000330 5c 13 29 bc e8 a8 46 bd 46 e1 c3 3c 62 50 5e bc
       -0.010319557 -0.048500925 0.02391113 -0.013568969
000340 8b 58 97 3c 05 00 63 3c 13 4e 83 3c 69 4a 13 bb
       0.018474838 0.013854985 0.01602844 -0.0022474772
000350 02 6a 28 3b a4 f0 3f bb 8c a0 e5 bc 39 c6 94 bc
       0.0025697951 -0.002928772 -0.028030656 -0.018160926
000360 95 81 b7 3b 7b 82 1c bc f3 ee 37 3d 0d a7 40 3b
       0.005600164 -0.009552593 0.044905614 0.0029396445
000370 a0 e5 77 3c 7b 1b 90 bc 2a f0 f9 bb 0f 88 06 3b
       0.01513043 -0.017591229 -0.0076275067 0.0020527875
000380 51 1d a6 bc ae a3 10 3c b5 4c 19 ba 9c ec 03 bd
       -0.020277651 0.008828087 -0.0005847917 -0.03220807
000390 0a e6 2f bc b7 15 35 3c ff 03 28 3d b6 a7 aa bb
       -0.010735998 0.0110525405 0.041019436 -0.005207981
0003a0 a4 34 19 3c c1 5e b2 bc 04 ec 93 3c cf 45 03 3c
       0.009350929 -0.021773698 0.018056877 0.008012249
0003b0 21 4d b4 bc 98 e8 ff ba 4c a0 c9 3c 25 ca bf 3c
       -0.022009434 -0.0019524274 0.024612568 0.02341182
0003c0 1d c3 8c 3c f3 e7 8b bc 19 d1 a1 bc 05 66 53 bc
       0.017182881 -0.017078375 -0.019753026 -0.012902741
0003d0 a7 d9 90 bc 32 a3 04 3d da 40 02 3d cd ef e5 bb
       -0.01768191 0.032382198 0.03180013 -0.007017112
0003e0 fe 9c 35 bc d6 a7 93 bc b0 ed ec 3a e8 0b 42 3c
       -0.011084793 -0.018024366 0.0018076207 0.011843659
0003f0 be 9e f6 3b 67 af 4b 3b eb 83 dd 3c 38 bb a9 3c
       0.0075262478 0.003107989 0.027040442 0.020719156

action_model._discrete_distribution.branches.0.weight f4 [1, 128]
000000 a3 c5 6c bc 63 0a 08 bc df 9e 35 bc 61 ee 1a bc
       -0.014451417 -0.008303258 -0.011085241 -0.009456248
000010 2b 93 12 bc fd 5d 5c bc 7f 03 31 3c e1 92 0f b8
       -0.00894622 -0.013450143 0.010804056 -3.423065e-05
000020 79 ef a8 bc fd fe 40 bc 62 fd b2 bc 5f 73 4b 3b
       -0.020622002 -0.011779544 -0.021849338 0.0031044108
000030 c3 18 63 3b df c0 71 bb 0a 47 94 ba 76 3b b2 3b
       0.003465221 -0.0036888642 -0.0011312675 0.005439217
000040 e3 8e b0 3b b6 c6 bf b9 43 1a 83 3c 4b af 91 ba
       0.005388127 -0.0003657841 0.016003734 -0.0011114863
000050 e3 4a 7c 3c 77 98 39 3c 85 d6 70 bb b1 4b 4c 3c
       0.015398714 0.011327854 -0.0036748957 0.012469218
000060 45 44 7f 3c 3e 95 04 3c d2 50 0c 3b 6d 50 03 bc
       0.015580242 0.008092223 0.0021410477 -0.0080147805
000070 86 96 ba 3b 90 01 45 bb f6 45 be 3b a8 a7 39 ba
       0.0056942133 -0.0030060746 0.00580668 -0.00070821727
000080 78 30 4a bc aa 38 e0 3a b4 06 47 bb 7e 72 b9 bb
       -0.012340657 0.0017106731 -0.0030368986 -0.0056594005
000090 7e 05 8c 3c 5b 7c 1a 3c 93 0f 28 3c 77 8b 8e 3a
       0.017092463 0.009429063 0.010257619 0.0010875304
0000a0 3d de 7e ba 9a 35 7a bb 4b e8 71 ba 32 a7 4b 3c
       -0.0009722447 -0.0038178922 -0.0009228035 0.012429999
0000b0 f3 df 34 bc 3b 9d 38 bc 81 59 48 bb bf e5 c6 bb
       -0.011039722 -0.011267955 -0.0030570927 -0.0060698683
0000c0 f1 35 1d bb dd f1 9d 3a 65 30 e5 3a 88 ff 2e 3c
       -0.002398845 0.001205023 0.0017485736 0.010681041
0000d0 be 4b ae 3b f0 d0 e9 3a 4a cb 1a 3b 16 7a 27 ba
       0.0053190878 0.0017838757 0.0023619705 -0.00063887367
0000e0 b3 3f 3c bc e7 03 de 3b 59 16 07 bc 46 1d 8b 3b
       -0.011489796 0.0067753675 -0.008245074 0.004245433
0000f0 a1 dd b6 bb 71 98 96 bb 7b 8d fe bb 6a 74 4f 3b
       -0.0055806194 -0.004595809 -0.0077683306 0.0031655082
000100 47 ab ab ba 97 1f b8 39 33 db 8d 38 fd 0a ef 3b
       -0.0013097309 0.0003511875 6.764233e-05 0.007295011
000110 a9 4e c0 bb 37 56 eb 3b a3 82 0c 3c 8b cb 97 3c
       -0.005868752 0.0071819085 0.008576068 0.018529674
000120 95 e6 18 bc 07 a7 0b bb d8 d5 61 ba 9f 3d 9a bc
       -0.009332319 -0.0021309273 -0.0008614934 -0.018828211
000130 9b c0 5b 3c 4d c6 80 bb 51 33 28 bc 2d 7d a1 3b
       0.01341262 -0.0039298893 -0.010266141 0.004928252
000140 f0 57 dc bb 77 ca 35 3a 72 82 76 3b 0b fb f2 ba
       -0.00672435 0.00069347717 0.0037614373 -0.0018537951
000150 77 23 14 b8 64 6e 1d 3b fb 5d be 3b c3 07 04 bc
       -3.531898e-05 0.0024022097 0.005809543 -0.008058491
000160 17 a6 39 3c eb 4f 1e bb 75 6e 1d 3a 73 16 3a bc
       0.011331103 -0.0024156522 0.0006005534 -0.011357891
000170 3a bf 7f bb 5d a8 f1 bb cf b4 18 bc d9 c6 2f 3c
       -0.0039023892 -0.007374807 -0.009320452 0.010728561
000180 27 0a 49 3b 91 85 1d bc 12 65 7b bb 97 a4 b5 3b
       0.0030676217 -0.009614364 -0.0038359803 0.0055433023
000190 b5 a3 9b 3b f6 51 0a 3c 77 2d 76 3b 80 bd cd bb
       0.00474974 0.008442393 0.003756372 -0.0062786937
0001a0 0f cc be bb 41 a4 32 3b 52 6e 06 3c 87 f8 9d bb
       -0.0058226655 0.0027258547 0.008205013 -0.0048208865
0001b0 b7 72 2a bc 47 3c 6c bb af 95 1b 3b 1d c8 f0 bb
       -0.010403327 -0.003604667 0.0023740341 -0.007348074
0001c0 1b cd 43 bb e3 dc a2 bb 3e 7b 92 bb 38 22 94 3a
       -0.002987689 -0.0049701794 -0.004470258 0.0011301702
0001d0 00 fc 33 bb 60 be 55 3c a5 8d 5e 3c 08 a9 ff bb
       -0.0027463436 0.013045877 0.013583575 -0.0078021325
0001e0 0a eb 0e 3c 17 8e 61 3c 7b 02 6d 3c be 30 a0 3b
       0.00872303 0.013766787 0.014465923 0.004888623
0001f0 57 f9 86 3b a8 a9 92 3c 67 6c f2 3b de 42 83 bc
       0.004119079 0.017903164 0.0073981765 -0.016023096

network_body._body_endoder.seq_layers.0.bias f4 [128]
000000 36 26 c8 39 a6 7f 9f b9 52 3a 45 ba 06 b7 ad bb
       0.00038175442 -0.0003042195 -0.0007523644 -0.005301359
000010 ef e2 b2 3a 88 91 90 bb 1e 56 88 3a 7e 79 06 3b
       0.0013647954 -0.00441188 0.0010401641 0.0020519192
000020 c2 29 52 bb a9 9c 43 ba 7a 96 43 bc e5 94 1f 3c
       -0.0032068347 -0.0007462004 -0.011937732 0.009740089
000030 14 0d c9 bb 10 3b 4c 3b 0a 2d 97 3b 74 67 9e 3b
       -0.0061355922 0.0031163134 0.0046135234 0.00483411
000040 ae 8e 77 bb 46 f2 65 3c 3b 0b c2 bb 15 26 eb b9
       -0.0037774253 0.014034813 -0.005921749 -0.00044851066
000050 79 c0 6d 3b 3b 93 bd ba 6d c4 81 3b be 9f 08 bb
       0.0036278053 -0.0014463434 0.0039601834 -0.0020847167
000060 38 fc 74 bb 19 d0 4e bc 48 ee 0a bb 46 5e cb bb
       -0.003738178 -0.012622857 -0.0021199156 -0.0062063066
000070 d6 39 85 3b c0 be 8a 3b 26 7c 59 ba 53 43 49 ba
       0.0040657325 0.004234165 -0.00082963926 -0.00076775736
000080 18 81 0d 3b c7 19 c8 bb 1e c8 2c 3c 5e 12 33 bc
       0.0021591838 -0.0061065885 0.0105457585 -0.010929672
000090 bd d5 16 3a 3f ff 03 bc b8 08 0a bc 91 55 63 3b
       0.00057538954 -0.008056461 -0.00842493 0.0034688453
0000a0 39 2e 90 bb e8 59 62 37 f0 78 aa bb c9 e8 e1 3b
       -0.0044000414 1.3491583e-05 -0.005202405 0.006894205
0000b0 91 51 94 bb c7 38 66 bb b5 c0 e4 bb 82 ee b8 3b
       -0.004526325 -0.0035129057 -0.0069809803 0.0056436667
0000c0 18 8a b5 ba c9 0f 43 3b d0 68 37 bc 7d a3 64 3b
       -0.0013850359 0.0029764047 -0.011194423 0.0034887486
0000d0 f4 f6 8f 3a 3a 99 3d 3b 4b 23 24 3a 8f 6f 16 bc
       0.0010983632 0.0028930441 0.00062613626 -0.009181871
0000e0 cc 43 00 bc 10 3e fa b9 07 9c e8 bb 2e e6 2c bb
       -0.007828664 -0.00047729956 -0.007098678 -0.0026382315
0000f0 84 f4 fa bb ab 15 8c bb 8f 0e 36 3b c2 ed b4 bb
       -0.007658543 -0.004275044 0.0027779674 -0.005521507
000100 68 24 05 3c 25 b9 06 ba a6 19 cf bb 6f 3b 6a bc
       0.008126356 -0.0005139283 -0.006320196 -0.014296397
000110 0f 0d e0 ba 08 d7 36 bc 55 0c 36 bb 1b ad 29 bc
       -0.0017093736 -0.011159666 -0.0027778347 -0.010356213
000120 6e fb b3 3b 85 91 67 bb 92 46 37 bc f5 b3 64 3a
       0.0054926192 -0.003533454 -0.011186259 0.00087243255
000130 6c 91 03 3b 05 12 15 bc 2b e2 34 3b 89 e2 84 bb
       0.0020075692 -0.0090985345 0.0027600627 -0.0040553254
000140 2e 5d f9 38 eb fd 00 3b 7e 76 f5 3b c2 1a b0 ba
       0.00011890601 0.0019682597 0.007490932 -0.0013435709
000150 4c bf 91 bb 44 15 74 3b 8f f8 53 3b dc ab ae 3a
       -0.004447853 0.003724412 0.0032344197 0.0013326365
000160 38 93 af 3b e8 60 07 bc 52 ac b0 bb 4d ad c3 bb
       0.005358126 -0.00826285 -0.005391636 -0.005971587
000170 57 db 58 3b f0 f5 a3 bb db 45 7f 3a 25 22 a3 3b
       0.003308972 -0.0050036833 0.00097378873 0.0049784356
000180 10 8d e9 38 0c ef 1f 3c d8 f6 5b bb cb cb 7b 3c
       0.00011136581 0.009761583 -0.0033563878 0.015368412
000190 29 78 1c bc 47 13 86 bb 14 8c 9c bb d3 e4 10 bc
       -0.009550133 -0.0040916535 -0.004777441 -0.008843618
0001a0 29 2e 3c bc 75 f9 1d bc 4a 3f 19 38 73 ea 99 3a
       -0.011485615 -0.009641995 3.6536985e-05 0.0011742845
0001b0 97 db 12 bc c4 d8 7a ba 99 97 a5 bb 9a 9a 55 bc
       -0.008963487 -0.0009569044 -0.0050534722 -0.013037348
0001c0 9d a9 07 3a ae 3d 00 bc 14 d3 da bb c3 db 8f 3a
       0.00051751157 -0.007827206 -0.0066779945 0.0010975528
0001d0 bf a3 3b bb e9 10 6c bb af 48 c9 3a c0 f5 24 3b
       -0.0028631536 -0.0036020821 0.0015356744 0.0025170892
0001e0 28 00 ef ba d6 91 96 3b 6d 0c 7f 3c 34 cf 1f 3c
       -0.00182343 0.0045950217 0.015566927 0.009753991
0001f0 84 bb 5c 3b b5 78 09 b9 c1 95 41 bb 8c cb b2 3b
       0.0033681104 -0.00013110305 -0.0029538723 0.0054563936

network_body._body_endoder.seq_layers.0.weight f4 [128, 13]
000000 3c aa 09 be 0b bb 1a be 0b 40 e5 3c 9f 2b 3b 3d
       -0.13443846 -0.15110414 0.02798464 0.045695897
000010 88 f2 ba 3e 6c c1 92 be b3 73 00 3d d3 02 70 3e
       0.36513162 -0.28663194 0.03136034 0.23438577
000020 2e 47 20 3d af 62 82 3e f5 50 14 be 2f a2 95 3e
       0.039130382 0.25465915 -0.14484008 0.292253
000030 bd 29 56 3d 3a 0d 1a 3e 9d 88 98 3e 21 34 b0 3c
       0.0522859 0.15044108 0.29791728 0.021509232
000040 62 52 56 3e eb 80 a0 be cc 10 15 be 31 44 b4 bd
       0.20929864 -0.31348357 -0.14557189 -0.08802069
000050 43 8c 43 bd e8 e1 cf 3e 2a 52 02 be e7 bb 5f be
       -0.047741186 0.4060204 -0.12726656 -0.21849023
000060 a3 53 92 be a9 1f 38 be bc 4d e7 3e 99 27 54 3e
       -0.28579435 -0.17980827 0.45176494 0.2071823
000070 02 95 63 3d 4c 2f 91 be 43 0d 8e 3e a8 a7 f7 bd
       0.055562027 -0.28356397 0.27744493 -0.12092525
000080 5a 3c 65 be 77 04 b4 3e 1c 25 96 be 56 4e 2d be
       -0.22386304 0.35159656 -0.29325187 -0.16924414
000090 04 d1 16 bf 4a 4e 3e 3e 7e 62 a6 3d 70 3c 02 be
       -0.5891268 0.18584552 0.08124255 -0.12718368
0000a0 eb 9c ab 3e 50 84 e1 bc b2 40 75 3e 8d 20 7c 3e
       0.33518156 -0.027528912 0.2395046 0.24621792
0000b0 68 26 a3 bc c2 23 92 3e 8d ea 47 3e c0 26 f1 be
       -0.019915774 0.28542906 0.19523068 -0.47099876
0000c0 b3 27 d9 3d a2 e4 0a 3f db dc cf 3e 34 39 cb bd
       0.10603275 0.54255116 0.40598187 -0.0992302
0000d0 9c a8 01 bd d5 f4 e7 bc fe 7e 9b 3e aa 11 f1 bd
       -0.03165494 -0.028314987 0.30370325 -0.11770947
0000e0 c5 27 0e be d6 2c ab 3d 34 c4 67 3e 79 2a ea 3d
       -0.13882358 0.08358161 0.2263344 0.11433882
0000f0 b3 5a fc 3d c4 1e 83 be 54 99 c6 3e 8f 43 84 3e
       0.12321987 -0.2560941 0.38788855 0.25832793
000100 f8 fa fd 3e fc ef 1b be c5 f1 98 3e 08 96 01 be
       0.49605536 -0.15228266 0.29871956 -0.12654889
000110 ff e5 17 be 6e 9b 79 3e 39 c8 c7 3e 1f 66 0c be
       -0.1483383 0.24375698 0.39019945 -0.13710831
000120 de 7f 0a 3f bb 2e 6d 3d 58 3f 35 3e 2b 79 a7 be
       0.5410136 0.057905894 0.17699945 -0.3270963
000130 b1 fe 7f be ea b7 c1 3e ea 79 b7 be 16 89 d3 bd
       -0.24999501 0.37835628 -0.358352 -0.103288814
000140 f9 3a 10 be 69 d3 13 3e 9c 11 96 3d 13 ed 15 3e
       -0.14084996 0.14436115 0.073275775 0.14641218
000150 ce 22 ac be f9 6b 03 bd 85 48 2e be f7 6a 3d 3e
       -0.33620304 -0.032085393 -0.17019852 0.18497835
000160 1c ab cd 3c 29 ea 11 3f 2b 91 0b bf e3 ae 51 be
       0.025106005 0.56997925 -0.54518384 -0.2047687
000170 7a ad ab be 62 12 2d 3d 00 6b 62 be 68 76 13 bd
       -0.3353079 0.04225386 -0.2211113 -0.036001593
000180 f2 68 3e 3e dd 03 d2 bd 69 89 fa 3e 91 9d 34 3d
       0.18594721 -0.10254643 0.4893296 0.04409558
000190 fa d7 02 3e 7d ae 52 3e 54 73 44 3e 7c c2 5b bd
       0.12777701 0.20574374 0.19184619 -0.05365227
0001a0 03 2a ba 3d e5 72 51 3e ec c1 33 be 97 99 61 be
       0.09090044 0.20453985 -0.17554444 -0.22031246
0001b0 82 cd 07 bd c8 44 96 3e 24 4c 8e 3e e5 05 63 3c
       -0.033154972 0.2934935 0.27792466 0.013856386
0001c0 67 c5 ac 3e 8e 7a 70 bd 33 85 8e bd 39 43 53 3f
       0.33744356 -0.058710627 -0.069589995 0.8252445
0001d0 1c 25 71 3e 9e 9b 72 3e 8a 78 07 bf f1 61 ec be
       0.23549312 0.23692176 -0.52918303 -0.46168473
0001e0 39 ef 39 3d 72 25 4e bd 68 53 a7 be 11 b8 36 3e
       0.045394156 -0.05032868 -0.3268082 0.17843653
0001f0 47 2a 8a 3e 70 7e 36 3f f7 ab 10 bf ab d8 01 3f
       0.2698538 0.7128668 -0.565124 0.50721234
000200 1a 63 34 3f 63 8a b4 be 8f 9b f1 bd 6e 82 46 bc
       0.70463717 -0.3526183 -0.117972486 -0.012116058
000210 39 59 29 3e 2c db 89 bd 30 76 9a 3e 2e e5 9c 3e
       0.16537942 -0.06731257 0.30168295 0.306436
000220 5e 45 66 bd 83 20 95 be 24 5a 5e 3d 52 49 e9 3c
       -0.056218497 -0.29126367 0.054285184 0.028477345
000230 f4 03 bb 3d 12 07 14 bf 9b 80 1a bd e2 4f 59 3e
       0.091316134 -0.5782329 -0.037720304 0.21221879
000240 36 ea 4f 3e d4 e9 46 be 27 ab 55 3e 10 ef 2e bf
       0.20304188 -0.19425136 0.2086607 -0.6833353
000250 5d b2 1c 3e 0d 48 85 3b 70 c3 0b bf bf e4 33 3e
       0.15302415 0.004067427 -0.5459509 0.17567728
000260 87 b2 3f 3e 23 49 87 be 28 c1 3c be 82 a6 82 be
       0.18720447 -0.26422986 -0.18433058 -0.2551766
000270 94 a5 94 be 9d 4f 95 be 0f 26 1d bd 8e d3 fb bc
       -0.29032576 -0.29162303 -0.038366374 -0.030740526
000280 10 56 82 be 53 60 ff 3d d3 d1 1c 3f a3 8b e2 3d
       -0.25456285 0.12469544 0.61257666 0.1106179
000290 3c b1 d8 bd 01 81 50 3d c1 40 02 be 7f 01 be 3d
       -0.1058068 0.050904278 -0.12720014 0.09277629
0002a0 fd f9 ed bd 7b cd 9a 3d 35 05 c3 bd da 5e 60 3e
       -0.11619947 0.075587235 -0.095224775 0.21911183
0002b0 a5 ef 64 bc 03 92 07 be 1a c4 73 3d 9d a1 02 bf
       -0.013973151 -0.13239293 0.05951319 -0.5102785
0002c0 11 ec ad 3d 2f eb 11 bd e2 ab 22 bf 6f 61 07 3e
       0.08492292 -0.03562468 -0.6354352 0.13220762
0002d0 8a 9e 94 3d d7 b4 6f 3e 2d b0 56 3e 23 1d 05 bf
       0.072568014 0.23408829 0.20965643 -0.51997584
0002e0 f8 bd c2 3e 25 29 86 3d a8 cd 4d 3c a1 0c e3 bc
       0.3803556 0.065508164 0.012561239 -0.027715983
0002f0 80 28 a6 be e0 92 e8 3d 9e 4c 99 be 60 ac 11 be
       -0.32452774 0.11356139 -0.29941267 -0.14225912
000300 b3 84 f9 bb a7 c1 99 be 7f f7 3e be 55 ad 5c 3e
       -0.007614696 -0.30030558 -0.186491 0.21550496
000310 af 46 14 be af cb 7d 3e e1 3e b6 be 58 14 1b be
       -0.14480089 0.2478473 -0.35594848 -0.1514448
000320 6e 06 62 3e bc ae c6 be 1a 8c a0 be de e8 bb be
       0.22072765 -0.38805187 -0.3135689 -0.367011
000330 cc 11 8b bb 39 24 ca bc 39 49 bb 3e e1 ad 39 3d
       -0.004244065 -0.024675475 0.36579302 0.04533184
000340 3f 19 a7 3e 7f 53 1d 3e bf e7 21 3d a1 41 f6 be
       0.3263645 0.15363882 0.03952765 -0.48096946
000350 23 23 86 3d 1f b6 cb bd 94 3d 26 3d 91 7c d0 ba
       0.065496705 -0.09946846 0.04058607 -0.0015906264
000360 ac 54 03 3f d6 3c 6c 3e e4 d0 6e 3e 58 66 6a be
       0.51301074 0.23070082 0.23321873 -0.22890604
000370 95 48 9c 3f bc 7a 0b 3e a0 b6 f2 3d 0d 22 6b be
       1.220965 0.13621038 0.11851239 -0.22962208
000380 1f b2 bd be 87 1e ee 3c 72 45 76 be c0 c2 47 bf
       -0.37049958 0.029067291 -0.24049929 -0.7803154
000390 e9 0d bf bd 29 12 e2 bd ec dc b2 bc f2 3b 4a 3d
       -0.09328825 -0.1103862 -0.02183386 0.049373575
0003a0 b8 e8 72 bd 7b 3b 16 3f 15 1b c4 3c 1a e3 e8 bd
       -0.05930397 0.5868451 0.023938695 -0.11371441
0003b0 c3 d9 b0 be a4 1b 3e be b8 2f 7d be ac a2 8f 3e
       -0.3454114 -0.18565232 -0.24725235 0.28053796
0003c0 9c 45 3c be 33 8f 48 bd 4e b3 00 3f 70 09 aa 3e
       -0.18385929 -0.04896469 0.502736 0.33210325
0003d0 bd 46 d4 3c 05 10 e9 3d 9b 70 80 be e1 d6 d4 3e
       0.025912637 0.113800086 -0.2508591 0.4157019
0003e0 6a 58 d4 bd a5 4c 80 3d 79 d6 df bd 28 d1 d6 3d
       -0.10368426 0.06264619 -0.10929579 0.10489112
0003f0 e4 50 c1 3e 62 45 0a 3e 78 99 a2 3e fe de 1c be
       0.37757027 0.1350303 0.31757712 -0.1531944

network_body._body_endoder.seq_layers.2.bias f4 [128]
000000 d8 9b 8b 3a 5f 0f dd ba 30 13 6f bb ed e1 b1 bb
       0.0010651303 -0.0016865543 -0.0036479943 -0.005428544
000010 c2 f2 f3 bb 22 c6 d3 ba 35 91 71 3b ac 3e 12 3c
       -0.0074447105 -0.0016157071 0.0036860232 0.008926075
000020 eb 79 b9 ba 8c 51 96 3c 7c 0a 2a bb 37 a5 1a 3b
       -0.0014150714 0.018349431 -0.002594619 0.002359701
000030 46 75 34 bb 56 9d ec bb 7e ca 14 3c ab 90 59 bb
       -0.002753572 -0.0072209043 0.009081481 -0.00331978
000040 91 30 00 3b 75 05 1a ba 68 16 6a 3b fb 5e ce bb
       0.0019560198 -0.0005875447 0.0035718922 -0.0062979436
000050 8b d5 74 bb 80 a7 75 3b 86 b0 9f b8 29 0c 29 bb
       -0.0037358727 0.003748387 -7.614591e-05 -0.0025794602
000060 db ed 7d 3b 6b 17 5e 3b d1 e9 a8 3b 58 fa b0 bb
       0.003874651 0.003388847 0.005154826 -0.005400937
000070 c0 bd 1a bb 7c f9 3d 39 e4 ef 9c ba 7f db 93 ba
       -0.0023611635 0.00018117385 -0.0011973348 -0.0011280625
000080 4f a4 03 bc b0 d4 be 3b b9 69 23 3b dd 0b 9b bb
       -0.00803478 0.005823694 0.0024934842 -0.004731639
000090 61 bc 12 3b 3b bb 26 bb 46 8e 8c 39 aa 14 ee ba
       0.0022390115 -0.0025441188 0.00026808883 -0.0018164117
0000a0 07 d9 24 b9 25 49 76 bb 4e c3 47 ba ac 2e a8 bb
       -0.00015721108 -0.0037580219 -0.000762035 -0.005132517
0000b0 06 3a a6 3b e7 36 ae bb 49 4a d7 3b eb 13 b3 bb
       0.005072835 -0.0053166035 0.006570135 -0.005465021
0000c0 9a 50 10 3b cb 24 2f 3b bf c9 85 3b 78 90 89 bb
       0.0022020699 0.0026724811 0.004082888 -0.00419813
0000d0 39 76 88 3b 35 3d b4 bb 1c 33 93 bb 7d c3 2c 3a
       0.004164484 -0.0055004605 -0.0044921767 0.00065904093
0000e0 74 cb 9f bb 78 bd e8 3a 51 f7 a3 bb 94 16 23 3a
       -0.0048765484 0.0017756661 -0.0050038476 0.0006221321
0000f0 27 b0 6a 3b dd 72 c8 ba b4 64 e5 3a 7a 15 7f 32
       0.0035810561 -0.0015293021 0.0017501325 1.4847837e-08
000100 ad 3d 87 b6 20 7c b8 bb 6b d1 a8 bb 7e c1 f4 3a
       -4.0304935e-06 -0.005630031 -0.0051519177 0.0018673388
000110 a8 77 80 3a 7f d5 1f 3b fa 56 71 3a c4 ac 65 bb
       0.0009801285 0.0024388728 0.0009206381 -0.0035045603
000120 20 c4 e3 3b fe 12 f4 bb 10 d3 89 bb d4 73 c2 bb
       0.00695087 -0.007448553 -0.004206069 -0.005934218
000130 ab a2 f9 3a b8 e6 0c 3b d1 ea f7 bb 46 2e 07 34
       0.0019045671 0.0021499824 -0.007565834 1.2589689e-07
000140 2d f9 a5 3b 05 f4 c9 b7 7c aa 22 28 7c 98 e3 bb
       0.0050651045 -2.4074698e-05 9.029774e-15 -0.006945668
000150 f4 24 84 bb ab 6a 77 bb 15 32 e6 bb 6c 9d c1 3b
       -0.0040327255 -0.0037752788 -0.007025013 0.0059086587
000160 f8 3b d2 bb 10 4d 76 b6 da 70 4a 3c 74 13 40 bb
       -0.0064158402 -3.6701713e-06 0.0123560075 -0.002930847
000170 39 f9 09 bc 2a 81 d0 bb 83 71 bd 3a c9 64 cd 3b
       -0.008421236 -0.006363054 0.0014453385 0.006268118
000180 9e ab 4d 3b c9 64 8a bb 7d c0 5c bb ef 5a 7e bb
       0.003138281 -0.0042234403 -0.0033684068 -0.0038811525
000190 62 51 27 3b f6 ec 9e bb 74 a4 23 bb 8d 5d ea 3a
       0.0025530686 -0.0048500253 -0.0024969848 0.0017880664
0001a0 1a b6 d9 3b 19 0e a3 3b 5e cf ca bb a3 43 f8 ba
       0.0066440227 0.004976046 -0.006189271 -0.0018941056
0001b0 52 68 d9 ba 36 60 58 bb b3 be 86 bb a3 81 e7 bb
       -0.0016586876 -0.003301633 -0.0041120886 -0.0070650144
0001c0 cb 83 fd bb a2 e4 00 bb 5b 91 09 b9 fc bb 8d bb
       -0.007736658 -0.0019667526 -0.00013119487 -0.004325388
0001d0 ba 8a 54 3c 80 1e 1f 3a 88 89 ab bb dc 1d af 3a
       0.012972528 0.00060699135 -0.005234901 0.0013360339
0001e0 06 25 37 bb 15 c1 23 bb 2a c9 1c ba 6e 55 31 bc
       -0.0027945652 -0.0024986912 -0.00059809035 -0.010823591
0001f0 59 9b 08 ba b5 6e 89 bb 13 68 86 bb 5d ae 8d 3a
       -0.0005211137 -0.0041941055 -0.004101762 0.0010809411

network_body._body_endoder.seq_layers.2.weight f4 [128, 128]
000000 64 f0 8a bc 47 89 ac 3c c2 16 10 be d9 55 a3 bc
       -0.01696033 0.021061553 -0.14071181 -0.019938396
000010 49 7d 16 3d ce 1e 8a bd 76 18 49 3e c2 58 b2 bc
       0.036740575 -0.06744157 0.19638237 -0.021770839
000020 50 29 0c be 6b f5 44 bd e2 f6 11 3e 1e 55 ae 3d
       -0.13687634 -0.04808561 0.14254335 0.085123286
000030 f6 1b 9d 3d 44 8e 28 3d b0 08 67 3d a7 df ad 3c
       0.07671349 0.0411513 0.05640477 0.02122481
000040 b3 b9 9c bd a7 ec 7c 3d 27 f2 a6 bd 4f 7a 48 be
       -0.07652607 0.061749127 -0.08151656 -0.19577907
000050 44 95 0e bd 04 dd 95 3d 77 a7 88 bc 7f b6 ae bd
       -0.03481032 0.07317546 -0.016681416 -0.08530902
000060 f3 04 74 bd 6c b1 5b bd 54 8b ae 3d 17 5e 23 3d
       -0.059575032 -0.053636 0.085226685 0.039884653
000070 f3 ea 5f bd 00 21 47 3d 8c 80 3f bc e5 e8 05 3d
       -0.054667424 0.048615456 -0.011688363 0.03269281
000080 5b 6b 14 3e f1 30 13 3e 85 61 30 3e f2 00 7e 3c
       0.14494078 0.14374138 0.17224701 0.015503155
000090 f6 c5 1b 3e 7b 83 57 3e a9 01 48 bd 93 f0 a4 bd
       0.15212235 0.2104625 -0.04882971 -0.080536984
0000a0 a3 9d 53 3c c4 ad b5 3d ad 4b 2e be c4 f2 21 3b
       0.0129160015 0.08871034 -0.17021056 0.002471135
0000b0 0b 4f 4f bc b5 c0 3a 3d e4 d9 79 3d 23 0b 63 3d
       -0.012653123 0.045593936 0.060998812 0.055430543
0000c0 8a 03 e0 3d c1 99 fa bc 1f b5 20 3d cf 63 35 bd
       0.10938175 -0.030590894 0.03923523 -0.044284638
0000d0 69 67 9d 3b e8 03 83 bd 45 ac b1 3d e4 a2 32 3d
       0.004803587 -0.063972294 0.08675436 0.043612376
0000e0 c4 f2 0c be d3 7d 07 bd 62 32 e6 bc ca 9a 00 3e
       -0.13764483 -0.03307898 -0.028100196 0.12559047
0000f0 82 b3 ca 3d d2 ee 63 bc 5e af 3c 3e 78 ae ad 3d
       0.0989752 -0.01391192 0.18426272 0.08480543
000100 b1 c6 a1 3d e5 84 f1 39 63 ff b7 bc d4 76 ae bc
       0.078992255 0.00046066116 -0.022460645 -0.021296896
000110 84 c9 1b bd 8e fb 4e 3d 4f 51 e0 3d 32 99 08 3d
       -0.038033977 0.05053287 0.109530084 0.033349223
000120 c9 2b 05 3e f1 8f ba 3d 71 0e c3 bd 20 5e 76 bd
       0.13004984 0.09109486 -0.09524239 -0.06014836
000130 a2 02 76 bd c9 de 24 be 46 18 18 3d bf 43 84 3d
       -0.060061105 -0.16100611 0.037132524 0.06458234
000140 b3 12 f1 3c 74 2d 16 be c1 22 11 bd 8b 5b 99 bc
       0.029427862 -0.14665776 -0.035433535 -0.018720409
000150 21 87 af 3d fc 73 b5 3d ca 73 71 be a9 27 1a be
       0.08570696 0.08860013 -0.23579326 -0.15054192
000160 38 a2 9e bd e6 45 71 3d f8 93 07 3e 17 b6 13 3e
       -0.077457845 0.05890455 0.1324004 0.1442493
000170 cf 62 5a bd 5e de f7 3d 50 bf 13 be 34 1e df 39
       -0.053316887 0.1210296 -0.14428449 0.00042556378
000180 d0 f9 9d 3d 09 63 6a 3d a2 8c 25 3e 95 b5 ec ba
       0.077136636 0.057223354 0.16166928 -0.0018059487
000190 d1 c6 1c bd d0 fb b0 3b 3d cf 2e bb 83 3c 7f 3d
       -0.038275544 0.005401112 -0.0026673817 0.062313568
0001a0 42 49 18 be 82 b2 2a 3e 6b a8 15 3c bc ae 54 3d
       -0.14871696 0.16669658 0.009134392 0.051924452
0001b0 56 74 11 bd 67 08 cd bc 5e 61 1f 3c aa ad 1d bb
       -0.035511337 -0.02502842 0.009727804 -0.002405981
0001c0 8b 6f b6 3d 1b 80 ab 3d 1a b2 22 bd 8d 7a 36 3e
       0.08907994 0.083740436 -0.039720632 0.17820187
0001d0 6e 07 12 be ca 6f 9f bd 30 37 b8 3d e9 3f f5 3d
       -0.14260647 -0.07784994 0.08994901 0.119750805
0001e0 47 dd a9 3d c6 fa d1 3c 21 4e 05 3e 48 72 99 bd
       0.082941584 0.025632273 0.13018085 -0.074925005
0001f0 b1 c4 af bd e4 d5 23 be 15 e6 09 3d d7 f0 f3 3a
       -0.08582438 -0.15999562 0.03366669 0.0018611205
000200 10 82 a3 bd 32 a3 75 bc be 8f cc bd 71 b0 d4 bc
       -0.07983792 -0.014992522 -0.09988354 -0.02596304
000210 50 e5 9f bd f9 74 23 be 8c 5f 1f be 2f dc ae bc
       -0.0780741 -0.1596259 -0.15563792 -0.021345226
000220 9d 7a c6 bd 00 fa b7 3c 9f 33 44 3d 5e 48 21 bd
       -0.096913554 0.022458076 0.047900792 -0.039375655
000230 bb 6c 81 bd 0d 16 e6 3d c7 cf 4b 3c 03 8c 7f bd
       -0.06319567 0.112346746 0.012439675 -0.062389385
000240 58 65 32 be 89 4b e1 3d b8 da fe 3d 22 4e 1a bb
       -0.17421472 0.11000735 0.12444061 -0.0023545106
000250 2a 76 3d bd 26 01 a6 bd 35 93 0c 3c e4 e6 a6 3a
       -0.04625527 -0.08105688 0.008580019 0.0012733606
000260 82 31 74 3d 6e fa ae bd f0 a4 f0 bb ff ae 2f bd
       0.059617527 -0.085438594 -0.007343881 -0.0428915
000270 30 43 ff bd 46 9c e4 3d e0 e1 be 3c 80 1d 06 be
       -0.12463987 0.11162619 0.023301065 -0.13097191
000280 61 13 75 bd 4e 27 32 be a7 ae 21 3d ca 45 11 be
       -0.059832934 -0.17397806 0.039473202 -0.14186779
000290 ad b5 a7 ba aa 7c 40 3d 30 93 ae bd 2a a5 26 bd
       -0.0012795232 0.04699389 -0.085241675 -0.040684856
0002a0 f8 13 aa bc ea 46 74 bd 47 aa dc 3d 0a 66 df bd
       -0.020761475 -0.05963794 0.10774665 -0.10908134
0002b0 5c eb 1e 3d 05 95 d1 bd 3d a5 4c bd d4 e8 e4 3d
       0.038798675 -0.10233501 -0.04996227 0.11177221
0002c0 ca f8 c0 bd 61 5a 05 bd d9 fe 03 3e 9c e1 14 3e
       -0.09422453 -0.032556895 0.12890185 0.14539188
0002d0 31 ca 2b 3c ec dd a0 3c ec 02 bc 3d 9a dc 31 3e
       0.010485218 0.01963707 0.09180245 0.17369309
0002e0 cc e1 a3 3d 92 43 34 3c 7d 23 94 3d 5d ea 30 bd
       0.08002052 0.011002438 0.07233331 -0.043192256
0002f0 5d 4b 69 3c 9a d3 9f 3d 61 4b bf bb 35 2c 18 3e
       0.014239159 0.07804032 -0.0058378433 0.14860614
000300 f3 cd 6d bc 2d c1 d3 3c 3e 1c dc bc 02 fc ca bc
       -0.014514434 0.02584895 -0.026868936 -0.02477837
000310 57 2f af 3d de 0d 56 bd cd 1d a7 bc 73 03 bd 3d
       0.08553951 -0.05225932 -0.020399952 0.092291735
000320 cb d1 f5 3c c1 18 a1 3d 51 f8 e4 3d 91 6b 01 be
       0.030007264 0.078660496 0.11180175 -0.1263869
000330 44 b0 23 bd 9b df f6 3c 0d 88 16 bd 7e ee 0d bd
       -0.039963022 0.03013592 -0.036750842 -0.034651272
000340 21 00 07 be b7 bb 33 3d d5 43 64 bc 7b 5a 05 be
       -0.13183643 0.04388019 -0.013932188 -0.13022797
000350 11 57 66 3d 9f a4 f1 3d 8e b5 d5 3d 9b 6e 90 bd
       0.056235377 0.11798977 0.104350194 -0.07052346
000360 1e 52 a0 bd dc d5 12 3e 73 9f 03 3e 2d d2 8d 3c
       -0.078281626 0.14339393 0.12853794 0.017312134
000370 2b 10 9b 3c 5a 82 2f 3e a3 59 1c 3e 7a da b1 bd
       0.018928608 0.17139569 0.15268569 -0.08684249
000380 05 2a d7 bd cb 2f 7a bd bf 34 6a bd 4a 01 8f 3a
       -0.105060615 -0.061080735 -0.05717921 0.0010910418
000390 c1 00 e1 bb e0 27 a7 bd 90 34 a1 3d c6 51 5c bd
       -0.006866545 -0.081619024 0.078713536 -0.053788923
0003a0 66 77 e0 bd 4f a2 06 3e 43 49 27 bb dc 75 90 3c
       -0.109602734 0.13147853 -0.0025525845 0.017634325
0003b0 8d 4d 8a bc d5 3c 4b bd a5 6f 74 3c 78 7d 82 3d
       -0.016882682 -0.04961856 0.014919196 0.063715875
0003c0 18 76 94 bd ca ec bc bc 81 95 e1 bd 71 5b fe bd
       -0.07249087 -0.023062129 -0.11014844 -0.12419785
0003d0 6c 40 01 3e 68 e8 f3 bc d9 e8 d8 3d 41 1d aa bd
       0.12622231 -0.029773906 0.10591287 -0.08306361
0003e0 32 6c d2 3d d4 18 d8 3d b6 bd 78 bd 89 33 b0 bd
       0.10274543 0.105516106 -0.060727797 -0.086035796
0003f0 7f 25 f5 3d ac be a3 3c 60 0c 6a bd 45 a3 bd bd
       0.119700424 0.01998838 -0.057140708 -0.09259657
