results/mimicagentfinale/RaceCar/RaceCar-500058.pt (torch, 543535 bytes, 47 tensors)

network_body._body_endoder.seq_layers.0.weight f4 [128, 13]
0	0x3e06f5dc	0.13179725
1	0x3eadb5fe	0.33927912
2	0x3cf90721	0.030398907
3	0x3eb48d3b	0.35264
4	0x3d34bed9	0.04412732
5	0x3d89c94d	0.06727848
6	0xbe1fc195	-0.1560119
7	0xbcacc412	-0.021089587
8	0xbe22220c	-0.158333
9	0xbd9d4225	-0.07678632
10	0x3e8a6dab	0.27036795
11	0xbe2f0c5a	-0.17094555
12	0xbd2f49bc	-0.042794928
13	0x3f2385db	0.6387612
14	0x3dad0d0b	0.084497534
15	0x3dd44e62	0.10366513
16	0x3ee64bf3	0.4497982
17	0x3cc39ee5	0.023879478
18	0x3da71d60	0.081599
19	0x3e7f6bfd	0.24943538
20	0x3d420938	0.047372073
21	0x3ea109f2	0.314529
22	0x3ed6b3c8	0.41934037
23	0xbd8e7796	-0.06956403
24	0x3d9cf6cd	0.07664261
25	0xbec52055	-0.3850123
26	0x3e912745	0.28350273
27	0xbd3da956	-0.04630407
28	0xbe8c9f9f	-0.2746553
29	0xbf046196	-0.51711404
30	0x3eb19c13	0.34689388
31	0xbe24480a	-0.16043106
32	0x3d999a15	0.07500092
33	0xbcb08034	-0.021545507
34	0x3e3de420	0.18544054
35	0xbe0bad28	-0.13640273
36	0x3ea121dd	0.31471148
37	0xbed0eacb	-0.40804133
38	0x3be0ac13	0.0068564503
39	0xbde17943	-0.11009457
40	0x3e654e8c	0.22393245
41	0x3ec8d134	0.3922211
42	0x3e95150d	0.29117623
43	0xbeb55703	-0.35417947
44	0x3ea4526a	0.32094127
45	0xbcde049a	-0.027101804
46	0xbd25dc9c	-0.040493593
47	0x3e2c2ade	0.16813228
48	0x3e72a9bb	0.2369756
49	0xbcf376be	-0.029719707
50	0xbe43dafe	-0.19126508
51	0xbcae6203	-0.02128697
52	0x3e807e4f	0.25096366
53	0x3d180d62	0.037122138
54	0x3d65c2df	0.056094047
55	0x3d79edc9	0.061017785
56	0x3f098743	0.5372202
57	0xbd1134a0	-0.035450578
58	0x3edff292	0.43739754
59	0x3ed8650e	0.422646
60	0x3f041214	0.51590085
61	0xbe0d33b5	-0.13789256
62	0xbe5e7890	-0.21725678
63	0xbdfcc0b5	-0.123414434
64	0x3e319e0b	0.17345445
65	0xbe19ca30	-0.15018535
66	0x3e6ca12f	0.23108362
67	0x3e2ab2ef	0.1666982
68	0x3f09f5c6	0.53890646
69	0x3d837dc1	0.0642047
70	0xbe1f079a	-0.15530244
71	0xbda4936a	-0.080359295
72	0x3e3819b8	0.17978561
73	0xbe6b20ca	-0.22961727
74	0xbe077466	-0.13227996
75	0x3e634aa8	0.22196448
76	0x3db4452c	0.08802256
77	0xbe2692fe	-0.1626701
78	0xbe966559	-0.29374197
79	0x3edd1b33	0.43184814
80	0xbe682031	-0.2266853
81	0x3e9cfc9c	0.30661476
82	0x3eb50546	0.35355586
83	0x3ec9c810	0.39410448
84	0xbf00c48c	-0.50299907
85	0xbda232f3	-0.07919874
86	0x3de52fd3	0.11190762
87	0x3eeab31b	0.45839772
88	0xbeba2de5	-0.3636314
89	0xbe4d3f92	-0.20043781
90	0xbe28e932	-0.16495207
91	0x3ef7eebf	0.48424336
92	0xbd46340d	-0.048389483
93	0x3e313938	0.17306983
94	0x3de75247	0.1129499
95	0xbc105072	-0.008808242
96	0xbe5c423d	-0.21509643
97	0xbe3c2d60	-0.18376684
98	0xbe858b3e	-0.26082796
99	0x3ce1d2a1	0.027566256
100	0x3f02b643	0.5105936
101	0x3e0f7d03	0.14012532
102	0xbd3ea559	-0.046544407
103	0xbed7f311	-0.42177632
104	0x3e11275b	0.14175169
105	0x3e4a3ca0	0.19749689
106	0xbdc5b9fe	-0.09654616
107	0x3cdc0f96	0.0268629
108	0xbd942ae8	-0.07234746
109	0x3d9b6192	0.075869694
110	0xbf1facc2	-0.6237298
111	0x3e57acf6	0.21062073
112	0x3d1d3c87	0.0383878
113	0xbdb36287	-0.08759027
114	0xbe276a69	-0.16349186
115	0x3e331582	0.17488673
116	0xbe30fb4a	-0.17283359
117	0xbe290cdb	-0.1650881
118	0xbde44d51	-0.111475594
119	0xbee5f742	-0.44915205
120	0xbe3c8a00	-0.18412018
121	0x3ef2c50d	0.47415963
122	0xbe4ed870	-0.20199752
123	0x3c98aab2	0.018636081
124	0x3e0b1380	0.13581657
125	0xbe8fac4b	-0.28061137
126	0xbf299d7d	-0.66255933
127	0x3e99aaca	0.30013114
128	0x3e439d04	0.19102865
129	0xbec24672	-0.3794437
130	0x3f03f219	0.51541287
131	0xbd0b9485	-0.034077186
132	0xbe950416	-0.2910468
133	0xbe085eab	-0.13317363
134	0xbd249cc2	-0.04018856
135	0xbf3be547	-0.73396724
136	0x3e2b4664	0.1672607
137	0x3f199e18	0.60006857
138	0x3e08b09a	0.13348618
139	0x3da781a0	0.08179021
140	0x3e838bc1	0.2569256
141	0xbec2fe5c	-0.38084686
142	0xbe7628bf	-0.24038981
143	0x3e03ca45	0.12870128
144	0x3e785f98	0.24255216
145	0xbe9c9a50	-0.3058648
146	0x3cb15011	0.021644624
147	0xbe74d4fa	-0.23909369
148	0x3ea3f835	0.32025304
149	0xbe682549	-0.22670473
150	0xbeed5fbc	-0.46362102
151	0xbeba835c	-0.36428344
152	0x3c64f84d	0.013975215
153	0xbf1c90c6	-0.61158407
154	0x3e9d2cb3	0.30698165
155	0xbe6ffe00	-0.23436737
156	0x3f23339c	0.63750625
157	0x3e0a2b3a	0.13493052
158	0x3e910331	0.28322747
159	0x3e69cb68	0.228315
160	0x3ef3abd9	0.47592047
161	0xbe53a9a1	-0.20670177
162	0x3e1597d9	0.14608707
163	0xbe8971b6	-0.26844567
164	0xbe9881f4	-0.29786646
165	0x3e7a63f8	0.24452198
166	0xbd9718c6	-0.07377772
167	0xbdfecbdb	-0.12441226
168	0xbd84897c	-0.064715356
169	0x3e5b5e08	0.21422589
170	0xbeb60074	-0.3554722
171	0x3e557467	0.20845185
172	0x3f06eee0	0.52708244
173	0x3edc004a	0.4296897
174	0x3df6b8a9	0.1204694
175	0x3c8caf00	0.01717329
176	0x3e1fc3cb	0.15602033
177	0x3e582d8a	0.21111122
178	0x3ef458db	0.4772404
179	0x3da915fd	0.08256147
180	0xbe2d2bd6	-0.16911253
181	0xbe9013e4	-0.28140175
182	0xbe83dae7	-0.25752947
183	0x3dcf04a4	0.10108307
184	0xbd40c4e2	-0.047062762
185	0x3db78aff	0.08962058
186	0x3de04bfb	0.10951992
187	0x3e9006f0	0.28130293
188	0x3d50a9fe	0.050943367
189	0x3db06c37	0.0861439
190	0x3e1f2ec7	0.15545188
191	0xbe9d3206	-0.30702227
192	0x3d29cc2d	0.041454483
193	0xbe827258	-0.25477862
194	0x3e0b47aa	0.13601556
195	0x3e59bae8	0.21262705
196	0xbe950a7a	-0.29109555
197	0x3ecb45b5	0.3970162
198	0xbed2d787	-0.4118006
199	0xbe184ff4	-0.1487425
200	0xbe71a450	-0.23597836
201	0x3e2eb702	0.17062
202	0xbca4c034	-0.02011118
203	0xbdc39ebd	-0.09551761
204	0xbc771960	-0.015081733
205	0x3e19a5b7	0.15004621
206	0xbe6d7911	-0.23190714
207	0x3d03edd1	0.03220922
208	0xbe21fb70	-0.15818572
209	0xbec35b2a	-0.3815549
210	0x3ecaf677	0.39641163
211	0xbd4c6e3d	-0.04990982
212	0xbc53e9c3	-0.012934151
213	0xbc41f614	-0.011838455
214	0xbe054bdb	-0.13017218
215	0x3dd95d7a	0.10613532
216	0xbe6e46b2	-0.23269156
217	0x3dc19d36	0.09453814
218	0xbdf389b4	-0.11891499
219	0x3e349798	0.17635953
220	0x3d24db54	0.04024823
221	0x3ebe5139	0.37171343
222	0x3e50bd1e	0.20384642
223	0x3c91c9c7	0.01779641
224	0x3ebae771	0.365047
225	0x3b3e304b	0.0029020484
226	0x3dc41e97	0.09576147
227	0x3eac5a0f	0.3366246
228	0x3e482eeb	0.19549148
229	0xbcaefe99	-0.021361636
230	0xbdd490d5	-0.10379187
231	0x3d5a4ff3	0.0532989
232	0x3e554e8e	0.20830747
233	0x3e335b16	0.17515215
234	0x3ea9f995	0.33198228
235	0x3da92642	0.0825925
236	0x3efaf83d	0.49017516
237	0xbda876dd	-0.08225796
238	0x3e068c17	0.13139378
239	0x3ca46e96	0.020072263
240	0x3e920828	0.28521848
241	0x3bd7e9e8	0.006589163
242	0xbe95fc7c	-0.29294193
243	0xbee180bf	-0.44043538
244	0x3e557d03	0.2084847
245	0xbe575e60	-0.21032095
246	0xbdd81456	-0.10550754
247	0x3ed51381	0.41616443
248	0x3ecc270d	0.39873543
249	0xbec9ee5c	-0.39439666
250	0x3d3dadd0	0.04630834
251	0xbe2c8c04	-0.16850287
252	0x3bc96a73	0.006146723
253	0x3c9aea13	0.018910443
254	0xbddd8638	-0.10816616
255	0x3de38494	0.11109272

network_body._body_endoder.seq_layers.0.bias f4 [128]
0	0xbc8c7bfd	-0.017148966
1	0x3d2b93dc	0.041889057
2	0xbd1cd579	-0.03828952
3	0xbc63401c	-0.013870265
4	0xbcbc553a	-0.022989858
5	0xbd19139a	-0.03737221
6	0xbca77201	-0.020440103
7	0x3c7659f1	0.015036092
8	0xbced15e5	-0.028941104
9	0xbbce8bb2	-0.006303274
10	0xbd2a5900	-0.041588783
11	0x3c564301	0.013077498
12	0xbccbb070	-0.024864405
13	0xbcb0963e	-0.021556016
14	0xbc7c55ec	-0.015401345
15	0x3c6fdf28	0.014640607
16	0x3b178a88	0.0023123343
17	0x3d51636c	0.051120207
18	0xbcac2f03	-0.02101851
19	0xbb1141f1	-0.0022164548
20	0x3b0b1f40	0.0021228343
21	0xbd4d5b45	-0.05013587
22	0xbb8b2027	-0.004245776
23	0xbcd3add8	-0.025839731
24	0xbc0b45a0	-0.008500487
25	0xbd180738	-0.03711626
26	0xbcab4bdd	-0.020910198
27	0xbd030503	-0.0319872
28	0xbc1d5adf	-0.009604185
29	0xbcc0dc86	-0.023542654
30	0x3dcd8f1c	0.100370616
31	0xbc19dad0	-0.009390548
32	0x3c6a0486	0.014283305
33	0x3bcce5b3	0.006252968
34	0xbc20f1a7	-0.009823239
35	0xbc89a2b5	-0.016801218
36	0xbc162672	-0.0091644395
37	0xbc820206	-0.015870105
38	0x3d0130c2	0.03154064
39	0xbb8fb8d6	-0.004386048
40	0xbce19e4c	-0.027541302
41	0xbcb34b66	-0.021886539
42	0x3c5a522a	0.0133252535
43	0x3c8c82d0	0.01715222
44	0xbcdc8a50	-0.026921421
45	0xbb8b67b4	-0.0042543057
46	0x3c4f611b	0.012657429
47	0xbb2fa7d0	-0.0026802905
48	0xbbb4c4ae	-0.00551661
49	0xbc7890cd	-0.015171242
50	0xbb490375	-0.0030672227
51	0x3b9f0d4c	0.00485388
52	0xbc8a84c0	-0.016909003
53	0x3bed0ade	0.0072339615
54	0xbc8f1f4d	-0.01747098
55	0xbcfd3b38	-0.030912027
56	0xbb022979	-0.0019861145
57	0xbd02a5b8	-0.031896323
58	0xbca78941	-0.02045119
59	0xbc5053ca	-0.012715289
60	0xbd238087	-0.039917495
61	0x3b5cdaf2	0.0033699838
62	0xbccf27d9	-0.025287556
63	0xbc3e218f	-0.011604681
64	0xbbf8c7a0	-0.0075921565
65	0xbbb30a87	-0.0054639014
66	0xbce3b67e	-0.02779698
67	0xb9c61179	-0.0003777852
68	0xbd0c7c6d	-0.03429835
69	0xbc7fe277	-0.015617958
70	0x3b1c07b0	0.0023808293
71	0x3ac2f6c1	0.0014874564
72	0xbbe4a165	-0.0069772475
73	0xbd0ba9d8	-0.034097522
74	0xbc769104	-0.015049223
75	0xb93ffcbf	-0.00018309335
76	0xbdaea06e	-0.08526693
77	0xbc9619e3	-0.01832289
78	0xbc18fc07	-0.009337432
79	0x3a073983	0.0005158411
80	0xbcd15ff9	-0.025558459
81	0x3c80c0d0	0.01571694
82	0x3b9e6eca	0.0048349844
83	0xbc5c95b0	-0.013463423
84	0xb6a0e8e8	-4.7954854e-06
85	0x3c34d2b3	0.011036563
86	0x3cfb3661	0.030665578
87	0xbcaaabe1	-0.020833911
88	0x3c14f12e	0.009090705
89	0x3d3f629e	0.046724908
90	0x3c8c4d54	0.017126717
91	0xbc5b4a3c	-0.013384398
92	0xbc832678	-0.016009554
93	0xbb822122	-0.003971235
94	0x3c4bf694	0.0124489255
95	0xbd45536c	-0.04817526
96	0x3c2f7dc7	0.01071114
97	0xbae72bde	-0.0017636975
98	0xbc6605ad	-0.014039439
99	0x3cd9932c	0.026559435
100	0x3cf29895	0.029613772
101	0xbc803f98	-0.015655324
102	0xbc6ab8dd	-0.014326301
103	0xbc067b72	-0.008208143
104	0x3c28fcc2	0.010314168
105	0xbd6a296a	-0.0571684
106	0xbcbbab84	-0.022908933
107	0xbb613038	-0.0034361016
108	0x3b8ce5d5	0.004299859
109	0xbbac8b2e	-0.005265615
110	0x3abea88a	0.0014546078
111	0xbcbb9ebe	-0.022902843
112	0xbd5d9a20	-0.054102063
113	0xbc8c4587	-0.017122997
114	0xbc82ed25	-0.01598222
115	0xbcda4705	-0.026645193
116	0xbca64f1e	-0.020301398
117	0x3c3e4375	0.011612763
118	0xbd856d57	-0.065149955
119	0x3aa3e213	0.0012503288
120	0x3c79a3b6	0.015236786
121	0xbd0773d2	-0.03306944
122	0xbca7a03b	-0.020462146
123	0xbd2a458a	-0.041570224
124	0xb95c8b33	-0.0002103269
125	0xbc45122c	-0.012028258
126	0xbb00cbd4	-0.001965274
127	0xbbf701c4	-0.0075380523

network_body._body_endoder.seq_layers.2.weight f4 [128, 128]
0	0xbc273a96	-0.010206839
1	0x3df6532d	0.12027583
2	0x3cc04959	0.023472475
3	0xbd4729b8	-0.04862377
4	0x3d546b3e	0.051860087
5	0x3e206251	0.15662505
6	0x3d4d90ea	0.05018703
7	0xbe684069	-0.2268082
8	0xbc85635f	-0.016282735
9	0x3d1fc2d0	0.039004147
10	0xbd89a989	-0.067217894
11	0x3e2eaf56	0.17059073
12	0xbc8b47d7	-0.01700203
13	0xbd1d7b79	-0.03844783
14	0xbd660c07	-0.056163814
15	0xbda38573	-0.07984438
16	0x3dda6f52	0.10665764
17	0xbe40a0e9	-0.18811382
18	0x3d58bffc	0.052917466
19	0x3da35cf3	0.07976713
20	0x3bb75e38	0.0055959485
21	0x3d8c46f4	0.06849471
22	0xbbfefc4d	-0.0077815414
23	0x3d871880	0.0659647
24	0xbe13eeea	-0.14446607
25	0x3da89ce9	0.08233053
26	0x3e48cb5e	0.19608828
27	0xbd26620c	-0.04062085
28	0x3df3dc2b	0.11907228
29	0x3b43d7db	0.0029883299
30	0x3d6c7745	0.05773093
31	0xbe1805f3	-0.1484602
32	0xbd8bea29	-0.06831772
33	0xbe48ac5b	-0.19596998
34	0xbd7021b4	-0.05862589
35	0xbdef120a	-0.116733626
36	0xbd8d5999	-0.06901855
37	0xbd066071	-0.032806817
38	0xbdbdc313	-0.09265723
39	0xbdbb3350	-0.091406465
40	0xbdc7c5dc	-0.097545356
41	0x3d0fe767	0.03513279
42	0x3d41ded9	0.047331665
43	0xbd9288a8	-0.07154971
44	0xbcf6b374	-0.030114867
45	0xbd9be1dd	-0.076114394
46	0xbd8eb54b	-0.06968173
47	0x3d9a164b	0.07523783
48	0xbcec60bb	-0.028854718
49	0x3ccf06dc	0.025271825
50	0xbd8dd872	-0.06926049
51	0x3d309af4	0.043116525
52	0x3d17149b	0.036884885
53	0x3d1cb1cb	0.038255494
54	0xbd170d82	-0.036878116
55	0x3dfb3807	0.12266546
56	0xbd487669	-0.04894105
57	0x3d39e24f	0.04538184
58	0xbe0e4ab4	-0.13895684
59	0xbe29a718	-0.16567647
60	0x3beac90e	0.007165081
61	0xbdd7489c	-0.10511896
62	0xbb7ee428	-0.0038893316
63	0xbd056dd6	-0.03257545
64	0xbd648bb1	-0.055797283
65	0xbd81369d	-0.06309245
66	0x3e0a6fc3	0.13519196
67	0xbd6b8a10	-0.057504714
68	0x3ccb203a	0.02479564
69	0x3dbc78d2	0.09202732
70	0xbe0027c8	-0.12515175
71	0xbe02a51a	-0.12758294
72	0xbda1e026	-0.07904081
73	0x3da61d9e	0.08111118
74	0xbda1aafd	-0.078939416
75	0xbe1ef888	-0.15524495
76	0x3cc2fe08	0.023802772
77	0x3db583fe	0.08863066
78	0x3cc83486	0.024439108
79	0x3d4775c7	0.048696306
80	0x3d73ddff	0.059537884
81	0xbc81aca7	-0.015829397
82	0x3d2271cf	0.039659318
83	0x3d0aa9a2	0.03385318
84	0xbbb0a05a	-0.005390209
85	0x3dde21f5	0.108463205
86	0xbd8c16de	-0.06840299
87	0x3c579afa	0.013159508
88	0x3cb14426	0.021638941
89	0x3e18b3fc	0.14912409
90	0xbca5d02c	-0.020240866
91	0xbce81317	-0.028329415
92	0x3b9359a2	0.004496769
93	0x3d8e88ee	0.06959711
94	0x3d2092a7	0.03920236
95	0x3e162995	0.146643
96	0x3cdf315b	0.027245214
97	0xbde8dff0	-0.11370838
98	0x3dd96bff	0.10616302
99	0x3d2df36f	0.042468484
100	0xbccfdf4d	-0.025375033
101	0xbc0edeec	-0.008720141
102	0xbddb1829	-0.106979676
103	0x3d520f09	0.05128387
104	0x3cf580a1	0.029968562
105	0xbe1fd9a5	-0.15610369
106	0x3cad8c81	0.021185162
107	0xbc3823c3	-0.011238995
108	0xbe1c74ea	-0.15278974
109	0xbcc897f9	-0.024486529
110	0x3cf69a71	0.03010294
111	0xbd2234ae	-0.03960102
112	0xbd04c536	-0.032414638
113	0x3d16411d	0.03668319
114	0xbc9195bc	-0.017771594
115	0x3ab5337f	0.0013824551
116	0xbcb13f8b	-0.021636745
117	0x3dc788ac	0.09742865
118	0x3eacaec6	0.33727092
119	0x3dabb253	0.08383622
120	0x3e10246e	0.14076397
121	0x3ba19b7d	0.0049318657
122	0x3c8b804c	0.01702895
123	0xbcc82f92	-0.024436746
124	0xbdfbd911	-0.122972615
125	0xbd127888	-0.03575948
126	0x3d099f5e	0.03359925
127	0x3db552d9	0.088536926
128	0xbd63bdda	-0.05560098
129	0xbdabba4c	-0.08385143
130	0x3e0351e1	0.12824203
131	0xbdcc9e08	-0.099910796
132	0x3aad0eae	0.0013203227
133	0x3db1b128	0.08676368
134	0x3d4d8eb8	0.050184935
135	0xbb2ff6d8	-0.0026850011
136	0x3e04ed49	0.12981142
137	0xbdf6516b	-0.12027248
138	0x3e0cc988	0.13748753
139	0x3b97ac89	0.004628722
140	0xbde84c6c	-0.11342701
141	0x3d9c62ac	0.07636008
142	0xbda875e5	-0.082256116
143	0xbe18d24c	-0.14923972
144	0x3d8071d4	0.06271711
145	0xbdaf7daf	-0.08568894
146	0x3ce92fca	0.02846517
147	0x3d5341e1	0.0515765
148	0x3d99f313	0.07517066
149	0xbd9d0637	-0.07667201
150	0xbe476969	-0.19473805
151	0x3c75b772	0.01499735
152	0x3d280316	0.041018568
153	0xbd6152bd	-0.055010546
154	0xbd1b5822	-0.037925847
155	0x3d96883f	0.07350206
156	0xbcb9224b	-0.02259936
157	0xbdd7f436	-0.105446264
158	0xbdb592b4	-0.08865872
159	0xbcc289a0	-0.023747265
160	0x3d838652	0.06422104
161	0xbdc9834f	-0.09839498
162	0xbbca8695	-0.006180594
163	0xbd07fa2e	-0.033197574
164	0xbe2b7717	-0.16744648
165	0xbc2992ea	-0.010349968
166	0x3d53779d	0.051627744
167	0x3d4e7c9d	0.05041181
168	0xbc7dc3a0	-0.015488535
169	0x3e0fbd18	0.14036977
170	0x3d3f5a18	0.04671678
171	0xbda08591	-0.07837976
172	0xbcac8e9c	-0.021064095
173	0xbcdf1cf7	-0.027235491
174	0x3ccf35ce	0.02529421
175	0x3d6fbeb2	0.05853147
176	0xbe361fed	-0.17785616
177	0xbd060777	-0.032721963
178	0xbccaeb6c	-0.024770461
179	0xbcac3aeb	-0.021024188
180	0xbbbc3b85	-0.0057444
181	0xbcbf1631	-0.023326011
182	0x3dd8dbb4	0.1058878
183	0xbd56eb00	-0.052470207
184	0xbe13cf40	-0.14434528
185	0x3cefdf77	0.029281361
186	0x3d64ed20	0.055890203
187	0x3d33ffe7	0.04394522
188	0xbe352dbd	-0.17693229
189	0xbe42156b	-0.18953483
190	0x3c2f0f7c	0.010684844
191	0x3d72ed40	0.05930829
192	0xbd2597a8	-0.040427834
193	0xbe4af17b	-0.1981868
194	0xbd82eec6	-0.06393199
195	0xbd83ce93	-0.06435885
196	0xb8af514d	-8.359794e-05
197	0x3d402e86	0.04691937
198	0x3dcf4427	0.10120421
199	0xbe1d822a	-0.15381685
200	0x3cf94b7f	0.030431507
201	0x3e0aa8cc	0.13540953
202	0x3ca5dd02	0.020246986
203	0x3dd2117c	0.10257241
204	0xbc1f6d9b	-0.009730722
205	0x3ddf165a	0.10892935
206	0xbc51379d	-0.012769607
207	0xbbe49029	-0.006975193
208	0x3b39b8bd	0.0028338872
209	0xbc40b3f6	-0.011761656
210	0xbc0f89c8	-0.008760877
211	0xbd0b75db	-0.034047943
212	0xbbaa57a4	-0.005198436
213	0xbcc3c0a7	-0.023895575
214	0x3b8cca96	0.004296611
215	0xbdc92266	-0.09821014
216	0x3d897a40	0.067127705
217	0xbdf72e77	-0.12069409
218	0x3c9e2001	0.01930237
219	0x3dd7182b	0.105026565
220	0x3d30b455	0.043140728
221	0xbc8fafb4	-0.017539836
222	0xbdb47d82	-0.08813001
223	0x3dd0afc9	0.10189778
224	0x3e1021f1	0.14075448
225	0xbde07279	-0.10959334
226	0x3d5f455d	0.05450951
227	0x3c32d381	0.010914684
228	0x3c641881	0.013921858
229	0xbdfed9b8	-0.1244387
230	0x3c6d18bc	0.014471229
231	0xbc83d1f9	-0.016091334
232	0xbc8e7ea0	-0.017394364
233	0xbd6fabf2	-0.05851359
234	0x3d1aeb76	0.03782221
235	0xbcb67981	-0.022274734
236	0xbe1826e2	-0.14858583
237	0x3e173b76	0.14768776
238	0x3cc2a1a9	0.023758726
239	0xbe4bcbe7	-0.19902001
240	0x3be372c2	0.0069411704
241	0x3e1f5a13	0.15561704
242	0x3d14700c	0.03623967
243	0xbdcef84b	-0.10105952
244	0x3cef4c51	0.029211195
245	0xbdb6dbf3	-0.08928671
246	0x3d7e6d68	0.062116057
247	0xbd195fb6	-0.037444793
248	0x3dc9792f	0.09837567
249	0xbd08d9a7	-0.033410694
250	0xbe88dd1a	-0.26731187
251	0xbb4a651a	-0.0030883015
252	0x3db0ae4d	0.08626995
253	0xbcc47e2e	-0.023985948
254	0x3e1bf9a1	0.15231945
255	0xbe2ddd32	-0.1697891

network_body._body_endoder.seq_layers.2.bias f4 [128]
0	0xbc6e0883	-0.014528397
1	0xbc240d77	-0.010012976
2	0xbb46b23c	-0.0030318638
3	0xbcb75d2c	-0.022383295
4	0x3c2e2745	0.01062948
5	0x3c635ae7	0.013876653
6	0xbcc5f536	-0.024164777
7	0xbce2ff2b	-0.027709564
8	0xbb4dd191	-0.003140543
9	0xbcb999a8	-0.022656277
10	0xbbe12907	-0.006871346
11	0x3bc93f61	0.0061415886
12	0xbc9d039e	-0.019166764
13	0xbc7c7216	-0.01540806
14	0xbc24e93f	-0.010065376
15	0xbc562c3a	-0.013072068
16	0xbc41d676	-0.011830917
17	0xbba36f27	-0.0049876156
18	0xbbbe8863	-0.0058145984
19	0xbcf20fe1	-0.029548587
20	0xbc3d16a1	-0.01154104
21	0xbcde0dbd	-0.02710616
22	0x3c2c6399	0.010521793
23	0xbcad43c5	-0.02115048
24	0xbcff22c7	-0.031144513
25	0xbb93248a	-0.00449044
26	0xbc8bbcfc	-0.017057888
27	0xbcd673d2	-0.026178274
28	0xbc87ae06	-0.016562473
29	0xbc747dc9	-0.014922568
30	0xba47de90	-0.0007624412
31	0xbc1c0700	-0.009523153
32	0xbc8fd498	-0.017557427
33	0xbc9c6639	-0.019091712
34	0xbc612a39	-0.013742977
35	0x3c095544	0.008382145
36	0xbb667cfa	-0.0035169707
37	0xbb85a226	-0.0040781675
38	0xbc7afe99	-0.01531949
39	0xbc8f84bc	-0.017519347
40	0xbc46056d	-0.012086255
41	0xbc67b3ea	-0.014142016
42	0xbbd8f55d	-0.0066210465
43	0xbb04f723	-0.0020288907
44	0xbcdedbef	-0.027204482
45	0xbbcf5d2e	-0.0063282466
46	0xbcb10f53	-0.021613752
47	0xbd26184d	-0.04055052
48	0xbbe7c1e0	-0.0070726722
49	0xbc05140d	-0.008122456
50	0xbbe68f74	-0.007036144
51	0x3be85f9e	0.0070914766
52	0xbc6e2e8c	-0.014537465
53	0xbce882f9	-0.028382765
54	0xbcc1a933	-0.02364025
55	0xbc7cfe84	-0.015441541
56	0xbbcc2d3d	-0.0062309788
57	0xbb24b0a2	-0.0025129695
58	0xbcc6d054	-0.02426926
59	0xbc42655c	-0.011864986
60	0xbd1e1e0c	-0.038602874
61	0xbc8242f2	-0.015901063
62	0x3c87f23b	0.016594997
63	0xbcb6f49f	-0.022333441
64	0xba8bbc32	-0.0010660945
65	0xbc2797a0	-0.010229021
66	0xbb60a309	-0.0034276864
67	0xbc1cc0fd	-0.009567496
68	0xbc1ad438	-0.009450011
69	0xbbd9b084	-0.0066433568
70	0xbcf15fa9	-0.02946456
71	0xbc656f9f	-0.014003663
72	0xbce0a68e	-0.02742317
73	0xbc1b18f0	-0.009466395
74	0x3bac0709	0.005249862
75	0xbd06eeba	-0.03294251
76	0xbb6b893e	-0.0035939957
77	0xbbd249e5	-0.0064175003
78	0xbcd9a55c	-0.026568107
79	0xb9d32cd4	-0.00040278456
80	0xbb98fc38	-0.0046687387
81	0xbce09cc0	-0.027418494
82	0xbc182343	-0.009285751
83	0xbb060e4e	-0.0020455304
84	0xbbfc571c	-0.007700814
85	0x3396480a	6.998023e-08
86	0xba83e4ef	-0.0010062734
87	0xbd0c62a5	-0.034273762
88	0xbb92ded7	-0.004482131
89	0xbcb4427a	-0.022004355
90	0xbb4a9c37	-0.0030915865
91	0xbc719eb1	-0.014747308
92	0xad2cd996	-9.825382e-12
93	0x3b1c7d71	0.002387848
94	0xb59e0a53	-1.1774922e-06
95	0xbbcfc3b2	-0.0063404674
96	0x3c330fc8	0.0109290555
97	0xbc45c331	-0.012070463
98	0xbc4decd4	-0.012568671
99	0xbb91c887	-0.0044489536
100	0xbcd1b24a	-0.02559771
101	0xbc80becf	-0.015715985
102	0xbc68ed65	-0.0142167555
103	0x3b71e7cf	0.003691185
104	0xbb94110e	-0.0045186346
105	0xbbd31f08	-0.006442908
106	0x3cb98d55	0.0226504
107	0xbd0691dc	-0.032853946
108	0xbcaed4e3	-0.021341747
109	0xba58ad7d	-0.0008265598
110	0xbca3f896	-0.020015996
111	0x3bf47dd0	0.007461287
112	0xbc15242f	-0.009102865
113	0xba831a05	-0.0010002261
114	0xbb70af36	-0.0036725528
115	0x3b55d810	0.0032630004
116	0xb9a266be	-0.00030975597
117	0x350d50d4	5.2644214e-07
118	0xbb461322	-0.0030223806
119	0x3c7df889	0.01550115
120	0xbc74ed3b	-0.014949138
121	0xbccd0f97	-0.025031848
122	0xbcca3498	-0.024683282
123	0xbbaed95e	-0.005335971
124	0xbc2ad601	-0.010426999
125	0xb7d049db	-2.4829924e-05
126	0xbb9c0d15	-0.0047623017
127	0xbcd43218	-0.025902793

action_model._continuous_distribution.log_sigma f4 [1, 2]
0	0xbeaae4ac	-0.33377588
1	0xbea4dbf0	-0.3219905

action_model._continuous_distribution.mu.weight f4 [2, 128]
0	0xbb28edf4	-0.0025776597
1	0x382efb43	4.171884e-05
2	0xbc89ad2b	-0.016806206
3	0xbcd35f40	-0.025802255
4	0x3c52dc69	0.012869933
5	0x3bade07f	0.005306303
6	0xbc815552	-0.015787754
7	0xbb84a303	-0.004047753
8	0xbb669fe9	-0.0035190529
9	0xbd0aa5df	-0.033849593
10	0x3baa2f35	0.005193616
11	0x3c4adeca	0.012382219
12	0x3b0f0351	0.0021822045
13	0xbb4efd2a	-0.0031584003
14	0xbba51c56	-0.0050387783
15	0xbb05a11a	-0.0020390213
16	0x3c0fa8ba	0.008768255
17	0xbc37fbce	-0.0112294685
18	0x3cbed180	0.023293257
19	0xbc409a82	-0.0117555875
20	0xbbf03b13	-0.007331261
21	0xbbf6484e	-0.0075159436
22	0x3d43d34b	0.047808927
23	0xbd0054d6	-0.031330906
24	0xbb22a1da	-0.002481571
25	0x3b024e4d	0.0019883097
26	0xbc8ae6d4	-0.01695577
27	0xbb3ffb47	-0.002929406
28	0x3bc10f1d	0.005891694
29	0xbc24563b	-0.010030325
30	0x3d068b32	0.03284759
31	0x3be2acca	0.0069175707
32	0xbc068474	-0.00821029
33	0xbc444685	-0.011979704
34	0x3bce9b92	0.0063051665
35	0x3ca88aa5	0.020573923
36	0x3c0f1b57	0.008734546
37	0x3b054e45	0.0020340842
38	0x3ad3aa5f	0.0016148797
39	0xbcd606eb	-0.026126346
40	0xbc8b5827	-0.017009808
41	0xba5d3c3e	-0.0008439458
42	0xbcc97a01	-0.024594309
43	0x3baad707	0.0052136215
44	0xbc88d3ad	-0.016702497
45	0xbc6c2108	-0.014412172
46	0xbc76caca	-0.015062997
47	0xbbafe3d4	-0.0053677354
48	0xb8b1366f	-8.450157e-05
49	0x3b3ecf77	0.0029115358
50	0xbbf235b6	-0.0073916567
51	0x3b0453e8	0.0020191614
52	0xbc160c09	-0.009158143
53	0xbb42d3a6	-0.0029728203
54	0xbcf78ad5	-0.030217567
55	0x3ca58170	0.020203322
56	0x3ac74cf6	0.0015205431
57	0x3c692aa7	0.0142313605
58	0x39db86bc	0.0004187132
59	0xbd05b823	-0.03264631
60	0xbc5a19b6	-0.013311794
61	0x3b25d099	0.0025301336
62	0x3cb03421	0.021509232
63	0xbc8ee82a	-0.017444689
64	0x3bfec1dd	0.007774575
65	0xbc66f6d6	-0.014096936
66	0xbc8b79ce	-0.017025854
67	0x39461af4	0.00018892792
68	0xbbe84197	-0.007087897
69	0x3c925111	0.017860921
70	0x3ad48d1c	0.001621637
71	0xbced96f4	-0.029002644
72	0xbc9d8b3f	-0.019231437
73	0x39d1b80d	0.00040000715
74	0xbd200e77	-0.039076295
75	0xbae2ada2	-0.0017294178
76	0xbcf7fc15	-0.03027157
77	0x3b36a2fe	0.0027868147
78	0x391442a4	0.00014139205
79	0x3d159027	0.036514428
80	0x38f74e3e	0.000117924516
81	0xbbd7a3a1	-0.0065807854
82	0xbb7fcfef	-0.003903385
83	0x3ba45f8c	0.005016273
84	0x3b9c4fda	0.0047702612
85	0xbb425b4b	-0.0029656466
86	0xbc39e431	-0.011345909
87	0xbbc9e525	-0.0061613494
88	0xbb4015dc	-0.0029309904
89	0xbb37eccb	-0.0028064724
90	0x3d26ef8e	0.0407558
91	0x3af0b828	0.001836543
92	0x3be4edef	0.0069863717
93	0xbd3ee8f6	-0.046608888
94	0xbb4fa6e5	-0.003168517
95	0x3b6828d3	0.0035424724
96	0x3b83a080	0.004016936
97	0x3a36ebe7	0.0006977901
98	0x3b806d81	0.003919304
99	0xbcb8b519	-0.022547292
100	0xbc8ca1e9	-0.017167049
101	0xbc2ce2e6	-0.010552144
102	0xba8798e2	-0.0010345245
103	0x3c3572b8	0.011074714
104	0xbcb7e0ac	-0.022446
105	0x3ca9db57	0.020734472
106	0x3c8bff3e	0.017089482
107	0xbb5a6af0	-0.00333279
108	0xbc3e56b6	-0.011617353
109	0xbc61c3b8	-0.013779573
110	0xbbb882cf	-0.005630828
111	0x3caf8273	0.021424508
112	0xbbd98c03	-0.006639005
113	0xbbd26afe	-0.006421446
114	0x3c161fc2	0.009162845
115	0x3c12ebe6	0.008967375
116	0x3c2e47a4	0.010637198
117	0x3c0e3755	0.008680184
118	0x3d112c6c	0.035442755
119	0x3c47c811	0.012193696
120	0xb7da4fa9	-2.602472e-05
121	0xbc522b5d	-0.012827721
122	0xbc2cda34	-0.010550071
123	0xbca96403	-0.020677572
124	0xbcab3f66	-0.020904254
125	0x3aced47b	0.0015779877
126	0x3b9a6390	0.004711576
127	0x3cb9cbf3	0.022680258
128	0x3c928c23	0.017889088
129	0x3a59c583	0.00083073246
130	0x3c26bcd1	0.010176853
131	0x3b983944	0.0046454985
132	0xbc3dcac2	-0.011583986
133	0xbcd8bdf4	-0.026457764
134	0xbc25ffc9	-0.010131785
135	0x3b96d0e4	0.0046025384
136	0x3c7270c9	0.014797398
137	0x3bef9347	0.007311258
138	0x3c015a64	0.007895086
139	0x3c2ed3ef	0.010670646
140	0x3bcf0ac6	0.006318423
141	0x3b59fa86	0.0033260896
142	0x3b77b662	0.0037797918
143	0x3d164649	0.036688123
144	0xbbf838a7	-0.007575113
145	0x3c0752fc	0.008259531
146	0x3d09c874	0.033638433
147	0x3aafb0a0	0.0013404079
148	0xbc053d56	-0.008132299
149	0x3cf08cb4	0.029363967
150	0x3c06ec61	0.008235068
151	0x3c3281da	0.010895217
152	0x3c1ee250	0.009697512
153	0xbbd2701b	-0.0064220554
154	0x3bf7eb7e	0.0075659147
155	0x3b1cdb07	0.0023934261
156	0x3ae4bcd3	0.0017451294
157	0xbb872609	-0.004124407
158	0x3c30b494	0.010785241
159	0x3bd0cda3	0.00637217
160	0x3b880c22	0.004151837
161	0xba7f7360	-0.000974467
162	0x3b87abc8	0.004140351
163	0x3a75677a	0.00093614275
164	0x3cd4be43	0.02596963
165	0x3c84af07	0.01619674
166	0x3c34db3f	0.0110386005
167	0x3bc86edd	0.0061167316
168	0xbba7ba6f	-0.00511866
169	0x39e7e8d8	0.00044233236
170	0x3d0d09f8	0.034433335
171	0x3b5083eb	0.003181691
172	0x3c7b92cf	0.015354826
173	0xbbff8a11	-0.007798441
174	0x3c381307	0.011235005
175	0x3b85c321	0.004082099
176	0x3a508cd1	0.00079555536
177	0x3c40a9fd	0.011759278
178	0xbc6d9791	-0.014501468
179	0x3c154a0a	0.009111891
180	0xbc28f527	-0.010312355
181	0x3bcb9288	0.0062125362
182	0x3a1ab697	0.0005901842
183	0xbcbc2d7b	-0.022970906
184	0xbbf188a6	-0.007371026
185	0x3c35023b	0.011047895
186	0x3a025ce6	0.00049729494
187	0xbc3e5d28	-0.01161889
188	0x3c28f8aa	0.010313192
189	0xbb9500f5	-0.004547233
190	0xb9b9055d	-0.00035289946
191	0x39f8e805	0.00047475114
192	0xbc5ca474	-0.013466943
193	0xbc23f3d3	-0.010006863
194	0x3c2d5516	0.010579368
195	0xb9a1833f	-0.000308061
196	0x3be1fcc1	0.0068965857
197	0xbbfebc45	-0.0077739083
198	0xbbbc49cc	-0.005746102
199	0xbc91e62f	-0.017809955
200	0x3c196248	0.009361811
201	0x3c6ca88e	0.014444483
202	0x3cada277	0.021195633
203	0x3b260c44	0.00253369
204	0x3c81304b	0.015770098
205	0x3adcf11f	0.0016856528
206	0x3bf947e1	0.0076074456
207	0x3c239b8a	0.009985814
208	0x3d03587e	0.032066815
209	0x3baa2b1a	0.0051931264
210	0xba0f5a45	-0.00054684683
211	0xbc48aad2	-0.012247758
212	0xbbfa67e0	-0.0076417774
213	0xbcd55898	-0.026043221
214	0xbcca4c27	-0.024694515
215	0x3b8d75d3	0.0043170243
216	0xbbb582c4	-0.00553927
217	0xb99766f8	-0.00028877682
218	0x3b5f9a80	0.0034119189
219	0x3c6f9dcc	0.014625024
220	0xbcf052c5	-0.029336343
221	0xbada3912	-0.0016649088
222	0x3bbc6c86	0.0057502417
223	0x3d5552ae	0.052080803
224	0xbc66f81f	-0.014097243
225	0xbc4fbd12	-0.012679355
226	0xba42b119	-0.00074269023
227	0xbd073b5d	-0.033015598
228	0x3ce918e1	0.028454246
229	0x3be193eb	0.0068840883
230	0x3a81307f	0.0009856372
231	0x3c14945c	0.009068575
232	0x3ca1e0f2	0.019760583
233	0x3c06b767	0.008222437
234	0x3a5570cc	0.0008142113
235	0x39b6db4e	0.0003487714
236	0xbc0ee8ac	-0.0087224655
237	0x3c89ada0	0.016806424
238	0x3b3df7f9	0.0028986915
239	0xbd05c6f7	-0.03266045
240	0x3b206964	0.002447688
241	0xbc81f1b3	-0.015862321
242	0x3ccc954e	0.024973538
243	0x3c95780b	0.018245718
244	0xbbad3215	-0.0052855113
245	0x3bab00c1	0.0052185957
246	0xbc879490	-0.016550332
247	0xbc858e6a	-0.01630326
248	0x391a0cb3	0.00014691315
249	0xba798137	-0.00095178507
250	0x3cd1256d	0.025530541
251	0x3b93852a	0.0045019584
252	0xbc103cd2	-0.008803563
253	0xbc149257	-0.009068093
254	0xbc122ff5	-0.008922567
255	0x3bad6681	0.0052917604

action_model._continuous_distribution.mu.bias f4 [2]
0	0x3c9b573a	0.018962491
1	0xbc609ee1	-0.013709755

action_model._discrete_distribution.branches.0.weight f4 [1, 128]
0	0xbbbb1c9c	-0.0057101976
1	0x3cbdd6b0	0.02317366
2	0x3bbe797e	0.005812823
3	0xbb97a2ab	-0.004627546
4	0x3c0de77c	0.008661147
5	0x3c584c32	0.01320176
6	0x3c41e28a	0.011833796
7	0x3b1398eb	0.0022521566
8	0x3b804a6f	0.003915123
9	0x3c801b9f	0.01563817
10	0xbbb46951	-0.0055057188
11	0x39763813	0.00023481277
12	0xbc1c5993	-0.0095428405
13	0xbc734307	-0.0148475235
14	0x3a1ffe49	0.000610326
15	0xbc207df7	-0.009795657
16	0x3c71f967	0.014768935
17	0xbbc811cb	-0.0061056367
18	0x3c830413	0.015993154
19	0x3b495733	0.003072214
20	0x3bd48100	0.0064851046
21	0x3b89812c	0.0041963067
22	0xbc7397cd	-0.014867735
23	0xbbf964b7	-0.007610883
24	0x3c00783e	0.007841168
25	0x3c4020a2	0.01172653
26	0xbb859f64	-0.0040778387
27	0x3c157674	0.00912248
28	0xbc07a653	-0.008279401
29	0x3c426e23	0.011867079
30	0x3b961659	0.0045803008
31	0x3b380cbd	0.0028083764
32	0x3c19656c	0.00936256
33	0xbbc6f38e	-0.0060715145
34	0x3bc1c326	0.005913156
35	0x3ab7442d	0.001398211
36	0x3ca0422d	0.019562805
37	0xbbf16b08	-0.0073674954
38	0xbbaa60ad	-0.005199513
39	0x3b8c44e7	0.0042806747
40	0x3bcbe1c8	0.0062219836
41	0xbc17ce97	-0.009265563
42	0xb9a6fd12	-0.0003185054
43	0x3cae65df	0.02128881
44	0x3b3a1bb7	0.0028397867
45	0x3c7ebaea	0.0155474935
46	0x3c941b53	0.018079435
47	0xbbc22e7e	-0.0059259525
48	0x3bcab6e6	0.006186354
49	0x3b8fb209	0.004385237
50	0x3aaa7472	0.0013004674
51	0xbc8511ea	-0.016243894
52	0x3bf2a592	0.0074049914
53	0x3c0e7b7e	0.008696435
54	0xbc7246ea	-0.014787415
55	0x3c20e2fa	0.00981974
56	0xbc3f5b26	-0.011679446
57	0xb972709a	-0.00023120866
58	0xbb90bb72	-0.0044168765
59	0x3b319ee7	0.002710277
60	0xbbedcd4d	-0.00725714
61	0x3ba50720	0.0050362498
62	0xbc2e1293	-0.010624546
63	0xbcd49418	-0.025949523
64	0xbb8f7d87	-0.0043789777
65	0xbc4ba21d	-0.012428788
66	0xbc66ff1d	-0.01409891
67	0x3b2f155f	0.002671562
68	0xbc3d91c1	-0.011570395
69	0xbb6a5c00	-0.0035760403
70	0xbb821004	-0.0039691944
71	0xbbf0f490	-0.007353373
72	0x3b56ddb2	0.003278595
73	0x39c04dbf	0.0003667902
74	0xbbe1671f	-0.006878748
75	0x3c16affb	0.00919723
76	0x3c35df97	0.011100671
77	0xbbc83991	-0.006110378
78	0xbc2516fc	-0.010076281
79	0xbc6a3df5	-0.014296998
80	0x3c76a8ca	0.015054891
81	0xbc08616b	-0.0083240075
82	0x3b48d097	0.0030641907
83	0xbc698245	-0.01425225
84	0xba0b1e62	-0.00053069566
85	0x3c23c6aa	0.009996096
86	0xbb7daa37	-0.0038706192
87	0xbafda248	-0.0019350732
88	0xbc848e3e	-0.016181108
89	0xbb09a381	-0.0021001997
90	0xbc08f826	-0.008359944
91	0x3bb3f5da	0.0054919543
92	0x3c29d329	0.010365286
93	0x3c0081cc	0.007843446
94	0x3b853068	0.0040646084
95	0x3c14a39f	0.009072213
96	0x3b233065	0.0024900672
97	0x39f2f413	0.00046339686
98	0xbc8128dc	-0.015766554
99	0xbbfde357	-0.0077480483
100	0xbae75ebf	-0.0017652138
101	0x3c5e009d	0.013549951
102	0xbc01b7cd	-0.007917357
103	0x3b71f8c0	0.0036921948
104	0xbb591a48	-0.0033127237
105	0xbc1a0bef	-0.009402259
106	0x3bfaddd3	0.007655838
107	0xbd0f33c1	-0.034961466
108	0x3c1827df	0.00928685
109	0x3bd0f2b2	0.006376588
110	0xbbaf3633	-0.005347037
111	0xbb635d60	-0.0034693107
112	0xbbc9b79a	-0.00615592
113	0x3ba9e529	0.0051847887
114	0xbc61aa05	-0.013773446
115	0x3c2e8543	0.010651889
116	0xbbc51f16	-0.0060156686
117	0x3c55a502	0.013039829
118	0xbc54eed2	-0.012996392
119	0x3b14b0f0	0.002268847
120	0xb9483522	-0.0001909328
121	0x3ab14e38	0.0013527339
122	0xbbd6ed92	-0.0065590823
123	0xbbcac101	-0.0061875586
124	0x3b23d163	0.002499663
125	0x3a8bbd15	0.0010661209
126	0x3c529f90	0.0128554255
127	0xbc49ed43	-0.012324634

exp_avg f4 [128, 13]
0	0xaf5fa132	-2.0339e-10
1	0x2b154d5c	5.304279e-13
2	0xaf91f8ae	-2.6552044e-10
3	0x266cce23	8.2158315e-16
4	0xab9e71dc	-1.1258178e-12
5	0xa5f29dc9	-4.2087227e-16
6	0x2b2a095c	6.040912e-13
7	0xa91f3c9c	-3.5357662e-14
8	0x2a0a0fcd	1.2262344e-13
9	0x298628ec	5.957894e-14
10	0x297f654e	5.6709242e-14
11	0x28142e75	8.225724e-15
12	0x28eeac1c	2.6497949e-14
13	0x130454c3	1.6702533e-27
14	0x8f8bf253	-1.3799798e-29
15	0x139b4af8	3.9201426e-27
16	0x084cdc63	6.164808e-34
17	0x0fc9f3ca	1.9914034e-29
18	0x88032c5a	-3.9473514e-34
19	0x8fc125ad	-1.9045782e-29
20	0x0a27edba	8.085469e-33
21	0x0b66b2af	4.4430815e-32
22	0x8c568bd3	-1.6528037e-31
23	0x8c26d957	-1.2853578e-31
24	0x09af1d23	4.2157118e-33
25	0x89da3504	-5.2531447e-33
26	0x39a59e76	0.00031589315
27	0xb51bac04	-5.7992315e-07
28	0x3997149c	0.0002881632
29	0x2f2c75b3	1.5685124e-10
30	0x3551ab48	7.8107814e-07
31	0xaeab9912	-7.8033704e-11
32	0xb5984c44	-1.1347079e-06
33	0xb1d34f50	-6.149925e-09
34	0xb21bf3b9	-9.077604e-09
35	0x328fdc10	1.6747464e-08
36	0x328ee325	1.6634269e-08
37	0x30d9795c	1.582332e-09
38	0x31c0ed8a	5.6149405e-09
39	0xba9179be	-0.0011098904
40	0xb802acff	-3.115553e-05
41	0xb94e5f3f	-0.00019681173
42	0x32913b96	1.6907318e-08
43	0xb6296c98	-2.5246172e-06
44	0x3291a64e	1.6955848e-08
45	0x36b01e32	5.248724e-06
46	0xb31259d0	-3.4074958e-08
47	0xb35ced0c	-5.1438334e-08
48	0x33c06d47	8.960574e-08
49	0x338a3e22	6.437428e-08
50	0x2f1f8259	1.4507275e-10
51	0x32cbcf8a	2.3726688e-08
52	0x289edcdc	1.7637306e-14
53	0xa526f98a	-1.4482752e-16
54	0x290d14e4	3.132641e-14
55	0x1eab32e9	1.8126385e-20
56	0x2558790e	1.8776028e-16
57	0x9e2edcb3	-9.257123e-21
58	0xa55f374f	-1.9360906e-16
59	0xa206fe13	-1.8294892e-18
60	0x227766bc	3.352913e-18
61	0x1f773290	5.234611e-20
62	0xa00615b4	-1.1357422e-19
63	0x20527304	1.7825747e-19
64	0x21de91d8	1.508191e-18
65	0xbd842214	-0.064518124
66	0x3c1df6a6	0.009641325
67	0xbd5805cd	-0.052739907
68	0xb6d6bc0a	-6.3995876e-06
69	0x377087c8	1.4336729e-05
70	0x355843d1	8.0564956e-07
71	0xb7a6a8d0	-1.9867352e-05
72	0x344d2c15	1.910815e-07
73	0xb8069976	-3.209101e-05
74	0xb3bdb9e3	-8.834811e-08
75	0xb18cef58	-4.1017465e-09
76	0xb05c87b9	-8.022841e-10
77	0xb415baa9	-1.3944613e-07
78	0xbe2ace06	-0.16680154
79	0x3c9a17d9	0.0188102
80	0xbe04fb35	-0.12986453
81	0xb627a9ce	-2.4983779e-06
82	0x3666baa0	3.43813e-06
83	0x36acb4c5	5.147044e-06
84	0x36b72cba	5.459032e-06
85	0x3416f565	1.4059113e-07
86	0xb8ab1959	-8.158637e-05
87	0xb4c31909	-3.6339796e-07
88	0xb416d6db	-1.4048003e-07
89	0x32a9ff79	1.9790365e-08
90	0xb3ebf526	-1.09876325e-07
91	0x154afa1a	4.099087e-26
92	0x91bb94c2	-2.9595077e-28
93	0x1599c097	6.210006e-26
94	0x0b2ec9d9	3.3663034e-32
95	0x1208d607	4.317784e-28
96	0x8b114ede	-2.7985317e-32
97	0x92003c0b	-4.0463687e-28
98	0x8e7269d0	-2.987975e-30
99	0x0f586bed	1.0670408e-29
100	0x0e7252d9	2.9868693e-30
101	0x0e656272	2.8273829e-30
102	0x0d80288b	7.898369e-31
103	0x0e41bcba	2.3879955e-30
104	0xb9917840	-0.00027746148
105	0x3589e559	1.0274044e-06
106	0xb9acc55a	-0.00032953435
107	0xaea70c5c	-7.596476e-11
108	0xb5ccdf90	-1.526425e-06
109	0x2e9940ac	6.9691225e-11
110	0x35dafd5c	1.6316003e-06
111	0xb1fcbbe0	-7.355524e-09
112	0xb2f173e9	-2.8108802e-08
113	0xb18c347e	-4.080504e-09
114	0xb1dea222	-6.4794827e-09
115	0xb0a38486	-1.1897476e-09
116	0x31cafa74	5.907447e-09
117	0x3e82909c	0.25500953
118	0xbcd48163	-0.025940603
119	0x3e443c9e	0.19163749
120	0xb6d6680b	-6.389809e-06
121	0xb769a22c	-1.3925641e-05
122	0xb70ccc24	-8.3921805e-06
123	0xb7cc280c	-2.4337343e-05
124	0xb443dc92	-1.8241033e-07
125	0x3902dfd8	0.00012481154
126	0x359b8ab3	1.1588767e-06
127	0x35293f99	6.304995e-07
128	0xb384cc0c	-6.183845e-08
129	0x34290c24	1.5743768e-07
130	0x3768dffb	1.3880427e-05
131	0xb3d67ff7	-9.988428e-08
132	0x37c4f012	2.3476812e-05
133	0xaea2cd89	-7.4034175e-11
134	0x341c0f36	1.4534166e-07
135	0x2e744617	5.554143e-11
136	0xb39fb48e	-7.436857e-08
137	0x2e0be780	3.1810554e-11
138	0xb228447c	-9.794459e-09
139	0xb1f5cd4b	-7.1537776e-09
140	0xb206306c	-7.810836e-09
141	0xb0305610	-6.415073e-10
142	0x2f918b20	2.64742e-10
143	0xbe7e6442	-0.24842933
144	0x3cd3af20	0.025840342
145	0xbe3eadd8	-0.18621004
146	0x360c96a8	2.094932e-06
147	0xb680cf80	-3.8388534e-06
148	0x36f9cb65	7.4444565e-06
149	0x375377c6	1.2604467e-05
150	0xb389a6ca	-6.4098984e-08
151	0xb90a8b77	-0.0001321266
152	0x3435ba50	1.6924719e-07
153	0x3410a0bd	1.3469521e-07
154	0xb20f1ae5	-8.329811e-09
155	0x3343eaad	4.5615412e-08
156	0x8523f66b	-7.709483e-36
157	0x01976915	5.5619425e-38
158	0x8576fefd	-1.16136984e-35
159	0x80000ffe	-5.737e-42
160	0x81dbb810	-8.071201e-38
161	0x00000a3a	3.669e-42
162	0x01d0bdf0	7.667968e-38
163	0x00024fe2	2.12328e-40
164	0x801013ca	-1.476467e-39
165	0x8000118e	-6.297e-42
166	0x8000aa1b	-6.1022e-41
167	0x8000fc67	-9.0545e-41
168	0x8001d65e	-1.68736e-40
169	0x1eab1ee8	1.8118112e-20
170	0x9b104174	-1.193255e-22
171	0x1eec3883	2.5010845e-20
172	0x144d572c	1.0367047e-26
173	0x1b522cbe	1.738525e-22
174	0x1323675d	2.0624454e-27
175	0x9b471671	-1.6468145e-22
176	0x18157ae4	1.9319843e-24
177	0x97a68d79	-1.0763211e-24
178	0x9886a43c	-3.4804022e-24
179	0x985f2151	-2.8838895e-24
180	0x969f8ec8	-2.5777943e-25
181	0x97f78063	-1.599441e-24
182	0x3df236ec	0.11826882
183	0xbc5d8fac	-0.013523024
184	0x3dbb46e8	0.09144384
185	0x36359c2e	2.706201e-06
186	0xb69f6b3e	-4.751054e-06
187	0xb676d773	-3.6782264e-06
188	0x368a7e3f	4.1274175e-06
189	0xb3c7bcbe	-9.3009916e-08
190	0x3875ca5c	5.8601014e-05
191	0x348970cc	2.560031e-07
192	0x33f3d45f	1.13541994e-07
193	0xb2427c4c	-1.1320548e-08
194	0x339cb542	7.297287e-08
195	0x100a705e	2.7302266e-29
196	0x8d26c5b5	-5.139068e-31
197	0x11205f69	1.2651175e-28
198	0x075aebc4	1.6469782e-34
199	0x0ddd457c	1.3636904e-30
200	0x870f0299	-1.0758888e-34
201	0x8d100e68	-4.4390767e-31
202	0x87dbfbaa	-3.3099372e-34
203	0x0b02a37c	2.516008e-32
204	0x07f751f1	3.721259e-34
205	0x089077a1	8.694809e-34
206	0x08cf2b19	1.24684915e-33
207	0x8781e526	-1.9544444e-34
208	0x3ab2f650	0.0013653729
209	0xb70cf688	-8.40205e-06
210	0x39a0f527	0.0003070023
211	0x328f3a0d	1.667379e-08
212	0x353f4766	7.1256943e-07
213	0xb38cefb2	-6.562858e-08
214	0xb718bd63	-9.104001e-06
215	0xb30a7da3	-3.2244895e-08
216	0xb5951e91	-1.1110261e-06
217	0x3554a1e2	7.9211725e-07
218	0x350b8c0d	5.1985336e-07
219	0xb315beed	-3.4865412e-08
220	0x331e1c57	3.6813017e-08
221	0x26c803de	1.3878836e-15
222	0xa3718baf	-1.3094215e-17
223	0x2790a4ae	4.0146575e-15
224	0x9bb05a6c	-2.9175191e-22
225	0x23c409b2	2.1254469e-17
226	0x9b32fdc0	-1.4805806e-22
227	0xa3942a3b	-1.6064077e-17
228	0x1f1fc07e	3.3828785e-20
229	0xa010bd13	-1.2259834e-19
230	0xa080b566	-2.1804083e-19
231	0xa06509aa	-1.9400252e-19
232	0x9dabe9e4	-4.550516e-21
233	0x9ed441d8	-2.2473605e-20
234	0x0456ed5c	2.526457e-36
235	0x80b4fa45	-1.6620169e-38
236	0x048f770b	3.3728462e-36
237	0x000003ae	1.32e-42
238	0x00ed3edf	2.1787566e-38
239	0x00000c8a	4.498e-42
240	0x8107d336	-2.494712e-38
241	0x000e3a85	1.30669e-39
242	0x80121ee6	-1.664123e-39
243	0x8016929d	-2.072976e-39
244	0x8013538e	-1.774848e-39
245	0x80024c32	-2.11005e-40
246	0x800ba1e1	-1.068262e-39
247	0xbb1599aa	-0.0022827187
248	0x38cd526c	9.790514e-05
249	0xbb2488bc	-0.0025105914
250	0xb331a8d9	-4.136459e-08
251	0xb7175e7e	-9.022302e-06
252	0x34432f04	1.8177894e-07
253	0x36f095a7	7.169979e-06
254	0xb32980e1	-3.9465593e-08
255	0xb502a22b	-4.866476e-07

exp_avg_sq f4 [128, 13]
0	0x377ecaad	1.5186769e-05
1	0x3647d2f3	2.97761e-06
2	0x36d4205a	6.3218586e-06
3	0x29dbbe0e	9.758523e-14
4	0x2de4ae0b	2.599789e-11
5	0x29c60fee	8.79573e-14
6	0x2de7f364	2.6369747e-11
7	0x2541ed95	1.6820577e-16
8	0x2c250786	2.3452087e-12
9	0x26cfba34	1.4413981e-15
10	0x2652d2cb	7.3144064e-16
11	0x22750ebf	3.3211498e-18
12	0x24fc87bb	1.09517515e-16
13	0x35556696	7.9497966e-07
14	0x2e245870	3.736783e-11
15	0x36002982	1.9097647e-06
16	0x1f679164	4.9036417e-20
17	0x2e785464	5.6463625e-11
18	0x1fd7edc2	9.144938e-20
19	0x2eb45a80	8.201528e-11
20	0x25be47d4	3.3008419e-16
21	0x28a981f0	1.881912e-14
22	0x278f5446	3.9781843e-15
23	0x27156c04	2.073646e-15
24	0x2300d4d1	6.9839595e-18
25	0x2575ba88	2.1313562e-16
26	0x39125dba	0.00013958561
27	0x333ac5cb	4.348639e-08
28	0x396b807c	0.0002245921
29	0x28faadbf	2.7830926e-14
30	0x31bd4bf1	5.5092575e-09
31	0x29e5839c	1.01924735e-13
32	0x31578fed	3.136843e-09
33	0x2973ac27	5.4106157e-14
34	0x2d6eeeea	1.3581783e-11
35	0x2abf42d7	3.3974795e-13
36	0x2a72faa5	2.1580878e-13
37	0x274185d3	2.6856677e-15
38	0x29233232	3.6236808e-14
39	0x3ff31c66	1.8993042
40	0x3d771662	0.06032408
41	0x3cadf84f	0.021236567
42	0x31c5b12d	5.753597e-09
43	0x33604c8a	5.2223676e-08
44	0x31d5cc55	6.2223457e-09
45	0x333fc364	4.464836e-08
46	0x2cffe3d3	7.2728295e-12
47	0x33ce5a15	9.609008e-08
48	0x2d9efe31	1.8075404e-11
49	0x2eefd260	1.0905832e-10
50	0x2f15b564	1.3615914e-10
51	0x2e464b18	4.5086684e-11
52	0x34b5c439	3.3856648e-07
53	0x2d3cf222	1.0740327e-11
54	0x351090f9	5.3855143e-07
55	0x1ecab941	2.1464201e-20
56	0x2da703be	1.8987364e-11
57	0x1f9f8882	6.756495e-20
58	0x2dbc4e0e	2.1407789e-11
59	0x250e1adf	1.2325641e-16
60	0x292bb8c1	3.8129876e-14
61	0x26a6ff61	1.1587784e-15
62	0x2629d99c	5.892857e-16
63	0x222d6925	2.3501535e-18
64	0x24b61c54	7.897791e-17
65	0x3da5944c	0.08084926
66	0x3b38056f	0.002807941
67	0x3bc4d016	0.006006251
68	0x2fc2a35e	3.5404474e-10
69	0x32766212	1.4341383e-08
70	0x3000760a	4.673387e-10
71	0x32299839	9.871706e-09
72	0x2beba12b	1.6742487e-12
73	0x31f35c0e	7.082696e-09
74	0x2c542998	3.0150101e-12
75	0x2de9f297	2.6596765e-11
76	0x2d14ad2b	8.451277e-12
77	0x2cd72ae3	6.115429e-12
78	0x3d9cea75	0.07661907
79	0x3af61368	0.0018774094
80	0x3c2ccd63	0.010547015
81	0x3009cff8	5.013585e-10
82	0x329f66b9	1.8556749e-08
83	0x2fa80bf7	3.0567524e-10
84	0x326e2cc0	1.3863598e-08
85	0x2b88c57f	9.718197e-13
86	0x320765dd	7.881195e-09
87	0x2c182dc0	2.1625896e-12
88	0x2d99f38c	1.7502243e-11
89	0x2c12e577	2.0875226e-12
90	0x2c92860f	4.164453e-12
91	0x352a7eec	6.351463e-07
92	0x2dc7dbae	2.2721238e-11
93	0x3590d864	1.0791814e-06
94	0x1f89ff43	5.844405e-20
95	0x2e2fb383	3.994983e-11
96	0x20fcaeca	4.2806126e-19
97	0x2e3eff74	4.3427886e-11
98	0x2594a759	2.5787307e-16
99	0x2a620630	2.0074979e-13
100	0x272a0476	2.3594658e-15
101	0x26a98b19	1.1764433e-15
102	0x22ec1852	6.399368e-18
103	0x25400fc5	1.6658688e-16
104	0x3a58944f	0.0008261846
105	0x38f7b17b	0.00011810936
106	0x3a01d09d	0.0004952045
107	0x2d9d3d63	1.7876095e-11
108	0x3165053e	3.3326866e-09
109	0x2c262fd3	2.3616567e-12
110	0x3114ed81	2.167184e-09
111	0x2906417d	2.981078e-14
112	0x2f15f27e	1.3637622e-10
113	0x2a8181f9	2.300519e-13
114	0x2a2fcec6	1.5614861e-13
115	0x27467eb9	2.7546716e-15
116	0x28cfe7a1	2.308207e-14
117	0x3ea15cd0	0.31516123
118	0x3beaaf63	0.007162021
119	0x3cf1e329	0.029527264
120	0x30c17a2b	1.407732e-09
121	0x338ad1b5	6.464271e-08
122	0x308c247e	1.0196712e-09
123	0x33511c99	4.8687614e-08
124	0x2cf7c962	7.04252e-12
125	0x32f9c7ac	2.9078215e-08
126	0x2d7a84c2	1.4240333e-11
127	0x2f7270e6	2.2049881e-10
128	0x2e3b829a	4.2634875e-11
129	0x2e1c4a9d	3.5536563e-11
130	0x36891071	4.084832e-06
131	0x2f7cc9ba	2.2990934e-10
132	0x378d9966	1.6879942e-05
133	0x226e0699	3.2258507e-18
134	0x30170a8d	5.4948474e-10
135	0x222ac905	2.3145715e-18
136	0x2fb90ad9	3.3659012e-10
137	0x27c0db1c	5.3528264e-15
138	0x2a1aebd7	1.3759771e-13
139	0x297a3c09	5.5563223e-14
140	0x293b01ed	4.152401e-14
141	0x266d8325	8.2403627e-16
142	0x2799ed77	4.272349e-15
143	0x3cf37178	0.029717192
144	0x3987b176	0.00025881425
145	0x3c493e64	0.0122829415
146	0x2f56e032	1.9542837e-10
147	0x32eec032	2.7794247e-08
148	0x2f655157	2.0856326e-10
149	0x329bfca2	1.8159259e-08
150	0x2b4163eb	6.870604e-13
151	0x31d94c32	6.3241936e-09
152	0x2c0310ae	1.8625479e-12
153	0x2c8258ea	3.7046937e-12
154	0x2c9e21b6	4.4943728e-12
155	0x2c6e278f	3.3843794e-12
156	0x33eb93df	1.0969938e-07
157	0x2c8a19a3	3.925042e-12
158	0x34455403	1.8377618e-07
159	0x1e310d75	9.373085e-21
160	0x2cd5e5b0	6.0793245e-12
161	0x200e57b1	1.2056883e-19
162	0x2cd42e0e	6.0305155e-12
163	0x2430f865	3.8374315e-17
164	0x295f98c6	4.9648457e-14
165	0x25e1328f	3.9065538e-16
166	0x2561b09e	1.9575479e-16
167	0x215f320e	7.5621586e-19
168	0x23e15923	2.44323e-17
169	0x345a1fb0	2.031436e-07
170	0x2bb2202d	1.2656591e-12
171	0x33660adb	5.356092e-08
172	0x1d4a811e	2.680123e-21
173	0x2c826bad	3.7067766e-12
174	0x1f713ab5	5.1082296e-20
175	0x2baafbaa	1.2149077e-12
176	0x24722377	5.2505425e-17
177	0x28b0f805	1.9647487e-14
178	0x25000ae8	1.1105925e-16
179	0x242de9f9	3.7711578e-17
180	0x204e787f	1.7488748e-19
181	0x23eaaf38	2.5444539e-17
182	0x3face335	1.3506838
183	0x3d575c19	0.052578066
184	0x3c7e2d30	0.015513703
185	0x32018e5d	7.541158e-09
186	0x32e9bb51	2.7209952e-08
187	0x31c5c1ec	5.755501e-09
188	0x3335ff30	4.2374438e-08
189	0x2baeba91	1.2415226e-12
190	0x338e603d	6.629896e-08
191	0x2c6b071f	3.3399462e-12
192	0x2ecba409	9.26051e-11
193	0x2e79bfdd	5.6786454e-11
194	0x2d6f23f4	1.359356e-11
195	0x33163132	3.496934e-08
196	0x2a5e4047	1.9739862e-13
197	0x328d1d64	1.6427926e-08
198	0x1ea683a8	1.7630385e-20
199	0x2aeec4d9	4.2413883e-13
200	0x20cee8eb	3.505189e-19
201	0x2abba662	3.3333324e-13
202	0x2330d2dd	9.585631e-18
203	0x2a1dca84	1.4014663e-13
204	0x238c8faa	1.5239675e-17
205	0x23329224	9.680346e-18
206	0x2134022c	6.0989247e-19
207	0x22e8047b	6.288847e-18
208	0x3e06e368	0.13172686
209	0x3b822e78	0.0039728247
210	0x3b0d864f	0.0021594947
211	0x30195ef4	5.579601e-10
212	0x321a9b90	8.999351e-09
213	0x2ff186e4	4.393349e-10
214	0x31f3f4ba	7.100053e-09
215	0x2c4b791d	2.8915266e-12
216	0x32186f3e	8.872858e-09
217	0x2cc2563a	5.5233847e-12
218	0x2e2f8174	3.990537e-11
219	0x2da7b7b0	1.9067276e-11
220	0x2d1712a3	8.587494e-12
221	0x34d83d8f	4.0277925e-07
222	0x2d961abc	1.7064898e-11
223	0x3553c323	7.8887587e-07
224	0x1eb7756b	1.9424442e-20
225	0x2df2b663	2.759321e-11
226	0x1f65b6fe	4.8644004e-20
227	0x2e1dfaa8	3.5920295e-11
228	0x2524a18e	1.427947e-16
229	0x2863cc80	1.2645375e-14
230	0x2702e311	1.8164217e-15
231	0x26862fc7	9.311068e-16
232	0x22a9e410	4.6049012e-18
233	0x24cca3be	8.874829e-17
234	0x35089166	5.087553e-07
235	0x2c5e3772	3.1578876e-12
236	0x340d38f8	1.3152373e-07
237	0x1ffe05de	1.0758289e-19
238	0x2d1a7fc4	8.782256e-12
239	0x21c657f8	1.3440287e-18
240	0x2c46bb77	2.8241556e-12
241	0x2525b137	1.4371511e-16
242	0x2b2b1d6d	6.079224e-13
243	0x259d3a1f	2.7274543e-16
244	0x24d6be6e	9.3130306e-17
245	0x2192d097	9.948558e-19
246	0x24a32b7b	7.076364e-17
247	0x3a648109	0.00087167375
248	0x3919a965	0.00014654321
249	0x3a0965b3	0.00052412896
250	0x2d09763e	7.813803e-12
251	0x31122e7f	2.1272226e-09
252	0x2d183308	8.651531e-12
253	0x30bc2845	1.3690246e-09
254	0x289c7f5e	1.7374716e-14
255	0x2f281d54	1.528993e-10

exp_avg f4 [128]
0	0x2badaf94	1.2341122e-12
1	0x900bbeea	-2.755999e-29
2	0xb5a1b500	-1.2048113e-06
3	0x36ae1722	5.188297e-06
4	0xa59bb722	-2.701231e-16
5	0x37973756	1.802637e-05
6	0x39022b67	0.00012413935
7	0x923b9ec9	-5.9202514e-28
8	0x36154b8b	2.2246702e-06
9	0xb951e97d	-0.00020018774
10	0xb424ebee	-1.5359521e-07
11	0x394beaf1	0.00019447111
12	0x02179eb6	1.1139276e-37
13	0x9b90140c	-2.3835757e-22
14	0xb8ad4aa8	-8.263189e-05
15	0x8da70083	-1.0292293e-30
16	0xb6cd7326	-6.122881e-06
17	0xa3f1526c	-2.616418e-17
18	0x8131e120	-3.2671285e-38
19	0x3755351a	1.2708153e-05
20	0x3982c57f	0.00024942678
21	0xb81b11da	-3.6971505e-05
22	0xb9358bb2	-0.00017313546
23	0x9c9c30e3	-1.0335851e-21
24	0x39055c84	0.00012718333
25	0x2a7f798c	2.269072e-13
26	0xa4ee9f89	-1.0348631e-16
27	0x38c1781c	9.225329e-05
28	0xb5f5d398	-1.8315504e-06
29	0xb898a5df	-7.278821e-05
30	0xb7e14bd1	-2.6857395e-05
31	0x36ee1798	7.0956994e-06
32	0x39a7a375	0.00031974507
33	0xb88c1c6c	-6.681014e-05
34	0x3826463c	3.9642895e-05
35	0xb0b48680	-1.3134951e-09
36	0x362cfecf	2.5778315e-06
37	0x9e98e0a6	-1.6186538e-20
38	0xafe513df	-4.1668977e-10
39	0x38bd315c	9.021416e-05
40	0x9218a9bd	-4.817196e-28
41	0xb94ffb90	-0.00019834773
42	0x399d6258	0.00030018645
43	0x380328c7	3.127081e-05
44	0x9265d939	-7.2527407e-28
45	0x38e40485	0.00010872729
46	0x8500a79d	-6.049317e-36
47	0xb603bbb7	-1.9629786e-06
48	0xb9545d5e	-0.00020252677
49	0xb92108c9	-0.00015357429
50	0x361e7de6	2.3617117e-06
51	0x951a0f64	-3.1112193e-26
52	0x0cf41d3e	3.7611752e-31
53	0x01f2d11f	8.9196834e-38
54	0x80000004	-6e-45
55	0xb9847ce8	-0.00025270064
56	0xb9d8d2dc	-0.00041355833
57	0x2a908cc0	2.5677203e-13
58	0x38a455cb	7.8361096e-05
59	0x1d744f1e	3.2334034e-21
60	0x213c93c6	6.3892454e-19
61	0x1beda70d	3.9316315e-22
62	0xb68898bb	-4.070896e-06
63	0xb9544630	-0.00020244042
64	0x140114c4	6.516931e-27
65	0xb604ff3e	-1.9818103e-06
66	0x2ce2e8bb	6.4491446e-12
67	0xb4a1f72d	-3.016843e-07
68	0xb8c879d6	-9.559437e-05
69	0xb9332085	-0.00017082885
70	0xa995c7d4	-6.651594e-14
71	0x322ca049	1.0048162e-08
72	0x8ce69b12	-3.553044e-31
73	0xb91eedf3	-0.00015156697
74	0xaf5fba8d	-2.0348008e-10
75	0x3640fddc	2.8757995e-06
76	0x35a3a960	1.2193741e-06
77	0x94b3ec7a	-1.8167655e-26
78	0xb69f4944	-4.7470985e-06
79	0xb682b829	-3.895741e-06
80	0xb792e968	-1.7513245e-05
81	0xad4e802b	-1.1738203e-11
82	0xb5f6899f	-1.8368481e-06
83	0x376b540a	1.4026658e-05
84	0x170bb473	4.514108e-25
85	0x392657d3	0.0001586371
86	0xac0cecac	-2.0026576e-12
87	0x38d288a9	0.00010039035
88	0xb014b072	-5.409283e-10
89	0xb70267e2	-7.772791e-06
90	0x39630a1f	0.00021652177
91	0xb83d8d4a	-4.5192697e-05
92	0xb6716854	-3.5972525e-06
93	0xb78b5022	-1.6607406e-05
94	0x1ea01443	1.6949039e-20
95	0x38928dc5	6.988229e-05
96	0x20bcc0cf	3.197603e-19
97	0x1b071044	1.1172194e-22
98	0x38a4a53b	7.850906e-05
99	0xb5fb7036	-1.8733615e-06
100	0x377cab7c	1.5060297e-05
101	0x1798f079	9.883474e-25
102	0x0fc34c57	1.925789e-29
103	0x38dd406f	0.00010550103
104	0x38c9abd2	9.616431e-05
105	0xb7459fa9	-1.1779289e-05
106	0xb50d47fb	-5.263134e-07
107	0xa3012c87	-7.002533e-18
108	0x96662776	-1.8591704e-25
109	0x397fbabb	0.00024388258
110	0xaebcf249	-8.592289e-11
111	0x97e533c9	-1.4811851e-24
112	0xaac9766c	-3.5786944e-13
113	0x355b02cf	8.1587945e-07
114	0xb88971a8	-6.553839e-05
115	0xb853b806	-5.0477705e-05
116	0x357580c0	9.145697e-07
117	0xad40c0a0	-1.0956708e-11
118	0x292f1f22	3.888481e-14
119	0x3839d41d	4.4304983e-05
120	0x39195c18	0.00014625525
121	0x38246252	3.9192215e-05
122	0xb74db7e1	-1.2261765e-05
123	0x3833c4de	4.2860273e-05
124	0x18f2cede	6.2764416e-24
125	0x38e1968b	0.00010756877
126	0xa21b57fa	-2.1052991e-18
127	0x39043f2d	0.00012612036
