results/mimicagentfinale/RaceCar/RaceCar-192.onnx (onnx, 77961 bytes, 8 tensors)

action_model._continuous_distribution.log_sigma f4 [1, 2]
000000 00 00 00 00 00 00 00 00
       0.0 0.0

action_model._continuous_distribution.mu.bias f4 [2]
000000 00 00 00 00 00 00 00 00
       0.0 0.0

action_model._continuous_distribution.mu.weight f4 [2, 128]
000000 3e b1 30 bc e8 50 25 3b e3 92 95 bc f8 42 04 bd
       -0.010784445 0.0025225226 -0.018258518 -0.03229043
000010 d3 ce 6b bc ae da 29 bc e3 ca 96 3b be d7 9c 3b
       -0.014392572 -0.010367079 0.0046018227 0.0047864607
000020 5f 46 78 bc 87 05 5d 3b 2a 44 df 3a 2f 1a 86 bb
       -0.0151534965 0.0033725218 0.0017033864 -0.004092477
000030 f7 09 66 3c 7b 37 96 3c 1f e9 27 bc 20 03 ec 3b
       0.014040462 0.018337002 -0.0102484515 0.007202521
000040 87 0f ed 39 be cf a8 bc 77 c9 92 38 16 0a 0f 3c
       0.0004521573 -0.020606872 6.999348e-05 0.008730432
000050 d2 49 ba 3b b8 3a 66 bb 02 81 b2 bb 20 95 7c bc
       0.0056850696 -0.0035130214 -0.005447508 -0.015416414
000060 bb 2c 46 bc e3 73 46 3b eb 83 53 bc 60 b5 11 b9
       -0.0120956255 0.0030281476 -0.01290987 -0.00013895845
000070 a1 b2 a6 3b 18 14 59 bc 8c 6a 11 3d e0 f0 04 3a
       0.005087212 -0.01324942 0.035502 0.00050712936
000080 cf 7e b2 ba db e8 26 bc 62 03 b9 bc cb 44 75 3c
       -0.0013618114 -0.010187353 -0.02258462 0.014970015
000090 ef 13 e1 bc 0d 0d dd bc 90 2e fc 3b ff be 82 3c
       -0.027475325 -0.026983762 0.0076959804 0.015960215
0000a0 7a e6 e0 bc 9f 7f 51 3a bb e7 f6 bb 04 63 c0 bc
       -0.02745365 0.00079917343 -0.0075349486 -0.023484714
0000b0 d0 18 03 bd e6 99 8f 39 f0 bd f7 3b 37 a9 74 3c
       -0.032006085 0.0002738975 0.007560484 0.014932922
0000c0 5d 7b a2 bc b7 6c 4b bb 5a 7b 4f bc 3e 5f 3c 3c
       -0.019834215 -0.003104014 -0.012663687 0.011497317
0000d0 20 9b 45 3d 10 bb b7 bb 13 5f 66 bc 36 67 88 bc
       0.04824364 -0.0056070164 -0.014060753 -0.016650777
0000e0 7a 45 d7 3c b1 a3 88 bb d7 a9 ac ba da 29 41 bc
       0.026278246 -0.004169904 -0.0013173175 -0.011789763
0000f0 57 cd 82 3b 7b 96 52 bb 68 4d f6 bb a5 b3 e8 bc
       0.0039917636 -0.003213315 -0.0075165518 -0.028405974
000100 08 46 9a bb 49 af 3d 3c 71 eb 0e 3d 30 04 97 bb
       -0.0047080554 0.011577436 0.034892503 -0.0046086535
000110 ce ad 19 bc 0f 8e 0a bc 47 95 b1 3c e2 11 a3 3c
       -0.009379817 -0.008456721 0.021677626 0.019905988
000120 18 ff c9 bb 8e c6 2b bc 8b e4 de 3b 3d f6 da 3a
       -0.0061644427 -0.010484351 0.006802147 0.0016705465
000130 37 38 7c bc 6d fc e1 bb 72 6f 27 3b a4 79 a9 3c
       -0.015394262 -0.0068965466 0.0025548604 0.020687886
000140 70 3a a0 3c bd 98 cb bb 9d 72 9c b9 02 81 82 3c
       0.019559115 -0.006213276 -0.00029840032 0.015930656
000150 07 a0 8c 3c ed ed d1 bb 83 d4 b5 bc 2f 8e 2a 3c
       0.01716615 -0.006406537 -0.02219606 0.010409876
000160 c3 2a 79 bb b2 ce 3c 3c 8c 13 af bb f7 c3 a6 ba
       -0.0038019873 0.011523889 -0.0053429063 -0.0012723197
000170 7f 95 f8 bc d3 04 25 3c 77 1a 0d bc 89 14 27 bc
       -0.030344723 0.010071951 -0.008612267 -0.010197767
000180 10 f2 6b 3b 97 38 e0 3c a5 6c d1 3c b4 16 35 3c
       0.0036002435 0.027370734 0.025564501 0.011052776
000190 c8 e3 a8 bc 5b 02 94 bc 65 81 b2 bb 18 c7 b4 3c
       -0.020616427 -0.01806753 -0.005447554 0.022067592
0001a0 4e 8b 9a 3c e6 28 1c ba 04 77 81 ba a8 1e 81 3b
       0.018865254 -0.0005957022 -0.0009877388 0.003940422
0001b0 fb 76 3c bc 62 b7 0a 3b 22 a3 64 bc f1 a3 46 bd
       -0.0115029765 0.0021166434 -0.0139549095 -0.04849619
0001c0 d5 e4 31 bc 50 9e f7 ba 1b e6 a4 3b cb 3e de bb
       -0.01085778 -0.0018891785 0.0050323135 -0.006782388
0001d0 59 77 99 3c 1d ca 2a 39 2d 4f d7 3b 30 c0 db bb
       0.018733667 0.00016287756 0.006570718 -0.00670626
0001e0 ab 14 b4 3c 2f a3 be bb fa 69 e0 bb aa e3 56 bb
       0.021982512 -0.005817793 -0.006848571 -0.0032789507
0001f0 bb 64 2e bc 9a a8 c7 3b 89 96 2e bd c0 93 99 3c
       -0.010644133 0.006093097 -0.04262403 0.01874721
000200 90 47 c2 3c 1b 3d 5e bc c8 4a ff 3b 6b ba 1c bc
       0.023715764 -0.013564373 0.007790897 -0.00956593
000210 12 04 2b bc 00 c7 c5 3c 6f eb 10 bd 28 23 63 3c
       -0.010437982 0.024142742 -0.035380777 0.013863362
000220 0c 75 a1 3b 2b 72 26 bb 50 23 70 3c 67 2f 74 3c
       0.004927283 -0.002539764 0.014656857 0.01490388
000230 77 f2 a1 bb 20 66 0d bc 7a 52 6a 3c 37 7a cb 3a
       -0.004942234 -0.0086303055 0.0143018905 0.0015524094
000240 c9 64 04 bd 97 a6 0a bd 6f b7 aa bb d0 eb ea bb
       -0.03232268 -0.03385028 -0.0052098553 -0.0071692243
000250 03 e4 0f bd c3 84 ba 3a b5 62 63 bb bb c8 26 bc
       -0.03512956 0.001423024 -0.0034696285 -0.010179694
000260 50 bd 73 bb a6 12 aa bc f8 fb 80 bc 67 70 1f 3c
       -0.0037191696 -0.020760845 -0.015745148 0.009731389
000270 4b 69 3c 3c ba e5 96 bb 8d e8 29 3b e4 63 0c 3c
       0.011499713 -0.0046050223 0.0025925965 0.008568738
000280 48 c8 4b bd af 3c f0 3b b1 8e c9 bb 10 51 18 bd
       -0.04975155 0.007331453 -0.0061510433 -0.037186682
000290 26 41 2a bc c8 9b 02 3d 49 4b 0b bc 23 be 3d bc
       -0.010391509 0.031886846 -0.008501836 -0.011580977
0002a0 f1 f0 1b bc 50 63 62 bc 3b 59 36 3a e5 61 7d 3b
       -0.009517894 -0.013817623 0.00069560454 0.0038663086
0002b0 c7 f6 14 bd e7 7a fb 3c 69 bf 93 3c 37 16 74 3c
       -0.036368158 0.030698253 0.018035607 0.014897875
0002c0 0f ea 3b bc eb d5 fa b6 db d7 81 bc 0d e8 de bc
       -0.011469378 -7.475484e-06 -0.015849998 -0.02721026
0002d0 05 8a f6 bc f8 71 c8 b9 5b 5d 45 bc a7 5c 1e 3d
       -0.03009511 -0.00038231886 -0.012046183 0.03866258
0002e0 e3 3f b6 3c 78 cb a6 bc 6a 94 c1 bc 4c 95 2e 3c
       0.02224726 -0.020360693 -0.02363034 0.010655712
0002f0 a0 44 40 3c b5 37 78 3c 87 39 69 bc 95 d6 f6 bc
       0.0117351115 0.01515 -0.014234907 -0.030131618
000300 93 8e f6 3c 1b c1 13 3a ed eb 89 3c aa 39 ae bb
       0.030097282 0.000563638 0.016836131 -0.0053169327
000310 21 4c 30 3c 06 4a 22 3c b0 33 9d 3b 5f 4d 0e bc
       0.010760338 0.009905344 0.0047974214 -0.008685439
000320 55 d0 65 3b 24 cd 49 bc 50 c4 ea bc c4 4e 8a 3b
       0.0035066803 -0.012316976 -0.028658062 0.0042208154
000330 f3 9d 0e 3d 75 8f 6d 3c 72 dc 2f bc 88 7e 54 3c
       0.0348186 0.014499535 -0.010733711 0.0129696205
000340 12 1e cc 3b 80 de cf bb c3 4d 98 bb 00 ec 91 3b
       0.0062291706 -0.0063436627 -0.004647942 0.004453182
000350 0f 3a 13 bd 17 b8 7d 3c 95 ab 90 3c 3d 5f 22 3c
       -0.03594404 0.015485785 0.017659942 0.009910402
000360 7c a0 47 3c 32 d4 93 bc 40 f2 9e 3c 89 8f aa 3c
       0.012184259 -0.018045519 0.019402623 0.020820396
000370 9f 3f 3c 3c 35 92 f5 bb d0 6a d2 bc 43 ac 1b bc
       0.011489778 -0.007494236 -0.025685698 -0.00950152
000380 ba 4e f8 3b 42 cb 9b bc 0a 8c f2 bc 00 a0 fc 39
       0.0075777443 -0.01901782 -0.029607791 0.00048184395
000390 52 32 b4 bb ed c4 53 bc a3 24 b5 bc 85 09 ab 3c
       -0.0054991627 -0.012925369 -0.022112196 0.020878563
0003a0 a3 23 29 3c ee 51 15 bc 52 a8 45 bc cf 06 85 bb
       0.010323438 -0.009113772 -0.0120640565 -0.0040596495
0003b0 7a f7 61 3c a7 fe c7 bc a6 6c a1 3a df c1 21 3c
       0.013791913 -0.02441342 0.0012315705 0.009872883
0003c0 b8 55 8d bc e3 9c 9b bc 4f 37 8a 3c 73 88 23 3c
       -0.017252788 -0.018995708 0.016872076 0.0099812625
0003d0 57 b8 85 3b 48 73 2d bc 01 cb 87 3c e2 0e 9c bc
       0.004080813 -0.010586567 0.016576292 -0.019050065
0003e0 75 a9 f8 3b f7 2b e4 bb 2a fa 43 bc 16 10 c3 3c
       0.00758856 -0.006963249 -0.011961499 0.023811381
0003f0 73 9b b2 3c e3 32 e8 3c dc 21 a2 bc aa 49 9f 3b
       0.02180264 0.028344577 -0.019791536 0.0048610764

action_model._discrete_distribution.branches.0.weight f4 [1, 128]
000000 2f 36 a7 3b ed ac 6d 3a f4 a4 28 3c 4b 5a 8b ba
       0.0051028947 0.00090666005 0.010293234 -0.0010631768
000010 f5 c9 b3 3b 58 b1 a8 3b 41 a3 26 3c 7b 2d 3a bc
       0.0054867216 0.005148094 0.010170759 -0.011363382
000020 28 dd d2 3a 9e da b4 bc f8 6d 44 3b fa c2 58 bc
       0.0016087638 -0.022076901 0.0029972773 -0.01323008
000030 fa 7b 03 37 0f 2f e7 3b 85 5c 18 3c 50 45 2d b9
       7.837074e-06 0.0070551704 0.009299402 -0.00016524387
000040 2b f1 9d bc 47 8c 3d 3c 4c 78 05 3a 35 ea 24 ba
       -0.019280037 0.011569089 0.0005091473 -0.0006291003
000050 46 f4 1c bb 38 9c 70 3b 15 11 52 bc d0 6a dc ba
       -0.002394931 0.0036714207 -0.0128214555 -0.00168165
000060 a1 e5 9f bb 23 90 39 3c 1f 61 22 bb 4b 20 bc 3b
       -0.004879669 0.011325869 -0.0024777127 0.0057411543
000070 25 bb e8 bb 2f ba c4 3b 5f e5 56 3c ff 4e 52 3c
       -0.0071023875 0.00600364 0.01311621 0.012836217
000080 f0 13 d0 3b ca 48 04 3c 02 b6 9c 3c a7 7c c3 3b
       0.006350033 0.008073995 0.019129757 0.0059657875
000090 81 ec 8b 3b 06 b8 84 3c 72 02 6b 3c 1b 33 09 3a
       0.004270137 0.01620103 0.014343845 0.00052337506
0000a0 00 dc 5b bc fd 28 a3 bb 18 68 37 3c 0d 79 89 bb
       -0.013419151 -0.0049792514 0.0111942515 -0.0041953386
0000b0 f2 29 86 39 f3 e3 12 3c e5 db 2c 3b 5b a1 b8 bb
       0.00025589723 0.00896548 0.0026376185 -0.0056344694
0000c0 f7 f5 11 3b 87 52 37 3c f3 40 41 bc 27 59 50 3c
       0.002227185 0.01118911 -0.01179527 0.012716568
0000d0 6d 20 c0 bb 4d 5b 1b 3c 61 83 a2 bb 58 0f 5a 3c
       -0.0058632405 0.009482217 -0.0049595092 0.013309322
0000e0 b7 1d a9 3a 06 c6 ca ba 70 9f a8 bc 50 1a aa 3a
       0.0012902532 -0.0015470393 -0.020583838 0.0012977812
0000f0 6b b7 0c 3b f3 76 0a 3b 4d 33 d2 bb 13 05 9f 3c
       0.002147163 0.0021128028 -0.006414807 0.0194116
000100 95 04 cb bb e2 59 66 3b bb 4e a6 3c a7 45 55 ba
       -0.0061956146 0.003514879 0.020301213 -0.0008135684
000110 cf 02 e8 3b f6 d6 94 bb b5 a3 31 3c e9 12 ad bb
       0.007080413 -0.004542227 0.010842253 -0.0052817953
000120 cf fa a6 bc c8 10 38 bc 30 e0 0c 3b 43 d2 f4 ba
       -0.020383267 -0.01123447 0.002149593 -0.0018678386
000130 8a 18 4a bb e7 77 f0 3b 32 13 73 bc d6 3b 9b 3b
       -0.003083738 0.007338512 -0.0148361195 0.0047373576
000140 63 af 7e 3c a3 3e 98 3c ef b0 47 3c dc 43 80 bc
       0.015544745 0.018584555 0.01218818 -0.015657358
000150 0b 5c a3 3a 2a 42 3f 3c 3f 62 01 bc bf 7a a7 bb
       0.0012463344 0.01167349 -0.007896959 -0.005111068
000160 4b 6f 1e bc c4 3b 3b 3b a7 5c 4d b9 af 08 f7 ba
       -0.009670089 0.0028569559 -0.00019584839 -0.0018847192
000170 6b 87 60 3a 47 e5 97 3b bf 13 da bb bf 15 66 3c
       0.0008565101 0.0046354863 -0.006655186 0.014043271
000180 aa 43 db 3b 53 82 c9 3b ff 58 3b 3c 1a d0 f9 bb
       0.006691416 0.006149569 0.011434793 -0.0076236846
000190 32 e9 47 bb 17 5b 57 3c e3 4d 90 3c 5b 38 48 3b
       -0.0030503985 0.013144276 0.017615264 0.0030551169
0001a0 6b 45 c1 bc 55 3d ee bb 27 3a ac bb a3 40 2b 3a
       -0.023592671 -0.007270495 -0.0052559557 0.0006532764
0001b0 8d 01 80 3a f3 e8 65 39 2c 4e 3e 3c 9d 27 17 bc
       0.0009766087 0.00021925922 0.011615317 -0.009225753
0001c0 e7 04 7f bc 77 34 24 3c 68 87 0e bc 23 f0 65 3c
       -0.015565134 0.010022274 -0.008699276 0.014034304
0001d0 7a e3 bc bb 70 f2 6b bb b2 55 bc 3b 8f b3 91 3b
       -0.005764422 -0.0036002658 0.0057475204 0.004446454
0001e0 98 88 92 bb 12 2e 13 bb c3 03 a1 b9 30 75 7f 3b
       -0.0044718497 -0.002245788 -0.00030711116 0.0038979761
0001f0 b3 57 ca bb d0 8f 09 bc 9e e6 89 bb ed c3 3f bb
       -0.0061750053 -0.008396104 -0.0042084 -0.0029261068

network_body._body_endoder.seq_layers.0.bias f4 [128]
000000 00 00 00 00 00 00 00 00 00 00 00 00 00 00 00 00
       0.0 0.0 0.0 0.0
000010 00 00 00 00 00 00 00 00 00 00 00 00 00 00 00 00
       0.0 0.0 0.0 0.0
000020 00 00 00 00 00 00 00 00 00 00 00 00 00 00 00 00
       0.0 0.0 0.0 0.0
000030 00 00 00 00 00 00 00 00 00 00 00 00 00 00 00 00
       0.0 0.0 0.0 0.0
000040 00 00 00 00 00 00 00 00 00 00 00 00 00 00 00 00
       0.0 0.0 0.0 0.0
000050 00 00 00 00 00 00 00 00 00 00 00 00 00 00 00 00
       0.0 0.0 0.0 0.0
000060 00 00 00 00 00 00 00 00 00 00 00 00 00 00 00 00
       0.0 0.0 0.0 0.0
000070 00 00 00 00 00 00 00 00 00 00 00 00 00 00 00 00
       0.0 0.0 0.0 0.0
000080 00 00 00 00 00 00 00 00 00 00 00 00 00 00 00 00
       0.0 0.0 0.0 0.0
000090 00 00 00 00 00 00 00 00 00 00 00 00 00 00 00 00
       0.0 0.0 0.0 0.0
0000a0 00 00 00 00 00 00 00 00 00 00 00 00 00 00 00 00
       0.0 0.0 0.0 0.0
0000b0 00 00 00 00 00 00 00 00 00 00 00 00 00 00 00 00
       0.0 0.0 0.0 0.0
0000c0 00 00 00 00 00 00 00 00 00 00 00 00 00 00 00 00
       0.0 0.0 0.0 0.0
0000d0 00 00 00 00 00 00 00 00 00 00 00 00 00 00 00 00
       0.0 0.0 0.0 0.0
0000e0 00 00 00 00 00 00 00 00 00 00 00 00 00 00 00 00
       0.0 0.0 0.0 0.0
0000f0 00 00 00 00 00 00 00 00 00 00 00 00 00 00 00 00
       0.0 0.0 0.0 0.0
000100 00 00 00 00 00 00 00 00 00 00 00 00 00 00 00 00
       0.0 0.0 0.0 0.0
000110 00 00 00 00 00 00 00 00 00 00 00 00 00 00 00 00
       0.0 0.0 0.0 0.0
000120 00 00 00 00 00 00 00 00 00 00 00 00 00 00 00 00
       0.0 0.0 0.0 0.0
000130 00 00 00 00 00 00 00 00 00 00 00 00 00 00 00 00
       0.0 0.0 0.0 0.0
000140 00 00 00 00 00 00 00 00 00 00 00 00 00 00 00 00
       0.0 0.0 0.0 0.0
000150 00 00 00 00 00 00 00 00 00 00 00 00 00 00 00 00
       0.0 0.0 0.0 0.0
000160 00 00 00 00 00 00 00 00 00 00 00 00 00 00 00 00
       0.0 0.0 0.0 0.0
000170 00 00 00 00 00 00 00 00 00 00 00 00 00 00 00 00
       0.0 0.0 0.0 0.0
000180 00 00 00 00 00 00 00 00 00 00 00 00 00 00 00 00
       0.0 0.0 0.0 0.0
000190 00 00 00 00 00 00 00 00 00 00 00 00 00 00 00 00
       0.0 0.0 0.0 0.0
0001a0 00 00 00 00 00 00 00 00 00 00 00 00 00 00 00 00
       0.0 0.0 0.0 0.0
0001b0 00 00 00 00 00 00 00 00 00 00 00 00 00 00 00 00
       0.0 0.0 0.0 0.0
0001c0 00 00 00 00 00 00 00 00 00 00 00 00 00 00 00 00
       0.0 0.0 0.0 0.0
0001d0 00 00 00 00 00 00 00 00 00 00 00 00 00 00 00 00
       0.0 0.0 0.0 0.0
0001e0 00 00 00 00 00 00 00 00 00 00 00 00 00 00 00 00
       0.0 0.0 0.0 0.0
0001f0 00 00 00 00 00 00 00 00 00 00 00 00 00 00 00 00
       0.0 0.0 0.0 0.0

network_body._body_endoder.seq_layers.0.weight f4 [128, 13]
000000 b8 9c c2 bc 34 39 6c be 6c a6 a9 be cc 0c 86 bd
       -0.02375637 -0.23068696 -0.33134782 -0.065454096
000010 f0 90 5b bd c2 d8 9c be cb c1 3d 3e b0 b4 a9 3e
       -0.05360502 -0.30634123 0.18530957 0.33145666
000020 6b b4 0f 3e c4 00 3e be 9b bc 99 be 61 bd 3d 3e
       0.14033668 -0.1855498 -0.30026707 0.18529274
000030 f6 6f 86 be d8 c2 51 3e 6b ab d1 3d 44 ee de 3e
       -0.26257294 0.20484483 0.102377735 0.43541157
000040 2c 93 f8 be a8 32 d7 3d d4 79 9a 3d 9f 3a 9d be
       -0.48549783 0.10507709 0.07542768 -0.30708787
000050 30 5f b6 bd f2 17 5c 3d 60 31 5d 3d 66 f8 17 3e
       -0.08904874 0.053733774 0.054002166 0.1484085
000060 47 72 65 3e 06 7e 28 be 7d 18 b4 3d 59 b4 93 3c
       0.22406875 -0.16454324 0.08793733 0.018030332
000070 45 c0 2b bf e1 a4 90 3e fe 35 aa bc 9c 5c 19 bf
       -0.67090255 0.28250793 -0.020777699 -0.59906936
000080 73 6d 01 3f 5c de d3 be 3c da 19 be 99 dd 1b be
       0.5055763 -0.41380584 -0.15024656 -0.15221252
000090 70 b8 8f be 04 ec 99 be a5 71 e3 3e 40 11 83 bd
       -0.28070402 -0.30062878 0.4442264 -0.063997746
0000a0 34 54 18 be 07 ff ea 3e 81 43 a3 be 8e ab d8 be
       -0.14875871 0.45897695 -0.3188744 -0.42318386
0000b0 7c 99 96 3d 1d 86 53 3d b3 d0 eb bd 04 99 93 be
       0.073534936 0.051641572 -0.115144156 -0.2882768
0000c0 42 28 66 3c 37 50 11 be 20 19 41 be b3 f0 f3 bb
       0.014047684 -0.14190756 -0.1885724 -0.007444465
0000d0 dc 27 a5 3c 5f 58 a2 3e c5 9e c7 3d 49 8a 4c be
       0.020160608 0.31708047 0.0974708 -0.19974627
0000e0 aa de f1 3d 70 20 06 3e 1b ea 4a be c8 ba d2 bc
       0.11810048 0.13098311 -0.19815867 -0.02572383
0000f0 de f1 38 bd eb c5 42 3e e0 96 5e 3e f2 c8 ed 3d
       -0.045152538 0.19020812 0.21737242 0.11610593
000100 ce 97 b1 3d 71 64 a9 3e 0c b1 02 bf a2 dc 02 bf
       0.086715326 0.33084443 -0.510514 -0.5111791
000110 0e 94 9d bd ab 48 1e bf 36 93 a1 bd c6 41 ae 3e
       -0.07694255 -0.6182963 -0.078894064 0.34034556
000120 ec fe 8d be a0 af 34 3e 66 05 b9 be 88 5f 8f bd
       -0.27733552 0.1764512 -0.3613693 -0.07000643
000130 4d f3 1c bc 56 c0 19 be fb c8 06 3e 58 ee b9 be
       -0.009579492 -0.15014777 0.13162605 -0.36314654
000140 55 02 9e bd d4 5f 3c bd 32 57 15 3d ef 00 30 3d
       -0.077152885 -0.045989826 0.03646011 0.04296964
000150 cf 05 3e 3c 0a 92 d8 3d 24 d7 95 be 0b df 0a be
       0.011598065 0.1057473 -0.29265702 -0.13561647
000160 61 6f 33 be e0 c3 8e be d6 04 d8 3d c3 a6 e8 3e
       -0.17522956 -0.27883816 0.105477974 0.4543973
000170 00 7a 1b bf db 9b 35 be 46 77 0b 3e 50 3e 91 be
       -0.6073303 -0.17735235 0.13619718 -0.28367853
000180 0a fc 42 3f 7c 8d 64 be 6b b3 18 bf d1 e1 6a be
       0.7616583 -0.22319597 -0.5964877 -0.22937705
000190 39 21 64 be 55 6f 13 3e 48 3d ea be ae f7 08 be
       -0.22278298 0.14397939 -0.4574988 -0.13375732
0001a0 4b c4 a6 bd 02 05 15 bf 61 99 32 3d 80 e2 ac 3d
       -0.08142909 -0.58210766 0.043603305 0.08441639
0001b0 05 3d e6 bc 7d 2b 90 be 1e d8 3c 3e bd 0e 10 3f
       -0.028105268 -0.2815818 0.18441817 0.5627249
0001c0 db 27 9a be b1 15 03 bf 01 15 8a bd 55 40 85 3e
       -0.30108532 -0.51204973 -0.067422874 0.26025644
0001d0 e7 c6 7d 3e 9c dd 4b 3d 41 be d0 3e ee 9d ad 3e
       0.24782906 0.04977189 0.40770152 0.33909553
0001e0 55 9c 83 3e 88 17 c4 be a7 e6 07 be 9e 48 d3 3d
       0.2570521 -0.38299203 -0.1327158 0.10316585
0001f0 5e f2 89 be 06 c3 b4 be bc 90 12 3f 56 a5 59 3d
       -0.26942724 -0.3530504 0.572521 0.053136192
000200 5c ef 72 be ae 65 0a 3c f0 02 0f 3e b3 8a 14 3d
       -0.23724121 0.008447094 0.13965964 0.036265086
000210 e0 a4 20 be 24 e1 2f 3f ef 2d 55 be ae ce 02 bf
       -0.15687895 0.6870291 -0.20818304 -0.5109662
000220 5f 96 f6 3d 0a e1 a7 be a2 6f a7 3e c5 39 86 be
       0.120404 -0.3278888 0.32702357 -0.2621595
000230 45 79 3c bd 7c f8 dd be 45 6e ae 3e 35 40 c4 3d
       -0.04601409 -0.4335364 0.34068504 0.09582559
000240 5d af 25 3e d4 e4 40 3e 76 f5 82 bd 85 1a 8d be
       0.16180177 0.18837291 -0.06394474 -0.27559295
000250 b8 ae fd 3b cf 6d a8 bc ed a4 aa 3e 81 a5 2b 3e
       0.0077417754 -0.020560173 0.33328953 0.16762353
000260 f2 cf b2 bb ae 36 33 3e 53 f5 5f 3e 2b 7e 0e bd
       -0.005456918 0.17501327 0.21870928 -0.034788292
000270 d9 04 c2 3e 0a cd d5 3e d2 32 9e 3e ba 68 f0 be
       0.37894323 0.41757995 0.30898148 -0.469549
000280 4e 76 13 3d 63 00 2d 3d 4e 64 29 be 48 50 4e bd
       0.036001496 0.042236697 -0.1654217 -0.05036953
000290 ac 19 02 bf 7f e1 9c 3d 3f 2e e8 be 7a 16 8d 3d
       -0.5082042 0.076601975 -0.45347783 0.06889053
0002a0 28 00 7b be d2 19 a2 3c 0e 41 40 bd ad 50 11 3b
       -0.24511778 0.019787703 -0.04693704 0.002217333
0002b0 22 4b 75 3e 5c cf 4b bd fe a4 cd 3e 39 33 ba 3a
       0.23954442 -0.0497583 0.40164942 0.0014205939
0002c0 38 8e 9c 3e de 71 5b bf 04 00 80 be 2f 2b 29 be
       0.30577254 -0.8572062 -0.25000012 -0.1652038
0002d0 09 75 ef 3e 63 f7 37 be 1e 0e a2 3d a6 c7 c2 be
       0.46768978 -0.17965464 0.07912849 -0.38042945
0002e0 e2 22 2d 3e 5b 95 73 be c6 57 a6 3e e6 3e 43 bf
       0.16907838 -0.23787443 0.3248884 -0.7626785
0002f0 c4 5c 79 3c 6b 92 f8 3e af 23 ef 3e ae 15 c1 3d
       0.015219871 0.48549208 0.46706912 0.09427963
000300 73 dd 86 3e 11 b6 14 be 9c ce 12 3e 3b 39 24 bf
       0.26340827 -0.14522578 0.14336628 -0.64149827
000310 f4 ea 0b 3f d1 af a2 bd 10 43 ab bd f9 1f db 3b
       0.54655385 -0.079436906 -0.083624005 0.006687161
000320 e3 41 ba be 8e d8 fc bd c6 f4 0a be 37 63 0a bf
       -0.36378393 -0.12345992 -0.13569936 -0.5405764
000330 e9 c7 58 3e 2f 21 82 bd a0 5c de bb bc d9 80 bd
       0.2117001 -0.063539855 -0.006785944 -0.062915295
000340 0b c9 72 3e 72 35 61 be 0e c0 5c be 17 65 60 be
       0.23709504 -0.21993044 -0.21557638 -0.21913563
000350 d9 35 a9 be 86 49 15 be b4 4a dd be 1d 82 16 3f
       -0.33048895 -0.14578828 -0.43221056 0.5879229
000360 b0 34 d8 be 5e ca 81 bc 6e f9 40 be 43 ff f8 3e
       -0.42227697 -0.015843567 -0.1884515 0.4863225
000370 73 34 b0 3e 15 a3 56 be 7a 43 05 be e2 6e 14 be
       0.34415016 -0.20960648 -0.13014022 -0.14495423
000380 e4 c9 9a be c8 73 e4 3d 33 c3 8a 3e 91 0b c5 3e
       -0.30232155 0.11154896 0.2710205 0.38485387
000390 a8 25 a3 be 07 01 2e bd f9 b6 cb 3e 6f f3 8f 3d
       -0.31864667 -0.04248145 0.39788035 0.07028853
0003a0 4f 6e e5 3d 8d 87 bb 3e 2b cb 06 be 31 d0 c7 3e
       0.1120268 0.36626855 -0.1316344 0.39026025
0003b0 e9 d3 d7 3e 0a b7 31 bd f9 cb 9e bd 26 8a 17 3e
       0.42153862 -0.04338745 -0.077537484 0.14798793
0003c0 de b5 99 bd e9 80 87 3e 35 18 0b 3e 20 eb f5 3e
       -0.075053915 0.26465538 0.13583453 0.4803095
0003d0 b5 76 e2 3d 9b a6 81 be ea a2 1f bc fd 0b 50 bd
       0.11057798 -0.25322422 -0.009743432 -0.050792683
0003e0 5f 91 80 3d b6 8d df be 20 cb 6c be 1b 01 ac be
       0.06277727 -0.43662804 -0.23124361 -0.33594593
0003f0 d8 16 0a 3f 7e aa 0b be 2a b7 c5 3e 32 97 98 be
       0.53941107 -0.13639256 0.38616306 -0.29802853

network_body._body_endoder.seq_layers.2.bias f4 [128]
000000 00 00 00 00 00 00 00 00 00 00 00 00 00 00 00 00
       0.0 0.0 0.0 0.0
000010 00 00 00 00 00 00 00 00 00 00 00 00 00 00 00 00
       0.0 0.0 0.0 0.0
000020 00 00 00 00 00 00 00 00 00 00 00 00 00 00 00 00
       0.0 0.0 0.0 0.0
000030 00 00 00 00 00 00 00 00 00 00 00 00 00 00 00 00
       0.0 0.0 0.0 0.0
000040 00 00 00 00 00 00 00 00 00 00 00 00 00 00 00 00
       0.0 0.0 0.0 0.0
000050 00 00 00 00 00 00 00 00 00 00 00 00 00 00 00 00
       0.0 0.0 0.0 0.0
000060 00 00 00 00 00 00 00 00 00 00 00 00 00 00 00 00
       0.0 0.0 0.0 0.0
000070 00 00 00 00 00 00 00 00 00 00 00 00 00 00 00 00
       0.0 0.0 0.0 0.0
000080 00 00 00 00 00 00 00 00 00 00 00 00 00 00 00 00
       0.0 0.0 0.0 0.0
000090 00 00 00 00 00 00 00 00 00 00 00 00 00 00 00 00
       0.0 0.0 0.0 0.0
0000a0 00 00 00 00 00 00 00 00 00 00 00 00 00 00 00 00
       0.0 0.0 0.0 0.0
0000b0 00 00 00 00 00 00 00 00 00 00 00 00 00 00 00 00
       0.0 0.0 0.0 0.0
0000c0 00 00 00 00 00 00 00 00 00 00 00 00 00 00 00 00
       0.0 0.0 0.0 0.0
0000d0 00 00 00 00 00 00 00 00 00 00 00 00 00 00 00 00
       0.0 0.0 0.0 0.0
0000e0 00 00 00 00 00 00 00 00 00 00 00 00 00 00 00 00
       0.0 0.0 0.0 0.0
0000f0 00 00 00 00 00 00 00 00 00 00 00 00 00 00 00 00
       0.0 0.0 0.0 0.0
000100 00 00 00 00 00 00 00 00 00 00 00 00 00 00 00 00
       0.0 0.0 0.0 0.0
000110 00 00 00 00 00 00 00 00 00 00 00 00 00 00 00 00
       0.0 0.0 0.0 0.0
000120 00 00 00 00 00 00 00 00 00 00 00 00 00 00 00 00
       0.0 0.0 0.0 0.0
000130 00 00 00 00 00 00 00 00 00 00 00 00 00 00 00 00
       0.0 0.0 0.0 0.0
000140 00 00 00 00 00 00 00 00 00 00 00 00 00 00 00 00
       0.0 0.0 0.0 0.0
000150 00 00 00 00 00 00 00 00 00 00 00 00 00 00 00 00
       0.0 0.0 0.0 0.0
000160 00 00 00 00 00 00 00 00 00 00 00 00 00 00 00 00
       0.0 0.0 0.0 0.0
000170 00 00 00 00 00 00 00 00 00 00 00 00 00 00 00 00
       0.0 0.0 0.0 0.0
000180 00 00 00 00 00 00 00 00 00 00 00 00 00 00 00 00
       0.0 0.0 0.0 0.0
000190 00 00 00 00 00 00 00 00 00 00 00 00 00 00 00 00
       0.0 0.0 0.0 0.0
0001a0 00 00 00 00 00 00 00 00 00 00 00 00 00 00 00 00
       0.0 0.0 0.0 0.0
0001b0 00 00 00 00 00 00 00 00 00 00 00 00 00 00 00 00
       0.0 0.0 0.0 0.0
0001c0 00 00 00 00 00 00 00 00 00 00 00 00 00 00 00 00
       0.0 0.0 0.0 0.0
0001d0 00 00 00 00 00 00 00 00 00 00 00 00 00 00 00 00
       0.0 0.0 0.0 0.0
0001e0 00 00 00 00 00 00 00 00 00 00 00 00 00 00 00 00
       0.0 0.0 0.0 0.0
0001f0 00 00 00 00 00 00 00 00 00 00 00 00 00 00 00 00
       0.0 0.0 0.0 0.0

network_body._body_endoder.seq_layers.2.weight f4 [128, 128]
000000 1e a7 e9 bc f9 67 85 3b 8c 02 0a be 4e e5 d5 3c
       -0.02852207 0.0040712324 -0.13477534 0.026110318
000010 5d 89 1d 3e 42 e6 15 be 04 fe 43 be 17 da 1d bc
       0.15384431 -0.14638618 -0.19139868 -0.009634516
000020 5e 0e 4b 3e 51 7e a9 bd 74 63 af 3d 89 1c 6a 3d
       0.198297 -0.08276046 0.08563891 0.05715612
000030 11 91 e2 3d 36 c5 6f be e4 c2 50 3d 4d a0 68 3d
       0.110628255 -0.23415074 0.050967112 0.0567935
000040 65 19 38 bc 15 76 a1 bd b0 82 18 3d 33 0f 7a bd
       -0.011236523 -0.078838505 0.03723401 -0.06104965
000050 38 a3 0c bc cb e6 f4 bc 67 7b fe 3c 49 34 82 bd
       -0.008583836 -0.029895207 0.031064702 -0.06357629
000060 fa d4 c2 bc e2 c6 23 bd ef 97 08 3d f0 36 9e bd
       -0.023783196 -0.03998459 0.03334802 -0.07725322
000070 4e d3 27 be b6 5c c0 bd df 05 61 bd 67 e6 7f be
       -0.163892 -0.09392683 -0.05493724 -0.24990235
000080 06 f8 16 bd fc e1 44 3c 88 19 2a be a3 e4 04 be
       -0.036857627 0.0120167695 -0.16611302 -0.12977843
000090 73 4e 8d 3d 36 1d c9 3b b5 4b 7f bd 1e ef 4c bd
       0.068997286 0.0061375154 -0.06232806 -0.050032727
0000a0 c6 57 07 3c 8c cb f1 3d 97 c7 a5 bd 37 6b 0c be
       0.008260673 0.118064016 -0.08094709 -0.13712774
0000b0 dd 50 8f 3d a1 79 54 bc 77 c2 95 bc 1d e2 2e be
       0.06997845 -0.012968452 -0.018281205 -0.17078443
0000c0 2a 5b 2f bd 9d f4 2b bd 35 fd 67 3d 3d e5 b3 bd
       -0.04281155 -0.04198133 0.05663796 -0.08783958
0000d0 93 46 51 be 0c 1a dd 3c c2 f9 59 bc c8 93 86 3d
       -0.20437078 0.02698996 -0.013304176 0.06571156
0000e0 a4 dd 82 3b 98 d3 6a 3d 3d 07 98 bd d1 32 09 3d
       0.003993707 0.057330698 -0.074232556 0.033495728
0000f0 a8 c9 01 3d 24 9d e7 bc 9a 05 47 be 33 76 31 be
       0.031686455 -0.028273173 -0.1943573 -0.17330246
000100 6a 82 77 3d 51 90 01 3e 39 f7 66 3b e7 bb cb 3d
       0.060427107 0.12652709 0.003524257 0.09947949
000110 b8 6a 81 bd f8 87 18 3e 7a 04 19 3e 71 fc 1f be
       -0.06319183 0.14895618 0.14943114 -0.15623643
000120 1b 7a c0 bd b4 22 39 3d af cb ca bd 3f 6d b3 bd
       -0.0939829 0.04519911 -0.09902131 -0.087610714
000130 6c 16 c2 3d e7 24 d3 3d 6e 6b dc 3c 9c 59 dc bd
       0.09476933 0.10309773 0.026906695 -0.10759279
000140 ff 61 74 3d 98 a5 24 bd 09 5a b0 3d 63 6b 2e 3e
       0.05966377 -0.040196985 0.08610923 0.17033152
000150 1d 4b 65 b8 d1 9e ae 3c 8c e1 84 3b 82 8c 7d 3c
       -5.466781e-05 0.021315964 0.0040552076 0.015475394
000160 99 ff 5e 3e ed 39 6e 39 6a 5d fd bd 67 a9 b4 bc
       0.2177719 0.00022719028 -0.12371333 -0.022053434
000170 1e a6 9e bd 55 bf 1b 3e d6 da d5 bc 8b ac c7 3d
       -0.07746528 0.15209706 -0.026105326 0.09749707
000180 00 a2 21 bc 13 e6 3a 3c 1a d1 f8 bb 75 56 42 bb
       -0.009865284 0.011407393 -0.007593286 -0.0029653583
000190 b1 46 af 3b 47 c4 fb 3d 4c 04 97 3d 62 9b 36 3d
       0.0053490032 0.12293296 0.073738664 0.04458178
0001a0 0b b2 84 3d ac 1a 8d 3c ee 7d 55 bc 6a 40 13 be
       0.064792715 0.017224632 -0.013030512 -0.14380041
0001b0 20 02 12 be dd a1 77 3d df 3c 1e bd 54 e9 a6 3c
       -0.14258623 0.0604571 -0.03863227 0.020374931
0001c0 2a 33 dd 3c 21 45 73 3e 93 8a 2d 3e 35 ea 91 3d
       0.027001936 0.2375684 0.16947393 0.071247496
0001d0 bd c7 48 bd d2 6c 27 bd 98 e6 9f 3d d5 94 ee bc
       -0.04901861 -0.040875264 0.07807654 -0.029123703
0001e0 df 2a ad ba 63 f4 a0 3c 29 66 b0 bc 7b b3 9f 3c
       -0.0013211629 0.019647783 -0.021533089 0.019494763
0001f0 3d 66 ce 3d 17 3a 1c 3d 8c 52 2b bd 6c 63 d7 3d
       0.10078094 0.038141336 -0.04182677 0.1051701
000200 75 fd c4 3d 71 c8 37 bd 19 c4 64 ba 9f 9b 0a 3e
       0.096186556 -0.04486889 -0.00087267306 0.13535927
000210 f8 e5 f1 3c b1 df 92 bd 9e c0 b0 ba 9a fe 1f be
       0.029528603 -0.07171572 -0.0013485139 -0.15624467
000220 98 4a c4 bd d4 b8 19 bc ac 42 5d 3e de 6a cb bb
       -0.0958454 -0.009382445 0.21607465 -0.006207808
000230 5c 87 5d 3d a2 1c e0 bc 3b aa b7 3d 77 9c 86 bd
       0.054084167 -0.027357403 0.08968016 -0.06572812
000240 af 51 d0 3b 43 36 7a bd 38 4d d3 3d 39 a7 80 bc
       0.0063573937 -0.061086904 0.10317463 -0.015704738
000250 d1 88 22 3c 90 ab 06 3d 2c 1a ca 3c 01 f4 12 3d
       0.009920315 0.03287846 0.024670683 0.03587723
000260 95 cd 81 bc 53 5e d4 bd da 83 b5 3a 39 fa 55 3c
       -0.0158451 -0.103695534 0.0013848499 0.013060146
000270 96 3f d1 bd 64 88 d7 bd e3 a1 b1 bc 07 77 2f 3e
       -0.10217206 -0.10524061 -0.021683639 0.17135249
000280 dc 53 8c 3c c9 e4 c4 bd ae 90 6e 3d dc 2c 20 be
       0.017129831 -0.0961395 0.058243446 -0.15642112
000290 38 b4 14 3c d9 e8 b2 3d 56 e0 87 3d 7b df 0e 3e
       0.009076171 0.087358184 0.066345856 0.13952439
0002a0 80 b0 4c bd da 0f d2 bd de 35 f6 bd f6 85 94 bd
       -0.04997301 -0.1025693 -0.12021993 -0.072521135
0002b0 51 97 37 3d b5 d4 3f bc 7a 18 af 3d 69 65 0c be
       0.04482204 -0.011708428 0.085495904 -0.1371056
0002c0 46 34 8c 3d f7 09 03 bd fb c4 4b bd 66 d9 2e be
       0.06845908 -0.031991925 -0.049748402 -0.17075118
0002d0 d9 8c 17 bc 6d bc 8b 3d 73 e4 93 3d b0 fb 37 be
       -0.009249889 0.06823049 0.072213076 -0.17967105
0002e0 5a a5 56 3d 8a 7b a8 3d 9e 88 62 bd 60 9d 27 3c
       0.052403785 0.08226688 -0.05530607 0.010230392
0002f0 46 21 21 3d 40 59 c4 3d 11 58 ca 3d f6 80 41 3d
       0.039338373 0.095873356 0.098800786 0.047242127
000300 c9 b2 14 3d 9e e1 ae 3d 4b b5 d0 3d 7d 45 93 3d
       0.036303315 0.08539127 0.10190829 0.07190988
000310 74 65 f9 bd 3a 16 8e bd ae 7e b3 bd 9d af f6 3d
       -0.12177554 -0.06937833 -0.087643966 0.12045214
000320 df ad 22 3d a5 fb 5d bd d9 1a 17 3d 3b 3e ce 3c
       0.039716598 -0.054195065 0.03689084 0.025176158
000330 ca 24 e6 3a 57 be 02 be b7 a2 0f be 7a f6 be bd
       0.0017558571 -0.12767921 -0.14026915 -0.093243554
000340 aa 63 81 3d 01 16 1c bc 1e 55 db bd 83 a2 ad bd
       0.063178375 -0.0095267305 -0.10709594 -0.08478262
000350 c5 0a 3d 3c 1f 34 c6 bc c7 f7 46 bd 14 75 0b 3d
       0.011538212 -0.024194775 -0.048576143 0.0340472
000360 4d c1 67 3c 8c 2b 08 be c7 7e 7e 3c f7 57 60 3d
       0.014145208 -0.13297862 0.015533156 0.05477139
000370 85 34 dd bd 5f dc 25 bd d4 ab 3f bd 41 fa dc 3a
       -0.10801033 -0.040493365 -0.046794727 0.001685925
000380 82 e3 1e be 74 b2 94 3d f5 ee 17 bd 7b cb f2 3c
       -0.15516475 0.072606 -0.03709312 0.029638043
000390 98 6f 93 bd af 10 c6 3d 72 9f cc 3c 7a 24 9d 3b
       -0.07199019 0.09671151 0.024978373 0.004795608
0003a0 10 95 31 3c d9 05 66 3c a8 86 e7 3d 74 28 95 bb
       0.010838762 0.01403948 0.113049805 -0.0045519415
0003b0 f3 16 3b be e5 91 40 3c a2 80 98 bd 73 3b 9c 3d
       -0.18270473 0.011753534 -0.0744641 0.076285265
0003c0 7a 0d 07 3e fd 77 38 3d 3f a6 6d bd bd 6c 25 3d
       0.13188735 0.045036305 -0.058019873 0.040386904
0003d0 8e 9c d0 3c 63 cf 31 3c 43 39 d4 3d de 21 c3 3d
       0.025465276 0.0108526675 0.10362484 0.09527944
0003e0 9b 8a a5 bc 82 a8 af 3c 10 fa 29 be 1b 9a 3c bc
       -0.020207694 0.021442655 -0.16599298 -0.011511351
0003f0 42 b6 99 bd 5c 78 a1 3d 88 07 4e bd a2 41 24 be
       -0.07505466 0.07884285 -0.05030015 -0.16040662
