results/mimicagentfinale/RaceCar/RaceCar-664364.onnx (onnx, 77961 bytes, 8 tensors)

action_model._continuous_distribution.log_sigma f4 [1, 2]
-0.47574756 -0.4748811
00000000: 2f95 f3be 9e23 f3be

action_model._continuous_distribution.mu.bias f4 [2]
0.03678982 -0.03574954
00000000: ecb0 163d 1c6e 12bd

action_model._continuous_distribution.mu.weight f4 [2, 128]
-0.008600636 0.0051563433 -0.024500592 -0.020490885 0.013996544 0.009510494 -0.0072180885 -0.0044079996
-0.018116413 -0.030247493 0.0060575004 0.0092874 0.004512565 -0.021134308 0.0054348293 -0.0044196234
0.0029349779 -0.01578818 0.017873269 -0.010798748 -0.019877164 -0.013224734 0.049776234 -0.021173678
-0.0023820293 -0.008233229 -0.016018398 -0.000976478 0.0013197487 -0.018135095 0.033068642 0.0025122738
-0.0030482013 -0.019374322 0.007020578 0.02281273 0.0023528654 -0.0055305813 -0.02349826 -0.020050474
-0.015854811 -0.0037915772 -0.017569331 -0.02322029 -0.012675587 -0.018721126 -0.010632826 -0.0021913943
0.00011049461 -0.07909326 -0.0040416997 -0.007293459 -0.0045944164 0.0005987978 -0.025671307 0.015422057
-0.0014537999 0.017617658 0.00076186314 -0.03207558 -0.010962711 -0.008276628 0.022513142 -0.019643968
0.0041186814 -0.03701826 -0.020005275 -0.00070704776 -0.018958502 0.013480619 0.0009299849 -0.031375103
-0.03188736 0.0030252114 -0.029561767 -0.0004841539 -0.047808636 0.0027844976 -0.009598533 0.039482694
0.005680445 -0.005947718 -0.0017318726 0.0035934658 0.0018095296 -0.002962257 -0.016548103 -0.0054163793
-0.016169341 -0.003117074 0.0407558 0.012227089 0.0069863717 -0.040065106 -0.0031296248 -0.010515412
0.0059168837 -0.0004555393 -0.058865517 -0.020740883 -0.016717983 -0.008211725 -0.00020609522 0.0024745457
-0.019942693 0.020734247 0.007334811 0.0024682083 -0.005551199 -0.003565586 -0.004480598 0.016360655
-0.006707196 0.001567692 -0.013873936 0.013956451 0.01390675 0.0086475955 0.035306986 0.014567045
-0.021240762 -0.0062653753 -0.0047601713 -0.02965022 -0.009783426 0.00085428404 0.0015165157 0.021917406
0.014996588 -0.002307306 0.0048175277 0.01140882 -0.011889841 -0.02805367 -0.011025104 0.0030305095
0.012098716 0.008404645 0.0058325287 0.009353857 0.002087162 -0.0018175095 0.007132042 0.034380507
-0.0083045205 0.008963771 0.032809693 -0.0024061638 0.024756027 0.027545923 0.005916758 0.006007766
0.012105164 -0.0024407352 0.0058855624 0.0010831926 0.00025620608 0.0017992158 0.010834844 0.0057179774
0.0027072448 0.002586192 0.0041788183 -0.00079684687 0.025373332 0.0041043237 0.0052300193 0.004981007
-0.0064498875 -0.00066334056 0.021594249 -0.00980079 0.012473742 -0.00471908 0.0058901953 0.0013378902
0.0006906338 0.011703911 -0.0051266346 0.0110764485 -0.011437845 0.0031821784 -0.0015094557 -0.023497915
-0.0041461075 0.008359387 -0.0011607639 -0.011670432 0.00616062 -0.0068708505 -0.0025976987 0.0004318364
-0.013554305 -0.015285008 0.009519756 -0.0007489089 0.0075061484 -0.008332091 -0.00027740802 0.0041817054
0.012787591 0.02132287 0.00075241015 0.0027020497 0.00020779653 0.0016854667 0.009734562 0.003589133
0.030221434 0.006292455 -0.002495928 -0.011884735 -0.0049697882 -0.026031889 -0.022058103 0.0024306953
0.0024143984 0.0019672557 0.0034119114 0.004731115 -0.029336343 -0.009694438 0.0056672716 0.046961904
-0.013191217 -0.012225976 -0.0032172678 -0.029097991 0.028380366 0.011905709 0.0019094994 0.008831448
0.014949453 0.008219793 -0.0011064274 -6.996104e-05 -0.011298335 0.02288043 0.0012692633 -0.030253818
0.0024401166 -0.018823026 0.02601281 0.0148039535 0.0008705371 0.0062163407 -0.01512161 -0.01664448
-0.0006644766 -0.0011839129 0.021519985 0.012764318 -0.00971739 -0.0050213127 -0.005553215 0.0031773755
00000000: afe9 0cbc 8bf6 a83b 77b5 c8bc 80dc a7bc
00000010: c351 653c e7d1 1b3c b785 ecbb fb70 90bb
00000020: df68 94bc 97c9 f7bc ff7d c63b 2e2a 183c
00000030: 24de 933b db21 adbc a716 b23b 7dd2 90bb
00000040: c258 403b 3756 81bc f66a 923c 3bed 30bc
00000050: 6fd5 a2bc 8eac 58bc 2ae2 4b3d 6c74 adbc
00000060: d21b 1cbb aae4 06bc 0439 83bc 54fa 7fba
00000070: 6bfb ac3a 0d90 94bc fc72 073d f6a4 243b
00000080: 55c4 47bb e6b6 9ebc e00c e63b c3e1 ba3c
00000090: 8832 1a3b e139 b5bb 6c7f c0bc e440 a4bc
000000a0: f3e1 81bc 1c7c 78bb 8fed 8fbc 7a38 bebc
000000b0: 44ad 4fbc 0c5d 99bc 4e35 2ebc 7f9d 0fbb
000000c0: 58b9 e738 a6fb a1bd 3c70 84bb f8fd eebb
000000d0: c28c 96bb a4f8 1c3a a24c d2bc ccac 7c3c
000000e0: 6e8d beba e852 903c c5b7 473a af61 03bd
000000f0: f19c 33bc b29a 07bc 7b6d b83c 63ec a0bc
00000100: 01f6 863b 76a0 17bd 1ae2 a3bc 2c59 39ba
00000110: dc4e 9bbc d0dd 5c3c 3bca 733a 2e83 00bd
00000120: 529c 02bd a042 463b 852b f2bc 09d6 fdb9
00000130: fdd2 43bd 1e7c 363b 2a43 1dbc 9bb8 213d
00000140: 0723 ba3b 13e5 c2bb 0000 e3ba 5a80 6b3b
00000150: bd2d ed3a 6d22 42bb e38f 87bc e27b b1bb
00000160: 9175 84bc d347 4cbb 8eef 263d 2154 483c
00000170: efed e43b 4f1b 24bd 641a 4dbb d648 2cbc
00000180: 6be2 c13b 73d5 eeb9 f81c 71bd c9e8 a9bc
00000190: 27f4 88bc 798a 06bc 441b 58b9 fd2b 223b
000001a0: dc5e a3bc deda a93c db58 f03b aac1 213b
000001b0: d5e6 b5bb 9bac 69bb fbd1 92bb c806 863c
000001c0: 0ac8 dbbb 047b cd3a 814f 63bc 99a9 643c
000001d0: 23d9 633c a5ae 0d3c 0f9e 103d 9daa 6e3c
000001e0: 1b01 aebc c74d cdbb 36fb 9bbb 05e5 f2bc
000001f0: aa4a 20bc 08f2 5f3a d3c5 c63a 228c b33c
00000200: 40b4 753c 2c36 17bb 5adc 9d3b 0fec 3a3c
00000210: 9ccd 42bc cfd0 e5bc a3a2 34bc 839b 463b
00000220: b139 463c a3b3 093c cc1e bf3b eb40 193c
00000230: c5c8 083b 8039 eeba e8b3 e93b 93d2 0c3d
00000240: af0f 08bc c8dc 123c 7563 063d bbb0 1dbb
00000250: 27cd ca3c fda7 e13c 5de1 c13b cbdc c43b
00000260: bd54 463c bef4 1fbb addb c03b eaf9 8d3a
00000270: 6653 8639 aad3 eb3a a184 313c df5d bb3b
00000280: 086c 313b 1a7d 293b 78ee 883b 7de3 50ba
00000290: bcdb cf3c 907d 863b 9560 ab3b b737 a33b
000002a0: 9459 d3bb 08e4 2dba 6ce6 b03c 7e93 20bc
000002b0: aa5e 4c3c 83a2 9abb 8a02 c13b 255c af3a
000002c0: a60b 353a c3c1 3f3c 54fd a7bb fe79 353c
000002d0: cd65 3bbc 188c 503b eed8 c5ba b37e c0bc
000002e0: 12dc 87bb cff5 083c c624 98ba 5735 3fbc
000002f0: 07df c93b df24 e1bb 273e 2abb 1a68 e239
00000300: e012 5ebc f86d 7abc c0f8 1b3c 6d52 44ba
00000310: 23f6 f53b 5383 08bc 1371 91b9 b006 893b
00000320: 0b83 513c 4dad ae3c 643d 453a df14 313b
00000330: f5e3 5939 e1ea dc3a b67d 1f3c a937 6b3b
00000340: f192 f73c f030 ce3b b992 23bb 31b8 42bc
00000350: 9bd9 a2bb d440 d5bc 32b3 b4bc 4d4c 1f3b
00000360: e23a 1e3b 13ed 003b 609a 5f3b 7807 9b3b
00000370: c552 f0bc 6cd5 1ebc 85b4 b93b 205b 403d
00000380: f91f 58bc 764f 48bc ccd8 52bb e95e eebc
00000390: f17d e83c 2a10 433c 2b48 fa3a c7b1 103c
000003a0: 8dee 743c 50ac 063c 8b05 91ba 0cb8 92b8
000003b0: a71c 39bc bd6f bb3c 695d a63a dbd6 f7bc
000003c0: 5dea 1f3b bf32 9abc d118 d53c 488c 723c
000003d0: c134 643a 72b2 cb3b a1c0 77bc 015a 88bc
000003e0: 4530 2eba 862d 9bba ae4a b03c 6e21 513c
000003f0: b035 1fbc d389 a4bb bef7 b5bb 843b 503b

action_model._discrete_distribution.branches.0.weight f4 [1, 128]
-0.0057101976 0.02317366 0.005812823 -0.004627546 0.008661147 0.01320176 0.011833796 0.0022521566
0.003915123 0.01563817 -0.0055057188 0.00023481277 -0.0095428405 -0.0148475235 0.000610326 -0.009795657
0.014768935 -0.0061056367 0.015993154 0.003072214 0.0064851046 0.0041963067 -0.014867735 -0.007610883
0.007841168 0.01172653 -0.0040778387 0.00912248 -0.008279401 0.011867079 0.0045803008 0.0028083764
0.00936256 -0.0060715145 0.005913156 0.001398211 0.019562805 -0.0073674954 -0.005199513 0.0042806747
0.0062219836 -0.009265563 -0.0003185054 0.02128881 0.0028397867 0.0155474935 0.018079435 -0.0059259525
0.006186354 0.004385237 0.0013004674 -0.016243894 0.0074049914 0.008696435 -0.014787415 0.00981974
-0.011679446 -0.00023120866 -0.0044168765 0.002710277 -0.00725714 0.0050362498 -0.010624546 -0.025949523
-0.0043789777 -0.012428788 -0.01409891 0.002671562 -0.011570395 -0.0035760403 -0.0039691944 -0.007353373
0.003278595 0.0003667902 -0.006878748 0.00919723 0.011100671 -0.006110378 -0.010076281 -0.014296998
0.015054891 -0.0083240075 0.0030641907 -0.01425225 -0.00053069566 0.009996096 -0.0038706192 -0.0019350732
-0.016181108 -0.0021001997 -0.008359944 0.0054919543 0.010365286 0.007843446 0.0040646084 0.009072213
0.0024900672 0.00046339686 -0.015766554 -0.0077480483 -0.0017652138 0.013549951 -0.007917357 0.0036921948
-0.0033127237 -0.009402259 0.007655838 -0.034961466 0.00928685 0.006376588 -0.005347037 -0.0034693107
-0.00615592 0.0051847887 -0.013773446 0.010651889 -0.0060156686 0.013039829 -0.012996392 0.002268847
-0.0001909328 0.0013527339 -0.0065590823 -0.0061875586 0.002499663 0.0010661209 0.0128554255 -0.012324634
00000000: 9c1c bbbb b0d6 bd3c 7e79 be3b aba2 97bb
00000010: 7ce7 0d3c 324c 583c 8ae2 413c eb98 133b
00000020: 6f4a 803b 9f1b 803c 5169 b4bb 1338 7639
00000030: 9359 1cbc 0743 73bc 49fe 1f3a f77d 20bc
00000040: 67f9 713c cb11 c8bb 1304 833c 3357 493b
00000050: 0081 d43b 2c81 893b cd97 73bc b764 f9bb
00000060: 3e78 003c a220 403c 649f 85bb 7476 153c
00000070: 53a6 07bc 236e 423c 5916 963b bd0c 383b
00000080: 6c65 193c 8ef3 c6bb 26c3 c13b 2d44 b73a
00000090: 2d42 a03c 086b f1bb ad60 aabb e744 8c3b
000000a0: c8e1 cb3b 97ce 17bc 12fd a6b9 df65 ae3c
000000b0: b71b 3a3b eaba 7e3c 531b 943c 7e2e c2bb
000000c0: e6b6 ca3b 09b2 8f3b 7274 aa3a ea11 85bc
000000d0: 92a5 f23b 7e7b 0e3c ea46 72bc fae2 203c
000000e0: 265b 3fbc 9a70 72b9 72bb 90bb e79e 313b
000000f0: 4dcd edbb 2007 a53b 9312 2ebc 1894 d4bc
00000100: 877d 8fbb 1da2 4bbc 1dff 66bc 5f15 2f3b
00000110: c191 3dbc 005c 6abb 0410 82bb 90f4 f0bb
00000120: b2dd 563b bf4d c039 1f67 e1bb fbaf 163c
00000130: 97df 353c 9139 c8bb fc16 25bc f53d 6abc
00000140: caa8 763c 6b61 08bc 97d0 483b 4582 69bc
00000150: 621e 0bba aac6 233c 37aa 7dbb 48a2 fdba
00000160: 3e8e 84bc 81a3 09bb 26f8 08bc daf5 b33b
00000170: 29d3 293c cc81 003c 6830 853b 9fa3 143c
00000180: 6530 233b 13f4 f239 dc28 81bc 57e3 fdbb
00000190: bf5e e7ba 9d00 5e3c cdb7 01bc c0f8 713b
000001a0: 481a 59bb ef0b 1abc d3dd fa3b c133 0fbd
000001b0: df27 183c b2f2 d03b 3336 afbb 605d 63bb
000001c0: 9ab7 c9bb 29e5 a93b 05aa 61bc 4385 2e3c
000001d0: 161f c5bb 02a5 553c d2ee 54bc f0b0 143b
000001e0: 2235 48b9 384e b13a 92ed d6bb 01c1 cabb
000001f0: 63d1 233b 15bd 8b3a 909f 523c 43ed 49bc

network_body._body_endoder.seq_layers.0.bias f4 [128]
-0.011112309 0.052123573 -0.039808612 -0.020242311 -0.03932368 1.0319558e-05 0.009446785 0.014718341
-0.026594685 -0.019899175 -0.05958409 0.028912883 -0.030734165 -0.03800583 -0.022802649 0.017378336
0.009715225 0.06958101 -0.032525226 -0.003561942 -0.0024105406 -0.08752928 -0.004525989 -0.04549412
-0.0174238 -0.048950236 -0.026833987 -0.032880783 0.008794095 -0.04985396 0.11952517 0.007715728
0.033174105 0.021207526 -0.030142497 -0.019983662 0.04832053 -0.03475644 0.047111027 0.028618293
-0.035319354 -0.024976108 0.036875114 0.04219859 -0.04045311 0.017963432 0.010891328 -0.00024109028
-0.00063911744 -0.04999738 0.03334468 0.013278099 -0.03892543 0.00934155 -0.020240001 -0.046567164
-0.005105407 -0.04261483 -0.005491769 -0.023723377 -0.057262186 0.008788769 -0.029718531 -0.019657068
-0.017614419 0.017576437 -0.034411572 0.010725634 -0.059144843 -0.0069537447 -0.00036359293 -0.00027588368
-0.005182489 -0.052953564 -0.02199616 -0.004004536 -0.11289005 -0.023335438 -0.016675968 0.015061992
-0.02132449 0.02512841 0.032389935 -0.014584664 -4.8050356e-06 0.036217872 0.04630914 -0.043998063
0.010540821 0.07802374 0.04032277 -0.032959554 -0.021434128 0.008172892 0.025251027 -0.083783604
0.009192758 -0.004831822 -0.0032580981 0.023132207 0.028392332 -0.01731832 -0.024537574 0.001273016
0.03010899 -0.03620277 -0.043705795 -0.012359481 -0.005867014 0.006783337 0.0052901935 -0.050560582
-0.06699619 -0.0057745697 -0.015249857 -0.052790087 -0.048790872 0.023945611 -0.08150823 0.026194427
0.038893513 -0.032549445 -0.04594874 -0.043226145 0.0033951553 0.003759858 0.014945116 -0.017500887
00000000: 6710 36bc 877f 553d 5b0e 23bd 34d3 a5bc
00000010: de11 21bd 2a22 2d37 b0c6 1a3c 3225 713c
00000020: 19dd d9bc 9803 a3bc 720e 74bd b6da ec3c
00000030: 37c6 fbbc 00ac 1bbd 9fcc babc 035d 8e3c
00000040: 9b2c 1f3c 7d80 8e3d 2c39 05bd 786f 69bb
00000050: 29fa 1dbb 8d42 b3bd bf4e 94bb 0b58 3abd
00000060: 5bbc 8ebc 0b80 48bd f3d2 dbbc 00ae 06bd
00000070: 1c15 103c aa33 4cbd 9dc9 f43d 38d4 fc3b
00000080: 92e1 073d 68bb ad3c 66ed f6bc c7b4 a3bc
00000090: c0eb 453d c55c 0ebd 7ef7 403d e970 ea3c
000000a0: 07ab 10bd b29a ccbc 5c0a 173d 6ed8 2c3d
000000b0: 29b2 25bd 0c28 933c 8a71 323c 2ecd 7cb9
000000c0: 728a 27ba 0dca 4cbd 6e94 083d 628c 593c
000000d0: 4670 1fbd 4d0d 193c 5cce a5bc 36bd 3ebd
000000e0: 424b a7bb e38c 2ebd 4cf4 b3bb 8757 c2bc
000000f0: c18b 6abd c5fe 0f3c 4774 f3bc dc07 a1bc
00000100: 1d4c 90bc 76fc 8f3c 26f3 0cbd 92ba 2f3c
00000110: dd41 72bd 3ddc e3bb 9ea0 beb9 7ba4 90b9
00000120: ded1 a9bb d6e5 58bd 4a31 b4bc 7c38 83bb
00000130: e632 e7bd f629 bfbc 0a9c 88bc 93c6 763c
00000140: b2b0 aebc 18da cd3c 4fab 043d 84f4 6ebc
00000150: f13a a1b6 3159 143d a7ae 3d3d 5037 34bd
00000160: 68b3 2c3c e9ca 9f3d 7d29 253d 9900 07bd
00000170: a096 afbc 98e7 053c 3edb ce3c bd96 abbd
00000180: 399d 163c 4354 9ebb d185 55bb c17f bd3c
00000190: 0997 e83c 26df 8dbc 0603 c9bc 54db a63a
000001a0: 21a7 f63c 5b49 14bd d904 33bd 6c7f 4abc
000001b0: 1540 c0bb c146 de3b 5c59 ad3b 9d18 4fbd
000001c0: 4c35 89bd 9a38 bdbb 89da 79bc 6b3a 58bd
000001d0: f0d8 47bd 9629 c43c c9ed a6bd b295 d63c
000001e0: ce4e 1f3d 9152 05bd bf34 3cbd e60d 31bd
000001f0: 4181 5e3b f367 763b 5cdc 743c 055e 8fbc

network_body._body_endoder.seq_layers.0.weight f4 [128, 13]
0.12193525 0.34925658 0.013960744 0.34014964 0.0059195226 0.07149567 -0.14920603 -0.013386653
-0.17375138 -0.088734575 0.26012596 -0.17436486 -0.0493344 0.6397247 0.08094752 0.10428372
0.43329078 0.069820456 0.08858073 0.23293649 0.03595957 0.323946 0.42841604 -0.06282456
0.090333916 -0.37488416 0.28840843 -0.054256726 -0.2673223 -0.50948125 0.35439318 -0.17122656
0.11877655 -0.03090081 0.20913789 -0.13796838 0.34065512 -0.48656157 0.027245201 -0.10443828
0.21976672 0.39936808 0.2909422 -0.35485205 0.32319775 -0.030752053 -0.041857503 0.17255537
0.24545667 -0.011152242 -0.1912542 -0.02572174 0.24559598 0.034588244 0.06127129 0.057815574
0.5183857 -0.04021387 0.45439103 0.42594072 0.5109479 -0.15087998 -0.22905555 -0.13357495
0.17076904 -0.14416867 0.22330399 0.1742835 0.5478022 0.04003077 -0.15370625 -0.023243958
0.1801412 -0.23938233 -0.104755305 0.23444602 0.09972585 -0.18613678 -0.28653064 0.4288686
-0.22983465 0.3372987 0.34825733 0.36856186 -0.4713605 -0.0686562 0.08730791 0.4510373
-0.4279502 -0.21124245 -0.17077781 0.47934324 -0.05347223 0.17900184 0.09145602 -0.0010393381
-0.21403015 -0.19922164 -0.26391152 0.02563657 0.49268857 0.12278142 -0.034783963 -0.41952798
0.1357739 0.19267957 -0.09487914 0.03710026 -0.073268786 0.07812026 -0.6041111 0.19053784
0.04815919 -0.077488534 -0.16494586 0.15341648 -0.14365028 -0.16670413 -0.11210933 -0.44649923
-0.20179243 0.4612359 -0.19239557 -0.0008512705 0.14233099 -0.2804136 -0.66111624 0.33421516
0.20380408 -0.39584857 0.533524 -0.05456055 -0.27098998 -0.12426976 -0.026054978 -0.74058557
0.14322229 0.66050124 0.14775431 0.10105214 0.26163656 -0.34617528 -0.30886418 0.12918746
0.23635721 -0.2980427 0.03727833 -0.19932143 0.32819444 -0.21336773 -0.46727943 -0.3765987
-0.0023049833 -0.6598898 0.3055717 -0.24666402 0.6267841 0.12400757 0.29490712 0.22774953
0.5089869 -0.19906546 0.14180548 -0.27903193 -0.29300943 0.25990245 -0.060110725 -0.1292809
-0.0547102 0.21109845 -0.3600608 0.21191674 0.5390557 0.38229895 0.11690551 0.029756801
0.15677446 0.21248013 0.45821586 0.065376274 -0.17429432 -0.28223613 -0.26343438 0.11321901
-0.058524095 0.060168836 0.10795704 0.28703395 0.0145188365 0.08047644 0.16783816 -0.3094282
0.07920684 -0.24936035 0.13911928 0.21114992 -0.29184365 0.39877087 -0.41515186 -0.14069232
-0.23193574 0.16922088 -0.021112816 -0.09079427 -0.0017271182 0.16349795 -0.22910316 0.033227947
-0.16246657 -0.371419 0.38908646 -0.067467675 -0.014779863 0.0016181088 -0.1418646 0.095257565
-0.23479919 0.13194846 -0.06131306 0.1769168 0.022126833 0.374754 0.20519719 0.009577901
0.33760402 0.044286102 0.10208242 0.31573743 0.19342534 -0.02069851 -0.10036252 0.05540421
0.21793145 0.17597881 0.3316736 0.0824672 0.48937598 -0.07510391 0.10166219 0.012738128
0.29299745 0.010603831 -0.29387832 -0.4641852 0.18578057 -0.20846295 -0.10945965 0.41716436
0.39870697 -0.38593623 0.029838502 -0.13182308 0.0015041957 0.049603235 -0.11326406 0.12600651
00000000: 30b9 f93d c2d1 b23e 9bbb 643c 1828 ae3e
00000010: 8ef8 c13b 526c 923d 77c9 18be b153 5bbc
00000020: e2eb 31be 79ba b5bd 3b2f 853e b48c 32be
00000030: de12 4abd ffc4 233f d0c7 a53d b492 d53d
00000040: 4ad8 dd3e 07fe 8e3d d069 b53d e786 6e3e
00000050: 584a 133d 40dc a53e 5959 db3e 2aaa 80bd
00000060: fd00 b93d d1f0 bfbe 45aa 933e 4d3c 5ebd
00000070: 78de 88be 5d6d 02bf 0673 b53e 0456 2fbe
00000080: 1f41 f33d b223 fdbc 3e28 563e 9547 0dbe
00000090: 596a ae3e 991e f9be 5431 df3c bde3 d5bd
000000a0: 870a 613e f979 cc3e 60f6 943e 2baf b5be
000000b0: 2d7a a53e bbeb fbbc c672 2bbd 5bb2 303e
000000c0: fe58 7b3e e5b7 36bc 24d8 43be 66b6 d2bc
000000d0: 837d 7b3e 67ac 0d3d 9bf7 7a3d 06d0 6c3d
000000e0: edb4 043f 4db7 24bd f1a5 e83e e714 da3e
000000f0: 7bcd 023f 4880 1abe 8a8d 6abe dfc7 08be
00000100: 14de 2e3e f4a0 13be cda9 643e 6077 323e
00000110: c43c 0c3f 4ef7 233d 2c65 1dbe 1d6a bebc
00000120: ef76 383e a420 75be f389 d6bd 9e12 703e
00000130: 113d cc3d a49a 3ebe 25b4 92be aa94 db3e
00000140: c659 6bbe 6ab2 ac3e c94e b23e 24b4 bc3e
00000150: 2a56 f1be 9f9b 8cbd 7dce b23d 5cee e63e
00000160: 4a1c dbbe f14f 58be 61e0 2ebe 7a6c f53e
00000170: b205 5bbd 424c 373e 4b4d bb3d 663a 88ba
00000180: b82a 5bbe c200 4cbe 691f 87be c903 d23c
00000190: ad41 fc3e d374 fb3d a179 0ebd 5fcc d6be
000001a0: 5008 0b3e cb4d 453e ff4f c2bd 71f6 173d
000001b0: f20d 96bd 84fd 9f3d 06a7 1abf 5a1c 433e
000001c0: 9242 453d 4fb2 9ebd 91e7 28be 3619 1d3e
000001d0: 0f19 13be 7db4 2abe 9499 e5bd 8c9b e4be
000001e0: ada2 4ebe 1d27 ec3e 5803 45be cc27 5fba
000001f0: 37bf 113e 5f92 8fbe ea3e 29bf 401e ab3e
00000200: 04b2 503e aaac cabe 0795 083f e27a 5fbd
00000210: 33bf 8abe 2581 febd 4071 d5bc 0497 3dbf
00000220: dda8 123e 9c16 293f e84c 173e 6df4 ce3d
00000230: 3af5 853e e33d b1be 7223 9ebe b849 043e
00000240: a007 723e 0e99 98be 2ab1 183d eb1a 4cbe
00000250: 1a09 a83e 127d 5abe 403f efbe 8bd1 c0be
00000260: 340f 17bb 8aee 28bf e573 9c3e 7e95 7cbe
00000270: ec74 203f aef7 fd3d 11fe 963e 2c37 693e
00000280: f74c 023f d1d7 4bbe 7535 113e 46dd 8ebe
00000290: 5505 96be ef11 853e aa36 76bd 3662 04be
000002a0: cd17 60bd 312a 583e e459 b8be b400 593e
000002b0: 8eff 093f b0bc c33e 286c ef3d 89c4 f33c
000002c0: 7c89 203e 6494 593e 459b ea3e ffe3 853d
000002d0: 367a 32be 4181 90be dfe0 86be 5edf e73d
000002e0: f6b6 6fbd 9973 763d 9518 dd3d 1df6 923e
000002f0: 6ae0 6d3c d5d0 a43d c4dd 2b3e 5f6d 9ebe
00000300: 3237 a23d 5258 7fbe 4975 0e3e af37 583e
00000310: 886c 95be b22b cc3e c98e d4be a611 10be
00000320: 9080 6dbe 3d48 2d3e c9f4 acbc 59f2 b9bd
00000330: 7860 e2ba 026c 273e 059a 6abe 071a 083d
00000340: a35d 26be a22a bebe 5736 c73e 7e2c 8abd
00000350: 3d27 72bc b916 d43a f444 11be 6616 c33d
00000360: 336f 70be 7f1d 073e 6723 7bbd ad29 353e
00000370: 5543 b53c c2df bf3e 361f 523e a1ec 1c3c
00000380: 6fda ac3e 5865 353d 9610 d13d 56a8 a13e
00000390: 4b11 463e ec8f a9bc dd8a cdbd 86ef 623d
000003a0: 6c29 5f3e ca33 343e 1fd1 a93e 90e4 a83d
000003b0: 7d8f fa3e 14d0 99bd 4434 d03d 95b3 503c
000003c0: c303 963e b1bb 2d3c 3877 96be afa9 edbe
000003d0: 433d 3e3e 5077 55be 622c e0bd 9196 d53e
000003e0: 5223 cc3e 6f99 c5be e06f f43c a1fc 06be
000003f0: 6f28 c53a c32c 4b3d fdf6 e7bd da07 013e

network_body._body_endoder.seq_layers.2.bias f4 [128]
-0.036219336 0.00205273 -0.013057592 -0.02333361 0.032825686 0.04051045 -0.044007074 -0.04087749
-0.00033721348 -0.04215349 -0.008048083 0.012699041 -0.023698432 0.009638766 -0.017290385 -0.012969861
-0.016396422 -0.0078075877 -0.007874941 -0.03151888 -0.0024851498 -0.055193387 0.025218586 -0.034197584
-0.034626763 -0.02079874 -0.020328265 -0.028717916 -0.020207353 -0.045813326 -0.0007535462 -0.013774933
-0.020983133 -0.04773843 -0.017000103 0.02643138 -0.008173818 9.8168995e-05 0.004798139 -0.026568178
-0.01623615 -0.029973414 -0.02333988 -0.014156675 -0.054705475 -0.0182412 -0.04012452 -0.051849116
-0.007879893 0.00081849506 -0.0070903767 -0.027025204 -0.009015659 -0.052928336 -0.040382504 -0.019987553
0.001490991 0.0022595525 -0.029216435 -0.01517206 -0.04878807 -0.022260949 0.026610078 -0.043868534
-0.002891602 -0.005071826 -0.0028100447 -0.011790584 -0.013945213 -0.0068186107 -0.02042084 -0.02276743
-0.04988614 -0.016254552 -0.009510233 -0.042599995 -0.0038163539 -0.0064175003 -0.06362423 0.0077836784
0.004806244 -0.057138477 -0.016062526 0.0022588011 -0.0066606416 -2.222551e-07 -0.004773843 -0.046021584
-0.048327304 -0.05418341 -0.0030915858 -0.007451331 -2.7974482e-11 -0.003143515 -1.7564226e-06 -0.00739843
0.035731517 -0.012397773 0.013931222 0.004605752 -0.05551402 -0.01795052 -0.016708167 0.005005563
-0.011624147 -0.006443588 0.039936066 -0.03628329 -0.017411973 -0.009558903 -0.037091296 0.030211797
-0.00910254 -0.00362057 -0.003810968 0.0037078764 -0.00027553606 5.6847025e-06 -0.0030457687 0.042988207
-0.014838325 -0.037306815 -0.050720062 -0.0012270771 -0.016988475 -0.0004507661 -0.0044913157 -0.0148901
00000000: ba5a 14bd 1887 063b 83ef 55bc 2026 bfbc
00000010: 3a74 063d 49ee 253d c340 34bd 286f 27bd
00000020: 07cc b0b9 23a9 2cbd 1bdc 03bc a30f 503c
00000030: 3723 c2bc eaeb 1d3c 91a4 8dbc 8a7f 54bc
00000040: ca51 86bc cbd6 ffbb e605 01bc f119 01bd
00000050: e5dd 22bb 7612 62bd 3597 ce3c c412 0cbd
00000060: cbd4 0dbd 1f62 aabc 7687 a6bc d641 ebbc
00000070: e489 a5bc c1a6 3bbd a189 45ba 42b0 61bc
00000080: d2e4 abbc 5f89 43bd cd43 8bbc 9f86 d83c
00000090: 7aeb 05bc 14e0 cd38 b539 9d3b 82a5 d9bc
000000a0: ad01 85bc ce8a f5bc 4733 bfbc 66f1 67bc
000000b0: d912 60bd 926e 95bc 9c59 24bd bd5f 54bd
000000c0: ab1a 01bc 4690 563a 6456 e8bb f663 ddbc
000000d0: 6ab6 13bc 62cb 58bd 2068 25bd f0bc a3bc
000000e0: 5b6d c33a 0015 143b 4e57 efbc 3b94 78bc
000000f0: 00d6 47bd 985c b6bc 61fd d93c 7eaf 33bd
00000100: 0881 3dbb 8f31 a6bb ba28 38bb 4b2d 41bc
00000110: 767a 64bc a76e dfbb 9b49 a7bc c382 babc
00000120: 6955 4cbd 4428 85bc cfd0 1bbc 557d 2ebd
00000130: cb1b 7abb e549 d2bb 6c4d 82bd 3a0e ff3b
00000140: b27d 9d3b 090a 6abd 8f95 83bc 6508 143b
00000150: 8341 dabb 04a5 6eb4 e66d 9cbb 2181 3cbd
00000160: daf2 45bd 6cef 5dbd 349c 4abb 4b2a f4bb
00000170: ef10 f6ad 6e03 4ebb 39be ebb5 876e f2bb
00000180: 365b 123d 0720 4bbc c83f 643c d9eb 963b
00000190: ab62 63bd f80c 93bc 91df 88bc b505 a43b
000001a0: 3573 3ebc bc24 d3bb 0094 233d c99d 14bd
000001b0: 8ea3 8ebc f29c 1cbc 0bed 17bd bb7e f73c
000001c0: d222 15bc 1647 6dbb 6fc1 79bb d8ff 723b
000001d0: d375 90b9 39bf be36 859b 47bb 6714 303d
000001e0: 721c 73bc 08cf 18bd d7bf 4fbd e0d5 a0ba
000001f0: 6a2b 8bbc cd54 ecb9 e32b 93bb 9bf5 73bc

network_body._body_endoder.seq_layers.2.weight f4 [128, 128]
-0.012597612 0.11991695 0.030104179 -0.06227157 0.05266082 0.16759205 0.044906925 -0.22837822
-0.020421589 0.03239103 -0.069763206 0.17210492 -0.019356053 -0.0406371 -0.06021962 -0.08038901
0.09565518 -0.18872823 0.052365754 0.08593201 0.0085124355 0.07443916 -0.012621968 0.06476568
-0.1488726 0.081178576 0.19558512 -0.046985548 0.12261052 -0.0007072202 0.05390168 -0.15390502
-0.0721087 -0.19423164 -0.054780696 -0.11987619 0.050169565 -0.036860164 -0.09407947 -0.09734042
-0.09946225 0.031645443 0.04250835 -0.077251144 -0.03433479 -0.0817508 -0.071004294 0.06838287
-0.034726176 0.02659877 -0.08389554 0.040558454 0.032911494 0.03218606 -0.03934137 0.13434944
-0.054422792 0.04248275 -0.12927407 -0.16815677 0.0061706174 -0.10758924 -0.019226808 -0.036581043
-0.056425586 -0.06710816 0.13506652 -0.04011763 0.018780956 0.091115505 -0.12866239 -0.12040222
-0.07904081 0.07698517 -0.07856932 -0.1684887 0.024977 0.09194411 0.011393521 0.04467939
0.0721726 -0.01774064 0.030882189 0.03324658 -0.0053902115 0.10186921 -0.068082795 0.0098807495
0.022299102 0.2367268 -0.026515037 -0.034823995 -0.0057058814 0.06537389 0.03812502 0.14830941
0.02808689 -0.115923025 0.09936393 0.049431235 -0.02945254 0.0032672428 -0.10799676 0.045138415
0.025885124 -0.16274598 0.026800027 -0.011236959 -0.15493499 -0.030424906 0.03086944 -0.040174235
-0.032298412 0.030698806 -0.0006153921 -0.004724665 -0.021520574 0.09637198 0.3365079 0.07694735
0.13879511 -0.0016790659 0.043601923 -0.029170025 -0.12517188 -0.040661156 0.031239344 0.08416235
-0.05764648 -0.084721506 0.12612228 -0.099910796 -4.5482993e-05 0.08675904 0.04961073 -0.0060317027
0.12824546 -0.1204329 0.13553832 0.0034249618 -0.122106165 0.061898254 -0.11573386 -0.17317122
0.06271711 -0.08652507 0.02205858 0.049518745 0.07396428 -0.087117165 -0.19668357 0.0066822846
0.031041998 -0.06772373 -0.038049463 0.07422795 -0.024804125 -0.12619331 -0.08893747 -0.060461566
0.03537686 -0.1002616 -0.008240297 -0.03513302 -0.3134214 -0.017874612 0.049796216 0.05110326
-0.03745696 0.11162802 0.046053026 -0.078988366 -0.027758569 -0.027321327 0.021625305 0.05853147
-0.17839171 -0.034678925 -0.024770461 -0.034407172 -0.012875319 -0.022360973 0.09233734 -0.05452957
-0.14442195 -0.030449165 0.055890203 0.031259827 -0.17678723 -0.20380488 0.010684844 0.041504454
-0.04770746 -0.1981868 -0.06393199 -0.06643588 0.0007925555 0.04548088 0.101206295 -0.15381685
0.030431507 0.10939305 0.019182771 0.10257241 -0.009722937 0.10892963 -0.012769607 -0.03655779
0.00078780967 -0.01867091 -0.008760877 -0.06546422 -0.005198436 -0.024079856 0.0026047127 -0.10585326
0.06025015 -0.3073525 0.019201212 0.105866104 0.043140728 -0.018492827 -0.09615532 0.10049573
0.14075448 -0.108456336 0.05554162 0.008732573 -0.008558413 -0.12443767 0.008528427 -0.015412991
-0.027890177 -0.058564905 0.036311135 -0.022274734 -0.16341874 0.1479682 0.022848861 -0.1994214
0.003586929 0.15561704 0.034285262 -0.102096915 0.02798981 -0.09884884 0.06100508 -0.036947858
0.097200915 -0.03351396 -0.2690553 -0.0053079696 0.07190239 -0.025682727 0.13835847 -0.17752111
00000000: 3766 4ebc 0597 f53d 0a9d f63c 7910 7fbd
00000010: dfb2 573d 409d 2b3e 53f0 373d fbdb 69be
00000020: 2d4b a7bc 75ac 043d 03e0 8ebd 463c 303e
00000030: 9690 9ebc 1673 26bd d9a8 76bd fea2 a4bd
00000040: dde6 c33d f941 41be 797d 563d 1ffd af3d
00000050: be77 0b3c 8f73 983d 5fcc 4ebc dea3 843d
00000060: 0f72 18be f440 a63d 7747 483e eb73 40bd
00000070: 391b fb3d bf64 39ba 02c8 5c3d 4799 1dbe
00000080: baad 93bd a9e4 46be b961 60bd a681 f5bd
00000090: 9a7e 4d3d affa 16bd bdac c0bd 6a5a c7bd
000000a0: ddb2 cbbd a79e 013d 3c1d 2e3d d935 9ebd
000000b0: a3a2 0cbd f76c a7bd b36a 91bd 510c 8c3d
000000c0: 093d 0ebd aae5 d93c 6dd1 abbd 9f20 263d
000000d0: 34ce 063d 88d5 033d 6b24 21bd e692 093e
000000e0: 6fea 5ebd 6402 2e3d 6c60 04be 4a31 2cbe
000000f0: e432 ca3b bf57 dcbd 8a81 9dbc 01d6 15bd
00000100: 841e 67bd 0170 89bd e14e 0a3e 6252 24bd
00000110: 85da 993c c49a ba3d 13c0 03be 7095 f6bd
00000120: 26e0 a1bd 67aa 9d3d f4e8 a0bd 4d88 2cbe
00000130: 919c cc3c 324d bc3d e4ab 3a3c bc01 373d
00000140: 3acf 933d d254 91bc a5fc fc3c 912d 083d
00000150: 5fa0 b0bb cea0 d03d fe6e 8bbd dee2 213c
00000160: 9bac b63c 8368 723e 1036 d9bc 9ba3 0ebd
00000170: 67f8 babb bfe2 853d fb28 1c3d 6cde 173e
00000180: 7a16 e63c 0d69 edbd 517f cb3d 6878 4a3d
00000190: 7446 f1bc 3d1f 563b 682d ddbd 0fe3 383d
000001a0: 0a0d d43c e2a6 26be bb8b db3c 391b 38bc
000001b0: 47a7 1ebe a73d f9bc e8e1 fc3c bd8d 24bd
000001c0: 574b 04bd 107c fb3c 4452 21ba 5dd1 9abb
000001d0: ea4b b0bc ac5e c53d c34a ac3e 9296 9d3d
000001e0: 4e20 0e3e 1a14 dcba ee97 323d faf5 eebc
000001f0: 0f2d 00be 508c 26bd a7e9 ff3c 4f5d ac3d
00000200: b71e 6cbd 7882 adbd 3326 013e 089e ccbd
00000210: fec4 3eb8 b9ae b13d 9f34 4b3d 97a5 c5bb
00000220: c752 033e 86a5 f6bd 8fca 0a3e 5375 603b
00000230: cc12 fabd 0689 7d3d e005 edbd cc53 31be
00000240: d471 803d 0e34 b1bd 32b4 b43c 2bd4 4a3d
00000250: 967a 973d 7c6a b2bd 6b67 49be 11f7 da3b
00000260: ca4b fe3c bdb2 8abd c1d9 1bbd d304 983d
00000270: 0532 cbbc d238 01be d924 b6bd 8ca6 77bd
00000280: 54e7 103d f455 cdbd 5002 07bc a4e7 0fbd
00000290: c578 a0be c76d 92bc 1ef7 4b3d a751 513d
000002a0: 786c 19bd 3b9d e43d 19a2 3c3d a7c4 a1bd
000002b0: f065 e3bc fad0 dfbc 8d27 b13c b2be 6f3d
000002c0: 51ac 36be 7d0b 0ebd 6ceb cabc 89ee 0cbd
000002d0: 01f3 52bc 5c2e b7bc 5c1b bd3d 665a 5fbd
000002e0: 59e3 13be 8770 f9bc 20ed 643d 4e0a 003d
000002f0: b607 35be 3ab2 50be 7c0f 2f3c 9300 2a3d
00000300: e668 43bd 7bf1 4abe c6ee 82bd 890f 88bd
00000310: 80c3 4f3a 294a 3a3d 3f45 cf3d 2a82 1dbe
00000320: 7f4b f93c 7709 e03d 3025 9d3c 7c11 d23d
00000330: f44c 1fbc 7f16 df3d 9d37 51bc 9fbd 15bd
00000340: 0385 4e3a bcf3 98bc c889 0fbc 1b12 86bd
00000350: a457 aabb 1e43 c5bc d4b3 2a3b 98c9 d8bd
00000360: dcc8 763d 4f5d 9dbe dc4b 9d3c 54d0 d83d
00000370: 55b4 303d 457e 97bc 15ed c4bd b5d0 cd3d
00000380: f121 103e 5b1e debd 9c7f 633d 1113 0f3c
00000390: 9638 0cbc 2dd9 febd d1ba 0b3c c586 7cbc
000003a0: f179 e4bc c1e1 6fbd fcba 143d 8179 b6bc
000003b0: 3e57 27be fa84 173e 892d bb3c 2035 4cbe
000003c0: af12 6b3b 135a 1f3e b46e 0c3d 3018 d1bd
000003d0: e34a e53c 4371 cabd 76e0 793d a356 17bd
000003e0: 4611 c73d ef45 09bd 9ec1 89be 7aee adbb
000003f0: 8f41 933d 9564 d2bc d8ad 0d3e 18c8 35be
