results/mimicagentraysfinal/RaceCar/RaceCar-925875.pt (torch, 594095 bytes, 47 tensors)

network_body._body_endoder.seq_layers.0.weight f4 [128, 27]
00000000: 156d eebc 7421 29bf b4e6 77be 267b 5bbe
00000010: 19a7 94bf 4af2 013c 598f eabb 994a 0dbf
00000020: e13a f4be 7759 16bf 5865 f13e f154 ffbc
00000030: 60e9 013f 304f adbe 609e 2d3e 5a42 4dbd
00000040: 8d40 f23d 122a 823f 5e8c 70bf 7809 bdbe
00000050: 225e bd3e c712 c43d 93ac 123f bc39 24be
00000060: 19c1 8fbe 3362 c0bd ee57 c63d 281e 82be
00000070: b9b9 d73e c139 893f abc0 973f 9969 513f
00000080: 7815 873e 90b6 a93f 7793 153e c91a 733c
00000090: 60c8 4f3e 7f30 883e b7d6 0b3f 0bf5 963d
000000a0: e84e 0d3f 3836 1bbe c2b5 17bf 8e11 a53e
000000b0: 7428 c33e b257 8abe 57f0 e7be 9c3f 833f
000000c0: 6f51 25bf 61c4 2abf f4ec 6d3e e1f3 86be
000000d0: d4c0 babe 9687 1d3f 4089 6e3f 91ff f7be
000000e0: dce3 083f 4d57 5c3e e0e9 e7be 7046 eabe
000000f0: 0f66 e33c dd94 f3be d8e1 6fbf 147b d5be
00000100: 5064 01be 9561 b0be f79c 6bbe 4a24 643c
00000110: 5b19 f4bc a682 d63e 850a 8dbe 34ff c73e
00000120: e3ee 07bf 4e26 1bbe 513b 423d 944b 30be
00000130: f21d 933e 6881 1a3e ef55 143f 250c 053e
00000140: e4a2 583e ab90 b4be aaf2 e8be 4f7c 9a3e
00000150: 56ca 2dbe a9f0 a5be e2d8 cebe d954 06bf
00000160: 94ca cabe ef2a 02be 6d6e 68be ee47 29be
00000170: 0f72 91be 0ee2 80be 81e7 cfbe 1f7d e6bd
00000180: 79e1 40be d3d7 813e ece3 eb3d 4f16 29bc
00000190: 40df b43d f839 ff3e ff9f c4be bda9 00bf
000001a0: bfeb 1f3b 4c56 5dbe 4bf8 913e 9f49 b53e
000001b0: 8b87 7d3f edb5 be3e 1c17 f83f 1728 013e
000001c0: 31cc 623f e152 223d 9a15 873f 6761 f23e
000001d0: 8cf5 1dbd 7c3e c13c e0bf 2fbd c634 ea3d
000001e0: 58e3 3d3e 046a 0a3f 2567 01be 45bf a4be
000001f0: 9b2f e8be 16e2 173f e7d7 c5be e7c1 68bd
00000200: 4303 123f 0346 813e b378 54bf e35f ebbe
00000210: 4e1f 6ebe e595 0fbf 1a32 82be 17a7 0f3f
00000220: 6cd4 fb3e 2d49 ab3f 8293 463f 6fdf 713f
00000230: 299b 9b3e 3331 433f f571 04be 035c a3be
00000240: f318 c73d 91fa b23e b5f1 9b3e fe14 6d3d
00000250: 12d2 a03e 3e26 6d3d 8756 31be 5b30 bebe
00000260: 8aa0 eabc 4160 f53d db94 c83d 5b2c c03d
00000270: 6371 d6bd dbb4 febe 67be 753d 9f7c 1abc
00000280: f2b7 243a 63d4 d5bd 5269 d4bd 1aa1 d63e
00000290: 5c52 253f 53f4 9f3e 3ba6 8a3e 39cc 713e
000002a0: e336 093f ecba 093f 6720 76bc 7906 423e
000002b0: b0ed fabd 39bc fb3e 1a6a e93e f560 8c3e
000002c0: 6851 23be 9500 f13e 7300 1ebe e8bf b03d
000002d0: 92f6 b63c 26c8 873e 5400 a93e 1b6b 6f3e
000002e0: 412f 8fbe 2ded 15bc 3493 96be d4ef c3bd
000002f0: 2c06 47be 73f9 833e fbcf b63e a05c 6dbe
00000300: 3c62 c4bd e965 99be 8273 e23d d9f0 88be
00000310: e63f 60be d897 82be 69ae 7b3e 0e39 23bf
00000320: 3c64 03bf b2f1 73be 743d bdbe 0249 ae3e
00000330: c276 1f3e 4a29 8c3d 61fb 11be 0727 92be
00000340: 6da2 acbe 4f43 aabd b419 b53e b049 853e
00000350: 1f1b 15be 4be7 1dbe 57f3 f5bd 68d7 8ebe
00000360: 14f8 67be d3f0 8b3e 82d9 503e 9e56 8cbd
00000370: 1be3 bfbd 7c79 3a3c 185b 4a3e d4af 5fbc
00000380: ec74 b2be 4ef6 05bf c89d adbe b04a bcbd
00000390: acf4 1aba e777 d63d 1858 10be c5b2 81bd
000003a0: 40c9 02be 3c17 a83e 11cf 2c3e a8c9 15be
000003b0: 15ef e03d 85a0 003e dc9c 08bf a6d2 c2be
000003c0: e588 1bbf 176e 10bf f20a 6ebe 3646 a63f
000003d0: fa63 ba3e 7641 ab3e 9b53 2cbe f843 65be
000003e0: e57a 1bbe 01e9 1a3d b83a 9abd bc7c 5abf
000003f0: 1426 213e 1475 523f d5e5 c43e e781 7e3f
-0.029104749 -0.6606667 -0.242091 -0.21433696 -1.1613494 0.007931301 -0.0071582017 -0.5519195
-0.4770117 -0.5873026 0.47147632 -0.031168433 0.50746727 -0.33849478 0.16954947 -0.050112106
0.11828718 1.0169089 -0.93964183 -0.36921287 0.3698588 0.09573894 0.5729458 -0.16037649
-0.2807701 -0.0939373 0.0968474 -0.25413632 0.42133883 1.072075 1.1855673 0.81801754
0.26383567 1.3258839 0.14607035 0.014837929 0.20291281 0.265995 0.54624504 0.07370957
0.55198526 -0.15157402 -0.59261715 0.32239956 0.381168 -0.2702003 -0.45300552 1.0253787
-0.6457738 -0.667059 0.23234922 -0.2635794 -0.3647524 0.6153501 0.93178177 -0.4843717
0.53472686 0.21517678 -0.4529562 -0.45756865 0.027758626 -0.4757451 -0.93703985 -0.41695464
-0.12635922 -0.3444945 -0.23009096 0.013924668 -0.029797247 0.41896552 -0.27547088 0.39061892
-0.5309889 -0.15151331 0.04741985 -0.17216331 0.28733784 0.15088427 0.57943624 0.12992914
0.21155888 -0.35266623 -0.45497638 0.30172965 -0.16971716 -0.32410172 -0.40399843 -0.5247322
-0.3960768 -0.1271169 -0.22698374 -0.16531345 -0.28407332 -0.25172466 -0.4060631 -0.11254334
-0.18836011 0.25359973 0.11518082 -0.01032026 0.08831644 0.49848914 -0.38403317 -0.50259
0.002440199 -0.21614951 0.28509745 0.3540773 0.9903495 0.37248173 1.9382052 0.1261295
0.8859282 0.03962982 1.0553467 0.47339937 -0.03856425 0.023589365 -0.042907596 0.11435847
0.18543756 0.54068017 -0.12637003 -0.32177177 -0.4534882 0.59329355 -0.38641283 -0.056825545
0.57036227 0.25248727 -0.8299667 -0.45971593 -0.2325413 -0.56088096 -0.2542885 0.56114334
0.49185503 1.3381706 0.7756883 0.9448156 0.30391815 0.7624695 -0.12934096 -0.31906137
0.097215556 0.34956792 0.30457845 0.057881348 0.3141027 0.0578978 -0.17318164 -0.37146267
-0.028641004 0.119812496 0.09794017 0.0938346 -0.104708456 -0.49747357 0.059996035 -0.009429126
0.00062835135 -0.104409 -0.10371651 0.41919786 0.64578795 0.31241092 0.2707995 0.23613061
0.53599375 0.53800845 -0.015022374 0.18947782 -0.122523665 0.4916704 0.45588762 0.27417722
-0.15949023 0.47070757 -0.15429859 0.08630353 0.02233437 0.2651989 0.33008063 0.23380701
-0.2796574 -0.009150785 -0.29409182 -0.09567228 -0.19435948 0.25776252 0.35705552 -0.23179865
-0.09589049 -0.29960564 0.110571876 -0.26746252 -0.21899375 -0.25506473 0.24578251 -0.63758934
-0.5132482 -0.23822668 -0.36960948 0.34040076 0.15572646 0.06843813 -0.1425605 -0.285454
-0.3371767 -0.08313619 0.35371172 0.26032782 -0.14561127 -0.15420263 -0.12009304 -0.27898717
-0.22653228 0.27332172 0.20395473 -0.068524584 -0.09369489 0.011381503 0.19761312 -0.013652761
-0.3485483 -0.52328956 -0.3390944 -0.09193933 -0.0005911093 0.10472088 -0.14096105 -0.06332926
-0.12772083 0.32830226 0.16875865 -0.14627707 0.10983101 0.12561233 -0.5336435 -0.38051337
-0.6075576 -0.56417984 -0.23246363 1.2990177 0.364044 0.3344838 -0.16828768 -0.2238921
-0.151836 0.037819866 -0.07530731 -0.8534658 0.15737182 0.822099 0.38456598 0.99416965

network_body._body_endoder.seq_layers.0.bias f4 [128]
00000000: 7456 98be 23cd e63e 7d33 d2bd 523a dabc
00000010: 71fc 383e d636 3c3e deaa ac3d 9504 c8bd
00000020: 427f 60bd 2f57 c8bd 94f2 1ebe 9d3d d7bc
00000030: f19e 6f3e 0f8f 71be 03b7 403d 92fa 863e
00000040: 4176 5bbe 4087 b53d f469 1a3e c15e 673f
00000050: 032a 623d 68bc ffbc e341 6e3e d41a 7fbe
00000060: 2079 22be bc66 13bd 3760 1b3d bf04 fbbc
00000070: 80dc 9f3d 7033 143e 130a 67be e6df 9e3d
00000080: 8ccc cd3e 87e5 75be c596 b43e 2385 8d3d
00000090: 5a1c 923e a87b fb3e 47fa b3bd 0f0f 0f3e
000000a0: 4fcd 113e abf8 03bd 1b9b 433e 4f0d cd3e
000000b0: db31 24be d4bb 00be 2d0b 4b3e 3648 073e
000000c0: 26cf b53e 65c9 d9bc 127b e53d b601 08bd
000000d0: b8f8 77be 8cf5 a2be e571 0e3e d567 c6be
000000e0: 2c39 5cbd 6e34 33be 84ba c53e b8e5 61be
000000f0: fcd3 d6be 0edc 92be bd03 733e f7dc 9c3c
00000100: 03d7 febd fd92 49be 36d8 373e a72c efbd
00000110: 3aa5 183e bfe3 08bf a123 10bf 3989 303f
00000120: 9fa0 b3bc 4a4c 0fbd d58f fe3d 6710 c23d
00000130: 4243 093d e8d5 48be 334b 843d 88c9 043f
00000140: 651a 0a3f 4d9f 553c 2197 f0bd 2cb4 8abd
00000150: b921 65be 8e4a cabe 2735 34bf 5173 573c
00000160: 5d2a 743e e616 563e 36d6 023d d46a 05bd
00000170: 7f5f 8dbd 8b67 983b e981 ae3e b45a ffbc
00000180: 6764 c0bd e4aa d33d deb9 aa3e ff16 1bbe
00000190: 6eb9 42bb 1f74 b4be cecc 7e3b a189 113e
000001a0: adb6 4bbd 9e1a 89be 8fe7 2fbd 47f1 f5bd
000001b0: 9016 99be 8fed 41be d721 8d3e fb4b a6be
000001c0: 15e8 283f fc1c e83d b0fb 94be eb33 56bf
000001d0: 7eee 23be 6ac4 8cbe fc80 443e 57d7 173e
000001e0: 9104 e43e 4444 f13d 8a0d 623d 0720 12bf
000001f0: 418d 54be a775 8fbe 3190 90bd f55c 12be
-0.29753458 0.45078382 -0.10263727 -0.026639137 0.18065049 0.18380293 0.08431028 -0.09766499
-0.054808863 -0.09782254 -0.15522224 -0.026274497 0.23400475 -0.23589729 0.047049534 0.26363045
-0.21431829 0.088636875 0.1507948 0.9037896 0.055215847 -0.031217769 0.23267321 -0.24912578
-0.15866518 -0.035986647 0.037933555 -0.030641912 0.07805729 0.14472747 -0.22562437 0.07757549
0.4019512 -0.24013339 0.35271278 0.069101594 0.28537256 0.4911778 -0.08787971 0.13970588
0.14238475 -0.03221957 0.19102137 0.40049216 -0.16034643 -0.1257165 0.19828482 0.1321114
0.35509604 -0.02658529 0.112051144 -0.033204757 -0.24215972 -0.31827962 0.13910635 -0.38751093
-0.05376546 -0.17500469 0.38618863 -0.22060287 -0.41958606 -0.28683513 0.23731895 0.019148333
-0.12443354 -0.19684978 0.17953572 -0.11678439 0.14906779 -0.5347251 -0.56304365 0.68959385
-0.021927176 -0.034984864 0.124297775 0.09475785 0.033511408 -0.19612849 0.064596556 0.5187001
0.53946525 0.013038469 -0.117475756 -0.06772646 -0.22376145 -0.39510006 -0.70393604 0.013150052
0.23844285 0.20907173 0.03194257 -0.032572582 -0.0690298 0.004651015 0.3408349 -0.03117118
-0.0939415 0.10335329 0.3334493 -0.15145491 -0.0029712575 -0.35244843 0.0038879397 0.14212658
-0.04973476 -0.2677812 -0.04294544 -0.120089106 -0.29900026 -0.18938278 0.2756488 -0.32479843
0.6597913 0.11333653 -0.29098272 -0.8367297 -0.16008946 -0.27493602 0.19189829 0.1482824
0.44534734 0.11780599 0.055188693 -0.5708012 -0.20757009 -0.2801945 -0.07058752 -0.14293273

network_body._body_endoder.seq_layers.2.weight f4 [128, 128]
00000000: f617 2b3e c679 bcbd b40e b73c 9278 293a
00000010: 2b9d 683d ea21 43bd 6379 36be e1bf d4bd
00000020: f665 783d 15a0 ca3c 9949 70bd fb97 79bc
00000030: 0e42 c4bd 288c 8b3c 9a3d 58bc 2129 4abc
00000040: 0a64 ad3c 4921 b93c 39b4 88bd e26b dc3d
00000050: c8e4 29bc c2e5 613d c840 58bd a1d6 82bd
00000060: 3e7b 8a3d 0d05 adbd 1868 ad3c ddfb ee3d
00000070: 4f2a 8c3c 4631 60bd 5eb7 8ebd a6f3 013e
00000080: 8c1d 57be cead ae3b eeb1 4abd 1709 34be
00000090: 5d91 07bd 3a60 10bc 4290 e9bd bc4d 943d
000000a0: 8086 333e 6b0a 1bbe 62ca 4ebd acd2 2abe
000000b0: 268d 53bd c9e5 0c3d 954c 863a 9899 af3d
000000c0: 14f6 1abd 3a74 633d 507f 4bbd 258a 8b3d
000000d0: 5a7b 83bc cac1 35bd 2501 4ebd d125 bd3b
000000e0: f3da c2bd 5b48 143d 5626 1ebf 0b16 ea3c
000000f0: 20e4 f1bd 69ec b43d 9867 c13d 0a6f c13d
00000100: 79a4 0a3d d92e 393d 2d66 a2bd 3f4f 86be
00000110: f325 f93c 1287 8abd b1ff 5e3c 98ac 953d
00000120: b2c8 bbbd 5de2 3b3c 8081 b9bc 76dc 983d
00000130: 8f1d c1bc d06b 613b f77b 36bb bb85 a4bc
00000140: a160 863d 1a96 2c3d 457f 2dbd 7ac9 033c
00000150: 8ed3 583e ceb6 813d 19f4 7abd a2d9 773c
00000160: 3487 2bbc 854f f5bd d79e a43d f78e 6f3d
00000170: 8a6a 653d d37f bd3d 5af1 42bb 46b6 57be
00000180: 93a3 dfbd 2cce 13bc 37e3 22be 6b1a a33c
00000190: 28c3 30be 380a 09bd f23f e2bc 5bd6 28bd
000001a0: 3756 fd3c f08f d4bd e7ce 083e c083 edbd
000001b0: 856d f8bd e81f 4fbd 568e 383d d57f 0ebd
000001c0: c0c3 a6bd eb3e e0bd daa4 7b3d 8c64 ab3c
000001d0: 1e7d 0fbd f6f1 82bd 5294 593b af80 283d
000001e0: ca5e 68ba efbb a5bd b0ab a23d 7d98 ec3d
000001f0: 2f8d c43c dc74 99bc 31bc 18be 257e f33d
00000200: ecf0 7bbe 836a 403c 9623 6fbd 98e6 65bc
00000210: f9ea 243d 3e4d 283e e815 f9bd 124f 0ebe
00000220: 2439 c3bd 62fd 2d3e aaeb 96bd 6c6f 31bb
00000230: 8b65 343d b02e 87bc d933 b7bd c9bc d6bd
00000240: 7ec4 72bd a655 44be 0990 b23c fe06 a0be
00000250: 9c97 8f3d 66f9 2d3c 1b08 ce3c b1e9 85bd
00000260: 9d23 efbd b189 dcbd cbbf 6e3d af90 9abd
00000270: e7a2 c93d 624f 633c 4588 613d b610 833c
00000280: 7694 2f3e 09c7 96bb c396 a83d 03ba 913c
00000290: fcf3 bc3d d018 7fbd ffe9 c3bd a013 b8bc
000002a0: 894a b2bc 76e6 2cbc a1a8 09bd b4ae 02bc
000002b0: b772 9a3d 73e0 3cbd 9684 2dbd b479 05bd
000002c0: 0506 49bc 0cfb 6bbc 7d2c 293d 3a2b e73d
000002d0: f002 e03c 8d96 43be 9bd9 ecbd cc9c f83d
000002e0: d5fe 38be 3df0 b73d 49d9 9cbe 201f 653c
000002f0: d435 6fbe 6b7a 6c3d 3c72 983d 2daf edbc
00000300: 7d27 a0bd 8b33 143c f7a3 843d 49fb 0abd
00000310: 83c3 0ebe 7e95 09bd 4722 573c 2dd3 37be
00000320: c55e dd3d e329 e63d 0334 be3d a02c 45be
00000330: 25a2 163d e2e3 b6bd 0d80 503d f559 0e3e
00000340: c94c 20be 8c62 30bc d097 afbd e7c0 0fbd
00000350: be23 bb3d b23c a3bc 4e83 2abd 626d bebc
00000360: aa11 d4bd b3a7 d83d 58f1 1c3d e9b6 6dbe
00000370: 233b d0bd 66e7 b4bd 4004 253d 8e04 7dbd
00000380: 0312 9e3b 2e1b abbe cf20 83bd 04e4 d73d
00000390: 591a e0bc 113d 103d a838 ee3c 64ab 00be
000003a0: a272 21bd 2eca 46bd 4d79 b2be 6b82 9d3b
000003b0: f93d 093e 7de5 27be 0cf3 95bd 5e3e 033d
000003c0: f145 c4bd 3202 f539 4c3b 56bd c9c3 2bbe
000003d0: b49a fa3d 7e28 76bc 1206 2c3d d2c2 283e
000003e0: 994e 633d efa5 c0bb 13ba 113c 26c2 cb3b
000003f0: 4d28 3d3d 1237 04be b6a4 25bc 1b20 a83c
0.16708359 -0.09202914 0.022345878 0.0006464805 0.056790512 -0.047639765 -0.17819743 -0.103881605
0.060644113 0.024734536 -0.05866394 -0.015233989 -0.095829114 0.017034605 -0.013198281 -0.012338907
0.021165866 0.02259888 -0.06675 0.107627645 -0.010369487 0.055150755 -0.052796155 -0.063885935
0.06761788 -0.08448229 0.0211678 0.11669133 0.017110018 -0.05473449 -0.06968568 0.12690601
-0.21007365 0.0053307777 -0.049486093 -0.17581593 -0.033097614 -0.008812005 -0.11404468 0.07241389
0.17531776 -0.15140693 -0.050485976 -0.16681927 -0.05164828 0.034398828 0.0010246212 0.085742176
-0.037832335 0.055530764 -0.04968196 0.06813458 -0.01605003 -0.044374265 -0.05029406 0.0057723303
-0.095144175 0.036201816 -0.61777246 0.028574964 -0.118110895 0.08834154 0.09443587 0.09445007
0.03384826 0.045210693 -0.07929645 -0.26232335 0.030413603 -0.06764044 0.013610766 0.0730831
-0.09169139 0.011467543 -0.022644758 0.074639246 -0.023573665 0.0034396537 -0.0027844885 -0.020083299
0.06561399 0.042135336 -0.0423577 0.008043641 0.21174452 0.06333695 -0.061267946 0.015127571
-0.010469247 -0.11978058 0.08038109 0.05848595 0.056009807 0.09252896 -0.0029745908 -0.21065626
-0.10919871 -0.009021323 -0.15906988 0.019910058 -0.17261946 -0.03345701 -0.027618382 -0.04122005
0.0309249 -0.103790164 0.13360177 -0.11597395 -0.12130264 -0.050567538 0.045057617 -0.03478988
-0.08142805 -0.10949501 0.06143651 0.020921968 -0.03503143 -0.06393807 0.0033199978 0.041138347
-0.00088642223 -0.08092486 0.07942903 0.11552522 0.023993103 -0.01873248 -0.1491554 0.118892945
-0.24603623 0.011744144 -0.058383547 -0.014032029 0.04026315 0.16435716 -0.121623814 -0.1389735
-0.09532383 0.16991189 -0.07369168 -0.002707447 0.04404215 -0.016501755 -0.08945436 -0.10485227
-0.05926942 -0.19173297 0.021797197 -0.31255335 0.07011339 0.010618543 0.02515035 -0.06538714
-0.116767146 -0.1076845 0.058288377 -0.075471275 0.09845524 0.013873907 0.055061597 0.01599918
0.17146477 -0.0046013636 0.082318805 0.017788893 0.09226224 -0.062279522 -0.095661156 -0.022470295
-0.021764057 -0.010552993 -0.033608083 -0.007976223 0.07541411 -0.04611249 -0.042362772 -0.03258677
-0.012269502 -0.014403116 0.041302193 0.11287542 0.02734515 -0.191004 -0.115649424 0.12139282
-0.1806596 0.08981369 -0.30634525 0.013984472 -0.23360378 0.057733934 0.074436635 -0.029014194
-0.07820032 0.009045492 0.06476586 -0.03393105 -0.1394177 -0.033589832 0.013130731 -0.17951651
0.108090915 0.11238458 0.09287264 -0.19255304 0.036775727 -0.08930184 0.05090337 0.13901503
-0.15654291 -0.010765683 -0.08573878 -0.035096075 0.09137677 -0.019926403 -0.04162913 -0.023245517
-0.10354932 0.10578861 0.0383161 -0.23214306 -0.101675294 -0.08833198 0.040287256 -0.06177192
0.0048239245 -0.33419174 -0.06402742 0.105415374 -0.027356314 0.035214487 0.02907975 -0.1256538
-0.039415963 -0.048532657 -0.3485817 0.004806807 0.13402547 -0.16396137 -0.07321748 0.0320419
-0.09583653 0.00046731677 -0.052302644 -0.16773905 0.122365385 -0.0150243025 0.041997977 0.16480568
0.05549488 -0.005879156 0.008894461 0.0062182127 0.046181012 -0.12911633 -0.010110071 0.020523122

network_body._body_endoder.seq_layers.2.bias f4 [128]
00000000: 177d 883d 415a c33d a629 6f3d 256a 0f3e
00000010: 3b30 673c 96da 5d3e cfb6 d53c 9ad1 cbbd
00000020: 051d 483d 0a21 093e 60d3 34bd 26e9 78bd
00000030: ed43 1bbd 625e c9bd ec39 de3d 9740 abbc
00000040: 230d 0a3e 9a26 3e3e 8055 21bc 8564 dfbc
00000050: eb4b 5bbe 4ded b13c aa00 4628 ecf5 833c
00000060: 7d5a bcbd 66a7 512e 67a4 48bc 4cc6 913d
00000070: 34b9 9d3b 5eee eb3d b19a 803d a488 6f3c
00000080: 9fd0 48bc eb46 76bb f48d a03d 6ed1 0a3f
00000090: 542c 66bc 3858 35bc 8999 7abd 006d c13d
000000a0: b402 173d db8e 0a3f 6944 3e3d 8b3f 60be
000000b0: 223d 2f3d 462c 2fbf bb77 4aba 1c82 f13b
000000c0: c936 dc3d 59e7 4b3e ca3a b43d 3c09 65bd
000000d0: c5b8 0cbc ff47 97bc 4305 883e 8269 96bd
000000e0: 955e 853c a4d3 463d 0e9c 833c 6471 0abc
000000f0: a953 053d 06d0 d4b8 43a8 d3b9 a459 92bd
00000100: b8aa c1bd 428d 05bc bc45 b6be 5961 423c
00000110: c1f7 c43d 2b2e 263f 09cd 793b 05df 1bbb
00000120: da0e 45bd 41eb ddb5 b1e2 88be 6d9a 593c
00000130: f1d6 b7b7 5aaf 70bd 628d 13be 95a4 2b3e
00000140: d889 19bc 9496 183e e22e aebe 2434 733d
00000150: 119b 5e3d 86ec acbc c1b7 943d 6b52 9e3c
00000160: e0d1 62bd 6322 933c 7838 863c 61c1 9dbb
00000170: f67e c93c dc77 c2bc 118c e93d af5a efbd
00000180: d787 113e 3fdc 1939 be18 553d 0adc b1bc
00000190: 81c1 17bb b1d4 7c3d 22f2 03bc 0fd8 4fbb
000001a0: ff3c 6e3b 8308 ab3d 0a3a cabe 81b8 0c3c
000001b0: 5fd5 a7bd 2844 1cbc 482a 973d 5a70 f13d
000001c0: 8b20 8a3c ddde 283e ec9a 37bc d611 2321
000001d0: e750 cfbb 7fe0 843d 24ba 00bc dfcc d73e
000001e0: b502 863b 5892 f63c e7f8 213d 5765 ac3d
000001f0: 781b 16be a941 e9be c518 32bd d75e 11bd
0.06664484 0.09538699 0.05838933 0.14005335 0.01411062 0.21665415 0.026088146 -0.09952088
0.0488558 0.1339151 -0.044146895 -0.060769223 -0.037906576 -0.09832455 0.108508915 -0.020904822
0.13481574 0.18569413 -0.009847045 -0.027269611 -0.21415679 0.0217196 1.0991352e-14 0.016108476
-0.09196947 4.7669778e-11 -0.012246228 0.071179 0.0048133377 0.11520074 0.06279505 0.01461998
-0.01225677 -0.0037578891 0.078395754 0.54225814 -0.014048655 -0.011068396 -0.06118158 0.09444618
0.036867812 0.5412423 0.04645196 -0.2189924 0.04278291 -0.6842693 -0.00077235297 0.0073702466
0.10752637 0.19912471 0.088002756 -0.05591701 -0.008588974 -0.018466948 0.26566514 -0.07344343
0.016280452 0.04854168 0.016065624 -0.008449886 0.032550488 -0.00010147695 -0.0004037042 -0.07146004
-0.0945639 -0.008151354 -0.35600078 0.01186403 0.09617568 0.64914197 0.0038116595 -0.0023784053
-0.048109867 -1.6534251e-06 -0.26735452 0.013281447 -2.191539e-05 -0.05876098 -0.14409402 0.16762002
-0.009371243 0.14901191 -0.34020144 0.059375897 0.0543471 -0.021108877 0.07261611 0.01932641
-0.055375934 0.017960733 0.016384348 -0.0048143123 0.024596673 -0.023738794 0.11403669 -0.116872184
0.14211975 0.00014673265 0.05202555 -0.021711368 -0.0023156109 0.061726276 -0.008053334 -0.0031714474
0.0036352274 0.08351233 -0.39497405 0.008588911 -0.08194994 -0.009537734 0.073811114 0.117890075
0.01686122 0.16491266 -0.01120637 5.5250154e-19 -0.006326783 0.06488132 -0.007856879 0.42148492
0.004089678 0.030099079 0.039544012 0.084177665 -0.14658916 -0.45557907 -0.043480653 -0.035490837

action_model._continuous_distribution.log_sigma f4 [1, 2]
00000000: 4368 aec0 9c8f b2c0
-5.4502273 -5.5800304

action_model._continuous_distribution.mu.weight f4 [2, 128]
00000000: 5771 0fbd 38f6 05be 36ca 9a3d 83d9 c63e
00000010: 17e9 ebbd 4ac6 16bf 6a9f c438 eabc 63bd
00000020: e63a 19bd b12c 3c3f 4399 fcb9 accc 3439
00000030: a382 52ba 7c1a b3bb 17d5 a83a bea2 a23c
00000040: 0a10 83be c050 b43e 42cd 67bc f381 82bb
00000050: 3d1e b13c 7f24 393f 5be1 0abc 611c 81bc
00000060: 7868 d3ba 6ad5 bfbc ae4c dfbd 677c 08bd
00000070: f683 7dba 4394 dc3c e9e4 b13d 8daf f0b9
00000080: 0cdb 6b3a e55d c139 90a2 20bd 3ff9 483d
00000090: 8589 cb3b 95f1 8cbc 4a08 c0ba d082 8abe
000000a0: cfa4 d0be 25bb a83d c4d8 8fbe b092 69bd
000000b0: 5bab fc3b cf59 f23a 6899 b5bd 6ce4 343a
000000c0: 3a3f ff3d 25e3 cd3e 4378 3d3b af4d 8c3c
000000d0: 6372 98bb 15e1 2c3d a7a1 03ba 0b74 2cbe
000000e0: 301e 903b 4e6c 8c3d ef80 21ba f8f0 983b
000000f0: 40f1 ccbe 0edf 33ba dc4e 28bc d68f 8fbc
00000100: 0b37 923d aad1 563b e46a 0dbd 4571 0ebd
00000110: 20df 5839 94d6 a03b e5c3 20bc 047d 48ba
00000120: 517f 25bb 2a65 c43c 140d 33bd b4cc c83c
00000130: 2176 0cbc c7ee 07bc 8963 e73b 4b3e a53f
00000140: 5052 203d 33d1 953e a795 2cbb 34e4 0f3e
00000150: 18d1 cabb 80ea 1c3c a11c b73b 5904 843e
00000160: 7f9a 09bb 6965 1dba aa5a 443e 234d b8bc
00000170: dc5e 81be 110e 073d 178e a0bd a55e 96bb
00000180: 064a ac3e 381b b43d 5448 893b a00d 5cbb
00000190: d1a0 36bb ec44 853b ce65 803b 27cd dabb
000001a0: 185d 2dbc 7c55 9ebc 5421 1cbc 4b8e 92bc
000001b0: 2c10 83bc daaa 83ba 908a c1bd 9c63 ba3e
000001c0: 3c18 bbb9 fee4 0f3f 0ec5 9ebc cf9e 5e3c
000001d0: 0580 be3c 555e f03e 3237 35bc 31fd 113b
000001e0: e8ad 5f3d 4402 7fbe e118 ddbd cfa6 d1bc
000001f0: 0577 cf3b 502c 83bb c9a5 44be dc90 003d
00000200: 78f5 883c 9a75 473d 51b5 63bb 4dc3 a5bc
00000210: cf26 45bc 8811 3d3c 3dde 3a3b d3d7 1539
00000220: d98b 8f3c a003 80bd b593 75ba dad8 3b3b
00000230: 01df 03bb 66d6 5b3a 9b7d b43a 2360 2e3c
00000240: 0b52 25bd b3d6 58bd 7036 a7bb 4856 973a
00000250: 059b 43bb 4c81 2ebb 3b7d 6abc c11e a33c
00000260: c810 933b e0d4 ef3b 3ccc 503d 5a99 a53d
00000270: 4262 36bb 0bf2 403c f1d7 41bc f9eb 123a
00000280: 30c4 363b f59b 3b3c 6aca 8139 961b 9339
00000290: 14a1 f63c d2e7 4dbc e41a 413c 3501 0dbd
000002a0: c160 b03c 7457 3a3d a96b 32bd c697 a1bc
000002b0: aa21 fbbb 9399 01bc 3664 083c 4916 cabb
000002c0: 017b 393d a015 07ba f319 9cba 8106 5b3b
000002d0: b5bd a53a 9719 b6bc 5c62 cf3b 710f aabd
000002e0: f608 113d 85e0 ae3c 47fb 663b 38f1 f439
000002f0: 815a 04be fc02 83bc fd51 e4bc f2c7 9f3c
00000300: 933d c6bd 718a 9cbb 63b7 4aba 5f73 893c
00000310: c7d1 c63b 3e26 40b9 0454 50bb f937 643b
00000320: d6e8 a2bb c8d0 963b 4b5b a1ba a1e3 a43c
00000330: 2f58 3f3b ae2f 30bb 2a1f f63a dad9 68bd
00000340: 07a1 30bd 8645 eebb 5e60 d2bb 5de0 d83c
00000350: 5e58 c3b9 41f0 0fbc 0154 baba c68b da3c
00000360: 09f8 923d c8ee 5b3b 8f54 bfbc d255 123b
00000370: 02b0 aebd 9674 5a3a 09d1 a4bc a4ca 71bb
00000380: 04de 3ebd f1a5 10bd 1dc3 723a adc3 813b
00000390: bbf9 e73b 244d a0bb 917e 97bb bb9b 25bc
000003a0: 1a96 03bc 4c48 d73a e403 c63b 4d5b 8abb
000003b0: de40 1cbc b438 963b 69e2 af3c a19b 4ebc
000003c0: 08c5 6837 b814 903d 75a4 833b 9b36 bbbb
000003d0: 5cce 5c3c 533b e13b 9d9b 823b e617 633b
000003e0: 45a4 0ebc fd31 063d 531f 1abe 70ad 493d
000003f0: 74a1 fb3a 11f5 583b 36aa 57bd e5d0 8dbd
-0.0350202 -0.13082206 0.075581 0.38837823 -0.11519068 -0.58896315 9.3757015e-05 -0.055600084
-0.037409686 0.73505694 -0.00048179374 0.00017242384 -0.00080303306 -0.0054658037 0.0012880889 0.019852992
-0.25598174 0.35217857 -0.014148058 -0.0039827763 0.021620864 0.72321314 -0.0084765805 -0.015760602
-0.0016129157 -0.023417193 -0.10903297 -0.033321764 -0.0009670848 0.026926165 0.08686239 -0.00045907163
0.0008997179 0.00036881785 -0.03921753 0.049065825 0.006211462 -0.017205039 -0.0014650908 -0.27052927
-0.4075074 0.0823882 -0.28095067 -0.057024658 0.007710857 0.00184899 -0.088671505 0.00069004926
0.124632314 0.4021236 0.0028910793 0.017126886 -0.004652308 0.042206842 -0.00050213415 -0.16841142
0.00439813 0.06856595 -0.0006160875 0.0046673976 -0.4002781 -0.0006861546 -0.010272708 -0.017524641
0.07139405 0.0032778778 -0.034525767 -0.03477599 0.00020682486 0.004908392 -0.00981233 -0.00076480233
-0.0025252888 0.02397402 -0.043713644 0.024511673 -0.008573086 -0.008296675 0.007061426 1.2909635
0.039141 0.2926117 -0.0026334317 0.14051896 -0.0061894767 0.0095773935 0.0055881296 0.25784567
-0.0020996628 -0.0006004186 0.1917521 -0.02249772 -0.25267684 0.0329724 -0.078396015 -0.004588919
0.33650225 0.08794254 0.0041895304 -0.0033577457 -0.002786685 0.004067054 0.003918386 -0.006677288
-0.010581277 -0.019327872 -0.00952943 -0.017890116 -0.015998922 -0.0010045425 -0.09450257 0.3640412
-0.00035685475 0.5620879 -0.019381072 0.013587668 0.023254404 0.4694697 -0.011060523 0.0022276158
0.05460921 -0.24903208 -0.10795761 -0.025592236 0.006331327 -0.004003085 -0.19203867 0.03138815
0.016718611 0.048696138 -0.0034745524 -0.020234728 -0.0120331785 0.011539824 0.0028513812 0.00014290148
0.01752274 -0.062506914 -0.00093680184 0.002866319 -0.0020121934 0.0008386135 0.0013770344 0.010643038
-0.040361445 -0.052939128 -0.005102925 0.00115461 -0.0029847038 -0.002662736 -0.014312084 0.019912126
0.0044880845 0.007319078 0.050976023 0.0808589 -0.0027829562 0.011776458 -0.01183127 0.00056046207
0.0027887933 0.011450757 0.00024755608 0.00028058578 0.030106105 -0.012567477 0.011786196 -0.03442498
0.02153051 0.045493558 -0.043559704 -0.019725692 -0.007663925 -0.00791015 0.008324673 -0.0061672074
0.04528332 -0.00051530637 -0.0011909589 0.0033420625 0.0012645038 -0.022228999 0.006328864 -0.083037265
0.035408936 0.021347294 0.0035244988 0.0004671903 -0.1292515 -0.015992634 -0.027871126 0.019504521
-0.09679713 -0.0047772457 -0.0007733015 0.016778646 0.006067488 -0.00018324793 -0.0031788358 0.0034823401
-0.004971604 0.0046025254 -0.0012310533 0.020128073 0.0029196849 -0.0026883888 0.0018777598 -0.056848384
-0.043122318 -0.0072714714 -0.0064201793 0.026474172 -0.00037259137 -0.008785308 -0.0014215709 0.026677977
0.07176215 0.0033559073 -0.02335575 0.0022328985 -0.085296646 0.00083334127 -0.020119207 -0.0036894465
-0.04659845 -0.035314504 0.00092606415 0.003960094 0.0070793307 -0.0048920084 -0.004623242 -0.01010793
-0.0080313925 0.0016424744 0.0060429443 -0.0042223097 -0.00953695 0.0045843963 0.021470265 -0.012610347
1.38741525e-05 0.07035202 0.0040174075 -0.0057132966 0.013476934 0.006873527 0.0039858357 0.0034651696
-0.008706157 0.032762516 -0.15051012 0.04923767 0.0019197897 0.0033105055 -0.05265256 -0.06924609

action_model._continuous_distribution.mu.bias f4 [2]
00000000: d4b3 783f a3bb f7bc
0.97149396 -0.03024084

action_model._discrete_distribution.branches.0.weight f4 [1, 128]
00000000: 1399 e1ba db53 69bc 6d47 6ebb bb64 edbb
00000010: 9b07 99bc 70f1 8a3c 31e6 8db9 2ad3 5fbc
00000020: dadd 4fbc 655b 7bb9 f1b9 3d3c 77a4 32bc
00000030: 804c 343a ae15 82ba 5d72 67bc 590d 33bc
00000040: bb23 bd3a 7345 d4bb 15cc a33b 79f3 c13b
00000050: cf3f 7ebb aaf5 fc3b 6726 f83b 3f80 1abc
00000060: 0e7f aabb 8d84 aa3b 733c 9cbb fe9d 393c
00000070: c091 503a fff8 633c 07f9 2abc 2d70 373c
00000080: 463d a83b bbbe 28bc 715f 32bb 050f 5ebb
00000090: 1dbe bcbb 1898 58bb 4b59 a9b9 da1e 77bb
000000a0: 2328 78bb 9d13 e7bb b36e c73c 59d9 b6ba
000000b0: 8f15 3b3b aed5 1abc cb5f 1abc 9352 303c
000000c0: 6ba1 5bbc 0ac5 ec3b 5d81 dcbb 368a 843b
000000d0: 7416 c73a 0a83 733c c30f 3abc 5407 2f3a
000000e0: 18e3 00bb 0bbf 98bb 22c5 d3bb 7fce 3eba
000000f0: 4856 843a 3bd5 ed3a bfa6 5f3c 41c3 973b
00000100: d81d 7bb9 2b1f f8bb 382d 9cbb fb13 56bb
00000110: 4503 d83b 9f54 893b ea8c 79bc 485b ee3b
00000120: 15b5 86ba 41a3 05bb 22f9 d3bb e21b 22bb
00000130: 2db2 31bc 1892 493c 6802 033b 3fa0 013c
00000140: 32f3 cfbb 581a f5bb 0461 2f3c cb6b e93b
00000150: b7a3 033c 2952 21bc 3385 023b 5f5a beba
00000160: 3b80 2cbc fa0c 543b 3329 a6bb 5afb 803c
00000170: dbda c8bb a031 513b 8fe9 acbb 9ba0 fc3a
00000180: 4bf4 1e3b 3221 2c3c b009 80bc 84e6 a73c
00000190: 2a7d e6bb 4be2 98ba 5530 39bc f62b 1e3b
000001a0: 3791 2bbb 5a04 23bc b5c7 ec3b af32 b43c
000001b0: 0627 033c 83d8 8c3b e21e b1bb b5c4 6e3c
000001c0: db16 17bc 13a4 37ba f1cd b3ba 65ad 65bc
000001d0: 8bb4 473b de3b 993b 6ad1 02b9 26a0 9bbb
000001e0: dc89 aa3c 68db 8e3b d3fb 21bc aba5 303c
000001f0: b3d2 2f3c 08eb d93b 7575 b9bb f812 683c
-0.0017211757 -0.014241184 -0.003635849 -0.007244674 -0.018680384 0.01696083 -0.00027065122 -0.013661185
-0.012687171 -0.00023971272 0.011579976 -0.010903469 0.00068778545 -0.0009924674 -0.014126387 -0.010928475
0.0014430204 -0.0064780056 0.0049986937 0.005918917 -0.0038795357 0.007719715 0.0075729373 -0.00942999
-0.0052031344 0.0052037896 -0.0047679483 0.011329172 0.0007956289 0.013914346 -0.010435349 0.011196178
0.0051342575 -0.01029938 -0.0027217532 -0.0033883464 -0.005759968 -0.003304964 -0.0003230072 -0.0037707598
-0.003786572 -0.0070518986 0.024344778 -0.0013950273 0.0028546785 -0.009450359 -0.009422253 0.010761875
-0.013405184 0.0072256373 -0.0067292885 0.0040447963 0.0015189187 0.014862785 -0.011356297 0.0006676812
-0.0019666608 -0.004661446 -0.006462709 -0.0007278695 0.0010096515 0.0018145213 0.013650595 0.0046314304
-0.00023948343 -0.007572075 -0.0047661327 -0.0032665718 0.0065921866 0.004190996 -0.01523135 0.007274065
-0.0010277355 -0.0020391496 -0.006468908 -0.0024735858 -0.010845703 0.012302898 0.0019990448 0.007911741
-0.00634613 -0.007479947 0.010704283 0.0071234456 0.008034638 -0.009846249 0.0019915819 -0.0014522782
-0.010528619 0.0032356367 -0.0050708293 0.015744854 -0.006129605 0.0031920448 -0.005276866 0.0019273938
0.0024254497 0.010505961 -0.01562962 0.02049566 -0.0070339637 -0.001166412 -0.011303027 0.002413509
-0.0026179084 -0.009949768 0.0072259554 0.021996824 0.008004909 0.004298271 -0.005405293 0.014573266
-0.009221758 -0.0007005345 -0.0013717992 -0.014018391 0.0030472602 0.004676326 -0.00012475779 -0.004749316
0.02081769 0.0043596514 -0.0098867 0.010781686 0.010731387 0.0066503324 -0.005659754 0.014164679

exp_avg f4 [128, 27]
00000000: fd61 4019 143c 90a6 0eca 6289 a43d ae25
00000010: 0306 0000 52ca b1a3 96da 4002 152a 5c26
00000020: 960a 0080 f35f b925 60a6 2524 cceb 8026
00000030: 60a6 2524 cceb 8026 f864 c8a9 891e 0726
00000040: 2b72 29aa acc0 74a0 bd05 85a6 cbfd 299f
00000050: fde9 7f26 c61a 0624 2350 3424 fd6d 3fa3
00000060: 6ce5 31a3 e837 9422 ea97 93a3 8e3f cf37
00000070: ef50 0139 ebb7 7f38 14b2 7839 b882 6938
00000080: 8c8b dc38 ec6c 9c37 10c4 8c39 3d01 1038
00000090: 70cc f938 ba50 b339 5cb5 1639 ba50 b339
000000a0: 5eb5 1639 fa32 70be 49c5 aa39 3f7a adbd
000000b0: 0200 bfb3 11da e9b9 4260 bbb5 3167 d039
000000c0: 2492 a0b5 e684 58b8 1ffd 34b6 72b2 e8b5
000000d0: 14bb 4934 c136 9234 a9e2 5f39 5b42 283a
000000e0: 1957 e738 fc3b 133a f9b7 b139 d271 fb39
000000f0: f4c0 ab39 3a3a 1f3a 85ef 0f39 259d cb39
00000100: b814 d938 e882 af39 b814 d938 e482 af39
00000110: 9e82 b3be 6bb5 0a3d 9716 17be 24bf f1b7
00000120: 4340 39ba 076e 8237 93f5 1d3a 2222 95b3
00000130: 021f cbb8 e42b 2136 5b20 0c36 80fa d6b4
00000140: f6ac 0235 9f49 62b9 fc00 0eb9 89ca fbb8
00000150: f022 98b8 ad23 1db9 86d3 0eb9 f435 0cb9
00000160: 3a98 b3b8 0a79 5db9 3f39 27b9 9218 69b9
00000170: 02de 11b9 9218 69b9 02de 11b9 e8ae 373e
00000180: 345b 7bbd 24b6 073d c8ca 69b7 0245 50b9
00000190: 4f79 8036 ddde 3039 a60f 3b35 8e39 2b39
000001a0: 48b2 35b4 cd85 04b4 f23d b1b2 a994 f0b4
000001b0: f531 03b9 1ce9 b2b9 af31 14b9 0c0e 45b9
000001c0: 0ef8 5939 a557 0a39 1227 4739 4263 57b8
000001d0: 6f85 7eb8 d897 66b8 c94d 28b9 dd5f 1ab9
000001e0: c94d 28b9 d55f 1ab9 3215 0bbc b5a1 e2bc
000001f0: 19dd a73c 04d0 9837 ab27 9938 10a1 58b7
00000200: 7927 74b8 f735 8136 d09c 1438 d5f1 02b7
00000210: 6e2c c6b6 ced8 5bb4 021f 57b6 09b3 6bb9
00000220: c9ff 69ba f6ae dcb8 1561 2eba bab6 04b9
00000230: e78f b1b9 dc57 0cb9 8cb4 1fba 8b64 d2b8
00000240: a529 b8b9 8312 14b9 a4df d3b9 8312 14b9
00000250: 9edf d3b9 2f5c 953e e7ed febc ee00 233e
00000260: c9f7 efb6 3452 3c3a 3a4c 57b6 dfda 2bba
00000270: 2f86 9736 4292 8f38 78f9 07b7 df3c deb6
00000280: 39d1 af34 256b 81b6 6416 a739 f378 283a
00000290: 3483 a539 1404 0c3a bb59 a139 4272 d839
000002a0: 95e8 af39 49c6 fd39 6fc1 9539 09ea c839
000002b0: fa8b cd39 1247 083a fa8b cd39 1147 083a
000002c0: 2fa6 c7be dd0a b13d c4cd 09be 3d73 5536
000002d0: 13ad 92b9 3df7 7236 4f78 8739 fc61 53b6
000002e0: f542 62b9 0965 ca36 b61e a536 f370 dbb4
000002f0: 8635 4736 04c3 9b8d 52f9 8ea1 0400 0000
00000300: fd46 06a1 0400 0000 4f5d 48a1 0400 0000
00000310: 71aa b4a0 0400 0080 6ba7 54a1 905f 3d99
00000320: 3f5c 8aa1 905f 3d99 3f5c 8aa1 1287 b824
00000330: ecfe 19a1 45dc 1b25 903b cc9b 85f0 7421
00000340: 7471 4f1c a035 6ba1 902a ab1f eade 0220
00000350: e831 8d9f 5ab6 899f 4283 7f1e 3a1f 9d9f
00000360: ff32 bbb9 01e1 1dba 9c74 8db9 2061 1bba
00000370: 1182 b0b9 329f edb9 ca29 abb9 f1c6 0fba
00000380: e0c2 a0b9 2447 d9b9 1830 95b9 8d0b ddb9
00000390: 1830 95b9 8f0b ddb9 85cc 0e3f a32e a6bd
000003a0: 93e9 343e 7b5b 3bb8 9d52 c639 8ed0 cb37
000003b0: c5c7 d2b9 f853 5936 c47b 8e39 0a59 a635
000003c0: f072 d734 7ab7 a8b2 72c1 f5b5 eff4 2436
000003d0: 0617 3738 4c69 a7b0 e741 9638 6ea8 9f25
000003e0: e75a 2238 7383 07a9 076f 2838 2484 33a5
000003f0: 426f 0238 1001 e0b8 e306 2fb8 1001 e0b8
9.945956e-24 -1.0008291e-15 -2.7298766e-33 3.0225958e-16 2.157e-42 -1.9276064e-17 1.4168663e-37 7.6384865e-16
-3.798e-42 3.2157402e-16 3.5919597e-17 8.945697e-16 3.5919597e-17 8.945697e-16 -8.8992995e-14 4.6878917e-16
-1.5049825e-13 -2.0731354e-19 -9.230284e-16 -3.5997075e-20 8.878801e-16 2.9079296e-17 3.9099157e-17 -1.0377422e-17
-9.643771e-18 4.0174673e-18 -1.600211e-17 2.4705918e-05 0.00012332549 6.0968025e-05 0.00023717462 5.567327e-05
0.0001051641 1.864737e-05 0.0002684896 3.433343e-05 0.00011911325 0.00034201687 0.00014372676 0.00034201687
0.0001437268 -0.23456946 0.00032571916 -0.08470582 -8.894132e-08 -0.00044603695 -1.39606e-06 0.00039749735
-1.1963461e-06 -5.1622184e-05 -2.6969426e-06 -1.7337281e-06 1.8787642e-07 2.7234458e-07 0.00021351375 0.0006418579
0.000110311616 0.00056165433 0.0003389714 0.00047959253 0.00032759423 0.0006074045 0.0001372677 0.0003883626
0.000103512255 0.00033476134 0.000103512255 0.00033476122 -0.3506059 0.03386442 -0.14754711 -2.8818446e-05
-0.00070667657 1.5548443e-05 0.0006025668 -6.944562e-08 -9.68557e-05 2.4016417e-06 2.088046e-06 -4.004287e-07
4.8680465e-07 -0.00021580466 -0.00013542542 -0.00012006338 -7.2544324e-05 -0.00014985977 -0.00013620974 -0.0001337154
-8.5637395e-05 -0.00021121293 -0.00015947687 -0.00022229765 -0.00013910982 -0.00022229765 -0.00013910982 0.17937815
-0.061366275 0.033132687 -1.3935096e-05 -0.00019862133 3.8288194e-06 0.00016867691 6.96857e-07 0.00016329272
-1.6921797e-07 -1.2342134e-07 -2.0633681e-08 -4.4811648e-07 -0.00012511744 -0.00034124486 -0.00014132888 -0.00018792617
0.0002078714 0.00013193356 0.00018992674 -5.1352436e-05 -6.068259e-05 -5.497769e-05 -0.00016050706 -0.00014722296
-0.00016050706 -0.00014722285 -0.00848894 -0.027664999 0.02049117 1.8216677e-05 7.302997e-05 -1.2912104e-05
-5.8210895e-05 3.850782e-06 3.5431993e-05 -7.80491e-06 -5.906032e-06 -2.0474837e-07 -3.2055545e-06 -0.00022478042
-0.00089263596 -0.000105230065 -0.00066520396 -0.00012656572 -0.00033867286 -0.0001338417 -0.0006092272 -0.00010032308
-0.00035126242 -0.00014121276 -0.0004041168 -0.00014121276 -0.00040411664 0.29171893 -0.0311193 0.15918323
-7.151601e-06 0.000718388 -3.2081866e-06 -0.00065557467 4.5157717e-06 6.846014e-05 -8.104711e-06 -6.623202e-06
3.274852e-07 -3.856973e-06 0.00031869404 0.0006426714 0.00031569006 0.0005341184 0.00030775167 0.0004128386
0.00033551888 0.00048403654 0.00028563614 0.00038321342 0.00039204938 0.00051985786 0.00039204938 0.0005198578
-0.38993976 0.0864465 -0.134574 3.180655e-06 -0.0002797624 3.6204722e-06 0.00025838843 -3.1498485e-06
-0.00021577983 6.031831e-06 4.9209584e-06 -4.087411e-07 2.9684466e-06 -9.599561e-31 -9.688289e-19 6e-45
-4.549492e-19 6e-45 -6.788613e-19 6e-45 -3.0605975e-19 -6e-45 -7.204997e-19 -9.79037e-24
-9.375661e-19 -9.79037e-24 -9.375661e-19 8.00261e-17 -5.2175803e-19 1.3518737e-16 -3.378746e-22 8.298874e-19
6.863719e-22 -7.969207e-19 7.249173e-20 1.1085184e-19 -5.9798386e-20 -5.832343e-20 1.3526731e-20 -6.6543746e-20
-0.00035705414 -0.0006022603 -0.00026980496 -0.00059272535 -0.00033666243 -0.00045322772 -0.00032646797 -0.00054846617
-0.0003066277 -0.0004144247 -0.00028455327 -0.0004216101 -0.00028455327 -0.00042161017 0.5578082 -0.08114364
0.17667226 -4.4669472e-05 0.00037827055 2.4296602e-05 -0.0004020316 3.2384396e-06 0.00027176563 1.2393878e-06
4.01305e-07 -1.964121e-08 -1.8310222e-06 2.4580474e-06 4.3652042e-05 -1.2180776e-09 7.164833e-05 2.7696236e-16
3.870847e-05 -3.0090036e-14 4.0157724e-05 -1.5570546e-16 3.1098032e-05 -0.0001068135 -4.1729665e-05 -0.0001068135

exp_avg_sq f4 [128, 27]
00000000: 8bff 952e 1196 e42e 46d0 c62c 30ef 792e
00000010: 6015 2c2e d2b8 052f fd0c a02c 6d5b 682e
00000020: c46c 162d 59c5 c72e 9f9f f52e ef74 072f
00000030: 9f9f f52e e974 072f 90a5 013a e65d d131
00000040: d58a 9d39 6ff4 4429 a5f0 c22e 42f5 b42a
00000050: 051c ed2f c8c7 282a 3aa6 a02e ebf9 8d29
00000060: 7988 4129 b4c2 c026 6f27 b729 ec90 2635
00000070: 039e 3136 3f5b c134 5ec3 2536 c24e aa35
00000080: e5fc 1f36 6695 0935 eb44 8336 650a 6834
00000090: e48b 4d35 4b8b 8d35 4be9 a336 4b8b 8d35
000000a0: 51e9 a336 a1f8 cc40 9140 443a d86c 233f
000000b0: a0ad 5932 6b91 3d37 9c5f 7a31 e54d e636
000000c0: e998 4331 e445 3534 3194 5631 ade1 e931
000000d0: 9d66 4330 ab30 9b31 1bfe 6a35 3eaf e537
000000e0: 3ca0 a834 aafb 4a37 f838 e934 4af6 8f36
000000f0: bec4 bf34 5b39 3537 8bd4 a134 33a4 8536
00000100: c418 b836 dbcd 8537 c418 b836 d9cd 8537
00000110: 5f55 5b41 4165 4d3c 1bdd 6e41 94b6 de32
00000120: b73e 1d38 c224 8932 3c46 f437 a564 d831
00000130: e719 8034 e867 a631 42f1 ba31 937d a02f
00000140: 612c 9831 e8b5 0935 6108 5d35 a352 e634
00000150: f848 1535 03fe 0a35 3184 5135 b540 ec34
00000160: 6021 3035 f502 e034 cb60 fb34 24b5 fd34
00000170: d20d 8235 24b5 fd34 da0d 8235 704b 9e3f
00000180: 04d2 073d 99fd 9a3d ff25 e932 7a6b 9835
00000190: 6611 da32 3c97 6335 08ca 1630 77c9 8e34
000001a0: 134a 4430 2fec 4330 dbee 842e 44e4 d42f
000001b0: dcec 5b35 ede3 1637 afd3 a334 eeec d136
000001c0: 051a 3f35 4a92 6836 9c0d e634 4d76 db36
000001d0: 3179 8034 e55e 2f36 0047 f635 3162 4137
000001e0: fe46 f635 3162 4137 47ad 9b41 4880 d63b
000001f0: 0a5c e541 d66e e532 69d5 1338 83d7 0c32
00000200: 2f60 ac37 d29c 1e32 9c77 6b34 2705 d331
00000210: 4501 0e32 cd55 e92f c422 ff31 b848 8035
00000220: eac1 0b38 e0e6 0e35 c6f3 4b37 c5ff 4b35
00000230: 1a19 a636 b635 2335 fa0e 5537 957e 0335
00000240: 8a22 a436 1b7a c736 b6ab 8f37 1b7a c736
00000250: b6ab 8f37 1625 4141 53d8 be3c 1313 4c41
00000260: 9f7c 0f33 20aa 2138 0192 ae31 8db4 0238
00000270: 9646 b331 97df bc34 0108 9d31 401d ce31
00000280: 7e5a 612f bbd2 9931 c07a b536 9781 8b37
00000290: ef76 d635 809c 0137 a2e0 0c36 e3d7 2637
000002a0: b941 ee35 6bd2 1a37 f90e bc35 fd06 8736
000002b0: 6605 c636 c25b c737 6405 c636 ba5b c737
000002c0: f77d 1c42 c296 ae3d c91f c241 35b7 0b34
000002d0: 3bc5 6b38 7714 c533 d01c ec37 7101 ca32
000002e0: 9c4d 9735 6259 b532 f683 b332 8dc3 2530
000002f0: 5eb2 7f32 ee22 de2d 28d9 8d2e 99ad 712d
00000300: bbe9 812e 6755 9e2d 0cd4 912e fdb8 462d
00000310: ef26 7d2e 16c1 8d2d 802c 812e 8a1c 0b2e
00000320: 071b 3c2e 8a1c 0b2e 071b 3c2e 1db2 273a
00000330: 79ce 2632 69ed d639 65d7 9a28 8521 bb2e
00000340: a7bd 032b 4f40 1230 79ad 7d2a 3520 d02d
00000350: 92a8 e628 50fd 9a28 bf34 0327 88d5 0a2a
00000360: 49fb f035 64f7 0f37 9136 b335 0f46 d436
00000370: 9992 2136 ac0f 9736 a8c9 cc35 c4ce e336
00000380: dbfd 9835 183b 3336 f1d2 fd35 cfbf 2037
00000390: f5d2 fd35 e6bf 2037 9830 8142 c6fb 903d
000003a0: 2333 d542 cd20 0434 c4ca a438 bcbe 9733
000003b0: f107 0638 c32a d932 9970 6835 33a9 4732
000003c0: d769 9032 6aea b730 3d14 a632 4ae8 7232
000003d0: a054 7135 bc94 6b31 df8f e235 7a74 bb31
000003e0: 0507 0835 246c 8231 6589 ce35 bd24 de31
000003f0: f0ec 3235 a440 4b36 db21 9f36 a440 4b36
6.821129e-11 1.0394897e-10 5.6506215e-12 5.6828486e-11 3.9127257e-11 1.2161941e-10 4.5489155e-12 5.2831895e-11
8.550664e-12 9.084528e-11 1.11696645e-10 1.2319722e-10 1.11696645e-10 1.2319713e-10 0.000494563 6.0933756e-09
0.00030048811 4.3732755e-14 8.864846e-11 3.2144605e-13 4.3129958e-10 1.499071e-13 7.3054854e-11 6.305012e-14
4.297298e-14 1.3375451e-15 8.133673e-14 6.205071e-07 2.646703e-06 3.6015442e-07 2.4700635e-06 1.2688909e-06
2.384005e-06 5.125388e-07 3.9121273e-06 2.1610465e-07 7.657202e-07 1.0545858e-06 4.8849374e-06 1.0545858e-06
4.88494e-06 6.40535 0.0007486428 0.6383796 1.267054e-08 1.1299136e-05 3.6434136e-09 6.8636023e-06
2.8463154e-09 1.6882365e-07 3.1225336e-09 6.806849e-09 7.108641e-10 4.5166266e-09 8.7541565e-07 2.738053e-05
3.1409024e-07 1.2098733e-05 4.3441082e-07 4.290404e-06 3.571967e-07 1.0801795e-05 3.0143232e-07 3.982824e-06
5.4865104e-06 1.5950694e-05 5.4865104e-06 1.595069e-05 13.708343 0.012536348 14.928981 2.5927228e-08
3.7490125e-05 1.5965615e-08 2.9119772e-05 6.2978693e-09 2.3860704e-07 4.8430486e-09 5.4407403e-09 2.9193056e-10
4.4288275e-09 5.1301186e-07 8.234111e-07 4.2900965e-07 5.561301e-07 5.177864e-07 7.805093e-07 4.4005506e-07
6.5613676e-07 4.1725403e-07 4.682282e-07 4.725672e-07 9.689777e-07 4.725672e-07 9.689786e-07 1.2366772
0.03315927 0.07567901 2.7142049e-08 1.1356162e-06 2.5386452e-08 8.4784165e-07 5.4856786e-10 2.6596146e-07
7.140965e-10 7.1276224e-10 6.045094e-11 3.8724768e-10 8.1928533e-07 8.993765e-06 3.0515136e-07 6.2562676e-06
7.119091e-07 3.4655845e-06 4.285074e-07 6.5404806e-06 2.3930036e-07 2.6132268e-06 1.8349092e-06 1.1526558e-05
1.834909e-06 1.1526558e-05 19.459608 0.006546054 28.66994 2.6709511e-08 3.5246285e-05 8.198074e-09
2.0548787e-05 9.232467e-09 2.1929594e-07 6.141494e-09 8.2657765e-09 4.2443418e-10 7.425429e-09 9.557907e-07
3.332078e-05 5.323509e-07 1.2156501e-05 7.5995587e-07 4.9501077e-06 6.080039e-07 1.2699276e-05 4.8985504e-07
4.8916017e-06 5.944877e-06 1.7126888e-05 5.944877e-06 1.7126888e-05 12.071554 0.02329651 12.754657
3.3408124e-08 3.8543832e-05 5.080665e-09 3.1162566e-05 5.2176103e-09 3.5180412e-07 4.5702113e-09 5.9987144e-09
2.049578e-10 4.4768433e-09 5.4085103e-06 1.6630436e-05 1.5978857e-06 7.725437e-06 2.099238e-06 9.944636e-06
1.775151e-06 9.228107e-06 1.4011449e-06 4.024127e-06 5.9014883e-06 2.3765377e-05 5.9014874e-06 2.3765362e-05
39.123013 0.085248485 24.26552 1.3012034e-07 5.621205e-05 9.17725e-08 2.814681e-05 2.351655e-08
1.1272964e-06 2.111182e-08 2.0898351e-08 6.0304545e-10 1.48835095e-08 2.525399e-11 6.450512e-11 1.373781e-11
5.90776e-11 1.8000447e-11 6.631504e-11 1.1296073e-11 5.756012e-11 1.6115592e-11 5.8741456e-11 3.163029e-11
4.2770256e-11 3.163029e-11 4.2770256e-11 0.00063970854 9.709418e-09 0.00040994145 1.7190847e-14 8.50973e-11
4.6803745e-13 5.320588e-10 2.25311e-13 2.3661165e-11 2.5608235e-14 1.7207291e-14 1.8208496e-15 1.2330946e-13
1.7954527e-06 8.581064e-06 1.335242e-06 6.3262482e-06 2.40762e-06 4.501975e-06 1.5257874e-06 6.789198e-06
1.1398764e-06 2.6707476e-06 1.8911361e-06 9.581402e-06 1.8911365e-06 9.581423e-06 64.59491 0.07079272
106.59988 1.2305391e-07 7.8578974e-05 7.06618e-08 3.1955486e-05 2.528157e-08 8.6590586e-07 1.1621796e-08
1.6811937e-08 1.3381627e-09 1.9334147e-08 1.413907e-08 8.990264e-07 3.4281546e-09 1.6880184e-06 5.455658e-09
5.067416e-07 3.795792e-09 1.5388183e-06 6.465227e-09 6.6654957e-07 3.0286983e-06 4.7425106e-06 3.0286983e-06

exp_avg f4 [128]
00000000: e899 b826 d7a0 1c3a 8449 7f3a 9a4a 0b37
00000010: 29bf 17b9 7843 90ba 907d 353a 88cf a9a1
00000020: e1e4 78ba 5299 1c39 da2d d323 8823 fa39
00000030: 40a8 0fb9 0e56 f0b9 c338 03ba 726c 013a
00000040: afbc 0835 b2f8 56b9 1415 e138 4989 a738
00000050: e18c 3eb4 5af6 d039 a184 433a 0050 edb9
00000060: 77a4 19a3 9e35 fbb9 3254 553a 2c39 fdb9
00000070: 9a22 6ab9 c22e 93b7 0a9e 2839 a2b8 d6b8
00000080: cf48 723a 598f 3c3a bf14 a5b7 ad6e d239
00000090: f4e3 0f3a ed09 4a9f ffaa a339 cb32 85ba
000000a0: ae54 2239 7adc 9432 904f 1739 c84a f71b
000000b0: 916a 49b9 540b 7ba8 6709 2f39 212f a3b8
000000c0: 958c 0d03 1790 0539 87d2 1239 e783 99b9
000000d0: 718b 7a39 0df5 493a c2c9 30b3 df47 1ab9
000000e0: fa71 05b9 cf41 87a2 17c6 303b dd92 b0b9
000000f0: df9e 2c25 d79a 9739 259a 79b9 7256 88ba
00000100: 37d3 e9a7 f4c8 56b9 890b 5a16 ddf8 2d38
00000110: c85f 2db8 8684 fd39 f441 3cad e0af 42b7
00000120: b92e c4b9 9a68 313a f6b6 5039 67fe dab9
00000130: 3140 c439 684f 123a 4b04 44ba e816 0000
00000140: 2cc8 b53a 2931 8d39 2e6b 61b9 2537 32b8
00000150: 42c9 6a38 7093 e3b9 d51a 4d3a e757 a5b0
00000160: d078 1f36 6cd8 6339 2622 fa38 c261 d233
00000170: 2037 1028 e2a8 87a1 726d 0622 32ab c2b8
00000180: 1c93 d187 1407 98b9 c6bc bab9 a429 adb9
00000190: a3e2 f4b8 c564 623a 64c3 289f 5740 3239
000001a0: 39a9 8690 bf3d f837 7663 c039 c33c 553a
000001b0: 994c 9aba 98fb a7b9 1cbe 5a25 c409 09ba
000001c0: 7480 f939 f6e1 25ba 8d1e c6b8 08da 4d3b
000001d0: 6493 b739 8ae3 fbb8 aba5 002d 66e1 c9a4
000001e0: b7ac 4338 056d 9839 b93f 7bb0 be0e 093a
000001f0: d70a 23ac 4ed2 db39 310a 933a a7b9 bf99
1.2809281e-15 0.0005974895 0.0009738433 8.302415e-06 -0.00014471695 -0.0011006435 0.00069233123 -1.1506819e-18
-0.0009494555 0.00014934436 2.2896085e-17 0.0004771019 -0.00013700221 -0.00045840483 -0.00050057116 0.0004937119
5.093852e-07 -0.00020501277 0.00010732762 7.988752e-05 -1.774638e-07 0.00039856398 0.0007458423 -0.00045263767
-8.328973e-18 -0.000479144 0.0008137851 -0.00048298517 -0.00022328869 -1.7545539e-05 0.00016080603 -0.00010238706
0.00092424167 0.00071929913 -1.9679193e-05 0.0004013678 0.0005488985 -4.2783374e-20 0.00031217185 -0.0010162232
0.0001548107 1.7329729e-08 0.00014430122 4.0911049e-22 -0.00019208553 -1.3935755e-14 0.00016692803 -7.781224e-05
4.1597556e-37 0.00012737546 0.00014002073 -0.0002928071 0.00023893804 0.0007704057 -4.116169e-08 -0.00014713359
-0.00012726328 -3.66615e-18 0.002697354 -0.00033678758 1.497245e-16 0.0002891633 -0.00023803914 -0.0010401739
-6.489949e-15 -0.00020483491 1.761354e-25 4.1478186e-05 -4.1335617e-05 0.00048354658 -1.0701207e-11 -1.160425e-05
-0.00037418844 0.0006767601 0.00019904584 -0.00041769745 0.0003743186 0.00055812905 -0.00074774463 8.217e-42
0.001386886 0.00026930243 -0.000214976 -4.2489864e-05 5.5977383e-05 -0.00043406663 0.00078241277 -1.2030313e-09
2.3763168e-06 0.0002172903 0.000119272896 9.796669e-08 8.005559e-15 -9.192659e-19 1.8218326e-18 -9.2825285e-05
-3.1533288e-34 -0.00028996973 -0.00035617332 -0.00033028156 -0.00011677041 0.00086362317 -3.5737007e-20 0.00016999371
-5.311441e-29 2.9592657e-05 0.00036695198 0.00081343594 -0.0011772095 -0.00032040174 1.8972897e-16 -0.00052275904
0.00047588686 -0.00063279213 -9.447066e-05 0.0031410474 0.00035014295 -0.00012010995 7.312743e-12 -8.7551694e-17
4.6652476e-05 0.00029072925 -9.1403823e-10 0.0005228332 -2.316971e-12 0.00041927624 0.0011218247 -1.9823922e-23

exp_avg_sq f4 [128]
00000000: 6f30 0f30 6419 9a37 3d1c 8d38 4d44 0d36
00000010: 4471 6d38 4c4d 9338 4c90 b538 76b0 2930
00000020: 65ea ea38 4b9d 5037 1f0d 922f 9808 bc38
00000030: 6a26 cf37 a686 3838 972f 2238 1a11 4638
00000040: 287c d537 723c 3838 01f7 0f38 48e5 9e37
00000050: a5d7 a436 23a2 6038 0d29 6b38 3c46 c637
00000060: 929e 4530 1542 4d38 5c81 0239 e7cd f937
00000070: 222c 6738 bc56 a738 f6f2 9237 1228 f437
00000080: ab9a 2338 3e51 a638 a03e 8f38 4d23 6b38
00000090: 44b9 1d38 5600 292f 2ad9 2c38 88fd 1d38
000000a0: 20b8 f836 c061 1435 4fad 1338 b07d 1530
000000b0: a2db fb36 6eca 6d30 2c20 5038 ebaf 8e39
000000c0: 3159 2030 99bd 5139 19d3 4537 4ba3 c637
000000d0: b26a c434 177c fd37 9cc3 1731 a89d 8939
000000e0: 126d b938 ba28 ad31 3aa7 943a 8fa1 b338
000000f0: 5489 8c30 1f48 7f38 e73e 9636 8c5d bb38
00000100: 531a 3e31 0f8d dd37 26b6 4531 995e cb36
00000110: 22ce 8538 a4ec c537 7932 d532 1acd d634
00000120: 9ba8 3f38 bdec d536 5dfb 0e37 1aac fb37
00000130: a93c 8b35 6551 9336 bcb3 c838 a53f 5230
00000140: 1681 2b38 7a79 6038 fd1d 4337 113b bc37
00000150: 5846 8037 be11 7f39 1770 8b39 5af7 1c32
00000160: faaf 8337 3cc8 e638 fdec f838 7055 9334
00000170: 339b ea30 3815 8831 78c7 e72f b73b b637
00000180: 34a1 3c30 8cb6 5138 17d7 2f38 ba15 9738
00000190: 4741 8635 c040 8a37 e86a 1e2d 148c 9a36
000001a0: 5db1 cd31 d27d 5838 bc18 4637 667a 8638
000001b0: 2e87 1639 1779 b638 0bad 5a31 3be2 b038
000001c0: 0e2d 9039 5f0a 4638 2621 5b37 0108 543a
000001d0: 1499 9338 8c4a af38 38c6 a831 afd7 1130
000001e0: b28f fb38 89fc 1f38 7750 ca38 d8d6 0836
000001f0: 8d58 8531 3352 a837 ac1a 6238 0b71 0e31
5.2091925e-10 1.8370054e-05 6.728664e-05 2.1050394e-06 5.661069e-05 7.023904e-05 8.65763e-05 6.173261e-10
0.00011201649 1.2434389e-05 2.6566568e-10 8.966139e-05 2.469421e-05 4.399442e-05 3.866813e-05 4.7222806e-05
2.5449393e-05 4.3925313e-05 3.4323897e-05 1.8941835e-05 4.912685e-06 5.3556763e-05 5.6066598e-05 2.3636145e-05
7.1893524e-10 4.8937352e-05 0.00012445956 2.9778994e-05 5.5115794e-05 7.979336e-05 1.7517694e-05 2.9105726e-05
3.9006274e-05 7.930629e-05 6.830436e-05 5.6061243e-05 3.760426e-05 1.537058e-10 4.1210245e-05 3.7667836e-05
7.412411e-06 5.527654e-07 3.5208937e-05 5.4384497e-10 7.5059515e-06 8.650777e-10 4.9621027e-05 0.0002721542
5.833441e-10 0.00020002424 1.1791265e-05 2.3679479e-05 3.6585476e-07 3.0217734e-05 2.2084583e-09 0.0002624814
8.841803e-05 5.0395927e-09 0.0011341341 8.565478e-05 1.0225372e-09 6.0863906e-05 4.477671e-06 8.934279e-05
2.7663603e-09 2.6410939e-05 2.8770812e-09 6.060884e-06 6.3803294e-05 2.3594424e-05 2.4819416e-08 4.0009837e-07
4.5694975e-05 6.3754546e-06 8.522385e-06 3.0001673e-05 1.0373961e-06 4.390417e-06 9.570221e-05 7.6488e-10
4.0889798e-05 5.3518896e-05 1.1629888e-05 2.2438851e-05 1.5291545e-05 0.00024325305 0.0002659566 9.136636e-09
1.5698362e-05 0.00011004551 0.00011869704 2.7443048e-07 1.7069851e-09 3.9605332e-09 4.2160386e-10 2.1723898e-05
6.8623085e-10 4.9999493e-05 4.192357e-05 7.204288e-05 1.0002776e-06 1.6481034e-05 9.004998e-12 4.605865e-06
5.986449e-09 5.1615592e-05 1.1807479e-05 6.4124164e-05 0.00014355473 8.700991e-05 3.1821539e-09 8.434473e-05
0.0002749939 4.7216537e-05 1.3061135e-05 0.0008088351 7.038019e-05 8.358536e-05 4.9119784e-09 5.30572e-10
0.00011995378 3.8143746e-05 9.647098e-05 2.0390635e-06 3.8808765e-09 2.0065438e-05 5.390744e-05 2.0727977e-09
