results/mimicagentraysfinal/RaceCar/RaceCar-25820.pt (torch, 594095 bytes, 47 tensors)

network_body._body_endoder.seq_layers.0.weight f4 [128, 27]
0.25920746 0.14583759 0.04699829 -0.21874776 -0.010088737 0.005145077 0.19804908 0.0034141776
0.1970224 0.2587066 0.0072504384 -0.07452671 0.08908689 -0.12282676 -0.026836477 -0.15706773
-0.27206695 0.14356273 0.19060664 0.123565085 -0.21128684 -0.3586409 0.03938833 0.19356872
0.06805482 -0.027219191 0.50721335 0.36177117 -0.15411222 0.068795025 0.12740281 -0.03516795
-0.15805505 -0.07679933 0.3367613 -0.35355198 0.37724003 0.40769768 -0.21199766 -0.022003075
0.15304916 0.1859434 -0.034985833 -0.15216576 0.11110381 0.13089415 0.14882699 -0.17242683
-0.060415026 0.022061588 0.12518781 -0.024832798 0.021829864 0.18419571 -0.3007029 0.08592134
-0.23016936 0.066577904 0.17706154 -0.06263857 0.054186255 -0.0077393083 0.24352747 -0.3051082
0.07583741 -0.09380457 0.435835 0.0219343 0.21028854 0.2158842 0.04969362 0.09541176
-0.119632214 0.14768687 0.066366814 0.034107387 0.24717939 -0.033070285 0.1355019 -0.22407255
0.058982532 -0.075940356 0.11359768 -0.20094474 0.44948494 -0.015843611 0.20157082 -0.33187786
0.13906534 0.102263555 -0.22549878 0.21954608 -0.012737308 -0.02012801 -0.042463683 0.20167445
0.0064385855 0.22836867 -0.075659335 0.4170404 -0.2228238 0.048661526 0.24343777 0.05994436
-0.06153887 -0.15369721 0.047972966 0.031950742 -0.162942 -0.17141747 -0.056990147 -0.2834532
0.07824141 -0.12946895 0.19507927 -0.056088883 -0.15623839 -0.11894281 0.06428224 0.0857661
-0.32933396 0.2656673 -0.096708804 -0.3306183 0.2928045 -0.027078506 -0.50359976 -0.20339651
0.028004391 -0.23869446 -0.2118101 0.009218849 0.40509018 -0.11860236 -0.31792542 -0.14632843
-0.047991756 -0.07378328 -0.28498936 -0.059098344 0.047051333 -0.013004681 -0.09265292 0.19599292
-0.24139678 0.052911356 0.26223722 0.09817907 -0.12336256 -0.35068175 0.10163028 0.31583217
0.36265114 -0.09180753 0.0115848025 0.26803848 -0.16263777 0.13741362 -0.21374449 0.18026356
0.3696157 0.044134986 0.1274795 -0.2308151 0.21446313 -0.0089584 0.0174609 -0.021637496
-0.17938805 -0.030406537 0.110092685 0.073722795 0.0844232 0.03989517 0.08500544 -0.06577033
-0.2611001 -0.223652 -0.34765986 -0.10402039 -0.100355424 -0.21790166 0.010495628 0.040554054
0.051487256 0.19879118 -0.12639387 -0.22877719 -0.10678878 -0.097349495 -0.22955559 0.37714013
-0.009494162 -0.030335031 0.1360875 -0.18804845 0.11184648 0.22064926 -0.39245304 0.026932597
-0.19433467 -0.06655333 -0.34391874 0.046481855 0.0407576 0.017434983 0.32162002 -0.019725252
-0.24757168 0.26770756 -0.11491143 0.06275928 0.28448328 0.12097361 -0.03456637 0.008183181
0.18531294 0.2976267 0.1567659 0.05671239 0.107155904 0.021224193 0.011362638 -0.023648798
-0.17103034 -0.071007736 0.071508415 0.0587973 0.14492106 0.041644335 -0.18994793 -0.00030690964
-0.10555394 -0.012189839 0.33704692 0.11672263 -0.067454204 0.020046942 0.04029853 -0.16028623
0.15532461 0.050280057 -0.23390515 0.24247728 0.1204779 -0.40338704 -0.06534205 -0.008183887
-0.31956336 0.05043969 -0.023812309 -0.35783088 -0.14263384 0.010547696 0.062575996 -0.3113876
00000000: d7b6 843e 7356 153e 4781 403d 6aff 5fbe
00000010: 3b4b 25bc 0998 a83b 61cd 4a3e 65c0 5f3b
00000020: 3dc0 493e 3175 843e 1695 ed3b 76a1 98bd
00000030: 3073 b63d 998c fbbd 2cd8 dbbc 5dd6 20be
00000040: 5c4c 8bbe 1c02 133e 632e 433e b10f fd3d
00000050: 945b 58be c89f b7be a855 213d e136 463e
00000060: 5360 8b3d c8fa debc bcd8 013f 123a b93e
00000070: 98cf 1dbe 68e4 8c3d e275 023e 450c 10bd
00000080: 2fd9 21be f848 9dbd fa6b ac3e c404 b5be
00000090: 9b25 c13e c0bd d03e ea15 59be cb3f b4bc
000000a0: ebb8 1c3e f267 3e3e 4e4d 0fbd 57d1 1bbe
000000b0: 658a e33d 1e09 063e 1a66 183e a990 30be
000000c0: bf75 77bd 81ba b43c 3c31 003e 276e cbbc
000000d0: 8bd4 b23c cd9d 3c3e bbf5 99be 87f7 af3d
000000e0: 84b1 6bbe ff59 883d 9f4f 353e a748 80bd
000000f0: 68f2 5d3d 069a fdbb 445f 793e 2437 9cbe
00000100: a550 9b3d 9c1c c0bd c425 df3e 90af b33c
00000110: e155 573e bf10 5d3e 8a8b 4b3d 3e67 c33d
00000120: bc01 f5bd 3a3b 173e 53eb 873d 30b4 0b3d
00000130: 981c 7d3e b574 07bd 03c1 0a3e 4673 65be
00000140: ab97 713d 9e86 9bbd e7a5 e83d 75c4 4dbe
00000150: e422 e63e 76ca 81bc 9568 4e3e e5eb a9be
00000160: 2567 0e3e 8e6f d13d 27e9 66be b0d0 603e
00000170: 24b0 50bc 7fe3 a4bc 66ee 2dbd bf83 4e3e
00000180: c5fa d23b 7ad9 693e 48f3 9abd 5286 d53e
00000190: ec2b 64be 4f51 473d c047 793e 3888 753d
000001a0: 2f10 7cbd cd62 1dbe 4d7f 443d c8de 023d
000001b0: 45da 26be 1088 2fbe 806e 69bd c720 91be
000001c0: 083d a03d 8293 04be dcc2 473e 75bd 65bd
000001d0: f5fc 1fbe 4a98 f3bd 68a6 833d 23a6 af3d
000001e0: 769e a8be 8b05 883e 440f c6bd cd46 a9be
000001f0: 79ea 953e bed3 ddbc eaeb 00bf 2d47 50be
00000200: 7769 e53c 526c 74be bfe4 58be a80a 173c
00000210: fb67 cf3e cbe5 f2bd 1fc7 a2be 1fd7 15be
00000220: 0193 44bd b01b 97bd 20ea 91be 1b11 72bd
00000230: e6b8 403d 9611 55bc d0c0 bdbd 5eb2 483e
00000240: b830 77be 94b9 583d f543 863e 1c12 c93d
00000250: 83a5 fcbd 8f8c b3be 8923 d03d c1b4 a13e
00000260: 69ad b93e 9605 bcbd 2fce 3d3c 573c 893e
00000270: 848a 26be 28b6 0c3e d6df 5abe 0397 383e
00000280: 453e bd3e e3c6 343d fc89 023e cb5a 6cbe
00000290: 399c 5b3e 41c6 12bc 290a 8f3c 1e41 b1bc
000002a0: 80b1 37be 2117 f9bc 4678 e13d fafb 963d
000002b0: 12e6 ac3d 1e69 233d 5517 ae3d 98b2 86bd
000002c0: eaae 85be 0805 65be 7900 b2be a408 d5bd
000002d0: 2587 cdbd 9d21 5fbe dbf5 2b3c 021c 263d
000002e0: 4de4 523d ea8f 4b3e 656d 01be 9144 6abe
000002f0: 13b4 dabd 2c5f c7bd 9f10 6bbe 8318 c13e
00000300: 678d 1bbc 2c81 f8bc 865a 0b3e c68f 40be
00000310: c40f e53d e1f1 613e 9bef c8be c0a1 dc3c
00000320: abff 46be 1d4d 88bd 1e16 b0be c263 3e3d
00000330: 71f1 263d cfd3 8e3c 61ab a43e da96 a1bc
00000340: 6e83 7dbe f710 893e af56 ebbd f087 803d
00000350: cba7 913e 03c1 f73d 7795 0dbd c012 063c
00000360: adc2 3d3e 8762 983e 3d87 203e 404b 683d
00000370: 8e74 db3d 5cde ad3c 5c2a 3a3c 20bb c1bc
00000380: 9422 2fbe 816c 91bd 0173 923d 70d5 703d
00000390: 3066 143e 4093 2a3d b681 42be b7e8 a0b9
000003a0: aa2c d8bd e4b7 47bc 6a91 ac3e 460c ef3d
000003b0: 6e25 8abd 7c39 a43c 1210 253d 1322 24be
000003c0: 6a0d 1f3e 76f2 4d3d d584 6fbe f74b 783e
000003d0: 1ebd f63d bf88 cebe 0dd2 85bd b615 06bc
000003e0: cf9d a3be d999 4e3d 0812 c3bc 9c35 b7be
000003f0: 9b0e 12be 3ed0 2c3c d827 803d 326e 9fbe

network_body._body_endoder.seq_layers.0.bias f4 [128]
0.0029709646 -0.0064450223 0.003233549 -0.0022908335 0.004922512 0.004607465 0.0022227578 -0.010213676
0.006263606 -0.011798135 -0.017176382 0.003644427 0.0048620114 -0.017257256 -0.0027683952 -0.0016227302
-0.010261339 0.0037240572 0.0026118911 0.0080592865 0.009819298 0.010979262 -0.010276358 7.341439e-05
-0.0052370722 -0.019528504 0.008857581 -0.005006706 0.006975047 -0.003340811 -0.0112810545 -0.010396041
0.0025504415 0.010112727 0.015207075 0.0030902463 -0.013342334 -0.0094789425 -0.0020324723 0.018072974
-0.0042625177 0.008983634 -0.006282238 0.001171777 -0.0060575795 -0.008366863 0.0040070754 0.009636527
0.00045741748 -0.0018912087 -0.0011108617 0.0033337516 -0.011503643 -0.0020901759 -0.004316082 -0.0019067933
-0.0068222536 0.017642517 0.008951751 0.005196142 -0.0032367092 -0.007100912 -0.015584957 -0.0070852726
0.009953601 -0.01530979 -0.011953487 -0.001431717 0.0068176715 0.0040939674 0.0012911631 -0.008193363
0.002265319 0.0049933055 -0.0073032565 -0.011715263 -0.00844401 -0.013332884 0.0070672673 0.0005058314
0.0034342834 -0.012114907 -0.011477493 -0.0077468846 -0.009432112 0.00011275626 -0.004136637 0.0107554495
-0.0060154623 0.0043923785 -0.004708537 -0.0041759354 0.001988038 0.007890278 -0.0029991588 0.005050936
0.009595587 0.0022213038 0.01041495 0.0053861723 -0.013514104 -0.008290732 0.01744731 -0.00133377
0.0027417536 0.0072384896 -0.0072709224 -0.0026111568 -0.0010624441 -0.0014945017 -0.0069071734 0.0018398567
-0.00097554317 0.057815135 -0.009384545 -0.0040750774 0.016766438 -0.00313751 -0.0009319982 -0.007464493
-0.008379781 0.008740182 -0.017358465 -0.00844891 0.0073283655 0.0018849344 -0.008339181 0.013558889
00000000: 84b4 423b c430 d3bb f3e9 533b cf21 16bb
00000010: 064d a13b 38fa 963b b0ab 113b 4357 27bc
00000020: ef3e cd3b f74c 41bc 7cb5 8cbc 57d7 6e3b
00000030: 8251 9f3b 175f 8dbc f76d 35bb cab1 d4ba
00000040: 2d1f 28bc 500f 743b 432c 2b3b 190b 043c
00000050: 1fe1 203c 5de2 333c 2b5e 28bc 0df6 9938
00000060: bf9b abbb 3efa 9fbc 631f 113c 4b0f a4bb
00000070: ef8e e43b 82f1 5abb 2cd4 38bc 2854 2abc
00000080: 4f25 273b daaf 253c 1827 793c bb85 4a3b
00000090: ce99 5abc 914d 1bbc 3a33 05bb c60d 943c
000000a0: 97ac 8bbb 1830 133c 3bdb cdbb 5096 993a
000000b0: a97e c6bb 2b15 09bc c94d 833b 86e2 1d3c
000000c0: 89d1 ef39 6fe2 f7ba 559a 91ba 127b 5a3b
000000d0: c779 3cbc 55fb 08bb ec6d 8dbb 5eed f9ba
000000e0: 368d dfbb 0a87 903c 5daa 123c 6644 aa3b
000000f0: f81e 54bb c4ae e8bb 0c58 7fbc 932b e8bb
00000100: 6e14 233c ead5 7abc 8fd8 43bc 73a8 bbba
00000110: c666 df3b b026 863b 3f3c a93a 753d 06bc
00000120: bf75 143b e29e a33b 2850 efbb 60f1 3fbc
00000130: bf58 0abc 2b72 5abc 8994 e73b c599 043a
00000140: b711 613b 9a7d 46bc 180c 3cbc 94d9 fdbb
00000150: 2589 1abc 8e77 ec38 a08c 87bb a037 303c
00000160: 5b1d c5bb f1ed 8f3b 124a 9abb 49d6 88bb
00000170: be49 023b 3946 013c 898d 44bb 5282 a53b
00000180: cf36 1d3c 4b93 113b 77a3 2a3c 7d7e b03b
00000190: 436a 5dbc dad5 07bc a9ed 8e3c e5d1 aeba
000001a0: feae 333b da30 ed3b eb40 eebb f11f 2bbb
000001b0: b541 8bba 28e3 c3ba 9255 e2bb 5927 f13a
000001c0: 98bb 7fba 90cf 6c3d a2c1 19bc 3a88 85bb
000001d0: c559 893c af9e 4dbb 5751 74ba b598 f4bb
000001e0: 594b 09bc fb32 0f3c 5733 8ebc 4c6d 0abc
000001f0: c922 f03b e70f f73a 0fa1 08bc 1a26 5e3c

network_body._body_endoder.seq_layers.2.weight f4 [128, 128]
-0.036005244 0.04863586 -0.14387101 -0.072264716 -0.038917936 0.00543063 -0.08040172 -0.09222117
-0.12438574 0.10061046 -0.162528 0.06258997 -0.00806978 0.09170726 -0.037154157 0.0023953016
0.05629226 0.024166783 0.0014850264 -0.04701695 0.045429133 0.021907 0.053759653 -0.028765112
0.070956774 -0.12505406 -0.0967529 -0.047640022 0.15620685 0.018507553 -0.059764203 0.119320504
0.11617417 -0.06964486 -0.0359517 -0.07688776 0.026944978 0.026129933 0.030217623 0.111139975
-0.0042828056 0.12931605 -0.057750728 0.032956023 0.012342508 -0.15081055 -0.03959018 0.043757852
-0.0064429506 -0.033729896 -0.07438174 0.036386598 -0.15135917 -0.029409062 0.009342617 0.10652993
-0.11748373 -0.0029229114 0.012571039 -0.107430756 -0.082507916 0.03929086 -0.008511106 0.0669816
0.023956794 0.024441004 0.08985678 -0.14647795 -0.07974842 0.004003167 -0.15140882 0.018507581
0.04201298 -0.058655854 0.056513056 -0.007934468 0.09939321 0.05251555 0.19556239 0.15379733
-0.02681505 -0.11910025 -0.031009158 0.14692263 -0.014727196 -0.028534409 0.0050032535 0.18378398
0.036506917 -0.18920444 -0.03210045 -0.031416338 0.055594996 -0.10783107 0.053979952 -0.08690218
0.060858335 -0.0007440418 0.053773362 0.035201643 -0.025649363 -0.14664152 -0.019494228 -0.13409957
-0.096352085 -0.015963148 -0.11429823 -0.0071168877 -0.042390916 -0.15070482 -0.042800568 0.09661696
0.012908485 -0.28964505 -0.031599555 -0.08435808 -0.0027011223 0.16418803 -0.025447473 0.15501517
0.03912077 0.15357158 -0.017374225 -0.09291108 0.06234181 -0.08384581 -0.045438487 -0.08320335
-0.11666837 -0.054043368 -0.02843296 -0.12813687 0.016677685 0.12707005 -0.01799225 -0.05235009
0.073395066 -0.017919384 0.11524836 -0.013619293 -0.0060135946 -0.012401663 0.030817715 -0.09355839
-0.04663486 -0.07256348 -0.12826695 0.06350793 -0.03700155 0.080948375 -0.029744007 0.15846671
0.080287434 0.16046531 -0.0513248 0.0601183 -0.07072519 0.007812212 -0.1900857 -0.033398204
-0.062276915 0.019987073 0.035081398 -0.08003943 0.038846727 0.01847211 -0.09659148 -0.2980489
0.071419545 -0.029568806 -0.25805873 -0.0019253177 0.019326823 -0.0012033696 -0.017293165 -0.0933493
0.10618503 0.08592527 -0.06918021 -0.08867577 -0.13929108 0.10868721 0.044005387 -0.1611776
-0.0034454674 0.060186498 -0.016618146 0.110248566 -0.03778152 -0.013985499 -0.13832211 -0.0048341053
0.037797943 0.070589386 0.030306287 0.027292369 0.04832448 -0.04153881 -0.012914797 -0.002659697
-0.08212626 0.09415947 0.007902001 0.055826183 -0.021310493 0.046740647 -0.023952387 0.19703716
-0.08997351 -0.102547206 -0.037551664 0.059842102 -0.046197828 -0.025047617 -0.023117412 0.07948813
-0.08481183 0.2324623 0.034036573 0.052473802 -0.05691914 0.07721832 0.1064147 -0.12401693
-0.010203174 0.039862856 0.022485042 -0.10329421 0.01930124 0.08983058 -0.20304984 -0.019231647
0.17307411 -0.12244722 -0.050098874 -0.05880107 0.10349435 -0.048637282 0.08755741 -0.16984615
0.108959034 -0.22623324 0.16523926 0.03567009 -0.018134585 -0.024232691 0.053500768 -0.098997466
0.0059670326 -0.12624094 -0.13741846 -0.05199946 0.14760527 -0.08268277 -0.026804578 -0.12527405
00000000: 3c7a 13bd 6536 473d ec52 13be 86ff 93bd
00000010: 6a68 1fbd 6df3 b13b a8a9 a4bd 74de bcbd
00000020: f3bd febd db0c ce3d bd6d 26be 2c2f 803d
00000030: 1c37 04bc 04d1 bb3d f52e 18bd 7efa 1c3b
00000040: b692 663d 6bf9 c53c 38a5 c23a d894 40bd
00000050: e613 3a3d 4f76 b33c 1533 5c3d d0a4 ebbc
00000060: c951 913d 2c0e 00be 6226 c6bd 2f22 43bd
00000070: b0f4 1f3e 279d 973c 4fcb 74bd 4f5e f43d
00000080: b9ec ed3d f7a1 8ebd 1742 13bd 5477 9dbd
00000090: b7bb dc3c 710e d63c f38a f73c 5b9d e33d
000000a0: c756 8cbb 6d6b 043e 078c 6cbd e5fc 063d
000000b0: 3b38 4a3c 156e 1abe 5029 22bd 6f3b 333d
000000c0: 631f d3bb 5c28 0abd 7455 98bd 1d0a 153d
000000d0: e6fd 1abe 46eb f0bc c711 193c 5d2c da3d
000000e0: 4f9b f0bd 518e 3fbb c2f6 4d3c a804 dcbd
000000f0: e9f9 a8bd 74ef 203d 2a72 0bbc a62d 893d
00000100: 0a41 c43c 8038 c83c d506 b83d 51fe 15be
00000110: 2453 a3bd 002d 833b ea0a 1bbe 369d 973c
00000120: cd15 2c3d 1f41 70bd 3c7a 673d 92ff 01bc
00000130: ab8e cb3d 8c1a 573d 8241 483e 0c7d 1d3e
00000140: 3cab dbbc d5ea f3bd eb06 febc e372 163e
00000150: 564a 71bc fec0 e9bc 55f2 a33b de31 3c3e
00000160: 4788 153d cfbe 41be c37b 03bd 6bae 00bd
00000170: 94b7 633d 89d6 dcbd 151a 5d3d c5f9 b1bd
00000180: 9746 793d cd0b 43ba 7541 5c3d 992f 103d
00000190: 9d1e d2bc 3229 16be 5cb2 9fbc 6651 09be
000001a0: 3e54 c5bd 26c5 82bc 3115 eabd c834 e9bb
000001b0: 19a2 2dbd 5d52 1abe a64f 2fbd 1ddf c53d
000001c0: 1c7e 533c 5b4c 94be 896e 01bd eec3 acbd
000001d0: 5005 31bb e820 283e 3877 d0bc 4cbc 1e3e
000001e0: 1a3d 203d de41 1d3e 6454 8ebc 2a48 bebd
000001f0: 205a 7f3d 5ab7 abbd b51d 3abd 8566 aabd
00000200: d4ef eebd 945c 5dbd 3dec e8bc 5036 03be
00000210: a49f 883c a71e 023e 7c64 93bc 0c6d 56bd
00000220: 2750 963d accb 92bc 5507 ec3d 7523 5fbc
00000230: b00d c5bb 5830 4bbc 6f75 fc3c 8b9b bfbd
00000240: 3204 3fbd 299c 94bd 6958 03be 7210 823d
00000250: f08e 17bd 43c8 a53d b4a9 f3bc 1945 223e
00000260: bd6d a43d 0551 243e f439 52bd 9b3e 763d
00000270: 5ed8 90bd 96fd ff3b d3a5 42be 8ecc 08bd
00000280: 1416 7fbd eebb a33c 83b1 0f3d b6eb a3bd
00000290: bf1d 1f3d d352 973c c1d1 c5bd de99 98be
000002a0: 6944 923d 483a f2bc 4620 84be f15a fcba
000002b0: 4953 9e3c 62ba 9dba 65aa 8dbc eb2d bfbd
000002c0: 8977 d93d 97f9 af3d 5bae 8dbd a49b b5bd
000002d0: 52a2 0ebe 6697 de3d fe3e 343d be0b 25be
000002e0: 5acd 61bb 1e86 763d c722 88bc 00ca e13d
000002f0: ccc0 1abd 6f23 65bc 50a4 0dbe 6a67 9ebb
00000300: 04d2 1a3d 2b91 903d e444 f83c 3f94 df3c
00000310: e4ef 453d 9924 2abd 9698 53bc 504e 2ebb
00000320: d031 a8bd aed6 c03d 6577 013c ffa9 643d
00000330: 5893 aebc 1f73 3f3d cc37 c4bc 1cc4 493e
00000340: 0844 b8bd 4504 d2bd c6cf 19bd fe1c 753d
00000350: ef39 3dbd a930 cdbc ba60 bdbc acca a23d
00000360: d3b1 adbd 990a 6e3e ef69 0b3d c5ee 563d
00000370: 0b24 69bd a324 9e3d f3ef d93d 97fc fdbd
00000380: 372b 27bc 3c47 233d 8d32 b83c ea8b d3bd
00000390: a21d 9e3c 18f9 b73d 4cec 4fbe b08b 9dbc
000003a0: 573a 313e 9cc5 fabd 7a34 4dbd 64d9 70bd
000003b0: d9f4 d33d e337 47bd 4d51 b33d 26ec 2dbe
000003c0: ea25 df3d b0a9 67be 7b34 293e cd1a 123d
000003d0: fb8e 94bc a383 c6bc 9f23 5b3d 2fbf cabd
000003e0: 1987 c33b 4e45 01be 6db7 0cbe 63fd 54bd
000003f0: d625 173e 9655 a9bd 4695 dbbc d747 00be

network_body._body_endoder.seq_layers.2.bias f4 [128]
-0.00278164 0.0014064866 -0.00634829 -9.5080315e-05 0.0019768435 -0.012292077 -0.010803428 -0.010046865
-0.0046896012 -0.013873728 0.0030097486 -0.025131553 -0.0004196882 -0.001872018 0.0007293919 0.005462598
-0.0025601315 -0.0014730173 -0.009053292 -0.015064838 0.013923774 -0.0021295138 0.010309662 -0.002351309
0.0014798563 -0.0026145156 -0.0024940835 -0.0019942264 -0.008871227 0.011835047 0.0072093615 0.005314491
-0.0018911654 0.0013404019 -0.016613364 -0.007120625 -0.008747104 -0.0030650224 -0.008141808 -0.006704208
-0.0039264546 -0.0008807695 -0.0030597523 0.0036790825 0.0098107 0.01142793 -0.008354942 -0.011325455
-0.0038730984 -0.0017090137 -0.011709115 -0.0007856299 -0.004211834 -0.0010808473 -0.0034066134 -0.0051830504
-0.018232888 -0.01411083 0.002510479 0.0059312657 -0.0044105337 -0.004085783 -0.0039083743 -0.008397967
0.0014986706 -0.0011143436 0.011336213 -0.0038444914 0.012203341 0.010197229 -0.0022598326 -0.0068602855
-0.0074202116 -0.005978581 -0.0031715385 0.0060365945 0.0015833346 0.0064257323 -0.0050368523 -0.009883843
-6.4976426e-08 -0.0044462793 1.9857283e-05 -0.008188157 0.0017224307 -0.0044274144 0.005870919 0.015508006
-0.0032823272 -0.0023231243 -0.011910922 -0.004956935 -0.0040009124 -0.01474493 -0.0027868187 0.007179832
0.008648827 0.0077638105 -0.011716452 -0.0013309735 0.0109986225 0.0020993208 -0.012091641 -1.4757517e-06
-0.008452698 -0.007230558 0.0014254196 0.0072464193 -0.0064585893 0.008565792 -0.0030211064 0.0058427635
-0.0012180686 0.0041352585 0.0005237643 -0.0016345037 -0.0017807584 -0.012376552 0.005300057 -0.016719665
-0.0023281204 0.009442787 -8.78752e-05 0.011889586 0.008578885 -0.01146313 -0.005131085 0.0007963769
00000000: 2d4c 36bb dc59 b83a 5105 d0bb db65 c7b8
00000010: ee8d 013b b564 49bc dc00 31bc 9b9b 24bc
00000020: 3aab 99bb a24e 63bc 343f 453b b0e0 cdbc
00000030: 9909 dcb9 805e f5ba a934 3f3a 98ff b23b
00000040: e1c7 27bb 4212 c1ba 4254 14bc 83d2 76bc
00000050: 8a20 643c 508f 0bbb dbe9 283c 6b18 1abb
00000060: bdf7 c13a 4b58 2bbb c773 23bb 91b1 02bb
00000070: 9f58 11bc c9e7 413c 823c ec3b 2f25 ae3b
00000080: fbe0 f7ba 6db0 af3a c018 88bc 2254 e9bb
00000090: 0350 0fbc 8bde 48bb 3865 05bc f9ae dbbb
000000a0: 7da9 80bb 71e3 66ba 2086 48bb c31c 713b
000000b0: 0fbd 203c 363c 3b3c 2be3 08bc 678e 39bc
000000c0: cfd3 7dbb fc00 e0ba 96d7 3fbc bbf2 4dba
000000d0: 6d03 8abb 38ab 8dba 7d41 5fbb 94d6 a9bb
000000e0: 235d 95bc 1c31 67bc d986 243b 105b c23b
000000f0: 3d86 90bb 08e2 85bb d211 80bb a097 09bc
00000100: 0a6f c43a 2b0f 92ba 86bb 393c ddf3 7bbb
00000110: 86f0 473c 4712 273c b319 14bb 3fcc e0bb
00000120: 3f25 f3bb f9e7 c3bb 96d9 4fbb a0ce c53b
00000130: e587 cf3a f38e d23b 2e0c a5bb d8ef 21bc
00000140: 2b89 8bb3 18b2 91bb 3193 a637 9f27 06bc
00000150: 2fc3 e13a d813 91bb d760 c03b 4b15 7e3c
00000160: 501c 57bb 8f3f 18bb 0726 43bc c96d a2bb
00000170: 161a 83bb b894 71bc 0fa3 36bb cc44 eb3b
00000180: cfb3 0d3c 9067 fe3b 5df6 3fbc 0f74 aeba
00000190: 9133 343c c294 093b 051c 46bc 7112 c6b5
000001a0: 2f7d 0abc 51ee ecbb 25d5 ba3a 5f73 ed3b
000001b0: 93a2 d3bb 8957 0c3c c1fd 45bb a774 bf3b
000001c0: 9aa7 9fba 1081 873b 3a4d 093a d83c d6ba
000001d0: 5668 e9ba 06c7 4abc 1aac ad3b aef7 88bc
000001e0: 6193 18bb ebb5 1a3c a449 b8b8 8acc 423c
000001f0: 748e 0c3c dacf 3bbc a922 a8bb f3c3 503a

action_model._continuous_distribution.log_sigma f4 [1, 2]
-0.19630226 -0.20441505
00000000: 7603 49be 2e52 51be

action_model._continuous_distribution.mu.weight f4 [2, 128]
-0.04143863 0.017513908 -0.0038561327 0.012954121 0.0079712365 -0.02366064 -0.012250542 -0.00055223174
-0.019717393 -0.010743328 0.009851833 -0.027171891 0.0044015693 0.0022567383 0.008408605 0.016194005
-0.024873208 -0.010120274 -0.019316407 -0.010852935 0.023214426 0.0014181818 0.011859011 0.00014659874
0.015768059 -0.01156701 -0.029926008 0.0063378024 -0.00092987414 0.0052393572 0.02803987 0.022077475
-0.0067681577 0.007578998 -0.0077247247 -0.0011392632 -0.013595873 -0.0017301333 -0.029058225 -0.0123966765
0.0011042624 -0.01902207 0.0002682023 0.020787455 0.018921018 0.021467354 -0.015797 -0.018827245
-0.0008475418 -0.0036662528 -0.018195812 0.021244327 -0.01638373 0.03054204 0.03826005 -0.022607023
-0.0074408227 -0.026615728 0.005053763 0.040239327 -0.00033965948 -0.006578273 -0.0014880383 -0.028118612
0.017975353 0.0066334293 0.03215825 -0.0031946627 0.015774278 0.016839076 -0.016225047 -0.013351537
-0.036290452 -0.0094065415 0.0072237644 0.013293358 0.0047229147 0.0448883 -0.0263961 -0.037888445
0.008258067 -0.002529681 -0.004221147 -0.011173335 0.0052979593 -0.017075207 0.0058365357 0.008017686
-0.00089561316 0.04881472 -0.011044582 -0.009589931 0.00015776251 -0.009620793 -0.004478441 0.0026267266
0.023100939 0.005131619 -0.051700223 -0.0014235073 0.011684462 0.017250877 -0.026854556 0.021843994
-0.014433918 -0.014177561 -0.02537997 0.027265046 -0.04020599 0.021557763 -0.031402502 -0.019140478
-0.0033829757 0.023126941 0.001047988 -0.020342398 0.0010494821 -0.032198794 0.01761683 -0.033160422
-0.016678017 0.02151365 -0.017284209 0.00910714 0.003566289 -0.017093984 -0.015290111 0.002711979
0.025480902 0.010791769 0.012366445 0.02718225 -0.008862 0.003584043 0.014312698 0.007476046
0.006140702 0.010673167 0.010944768 0.01697028 0.023024239 -0.025236312 -0.0035598364 0.011515774
0.012452403 -0.0075173746 0.012780662 -0.003158071 -0.007877954 0.006021461 -0.019046914 -0.013784383
-0.04070158 -0.0013970608 0.016919522 -0.018906258 0.0016333439 -0.011843748 0.002418951 0.008150784
-0.037196785 0.023060713 0.011504571 0.0031396896 -0.0004766734 0.01604393 -0.002461716 0.0021164196
0.0025292644 -0.015468862 -0.032151613 0.017753977 -0.0022728327 -0.017168198 -0.00041036846 0.007612086
0.0002714015 0.009642366 0.009935188 -0.01864339 -0.026963262 -0.007582942 -0.03109231 -0.028563129
0.013055111 0.019124229 -0.020131176 0.011929845 -0.001528349 -0.007685228 0.004520151 0.014301445
0.009129663 -0.0009984247 -0.011929599 0.019264642 -0.009737086 0.007435947 0.018764233 -0.020454783
-0.0033089407 -0.008844675 -0.001088008 0.01386505 0.009487906 0.006220917 -0.015292361 -0.0004957531
-0.009749723 0.010839713 0.016165392 -0.016053297 0.011338556 -0.012885158 -0.023158144 -0.008103617
-0.0034288182 0.0018735818 0.001807582 -0.003884862 0.0013776645 0.013322856 -0.0058142627 -0.0043067285
-0.0018859848 0.013303747 0.00052582513 0.020182818 -0.020111347 0.03244932 0.015689356 -0.008911899
-0.0025035052 0.002303563 -0.027232466 -0.041736536 -0.0105767045 -0.0030616196 0.0009430947 -0.029910017
0.01183366 0.0013340868 -0.009650774 -0.025694668 0.023500064 0.014053471 -0.007377309 0.031819843
-0.03160131 -0.0035379722 -0.0128346775 -0.01811281 0.001416276 -0.015629446 -0.018673792 0.012062043
00000000: 8ebb 29bd 5479 8f3c 2cb7 7cbb 863d 543c
00000010: ca99 023c f5d3 c1bc 7fb6 48bc a5c3 10ba
00000020: 5f86 a1bc c904 30bc 9569 213c 9697 debc
00000030: 0a3b 903b c9e5 133b 3fc4 093c 4aa9 843c
00000040: e6c2 cbbc 81cf 25bc 713d 9ebc 82d0 31bc
00000050: 2e2c be3c 49e2 b93a 4c4c 423c 4db8 1939
00000060: 042c 813c 8e83 3dbc 6327 f5bc 57ad cf3b
00000070: ccc2 73ba eaae ab3b dfb3 e53c d2db b43c
00000080: 6cc7 ddbb 3e59 f83b b01f fdbb 5453 95ba
00000090: 39c1 5ebc a4c5 e2ba 840b eebc 6e1b 4bbc
000000a0: e6bc 903a 2cd4 9bbc 819d 8c39 744a aa3c
000000b0: 4000 9b3c 4edc af3c b668 81bc 983b 9abc
000000c0: 912d 5eba 8445 70bb 620f 95bc 9508 ae3c
000000d0: 2c37 86bc 4d33 fa3c 92b6 1c3d 5d32 b9bc
000000e0: 25d2 f3bb 3a09 dabc 099a a53b fed1 243d
000000f0: 5314 b2b9 8e8e d7bb 480a c3ba 0159 e6bc
00000100: 0c41 933c 3d5d d93b 5fb8 033d 8c5d 51bb
00000110: 0f39 813c 1af2 893c 64ea 84bc 68c0 5abc
00000120: 4ca5 14bd e51d 1abc 54b5 ec3b 62cc 593c
00000130: aec2 9a3b cbdc 373d a23c d8bc ea30 1bbd
00000140: d84c 073c 01c9 25bb 8c51 8abb 5d10 37bc
00000150: 819a ad3b 4ee1 8bbc 6940 bf3b 9d5c 033c
00000160: 95c7 6aba f2f1 473d 56f4 34bc 161f 1dbc
00000170: 0d6d 2539 88a0 1dbc e3bf 92bb 2925 2c3b
00000180: 2e3e bd3c 2427 a83b 9dc3 53bd fb94 baba
00000190: 3070 3f3c b651 8d3c 16fe dbbc 2df2 b23c
000001a0: 3d7c 6cbc 0049 68bc a8e9 cfbc f25a df3c
000001b0: 09af 24bd e899 b03c e99f 00bd 7ecc 9cbc
000001c0: eab4 5dbb b674 bd3c a45c 893a 1aa5 a6bc
000001d0: c78e 893a e2e2 03bd 2c51 903c 39d3 07bd
000001e0: 56a0 88bc 653d b03c 9d97 8dbc 1d36 153c
000001f0: 67b8 693b af08 8cbc 6083 7abc 75bb 313b
00000200: 53bd d03c f6cf 303c a19c 4a3c 4fad de3c
00000210: ec31 11bc 43e2 6a3b ce7f 6a3c 9ff9 f43b
00000220: f137 c93b 82de 2e3c af51 333c 4205 8b3c
00000230: 549d bc3c 62bc cebc 254c 69bb a8ac 3c3c
00000240: 2a05 4c3c 4f54 f6bb fb65 513c a4f7 4ebb
00000250: 8912 01bc ad4f c53b 4608 9cbc e5d7 61bc
00000260: b3b6 26bd 951d b7ba cf9a 8a3c 4ce1 9abc
00000270: ed15 d63a 480c 42bc 4387 1e3b de8a 053c
00000280: a85b 18bd d2e9 bc3c ab7d 3c3c 40c3 4d3b
00000290: 05ea f9b9 8f6e 833c be54 21bb a1b3 0a3b
000002a0: 04c2 253b 1c71 7dbc 69b1 03bd ca70 913c
000002b0: cef3 14bb 52a4 8cbc b926 d7b9 ce6e f93b
000002c0: e54a 8e39 04fb 1d3c 33c7 223c 06ba 98bc
000002d0: 0fe2 dcbc 547a f8bb 4db5 febc 39fd e9bc
000002e0: 1be5 553c 6aaa 9c3c 23ea a4bc 6675 433c
000002f0: e252 c8ba 5dd4 fbbb c61d 943b 9c50 6a3c
00000300: 9594 153c 93dd 82ba 5d74 43bc e2d0 9d3c
00000310: 4c88 1fbc 3fa9 f33b 73b7 993c ca90 a7bc
00000320: d0da 58bb 41e9 10bc 7e9b 8eba 3c2a 633c
00000330: 2973 1b3c d6d8 cb3b d08c 7abc 6df5 01ba
00000340: 4dbd 1fbc 0d99 313c 496d 843c 3482 83bc
00000350: 5ac5 393c 451c 53bc 26b6 bdbc 08c5 04bc
00000360: 06b6 60bb f992 f53a 63ec ec3a 2b99 7ebb
00000370: c092 b43a 1c48 5a3c 9285 bebb 751f 8dbb
00000380: 2633 f7ba f6f7 593c 87d7 093a 7056 a53c
00000390: 8dc0 a4bc 94e9 043d f786 803c 3703 12bc
000003a0: d911 24bb 60f7 163b 9f16 dfbc eef3 2abd
000003b0: ea49 2dbc 74a5 48bb 043a 773a da05 f5bc
000003c0: f8e1 413c 86dc ae3a 481e 1ebc a07d d2bc
000003d0: 3583 c03c 8840 663c 5abd f1bb 8655 023d
000003e0: 6070 01bd 53dd 67bb 8a48 52bc 5161 94bc
000003f0: 56a2 b93a 5309 80bc c8f9 98bc e09f 453c

action_model._continuous_distribution.mu.bias f4 [2]
0.00822775 -8.322669e-05
00000000: afcd 063c fd89 aeb8

action_model._discrete_distribution.branches.0.weight f4 [1, 128]
0.005822716 0.008069397 0.0009680103 -0.017307645 0.00358303 0.010524826 -0.0020623722 -0.0028915673
-0.0066269985 0.014418115 0.010043933 -0.001446915 -0.0021835451 -0.011230728 0.020020876 -0.011271812
-0.012907438 0.0006700315 -0.008293692 -0.010975939 -0.0098443525 0.010953841 0.004563697 -0.013854759
-0.019753162 -0.011957387 -0.004707157 -0.019747699 0.0023161822 0.0126433475 0.006690565 -0.011318397
0.00031321382 -1.235281e-06 -0.009797855 0.00470048 0.009465309 0.012285018 -0.0015996443 -0.0028775686
-0.0074605793 0.01267765 0.0058107753 0.006092825 0.0018211476 -0.008943691 0.0059698867 -0.007544027
-0.0068789036 0.005727692 0.0029942333 -0.007872536 0.0047860877 -0.004930453 -0.008691655 0.0063059614
0.00049010804 0.0111177 0.00990283 -0.0029570747 0.012939811 -0.0020641815 0.0047637415 0.0016105706
-0.001275229 -0.0034990855 0.014207353 0.004724514 -0.018634463 -0.005630951 -0.0063577495 0.004947114
-0.018626237 0.001122563 0.0006189393 0.010348703 -0.00024089932 0.014451034 -0.0036314286 -0.004441471
-0.0028726745 0.0046842457 0.009261696 -0.003084703 -0.0028206503 -0.009711634 -0.011721475 -0.0024610895
0.009489444 -0.0050729634 0.0044152387 0.024318552 0.00548655 -0.0017094206 -0.0059145642 -0.00847711
0.00700247 0.028200923 0.003274712 0.0018734109 -0.0023693831 0.00023746048 -0.0073614637 0.0027939708
0.024148798 0.0006556987 0.0016684312 -0.0016129578 -0.008901207 -0.0111828325 0.0035146212 0.0039715813
0.0020528343 -0.0016780383 0.010984947 -0.009559986 0.005730947 -0.013241774 -0.005703811 0.004110872
-0.0028807248 -0.0010976385 0.0067578675 0.0011019141 -0.0019083783 0.01347057 -0.004291696 -0.01230743
00000000: 7bcc be3b 8135 043c 12c2 7d3a c3c8 8dbc
00000010: 45d1 6a3b 5270 2c3c dd28 07bb 7380 3dbb
00000020: 4b27 d9bb f539 6c3c 4f8f 243c 69a6 bdba
00000030: cf19 0fbb 1601 38bc d202 a43c 68ad 38bc
00000040: b879 53bc 0ea5 2f3a 44e2 07bc 6dd4 33bc
00000050: 354a 21bc bd77 333c 118b 953b 12ff 62bc
00000060: 62d1 a1bc ebe8 43bc 7f3e 9abb edc5 a1bc
00000070: 17cb 173b 0b26 4f3c 873c db3b cc70 39bc
00000080: d936 a439 efcb a5b5 2f87 20bc 7c06 9a3b
00000090: 6214 1b3c 1a47 493c 28ab d1ba 9795 3cbb
000000a0: e077 f4bb ebb5 4f3c 5168 be3b 52a6 c73b
000000b0: 93b3 ee3a 8f88 12bc 0a9f c33b e333 f7bb
000000c0: 6d68 e1bb 5daf bb3b e63a 443b cffb 00bc
000000d0: 9dd4 9c3b a38f a1bb 7167 0ebc 3da2 ce3b
000000e0: 987a 003a 0327 363c 7b3f 223c 7bcb 41bb
000000f0: 8001 543c 3847 07bb 2919 9c3b c819 d33a
00000100: 9625 a7ba ea50 65bb f5c5 683c 19d0 9a3b
00000110: 4da7 98bc d783 b8bb ab54 d0bb 661b a23b
00000120: 0d96 98bc f722 933a 5040 223a 9b8d 293c
00000130: eb99 7cb9 08c4 6c3c 43fd 6dbb c289 91bb
00000140: 7b43 3cbb 4d7e 993b 5ebe 173c bb28 4abb
00000150: a9da 38bb 8c1d 1fbc 6e0b 40bc 3b4a 21bb
00000160: 9d79 1b3c 1a3b a6bb b5ad 903b b337 c73c
00000170: 84c8 b33b a30e e0ba f6ce c1bb 94e3 0abc
00000180: fa74 e53b 9f05 e73c 8d9c 563b 3d8d f53a
00000190: a747 1bbb d0fe 7839 6f38 f1bb 0d1b 373b
000001a0: b3d3 c53c 32e3 2b3a 43af da3a e269 d3ba
000001b0: 5ed6 11bc 3338 37bc 8f55 663b 0a24 823b
000001c0: d888 063b 9ff1 dbba 35fa 333c 7da1 1cbc
000001d0: abca bb3b 07f4 58bc 09e7 babb 7eb4 863b
000001e0: 8bca 3cbb a3de 8fba 1a71 dd3b 1a6e 903a
000001f0: 8d22 faba aab3 5c3c 5ba1 8cbb 1aa5 49bc

exp_avg f4 [128, 27]
-1.47765295e-05 3.5175294e-06 1.6752383e-05 8.501456e-06 -1.0241074e-05 8.110317e-06 -1.10174515e-05 8.152198e-06
9.306725e-07 7.2809758e-06 -9.59843e-07 -6.2883146e-07 -9.59843e-07 -6.2887966e-07 -0.014516277 0.00013298492
-0.005912709 4.1026613e-07 -4.151659e-05 -9.4289385e-07 4.880623e-05 -3.1789494e-07 7.94236e-06 4.2966647e-07
2.482231e-07 -1.0775276e-08 2.346691e-07 1.511892e-06 6.990481e-06 -4.939443e-06 -1.317133e-06 1.1343853e-12
-4.2234285e-07 1.1111465e-12 -3.7878217e-06 -6.9290236e-06 -1.1208617e-06 5.2078207e-07 2.4621656e-06 5.2078207e-07
2.4621795e-06 -0.00035945314 4.005649e-06 -0.0006495279 -1.9791724e-11 -5.4720977e-06 -4.862659e-12 6.199987e-06
1.1772534e-08 6.1966148e-09 1.3282552e-08 8.4025995e-09 7.27894e-10 -5.2106603e-09 1.9855961e-12 8.523438e-13
-9.591882e-17 -5.549518e-13 5.377823e-18 -2.2898616e-13 -3.008403e-18 -3.6757327e-13 5.720249e-19 -3.249028e-13
-8.4088005e-18 -4.803508e-13 -8.4088005e-18 -4.803508e-13 5.461238e-11 -5.2088276e-13 1.2225272e-10 2.0890948e-17
8.6613003e-13 -3.6625287e-18 -6.110017e-13 6.532726e-16 -4.9076576e-17 -5.1145793e-15 -4.0301853e-15 8.424733e-17
-5.871159e-16 -5.5025044e-21 -1.8319807e-21 -8.0660594e-25 2.4014762e-21 -1.0634783e-25 1.2058314e-21 -1.1502893e-27
1.8512169e-21 1.5974664e-28 1.4198185e-21 6.2132346e-25 1.8995874e-21 6.2132346e-25 1.8995866e-21 -2.2366674e-19
2.3892072e-21 -5.602684e-19 -9.5295815e-26 -3.746205e-21 1.7748699e-26 3.0133646e-21 -2.8985903e-24 -4.951278e-25
2.6302543e-23 2.05341e-23 2.0321858e-26 2.4857589e-24 -1.5367584e-07 4.2660963e-06 -1.7269146e-08 2.1058872e-06
-3.8744332e-08 9.103545e-06 -2.2159494e-08 2.0347513e-06 -3.13877e-08 1.2579535e-05 2.5769712e-05 2.1947897e-05
2.5769712e-05 2.194791e-05 -0.0060192966 1.1521428e-05 -0.0019463003 1.0345431e-09 -1.2549106e-05 -3.0497975e-09
1.8569845e-05 -6.066274e-08 -8.3137785e-08 1.2731721e-07 8.4780176e-08 -6.893041e-09 4.0929933e-08 -1.8935389e-05
-3.9477658e-05 4.609923e-05 4.2832937e-05 1.1475788e-05 -2.7184531e-05 1.1852842e-05 1.54778e-05 2.5454236e-05
-9.812199e-06 5.3600874e-05 5.8124624e-06 5.3600874e-05 5.8123806e-06 0.0038242429 -0.00015100754 0.0045261765
-4.956965e-07 1.9924724e-05 1.1287084e-06 -8.552398e-05 -8.16757e-08 -8.590789e-06 -2.5172022e-07 -9.7574514e-08
-2.0376657e-08 9.298371e-08 -1.7180322e-05 3.6321376e-06 4.50951e-05 1.7749476e-06 -7.1791947e-06 1.3360574e-05
-8.441496e-06 -1.54395e-06 -9.742008e-06 -5.2099704e-06 7.471584e-06 5.0431965e-05 7.471584e-06 5.043199e-05
-0.0134181315 0.0001117304 -0.0064444 2.9118937e-07 -4.274096e-05 -6.7225227e-07 6.220117e-05 -1.8893104e-07
5.616929e-06 3.8015526e-07 2.1728678e-07 -6.7378636e-08 1.5146549e-07 -9.6543594e-08 -1.9879505e-07 1.1695039e-07
1.5160472e-07 5.6388805e-09 7.418636e-08 1.1363202e-12 1.1824996e-07 6.061255e-08 2.510292e-08 3.8769958e-08
-5.694795e-08 3.8769958e-08 -5.694896e-08 3.0022804e-05 -7.383346e-08 7.685338e-06 2.7964339e-12 4.988493e-08
-5.6175637e-13 -1.6803337e-07 -7.1671064e-10 -7.8459267e-10 -1.333933e-12 1.4368445e-10 -1.9055915e-10 4.874945e-10
-3.607305e-05 -4.8486017e-05 0.00011349452 6.666306e-05 9.472375e-07 -1.5686959e-06 -1.3986257e-06 5.9024755e-05
3.6739788e-05 3.0598323e-05 4.831302e-05 6.3398256e-05 4.831302e-05 6.3398176e-05 -0.019852985 3.033007e-05
-0.010347662 -7.808488e-08 -7.270176e-05 1.6547746e-07 1.59235e-05 -5.126433e-07 -3.7369387e-07 5.4521036e-07
3.6310857e-07 -9.413319e-08 4.241677e-07 -1.5763985e-06 2.491002e-05 -2.8403697e-06 -2.298258e-05 -9.417932e-06
1.7517337e-05 -1.0196851e-05 -1.2767283e-05 -1.5196903e-05 2.6435e-06 -1.5287507e-05 1.2376047e-05 -1.5287507e-05
00000000: b6e8 77b7 b20e 6c36 7887 8c37 7aa1 0e37
00000010: 14d1 2bb7 8c11 0837 98d7 38b7 6cc5 0837
00000020: 54d3 7935 1b4f f436 f4d3 80b5 f8cc 28b5
00000030: f4d3 80b5 48d0 28b5 aed5 6dbc de71 0b39
00000040: 66bf c1bb 8c42 dc34 1922 2eb8 2c1b 7db5
00000050: 4ab5 4c38 26ab aab4 2d40 0537 e9ac e634
00000060: 8643 8534 2a1e 39b2 5af9 7b34 37ec ca35
00000070: c68f ea36 7ebd a5b6 58c8 b0b5 8aa6 9f2b
00000080: 5cbe e2b4 4661 9c2b 4832 7eb6 dc7f e8b6
00000090: 8470 96b5 dfcb 0b35 af3b 2536 dfcb 0b35
000000a0: ec3b 2536 fc74 bcb9 4368 8636 1445 2aba
000000b0: 0017 aead f69c b7b6 f016 abac 7c09 d036
000000c0: 2740 4a32 00ea d431 4831 6432 065b 1032
000000d0: fd14 4830 7409 b3b1 52b9 0b2c d8e9 6f2b
000000e0: 7a2c dda4 7e34 1cab 1a68 c622 62e8 80aa
000000f0: 20fb 5da2 e4ec ceaa fbd4 2821 6ee7 b6aa
00000100: 701d 1ba3 ec34 07ab 701d 1ba3 ec34 07ab
00000110: 1330 702e 8f9d 12ab 156b 062f 5baf c023
00000120: 3fcb 732b 9b1f 87a2 50fb 2bab 034b 3c26
00000130: 6553 62a4 ab45 b8a7 e633 91a7 d942 c224
00000140: 8239 29a6 f5e0 cf9d a96b 0a9d e8a1 7997
00000150: 4e73 351d f9a6 0396 5838 b61c 4745 b692
00000160: bedf 0b1d c080 4a11 918e d61c 514a 4017
00000170: 5d87 0f1d 514a 4017 5987 0f1d 9007 84a0
00000180: fd85 341d af5c 25a1 e6f0 eb95 1287 8d9d
00000190: 4cc6 af14 f3ae 631d 7f44 6098 113c 1997
000001a0: f161 fe19 f897 c619 0842 c914 8753 4018
000001b0: 1802 25b4 7d25 8f36 4157 94b2 de52 0d36
000001c0: d867 26b3 6ebb 1837 3e59 beb2 c38c 0836
000001d0: 24cf 06b3 b10c 5337 092c d837 c01c b837
000001e0: 092c d837 c71c b837 853d c5bb 284c 4137
000001f0: 001b ffba c02f 8e30 008a 52b7 9b94 51b1
00000200: 70c6 9b37 b245 82b3 7b89 b2b3 b0b4 0834
00000210: 6510 b633 d4d7 ecb1 f0ca 2f33 70d7 9eb7
00000220: d094 25b8 ac5a 4138 84a7 3338 2288 4037
00000230: 560a e4b7 92db 4637 53d6 8137 8e86 d537
00000240: 139f 24b7 80d1 6038 ac08 c336 80d1 6038
00000250: f807 c336 26a0 7a3b c757 1eb9 5250 943b
00000260: 0110 05b5 0524 a737 207e 9735 565b b3b8
00000270: b165 afb3 2821 10b7 2a24 87b4 288a d1b3
00000280: be08 afb2 56ae c733 761e 90b7 a6bf 7336
00000290: 7f24 3d38 bc3a ee35 d0e4 f0b6 3a27 6037
000002a0: f39f 0db7 b839 cfb5 9b71 23b7 4ed1 aeb6
000002b0: 6bb4 fa36 e986 5338 6bb4 fa36 f086 5338
000002c0: b9d7 5bbc cd50 ea38 8c2b d3bb c354 9c34
000002d0: c244 33b8 d374 34b5 0072 8238 f8dc 4ab4
000002e0: 0d79 bc36 2418 cc34 564f 6934 ccb1 90b3
000002f0: 84a2 2234 6753 cfb3 5e74 55b4 2826 fb33
00000300: cac8 2234 1ec0 c131 6250 9f33 40ec 9f2b
00000310: 9af0 fd33 1a2a 8233 e8a1 d732 0584 2633
00000320: ef96 74b3 0584 2633 0b98 74b3 7bd9 fb37
00000330: 608e 9eb3 46f0 0037 13c8 442c 1041 5633
00000340: d01e 1eab a96c 34b4 0702 45b0 cdaa 57b0
00000350: 00bc bbab 94fb 1d2f a285 51af 6000 0630
00000360: 244d 17b8 775d 4bb8 e803 ee38 75cd 8b38
00000370: aa45 7e35 fb8b d2b5 6ab8 bbb5 5991 7738
00000380: 0c19 1a38 b356 0038 b6a3 4a38 aef4 8438
00000390: b6a3 4a38 a3f4 8438 baa2 a2bc 546d fe37
000003a0: 3d89 29bc 9eaf a7b3 7677 98b8 19ae 3134
000003b0: 7593 8537 949c 09b5 18a0 c8b4 925a 1235
000003c0: 43f1 c234 4526 cab3 2ab9 e334 a494 d3b5
000003d0: dcf5 d037 2e9d 3eb6 b7ca c0b7 b601 1eb7
000003e0: 32f2 9237 2413 2bb7 1033 56b7 34f6 7eb7
000003f0: fc66 3136 ac3d 80b7 b8a2 4f37 ac3d 80b7

exp_avg_sq f4 [128, 27]
2.3703677e-09 6.060569e-09 3.2438996e-09 6.4715815e-09 1.8329184e-09 4.8920734e-09 2.0264175e-09 6.4697057e-09
2.417946e-09 5.8920056e-09 2.3893794e-09 8.619971e-09 2.3893794e-09 8.6198515e-09 0.0024594665 9.920005e-08
0.0005411837 5.358392e-13 1.4724705e-08 2.6273413e-12 1.0532066e-08 1.0069916e-12 1.3979317e-09 1.2771645e-12
7.320083e-13 1.26637905e-14 5.1778324e-13 1.4061402e-10 1.3230963e-09 5.428955e-10 1.5885849e-09 5.086139e-12
4.4260037e-10 1.08065244e-10 6.8767353e-10 5.2197673e-11 5.504088e-10 1.0030017e-11 4.8907234e-10 1.0030017e-11
4.8907245e-10 1.6555332e-05 1.4287919e-09 7.71912e-05 4.3119726e-18 4.8723114e-09 2.0405631e-17 1.3847825e-09
3.7553942e-13 4.8625226e-13 3.7914374e-13 2.6306903e-13 1.616665e-14 1.9188599e-13 1.3689057e-16 4.4417192e-15
4.402154e-15 6.1860036e-15 1.2520901e-24 1.8394665e-15 2.8309244e-16 8.438313e-16 1.9326145e-28 3.0581884e-16
7.4558756e-32 1.2679919e-15 7.4558756e-32 1.2679918e-15 1.7616587e-12 1.6460257e-14 5.170533e-10 2.0525785e-23
6.095791e-14 2.621664e-23 4.844435e-15 2.0778582e-20 2.5087985e-18 1.0956038e-18 5.246386e-19 2.6658805e-21
2.1899676e-20 4.082025e-31 4.409523e-28 2.0207138e-27 2.5085655e-27 5.90764e-40 3.7509053e-29 3.4159447e-35
5.293485e-29 2.68e-42 3.5361308e-29 3.1e-44 2.1066589e-29 3.1e-44 2.1066586e-29 1.0440802e-24
3.234679e-27 8.5299523e-23 2.6990142e-36 1.27268725e-26 3.358386e-36 1.6401499e-28 2.5350212e-33 2.940116e-32
1.8566192e-31 9.655993e-32 5.773275e-34 2.3943797e-33 7.9077744e-11 2.647905e-10 2.0501652e-11 1.2544808e-10
3.8364184e-10 6.173378e-10 2.0261253e-11 1.5198146e-10 7.7505946e-11 7.4766243e-10 1.941397e-10 1.5738926e-09
1.941397e-10 1.5738927e-09 0.000563573 2.2443505e-09 4.0924384e-05 9.359743e-15 9.417656e-10 3.754043e-15
1.894815e-09 2.9662763e-13 5.958566e-11 1.2424867e-13 7.055338e-14 1.488138e-15 1.5692615e-13 9.113185e-09
2.4203356e-08 1.9840282e-08 3.6792105e-08 1.0851341e-08 2.0522489e-08 9.881776e-09 3.3099358e-08 1.012738e-08
2.3330648e-08 1.507044e-08 4.0004767e-08 1.507044e-08 4.0004615e-08 0.009194828 4.7278772e-07 0.0031836622
3.3025592e-13 6.834487e-08 1.5500815e-12 3.842918e-08 2.5045853e-12 6.509956e-09 2.7149411e-12 1.5286381e-12
1.01316245e-14 1.3374983e-12 2.3900606e-09 1.3467437e-08 7.822802e-09 2.1903594e-08 2.1637392e-09 7.922065e-09
2.2763018e-09 1.7714354e-08 3.4089636e-09 1.312704e-08 4.6012563e-09 2.2781489e-08 4.6012563e-09 2.2782832e-08
0.003058897 1.0719057e-07 0.0017128896 5.6684827e-13 5.3655192e-08 3.0579575e-12 2.5780372e-08 8.875725e-13
1.6318058e-09 2.4998998e-12 1.4380116e-12 1.1591481e-14 5.993044e-13 1.2840039e-12 7.2525506e-12 3.798244e-12
9.953721e-12 7.322668e-14 2.7634084e-12 8.2673636e-13 3.693821e-12 1.2361416e-14 1.901072e-12 1.40715415e-14
1.9613172e-12 1.40715415e-14 1.9613217e-12 7.0675405e-08 1.04541835e-11 4.572135e-07 1.333936e-20 3.24457e-11
1.8503408e-20 9.109767e-12 1.962667e-16 5.3639505e-16 1.1263595e-15 6.1357987e-16 8.788574e-18 1.2344224e-16
2.0066883e-08 6.992413e-08 4.0091546e-08 9.1770005e-08 1.8911278e-08 4.864674e-08 2.117578e-08 8.048056e-08
2.1590576e-08 5.9074303e-08 2.971607e-08 9.908222e-08 2.971607e-08 9.908365e-08 0.019453647 8.461374e-07
0.007451983 1.0252968e-12 1.9637973e-07 5.3111625e-12 1.062446e-07 4.868845e-12 1.3176175e-08 8.189799e-12
4.644832e-12 2.8101246e-14 2.7886775e-12 3.4619276e-09 1.0720195e-08 7.103536e-09 1.5050897e-08 3.1379617e-09
7.454273e-09 3.8742636e-09 1.2712259e-08 3.3108034e-09 8.649497e-09 4.664713e-09 1.3133e-08 4.664713e-09
00000000: f3e3 2231 543d d031 49eb 5e31 a25c de31
00000010: 15ea fb30 2217 a831 1d41 0b31 224c de31
00000020: f528 2631 a172 ca31 6832 2431 0917 1432
00000030: 6832 2431 8216 1432 002f 213b ce07 d533
00000040: 39de 0d3a 49d3 162b f0f7 7c32 f9e1 382c
00000050: 84f0 3432 b2b8 8d2b 5921 c030 b3be b32b
00000060: c20a 4e2b 6d21 6428 37be 112b 549b 1a2f
00000070: 50d8 b530 e03a 1530 5d55 da30 def3 b22c
00000080: 7752 f32f 53a3 ed2e b906 3d30 5b91 652e
00000090: 934b 1730 2e73 302d 686f 0630 2e73 302d
000000a0: 6a6f 0630 4ee0 8a37 255f c430 b6e1 a138
000000b0: 6e15 9f22 4e69 a731 6f35 bc23 b452 be30
000000c0: ef68 d32a 2bde 082b 5f70 d52a 3e18 942a
000000d0: c29d 9128 5f0b 582a f7d2 1d25 a107 a027
000000e0: b49a 9e27 d0df de27 66c0 c117 2b8c 0427
000000f0: 1231 a325 c337 7326 edfc 7411 e54a b025
00000100: cb90 c10b a5bc b626 cb90 c10b a4bc b626
00000110: 72ee f72b c542 9428 6420 0e30 6283 c619
00000120: d843 8929 428d fd19 078a ae27 873f c41e
00000130: dd1d 3922 beae a121 92d8 1a21 a16d 491d
00000140: 2bd6 ce1e 2378 040d 4dbe 0b12 f218 2013
00000150: c1bf 4613 cf6e 0600 8931 3e10 6e9f 3506
00000160: af34 8610 7907 0000 9a4d 3310 1600 0000
00000170: fea3 d50f 1600 0000 fca3 d50f 4790 a117
00000180: 8b23 8013 d93d ce1a 539b 6504 e914 7c14
00000190: 96d9 8e04 e8e9 4f11 f099 5209 d8a8 180b
000001a0: c100 710c 15af fa0b 98d9 3f08 d3ea 4609
000001b0: d0e4 ad2e f391 912f 9e55 b42d 7fee 092f
000001c0: cae8 d22f 49b1 2930 4938 b22d fa1a 272f
000001d0: f86f aa2e 1184 4d30 7875 552f 6c50 d830
000001e0: 7875 552f 6d50 d830 bebc 133a 083b 1a31
000001f0: 39a6 2b38 329c 2828 6e6f 8130 ef40 8727
00000200: f035 0231 8cfc a62a bf07 832e 3ee4 0b2a
00000210: 41df 9e29 9a76 d626 e2ae 302a 3690 1c32
00000220: bee7 cf32 3e6d aa32 5905 1e33 b46c 3a32
00000230: 6e49 b032 83c4 2932 2129 0e33 b0fc 2d32
00000240: a368 c832 3f74 8132 b5d1 2b33 3f74 8132
00000250: 8ad1 2b33 e7a5 163c 73d3 fd34 fda4 503b
00000260: e5ea b92a fdc4 9233 9227 da2b 550d 2533
00000270: 993e 302c 2eae df31 080c 3f2c fe22 d72b
00000280: df83 3628 743c bc2b 643e 2431 6a5e 6732
00000290: 0c65 0632 8326 bc32 e7b0 1431 9c19 0832
000002a0: 206d 1c31 472a 9832 1f43 6a31 5585 6132
000002b0: 1419 9e31 06b1 c332 1419 9e31 fab3 c332
000002c0: c777 483b a430 e633 0a83 e03a b98d 1f2b
000002d0: 8272 6633 442f 572c a373 dd32 57d4 792b
000002e0: 1046 e030 31ea 2f2c d461 ca2b 45d0 5028
000002f0: 6fb0 282b 1eb5 b42b 2b2d ff2c 8aa3 852c
00000300: 931b 2f2d 4fe4 a429 2475 422c a2b4 682b
00000310: fbf6 812c f8ae 5e28 abc6 052c 887d 7d28
00000320: f303 0a2c 887d 7d28 0804 0a2c 37c6 9733
00000330: 75e9 372d f276 f534 30f9 7b1e 9cb2 0e2e
00000340: 7fc2 ae1e be42 202d b547 6225 f89a 1a26
00000350: 5553 a226 34da 3026 de1e 2223 b851 0e25
00000360: 8b5f ac32 3229 9633 1f31 2c33 1813 c533
00000370: 5772 a232 a8ef 5033 08e6 b532 a8d4 ac33
00000380: 2e76 b932 e2b8 7d33 5442 ff32 07c7 d433
00000390: 5442 ff32 d0c7 d433 415d 9f3c 1f22 6335
000003a0: c42f f43b 364c 902b 73dc 5234 b3de ba2c
000003b0: 9628 e433 a84e ab2c 6e5d 6232 9313 102d
000003c0: ed6c a32c 101d fd28 593c 442c e0e6 6d31
000003d0: eb2b 3832 5d13 f431 4649 8132 9ba3 5731
000003e0: 3d10 0032 621e 8531 1b65 5a32 4584 6331
000003f0: e498 1432 4047 a031 8b9f 6132 4047 a031

exp_avg f4 [128]
6.898116e-05 7.414601e-06 -1.042437e-12 4.7793543e-21 2.2457307e-05 -7.035443e-05 7.954798e-05 -1.3304127e-07
8.131917e-05 6.623991e-05 4.409781e-05 -0.00013784529 6.224198e-19 0.00018082479 2.996463e-19 -5.4172062e-09
-1.6464117e-05 5.0425385e-16 -8.2127816e-13 2.0088521e-08 3.5950634e-06 -7.637093e-05 -1.7761991e-05 -1.1649629e-06
-9.0457995e-11 -4.095744e-06 -4.4808178e-07 1.3129433e-11 -0.00020445586 6.559999e-05 7.6138735e-05 8.8983936e-05
1.4491912e-05 -9.370331e-10 -2.6766997e-05 0.0001534301 4.2847376e-05 1.6422751e-05 4.6885325e-12 -6.47325e-05
0.00019441394 1.0796355e-05 7.149451e-10 -2.4987307e-11 -8.3959516e-05 -3.495221e-05 -6.916774e-07 -0.00011835838
-4.4706465e-09 3.533576e-24 4.965964e-14 -4.071099e-17 -2.0951898e-05 -6.826584e-05 -2.6074633e-05 -4.1558054e-15
7.5911207e-06 7.340842e-06 -4.5388715e-05 1.954699e-10 -0.00010635834 -3.4610104e-05 -7.8883157e-25 -0.00017840491
-0.00010821281 6.260944e-07 0.0001407316 -4.4473818e-05 -0.00014219349 0.00010528729 -1.4597972e-05 -8.1771265e-09
-0.00022301186 2.2588978e-07 0.00010859056 3.5754714e-14 -2.9438218e-07 1.9059434e-26 -2.4717151e-17 5.6272547e-12
-1.7607608e-15 0.00015221705 -4.0765466e-05 -1.1016376e-10 0.00012899053 6.486166e-06 -3.5901164e-11 -0.000119546414
-4.1766463e-05 7.402609e-05 -1.6569481e-13 -1.9263527e-11 -5.9428457e-05 5.7102654e-05 -1.5945273e-09 5.102496e-16
1.1825662e-05 0.00012929524 -6.314036e-05 -1.6136662e-16 3.898212e-05 -6.260539e-05 2.363814e-06 8.684623e-05
-1.4368987e-11 9.8672225e-12 -0.000104008 6.918618e-05 -0.00010086156 -9.54986e-07 -4.7680925e-05 0.00018215882
3.954892e-06 -2.904767e-06 4.067585e-05 0.00012179447 2.6052503e-05 6.4341136e-27 -2.1064802e-18 -5.68987e-17
3.864757e-17 -1.6487997e-21 5.6416447e-06 2.9309396e-05 5.632344e-05 1.7123185e-07 8.6005e-05 -0.00014360002
00000000: faa9 9038 f0ca f836 c0b5 92ab 148f b41d
00000010: b362 bc37 3f8b 93b8 ffd2 a638 1bda 0eb4
00000020: e689 aa38 48ea 8a38 aaf5 3838 908a 10b9
00000030: b6b4 3721 c99b 3d39 45e1 b020 4022 bab1
00000040: 6c1c 8ab7 5e57 1126 542b 67ab 208f ac32
00000050: b842 7136 5529 a0b8 96ff 94b7 d25b 9cb5
00000060: 53eb c6ae 2c6e 89b6 e48f f0b4 b6f9 662d
00000070: 3463 56b9 ba92 8938 acac 9f38 e39c ba38
00000080: 4a22 7337 ecc8 80b0 b089 e0b7 14e2 2039
00000090: 05b7 3338 97c3 8937 8cf6 a42c ffc0 87b8
000000a0: 98db 4b39 fe21 3537 ca85 4430 6aca dbad
000000b0: 6c13 b0b8 a699 12b8 b6ab 39b5 2c37 f8b8
000000c0: 399c 99b1 d7b2 8818 aba5 5f29 0ebf 3ba4
000000d0: dcc1 afb7 f229 8fb8 d9ba dab7 8aba 95a7
000000e0: 3bb7 fe36 5a51 f636 c35f 3eb8 e3eb 562f
000000f0: b30c dfb8 512a 11b8 ad21 7497 3412 3bb9
00000100: 4ff0 e2b8 e110 2835 5a91 1339 6689 3ab8
00000110: c619 15b9 afcd dc38 d0e9 74b7 627b 0cb2
00000120: 4ad8 69b9 1c8c 7234 1dbb e338 6106 2129
00000130: 940b 9eb4 68c1 bc14 b9f9 e3a3 cefd c52c
00000140: 9cc0 fda6 749c 1f39 96fb 2ab8 af40 f2ae
00000150: a241 0739 bea3 d936 1ee5 1dae feb4 fab8
00000160: 662e 2fb8 743e 9b38 478e 3aaa 9b71 a9ad
00000170: d242 79b8 8281 6f38 7126 dbb0 c611 1326
00000180: d566 4637 6d93 0739 396a 84b8 050b 3aa5
00000190: bc80 2338 034b 83b8 04a2 1e36 3721 b638
000001a0: 2ac8 7cad 0596 2d2d df1e dab8 0c18 9138
000001b0: a385 d3b8 122d 80b5 01fd 47b8 e301 3f39
000001c0: 43b4 8436 84ef 42b6 5d9b 2a38 e86b ff38
000001d0: 538b da37 aae1 fe13 496e 1ba2 1033 83a4
000001e0: ff3a 3224 d928 f99c 5c4d bd36 73dd f537
000001f0: d53c 6c38 dadb 3734 955d b438 5693 16b9

exp_avg_sq f4 [128]
2.5670158e-08 6.5151866e-09 6.586526e-14 1.2942516e-26 2.8276146e-09 1.13421365e-07 8.383782e-08 4.27914e-11
3.184572e-07 5.0308227e-08 8.38036e-08 1.0301014e-07 3.135802e-19 2.787248e-07 2.9566413e-22 2.60893e-09
1.346392e-07 2.0512581e-19 1.6542783e-11 2.5166827e-11 1.4852063e-07 2.2774798e-07 2.1168687e-07 3.2776284e-10
1.884795e-13 8.206653e-09 4.599724e-10 6.83679e-15 3.8820463e-07 3.4831693e-08 8.7005134e-08 6.0493505e-07
1.5416912e-08 7.220808e-12 6.7832445e-08 2.79286e-07 3.1968952e-08 1.0892442e-07 2.5030336e-13 1.837208e-08
2.7487428e-07 6.3674666e-09 1.2326717e-13 3.473477e-18 2.2838219e-07 1.6684782e-08 3.5736374e-09 6.30119e-08
7.1133854e-12 1.1413304e-28 5.386454e-13 1.9592137e-22 1.301857e-07 5.881578e-08 4.0214985e-08 5.9967773e-15
1.685561e-08 2.9873597e-09 3.6256004e-08 1.11299736e-13 1.02178944e-07 2.0525269e-08 2.2367893e-30 6.988914e-07
6.7125154e-07 3.3236938e-10 1.3477387e-07 3.4462392e-08 1.7134967e-07 1.1061253e-07 8.643971e-09 2.829641e-09
3.2726314e-07 2.9723475e-09 8.381093e-08 5.7807054e-18 8.665223e-10 1.2027944e-33 2.5234936e-22 1.1361726e-15
3.263661e-17 3.866976e-07 4.6652783e-08 5.21979e-11 7.944977e-08 1.0274346e-08 2.0787287e-11 1.3016592e-07
5.562364e-08 1.8278125e-07 1.0797248e-14 2.0455726e-11 9.571312e-08 1.1680376e-07 5.402544e-13 2.642246e-21
4.7528587e-08 2.346153e-07 1.6957993e-07 5.399146e-19 2.0340995e-08 1.6639857e-08 9.6086294e-09 1.15209254e-07
8.638611e-15 1.1821462e-10 2.999035e-07 7.3356595e-08 5.0948316e-08 1.4524341e-10 7.121118e-08 1.6837367e-07
8.897749e-09 1.0551396e-08 1.15406586e-07 1.804117e-07 2.805917e-08 3.544213e-33 3.2849955e-25 1.3168424e-20
1.5145464e-20 1.1306334e-27 7.136616e-09 8.364987e-08 6.6291875e-08 4.7749873e-12 5.3100333e-08 2.569959e-07
00000000: 4681 dc32 30dc df31 bd50 9429 2d2d 8014
00000010: ec4f 4231 0e92 f333 540a b433 d532 3c2e
00000020: 6df8 aa34 7b12 5833 84f7 b333 6c36 dd33
00000030: e61a b920 a5a3 9534 cfb7 b21b c848 3331
00000040: 5791 1034 792b 7220 0983 912d a85e dd2d
00000050: 0a79 1f34 e38a 7434 0b4c 6334 8530 b42f
00000060: 8435 542a 3efd 0c32 5cdf fc2f 4252 f627
00000070: 706a d034 da99 1533 94d7 ba33 d262 2235
00000080: 266e 8432 420f fe2c 48ab 9133 c7f0 9534
00000090: 3c4e 0933 d5e9 e933 84e8 8c2a a2d0 9d32
000000a0: 6f92 9334 d4c8 da31 58c9 0a2a 1026 8022
000000b0: 3839 7534 3952 8f32 1894 7531 2951 8733
000000c0: ae47 fa2c 4aae 1011 7e9d 172b bada 6c1b
000000d0: 2cc9 0b34 a29c 7c33 d8b8 2c33 820e d827
000000e0: e1c9 9032 304a 4d31 e6b7 1b33 ee9f fa29
000000f0: 786d db33 8b4f b032 4c78 350e 749b 3b35
00000100: 0e30 3435 d5b8 b62f 5cb6 1034 cd03 1433
00000110: 3dfc 3734 e289 ed33 9680 1432 9273 4231
00000120: b4b2 af34 1742 4c31 8cfb b333 3845 d522
00000130: 1630 6e30 37d9 c708 2c89 981b 5fbd a326
00000140: 8282 1624 509b cf34 475f 4833 9c91 652e
00000150: f99d aa33 0d83 3032 cfd8 b62d bcc3 0b34
00000160: d7e6 6e33 8742 4434 8581 4228 33ee b32d
00000170: d88a cd33 8cd5 fa33 6f11 182b 78a4 471d
00000180: 3c22 4c33 90ea 7b34 c715 3634 cb5a 1f21
00000190: 52ba ae32 6fef 8e32 3313 2532 f568 f733
000001a0: 909e 1b28 75fa 012f 6c02 a134 3788 9d33
000001b0: 44d2 5a33 63b2 1f2f c3ec 9833 34ca 3434
000001c0: b7dc 1832 8845 3532 71d5 f733 31b7 4134
000001d0: c406 f132 8a38 9309 d554 cb16 97be 781e
000001e0: 7c0b 8f1e f127 b312 5736 f531 01a3 b333
000001f0: 585c 8e33 4301 a82c 6f10 6433 3ff9 8934
