results/mimicagentrewards/RaceCar/RaceCar-999949.pt (torch, 543535 bytes, 47 tensors)

network_body._body_endoder.seq_layers.0.weight f4 [128, 13]
00000000: c99b 0fbf 2250 5b3e 3cc4 97be 1744 873e
00000010: 4658 2f3e 451c 46be 433d 4abf 1f2b 46be
00000020: 2976 1ebe 6e70 d9be 91c1 73be b6cb babd
00000030: 9e7a f5bc d7c3 ce3d 0664 693c 05b1 e8be
00000040: fc8e 74bd b01b 97bd bfee c4be a72a 843d
00000050: 6145 8dbe 7f5f 2c3f ac26 063e 70a0 a23e
00000060: f0c2 363e 2c42 fabe f5d9 993e f48e 033e
00000070: e5e0 e23d 66a6 05bd 0054 473d 6558 6a3e
00000080: fca5 c83e 9e00 90be da91 143e dce0 9dbe
00000090: d394 84bd 2a6c b53c dba4 973e 4154 c73d
000000a0: a944 8abd de57 023e 2fae 0dbd 2952 22be
000000b0: 3593 643e 6703 d63d b44d 7d3d f265 1d3e
000000c0: ae65 053e c53e b0be a5c5 863e 1601 683e
000000d0: 66a4 8bbd 7c1c 1f3f 59df ffbd 20fe c1bd
000000e0: 93f5 403e 88bb edbd 82f1 8b3e 302b 163e
000000f0: 9187 993e 05e7 06bf 1211 19bf 4cac c43c
00000100: 5c36 833e 242b 49be 9260 c93c 7cac 373e
00000110: 1da4 a13e 16fd b6be 5f9b a23e 891f 6ebd
00000120: 7fe2 91be 09e3 94bd d05a c0be 5fe2 463e
00000130: caab b63e 32f0 d4bd 98b1 a83d b02d ef3d
00000140: 78a7 8bbe 5540 cb3e 51aa 3cbe 424a 3e3e
00000150: 31ad 69be 4143 2cbf ed69 c0be 0a37 45be
00000160: 2ea3 543e beb1 5cbe 6509 8fbe 63c5 33bc
00000170: 0e96 d6bd 7933 443e 17c1 5abe b0ab 62be
00000180: b513 c9be 5300 5dbe c375 e73e 989e 3ebe
00000190: 71a5 033e 4abf 19be 26d1 2ebe 19f6 973e
000001a0: 394b 62be af1f a3bd 5f2c 443e a560 443d
000001b0: 8b23 5ebe 26d2 a5bd 4064 6cbe 1b3f 573e
000001c0: 958b 7ebe ef43 043d de63 313e ee65 c4be
000001d0: 7cff dc3e 3539 7bb8 0ec5 2f3e 5aff b33e
000001e0: a15b 793d 3eee 3b3e 8a81 86be cff5 8c3e
000001f0: fe57 53bd 2dd3 873e f9c7 c9be 1805 97bc
00000200: ead6 b43c e5cb e7bc 2ea3 22be 077d b5be
00000210: beb5 e23e f982 0cbe 4d58 5b3e e32f 9b3c
00000220: f3e9 b1be 3b46 fd3c 8ed1 10bc 2a8a 463e
00000230: 6689 89be f635 3a3e 0bd0 77be 8cc0 21be
00000240: 3092 d63e 4a5c 243a 76f3 2cbe 49ae 03bf
00000250: 0a29 78ba b3de 4abe 2f68 cf3e 4aa5 fc3e
00000260: f6e0 3bbd ba3c 0dbf 6fab bd3d e273 5cbe
00000270: d21c ddbc aa35 dbbd fe6e 91be 8869 32bd
00000280: 5bb4 873e 4a6a 063f 988e b9be 96bc cdbc
00000290: 3fbb 5f3d 4cc0 01be 8639 853d 9b44 d63c
000002a0: 74db fd3d 6589 c5be 281c d0bb 1156 123d
000002b0: 087b 31be 5897 85be 68a8 29bf f8ee 273d
000002c0: c8c0 1bbf 9b7a 69be 7ebd 0e3f 8c00 abbe
000002d0: 7f3e 5a3e 6df9 babe 8ea3 6c3c d1c0 16be
000002e0: d03f 593e b1e8 4f3c 47cd aa3e b615 b2bd
000002f0: 1b66 893e 47f3 dc3d 1f5d 303e ac94 86bd
00000300: 9b7b ae3e 0cee 673d f3dc 083e c131 e63d
00000310: d645 803e 9a91 503e 9228 2d3e 4c94 24be
00000320: 49b5 2abe 2d34 003f 03b0 413e 5c0f ca3c
00000330: 98ee 9cbe a1b9 693e 606b 043e 5dbe dabd
00000340: 48e0 ee3d 643c a7bd 7e86 183f b30d e23d
00000350: 4820 873d b4c7 8d3e 54dd a8be 7caf 0abe
00000360: 54f1 e7bc a7ab a6be 8228 29bd 4b99 c5be
00000370: 76e2 bfbe f572 633c b810 a03d 99d8 373e
00000380: 6ac3 5b3c 814c 033e 0c67 803e 3cef 2cbe
00000390: 2c43 5dbe 730d cbbe 092b d7be baa3 123e
000003a0: f103 40be cecd 76be 9620 3a3e 0e75 9fbd
000003b0: 7615 213e bca1 eabe 7571 2e3e 4ebd 433e
000003c0: b18e 5a3e f591 033e d41e 10bd 3eb8 63be
000003d0: 9e51 973e adc6 703d f8a2 66be e11d 7cbe
000003e0: 149e 203f 20bb 023d 065e 053f 984c d13e
000003f0: 48aa 723e cdde 28bf 70df f9be d7a0 933e
-0.56097084 0.21417287 -0.29641902 0.26419136 0.17123517 -0.19346721 -0.7899973 -0.19352387
-0.15474762 -0.4246859 -0.23804308 -0.09120886 -0.029965695 0.10095947 0.014245039 -0.45447555
-0.059706673 -0.07378328 -0.384634 0.06453448 -0.27591994 0.67333215 0.1310069 0.3176303
0.178478 -0.4887861 0.300491 0.12847501 0.110780515 -0.032629393 0.048664093 0.22885282
0.39189136 -0.2812547 0.14508763 -0.30835617 -0.064736985 0.022146303 0.29617962 0.09732867
-0.06751377 0.12728831 -0.034589943 -0.15851654 0.2232178 0.10449868 0.06184168 0.1537092
0.13027069 -0.3442289 0.26322666 0.22656664 -0.06818466 0.6215284 -0.12493772 -0.094722986
0.18843679 -0.11608034 0.27332693 0.14664912 0.2998624 -0.5269626 -0.5979167 0.024007939
0.2562741 -0.19645363 0.024582181 0.17936891 0.3157052 -0.35739964 0.31759164 -0.058135543
-0.28493115 -0.07269866 -0.37569284 0.19422291 0.3567794 -0.10397376 0.08236998 0.11678636
-0.27276206 0.3969752 -0.18424346 0.18583015 -0.22819974 -0.6729012 -0.37580815 -0.19259277
0.20765373 -0.21552178 -0.27936855 -0.010972354 -0.104778394 0.1916026 -0.2136272 -0.22135806
-0.39272848 -0.21582155 0.45207033 -0.18615186 0.1285608 -0.15014377 -0.17071971 0.29679945
-0.22099008 -0.079650275 0.19157551 0.04794373 -0.21693246 -0.08096723 -0.23085117 0.21020167
-0.24857934 0.03229135 0.17323253 -0.38359016 0.4316367 -5.989634e-05 0.17165014 0.35155755
0.0608784 0.18352601 -0.26270705 0.27531287 -0.051597588 0.26528302 -0.3941038 -0.018435046
0.022075135 -0.028295467 -0.1588256 -0.3544695 0.44279283 -0.13721837 0.21420403 0.018943733
-0.34748802 0.030917278 -0.008839024 0.19388643 -0.2686264 0.18184647 -0.24200456 -0.15796107
0.41908407 0.00062698557 -0.16889748 -0.51437813 -0.00094665645 -0.19811516 0.40509173 0.49344856
-0.045868836 -0.55170786 0.09261214 -0.21528581 -0.026991282 -0.10703595 -0.28404993 -0.043557674
0.26504788 0.52505934 -0.36241603 -0.025114339 0.05462193 -0.12671012 0.06505112 0.02615576
0.12395373 -0.38581386 -0.0063510127 0.03572661 -0.17332089 -0.2609203 -0.6627259 0.040999383
-0.60841036 -0.22800677 0.5575789 -0.33398855 0.21312903 -0.36518422 0.014443291 -0.14721991
0.21215749 0.012689755 0.3335974 -0.08695547 0.26835713 0.10788589 0.17223023 -0.06571326
0.34078678 0.056623504 0.13365535 0.112399586 0.2505328 0.20368043 0.16910008 -0.16072196
-0.16670717 0.50079614 0.189148 0.024665527 -0.30650783 0.22824718 0.12931585 -0.1068084
0.11663872 -0.081658155 0.5958022 0.11037769 0.06597954 0.27691424 -0.3298136 -0.13543504
-0.028313316 -0.32552835 -0.041298397 -0.38593516 -0.37477463 0.013882388 0.07815689 0.17953719
0.01341329 0.12822153 0.2507862 -0.16888136 -0.21607655 -0.39658698 -0.4202502 0.14320269
-0.18751504 -0.24101946 0.18176493 -0.07785998 0.15730843 -0.4582652 0.17035468 0.19115183
0.21343495 0.12848647 -0.03518565 -0.22238252 0.29554456 0.058783222 -0.22523105 -0.24620773
0.6274121 0.031916738 0.52096593 0.4087875 0.2369777 -0.65964967 -0.48803282 0.2883365

network_body._body_endoder.seq_layers.0.bias f4 [128]
00000000: b112 813c ddb8 56bc e0a3 ce3c 58ec 91bd
00000010: 2862 7f3d c582 95bd 236e 0abc c521 79bc
00000020: 3b05 b4bd 19ec 97bc ea13 01bd e847 2d3d
00000030: c40c 82bd 8afa e4bd e6ab 75bc bafa 2a3d
00000040: d2cb e3bb 67ae 3bbc 5ca0 b7bd b890 b3bd
00000050: eab9 5c3d 063d e73c 0c05 c93c 5ae1 72ba
00000060: 997c c63d f565 28bd 3852 18bb d612 70bd
00000070: 31c3 ff3d c5c4 643d e010 773d 2da3 013d
00000080: ed7a 00bc 5dcd bebc f753 ddbc 99d6 9abd
00000090: ef4a 6bbd f98b cdbd 77aa 4fbd 7be9 f7bc
000000a0: e0f3 b7ba 7e51 85bd 38f8 2cbd 908a 10bd
000000b0: 418d 5ebc fe12 3f3d 3476 c1bd 70f8 ecbc
000000c0: 7686 56bd 757c b3bc c809 d3bd 49b4 5abd
000000d0: cd51 f53c 5bbd e63a 42a7 ac3c 36f9 b33c
000000e0: 57ea bd3d 32bd 6b3b c52d 46bc e758 37bd
000000f0: 2099 6dbd 5363 16bd f4dd 4534 677e 5ebc
00000100: d35c d4bd 64e9 9c3d bba6 2c3d 9d41 a0bc
00000110: a6e3 2c3d 7b33 66bd 5f6c d3bb 2c90 843d
00000120: 2bb6 b5bc d8b7 0bbd 19d9 233d 0394 4cbd
00000130: 912e 2ebd f449 683d 1fc9 40bd 02b4 05bd
00000140: e666 b4bd 2a07 cc3d 5ff6 4c3b 1f79 d8bb
00000150: b9a0 55bd 9d2d 123e c88a c93c 0ad9 4f3d
00000160: 4410 e33c 5ce7 e9bc 4776 ba3c 2a38 0c3d
00000170: befb f63d 85e9 5a3b c926 803d daa5 23ba
00000180: 4123 3a3e 880a ebbb 3619 52bd 7498 c13c
00000190: 7541 c83c 87fe 543c b90f 503d 1dbc 50bd
000001a0: 7f2f 983d 6078 edbd 39ec a9bd eb86 71bc
000001b0: 1aa3 9dbc 93f8 ad3d 840b 443c 4a6e 3fbd
000001c0: 5e87 8a3b e719 b5ba 57fb f0bd 9a4d 753d
000001d0: ff8f ad3c c87b 72bd bb91 27bd ad05 50bd
000001e0: 92a6 dabd d508 7ebc c80e 02bd 9fd1 303a
000001f0: 3d67 053e 6b60 ebbc 15ea 043d 2a36 c6bc
0.015755983 -0.013105598 0.025224626 -0.07125157 0.06234947 -0.07300333 -0.00844911 -0.015205805
-0.0879006 -0.018545197 -0.031513132 0.042304903 -0.06350091 -0.11180599 -0.014994597 0.041743018
-0.0069517875 -0.011455155 -0.08966133 -0.08767837 0.05388824 0.02822734 0.02453854 -0.00092651474
0.09691734 -0.04111286 -0.0023242366 -0.058611713 0.12488402 0.055851717 0.060318828 0.031649757
-0.007841808 -0.023291284 -0.027017577 -0.075604625 -0.05744451 -0.10036463 -0.050699677 -0.0302627
-0.0014034472 -0.06509684 -0.042228907 -0.035288393 -0.013583482 0.04664897 -0.094463736 -0.028927058
-0.052374326 -0.021909932 -0.103046 -0.05339459 0.029946232 0.001760404 0.021075848 0.021969419
0.092732124 0.0035970923 -0.012095873 -0.04476252 -0.05800736 -0.036715817 1.8427801e-07 -0.013579941
-0.10369267 0.07661703 0.042151194 -0.019562537 0.04220929 -0.05620144 -0.006452128 0.06472811
-0.022181591 -0.034110874 0.040001962 -0.049945842 -0.042524878 0.056711152 -0.047066804 -0.032642372
-0.08808689 0.09962304 0.0031274778 -0.0066062356 -0.05215523 0.14275213 0.024602309 0.050744094
0.027717717 -0.028552704 0.022761477 0.03423325 0.12059735 0.0033403349 0.06257398 -0.00062426704
0.18177511 -0.0071728863 -0.051293574 0.023632266 0.024445275 0.013000137 0.050796244 -0.05096065
0.07430934 -0.11595225 -0.08297009 -0.01474164 -0.019242812 0.084946774 0.011965636 -0.04673604
0.004227563 -0.0013816924 -0.11766689 0.05988846 0.021186827 -0.05920008 -0.040910464 -0.050786663
-0.10676302 -0.015505035 -0.031752378 0.0006745103 0.13027664 -0.0287325 0.0324498 -0.02419575

network_body._body_endoder.seq_layers.2.weight f4 [128, 128]
00000000: 5b79 13bd 03da e7bd d64e 743d 173c 35bc
00000010: a271 b83d ab52 f53d 6752 863c 7536 373d
00000020: 31fe 9dbd 9475 b43d ba8b d3bd 4496 563d
00000030: 44db cd3d 231c b13c 61fb 4f3d cfe2 8abd
00000040: 4966 1bbd 9319 49bd 0316 bb3b 897f 7cbd
00000050: 2ee3 c6bd 0900 cfbc 6f95 f33c 4a24 3b3e
00000060: 66dd fd3d ce1b 49bd b924 63bd bfc5 013c
00000070: dbd2 66bd f971 983d b885 623d b316 dcbb
00000080: 551d adbd dce6 343d 4101 e73c 3af1 a83d
00000090: 09c3 653d f012 b3bd 7ebb 9dbd 8772 08bc
000000a0: 1307 173e 2573 c0bc 10c2 debd e777 a6bd
000000b0: d674 de3c 3156 b83c 1291 85bd 1e3a c2bc
000000c0: 3081 b93c 701d 08bd a350 8bbc 7010 bcbc
000000d0: a82a e1bd a4a4 aabc 711f 3f3e 31fc 97bc
000000e0: 0155 883d 5ec2 5bbd f293 08be cc37 85bd
000000f0: 2ff8 d7bd 626a 243d c968 a3bc 9170 66bd
00000100: 32d6 8cbd 6a99 903d 2a0c 78bb 9925 bd3d
00000110: bdee bd3d 8768 0abe f38c 803d 77ec 77bd
00000120: c933 49bd 08ca 01be 2ac1 b5bd 3e1b fa3d
00000130: 2daf d63d 5645 ca3d 03f4 fdbd 257e 1c3e
00000140: 50f7 573d 9036 1b3d e22f db3c 75a0 c93c
00000150: 8157 7e3d 9ec4 5a3c c329 6abc d7f6 423b
00000160: 8d09 dfbc e268 2abe a33f b8bd 29a8 aebd
00000170: 3037 703c 937d b7bd 836b 943e 610b bf3c
00000180: e693 a9bd 0555 4b3b 02c3 ccbd 3183 abbd
00000190: 99b6 3dbc 372d 9cbc 9907 04be 91f8 803d
000001a0: 650e 9bbd 598c 49bc 0ff6 cdbd 8fdf 26be
000001b0: 3a9c 803d f874 7e3d d07f 083e 15f1 3bbd
000001c0: a03e 9cbd f5c1 103d d49f 293d 0efc 8c3d
000001d0: ee88 ab3d 1347 e83d 28d3 6b3c 1b89 383d
000001e0: b892 113d ddcb 61bd 6e43 a8bd c85d 68be
000001f0: 5e8c cb3d 6c29 f5bd 3297 f7bd 22e8 19be
00000200: 839f bebc 9c5e 16bc fb35 ed3c ea5f 2b3e
00000210: e495 273e 2459 dc3d 4281 7e3b 6429 f8bd
00000220: 308f 183b 8eac e0bc a3ab 003d a491 733d
00000230: 4aed 803c 64c7 0d3e 9667 4b3d 03df 53bc
00000240: 8376 ebbd 336f 463c ca04 963d 00e6 16bd
00000250: a3e1 9e3d e258 b2bd ad37 173e fddf 98bd
00000260: 982b 933d 1460 a33d bd8e 1bbc d0a1 0b3d
00000270: 3ce9 5dbd 3a31 2bbd e920 51bc fcd0 223e
00000280: 3bae 43be cd32 f53c 358a 3abd 9f08 3b3d
00000290: 8a7f 26be 7fd1 583d 8e39 aa3d cc4b 91bb
000002a0: b8ac a13d b951 9cbd b865 f8bd b97d 85bd
000002b0: 9e07 5f3e 3e27 a8bd a159 163d ce01 43bd
000002c0: 3ec5 103e 7dfb 943c 673f 23bd 1469 8dbc
000002d0: f5a6 273e 1d6c 473d e9b1 80bd df62 26bb
000002e0: ffe5 2f3d 39aa 1b3d b4b9 fcbd 6941 d63d
000002f0: 8e41 4bbc 91f0 023d d662 043d 09a3 bdbd
00000300: 91e0 48bd 1873 293e 9672 8a3d dbcc 1ebe
00000310: 1deb 873c 73d1 a1bb 3595 f1bd b3cc 59bd
00000320: 0455 08bc 4456 09bc 64a3 4dbd c74d 1fbe
00000330: 9b97 eb3b 5d91 97bc aba7 39bd 666e 973d
00000340: f60a 973c f565 49bd ad73 bfbd 3456 9fbd
00000350: 95bf 18bc dc9d 70bd 0ff4 0cbd 5e06 5fbc
00000360: 140d 94bd 562b 9abd 0190 6a3e fbe2 d33d
00000370: a92b 8bbd 11e9 bbbd acf3 36be 2c91 a73c
00000380: d5a7 693d 1865 c33d 19c4 98bd 61d2 55bd
00000390: 0325 19bd c580 2abe 9663 47bc e2c6 b3bd
000003a0: 4893 b43d fd04 0bbd d514 32bc 0312 b9bc
000003b0: d8f7 a2ba 128b 4a3e 0c88 103c 8c1b f93b
000003c0: 32b1 5bbe b16f 91bd 5a5f 883d 7e05 fb3d
000003d0: cc82 8abd b20f 0dbe 7cc9 e23b 0ea4 a73d
000003e0: 7f95 64bc 1c1e c5bd 46f4 2abe dcf9 18bc
000003f0: 7a8b 59bd c47b f63b c1cb 06bd c399 38bd
-0.036004405 -0.11320879 0.059645496 -0.01106169 0.09006049 0.11978658 0.016396714 0.04472967
-0.07714499 0.08811489 -0.10329385 0.0523894 0.10051587 0.021619862 0.050776843 -0.067815416
-0.037939344 -0.049096655 0.005709411 -0.061645065 -0.097113 -0.025268571 0.029734341 0.18275562
0.12395744 -0.049098782 -0.055454943 0.0079206815 -0.05635343 0.074436136 0.055303305 -0.006716573
-0.0845286 0.044165477 0.02819884 0.08249135 0.056094203 -0.087438464 -0.07701777 -0.008328087
0.14748792 -0.023492405 -0.10876858 -0.08128338 0.027155321 0.022502037 -0.065218106 -0.023709353
0.02264461 -0.0332312 -0.017006224 -0.022957057 -0.10994464 -0.02083046 0.18664338 -0.018552871
0.06656838 -0.05365216 -0.13337687 -0.06504783 -0.10545384 0.040140517 -0.019947426 -0.056259695
-0.06876792 0.070605114 -0.0037849047 0.09235687 0.09274051 -0.13516437 0.06276884 -0.060528245
-0.04912165 -0.12674725 -0.08874734 0.12212227 0.10482631 0.09876506 -0.12400057 0.15282495
0.05272609 0.03789383 0.02675623 0.024612645 0.06209517 0.013352541 -0.014292183 0.0029749179
-0.027226234 -0.16641572 -0.08996513 -0.08528168 0.014661595 -0.08959498 0.28988275 0.023320856
-0.082801625 0.0031026017 -0.09998132 -0.08374632 -0.011579179 -0.019064529 -0.12893523 0.0629741
-0.07571105 -0.012301528 -0.100566976 -0.16296218 0.06279798 0.06212327 0.13330007 -0.04588421
-0.07629132 0.03534122 0.04141219 0.06884013 0.08375727 0.11341681 0.014393605 0.04505263
0.035540313 -0.05512606 -0.08215986 -0.22692025 0.09938882 -0.11970791 -0.12089385 -0.15029958
-0.02326942 -0.00917783 0.028956404 0.16735807 0.16365772 0.1075919 0.0038834368 -0.1211727
0.0023278706 -0.02742603 0.031413686 0.059465066 0.015738148 0.13845593 0.049659334 -0.012931588
-0.11497214 0.012111473 0.07325132 -0.03684044 0.077578805 -0.08708359 0.14767332 -0.074645974
0.07186049 0.0797731 -0.009494481 0.034089863 -0.054177508 -0.041794993 -0.012764194 0.15900034
-0.19109432 0.02993145 -0.04554196 0.04566252 -0.1625959 0.052934166 0.08311759 -0.0044340845
0.078942716 -0.07632775 -0.12128776 -0.0651812 0.2178025 -0.0821061 0.03670657 -0.047609143
0.14137742 0.018186325 -0.039855387 -0.01726202 0.16372283 0.04868709 -0.06283934 -0.0025388522
0.04294395 0.038004134 -0.123401076 0.10461695 -0.012405766 0.031967703 0.03232082 -0.09259612
-0.04904229 0.16547811 0.06760137 -0.15507834 0.016591603 -0.0049382984 -0.11796037 -0.053173732
-0.008321051 -0.008382384 -0.05020465 -0.15557013 0.0071897036 -0.018501932 -0.045325916 0.07394104
0.018437844 -0.0491695 -0.09348235 -0.07780114 -0.0093230205 -0.058744296 -0.03441244 -0.013612358
-0.07229057 -0.07527797 0.22906496 0.103460275 -0.06795437 -0.09175313 -0.17866391 0.020454966
0.057044823 0.095407665 -0.07459278 -0.052202586 -0.037388813 -0.16650684 -0.012169739 -0.08778168
0.08817154 -0.033940304 -0.010869225 -0.022591596 -0.0012433482 0.19779614 0.008821499 0.007602161
-0.21454313 -0.071013816 0.06658812 0.12256907 -0.06763229 -0.13775519 0.0069209915 0.08185588
-0.013951658 -0.096248835 -0.16694745 -0.009336915 -0.05311153 0.007522078 -0.03290916 -0.045068514

network_body._body_endoder.seq_layers.2.bias f4 [128]
00000000: 31c1 2dbb 64bf 723d 1fdf ddbb 80c8 55bd
00000010: ca93 f2bb afa0 93b8 1461 cbbc a070 053d
00000020: 53fa 75bd c9d1 adbd 1ac9 b4bd 3f2b d0bc
00000030: c5f9 8dbd 654b 2ebd 7140 aa3c e009 b1bc
00000040: 4889 21bc 265a 50ba 5032 1f3d d60c 85bc
00000050: 72ef 3b3b 8327 c136 c10c c4bb 9b88 24bc
00000060: c406 3dbd 51ad 36bd 44bd d5bb 9c70 8abd
00000070: 8303 e5bb a758 18bd 4c27 94bd f4c7 27bd
00000080: 215f b6bc 83e0 54bd bbb6 4bba b0f2 2dbd
00000090: de7b 363d 0226 fdba 16be 2db9 cac2 323d
000000a0: 2725 c1bc fbaa 8d3c 8146 3f3d 0801 38bd
000000b0: d091 a3bc bc7a fe3c 57ee 6cbc 6a13 3535
000000c0: e9ca d93c 4934 3dbd 52f3 a63a f5ad e8bc
000000d0: 785f 4d3d c26f 53bb 6d3e 7935 d0b4 663b
000000e0: 05de 053d 3a79 2cba 2441 b8bb fdc7 80bc
000000f0: 1c0c 7dbc 4027 28bd f2b0 31bc 2288 93ba
00000100: 6d71 4ebd c7e6 dfbc 1f54 09bc 98e0 a8bc
00000110: 4372 9f3c 56b5 de3b 10e7 0f3c cead f2bc
00000120: 08e4 d6bc 34f5 753d 6857 8abb ea31 acbc
00000130: 8a96 5cb7 ac0c 79bc b0a3 72bd 6c04 b0bb
00000140: 2e90 78bb 07ce 40bd a4d9 b1b7 529e 91bd
00000150: 427f 1c3d 3c0b fc3c e777 5b3c 303f 32bd
00000160: 4968 aebc 2439 9fbd 36e5 2ebc 03b9 98bc
00000170: eafa 743b 8340 0cbd a6fe 3cbd 0088 0d3d
00000180: 884e 36bc 0656 0bbd 5c5f 3fbd 9100 c53c
00000190: b7c3 cabd fbac 74bc 55af 773c ea8d 4cbc
000001a0: 7bb9 82bd 813e b0ba 2c03 e1bc 1fb8 91ba
000001b0: c365 84bc 62f4 6eba d8f1 6abc a71e fbbb
000001c0: 5dab 01bc 81ea 8dbc e56c eeba 6dcf 61bc
000001d0: 93c6 4038 1bee e5bb 21f6 f3bc 4d60 943c
000001e0: 873a d7bb 27ff 06bc b5a7 2935 f66b c2bc
000001f0: 34d1 b9bd 7f0f 13bd 0379 11b6 c8c2 5ebc
-0.0026512856 0.059264556 -0.006770983 -0.052193165 -0.0074028717 -7.039436e-05 -0.024826564 0.03257811
-0.06005318 -0.08487279 -0.088274196 -0.025411246 -0.069324054 -0.04255237 0.020782681 -0.021611154
-0.009859391 -0.00079480035 0.03886634 -0.016241472 0.0028676656 5.756448e-06 -0.0059829657 -0.010042335
-0.04614903 -0.04459888 -0.0065228064 -0.0675976 -0.006988944 -0.03719392 -0.07234058 -0.040962175
-0.022262158 -0.051971924 -0.00077710644 -0.042467773 0.044551723 -0.0019313695 -0.00016569378 0.043642797
-0.023577286 0.017293444 0.046698097 -0.04492286 -0.01996699 0.031064384 -0.0144611215 6.7456006e-07
0.026586013 -0.04619244 0.001273731 -0.028403262 0.050139874 -0.0032262658 9.285057e-07 0.0035202987
0.032682437 -0.00065793435 -0.0056229997 -0.015720362 -0.015444782 -0.041053057 -0.01084541 -0.0011255781
-0.05040114 -0.027331723 -0.008381872 -0.020614907 0.019463664 0.0067965193 0.008783117 -0.029623892
-0.02623178 0.060048297 -0.0042218454 -0.021019895 -1.3148072e-05 -0.015200775 -0.059238136 -0.005371621
-0.0037927735 -0.047071483 -2.1201391e-05 -0.07110275 0.0382073 0.030767076 0.013395286 -0.04351729
-0.021289961 -0.077745706 -0.010674765 -0.018642908 0.0037381002 -0.03424121 -0.04614129 0.034553528
-0.011127122 -0.034017585 -0.0467218 0.024048122 -0.09900611 -0.01493382 0.015117486 -0.012485007
-0.06383034 -0.0013446362 -0.027467333 -0.0011117494 -0.016161805 -0.00091153954 -0.014339887 -0.007663566
-0.007914391 -0.017323734 -0.0018190412 -0.013782364 4.5961304e-05 -0.00701691 -0.02978045 0.018112326
-0.0065682563 -0.008239544 6.320145e-07 -0.02373312 -0.090731055 -0.03590345 -2.1677122e-06 -0.013596244

action_model._continuous_distribution.log_sigma f4 [1, 2]
00000000: 3aa2 1cbf bbd6 27bf
-0.6118504 -0.6556203

action_model._continuous_distribution.mu.weight f4 [2, 128]
00000000: 4f6d bbbb 44c2 963c c5fa acbc 8dcf 18bc
00000010: 9549 7aba 619a ce3b 5aa5 71bb df72 ab39
00000020: dd94 023b f315 90bb 35b5 99bc af68 823b
00000030: 5926 5dbc 9772 8a3a 9d20 ab3a 512e 28ba
00000040: d6e6 e43b a18d 5eba 1aa5 2a3c 4bef e5bb
00000050: 3e65 ee3c 244e 843c 1cb3 ef39 1136 013b
00000060: 1714 563c 1760 1abb 20eb 253c 492c 023c
00000070: 75c8 a6bc 3489 aeba 4d89 ed3b 2d46 323c
00000080: fac0 713b 5752 33bc c503 c33a 8206 0cbb
00000090: 6cba 8f3b 08ec 4dbc c9d4 703c cbda 063c
000000a0: 9836 caba d184 ea3b 518e 883c 5b71 efb8
000000b0: 2f0a 20bc f5f3 3abb 12e8 f2bb 5fde bb39
000000c0: 89e1 f73b ec88 8bbb a271 8b3b 46b1 123a
000000d0: 4ad7 4dbd 0bb1 293c 0f58 24bc dfb8 36bc
000000e0: 97e0 d13b c5ca 183c 42b1 06bb a352 c93c
000000f0: 7e5f 58ba c217 693b 9b66 f43b 83fa 0fba
00000100: 1071 023a 781c 24bb 13f9 a5ba b30b a73b
00000110: d420 c23b 80e6 c63b ef5d 4a3b 153e a339
00000120: 84e8 b4ba bb26 b83c 3166 783c dad6 643a
00000130: 226e 19bc ced6 06bc 3cd6 383b 2996 553b
00000140: 62cf 943b 79eb 07bd dda2 c13b 443e 10bc
00000150: 0db1 463c b398 bf3b 5c72 f8ba f51e bebb
00000160: a43f e53b f2c7 50bc 4b1d 8bbc 1f4e 003b
00000170: 6a06 543b 9909 20ba eb81 d3bb 3983 c93b
00000180: f6a1 0ebc 9949 8e3b 3779 f2ba 29b3 a33b
00000190: 4b15 bcbc 5ecd 363a 0906 57ba e11a 1bbc
000001a0: 43b2 05bd 2b79 3dbb e1ec 5c3b 513c 25ba
000001b0: 91a3 453a ad51 883a b0e7 dc3c 806c 20bc
000001c0: 4d09 52b9 a22b 263c 1ba4 ddba e16d 87ba
000001d0: f325 87bc 2f10 503a 9a17 00bb 1395 0a3c
000001e0: 1b40 7e3b 1e93 353c 65cc fe3b b62e 89b9
000001f0: 19a3 30bc 54cc 093c d0ac 003c f0d3 8eba
00000200: 4214 fbbb 2a07 5ebb 7f2e af3c 4c1c 0bbc
00000210: 069a a6bc cc42 07bb e40e 09bc 66ac 16bb
00000220: 06c1 71bb d1d9 2ebc b68c e23b 244f 49ba
00000230: 83d9 adbb 019e a2bb 5d56 8bbb 2b67 f03a
00000240: f8a7 e63b d2ae c33a 003b a3b6 5b65 a7bb
00000250: 59b2 8f3c 18d9 dcbc 0789 a23a 1425 4cba
00000260: 87b9 3ebc 74b7 8f3b 9c62 a43c 16b0 813b
00000270: 9c8d ccbc 7183 a9ba 5026 13bc 33fb 88bb
00000280: 9a0b 873b 0f8c f63b 979d a63a a1f9 a7bb
00000290: 334e 293c 1d95 0ebd 1f59 8f3c 6e9f 6fba
000002a0: bdf4 80ba 7526 03bc 2305 e0bb b5a6 d03a
000002b0: 64c4 05bc b6b5 113c 7fe3 0ebc ac2f a8bc
000002c0: d97c a2bb 3d44 973a 733f 313b fa8b 13bc
000002d0: 7702 03bc d8c3 983c 0ac0 1d3d 9141 f93b
000002e0: 865a 86ba 6816 47bc afba 54bb 6c41 36bc
000002f0: 2c02 053b 00b5 413b 656a 01bc 98f9 e7b8
00000300: 188e 68bb b350 33ba 12a0 893c 775a c0ba
00000310: 4242 3b3b 712f 1ebc 110c 2ebb d508 4d39
00000320: 5566 f1bb f2a1 e6bb 1681 a33b 9acf b8b9
00000330: ed74 16bc 0736 4ebc f418 823b b255 e93b
00000340: 7e49 9cbb d78c bf3c cd64 7bbb 8f4d 55bb
00000350: 1848 6dbc 6387 ddba 2883 46ba 591e a4bc
00000360: fe7a a73b 8226 02bc 99be e63c 18f4 783c
00000370: 3c14 203d e53d 5d3b 958a a2bb 066f bdbb
00000380: b5b2 873c a7a4 063a 123e ba3b dbea 6b3c
00000390: e940 52bb d2c2 89bb 52c7 bdbb ddc5 cabb
000003a0: 4349 08bc e5cb deba 2193 44bb 1db5 4f3b
000003b0: 4cf3 d4ba 8401 19bb cd33 39bc c474 813c
000003c0: 0d4b a5ba 1b97 f8bb 023a 44bc 16fe d03b
000003d0: c089 b83b e037 c539 2d3a 003b 173f 4abc
000003e0: 5273 81ba d2e4 3bbc 4796 f53c 315f 90bb
000003f0: 29b9 1cbc a962 86bc 9b4b 41ba 7e83 913a
-0.0057198177 0.01840318 -0.02111567 -0.009326828 -0.0009547708 0.0063050245 -0.003687224 0.00032701247
0.0019925155 -0.004397148 -0.018763164 0.0039797644 -0.013497912 0.0010562715 0.0013055984 -0.0006415593
0.0069855256 -0.0008489732 0.01041534 -0.0070170513 0.02910101 0.016150542 0.0004571908 0.0019716064
0.013066313 -0.002355581 0.010126859 0.007945129 -0.020359257 -0.0013316036 0.0072490335 0.010880989
0.0036888705 -0.010944924 0.0014878443 -0.0021366184 0.004386237 -0.012568481 0.014699169 0.008230875
-0.0015427647 0.007156946 0.016669424 -0.00011417522 -0.009768053 -0.0028526757 -0.007412919 0.000358331
0.0075647277 -0.0042582657 0.0042554894 0.0005595874 -0.050254144 0.010357152 -0.01003076 -0.011152475
0.006404947 0.009325688 -0.0020552431 0.024575537 -0.00082539755 0.003556714 0.0074585206 -0.0005492346
0.0004975954 -0.0025041383 -0.0012662731 0.00509783 0.0059243236 0.006069958 0.0030878743 0.00031136037
-0.0013802205 0.022479406 0.015161083 0.0008729525 -0.009364637 -0.008229924 0.0028203866 0.0032590723
0.0045413235 -0.03318355 0.0059093074 -0.008803908 0.012127173 0.0058470606 -0.001895498 -0.00580203
0.006996112 -0.012742983 -0.016981741 0.0019577814 0.0032352456 -0.0006104946 -0.0064546964 0.006149676
-0.008705607 0.0043422696 -0.001849926 0.004995723 -0.022959372 0.0006973351 -0.00082024984 -0.009466858
-0.032640707 -0.0028911333 0.0033710527 -0.00063032383 0.0007539327 0.0010400318 0.026965946 -0.009791493
-0.00020030625 0.010142239 -0.0016909869 -0.0010332429 -0.016497588 0.0007936982 -0.0019545318 0.008458394
0.0038795534 0.011082439 0.0077758306 -0.0002616548 -0.010781073 0.008410532 0.007853702 -0.0010896903
-0.007662327 -0.0033878782 0.021384476 -0.008490633 -0.020337116 -0.002063918 -0.008365367 -0.002299094
-0.0036888733 -0.010672049 0.0069137467 -0.00076793344 -0.0053054704 -0.004962683 -0.0042522387 0.0018341293
0.0070390664 0.001492942 -4.864647e-06 -0.005108518 0.017541097 -0.026958987 0.0012400456 -0.00077875075
-0.011640913 0.004385883 0.020066552 0.0039577587 -0.024969868 -0.0012932849 -0.008981302 -0.004180336
0.004121256 0.0075240205 0.001271176 -0.0051261936 0.010333586 -0.034810174 0.017498551 -0.00091408833
-0.0009838563 -0.008004774 -0.00683655 0.0015918823 -0.008164499 0.008893421 -0.0087212315 -0.020530544
-0.0049587307 0.0011540722 0.0027045875 -0.009005541 -0.007996193 0.018648073 0.03851322 0.007606693
-0.0010250367 -0.012151338 -0.0032459905 -0.011123996 0.0020295484 0.0029557347 -0.007898902 -0.00011061429
-0.0035485085 -0.0006840333 0.01679996 -0.0014675398 0.0028573428 -0.009654866 -0.0026557485 0.00019553614
-0.0073669353 -0.0070383484 0.0049897535 -0.0003524989 -0.009183151 -0.012586123 0.00397026 0.0071208114
-0.004769503 0.023382587 -0.0038359642 -0.003254745 -0.0144825205 -0.001690131 -0.00075726444 -0.020034002
0.0051110974 -0.007943751 0.028167056 0.015194915 0.039081797 0.0033758816 -0.004960368 -0.0057810573
0.016564706 0.00051362294 0.005683669 0.014399256 -0.0032082146 -0.0042041326 -0.005791583 -0.006188138
-0.008318248 -0.0016998021 -0.0029994922 0.0031693645 -0.0016246825 -0.002334685 -0.011303854 0.015802749
-0.0012610868 -0.0075863726 -0.011976721 0.0063779457 0.0056316555 0.00037616398 0.0019565925 -0.012344143
-0.0009876287 -0.011468129 0.029978884 -0.004405879 -0.00956563 -0.016404467 -0.0007373632 0.001110181

action_model._continuous_distribution.mu.bias f4 [2]
00000000: 2073 a93d cd1c 77bc
0.082739115 -0.01508255

action_model._discrete_distribution.branches.0.weight f4 [1, 128]
00000000: 06fc 3ebb 2867 01bc 6713 b93b f02c 553b
00000010: 3d42 773c aae4 063c 9f95 7b3a 88cc b3b8
00000020: 3c57 343b c3ab a53b 9150 b63c 77ee 09bc
00000030: c60b 45bc 998e 93b9 37a5 1fba e39b e6bb
00000040: eab8 5b39 f001 d13b 6fe7 793c bbd1 183a
00000050: a840 63bc 09ea 8c3b 0cdf 3a3b cb24 1e3c
00000060: df15 ab3a 72b0 7cbc 58e8 f7b9 83b2 873b
00000070: 9f9b c73a 7a5e f63a bcc6 8b3a 27bc b6bc
00000080: 4496 3a3c e11d a73b 48f0 febb 6295 93bb
00000090: 43de 433a 14ca 9b3a c74d 193c 8f8a 4b3c
000000a0: fa6f 693b 4c6c 1a3c 429d e63b 9640 9abb
000000b0: 2f02 2b3c 7b02 8039 06f9 b9b9 dfe4 63bc
000000c0: 7b00 25ba 3e19 3c3c 5455 91bc 5f86 9bbb
000000d0: 8555 51bc 124e 8ebb 2387 5f3a 1b7d 12bc
000000e0: 6807 59bc c1ed 0e3c e218 00bd b293 0ebc
000000f0: b404 86bb 057c b33b 23d9 c73b eae2 503c
00000100: 9b80 7dba 185d a0bc 6979 a1bb 9a0e 10bc
00000110: 50b4 d43b 83dc efba 7f61 7fbc 2505 acbb
00000120: 39e7 8038 1062 a53b 2a71 403b 63a5 863b
00000130: 19c6 3eb9 f5e2 7b3c f6ec 023c 4abe 403c
00000140: 3c7c 86bb b31e 62bc fabc 8cbb 43fb 1ebb
00000150: 820a 29bc b6e3 46bc db9d d0bb 04c3 1e3c
00000160: ad0e 36bc b33a 363b a831 0d3c 7370 45bc
00000170: 4b64 883b f876 973b 9d5f ea3b d01b ef3b
00000180: 322e e43b 5d4c 9abc c66e 973b 5306 b7bb
00000190: 477b 873b b218 74bc 55ae f23b 543e 3e3b
000001a0: dd24 72bc 16f2 1e3b 9046 363c 8a7d 073c
000001b0: e862 ed3b 8b76 bdbb ad84 cdbb f039 8ebb
000001c0: fdba 4e3b 2f64 833b 9a94 7bbc d64c 98bb
000001d0: 1078 9bbb 2d0a 83bb 7ff5 0ebc 3908 843b
000001e0: a724 e93b 1d69 ef3b 269f 263c 97c0 1f3b
000001f0: 3dba 96bb 0be5 36bc f0f0 d63b 1879 4f3b
-0.0029141917 -0.0078981295 0.005648065 0.0032528006 0.015091476 0.008233229 0.00095971854 -8.573482e-05
0.0027517816 0.005055876 0.022255214 -0.008418671 -0.012026733 -0.00028144268 -0.00060899876 -0.007037626
0.00020954353 0.006378405 0.015252932 0.0005829592 -0.013870396 0.00430036 0.0028514294 0.009652327
0.0013052783 -0.015422927 -0.0004728462 0.0041411533 0.0015228874 0.0018796467 0.0010664086 -0.022306515
0.011388365 0.0050999974 -0.0077801086 -0.004503892 0.0007471779 0.0011885785 0.0093569225 0.012423172
0.0035619722 0.009425234 0.0070377896 -0.0047074063 0.010437532 0.0002441591 -0.00035471487 -0.013909548
-0.0006294322 0.011480628 -0.017740883 -0.004746243 -0.012776737 -0.004342803 0.0008526912 -0.00894096
-0.013246395 0.008723677 -0.03127373 -0.0087022055 -0.004089916 0.0054774308 0.0060988828 0.012749413
-0.0009670348 -0.01957564 -0.0049278033 -0.008792544 0.0064912215 -0.001829997 -0.01558721 -0.0052496367
6.146584e-05 0.0050470904 0.0029364326 0.004109071 -0.00018193609 0.015373935 0.007991066 0.011764118
-0.0041041654 -0.013801265 -0.0042949887 -0.002425865 -0.010317447 -0.012139251 -0.006366474 0.00969005
-0.011111897 0.0027805984 0.008617796 -0.012050736 0.0041623465 0.0046223365 0.0071525113 0.0072970167
0.0069635147 -0.018835241 0.0046213595 -0.0055854707 0.004134569 -0.014898466 0.007406036 0.002902885
-0.014779297 0.0024253181 0.011125222 0.008269677 0.0072444566 -0.0057819537 -0.0062719197 -0.004340403
0.003154456 0.0040097455 -0.015355254 -0.0046478314 -0.004744537 -0.003999016 -0.008725523 0.0040293005
0.007114965 0.0073062317 0.01016978 0.0024376267 -0.004599838 -0.011163007 0.0065594837 0.003165787

exp_avg f4 [128, 13]
00000000: 0c74 a6bb 59f2 2b38 c5dc 0abc 94c6 7433
00000010: 32ce 99b7 6bbd a131 aa06 b838 b017 cc30
00000020: ee16 3734 6363 ca34 9cef 8634 4048 7cb3
00000030: da50 ba31 2be2 073a a74a dcb6 d63f 203b
00000040: a2ec 85b3 ead0 4d37 5f1a edb1 eabe adb7
00000050: 0cde ceb3 40a2 4cb4 1011 30b4 8c8c c3b3
00000060: 4d05 9b33 be81 b433 4540 20b2 ba94 e6ae
00000070: 328a 0c33 93e9 1a26 9604 3faf 0214 4e27
00000080: 9577 01af c6a3 80aa d77c bdaa 180f aeab
00000090: 48d8 81ab 62ba 90a9 44b9 4e2a 6087 10b1
000000a0: 0c99 472d 0cf6 06b1 cd70 4fa5 1970 00ad
000000b0: 52d2 8925 924e c52d d631 74a8 45a7 9da9
000000c0: 17b7 112a 385f d429 0233 ffa8 bf82 f826
000000d0: 9ac6 aabb 651a 0338 018f cebb e7e5 7a33
000000e0: c697 60b7 44e2 7031 b607 9038 08a7 9531
000000f0: c85e a534 874d 8334 c40d 1734 ab84 eab2
00000100: 0c03 85b1 d2c7 663b 626f c3b7 3bf5 8a3b
00000110: 2df4 d4b2 5955 1037 a53c f1af 739b 3fb8
00000120: aa5d 5733 dcd5 8eb4 962a 37b4 188d feb3
00000130: 9a8f 4930 ed9e 2db3 3243 2dba 8d67 9e35
00000140: 0bdb 9739 5f6c 44b3 9918 d9b5 6ec1 84b1
00000150: 986a 72b6 6c18 dcb2 9ea5 c6b4 bea8 fb32
00000160: a3fa f032 1246 6131 5e7a 5731 ee83 5434
00000170: b5aa abaf ae57 5033 ad58 b428 0cea 0130
00000180: d1ef 88a7 6094 fbaf 5e8d 2d2c 41ce 4c2c
00000190: c110 a4ac 0bb6 59ac ecba 08aa fc60 f1ab
000001a0: 0300 a9ba f7b4 c7b5 f51b 523a 8891 7db3
000001b0: 3897 0eb6 3a2e 32b1 679f 27b7 f07d 01b3
000001c0: 8357 20b5 8265 a1b1 60db d5b0 286d 4232
000001d0: 2ed2 5432 e3d4 3929 4c58 8da5 704d 3329
000001e0: 0921 d71d c801 2f24 dcda a21c ea5f 0ba6
000001f0: 870f 2621 c932 2020 c8e9 e6a1 a635 9ba1
00000200: 589f 8c9f d0c8 01a1 8c03 363b c695 c6b6
00000210: c3d7 763a 05dd 802f c1f7 de36 dc03 a9ad
00000220: 61f8 24b7 81d2 1733 9e87 4733 5c1e 68b3
00000230: fd59 08b3 6522 8631 b3ad d5b2 b636 c83b
00000240: 1cf2 d4b7 3048 753b 5c9a 4633 c233 a136
00000250: b1b8 2532 0108 40b8 9fbe e033 8eef 9e34
00000260: c8b3 f4b3 3d3a 9cb3 d9c1 25b3 3af9 a8b3
00000270: f863 05bb a8ea 3937 8b2a 0fbb 71d8 8eb2
00000280: bb17 10b7 921a 8cb0 7a81 a037 4dbb 9cb2
00000290: 2a10 8bb4 3705 f633 ddcf ae33 ecc8 aeb2
000002a0: 0f3d ef31 5349 113b 1231 73b7 03ba 863a
000002b0: b66a 9933 c4da b4b6 f41e 2132 b6fe cab7
000002c0: a57b ec32 2c42 1535 e9db e3b3 22ff 83b3
000002d0: fbe2 8bb1 c867 9932 2a2d 53b0 0522 a02c
000002e0: f087 49b0 0b27 09a5 b976 e8aa 8a5c 81a4
000002f0: bf62 1e2d cc69 4ea8 fabe 0426 5bcd 0c29
00000300: fcb3 c728 be1a 6927 2a73 2228 ac11 6bad
00000310: a25f 1a29 d6f3 81ad 08ee d023 0884 d5a6
00000320: d50c 45a2 04e1 ad29 68d7 1327 1f99 d926
00000330: f764 0fa7 4a7c d7a6 2dd8 0826 bf97 d6a6
00000340: 5b87 e7a0 f5ed 939c bfe1 3720 7710 c515
00000350: 9200 929c 53e0 fd94 a2b1 009d d2d5 0b17
00000360: 968f 0598 437e ec98 0d1f 4a98 08f7 fd16
00000370: 5c81 6697 9768 7331 ae04 b8ad 174b 6131
00000380: 8b8b f925 c011 dea9 1a6a d725 fcf1 36ae
00000390: b829 8429 340c 7aa9 ca77 25aa a18b f5a9
000003a0: 1052 aca8 34ad 53a9 82f5 b22f f116 832b
000003b0: 568c 3baf 2474 87a3 67b2 862b e0cd daa2
000003c0: 2ed9 e12b 3260 6527 a1d4 16a7 8eba ee27
000003d0: 1153 7c27 9b94 34a6 2f67 13a7 ee23 8a3a
000003e0: 4ca3 fdb7 98e4 d23b 44b8 e7b3 42d7 8c36
000003f0: bb38 28b2 1b5c 9db8 b041 c6b3 a2a9 3db5
-0.005079752 4.099528e-05 -0.008475487 5.6991283e-08 -1.8335038e-05 4.707251e-09 8.775045e-05 1.4849686e-09
1.7051545e-07 3.7697745e-07 2.5133784e-07 -5.8739033e-08 5.4225042e-09 0.0005183543 -6.5652016e-06 0.0024452112
-6.2363384e-08 1.2267594e-05 -6.900606e-09 -2.0712108e-05 -9.6330126e-08 -1.9058007e-07 -1.6397485e-07 -9.1059604e-08
7.218714e-08 8.405503e-08 -9.327839e-09 -1.0485608e-10 3.2721978e-08 5.3746035e-16 -1.7372978e-10 2.859909e-15
-1.1774966e-10 -2.2851008e-13 -3.365977e-13 -1.2367633e-12 -9.226031e-13 -6.427217e-14 1.8360752e-13 -2.103171e-09
1.1345824e-11 -1.9639428e-09 -1.7992606e-16 -7.300848e-12 2.390823e-16 2.24312e-11 -1.3555527e-14 -7.001217e-14
1.2942109e-13 9.431209e-14 -2.8332808e-14 1.7243896e-15 -0.0052116634 3.1257416e-05 -0.0063036685 5.8416756e-08
-1.3386778e-05 3.5053214e-09 6.867891e-05 4.35546e-09 3.0802607e-07 2.445706e-07 1.4067979e-07 -2.7301516e-08
-3.871156e-09 0.0035214317 -2.3297678e-05 0.0042406595 -2.4791087e-08 8.60294e-06 -4.3880735e-10 -4.5682722e-05
5.0143775e-08 -2.6605164e-07 -1.7058696e-07 -1.18534615e-07 7.3327444e-10 -4.0424244e-08 -0.0006609439 1.1802055e-06
0.00028964164 -4.573337e-08 -1.6174919e-06 -3.863696e-09 -3.6122856e-06 -2.5622477e-08 -3.7000876e-07 2.929698e-08
2.8053654e-08 3.278164e-09 3.1356175e-09 1.9792034e-07 -3.1226013e-10 4.8508518e-08 2.0022471e-14 4.726253e-10
-3.8007592e-15 -4.576206e-10 2.4663253e-12 2.9104638e-12 -4.6630204e-12 -3.0938609e-12 -1.2144078e-13 -1.7150999e-12
-0.001289368 -1.4879323e-06 0.000801503 -5.9038513e-08 -2.124767e-06 -2.5928686e-09 -9.991089e-06 -3.0149693e-08
-5.973199e-07 -4.697257e-09 -1.556014e-09 1.13171055e-08 1.2387813e-08 4.1262902e-14 -2.4519433e-16 3.981315e-14
5.6944184e-21 3.7948585e-17 1.0776835e-21 -4.83553e-16 5.626354e-19 1.356933e-19 -1.5647288e-18 -1.0517409e-18
-5.955592e-20 -4.3972673e-19 0.002777311 -5.9182958e-06 0.0009416306 2.3440108e-10 6.644958e-06 -1.921479e-11
-9.832992e-06 3.534888e-08 4.645664e-08 -5.404432e-08 -3.174681e-08 3.9038235e-09 -2.4875453e-08 0.0061100377
-2.538511e-05 0.003742706 4.6240856e-08 4.8041993e-06 9.646258e-09 -4.578382e-05 1.04654866e-07 2.9604092e-07
-1.13948374e-07 -7.2749096e-08 -3.859336e-08 -7.868444e-08 -0.0020353775 1.1081494e-05 -0.0021845426 -1.6629402e-08
-8.588594e-06 -1.0193892e-09 1.9133779e-05 -1.8245965e-08 -2.5902528e-07 1.1456216e-07 8.1403165e-08 -2.0347635e-08
6.962757e-09 0.0022168949 -1.4495354e-05 0.0010278824 7.144028e-08 -5.3898857e-06 9.378471e-09 -2.4198886e-05
2.7530243e-08 5.560312e-07 -1.0610513e-07 -6.146571e-08 -4.071237e-09 1.7858738e-08 -7.6825535e-10 4.5512504e-12
-7.3316553e-10 -1.1896084e-16 -4.129386e-13 -5.61016e-17 9.003186e-12 -1.1458238e-14 4.605552e-16 3.1264362e-14
2.2171494e-14 3.2349743e-15 9.017779e-15 -1.3362127e-11 3.4277817e-14 -1.4773887e-11 2.2652215e-17 -1.4815631e-15
-2.6705272e-18 7.721777e-14 2.051712e-15 1.5098903e-15 -1.989997e-15 -1.495231e-15 4.747745e-16 -1.4890364e-15
-3.9222493e-19 -9.789154e-22 1.5575396e-19 7.9593643e-26 -9.661617e-22 -2.5634952e-26 -1.7032493e-21 4.51832e-25
-1.726234e-24 -6.113206e-24 -2.6123565e-24 4.1030253e-25 -7.4480283e-25 3.5420606e-09 -2.0920456e-11 3.2784493e-09
4.3289173e-16 -9.8618596e-14 3.7368452e-16 -4.1596934e-11 5.8692146e-14 -5.5521736e-14 -1.4696504e-13 -1.09044074e-13
-1.9131425e-14 -4.700164e-14 3.2552455e-10 9.314477e-13 -1.7057408e-10 -1.4685917e-17 9.570789e-13 -5.9306997e-18
1.6047491e-12 3.1832282e-15 -2.0931948e-15 6.6260533e-15 3.5017056e-15 -6.2651443e-16 -2.0456284e-15 0.0010539272
-3.0235991e-05 0.006435942 -1.07902935e-07 4.1973844e-06 -9.791786e-09 -7.5034994e-05 -9.232042e-08 -7.0654835e-07

exp_avg_sq f4 [128, 13]
00000000: f6c5 f03b a1fa 2b37 a0a3 0f3b 5569 f32f
00000010: 384a 7f33 6117 382f 2538 0533 1ca1 642d
00000020: 96ca d931 3d89 462d 7ecb 0e2f 52f1 cd2e
00000030: 7eb5 d62f 6078 7f3b afd7 9036 f65c 123b
00000040: e020 302f 8a20 8633 c321 0c2e dc8b 4233
00000050: 2ddd 012d e978 6b31 a142 012d 9c7b 112f
00000060: 9f39 422e e6b3 ab2f 0c1a 1c37 1915 9e2f
00000070: b92f 0f37 dc9f 0421 e4f0 ad2f d03c 1323
00000080: ce3b 3530 5af0 ab26 a3da c52a faa4 e228
00000090: 587a 5028 d52f 4024 d095 2326 6893 5537
000000a0: 02fa ed2e 61bd 6536 e4c6 5720 00e0 0b2f
000000b0: 60dc 211f 4af2 a72f 11d0 d726 c9c4 0c27
000000c0: 8683 4128 c47d 9527 3d5e 4524 a500 4926
000000d0: f3d0 8f3b 03c0 9f36 b4c1 c63a cf6d 6b2f
000000e0: 7fbe 3f33 a3f1 eb2e dfd8 da32 a307 212d
000000f0: 2c97 8331 941b e72c fc33 cd2e f0be 7d2e
00000100: 2670 922f a513 293b f941 ec35 0148 703a
00000110: 83aa cf2e 992a e932 a7f1 532e aa3b 2932
00000120: cd39 262d 553b 1431 e6f7 fc2c 4836 6a2e
00000130: 8de0 542e 92f7 002f bcc5 8e3b 8080 a235
00000140: 4782 e73a ae55 f92e bf20 6533 060f c42d
00000150: d28e c932 30f2 f42c d0b6 6331 a6b5 0e2d
00000160: e20d f82e 117f e82d b976 212f c281 8733
00000170: f3c0 932d 0100 0630 b55e e326 450f 8d29
00000180: 85fd 9a26 3b62 aa2a 1ae0 ce24 caed d12a
00000190: 2d71 6f23 692d 3e29 3614 ef23 8b8f 9827
000001a0: 551d 0f3c da9f ec36 72ce c63a 7734 0030
000001b0: 01ce 2933 764d a32f 0264 a232 a5be 612d
000001c0: d589 fc31 ec4e 822d 63ea 182f 9500 212e
000001d0: 060f 2d2f 4d69 6b2b 023d c426 eea0 c827
000001e0: 4677 2921 a4b3 3f21 1e14 2f21 d51b aa22
000001f0: 37a3 2d1f 69e4 6f25 4e2a 941d 484d 7624
00000200: c75c 921e debd ca22 3f37 4e39 9a79 cf33
00000210: ab4d 8137 bdeb bb2c 7b55 0230 24d1 8b2c
00000220: b70d c42f a94b ce29 6254 722f a294 f42a
00000230: 7e63 ec2b fc79 3e2a 34bc 082b 5e95 a33b
00000240: 7b97 4c36 b2b7 fa3a b0f8 6a2f d9e1 8033
00000250: ca33 e02e 16ba 0733 2c0f 602c 600b 4531
00000260: f192 c12c 408a 8e2e c2f5 292d ad1c 3d2e
00000270: 452d 113a 4360 d834 1891 8139 dd74 8e2d
00000280: 0e5e dc31 a622 042d 8e66 8f31 189f ca2b
00000290: 3ecc 6330 f3ae d42b 49cb c92d ce8d 252d
000002a0: 99b3 da2d 63bc 573b 86b9 bb35 1633 9e3a
000002b0: 8b67 bb2e ef62 0b33 f620 d42d 3589 ad32
000002c0: 4e10 022d dec3 a631 1834 f72c 1261 052f
000002d0: f722 8e2e 8f43 ad2f 34bb ce27 3f2f af20
000002e0: 0e6b 8326 6f80 a917 29a0 3d1f 1f39 2a15
000002f0: f3f6 f81f 42c8 7717 c006 821d 99a8 aa18
00000300: 025e 3519 d48a 8016 f4f9 f017 7bce 3536
00000310: 34cc a42d 5112 1235 da23 941f 998c b42d
00000320: 8bb2 b71e d275 702e ae5a f925 b5b2 0226
00000330: da8a fe26 cfa9 3826 94f8 6023 49c6 7925
00000340: 2da8 2019 5df3 8310 929f cd17 c325 ed02
00000350: a4f2 7c10 ca24 9901 12c0 4811 4903 8107
00000360: 18bb 1507 a6d6 1c09 e9af 0208 04d8 9105
00000370: 5dbd 1507 0371 0d2c bf37 8523 ea34 ce2a
00000380: b075 b416 abe5 8923 fdcf 5515 609d 4524
00000390: 8a8c 061b 38ad bd1b ad46 831c 6b60 a81b
000003a0: 1793 ed18 4d31 891a ad3c 8a36 94f6 832e
000003b0: 0413 f535 6780 c61f 3a9e 9e2e d5b1 201f
000003c0: 40b6 382f 2f7d 0f26 1fba 6626 d8bb d927
000003d0: 1f35 4027 7bbc 5e23 a680 8525 004d c83c
000003e0: d835 b137 cf13 bf3b 885a b530 a5ff 2b34
000003f0: 33ab 4530 13c0 b533 8379 2e2e 9235 9f32
0.0073478175 1.0250748e-05 0.0021917596 4.4276285e-10 5.9439316e-08 1.6743008e-10 3.101754e-08 1.2996073e-11
6.3385626e-09 1.128547e-11 1.298712e-10 9.365188e-11 3.905533e-10 0.0038981661 4.3166433e-06 0.002233324
1.6018786e-10 6.24578e-08 3.18623e-11 4.5296346e-08 7.381912e-12 3.426573e-09 7.347596e-12 1.3231588e-10
4.416167e-11 3.1232544e-10 9.304389e-06 2.8755023e-10 8.5345755e-06 4.493491e-19 3.163968e-10 7.9817635e-18
6.5932404e-10 1.1930656e-15 3.514594e-13 2.5162588e-14 1.15728485e-14 4.167388e-17 5.675502e-16 1.273011e-05
1.08219225e-10 3.4233892e-06 1.8277016e-19 1.2721557e-10 3.4275366e-20 3.054928e-10 1.4975018e-15 1.953558e-15
1.0742172e-14 4.1492163e-15 4.279739e-17 6.9736757e-16 0.0043889224 4.7609224e-06 0.0015163929 2.1412137e-10
4.4643908e-08 1.0729486e-10 2.5477162e-08 9.153486e-12 3.829788e-09 6.5684767e-12 9.331555e-11 5.7695126e-11
2.6636932e-10 0.0025799063 1.7602571e-06 0.0009166003 9.443559e-11 2.7144141e-08 4.8190476e-11 9.850661e-09
9.448842e-12 2.157056e-09 7.189793e-12 5.325365e-11 4.840266e-11 1.1729487e-10 0.004357068 1.2107339e-06
0.0017662727 1.1338429e-10 5.3348e-08 2.2289292e-11 2.3464427e-08 6.9617853e-12 3.3136764e-09 8.1120995e-12
1.12802004e-10 2.6431775e-11 1.4685043e-10 6.31003e-08 1.6797652e-11 4.874892e-10 1.577696e-15 6.264307e-14
1.0754613e-15 3.0266227e-13 8.97179e-17 3.7290857e-13 1.2980182e-17 4.2227862e-14 2.5920992e-17 4.2344105e-15
0.008735021 7.0519573e-06 0.0015167727 4.6640686e-10 3.953574e-08 2.9704567e-10 1.890476e-08 1.2832101e-11
7.349835e-09 1.4814337e-11 1.390759e-10 3.660768e-11 1.5739596e-10 8.3634906e-13 1.3616768e-15 5.568563e-15
5.7417284e-19 6.495107e-19 5.931893e-19 4.610806e-18 3.6769183e-20 2.0807334e-16 3.9219016e-21 5.3408207e-17
1.5496723e-20 5.495324e-18 0.00019666272 9.661308e-08 1.5414165e-05 5.341032e-12 4.74152e-10 3.973837e-12
3.5661937e-10 9.161363e-14 2.203975e-10 4.3446242e-13 1.6796423e-12 1.6917712e-13 4.857809e-13 0.004992171
3.0486542e-06 0.0019128232 2.1370528e-10 6.001546e-08 1.019554e-10 3.160138e-08 3.1840737e-12 2.867374e-09
5.5017037e-12 6.4819705e-11 9.661107e-12 4.2999094e-11 0.0005538057 4.0303175e-07 0.000247129 1.6195429e-11
6.4135355e-09 7.511025e-12 4.173507e-09 1.4397121e-12 8.2872365e-10 1.5112064e-12 2.2941331e-11 9.410651e-12
2.4863488e-11 0.0032918684 1.398658e-06 0.0012069668 8.5221684e-11 3.245344e-08 2.4116247e-11 2.0202245e-08
7.393265e-12 4.8535034e-09 7.025946e-12 1.2130766e-10 6.4636234e-11 3.151652e-10 5.737945e-15 2.9677418e-19
9.118968e-16 1.095379e-24 4.0154788e-20 3.4376287e-26 1.0544063e-19 8.0062765e-25 3.4417693e-21 4.411421e-24
9.3764654e-24 2.0767128e-25 1.5572734e-24 2.709129e-06 1.8735326e-11 5.441589e-07 6.273975e-20 2.0526069e-11
1.9449722e-20 5.4674328e-11 4.3256061e-16 4.5345004e-16 1.7662426e-15 6.406796e-16 1.2195703e-17 2.1664489e-16
8.305769e-24 5.204535e-29 1.3288096e-24 3.4845694e-37 4.988516e-29 5.6256113e-38 1.5836404e-28 1.9411694e-34
1.1264496e-34 1.8878744e-33 3.9327233e-34 1.3715086e-35 1.1265163e-34 2.010004e-12 1.4443498e-17 3.6629667e-13
2.915484e-25 1.4950838e-17 4.317908e-26 4.2850867e-17 1.1129631e-22 3.1379367e-22 8.687122e-22 2.7855577e-22
6.1411587e-24 5.674152e-23 4.119784e-06 6.0009914e-11 1.8259457e-06 8.4068686e-20 7.213115e-11 3.4028417e-20
1.6799451e-10 4.9782747e-16 8.004952e-16 6.043326e-15 2.667415e-15 1.2074556e-17 2.3158998e-16 0.024450779
2.1125117e-05 0.005831219 1.3195214e-09 1.6018619e-07 7.191147e-10 8.4634074e-08 3.9670944e-11 1.8534397e-08

exp_avg f4 [128]
00000000: aaab ba38 5dcc a7b7 9b99 66af ca90 c72d
00000010: 7b65 9138 3674 4ab8 3430 33b6 9ab3 2bb0
00000020: b6ac 0ab7 005b 0da6 0e9d 46b7 d477 48b8
00000030: af03 b037 d3a6 b4b7 9629 202d 9eff 9a29
00000040: 55f5 139d 7211 38ae 5923 032c 1f09 94b8
00000050: 2ab3 d0b7 77e3 bfab f262 06ac 0b2b 4137
00000060: 31cb d136 91d3 a336 8a99 9cae cb92 27b6
00000070: 3299 7438 d20b 88b8 4d1d 9d36 645a 5829
00000080: ace1 b5b8 6de5 a838 d124 7f37 924c 46b8
00000090: 69b4 c4b8 dff3 bcb6 6e02 2731 e819 222c
000000a0: a634 9430 96e0 bcb6 05ee 7c2b 8a1f aaab
000000b0: 78ce dfb6 4f76 0eb7 978a 8a37 6ea2 b236
000000c0: c3a8 1631 93e4 d136 72b1 bd38 ffde 182c
000000d0: 6c2e 2c37 1477 33b5 41a4 392c ad44 70b8
000000e0: 6822 0338 84c2 4437 409c 49b8 ee5e c0b7
000000f0: 8a82 1ab8 0555 6426 dd6e 8123 54a3 db33
00000100: 2263 26b8 9d7b b937 1a9b 10b8 129d c433
00000110: bbaf 67b7 2f00 cbab c324 49b7 a426 4038
00000120: ea6b 54b1 d094 f9b7 84c8 7435 16cc 1eb1
00000130: 57f9 932b 3fa0 45b8 5393 69b7 20fc 8cb4
00000140: fef6 21b8 299d cdaa 87be a6ab 337d 83b6
00000150: a697 1c38 1a03 16b7 6d4f 9f37 6112 46b6
00000160: 0a80 45b8 2b50 b8b8 0275 012d 453d 0a38
00000170: 8f17 d0b8 fae2 bb38 ae85 9537 7353 ad28
00000180: 12d4 5eb8 1156 4a38 2def dd2b 8e72 b736
00000190: 5ac6 b9b7 d218 c22b de81 e4af 675a 0431
000001a0: c856 4f37 428b 6737 620d 80b8 758a fbb7
000001b0: daee 012c 07ac 41b7 73b5 c4b7 353c a2b7
000001c0: 84ee 84b4 f131 5934 d1d7 5137 ec9f 35b7
000001d0: bf51 1131 041b ad2b 88b7 72b6 51b9 3eb8
000001e0: 8388 bd37 2ec2 8fa8 e258 30ac 6ced c29c
000001f0: bedf 6bb7 22ba 61b0 734e 1734 d0d7 0b35
8.901146e-05 -2.0003115e-05 -2.097295e-10 2.268798e-11 6.933041e-05 -4.8268783e-05 -2.6701136e-06 -6.2464667e-10
-8.265653e-06 -4.904253e-16 -1.1838287e-05 -4.7795314e-05 2.098255e-05 -2.1535356e-05 9.104181e-12 6.8833163e-14
-1.9582122e-21 -4.185225e-11 1.8635842e-12 -7.058889e-05 -2.4878962e-05 -1.36345e-12 -1.909747e-12 1.1513718e-05
6.25234e-06 4.882408e-06 -7.121333e-11 -2.4970384e-06 5.8316808e-05 -6.487187e-05 4.6823757e-06 4.8040036e-14
-8.672787e-05 8.053598e-05 1.5207756e-05 -4.727819e-05 -9.379612e-05 -5.631227e-06 2.430308e-09 2.3035965e-12
1.0783381e-09 -5.628982e-06 8.9858703e-13 -1.208798e-12 -6.669954e-06 -8.491405e-06 1.6515418e-05 5.3237227e-06
2.1923803e-09 6.255295e-06 9.045274e-05 2.1724287e-12 1.0262807e-05 -6.685598e-07 2.638126e-12 -5.728442e-05
3.1264877e-05 1.17278e-05 -4.8067654e-05 -2.2932389e-05 -3.6838035e-05 7.9218613e-16 1.403316e-17 1.02276914e-07
-3.966981e-05 2.211128e-05 -3.4476725e-05 9.155532e-08 -1.3809588e-05 -1.4424068e-12 -1.1989093e-05 4.5812354e-05
-3.0911402e-09 -2.975241e-05 9.118887e-07 -2.3108035e-09 1.0514184e-12 -4.71177e-05 -1.3922184e-05 -2.6260477e-07
-3.861542e-05 -3.6524367e-13 -1.1847891e-12 -3.9186793e-06 3.7334532e-05 -8.941419e-06 1.8991263e-05 -2.9514997e-06
-4.7087706e-05 -8.788736e-05 7.358782e-12 3.2958826e-05 -9.922601e-05 8.9591325e-05 1.7824434e-05 1.9243049e-14
-5.312643e-05 4.824071e-05 1.5769379e-12 5.467161e-06 -2.2146083e-05 1.3791418e-12 -4.1565235e-10 1.9259916e-09
1.2358367e-05 1.3801096e-05 -6.1060084e-05 -2.9986006e-05 1.8464592e-12 -1.154375e-05 -2.3449515e-05 -1.9339941e-05
-2.476046e-07 2.0227868e-07 1.2507619e-05 -1.0825675e-05 2.1146744e-09 1.2299888e-12 -3.616764e-06 -4.547212e-05
2.2594124e-05 -1.5960401e-14 -2.5060444e-12 -1.2899215e-21 -1.4059186e-05 -8.2119034e-10 1.409151e-07 5.2095584e-07

exp_avg_sq f4 [128]
00000000: d2c8 cb33 c949 f133 2532 8630 af12 ee2f
00000010: 4233 9d33 af62 2333 4ae0 a733 9447 cc2a
00000020: fbca 8133 fd29 e522 9b09 6830 8774 c733
00000030: 040d 3c32 825f 6733 31d8 2b20 45db a42e
00000040: 2cfe 8311 bd11 8524 6502 842f 64e9 8834
00000050: 321c d332 d3fd e62f dbda 5530 b1f9 2a34
00000060: bf1e 8333 6498 3933 263d e92e b96b f831
00000070: ef1d fd33 aa0f 5433 92b6 b033 fa5e ad2e
00000080: a13d ae33 9277 0b33 38ad 6934 e27b 1333
00000090: dd1f ca32 0e06 d033 1442 892b eb99 b82f
000000a0: 1cda e32f e6d9 4733 9888 a030 ed03 5a2f
000000b0: 849b 0a33 662d b333 4981 2533 8c7c cd32
000000c0: 1762 5930 f13e be32 3825 1834 bff2 0230
000000d0: 5323 4933 10af c733 7ed1 8130 84dc 7533
000000e0: dc9c 8633 3f54 0233 5a3e 5632 1e1f 6332
000000f0: e31f 2d33 c04a 3524 8323 3212 d046 ae2e
00000100: 517e 0935 5877 6733 3c14 ae32 e47b eb30
00000110: b53a 2132 f840 3a2f 5fe2 4f33 49b1 5c32
00000120: d474 5329 7bdc 2234 50aa 0a33 fb93 0231
00000130: f0e4 cd2e 26aa 8933 aa07 3c33 fc0a 8e32
00000140: a32b 4233 e1b6 0530 ed4e f92e b2b5 9732
00000150: 367b 0c32 3a2b c432 e053 3332 7c20 aa30
00000160: 6348 3533 eb91 8033 39c5 7930 2fba 9a32
00000170: bd02 7133 0cb4 0434 1d4e a132 8cff 1d2e
00000180: 3f98 6134 734f a533 fe0a 6e2f 7c50 bc31
00000190: e329 0a33 44ae 5e30 70ee 8f31 3c84 a630
000001a0: 5b49 c733 717b 1433 509f 0134 7d01 4533
000001b0: 386e 802f ef67 4832 e43a 0b33 316e 2e34
000001c0: 9e4d 1333 929d 2031 e1f3 c133 e748 1533
000001d0: f6e5 e02f d2ff c22e 2771 ae32 dceb 5933
000001e0: 7513 e033 eecb a424 e8d6 4129 b763 4711
000001f0: 9d08 eb33 0ac1 5230 645b ab30 3246 a632
9.489453e-08 1.12358585e-07 9.764035e-10 4.3305223e-10 7.320206e-08 3.8041147e-08 7.8173414e-08 3.6287347e-13
6.0439525e-08 6.211503e-18 8.441476e-10 9.287856e-08 1.0946e-08 5.3870743e-08 1.4555795e-19 7.4968066e-11
2.0824801e-28 5.7709605e-17 2.4012362e-10 2.5501788e-07 2.4576455e-08 4.201711e-10 7.779996e-10 1.5923321e-07
6.1057555e-08 4.3212268e-08 1.06064754e-10 7.2299966e-09 1.17866755e-07 4.9374343e-08 8.228848e-08 7.8840004e-11
8.1137166e-08 3.2472208e-08 2.1762833e-07 3.4338775e-08 2.3530385e-08 9.686856e-08 9.752776e-13 3.357877e-10
4.1446035e-10 4.6531476e-08 1.1680354e-09 1.9828379e-10 3.227207e-08 8.343595e-08 3.853464e-08 2.3921778e-08
7.9083534e-10 2.2147534e-08 1.4169643e-07 4.763869e-10 4.6831087e-08 9.298503e-08 9.445527e-10 5.7244065e-08
6.268394e-08 3.0344605e-08 1.24706165e-08 1.3220214e-08 4.0308702e-08 3.9311434e-17 5.621067e-28 7.925183e-11
5.122029e-07 5.389242e-08 2.0265468e-08 1.7133712e-09 9.384782e-09 1.6939683e-10 4.8401827e-08 1.2845995e-08
4.6952744e-14 1.5167636e-07 3.2285527e-08 1.9001607e-09 9.362988e-11 6.4105095e-08 4.377913e-08 1.653597e-08
4.5208832e-08 4.8645005e-10 1.1337229e-10 1.7661339e-08 8.1770875e-09 2.283706e-08 1.0438242e-08 1.2378361e-09
4.2208182e-08 5.987007e-08 9.086594e-10 1.8012626e-08 5.6114676e-08 1.2358959e-07 1.8778389e-08 3.5924638e-11
2.1010145e-07 7.697863e-08 2.1649879e-10 5.48067e-09 3.2168725e-08 8.1010776e-10 4.188955e-09 1.2115673e-09
9.280003e-08 3.4571205e-08 1.2072019e-07 4.586899e-08 2.336138e-10 1.1665164e-08 3.241702e-08 1.62451e-07
3.4296697e-08 2.3372633e-09 9.031624e-08 3.475807e-08 4.090876e-10 8.8675414e-11 2.0307722e-08 5.0738763e-08
1.0434352e-07 7.146913e-17 4.304101e-14 1.5729059e-28 1.0944607e-07 7.667188e-10 1.2467862e-09 1.9356865e-08
