results/imitationlearning/RaceCar/RaceCar-499952.onnx (onnx, 85166 bytes, 8 tensors)

action_model._continuous_distribution.log_sigma f4 [1, 2]
00000000: 23b1 52c0 25b8 5cc0
-3.2920616 -3.4487393

action_model._continuous_distribution.mu.bias f4 [2]
00000000: bd13 0c3f b6fa 8d3d
0.5471762 0.06932585

action_model._continuous_distribution.mu.weight f4 [2, 128]
00000000: 509e 353b 11a2 afbb 2c8f d4ba 3e83 16bd
00000010: 87dd 32ba f4ad 29bb f282 4e3c 0343 8ebd
00000020: d6eb 8b3b 0e2e 27bc 9daa f4bb 707c e43b
00000030: 870d bbba 9b11 77b9 6216 313c f795 cb3b
00000040: 36da 58bc 90ae 48bd fc44 ef3b da06 c7bb
00000050: aaeb a13b c48d 883a 7690 173b 19c7 233c
00000060: 1a0c 27bd 79a8 e83a 1e13 aebb 5a1c 8a3b
00000070: 74ea 073d 81ee bebb 25a5 85ba 3d25 12bd
00000080: 4c70 66bb 665e 09bd bfaf 77bc 466d 733b
00000090: 5d41 193f ddff d9bb 1a44 8c3b 7b2b 98bc
000000a0: e5a1 2bbb 11ee 67bc b1fc ddbb fd5e 9abd
000000b0: 3a35 0cbc bdc7 c9be 884f 293c 0a5a f03a
000000c0: 21ef cabb 44e5 babb a054 bdbc e4eb 45bc
000000d0: 88de 1cbb 04ca e1ba dd96 213c 1246 533c
000000e0: 05b8 243d b246 4ebb 9639 013f 37c2 a8bd
000000f0: 0561 a7bb b000 1f3a e0de 2a3d 2835 a5bc
00000100: c3e7 823c dd68 bbbb 991d 0c3e 6d17 57bc
00000110: 932d 0cb8 72f7 b7bc 1cb7 6dbb 581a 2ebb
00000120: 9069 123b 963b b0bc b18b 253e cf02 473c
00000130: c2d1 1e39 c890 4b3b 1a89 a03c 1301 15bf
00000140: 606f 87bc ea10 cd3b 6c50 d1bc 7190 e53b
00000150: bfc8 743a ff60 b7bb 1ea4 9db9 b357 33b9
00000160: 6869 b13b 6254 2e3f 197a 81ba 43ce 73bb
00000170: 603f 5e3a e29a ce3a 093e 67bb 228c dbbb
00000180: 0475 f6bd 73d5 303c cf6f 2abc f7e7 c33d
00000190: 5bc5 2fbb 1c90 2d3d 0336 9c3c d01d 6b3c
000001a0: 46c7 ecbd e543 b3bb 2512 71bb eee4 053b
000001b0: cc44 903b 1dd3 733c b8a2 d8b9 5594 883e
000001c0: f274 55bc 8eca f83b ee8f bebc 30eb 0d3b
000001d0: 2afa 5b39 e94d 253c 9328 46b9 da06 ef3c
000001e0: 2fe3 a2bb e8ed b53b 67ee 4b3e b5fa c23b
000001f0: d9da 04bb 3d5f aabb 081c 063b 5a98 24bc
00000200: 7141 85b8 0268 e43b 798e 8cbb b8c1 f0bb
00000210: 47d6 bd3a e154 23bb 8198 9bbb 5c6d 89bb
00000220: d183 943a 7101 243a 1cbf deba f3ad 44bb
00000230: 109f c33a 62e6 283a d8c8 1bb9 90f1 d2ba
00000240: b2ae c43b dfbc 063c f64d d239 a9a7 85bb
00000250: 139b 28bc 26c7 01bb 6058 aa3b a530 3dbb
00000260: 6e71 70bc 060d 92bc 0950 053a 7143 7cbb
00000270: da56 da3b 12e9 293b bf9f 3bb9 dc8e 81ba
00000280: 4f06 ccb8 f627 1bbc 7d82 553a f22c a73b
00000290: 9820 9fbc ab79 a3bb f687 4a3b e600 49bb
000002a0: 0af6 ac3b 7f85 9c3a db3a 503a aa52 133a
000002b0: 7e4b fd3b b164 863d ed33 79bb 4521 df3a
000002c0: cc9e 39bb 0854 3e3b 37e6 55bc 243e 2f3c
000002d0: 913e 17bc 2eec eaba 8212 92bb 285c 10bc
000002e0: 035e 833b 36ac 74ba 8090 62bc faa8 bfbc
000002f0: 832e b7b9 1d5a f3bb 2502 273d d5a0 3b3c
00000300: 5ae6 cd3b a53b abbb 367e f43c fdef 4bbc
00000310: d758 733b 5e0a 043c 8a15 adbb 5895 aeba
00000320: 1aef debb 29b1 babb 6299 9e3c 355b bc3b
00000330: 00e7 83bb 36e2 f539 5dc4 71bb 66be 87bc
00000340: e1f3 0f3d 13da 4bbc 1359 2eb8 342b d8bb
00000350: eaf0 99b8 6dd4 a2bb 28ce 29bb 6aa8 04bc
00000360: b7dd a83b 3bd2 813d e2c0 48bb 82ce 0f3c
00000370: 8e5b 53bb 46cf aeba 5d42 12bc a8cb 8cbc
00000380: d3eb 353b c237 39bb b783 7dba 978b 9b3c
00000390: 2487 4db9 8a15 aa3b f6ca c33b 6707 bd3c
000003a0: 7461 cebc 8b91 6bba 4ebf 803b 1fc3 cf3b
000003b0: f681 a13c c4bb 51bb aedd 0dbb 4322 223c
000003c0: ad79 0fbb 3bf0 07bb 455e 96b9 a817 a93b
000003d0: d391 2b3b ea25 553c 124e daba f94d a53b
000003e0: 1048 83bb 92a6 8b3b 3b5e 753c d368 88ba
000003f0: 0a1b 6dbb d1dd 5e3c 87cc 44ba 031b 373c
0.002771277 -0.005359896 -0.0016216985 -0.036746256 -0.0006823171 -0.0025891038 0.012604462 -0.06946375
0.004270057 -0.010203851 -0.0074666278 0.006972842 -0.0014270999 -0.00023562314 0.010808559 0.0062129456
-0.013235619 -0.0489946 0.0073019248 -0.006073815 0.0049414234 0.0010418226 0.0023126877 0.009996199
-0.040783025 0.0017750404 -0.0053123375 0.0042148056 0.033182576 -0.0058267717 -0.0010196312 -0.035680044
-0.003516215 -0.03353729 -0.015117585 0.003714399 0.5986536 -0.0066528157 0.0042805793 -0.01857542
-0.0026189026 -0.014155881 -0.006774508 -0.07537649 -0.008557612 -0.394102 0.010333903 0.0018337381
-0.006193057 -0.0057036 -0.023111641 -0.0120801665 -0.002393635 -0.0017226343 0.009862629 0.012895124
0.040214557 -0.0031475243 0.50478494 -0.082401685 -0.005108001 0.0006065471 0.041716456 -0.020166948
0.015979653 -0.005719288 0.13683166 -0.013128144 -3.3421045e-05 -0.022456858 -0.0036272472 -0.0026565995
0.0022340752 -0.021512788 0.1616657 0.012146666 0.00015146195 0.0031061638 0.019596625 -0.58204764
-0.0165326 0.00625812 -0.025551043 0.007005744 0.0009337775 -0.0055962796 -0.0003006765 -0.00017103441
0.0054141767 0.6809751 -0.0009878307 -0.00372018 0.00084780715 0.0015762711 -0.0035284779 -0.0067000547
-0.12034038 0.010793078 -0.010402634 0.09565728 -0.0026820514 0.04237376 0.019068724 0.01435037
-0.11561446 -0.00547074 -0.0036784497 0.0020430642 0.0044027325 0.014881876 -0.00041319965 0.26675668
-0.01302837 0.007592506 -0.02326199 0.0021655075 0.00020978661 0.010089376 -0.00018897867 0.029178072
-0.00497093 0.0055520423 0.19915162 0.0059502968 -0.0020272045 -0.0051993416 0.0020463485 -0.010046089
-6.3541236e-05 0.0069704065 -0.004289445 -0.007347312 0.0014483415 -0.0024922418 -0.0047484045 -0.004193945
0.0011330788 0.00062563183 -0.0016994211 -0.0030010908 0.0014924724 0.0006443021 -0.00014856772 -0.001609372
0.0060022706 0.008223741 0.00040112407 -0.0040788245 -0.010290879 -0.001980254 0.0051985234 -0.0028868106
-0.014675481 -0.017828476 0.00050854735 -0.0038492347 0.0066631855 0.0025926274 -0.0001789322 -0.0009884494
-9.728653e-05 -0.009469977 0.00081447494 0.0051017934 -0.019424722 -0.004988869 0.0030903793 -0.0030670702
0.0052783536 0.001194164 0.00079433405 0.0005619923 0.0077299466 0.06562174 -0.0038025335 0.0017023465
-0.002832341 0.0029041786 -0.013055376 0.010695968 -0.009231226 -0.001792317 -0.0044577727 -0.008811034
0.00400901 -0.0009333523 -0.013828397 -0.023396004 -0.00034939134 -0.007426514 0.04077353 0.01145192
0.0062835636 -0.005225616 0.029845338 -0.012447354 0.003713181 0.008059112 -0.0052821087 -0.0013319654
-0.0068034055 -0.0056973887 0.019360248 0.0057481774 -0.00402534 0.00046898582 -0.0036890723 -0.016570281
0.03514469 -0.01244213 -4.156779e-05 -0.006596947 -7.340482e-05 -0.004969171 -0.0025910232 -0.008096794
0.0051533836 0.063389264 -0.0030632545 0.008777263 -0.0032250616 -0.0013336919 -0.008926955 -0.017186955
0.002775897 -0.0028261994 -0.0009670811 0.01898746 -0.00019600667 0.005190556 0.0059751226 0.023074819
-0.025192954 -0.0008986226 0.0039290553 0.006340399 0.01971529 -0.0032002786 -0.0021647024 0.009895864
-0.0021892593 -0.0020742554 -0.00028680466 0.0051602907 0.0026179447 0.013009528 -0.0016655347 0.0050446955
-0.0040063933 0.0042618 0.01497608 -0.0010407217 -0.0036179447 0.01360269 -0.00075072836 0.011175874

action_model._discrete_distribution.branches.0.weight f4 [1, 128]
00000000: 7fd4 08bc 5245 fd3b 5857 90ba 07a2 b1bb
00000010: 94aa 89bc 9dbf b33b 288c 343c 8ce0 073c
00000020: d084 fa3b dbd6 48bc b3df dd3b 9373 b1bb
00000030: 07a2 163c aa9a 29bc 7316 e93b 259f 303b
00000040: 0198 07bb 6376 1f3a 575e 9439 13db bfbb
00000050: f84a da39 0b78 4ebc 8e72 a1bb 03b3 beba
00000060: dfc4 243c ff71 e0bb 8a9f 153c 4536 2cbc
00000070: cde3 9d39 4dc7 aebc 97d1 073c 4386 de3a
00000080: 9e1b a13c dcac 103c 2915 853b 37e4 733b
00000090: 37b9 91ba 7044 e1bb 979a df3b 7c9b a43b
000000a0: 0502 52bc 36ca 8fba ba96 a43a 33ec 0e3b
000000b0: 0266 4c3c c5b3 b5ba 330b b4ba 9352 7ebb
000000c0: 6008 963c 1de0 7dbc 5518 333a 72bb 76bb
000000d0: a74b 353b 8244 c33b 6cff 343c 7caf 2b3c
000000e0: 1387 913c ebda 3d3c 950c 12bb 7f8b 803a
000000f0: 5b4c 113c 7a31 b4ba 12c1 4e3b 8eef 05bc
00000100: 7f7e f5bb 28a8 eabb 1ea2 10bc aa50 05bc
00000110: 42f6 5fbb 2b60 4bbb 4056 d63b d5b3 843c
00000120: 435e 5f3c 8b2b 94bc 6d59 00bb 8afe 6d3c
00000130: 270e 633c 1bc1 0dbc a6ec 85bc ed0f e7ba
00000140: 36c5 01bb 9349 133c 5d02 42bb d7ef 10bb
00000150: 6ebb 94b9 3686 18bc 6c3f 883c b22e 6c3c
00000160: b786 87ba d854 4fbc 37dd 72bc 4dc2 44ba
00000170: 542b 993b f863 7c3c b399 08bc 4cdb 97bb
00000180: ac7a 433c ef13 4e3b 6d9b 65bc e5dd ff3b
00000190: e24a d9ba 3dc7 2a3c 3561 89bc 55d3 f8bb
000001a0: 5b61 02bc 2ae7 38bc 91f8 c6ba 05f0 2f3c
000001b0: 8a68 e0ba e0bb 4cbc 3b03 8d3c 5d73 a2bb
000001c0: dd73 f83b 8749 003c d309 8ebb ea6e 38bc
000001d0: 5994 0e3c d5fd 373c bffe 62ba 1f70 323c
000001e0: c094 71bc 9f9a 2fbb 3bd7 c1ba c2ea 0fba
000001f0: bc8f 44bc 6850 9cba e32b be3b 9cab 41bb
-0.008351444 0.007729211 -0.0011012359 -0.0054209265 -0.01680497 0.0054854886 0.011019744 0.008293282
0.007645227 -0.012258257 0.006771052 -0.005415389 0.009193904 -0.010351816 0.007113272 0.0026950326
-0.0020689967 0.00060830096 0.00028299048 -0.005854973 0.00041636056 -0.012601863 -0.004926986 -0.0014549199
0.010056703 -0.006849527 0.009132275 -0.010510986 0.00030115098 -0.021335268 0.008289716 0.0016977269
0.01966649 0.008830275 0.0040613604 0.0037214884 -0.001111782 -0.0068746135 0.0068238485 0.005023418
-0.012817864 -0.0010970298 0.0012557127 0.0021808266 0.012475492 -0.001386278 -0.0013736248 -0.0038806542
0.01831454 -0.015495327 0.0006831934 -0.0037648347 0.00276635 0.0059590945 0.011047225 0.01047885
0.017764604 0.011587839 -0.0022285332 0.0009807198 0.008868302 -0.0013747655 0.0031548184 -0.00817479
-0.007491886 -0.007161159 -0.008827714 -0.008136908 -0.003417388 -0.0031032662 0.0065410435 0.016199032
0.013633314 -0.01808717 -0.0019584552 0.014526019 0.013858355 -0.008651997 -0.016348194 -0.0017628648
-0.0019801385 0.008989709 -0.002960346 -0.0022115612 -0.00028368406 -0.009309342 0.016631804 0.01441543
-0.0010339831 -0.012654506 -0.01482325 -0.000750576 0.0046743546 0.015404694 -0.008337426 -0.0046342965
0.011931103 0.0031444987 -0.014014107 0.0078084343 -0.0016578103 0.010423479 -0.016769985 -0.007593552
-0.007957782 -0.011285583 -0.001518028 0.010738377 -0.0017120999 -0.012495965 0.017213454 -0.0049576
0.0075821714 0.00783003 -0.004334667 -0.011256913 0.008702361 0.011229952 -0.0008659176 0.01089099
-0.014744937 -0.0026795042 -0.0014788875 -0.0005489999 -0.01199716 -0.0011925818 0.0058035715 -0.002955175

network_body._body_endoder.seq_layers.0.bias f4 [128]
00000000: fd6d 193e b274 aa3c 87df 97bd 1e8b 843e
00000010: 3625 82be aa2d ffbd ec33 063d 2f4e c03d
00000020: bed1 3e3e 5a69 cabe 6b64 f1bc 2ceb babd
00000030: b0c0 483e 2ccd 7ebe 61ff da3e 6e19 5d3e
00000040: 641e 893e 64b3 ce3d fc48 ed3d e354 27be
00000050: 41c7 0cbe fb7b 37be 7bb8 343f 9e8b 273d
00000060: 9582 193e 9168 963c 0ad2 bebd cae9 683e
00000070: 29cb fe3c f271 083e 99e6 86be eb4d b43e
00000080: a88c 2d3e cc84 933e c188 24bd 28f7 73bd
00000090: b88d 913e 48ea 243d 5046 443e 8c20 5fbc
000000a0: a826 733c 21a6 d03c 4d25 653e 2fbc 953e
000000b0: a2c4 d5bd 38d8 26bc 9241 173d a72c 6e3d
000000c0: 1f8a bc3d 7599 d5bd 1a0b 313d 8a54 243f
000000d0: e710 223e a78b cf3d 8a27 18be 31bb cd3d
000000e0: bb73 233e d3ce e03c 0bf4 c13c 5502 e33d
000000f0: 45b6 49be 09cc 8ebe 64c4 48be 8c75 043e
00000100: b386 df3d 05a2 0cbe 9cc9 b1bc 53d9 8c3c
00000110: 6367 843e fe9c 273e b9c5 a0bd 1037 32bd
00000120: 00b0 1abe 887b c73c 9556 12be 241d 1dbe
00000130: bc8c 0dbe c19a d03e 70cb afbe a0fd 573d
00000140: 7f46 073f 4193 4f3d 0234 de3c cdb9 1ebe
00000150: 7e97 863d 2aef ebbd adf2 91be 9d9b cb3d
00000160: 225d 3e3c b08d 683e 63e6 103e 7586 6e3e
00000170: d63d 51be 0bca 943d f69d 493d 0745 e63e
00000180: 9eef 0fbe 9b1a 19be 6be0 6bbe 223e 19be
00000190: 0350 97bd 83b6 a23e 87f1 2ebe 552d 8fbc
000001a0: 0edb 28be 6b9c c9bd 6406 babe 4f02 ac3c
000001b0: 7cbb 80be 6f13 4bbe f678 e63e 6623 b43e
000001c0: d7a4 3ebc 99cd 22be e1c6 1fbe 3e59 11bc
000001d0: 860b d13e b6ab 863e f15c cebd 05ab afbc
000001e0: b41d 283e bb6f 7cbe c8ab 093d 2d28 2c3e
000001f0: 4d4e ff3d f1d1 2fbe 67ae 4abd fc41 4abe
0.14983363 0.020807598 -0.07415681 0.25887388 -0.25419015 -0.124598816 0.03276436 0.09389912
0.18634698 -0.39533502 -0.029466828 -0.09126887 0.19604754 -0.24882954 0.42772964 0.21591732
0.26781 0.1009281 0.11586186 -0.16340975 -0.13747884 -0.17918389 0.70593995 0.040904634
0.1499122 0.018360408 -0.093174055 0.22745433 0.031102734 0.13324717 -0.26347807 0.35215697
0.16948187 0.28812253 -0.04016948 -0.05956188 0.28428435 0.04026249 0.19167447 -0.0136186
0.014840759 0.025469841 0.2237751 0.29245135 -0.10437895 -0.0101833865 0.036927767 0.058148053
0.09206032 -0.1042966 0.043223478 0.64191496 0.1582676 0.101340584 -0.14858833 0.100454696
0.15962116 0.027442371 0.023675939 0.11084429 -0.19698437 -0.2789004 -0.19606167 0.12935466
0.10914364 -0.1373368 -0.02170258 0.017193472 0.25860128 0.16368482 -0.078502126 -0.043509543
-0.15106201 0.024350896 -0.14290841 -0.15343148 -0.13823217 0.40743068 -0.34334898 0.05273211
0.52841944 0.05067754 0.027124409 -0.15500565 0.065718636 -0.11520226 -0.2850546 0.0994179
0.011618884 0.227103 0.14150386 0.23293479 -0.20433745 0.07265099 0.04922291 0.4497454
-0.1405625 -0.14951555 -0.23034827 -0.14965108 -0.07388308 0.3177987 -0.17084323 -0.01747767
-0.16489813 -0.098442875 -0.36333 0.020997195 -0.2514304 -0.19831632 0.4501416 0.35183257
-0.011635981 -0.15898742 -0.1560321 -0.008871375 0.40829104 0.2630288 -0.10076321 -0.021443853
0.16417581 -0.24651997 0.03361109 0.16812201 0.124661066 -0.1716993 -0.04948273 -0.19751734

network_body._body_endoder.seq_layers.0.weight f4 [128, 27]
00000000: 15a2 6fbe 7bf2 1f3f b06a 293e 5d9b c63e
00000010: 87a2 033f ff28 bb3d 19a4 153e 6f2e 733e
00000020: 782c 1c3f e509 d6bd 912e 87bd 6716 813e
00000030: 3d36 093e 816a 9a3e 8057 ad3e 9d23 7a3e
00000040: aeaf 923d 4270 1bbe d3d4 143e 2273 3c3e
00000050: 7177 9fbd 11b6 59be ff5a 3cbd e2fb 98bd
00000060: 1da0 24be 1ff0 1d3e fab6 c83e 7995 61be
00000070: 8d69 02be 892b 0a3f 4d5c 32be 53b0 763d
00000080: 00ed a6bd 66e4 aa3e 8f17 99bd c365 2abf
00000090: 6a60 aabd 1ee2 633e 0869 02be 818f 083e
000000a0: 2ec2 e7bd f00e c7bc a382 0cbe daec 1abe
000000b0: 8174 873e a11c 20be 16c3 8cbe 5556 1f3f
000000c0: 1c9d 15be c18c 0bbf 0ac4 e1bd cd73 2f3e
000000d0: 3a71 0dbf b148 88bd f75b 14be f76d e7be
000000e0: 3a24 26be 709d a9be 656d e3be 35ec 23bc
000000f0: cbb6 f6bd ac78 85be 9c0d 47bf c80a fdbe
00000100: 272b d23c a71b 1f3e 6294 cc3c 22d4 1b3e
00000110: aa66 663e f13c 61bd ef82 ffbd cacf 743e
00000120: 0e6c 043e 5ec2 12bf d711 b93d f051 54be
00000130: ab00 08bf 61b7 89be 3d00 e6be 4ac2 613e
00000140: 2c31 403e f7e3 9e3f 1ab9 c43e b557 893f
00000150: 74b6 da3e c55c a93e 2285 f7bc 96f7 f33e
00000160: 47c5 cd3e 977c 51be 1bd6 163e c22c 943e
00000170: b148 e53e 2352 31be a2df a63e aa8c 0ebe
00000180: 0985 3e3e a828 5cbd 0b6a c73e 1ab4 47be
00000190: b1be 10bf 0422 1e3f 9293 acbd 6f36 aabe
000001a0: 0187 a63d 6de3 833e d64e 8b3e 1ddf 883d
000001b0: d6d7 09bf a593 e3be 76e3 80bf 4a05 afbe
000001c0: 0d4b 00bf 4a73 38be 2bbc a8be f69e f5be
000001d0: 3562 273e 9a60 9dbe a2f3 f7be b07b 2abf
000001e0: 5ab5 5bbf a161 38bf 1591 a8bc d58a 51bd
000001f0: 4672 eb3b 0f89 e2bb a582 593e 2121 123f
00000200: e7d8 2ebf f0fc 253e ed76 3e3e 78fd e43c
00000210: 6608 b8bd e0f6 88bc aa5b 09bf 8264 85be
00000220: fc33 02be bd13 e8bd 811c 8e3d 013c b2bd
00000230: 280f 2bbd 9389 34be b43b 6abe 8610 8dbc
00000240: c24a 75be 30b0 0e3f 51b7 2abd 6adf 283e
00000250: 78b7 9cbe 93ca 4abe f122 10be 23bc 823d
00000260: f0af 2ebf 5059 e43d 3a68 e93e 9daf 50be
00000270: 544c 2cbe d953 0c3f 0b35 363e 102a 993e
00000280: baea 29be 1649 933e b27f ee3e 1e7e ae3e
00000290: b855 e63e cf50 993e c972 b43e 321b 8dbd
000002a0: ed27 8b3e b612 c33c 8bda c3be d8cb d03d
000002b0: d52e aa3e 5f8a 343e c95d 763e ab43 0ebd
000002c0: f6de 21bd 9776 dcbe 93bf c3bd 9fac 683e
000002d0: c5fc 9ebd 9959 c43e 49cf 713e 34cc e23d
000002e0: ba50 9bbe 4a69 17be d432 8f3e 977e 83bd
000002f0: cb7f 683b 1e58 68be e693 ac3e 7c70 933e
00000300: 7e8a 783d 259d d83e 3ccc ca3e 3973 143f
00000310: 57a2 163d 1cdb 053f 3e4b 943e 7956 923e
00000320: b1f6 e0bd 9363 c23e 3a84 bb3d 313f a5bc
00000330: 13ff 853d 2d7c 18be 37cf a5be 59fd 113e
00000340: fefa 523e bd13 8dbe 1dc7 ab3d f282 cdbb
00000350: a821 e23e afcc 433f ccbb 433f b9b5 81bd
00000360: 8ea2 ab3f cd4b 663e 13da 933f 9959 453c
00000370: 640a e63e 5405 c43e 3f3b 0e3f 59d0 9d3e
00000380: 65ec 6d3e 67cf dcbd 3eaa afbd 1a9d 563f
00000390: e3a9 543e fd49 fa3e 3692 7bbe d623 e7bd
000003a0: d61b e23d f8fa 333f ceb3 a8ba bc80 09be
000003b0: 77a9 a13e dfbc 58be 1370 03bf da9b 693e
000003c0: 50d0 a23d 36c4 febe 9fad 413d 25ba cbbe
000003d0: cbe0 3cbe 48cc adbf 56bb 42bf fe0b 27bf
000003e0: 7388 f6be 16a7 26bf 328a 08bf 3bd7 41be
000003f0: e479 5cbe dcc5 babe f4b6 0ebf 079a a8be
-0.23401673 0.6247937 0.16544604 0.38790408 0.5141987 0.09138679 0.1461338 0.23748182
0.61005354 -0.10451106 -0.06600679 0.25212404 0.13399597 0.3015938 0.3385582 0.24427648
0.071624145 -0.15179542 0.14534311 0.18403295 -0.077864535 -0.21260859 -0.04598522 -0.07469918
-0.16076703 0.1542363 0.392021 -0.22029676 -0.12735577 0.5397268 -0.17418022 0.06022675
-0.08150673 0.3337738 -0.074751966 -0.66561526 -0.08319171 0.22254226 -0.12735379 0.13335992
-0.11316334 -0.024299115 -0.13721709 -0.15129414 0.26456073 -0.15635921 -0.2749259 0.6224111
-0.14610714 -0.5451165 -0.110237196 0.17134018 -0.55250895 -0.0665449 -0.14488207 -0.45201084
-0.16224757 -0.33127928 -0.444194 -0.010005047 -0.12046584 -0.26068628 -0.7775514 -0.49422288
0.025655342 0.15537892 0.024973098 0.15217641 0.225001 -0.05498976 -0.124761455 0.2390739
0.12931845 -0.5732783 0.09036606 -0.20734382 -0.5312602 -0.2689772 -0.44922057 0.22046772
0.18768758 1.2413319 0.3842247 1.0729891 0.42717326 0.3307859 -0.03021485 0.4764983
0.40189573 -0.20457684 0.14730112 0.28940398 0.44782022 -0.17316489 0.32592493 -0.13920847
0.18605436 -0.05374971 0.38948092 -0.19502297 -0.5654097 0.61770654 -0.08426584 -0.33244655
0.08131219 0.2575945 0.27208585 0.066831805 -0.53844965 -0.4444858 -1.0069416 -0.34183723
-0.5011452 -0.1801273 -0.3295606 -0.4797284 0.16346057 -0.30737764 -0.48428065 -0.6659498
-0.85823596 -0.7202397 -0.020576993 -0.05115779 0.0071852533 -0.0069133113 0.21241243 0.570818
-0.68299717 0.16209769 0.18600054 0.027952895 -0.08985977 -0.016719282 -0.53655493 -0.26053244
-0.12715143 -0.1133189 0.069390304 -0.08702851 -0.0417625 -0.17630605 -0.22874337 -0.017219793
-0.23954299 0.5573759 -0.04167873 0.16491476 -0.30608726 -0.19803838 -0.14075829 0.063835405
-0.6823721 0.111498475 0.4558733 -0.20379491 -0.16825992 0.5481544 0.17793672 0.29914904
-0.16593447 0.28766698 0.465818 0.34080595 0.44987273 0.29944465 0.35243824 -0.06889953
0.27178898 0.023812633 -0.38252673 0.1019513 0.33238855 0.1763091 0.24059214 -0.034732502
-0.039519273 -0.43059227 -0.09558024 0.227221 -0.07763056 0.38349608 0.2361423 0.11074105
-0.30335027 -0.14786258 0.27968466 -0.064206295 0.0035476561 -0.22689864 0.33706588 0.28796756
0.06067895 0.42307392 0.39608943 0.57988316 0.036775913 0.5228746 0.28963655 0.28581598
-0.10984553 0.37966594 0.091560796 -0.020171734 0.06542792 -0.1489112 -0.32384655 0.142568
0.20603558 -0.27554122 0.08387587 -0.0062717134 0.44166303 0.764842 0.7645843 -0.06333489
1.3408983 0.22489853 1.1550926 0.0120452875 0.44929802 0.38285315 0.5555915 0.3082302
0.23234709 -0.10781746 -0.08577393 0.8383347 0.20767932 0.48884574 -0.24567494 -0.11286132
0.110404655 0.7030482 -0.0012870969 -0.13428015 0.31574604 -0.21165799 -0.51342887 0.22813359
0.07949889 -0.49759072 0.04728472 -0.39790455 -0.18445127 -1.3577967 -0.760671 -0.65252674
-0.48150977 -0.650987 -0.5333587 -0.1892976 -0.21530873 -0.3647908 -0.55747914 -0.32930014

network_body._body_endoder.seq_layers.2.bias f4 [128]
00000000: 643c 43be 9415 75bd 8c5a 92bd 9660 20bd
00000010: a91e 48bc f60f 05be 4cbf c13e ad55 d13d
00000020: 3f8d ed3c c476 cb3c 6d6e 0bbe 3b8c 7bbe
00000030: fd9f 74bd 0939 bc3c addd b83e 5636 973d
00000040: abc0 963c f789 8e3c 13f1 ef3d b13d dfbb
00000050: e5ca d53c d758 453a da19 633d 3e9c 0f3c
00000060: cd0c 4cbe 61b2 b0ba 3d8f 18bd f5f8 13bc
00000070: 2ae3 883c ef12 3ebe c5e4 2fbd 8aac 213c
00000080: 7e4f 913c a0ac 04bc c918 4ab3 0530 833c
00000090: 0bd7 bf3d cf3b e7bc 0bf1 5abd 10a1 e1bd
000000a0: 5e7b 39bd 620f f93c e0d4 74bc 07ae c5bc
000000b0: 84e2 89be 67b6 563d 3089 be3e 783c 8f3c
000000c0: a450 24be 101d c5be 7ea4 98bb 56e4 6a33
000000d0: a8b0 95bd e061 12be fbaa f6bd 132d 6e3d
000000e0: ac30 d73d b15b 31bd 8e39 023e acf3 a73c
000000f0: 20ad a8bd d50d f73d 30b5 1f3d 3852 cf3c
00000100: 2861 d8b1 6578 183c d1be bb3d 0a8f 6dbd
00000110: 2499 40bd 356c 34bc b363 8cba 8268 63be
00000120: a8ed 5cbb 6cce 85be 2d69 a83d 519e 833e
00000130: 36f1 6dbe 923c 583d 72ce a53d b8d2 883d
00000140: 9622 3bbd 777f ad3c 3286 b1be 0dbd ab3c
00000150: 2262 a3bc 579d 97be 8bd5 1cbd 0cbd 2cbc
00000160: d3f9 ba3d ea05 e63d c1b5 8dbb 3b0b 8eba
00000170: 287b 5cbc d25a 5bbd 579a abbd 60e9 c9bc
00000180: 066e f83d af5f 593e 869d a1bb 7a29 913d
00000190: b7a7 a0be 8220 053f 5fa6 ae3b 57e2 fb3d
000001a0: 2eb2 1a3d 326c e4bc bf9b aebd ce6c 0fbe
000001b0: 602a beb8 66c2 683e 5807 463e a403 293e
000001c0: 344b e9bd 203c 8d3e 3a50 e53b f070 393c
000001d0: ad84 b7bc 9f9d 51bb 665b 02be e537 683d
000001e0: e652 89be 03ed acbd 0720 c83d d2f7 80b9
000001f0: dcd0 a2bd 7082 ca3b 507d 72bd 7628 8e3c
-0.19066006 -0.05983503 -0.07146177 -0.03915461 -0.012214341 -0.1299437 0.3784126 0.102214195
0.028998015 0.024836905 -0.13616343 -0.24565212 -0.05972289 0.022976415 0.36106625 0.07383411
0.018402418 0.017399771 0.11715903 -0.006812774 0.026097724 0.0007528192 0.055444576 0.008765278
-0.19926758 -0.0013480895 -0.037245978 -0.009031524 0.016709883 -0.1856191 -0.04294278 0.009867797
0.0177381 -0.008097798 -4.7054332e-08 0.016014108 0.09367188 -0.028226761 -0.053452533 -0.11017048
-0.045283668 0.030402843 -0.0149433315 -0.024130834 -0.2693063 0.052420046 0.3721404 0.017484888
-0.16046387 -0.38498735 -0.004658281 5.469004e-08 -0.07309085 -0.14295149 -0.12044331 0.058148455
0.1050733 -0.043300334 0.12717268 0.020501934 -0.08236146 0.12063185 0.038991153 0.02530776
-6.2974728e-09 0.009306048 0.09167255 -0.05799774 -0.047021046 -0.011012127 -0.0010710865 -0.22207835
-0.003371099 -0.2613405 0.08223186 0.25706723 -0.23236546 0.05279214 0.08096017 0.066808164
-0.04568728 0.021178944 -0.34672695 0.02096417 -0.019944254 -0.29612228 -0.038289588 -0.010543119
0.091296814 0.11231597 -0.0043246453 -0.0010837087 -0.013457097 -0.05355341 -0.08379047 -0.024647415
0.1213036 0.21227907 -0.0049321083 0.07087989 -0.31377956 0.5200273 0.0053298916 0.1229903
0.03776758 -0.027883623 -0.085258 -0.1400635 -9.067799e-05 0.22730407 0.19338739 0.16505295
-0.11391297 0.27584934 0.006998089 0.01131843 -0.022402132 -0.0031984819 -0.12730178 0.05669393
-0.2682106 -0.08443644 0.09771734 -0.00024598703 -0.07949993 0.0061801 -0.05920154 0.017353278

network_body._body_endoder.seq_layers.2.weight f4 [128, 128]
00000000: 3dc9 bebc 1f22 5f3d 8890 73be 90ca 383b
00000010: 44c2 c7bc ee7b aa3d 1a32 723b 8828 b53a
00000020: 6c7c 1bbe 9126 613d f5c6 aebd cdfc fdbb
00000030: 5cf3 80bc 7427 373e a902 09be c36e f6bd
00000040: 031c 3dbe fc5e 993b ba93 733b 3c0c 213e
00000050: a284 c03d 767d f03d 3214 04be 3ab7 d33d
00000060: 348d 3d3c 2560 493d 8156 d0bc ee17 9f3c
00000070: 061f 83bd 7378 603d a825 013e f093 ce3c
00000080: c99d ed3c a33f ebbd 6a04 50bb 7c9b 6a3d
00000090: 2e4d e2bd e01d 04bd b6d1 95bd 14a6 a13c
000000a0: b0fb 553c 1107 04be dbe8 41bd ae8b 953e
000000b0: eef8 1cbd faa5 0c3e 01ab 763d 7750 e1bc
000000c0: 4b66 0bbe 2a0c 763d d8ce a5bd 2c69 cabc
000000d0: bcfa 23be bb14 75bd 48d0 9bbd 4c3d f7bc
000000e0: 1ec0 0e3e a910 55be 4609 823d 0a07 5b39
000000f0: e4f9 5ebd abe6 a4bd b04f 6e3d 13fb d93c
00000100: 16b1 023c c79d 95bc 6401 c1bd 5e7a ca3c
00000110: 6c41 acbb 8036 4bbd cb7c a1bd 6f20 313e
00000120: eda5 e93d 64bc 30bc 8f36 833c 14d2 a43a
00000130: c405 b9bd a55a a9bd fc03 dd3d 8a46 f83d
00000140: 48bd 2c3e 39ce 2e3d f1d3 b3bd 2e85 8fbb
00000150: d759 ec3d 5b43 ddbb b09d 5b3d 7845 173e
00000160: 817e febd 08a2 6fbe 8eb7 c63d b9b0 88bd
00000170: f0a4 7abd 1d45 af3d 3778 be3d ce8b 323f
00000180: 067f cb3d 3dfc 7fbc 469c 463e e616 bebd
00000190: 6e98 a4bd cde4 223f c011 3cbd aeca 6d3d
000001a0: f6ec b03d a106 14bd c37d 07be aa32 cb3d
000001b0: e6d3 583d 36a1 50bd f8c0 51bd 5ff2 c73e
000001c0: 2f4d 1e3b 7286 9f37 e780 b93b c4fa ac3d
000001d0: 1649 103f b77b 64bc 9e9f a5bd 90a6 d3bd
000001e0: a29d 143c 3b69 43bd fddb ed3c 99f1 d2bc
000001f0: aec0 c6bd 0a5d f33c fda9 383c bd67 093e
00000200: f30a 963c 3f13 943c 8bf8 6dbd 09a7 af3c
00000210: d4e2 1abb abf6 eabd 23b5 b83d 6759 9bbb
00000220: 8ab2 293d 0649 b0bd 02f6 36be 3e40 aabd
00000230: ecc1 95bc 054f 063e 0d80 21be bc56 203e
00000240: 919e bbbd b59e 08be dbca c33c 227f f4bb
00000250: ee86 a03d 8147 733c a5e0 bf3d 8ce5 5cbc
00000260: de64 443d b392 4a3d 350d b3bc 15d4 983d
00000270: b827 893d 32cc 16bc 58c5 bcbd 2742 adbd
00000280: 2447 d83d fe1e 453d 8f5e 8a3d 936e 22be
00000290: 9121 fdbc a61b 3bbe 1a7b b93d 16bf b83c
000002a0: ec1b fe3d 9156 ab3d 277f 123d bfa9 093e
000002b0: bfe4 b13b 9c3b 333c d3cc 3ebb b5f2 0dbb
000002c0: 8657 913d 6fed dbbd fe96 653c 6b58 06bc
000002d0: 26de 983c 27ce eebd 1458 02be 60c1 54bd
000002e0: 63c2 de3d d5cf 8abd f26b 433d fd87 cd3d
000002f0: 039e cd3d 9820 643d f884 82bd 2fa7 a63d
00000300: 40d6 cabb 69f6 a5bc c3d4 683d 5c9d 00be
00000310: 44a1 79bc ab76 c1bd c279 f5bd bc0d ec3d
00000320: f61d 1cbd b684 82bd 8019 c7bc ae0a 0c3e
00000330: fd0c 953c 5eae 41bd db2b 853c 1068 3a3d
00000340: 9330 6c3c fb0f 1fbe dbd2 17bd b8a1 973c
00000350: 42d0 b5bd af5d 2fbd 9b7f 20bd 9a01 9abd
00000360: 0f16 ac3c 7111 8ebd c532 81bd a180 47be
00000370: 5165 bb3d 5b56 74bd b5dd 81bd e291 2e3e
00000380: 4922 f1bd 6388 79bc 060c aa3b 0b4d 5f3d
00000390: 1155 bebd bdc4 7f3e a2c8 e1bd 99f2 623c
000003a0: c206 893d 9dee 0e3e 0013 35be d6f8 2fbe
000003b0: f665 383c 29a4 b2bd 7e37 a33d 84d8 163e
000003c0: 31c0 4fbc a8ce 4ebd efe4 bbbd 2421 fc3d
000003d0: c0f2 503e 66ce 61be 24ee e43c c2f1 103e
000003e0: 2b7a 42be 4f1e 863d b772 af3d 0967 faba
000003f0: 15d8 d2bd 2300 4a3e c8b0 6a3d 0554 873d
-0.023289317 0.0544759 -0.23785603 0.0028196909 -0.024384625 0.08324419 0.0036956132 0.0013821283
-0.15184182 0.05496842 -0.08534042 -0.0077510835 -0.015741043 0.17886144 -0.13379921 -0.12032845
-0.18467717 0.0046805125 0.003716691 0.15727323 0.09400298 0.1174268 -0.12898329 0.10337682
0.01156931 0.049163956 -0.025431873 0.01942059 -0.064024016 0.05480237 0.12612021 0.025217026
0.029005902 -0.11486747 -0.0031740912 0.057277188 -0.11049877 -0.032255054 -0.0731539 0.019732513
0.013060495 -0.1289332 -0.04734121 0.2920813 -0.038323335 0.1373519 0.060221676 -0.027504189
-0.1361324 0.060070194 -0.08096093 -0.024708353 -0.16013616 -0.059834223 -0.07608086 -0.030180596
0.13940474 -0.20807137 0.06349425 0.0002088809 -0.054437533 -0.08051809 0.058181465 0.02660898
0.007976791 -0.01826371 -0.09424093 0.024716552 -0.0052568223 -0.049612522 -0.078851305 0.17297529
0.11408601 -0.010787103 0.016017227 0.0012574815 -0.09034303 -0.08269242 0.107917756 0.12122829
0.1686908 0.042677138 -0.08780659 -0.00437989 0.11540573 -0.006752414 0.05361718 0.14772594
-0.124264725 -0.23401654 0.09702979 -0.06674332 -0.061192453 0.08558104 0.09300273 0.69744575
0.09936337 -0.015624103 0.19395551 -0.09281711 -0.08036886 0.6363037 -0.045915365 0.05805462
0.08638947 -0.036139134 -0.13231568 0.09921773 0.052936457 -0.050934993 -0.05120942 0.39052102
0.0024154892 1.9016883e-05 0.0056611183 0.08446267 0.5636152 -0.013945512 -0.08087085 -0.10334504
0.009070786 -0.047707777 0.029035563 -0.025749968 -0.097047195 0.02970745 0.011270997 0.1341848
0.018315768 0.018075584 -0.058098357 0.021441953 -0.0023633735 -0.114728294 0.09018924 -0.004740882
0.041430034 -0.08607678 -0.17867282 -0.083130345 -0.018280946 0.13116081 -0.15771504 0.15658087
-0.091611035 -0.13341792 0.02390044 -0.0074614445 0.07838236 0.014848591 0.093690194 -0.013482463
0.047947757 0.04945631 -0.021856884 0.074623264 0.06697029 -0.009203957 -0.09217328 -0.08459883
0.10560444 0.04812526 0.06756317 -0.15862493 -0.030899795 -0.18272266 0.09056683 0.022552054
0.124076694 0.083661206 0.035765793 0.13443659 0.00542888 0.010939505 -0.0029113784 -0.0021659557
0.07096772 -0.10738646 0.01401305 -0.008199791 0.018660616 -0.11660414 -0.12728912 -0.05194223
0.1087692 -0.06777922 0.047710367 0.10035703 0.10039904 0.055695146 -0.06373018 0.081373565
-0.0061900914 -0.0202591 0.05684353 -0.12560028 -0.015236203 -0.09446462 -0.11986114 0.11526057
-0.03811451 -0.06372969 -0.024304152 0.13675949 0.01819467 -0.04728543 0.016256263 0.045509398
0.014415878 -0.1553344 -0.03706632 0.01850973 -0.08877613 -0.042813953 -0.039184194 -0.07519837
0.021006612 -0.069369204 -0.06308512 -0.19482662 0.09150184 -0.059652667 -0.063411154 0.17047837
-0.117741175 -0.015230271 0.0051894216 0.054516833 -0.09293569 0.24977393 -0.11024596 0.013851785
0.06690742 0.13958211 -0.17683029 -0.17184767 0.011254778 -0.08722717 0.07969569 0.14731032
-0.012680099 -0.05049005 -0.09174525 0.123110086 0.20405102 -0.22051391 0.027945586 0.14154723
-0.18991916 0.0654875 0.08566802 -0.0019104193 -0.102951206 0.19726615 0.057297498 0.06607822
