results/imitationlearning/RaceCar/RaceCar-1708528.pt (torch, 594095 bytes, 47 tensors)

network_body._body_endoder.seq_layers.0.weight f4 [128, 27]
-0.4288429 0.45391867 0.16019507 0.49261883 0.7684394 -0.3815329 0.14269145 0.21302447
0.9019936 -0.25659364 0.3619198 0.6854955 0.56192076 0.73496836 0.3439203 -0.10872294
0.060899764 -0.08152203 0.08301383 0.33059776 -0.11887841 -0.519703 0.05039405 -0.08465222
-0.24131675 0.15223132 0.67766654 -0.2633988 -0.19955982 0.2511703 -0.21430446 0.14133066
-0.16771413 0.35821083 -0.14436117 -0.57082236 -0.16373342 0.27866474 -0.12077669 0.18948899
-0.106581174 -0.041217055 -0.124785975 -0.1620529 0.20760198 -0.1955043 -0.24433039 0.6339902
-0.2378169 -0.5427933 -0.08932488 0.18501516 -0.39796954 0.01702569 0.020775998 -0.5777708
-0.15765749 -0.29604232 -0.44029874 -0.076550364 -0.1096506 -0.32087252 -0.43969414 -0.5592873
0.023564955 0.13091473 0.022882434 0.12771305 0.1516257 -0.004584565 -0.1916149 0.23313758
0.043908052 -0.6899779 0.020289194 -0.27659774 -0.203346 -0.36255294 -0.52790254 0.586048
0.24512663 0.97235376 0.4091767 0.6348209 0.3338073 0.3090247 0.009711475 0.33181304
0.3173755 -0.2751705 0.13671324 0.36582023 0.40800938 -0.096741974 0.28612328 -0.12768176
0.17444575 -0.01867564 0.34979507 -0.14731073 -0.5877878 0.58157444 -0.049645975 -0.61860996
-0.09872309 0.11007889 0.09122958 0.013154493 -0.28765583 -0.3495384 -0.7108814 -0.21243794
-0.39621845 -0.04365076 -0.13356088 -0.35324305 0.2769402 -0.19812652 -0.48739687 -0.6069836
-0.8613483 -0.6612735 -0.17596117 0.08886362 -0.13574488 -0.1427777 0.086543016 0.59788513
-0.68022823 0.097548366 0.16275574 -0.044360247 -0.14271274 0.10495723 -0.48577186 -0.6493211
-0.15041517 -0.5697102 0.052229654 -0.18822126 -0.013755314 -0.22217497 -0.31620556 -0.063429
-0.28991884 0.56238157 -0.081763804 0.16992852 -0.34616247 -0.19770803 -0.107295066 0.07173207
-0.8835015 0.146291 0.5749446 -0.28227547 -0.29815438 0.87477547 0.44653136 0.5682737
0.26154563 0.41184336 0.5669036 0.28319153 0.36071047 0.20892444 0.39573228 -0.16693485
0.28081113 -0.03658528 -0.58533674 0.040706575 0.1259881 0.06832837 0.034192253 -0.14271346
-0.0062554297 -0.48987645 -0.072481565 0.30626246 -0.037796445 0.4624285 0.2785275 0.21518463
-0.3558784 -0.09682973 0.35365343 -0.14521979 -0.07721351 0.08025958 0.2811055 0.532021
0.07451207 0.40267769 0.34517124 0.6633186 0.04685247 0.84750473 0.25110883 0.2817354
-0.08017742 0.3755844 0.12122745 -0.047240462 0.07910141 -0.14646555 -0.33916292 0.12754087
0.1025896 -0.33227825 0.020236759 0.04288427 0.5192818 0.85846645 0.88841516 0.035180435
1.6058519 0.038591336 1.4797904 -0.06607713 0.45680454 0.15755938 0.55847 0.32936406
0.22429328 -0.16323054 -0.05648659 0.83394593 0.23696576 0.48444334 -0.18778281 -0.16063145
0.14605823 0.9267479 -0.0029279098 -0.2470867 0.3808107 -0.036262948 -0.77820706 -0.040565282
-0.17775899 -0.89716333 -0.11641786 -0.2805631 -0.18571135 -1.6265321 -0.71493614 -0.7143638
-0.46069747 -0.64069057 -0.4967606 -0.2748282 -0.1960654 -0.3518902 -0.5269254 -0.3163966
00000000: 4c91 dbbe 0768 e83e 2d0a 243e 8938 fc3e
00000010: 72b8 443f 4858 c3be b51d 123e 1623 5a3e
00000020: 0de9 663f 3e60 83be 8d4d b93e a27c 2f3f
00000030: 0ada 0f3f e326 3c3f 5216 b03e 22aa debd
00000040: 0872 793d 06f5 a6bd 2803 aa3d 1c44 a93e
00000050: 8676 f3bd 410b 05bf fe69 4e3d 255e adbd
00000060: bd1b 77be 87e2 1b3e 8e7b 2d3f 35dc 86be
00000070: 6959 4cbe 6599 803e a172 5bbe fcb8 103e
00000080: 41bd 2bbe 6967 b73e 6ad3 13be 6a21 12bf
00000090: bca9 27be 25ad 8e3e c559 f7bd 6709 423e
000000a0: 3b47 dabd 37d3 28bd ca8f ffbd 32f1 25be
000000b0: 9d95 543e 4732 48be bf31 7abe 2f4d 223f
000000c0: 4686 73be 80f4 0abf f6ef b6bd 9d74 3d3e
000000d0: aac2 cbbe 7679 8b3c 6d32 aa3c cae8 13bf
000000e0: f770 21be dc92 97be d66e e1be 70c6 9cbd
000000f0: 7e90 e0bd 6749 a4be 971f e1be 742d 0fbf
00000100: 4b0b c13c 830e 063e f173 bb3c 36c7 023e
00000110: c443 1b3e 1e3a 96bb b236 44be 9ebb 6e3e
00000120: eed8 333d 64a2 30bf 8635 a63c 389e 8dbe
00000130: ef39 50be 8aa0 b9be 9f24 07bf 3e07 163f
00000140: 7a02 7b3e 2dec 783f 9c7f d13e 9f83 223f
00000150: cae8 aa3e 7c38 9e3e e11c 1f3c 66e3 a93e
00000160: 0b7f a23e 26e3 8cbe 8efe 0b3e ca4c bb3e
00000170: 9be6 d03e a820 c6bd c07e 923e 02bf 02be
00000180: e8a1 323e a8fd 98bc 5718 b33e a0d8 16be
00000190: 4379 16bf 10e2 143f 9459 4bbd 395d 1ebf
000001a0: 552f cabd 0b71 e13d 93d6 ba3d f185 573c
000001b0: a047 93be b2f6 b2be 53fc 35bf 5589 59be
000001c0: 25dd cabe 24cb 32bd 2fc4 08be 46dc b4be
000001d0: 1bcb 8d3e aee1 4abe 158c f9be 4763 1bbf
000001e0: 5281 5cbf 3849 29bf 2a2f 34be 21fe b53d
000001f0: b500 0bbe 5134 12be 773d b13d 000f 193f
00000200: 7023 2ebf 70c7 c73d 71a9 263e 17b3 35bd
00000210: 4a23 12be d1f3 d63d 17b7 f8be e839 26bf
00000220: 6f06 1abe 87d8 11bf c3ee 553d 13bd 40be
00000230: f85d 61bc d681 63be b2e5 a1be 10e7 81bd
00000240: 3e70 94be 3df8 0f3f c873 a7bd be01 2e3e
00000250: 353c b1be f973 4abe 84bd dbbd 43e8 923d
00000260: 282d 62bf 4fcd 153e 922f 133f 6986 90be
00000270: b1a7 98be 49f1 5f3f c29f e43e 637a 113f
00000280: 4fe9 853e 22dd d23e 9820 113f 7bfe 903e
00000290: 0baf b83e 4af0 553e 6c9d ca3e f8f0 2abe
000002a0: 7ac6 8f3e 72da 15bd a1d8 15bf f0bb 263d
000002b0: 0603 013e bfef 8b3d 2d0d 0c3d 7a23 12be
000002c0: 59fa ccbb 16d1 fabe 3771 94bd 6fce 9c3e
000002d0: 72d0 1abd 6ec3 ec3e 289b 8e3e 5c59 5c3e
000002e0: b235 b6be aa4e c6bd 1012 b53e 7fb4 14be
000002f0: 1e22 9ebd 225f a43d 0fed 8f3e 8732 083f
00000300: c999 983d c52b ce3e 49ba b03e 3fcf 293f
00000310: 60e8 3f3d 12f6 583f 5691 803e 9f3f 903e
00000320: 0f34 a4bd 994c c03e 1946 f83d 377f 41bd
00000330: ecff a13d 11fb 15be c3a6 adbe 139a 023e
00000340: 7f1a d23d 6020 aabe 8fc7 a53c 6ba7 2f3d
00000350: a7ef 043f 75c4 5b3f 2d6f 633f 5c19 103d
00000360: 8e8c cd3f f311 1e3d c669 bd3f 7253 87bd
00000370: 49e2 e93e 3f57 213e e4f7 0e3f 68a2 a83e
00000380: 23ad 653e e825 27be 7c5e 67bd 7b7d 553f
00000390: 27a7 723e f508 f83e 234a 40be 927c 24be
000003a0: 4a90 153e 5a3f 6d3f 2de2 3fbb 4c04 7dbe
000003b0: 9ff9 c23e 7588 14bd 9438 47bf c827 26bd
000003c0: 7406 36be 7fac 65bf 7d6c eebd f7a5 8fbe
000003d0: 1e2b 3ebe 3432 d0bf 0e06 37bf 8ce0 36bf
000003e0: 8ae0 ebbe 4c04 24bf 6857 febe 48b6 8cbe
000003f0: 5ec5 48be f42a b4be 95e4 06bf bcfe a1be

network_body._body_endoder.seq_layers.0.bias f4 [128]
0.19373566 0.0054221093 -0.059059285 0.20018856 -0.14249705 -0.17922717 -0.0055702566 0.090406135
0.20924667 -0.36363068 0.041849058 -0.12890308 0.32622775 -0.37538156 0.4783906 0.17871596
0.22384879 0.06898868 0.09297447 -0.09016764 -0.09804617 -0.15553194 0.78868943 0.21218327
0.15591489 0.0066857026 -0.083611526 0.20836653 0.00441075 0.38816273 -0.35944745 0.23632912
0.41926196 0.19611718 -0.03552428 -0.08831825 0.34862655 0.12723838 0.22608067 0.1004445
0.20943254 -0.0067456043 0.38999453 0.39713076 -0.06716359 -0.052372638 0.077997 0.068333775
0.11064336 0.011789915 0.012011447 1.1148187 0.1524989 0.21124075 -0.16971059 -0.27286038
0.088275485 0.1469017 0.100764856 0.18257649 -0.24814747 -0.34580708 -0.1640618 0.15920015
0.23204528 -0.061031792 0.14166935 0.33048743 0.58997726 0.35485262 -0.084378295 0.03874844
-0.020629017 -0.07334851 -0.24529077 -0.21585569 -0.14849898 0.48655897 -0.4915044 0.04933867
0.7236296 0.10641527 0.12696302 -0.15272371 0.053413205 -0.17004405 -0.3396399 0.16171253
0.0071331044 0.48861995 0.2221739 0.37695625 -0.7205164 -0.22545794 -0.03982913 0.551276
-0.23721185 -0.19432242 -0.30519533 -0.15072103 -0.45417446 0.359005 -0.5175612 -0.01655299
-0.21417172 0.021315856 -0.5387636 -0.0140591785 -0.26814404 -0.10117708 0.5025569 0.48294944
0.06094764 0.012077969 -0.12872119 0.05823602 0.39153665 0.3666154 -0.102024004 -0.05215724
0.1732196 -0.3753619 0.045986697 0.25165933 0.17485419 -0.18571092 -0.038983587 -0.018215375
00000000: a462 463e f3ab b13b 26e8 71bd 3bfe 4c3e
00000010: bfea 11be 5487 37be b386 b6bb da26 b93d
00000020: c244 563e cd2d babe eb69 2b3d 2bff 03be
00000030: 5307 a73e 0332 c0be 9def f43e 5101 373e
00000040: 9e38 653e f049 8d3d 6669 be3d d0a9 b8bd
00000050: 6ecc c8bd c443 1fbe 8de7 493f 9246 593e
00000060: 27a8 1f3e bd13 db3b 853c abbd 095e 553e
00000070: 0e88 903b 44bd c63e 7f09 b8be 4300 723e
00000080: 81a9 d63e f1d2 483e e881 11bd 33e0 b4bd
00000090: 2e7f b23e c74a 023e b181 673e d9b5 cd3d
000000a0: 7c75 563e 3b0a ddbb 5dad c73e b954 cb3e
000000b0: 108d 89bd b184 56bd e4bc 9f3d 94f2 8b3d
000000c0: fc98 e23d 7d2a 413c a9cb 443c 61b2 8e3f
000000d0: ac28 1c3e 7f4f 583e 9dc8 2dbe 5bb4 8bbe
000000e0: c7c9 b43d 666d 163e ce5d ce3d 55f5 3a3e
000000f0: 5f1a 7ebe a00d b1be d1ff 27be 5d05 233e
00000100: 479d 6d3e 79fc 79bd c511 113e a635 a93e
00000110: c008 173f 3eaf b53e 87ce acbd afb6 1e3d
00000120: 2ffe a8bc be37 96bd 812d 7bbe 4609 5dbe
00000130: 1e10 18be 421e f93e 77a6 fbbe 5817 4a3d
00000140: ca3f 393f 40f0 d93d 9802 023e 9b63 1cbe
00000150: cec7 5a3d 0720 2ebe 48e5 adbe f897 253e
00000160: d1bc e93b 652c fa3e 8e81 633e 6900 c13e
00000170: c373 38bf 72de 66be df23 23bd 6d20 0d3f
00000180: aae7 72be 75fc 46be 9042 9cbe 9d56 1abe
00000190: 8e89 e8be 81cf b73e e47e 04bf 239a 87bc
000001a0: d54f 5bbe 979e ae3c 69ec 09bf 7858 66bc
000001b0: 2d4a 89be ee35 cfbd 92a7 003f 2645 f73e
000001c0: 3ca4 793d ace2 453c 7dcf 03be e588 6e3d
000001d0: 7e77 c83e 04b5 bb3e f6f1 d0bd d5a2 55bd
000001e0: 7b60 313e 6f2f c0be 8c5c 3c3d 7ed9 803e
000001f0: fa0c 333e 012b 3ebe 41ad 1fbd 6938 95bc

network_body._body_endoder.seq_layers.2.weight f4 [128, 128]
-0.023289321 0.039051767 -0.1442422 -0.006064659 -0.05735712 0.07712608 -0.008023409 -0.011320937
-0.12995383 0.032978896 -0.69194937 -0.008898062 -0.2522198 0.16590011 -0.82962084 -0.13365394
-0.14815608 -0.0028376917 -0.010993177 0.06490848 0.10126931 0.20786591 -0.15319103 -0.0025101902
0.011567612 0.030286562 0.020535469 0.028024225 -0.07988975 0.05480198 0.12704927 0.025217026
0.029041035 -0.11698329 -0.011400056 0.045965157 -0.18146758 0.0024535768 -0.0830313 0.0053037005
-0.3234735 -0.14134671 -0.2895473 -0.0105748605 -0.040384147 0.15620624 0.1386085 0.03212646
-0.09869327 0.044377748 -0.09842386 -0.033200555 -0.13797502 -0.16718726 -0.09549384 -0.036404993
0.12588091 -0.22275153 0.048721842 0.08786639 -0.07673703 -0.14252494 0.03389447 0.08604273
-0.15538564 -0.034083128 -0.18158613 0.024716552 -1.915674 -0.049827393 -0.096392505 -0.16953178
-0.24264152 -0.016395168 -0.0012650521 -0.021617135 -0.10721848 0.022267232 0.08153922 0.14018415
0.15432768 0.08391133 -0.08346337 -0.022112673 0.15172921 -0.026518729 -0.03455684 0.087109976
-0.11108939 -0.21638745 0.11303659 -0.1719192 -0.069322795 0.08558104 0.09300273 -0.41911906
0.1198416 -0.028739177 0.063105166 0.24455713 -0.08912604 0.42586794 -0.045915943 0.066121876
0.052595645 -0.35635534 -0.13250783 0.084044516 -0.03157231 -0.060104534 0.016645158 -0.75754553
-0.0097647775 -0.6047421 -0.014025951 0.06615568 -0.3595514 -0.023926126 -0.41923127 -0.123857304
-0.0043349117 -0.072931275 0.0758542 0.2929153 0.121408194 0.010328466 -0.039511684 0.09815277
0.011937315 0.019656165 -0.08612945 0.025014386 -0.005528392 -0.112547524 0.098255605 -0.0027757904
0.053944193 -0.08740236 -0.1957405 -0.07185856 0.5195687 0.13000537 -0.21609907 0.1600929
-0.08454465 -0.1316218 0.028902408 -0.04170989 0.06365273 0.04385791 0.035766806 0.080473945
0.047948338 0.048991803 0.022732537 0.09040945 0.0678747 -0.009203957 -0.2687617 -0.08459883
0.10556525 0.048860863 0.06757973 -0.15749724 -0.06350466 -0.11503547 0.08447424 0.026647072
0.07162114 0.087275535 -0.0034421922 0.2716653 0.017353188 0.031387255 0.11975524 -0.0018836133
0.12495276 -0.1037399 0.012248839 -0.0084764045 0.026517767 -0.3972535 -0.12896255 -0.050704908
0.11194349 0.045698293 0.050761618 0.08508486 0.09833092 0.052625626 -0.05988988 0.11198356
-0.20402983 -0.019950267 0.029968377 -0.12560028 0.06605623 -0.099746846 -0.11904855 0.085955694
-0.10504603 -0.059385065 -0.02475605 0.13387477 0.020121852 -0.037035838 0.009583368 0.061832275
0.020583924 -0.1673776 0.12965074 0.018931165 -0.06537441 -0.044105683 -0.06724769 -0.00080718054
0.021006612 -0.10375939 0.07751651 -0.46732157 0.09150058 -0.059652667 -0.063411154 0.5632429
-0.043325525 -0.013331552 -0.29374853 -0.12990452 -0.09091214 0.33689716 -0.11024574 0.01390818
-0.07841753 -0.31393644 -0.1778218 -0.17018293 -0.018589996 -0.097774535 0.12653112 0.10284696
-0.008906101 0.13994175 -0.09252407 0.12505156 -0.013484981 -0.21485572 0.0520584 0.1400013
-0.18773377 0.06022282 0.17177498 -0.32033703 -0.07988883 0.15361683 0.017329898 0.1965932
00000000: 3fc9 bebc bff4 1f3d 3ab4 13be 0cba c6bb
00000010: 4def 6abd 47f4 9d3d 9e74 03bc 747b 39bc
00000020: 9e12 05be e114 073d 9823 31bf 2dc9 11bc
00000030: f422 81be b8e1 293e 0862 54bf 94dc 08be
00000040: 3ab6 17be 91f8 39bb ba1c 34bc bdee 843d
00000050: 4966 cf3d cdda 543e 1cde 1cbe 0182 24bb
00000060: 1586 3d3c 861b f83c 003a a83c 0f93 e53c
00000070: 3d9d a3bd 0a78 603d 3419 023e f093 ce3c
00000080: 77e7 ed3c ef94 efbd 4dc7 3abc f645 3c3d
00000090: a3d2 39be 30cc 203b 500c aabd aaca ad3b
000000a0: 529e a5be 31bd 10be 8b3f 94be 2e42 2dbc
000000b0: d969 25bd 87f4 1f3e 63ef 0d3e 0997 033d
000000c0: b21f cabd 71c5 353d 7392 c9bd 4efd 07bd
000000d0: 5349 0dbe 2333 2bbe 4692 c3bd 671d 15bd
000000e0: ede6 003e fa18 64be 8e90 473d 4bf3 b33d
000000f0: 4e28 9dbd 0ff2 11be eed4 0a3d 2c37 b03d
00000100: 6a1d 1fbe c09a 0bbd b7f1 39be 5e7a ca3c
00000110: ce34 f5bf cf17 4cbd 6f69 c5bd bd99 2dbe
00000120: 0577 78be 294f 86bc 1bd0 a5ba 6b16 b1bc
00000130: 5d95 dbbd c569 b63c 09fe a63d 6f8c 0f3e
00000140: 1308 1e3e b4d9 ab3d d8ee aabd a325 b5bc
00000150: e75e 1b3e ce3d d9bc 798b 0dbd b766 b23d
00000160: d682 e3bd ac94 5dbe ba7f e73d 960b 30be
00000170: 1cf9 8dbd 1d45 af3d 3778 be3d c696 d6be
00000180: 836f f53d 6c6e ebbc 483d 813d 2f6d 7a3e
00000190: b787 b6bd 5d0b da3e 5b12 3cbd e86a 873d
000001a0: 886e 573d 3574 b6be 22b0 07be 881f ac3d
000001b0: f751 01bd 2c30 76bd 6d5b 883c 81ee 41bf
000001c0: 72fc 1fbc 61d0 1abf 1acd 65bc a17c 873d
000001d0: 1f17 b8be b900 c4bc 7ba5 d6be e6a8 fdbd
000001e0: e00b 8ebb fe5c 95bd 7259 9b3d fff8 953e
000001f0: dca4 f83d ba38 293c 01d7 21bd 5204 c93d
00000200: ba94 433c f705 a13c a364 b0bd f8ea cc3c
00000210: 8327 b5bb 517f e6bd 3c3a c93d 09ea 35bb
00000220: 96f4 5c3d 0200 b3bd 3370 48be 952a 93bd
00000230: 7402 053f 2120 053e 1349 5dbe 65ef 233e
00000240: bf25 adbd ddc7 06be bec4 ec3c fdd7 2abd
00000250: 5d5c 823d 5aa4 333d 3780 123d 86cf a43d
00000260: 7a65 443d a1ab 483d 9639 ba3c 9728 b93d
00000270: e401 8b3d 32cc 16bc 229b 89be 2742 adbd
00000280: 9832 d83d 5422 483d 3e67 8a3d f546 21be
00000290: bb0e 82bd b797 ebbd d500 ad3d f64a da3c
000002a0: 1bae 923d 84bd b23d 6796 61bb b717 8b3e
000002b0: 4628 8e3c ec8f 003d 3c42 f53d 93e3 f6ba
000002c0: 3ce7 ff3d 9675 d4bd 5baf 483c 9ee0 0abc
000002d0: ca3b d93c d064 cbbe c20e 04be f3af 4fbd
000002e0: a142 e53d 222e 3b3d 6aeb 4f3d f940 ae3d
000002f0: b961 c93d f88d 573d 174f 75bd a357 e53d
00000300: 32ed 50be be6e a3bc 3e80 f53c 5c9d 00be
00000310: 7d48 873d 1348 ccbd bacf f3bd 8a09 b03d
00000320: 5f22 d7bd c13d 73bd 33cd cabc 7816 093e
00000330: 95d6 a43c e4b2 17bd 8f03 1d3c d743 7d3d
00000340: 9e9f a83c 0965 2bbe 2ac3 043e 8815 9b3c
00000350: 05e3 85bd 29a8 34bd 28b9 89bd f898 53ba
00000360: 0f16 ac3c ce7f d4bd fac0 9e3d c644 efbe
00000370: a864 bb3d 5b56 74bd b5dd 81bd b030 103f
00000380: 1b76 31bd 956c 5abc 3566 96be b105 05be
00000390: 2530 babd c97d ac3e 85c8 e1bd 23df 633c
000003a0: 5f99 a0bd 47bc a0be eb16 36be 6f44 2ebe
000003b0: 0c4a 98bc 043e c8bd 6091 013e 6da1 d23d
000003c0: e5ea 11bc e44c 0f3e 427d bdbd 840d 003e
000003d0: 1cf0 5cbc 2303 5cbe 303b 553d 805c 0f3e
000003e0: 483d 40be 34ac 763d c8e5 2f3e 3703 a4be
000003f0: c19c a3bd bb4d 1d3e 6ef7 8d3c ba4f 493e

network_body._body_endoder.seq_layers.2.bias f4 [128]
0.20011823 0.14712676 0.17463273 -0.01736266 0.23149996 0.07754483 0.47184864 0.09162762
0.02672877 0.08850684 -0.13868757 0.06534912 -0.07199221 0.013859758 0.54880506 0.2749425
0.06515014 0.014152612 0.115686595 0.28395706 0.14458394 -0.0033172886 0.2921023 0.004986399
-0.027554544 0.19150303 -0.009284543 0.18969934 0.15259583 0.07146728 0.23280992 0.07581002
0.016816245 -0.011339207 -8.199899e-08 0.014925451 0.10637303 0.044826966 0.34142026 -0.10293393
0.19029212 0.026663318 0.29931113 -0.012476628 -0.1761478 0.12013648 0.5510501 0.24462739
-0.17126986 -0.26856175 -0.0045478023 8.8174113e-07 0.032266032 0.08073678 -0.001431721 0.05698578
0.29783228 0.018930545 0.15620841 0.1317863 -0.044993646 0.1007805 0.29235092 0.006238438
-3.2161424e-08 0.103647366 0.08697702 0.055194847 -0.05339351 0.041409973 0.11567272 0.015513462
-0.005224112 -0.28125754 0.18627 0.50962496 -0.24618413 0.18394357 0.21884273 0.18270385
0.044841584 0.25325477 -0.3675136 0.02066262 0.077331856 -0.086410455 0.0046528815 -0.011208569
0.09129623 0.10759056 -0.012390094 -0.018804751 -0.016257888 -0.04671109 0.12635238 0.29245034
0.22942534 0.3689447 -0.007016669 0.36065117 -0.13066101 0.5510987 0.37418783 0.3513486
0.13339928 0.26988336 0.03468235 0.076685205 -9.072723e-05 0.32250014 0.26050428 0.29551238
0.008149241 0.3218251 0.0058083236 0.16306429 0.24761318 -0.013481294 -0.14668867 0.17854545
-0.20927972 -0.094438165 0.25522068 -0.0046082097 0.06519255 0.007731752 -0.051131945 0.2801516
00000000: cbeb 4c3e 66a8 163e ecd2 323e 233c 8ebc
00000010: 530e 6d3e d3cf 9e3d 2596 f13e 43a7 bb3d
00000020: 4bf6 da3c 1343 b53d 1d04 0ebe c2d5 853d
00000030: a770 93bd 0a14 633c 7d7e 0c3f 43c5 8c3e
00000040: 706d 853d 5be0 673c 18ed ec3d d262 913e
00000050: d00d 143e de66 59bb 6f8e 953e f264 a33b
00000060: 11ba e1bc 5f19 443e 321e 18bc 8b40 423e
00000070: 1542 1c3e 705d 923d b965 6e3e 4942 9b3d
00000080: 39c2 893c 15c8 39bc 6c17 b0b3 e189 743c
00000090: 1ada d93d 7b9c 373d a3ce ae3e 06cf d2bd
000000a0: f0db 423e 086d da3c 4f3f 993e c56a 4cbc
000000b0: 1760 34be 1d0a f63d 9f11 0d3f 9a7f 7a3e
000000c0: 5e61 2fbe ed80 89be bb05 95bb cab0 6c35
000000d0: 6329 043d 5359 a53d 96a8 bbba ec69 693d
000000e0: 797d 983e 3b14 9b3c 19f5 1f3e fdf2 063e
000000f0: 424b 38bd 0266 ce3d 05af 953e d06b cc3b
00000100: dc21 0ab3 1245 d43d 0221 b23d fe13 623d
00000110: 27b3 5abd 819d 293d d2e5 ec3d 2d2c 7e3c
00000120: 072f abbb fd00 90be 90bd 3e3e c876 023f
00000130: b117 7cbe b45b 3c3e 4f18 603e b816 3b3e
00000140: cfab 373d 9caa 813e be2a bcbe a844 a93c
00000150: 2a60 9e3d f7f7 b0bd 3377 983b 25a4 37bc
00000160: 85f9 ba3d 7158 dc3d d2ff 4abc 6c0c 9abc
00000170: 432f 85bc 2154 3fbd 8562 013e 0dbc 953e
00000180: 7aee 6a3e 52e6 bc3e 16ec e5bb 45a7 b83e
00000190: 00cc 05be ce14 0d3f 8c95 bf3e f7e3 b33e
000001a0: d299 083e 272e 8a3e 140f 0e3d 220d 9d3d
000001b0: d044 beb8 bd1e a53e d160 853e 664d 973e
000001c0: 6584 053c 42c6 a43e c053 be3b 53fa 263e
000001d0: 4f8e 7d3e a5e0 5cbc 8e35 16be 9ed4 363e
000001e0: 6c4d 56be cc68 c1bd 49ac 823e 7700 97bb
000001f0: ac83 853d a35a fd3b bb6f 51bd 0870 8f3e

action_model._continuous_distribution.log_sigma f4 [1, 2]
-6.4657717 -6.566147
00000000: 9ae7 cec0 e01d d2c0

action_model._continuous_distribution.mu.weight f4 [2, 128]
0.36671054 0.15704817 0.43964157 -0.21394326 0.5704448 0.11807051 0.04811722 -0.21100022
-0.003425638 -0.056553643 -0.018376375 0.14948234 -0.00046675012 0.0027527157 0.17412028 0.3260341
-0.047472168 -0.03220393 0.0072370423 0.4514902 0.204421 -0.008317176 0.37236527 0.009663571
-0.07774716 0.32227635 -0.11374813 0.4581817 0.14241795 0.20509017 0.2687241 0.24092118
0.0036505293 -0.012162273 -0.015115526 0.0017200202 0.69055766 -0.098977216 0.34982768 0.16210847
0.36746767 -0.006238037 -0.11423407 -0.5937974 0.09558204 -0.69936657 0.04816752 0.2537355
-0.068357244 0.24633639 -0.016864972 -0.01398273 0.2961876 0.21081974 0.45779863 0.012103532
0.5627829 -0.04237967 0.6448781 -0.40084833 -0.1976372 -0.010598681 0.5316394 -0.0069341236
0.015978063 0.06261917 0.1837636 0.11814794 0.026383437 -0.07933598 0.18324488 0.26844478
0.005170335 -0.02287232 0.5424997 0.39787337 -0.01180512 0.32937804 0.26638594 -0.88635504
0.3357143 0.3767677 -0.022730952 0.006800158 0.35020515 0.10847038 0.052818693 0.0059959544
0.004787797 1.0897824 -0.009176038 0.0051643522 0.013901473 -0.008145189 0.17018498 0.34501478
-0.5530181 0.17400208 -0.0630223 0.52817863 0.17183818 0.3569705 0.6014965 0.501843
-0.23835444 0.6256083 0.20318204 1.3273643 0.004402587 0.19163229 -0.21748677 0.36276785
0.14557968 -0.004084765 -0.012107018 0.12825608 0.24560872 0.0035811584 0.0029438916 0.33082843
0.12678012 0.094219595 0.6385317 0.012340272 0.22559527 -0.0018860229 -0.004100554 0.3612514
0.004296784 0.0056276936 -0.19128114 -0.2905212 -0.16829155 -0.17140043 -0.020506226 -0.11669193
0.00056962576 -0.0027933398 -0.008053768 -0.07185779 -0.0042881314 -0.0021868404 -0.099888265 -0.07710042
-0.010847024 0.014889652 0.0008907351 -0.22535944 -0.13504861 -0.0018291466 0.057042632 0.0019097077
-0.20943183 -0.10839842 -0.079176545 -0.10849407 -0.07584281 -0.17742626 -0.1835667 -0.011853297
-0.0023493648 -0.0084497025 0.0008196691 0.0020239714 -0.076709956 0.0032033762 -0.23374037 -0.1618415
-0.12760137 -0.0040116734 -0.2695707 -0.12407418 -0.07161072 -0.067423575 -0.04902789 -0.18178248
0.04667549 -0.15912843 -0.014803797 0.00864087 -0.082057975 -0.14288001 0.13098568 -0.008614869
-0.22376701 -0.04014885 -0.012696974 0.09107968 -0.07703183 0.011488707 -0.04368656 0.013699992
0.006283016 -0.011580697 0.0341584 -0.042005237 -0.0046127113 0.032577936 -0.20485163 -0.027170198
-0.0058268025 0.030337378 -0.20337383 -0.21091844 -0.03317719 0.031370297 -0.15057132 -0.15479814
-0.17335944 -0.02714942 0.012804134 -0.0064726467 0.0054008104 -0.052166373 -0.015734458 0.0026374941
0.0047869096 0.06340959 0.0051207924 0.0051545207 -0.026928712 0.02498591 -0.08497034 -0.257507
-0.0431532 -0.13367917 -0.0019372572 -0.29588363 -0.09663196 -0.046182737 -0.34449187 -0.038430993
0.070037395 0.03413314 -0.0053789914 0.040612806 0.01971279 -0.012013213 -0.04117392 0.047551844
-0.10815685 -0.0074994103 0.015323068 -0.044863086 -0.10928295 0.0107299555 0.0020759301 -0.06627523
-0.047063705 -0.065582156 -0.102231465 0.0030997545 -0.18294892 0.010065785 -0.027208617 0.09435021
00000000: 7cc1 bb3e 3cd1 203e b318 e13e f113 5bbe
00000010: ac08 123f f4ce f13d 9016 453d 7110 58be
00000020: ab80 60bb cba4 67bd 0d8a 96bc e611 193e
00000030: 24b6 f4b9 e866 343b 964c 323e f1ed a63e
00000040: 2d72 42bd 45e8 03bd b624 ed3b b929 e73e
00000050: bd53 513e c444 08bc a9a6 be3e f453 1e3c
00000060: e739 9fbd 6801 a53e c8f4 e8bd cb96 ea3e
00000070: 03d6 113e 2803 523e 3596 893e 0bb4 763e
00000080: b83d 6f3b 4544 47bc 1ca7 77bc 4d72 e13a
00000090: 63c8 303f 91b4 cabd 9d1c b33e c3ff 253e
000000a0: b924 bc3e 7268 ccbb 8df3 e9bd 1b03 18bf
000000b0: 84c0 c33d b009 33bf 4e4b 453d 9fe9 813e
000000c0: e2fe 8bbd 9b3f 7c3e 6928 8abc d217 65bc
000000d0: e7a5 973e 21e1 573e 9564 ea3e e54d 463c
000000e0: 8a12 103f 4e96 2dbd bb16 253f fe3b cdbe
000000f0: 6861 4abe 17a6 2dbc 8519 083f a537 e3bb
00000100: 6de4 823c 7b3e 803d 862c 3c3e 8cf7 f13d
00000110: 1422 d83c e77a a2bd 8ca4 3b3e 9871 893e
00000120: ea6b a93b bb5e bbbc 43e1 0a3f 0fb6 cb3e
00000130: 436a 41bc 3da4 a83e bd63 883e 2ae8 62bf
00000140: bfe2 ab3e b2e7 c03e 4336 babc dcd3 de3b
00000150: 174e b33e b825 de3d 6a58 583d b679 c43b
00000160: f4e2 9c3b fd7d 8b3f 1857 16bc ba39 a93b
00000170: 01c3 633c 6673 05bc f944 2e3e c7a5 b03e
00000180: 9892 0dbf 9a2d 323e d611 81bd b736 073f
00000190: 59f6 2f3e d6c4 b63e adfb 193f c878 003f
000001a0: 3013 74be de27 203f f40e 503e 13e7 a93f
000001b0: 9443 903b 413b 443e dab4 5ebe b5bc b93e
000001c0: d712 153e 7ed9 85bb 845c 46bc 9055 033e
000001d0: da80 7b3e deb1 6a3b 4eee 403b 5862 a93e
000001e0: a6d2 013e 34f6 c03d d076 233f da2e 4a3c
000001f0: 7202 673e 6d34 f7ba f15d 86bb f2f5 b83e
00000200: 09cc 8c3b 8468 b83b 34df 43be 32bf 94be
00000210: 9f54 2cbe 9883 2fbe acfc a7bc 2efc eebd
00000220: f052 153a 7710 37bb f4f3 03bc 2d2a 93bd
00000230: 7483 8cbb 1851 0fbb 3892 ccbd d3e6 9dbd
00000240: b7b7 31bc baf3 733c 3880 693a a0c4 66be
00000250: 2f4a 0abe fabf efba 89a5 693d 284f fa3a
00000260: 4c75 56be feff ddbd 5027 a2bd 2432 debd
00000270: 7a53 9bbd 3baf 35be e9f8 3bbe 5534 42bc
00000280: cdf7 19bb 9f70 0abc 10df 563a 9ba4 043b
00000290: 1c1a 9dbd bcef 513b a359 6fbe c7b9 25be
000002a0: efa9 02be 5b74 83bb 2c05 8abe 9b1a febd
000002b0: a4a8 92bd 5f15 8abd 78d1 48bd 3025 3abe
000002c0: cc2e 3f3d 90f2 22be a08b 72bc 7092 0d3c
000002d0: 030e a8bd 234f 12be 1c21 063e 6125 0dbc
000002e0: 2e23 65be 1f73 24bd f806 50bc fc87 ba3d
000002f0: ddc2 9dbd 213b 3c3c aef0 32bd ee75 603c
00000300: c2e1 cd3b f7bc 3dbc aee9 0b3d af0d 2cbd
00000310: 3a26 97bb 7170 053d a0c4 51be 0994 debc
00000320: c3ee bebb 1886 f83c 3b41 50be 01fb 57be
00000330: cee4 07bd 247e 003d 5e2f 1abe 6783 1ebe
00000340: 2385 31be 7668 debc 6ec8 513c 7f18 d4bb
00000350: 48f9 b03b 68ac 55bd 8de5 80bc cfd9 2c3b
00000360: 82db 9c3b e3dc 813d 52cc a73b 41e7 a83b
00000370: 9a99 dcbc 40af cc3c ee04 aebd f5d7 83be
00000380: 69c1 30bd 31e3 08be 91eb fdba 0f7e 97be
00000390: fae6 c5bd 1c2a 3dbd 3d61 b0be d169 1dbd
000003a0: c46f 8f3d 31cf 0b3d 4042 b0bb 9d59 263d
000003b0: b87c a13c 11d3 44bc fca5 28bd b9c5 423d
000003c0: 5781 ddbd 9dbd f5bb 9b0d 7b3c 5bc2 37bd
000003d0: bdcf dfbd b2cc 2f3c 540c 083b 4fbb 87bd
000003e0: dfc5 40bd f04f 86bd bb5e d1bd 4025 4b3b
000003f0: f656 3bbe f6ea 243c 9be4 debc af3a c13d

action_model._continuous_distribution.mu.bias f4 [2]
0.9776915 -0.068805
00000000: fd49 7a3f a3e9 8cbd

action_model._discrete_distribution.branches.0.weight f4 [1, 128]
-0.008351444 0.007729211 -0.0011012359 -0.0054209265 -0.01680497 0.0054854886 0.011019744 0.008293282
0.007645227 -0.012258257 0.006771052 -0.005415389 0.009193904 -0.010351816 0.007113272 0.0026950326
-0.0020689967 0.00060830096 0.00028299048 -0.005854973 0.00041636056 -0.012601863 -0.004926986 -0.0014549199
0.010056703 -0.006849527 0.009132275 -0.010510986 0.00030115098 -0.021335268 0.008289716 0.0016977269
0.01966649 0.008830275 0.0040613604 0.0037214884 -0.001111782 -0.0068746135 0.0068238485 0.005023418
-0.012817864 -0.0010970298 0.0012557127 0.0021808266 0.012475492 -0.001386278 -0.0013736248 -0.0038806542
0.01831454 -0.015495327 0.0006831934 -0.0037648347 0.00276635 0.0059590945 0.011047225 0.01047885
0.017764604 0.011587839 -0.0022285332 0.0009807198 0.008868302 -0.0013747655 0.0031548184 -0.00817479
-0.007491886 -0.007161159 -0.008827714 -0.008136908 -0.003417388 -0.0031032662 0.0065410435 0.016199032
0.013633314 -0.01808717 -0.0019584552 0.014526019 0.013858355 -0.008651997 -0.016348194 -0.0017628648
-0.0019801385 0.008989709 -0.002960346 -0.0022115612 -0.00028368406 -0.009309342 0.016631804 0.01441543
-0.0010339831 -0.012654506 -0.01482325 -0.000750576 0.0046743546 0.015404694 -0.008337426 -0.0046342965
0.011931103 0.0031444987 -0.014014107 0.0078084343 -0.0016578103 0.010423479 -0.016769985 -0.007593552
-0.007957782 -0.011285583 -0.001518028 0.010738377 -0.0017120999 -0.012495965 0.017213454 -0.0049576
0.0075821714 0.00783003 -0.004334667 -0.011256913 0.008702361 0.011229952 -0.0008659176 0.01089099
-0.014744937 -0.0026795042 -0.0014788875 -0.0005489999 -0.01199716 -0.0011925818 0.0058035715 -0.002955175
00000000: 7fd4 08bc 5245 fd3b 5857 90ba 07a2 b1bb
00000010: 94aa 89bc 9dbf b33b 288c 343c 8ce0 073c
00000020: d084 fa3b dbd6 48bc b3df dd3b 9373 b1bb
00000030: 07a2 163c aa9a 29bc 7316 e93b 259f 303b
00000040: 0198 07bb 6376 1f3a 575e 9439 13db bfbb
00000050: f84a da39 0b78 4ebc 8e72 a1bb 03b3 beba
00000060: dfc4 243c ff71 e0bb 8a9f 153c 4536 2cbc
00000070: cde3 9d39 4dc7 aebc 97d1 073c 4386 de3a
00000080: 9e1b a13c dcac 103c 2915 853b 37e4 733b
00000090: 37b9 91ba 7044 e1bb 979a df3b 7c9b a43b
000000a0: 0502 52bc 36ca 8fba ba96 a43a 33ec 0e3b
000000b0: 0266 4c3c c5b3 b5ba 330b b4ba 9352 7ebb
000000c0: 6008 963c 1de0 7dbc 5518 333a 72bb 76bb
000000d0: a74b 353b 8244 c33b 6cff 343c 7caf 2b3c
000000e0: 1387 913c ebda 3d3c 950c 12bb 7f8b 803a
000000f0: 5b4c 113c 7a31 b4ba 12c1 4e3b 8eef 05bc
00000100: 7f7e f5bb 28a8 eabb 1ea2 10bc aa50 05bc
00000110: 42f6 5fbb 2b60 4bbb 4056 d63b d5b3 843c
00000120: 435e 5f3c 8b2b 94bc 6d59 00bb 8afe 6d3c
00000130: 270e 633c 1bc1 0dbc a6ec 85bc ed0f e7ba
00000140: 36c5 01bb 9349 133c 5d02 42bb d7ef 10bb
00000150: 6ebb 94b9 3686 18bc 6c3f 883c b22e 6c3c
00000160: b786 87ba d854 4fbc 37dd 72bc 4dc2 44ba
00000170: 542b 993b f863 7c3c b399 08bc 4cdb 97bb
00000180: ac7a 433c ef13 4e3b 6d9b 65bc e5dd ff3b
00000190: e24a d9ba 3dc7 2a3c 3561 89bc 55d3 f8bb
000001a0: 5b61 02bc 2ae7 38bc 91f8 c6ba 05f0 2f3c
000001b0: 8a68 e0ba e0bb 4cbc 3b03 8d3c 5d73 a2bb
000001c0: dd73 f83b 8749 003c d309 8ebb ea6e 38bc
000001d0: 5994 0e3c d5fd 373c bffe 62ba 1f70 323c
000001e0: c094 71bc 9f9a 2fbb 3bd7 c1ba c2ea 0fba
000001f0: bc8f 44bc 6850 9cba e32b be3b 9cab 41bb

exp_avg f4 [128, 27]
1.3699215e-29 -6.3653065e-16 -6e-45 -5.2868186e-16 -6e-45 -5.612833e-16 -6e-45 -4.4938444e-16
-6e-45 -5.831223e-16 5.6598384e-22 -7.1009694e-16 5.6598384e-22 -7.1009694e-16 8.6669536e-14 -2.8651935e-16
1.4087523e-13 -3.365379e-20 8.654833e-16 4.663096e-19 -8.2818053e-16 2.4676556e-17 2.8962373e-17 -3.1258834e-17
-2.4433847e-17 8.1073204e-18 -2.7267389e-17 0.0006782637 0.0017013163 0.00065581803 0.0009578019 0.00042822782
0.00063887396 0.000488751 0.00047224807 0.00021216561 0.00030986956 0.0004273738 -0.0008053541 0.0004273738
-0.0008053528 -0.18743043 -0.005809448 -0.13133536 2.413106e-07 -0.00028187325 2.5423722e-07 0.00015513717
-1.368651e-05 -0.00021885776 1.9501165e-05 1.5442662e-05 -4.6873233e-06 1.3422022e-05 2.3646844e-06 0.0006641318
-1.5014201e-12 0.00035426577 2.568558e-16 0.00023898645 1.5546512e-14 0.0003153882 5.430632e-16 0.0002453174
-1.5388334e-05 3.9152364e-05 -1.5388334e-05 3.9152364e-05 -0.042441867 0.00026803164 -0.07854959 1.6886887e-08
-0.0004843418 -1.0308578e-07 0.00046557334 -7.4324757e-06 -8.547549e-06 1.1200024e-05 8.812056e-06 -2.0567622e-06
7.276988e-06 -0.0001834677 -0.00069212203 -0.0005128797 -0.000998603 -0.00035382382 -0.000690749 -0.00041147842
-0.0006938189 -0.00017950936 -0.00053757464 -0.0003428974 -0.0012394071 -0.0003428974 -0.0012394078 0.20196915
0.004282771 0.18679233 -1.4734323e-07 0.0007334105 -3.074849e-07 -0.0006099379 7.834586e-06 0.00018115193
-1.0565832e-05 -7.832847e-06 2.5560903e-06 -8.636776e-06 -0.00051913824 -0.002029604 -0.0008929849 -0.0018149606
-0.00060840213 -0.0011937255 -0.0007039465 -0.0012018323 -0.00030764227 -0.00085975445 -0.0005871857 -0.001051591
-0.0005871857 -0.001051593 0.34387347 0.0074328408 0.3194027 -2.6625568e-07 0.0012435478 -5.101863e-07
-0.00103149 1.4965148e-05 0.0003116929 -2.1569262e-05 -1.6427068e-05 4.7606627e-06 -1.537501e-05 0.0014436559
0.0042556333 0.002164531 0.0038176428 0.0014625825 0.0025985693 0.0016851679 0.0023897616 0.0007442618
0.0017655133 0.0014356943 0.001829759 0.0014356943 0.0018297628 -0.76556844 -0.018481966 -0.6496112
6.8530494e-07 -0.0022489934 1.1239226e-06 0.0017650191 -3.8139613e-05 -0.0007534687 5.2637002e-05 4.040012e-05
-1.26636405e-05 3.9968716e-05 0.00034701262 0.0011260591 0.00043914374 0.00090073125 0.00029305395 0.00057162036
0.00033793703 0.000569511 0.00014872955 0.00038447653 0.00028128986 0.00025865674 0.00028128986 0.00025865762
-0.16969053 -0.0036209968 -0.15273267 1.3143283e-07 -0.0005875314 2.4432316e-07 0.0004832974 -7.4177237e-06
-0.00015020907 1.134558e-05 8.735205e-06 -2.378396e-06 7.3994115e-06 -0.00025486233 -0.0009908414 -0.00048977573
-0.0009800271 -0.0003347515 -0.00066173216 -0.00038702035 -0.00064984657 -0.000168951 -0.00048198304 -0.00032970906
-0.0005889634 -0.00032970906 -0.0005889643 0.18780951 0.0041166185 0.17272729 -1.5658065e-07 0.0006653777
-2.624691e-07 -0.0005496419 8.84519e-06 0.00017166545 -1.3398497e-05 -1.0198409e-05 2.8694367e-06 -9.0028125e-06
-0.00032474904 -0.00026804942 -0.0003303485 -9.219469e-05 -0.00021189632 -5.4229324e-05 -0.00024316456 7.705885e-05
-9.768712e-05 9.711632e-05 -0.00021373345 0.0005772714 -0.00021373345 0.0005772705 0.036346156 0.0032306914
-0.0176751 -1.00009764e-07 -0.00037232597 -2.298751e-07 0.00041034244 -2.5150214e-06 9.076003e-05 4.533799e-06
3.6811196e-06 -3.7863376e-07 2.1172405e-06 0.0003867101 0.0010369262 0.00051907706 0.00086908886 0.00034780247
0.0005844667 0.0003999686 0.00052750955 0.00017729677 0.00037754097 0.00034211905 0.00027946598 0.00034211905
00000000: 32ed 8a0f ac77 37a6 0400 0080 d661 18a6
00000010: 0400 0080 66c7 21a6 0400 0080 b886 01a6
00000020: 0400 0080 d512 28a6 e10e 2b1c e8ab 4ca6
00000030: e10e 2b1c e8ab 4ca6 9629 c329 cb2a a5a5
00000040: 859c 1e2a f0ec 1e9f 6575 7926 5ba1 0921
00000050: f0b4 6ea6 df99 e323 bc90 0524 eb27 10a4
00000060: ca5c e1a3 bd8d 1523 4d7f fba3 82cd 313a
00000070: b4fe de3a 34eb 2b3a ff14 7b3a c483 e039
00000080: 1b7a 273a 861f 003a 1098 f739 c678 5e39
00000090: fd75 a239 2411 e039 661e 53ba 2411 e039
000000a0: 501e 53ba c3ed 3fbe 2f5d bebb c77c 06be
000000b0: 7a8d 8134 63c8 93b9 197e 8834 51ac 2239
000000c0: 1d9f 65b7 2f7d 65b9 6f96 a337 dd8a 8137
000000d0: cd47 9db6 252f 6137 f8b0 1e36 2119 2e3a
000000e0: 5c4e d3ab bfbc b939 3a11 9425 7098 7a39
000000f0: d107 8c28 b05a a539 fe86 1c26 f29d 8039
00000100: 3216 81b7 8837 2438 3216 81b7 8837 2438
00000110: 86d7 2dbd 9986 8c39 9cde a0bd a80e 9132
00000120: 42ef fdb9 0260 ddb3 3218 f439 7b64 f9b6
00000130: 7267 0fb7 bde7 3b37 7ed7 1337 e806 0ab6
00000140: da2c f436 3c61 40b9 866f 35ba c672 06ba
00000150: 8ee3 82ba 6e81 b9b9 6113 35ba b3bb d7b9
00000160: 66e1 35ba ad3a 3cb9 06ec 0cba e9c6 b3b9
00000170: 9a73 a2ba e9c6 b3b9 a073 a2ba 00d1 4e3e
00000180: 7d56 8c3b 7d46 3f3e 6635 1eb4 5842 403a
00000190: 6714 a5b4 3de4 1fba 4a71 0337 9af3 3d39
000001a0: e743 31b7 d269 03b7 4c89 2b36 ace6 10b7
000001b0: c716 08ba 1b03 05bb 3417 6aba f9e3 edba
000001c0: 2d7d 1fba c876 9cba 0d89 38ba cd86 9dba
000001d0: 0c4b a1b9 2561 61ba 5eed 19ba 8ad5 89ba
000001e0: 5eed 19ba 9bd5 89ba 2f10 b03e 308f f33b
000001f0: c088 a33e e7f1 8eb4 8afe a23a bcf3 08b5
00000200: 1033 87ba d212 7b37 b66a a339 a3ef b4b7
00000210: dccc 89b7 c8bd 9f36 95f9 80b7 0e39 bd3a
00000220: d772 8b3b ceda 0d3b 6b31 7a3b 20b4 bf3a
00000230: c24c 2a3b dae0 dc3a 8c9d 1c3b 901a 433a
00000240: cc68 e73a e82d bc3a 86d4 ef3a e82d bc3a
00000250: a7d4 ef3a 4bfc 43bf 7e67 97bc eb4c 26bf
00000260: ccf5 3735 d963 13bb b0d9 9635 3758 e73a
00000270: 19f8 1fb8 6e84 45ba 8dc6 5c38 4c73 2938
00000280: ec75 54b7 15a4 2738 3fef b539 4698 933a
00000290: e03c e639 0d1f 6c3a 09a5 9939 cbd8 153a
000002a0: 242d b139 3c4b 153a 49f4 1b39 9193 c939
000002b0: 167a 9339 529c 8739 167a 9339 709c 8739
000002c0: 5bc3 2dbe 3f4e 6dbb f465 1cbe fb1f 0d34
000002d0: 9104 1aba 852b 8334 1463 fd39 c3e5 f8b6
000002e0: 7181 1db9 e558 3e37 6b8d 1237 889c 1fb6
000002f0: 7648 f836 0b9f 85b9 1fdf 81ba 4b64 00ba
00000300: 4174 80ba 9681 afb9 1878 2dba fee8 cab9
00000310: 775a 2aba 7028 31b9 abb2 fcb9 cddc acb9
00000320: aa64 1aba cddc acb9 ba64 1aba 2351 403e
00000330: b3e4 863b 6cdf 303e 9020 28b4 be6c 2e3a
00000340: 7ae9 8cb4 d815 10ba cd65 1437 1801 3439
00000350: 1bca 60b7 d519 2bb7 8c90 4036 c90a 17b7
00000360: 1443 aab9 fc88 8cb9 a032 adb9 a658 c1b8
00000370: 7c30 5eb9 4b74 63b8 fdf9 7eb9 a89a a138
00000380: 60dd ccb8 edaa cb38 a31d 60b9 0754 173a
00000390: a31d 60b9 f853 173a b5df 143d 02ba 533b
000003a0: 5fcb 90bc f3c4 d6b3 bf34 c3b9 96d3 76b4
000003b0: 3b23 d739 bdc7 28b6 6c56 be38 0921 9836
000003c0: 2709 7736 0747 cbb4 ea15 0e36 5abf ca39
000003d0: 78e9 873a ac12 083a 91d3 633a 4259 b639
000003e0: e536 193a e0b2 d139 9148 0a3a bde8 3939
000003f0: b1f0 c539 715e b339 4a85 9239 715e b339

exp_avg_sq f4 [128, 27]
1.7800894e-14 3.4139487e-14 2.2789842e-14 3.020204e-14 4.3441398e-16 9.064295e-15 3.6729754e-14 4.238447e-14
7.4806456e-16 1.1089364e-14 4.237336e-14 4.2765484e-14 4.237336e-14 4.2765484e-14 8.4562984e-08 1.2769784e-12
6.972227e-08 2.1043543e-17 9.73027e-15 3.4502656e-17 7.772646e-14 1.6896866e-17 2.5859924e-14 4.248838e-18
2.7775703e-18 4.2234566e-20 9.52102e-18 0.00017244487 0.0003117338 4.882688e-05 0.0035645298 0.000107983244
0.0006137167 7.094053e-05 0.003006097 0.000106453976 0.0007212843 7.475041e-05 0.0008458431 7.475041e-05
0.000845843 329.59637 0.0050807004 194.7153 4.556062e-08 0.0067618187 9.685134e-09 0.00571413
3.9825713e-06 6.07987e-05 8.123745e-07 1.9644773e-05 5.4780355e-07 2.2428792e-06 1.2306396e-06 6.072667e-05
5.065224e-07 0.00023814154 5.0650897e-07 9.778699e-05 5.0623686e-07 0.00022302008 5.065224e-07 0.00010468856
1.9021476e-05 0.0006037523 1.9021476e-05 0.0006037523 8.874825 0.00031755312 16.4933 6.5831536e-09
0.00061293156 1.4370821e-10 0.00055907783 3.1172632e-08 2.2504742e-05 8.1355964e-08 2.4445106e-05 8.436594e-09
1.9374747e-06 8.236708e-05 0.00015557487 2.4698349e-05 0.00016840805 6.544603e-05 0.000104964565 5.0925606e-05
0.00019131498 6.492888e-05 0.00011208908 5.5838824e-05 0.00027863987 5.5838824e-05 0.00027863987 31.10031
0.0016887763 14.070123 4.205996e-09 0.0003915102 1.0912794e-09 0.00032301783 2.3181503e-08 3.6356614e-05
1.4280421e-07 1.5368959e-06 5.0625513e-08 8.5228186e-07 3.2802014e-05 8.5238506e-05 1.5092522e-05 0.0004110057
6.842655e-06 0.00014547812 7.1099307e-06 0.0003338958 7.1868576e-06 0.000107956796 3.4342662e-05 0.00042998136
3.4342662e-05 0.00042998136 32.017094 0.0007250632 24.319448 1.1498748e-08 0.00086928636 1.8400182e-09
0.00074573926 6.84171e-07 1.4375699e-05 1.14881e-07 6.038205e-06 1.1480157e-07 1.6990183e-06 0.00019458226
0.00038753852 4.989183e-05 0.0025369916 7.6042415e-05 0.0005021516 4.495901e-05 0.0021438594 7.417979e-05
0.00059110025 0.00014920288 0.00138472 0.00014920288 0.00138472 222.42894 0.0042376984 143.45755
4.2116543e-08 0.0050517805 7.498431e-09 0.004309525 1.917865e-06 0.00012440005 7.415823e-07 5.1300205e-05
3.9052838e-07 1.8232195e-05 2.1850494e-05 9.526401e-05 1.6028369e-05 0.00017007967 7.638583e-06 4.6341545e-05
9.191446e-06 0.00017744498 8.283782e-06 4.884699e-05 2.9294692e-05 0.00019876604 2.9294692e-05 0.00019876598
22.204126 0.00041878177 11.76665 8.652595e-09 0.00039936605 1.4716953e-09 0.00032647527 5.933951e-07
8.610157e-06 6.020377e-08 1.6740145e-06 1.0748014e-07 5.445193e-07 0.00018537186 0.00028232267 6.585029e-05
0.0002983384 0.00015326768 0.00020254911 0.00016830096 0.00035046352 0.0001526328 0.00020875169 0.00012281997
0.00035949884 0.00012281997 0.00035949895 60.307644 0.005211287 25.082993 1.9441154e-08 0.00053871603
3.234226e-09 0.0004100009 1.0215289e-06 0.00012306978 1.13998205e-07 8.542605e-06 1.8296869e-07 4.3029727e-06
1.9761148e-05 5.6367826e-05 9.078623e-06 0.00020248511 6.8311283e-06 4.2753443e-05 1.030021e-05 0.0001810163
5.8798737e-06 4.7190453e-05 3.5426798e-05 0.0001428941 3.5426798e-05 0.0001428941 19.93265 0.00042098548
11.867831 7.787389e-09 0.00040722248 1.1901831e-09 0.0003423282 2.8777308e-07 1.0127369e-05 3.6687275e-08
8.3882264e-07 5.934779e-08 4.0006637e-07 2.3174787e-05 6.1302715e-05 8.012544e-06 0.00022396732 8.463515e-06
5.9948634e-05 9.731264e-06 0.00019722657 8.148484e-06 6.898703e-05 2.126834e-05 0.00027047377 2.126834e-05
00000000: 1156 a028 26c0 1929 cc45 cd28 9504 0829
00000010: 306c fa25 af49 2328 866a 2529 f8e1 3e29
00000020: 6c9d 5726 aac4 4728 28d5 3e29 3f99 4029
00000030: 28d5 3e29 3f99 4029 fe98 b533 ffb7 b32b
00000040: 39ba 9533 a917 c223 f348 2f28 8c1d 1f24
00000050: 4106 af29 99d8 9b23 edec e828 24c1 9c22
00000060: d2f2 4c22 7572 471f bfa1 2f23 51d2 3439
00000070: 3470 a339 77cb 4c38 e39a 693b 1075 e238
00000080: d5e1 203a e8c5 9438 f001 453b 0b40 df38
00000090: 9214 3d3a 52c3 9c38 92bb 5d3a 52c3 9c38
000000a0: 90bb 5d3a 56cc a443 017c a63b 1eb7 4243
000000b0: 6eae 4333 3f92 dd3b ab63 2632 993d bb3b
000000c0: 07a2 8536 1b02 7f38 f311 5a35 d4ca a437
000000d0: c60c 1335 5f84 1636 742c a535 c4b4 7e38
000000e0: f4f7 0735 a2b5 7939 08f7 0735 fe12 cd38
000000f0: 55e4 0735 7fda 6939 f4f7 0735 3e8c db38
00000100: 4f90 9f37 2245 1e3a 4f90 9f37 2245 1e3a
00000110: 48ff 0d41 427d a639 47f2 8341 0832 e231
00000120: 24ad 203a 4402 1e2f 148f 123a ace2 0533
00000130: 91c8 bc37 eab5 ae33 770f cd37 88f0 1032
00000140: 9005 0236 7dbc ac38 d021 2339 4d2f cf37
00000150: b196 3039 1240 8938 6c20 dc38 f498 5538
00000160: b99b 4839 6d2a 8838 5e11 eb38 7b34 6a38
00000170: 6916 9239 7b34 6a38 6916 9239 6fcd f841
00000180: ee59 dd3a 391f 6141 5584 9031 9c43 cd39
00000190: fbfb 9530 b85a a939 aa20 c732 9e7d 1838
000001a0: b955 1934 5747 ce35 576f 5933 5dc8 6435
000001b0: e594 0938 13c2 b238 e335 7d37 407c d739
000001c0: f599 e536 7c8b 1839 d791 ee36 bc0e af39
000001d0: a326 f136 dd66 e238 270b 1038 1f6f e139
000001e0: 270b 1038 1f6f e139 8111 0042 2b12 3e3a
000001f0: 3b8e c241 078c 4532 d2e0 633a e3e3 fc30
00000200: b77d 433a e0a7 3735 282f 7137 7fb4 f633
00000210: c99b ca36 d588 f633 d309 e435 c708 4c39
00000220: 8a2e cb39 f242 5138 a843 263b f678 9f38
00000230: d3a2 033a 5f92 3c38 fe7f 0c3b f990 9b38
00000240: 11f4 1a3a 5873 1c39 7e7f b53a 5873 1c39
00000250: 7e7f b53a cf6d 5e43 64dc 8a3b 2275 0f43
00000260: a1e3 3433 6889 a53b 73d2 0032 ea36 8d3b
00000270: abb4 0036 6271 0239 2611 4735 2d2b 5738
00000280: d0a9 d134 57f1 9837 944b b737 7ac8 c738
00000290: a974 8637 6a57 3239 7727 0037 db5e 4238
000002a0: f634 1a37 8610 3a39 93fa 0a37 0ee1 4c38
000002b0: dfbd f537 da6b 5039 dfbd f537 d66b 5039
000002c0: 0da2 b141 f08f db39 3344 3c41 84a6 1432
000002d0: 0162 d139 ad44 ca30 c52a ab39 cd49 1f35
000002e0: 5874 1037 5f49 8133 b3ae e035 d5cf e633
000002f0: 152b 1235 6160 4239 b504 9439 1b19 8a38
00000300: 4d6a 9c39 7bb6 2039 5d63 5439 f279 3039
00000310: 6bbe b739 0e0c 2039 5be4 5a39 3cc9 0039
00000320: 1e7b bc39 3cc9 0039 227b bc39 073b 7142
00000330: 72c3 aa3b f8a9 c841 8dff a632 9f38 0d3a
00000340: 1b41 5e31 64f5 d639 771b 8935 4b0c 0139
00000350: 2dcf f433 3652 0f37 0d76 4434 4162 9036
00000360: bec4 a537 7e6c 6c38 6450 1837 2f52 5439
00000370: f236 e536 2952 3338 11cf 2c37 31cf 3d39
00000380: bb4b c536 5dee 4538 3c97 1438 d8d5 1539
00000390: 3c97 1438 d8d5 1539 1176 9f41 b7b7 dc39
000003a0: a3e2 3d41 4dc9 0532 7a80 d539 d893 a330
000003b0: 837a b339 3b7f 9a34 b8e8 2937 1692 1d33
000003c0: 742b 6135 96e5 7e33 b4c8 d634 7a67 c237
000003d0: a58f 8038 9d6d 0637 c5d8 6a39 85fe 0d37
000003e0: 5b71 7b38 7643 2337 9bce 4e39 79b5 0837
000003f0: 21ad 9038 6a69 b237 60ce 8d39 6a69 b237

exp_avg f4 [128]
-1.1978917e-15 0.00032969218 0.0006717971 -0.00096648553 -0.0016374541 0.0029077642 0.0007712183 -0.00087496947
0.0005433097 0.0005949623 -0.0005337798 3.8877485e-11 -0.0005023981 -0.0006548043 -8.4678424e-05 -0.00030170113
-0.00091494067 0.0018531184 0.0007943817 0.0019895146 0.0012776332 0.00044992508 0.00081556576 0.00040451513
5.732829e-14 -0.0014206988 0.00079080864 5.2637293e-05 0.001400261 3.2829762e-19 -0.0012120804 1.8759675e-17
-1.3901369e-12 0.001856385 1.02293625e-11 0.0017393418 -0.00029487882 0.00029850227 1.7063265e-08 0.0020736451
-1.0002635e-08 -0.00013190083 -0.0011824407 -0.00049041986 -0.0015735951 -0.00021798491 -0.00022384536 0.00046201138
-0.0015721024 0.0007502126 -0.0012147005 5.068e-12 0.000946072 -5.142198e-05 0.00013685625 -1.5492907e-09
-0.0013153964 -0.0016965776 -0.0004709419 5.702595e-05 -0.00094185444 -0.000116843876 -0.0014803618 -0.00010657475
-0.0013647738 0.00021378562 2.8118088e-06 -3.380367e-26 -0.0009091369 2.4407816e-11 0.0025991113 -3.888794e-05
-0.0012696132 -6.566834e-09 0.0003285085 -0.0013041279 0.00102292 0.00023218809 -0.0009225389 2.381928e-10
-1.4636207e-08 0.0016723778 -0.0005418469 0.000680297 -0.0009611434 -0.0029358626 -0.00033800234 -0.0012420588
1.139747e-22 0.0011115477 -0.0013 0.001188637 -8.076954e-17 -2.026017e-24 5.3407105e-36 -0.018613081
0.00010112945 0.0011038946 -0.00031380774 0.0034253686 9.104952e-10 -0.006717976 1.9310894e-13 3.431038e-14
0.00021910382 0.0034134616 -1.2579451e-12 -0.00012702322 -1.88812e-07 3.069399e-09 -0.00054277823 -0.017271118
0.0019256995 -0.000118751195 0.00023462385 0.0011897405 -8.230372e-09 0.0001953978 -0.0022989295 0.00060857856
-0.0006454062 -0.001535559 -0.011559965 -8.545203e-05 0.0012652491 -1.2052962e-05 0.0010425844 0.00017550524
00000000: 67a2 aca6 89da ac39 8a1b 303a bf5b 7dba
00000010: d89f d6ba 3090 3e3b 962b 4a3a 355e 65ba
00000020: e66c 0e3a 3ef7 1b3a 5bed 0bba 28fc 2a2e
00000030: 5eb3 03ba 2ca7 2bba 6295 b1b8 a42d 9eb9
00000040: a1d8 6fba 56e4 f23a 0e3e 503a 8462 023b
00000050: 4276 a73a ece3 eb39 b1cb 553a 1a15 d439
00000060: 8217 8129 be36 baba 454e 4f3a ddc6 5c38
00000070: f688 b73a efca c120 abde 9eba 0807 ad23
00000080: f6a4 c3ab f251 f33a f4f4 332d a0fa e33a
00000090: f799 9ab9 4c80 9c39 8492 9232 fee5 073b
000000a0: 0ed8 2bb2 dc4e 0ab9 20fc 9aba 858f 00ba
000000b0: 1741 ceba e192 64b9 08b8 6ab9 1e3a f239
000000c0: 010f ceba eaa9 443a 9636 9fba 7c50 b22c
000000d0: d101 783a eead 57b8 1281 0f39 d2ee d4b0
000000e0: 6169 acba b35f deba c0e8 f6b9 262f 6f38
000000f0: c8e6 76ba 140a f5b8 b308 c2ba e280 dfb8
00000100: 36e2 b2ba a42b 6039 82b2 3c36 3e63 2795
00000110: 2553 6eba 84b1 d62d da55 2a3b 9c1b 23b8
00000120: 2669 a6ba 7ca2 e1b1 aa3b ac39 45ef aaba
00000130: 8013 863a 8477 7339 8ad6 71ba a8f2 822f
00000140: b872 7bb2 b033 db3a bb0a 0eba f555 323a
00000150: 3ef5 7bba 9a67 40bb e835 b1b9 94cc a2ba
00000160: 76c9 091b 5ab1 913a c364 aaba 0acc 9b3a
00000170: ec3d baa4 67c1 1c98 302b e304 767a 98bc
00000180: 7615 d438 8eb0 903a 9086 a4b9 267c 603b
00000190: 6746 7a30 7822 dcbb dd6b 592a 2d85 1a29
000001a0: 3cbf 6539 62b4 5f3b 400a b1ab 8931 05b9
000001b0: 3fbc 4ab4 70ed 5231 3b49 0eba 297c 8dbc
000001c0: c167 fc3a 100a f9b8 5c05 7639 11f1 9b3a
000001d0: 8f65 0db2 b3e3 4c39 a3a9 16bb 0489 1f3a
000001e0: 7a30 29ba cf44 c9ba 0266 3dbc b634 b3b8
000001f0: b7d6 a53a 1437 4ab7 54a7 883a d407 3839

exp_avg_sq f4 [128]
8.919783e-14 0.012502004 0.0011720164 0.00073413894 0.0016153646 0.009366258 0.0007274803 0.0010217751
0.0007502355 0.0008926861 0.0051084096 6.8801485e-09 0.0052722436 0.0004116684 0.00080377405 0.0014010645
0.00085831236 0.0033530935 0.0030427827 0.0033451703 0.0019248483 0.0013916768 0.001643146 0.00655221
1.5327266e-14 0.00077101553 0.006613197 0.00155854 0.0009977778 6.383639e-14 0.012097356 3.9929045e-14
2.5598511e-14 0.003186191 1.53664e-15 0.0027153292 0.00041688653 0.008345312 3.3051264e-12 0.0010069229
1.896559e-13 0.0009780457 0.006194426 0.0019441396 0.0010358037 0.0013378209 0.015218377 0.002273287
0.00040953522 0.0021063453 0.0013717766 1.0347154e-13 0.0015798386 1.5273407e-06 0.0019810747 1.3776986e-14
0.0010506874 0.0016503851 0.0018028554 0.0008943006 0.0021808387 2.999986e-05 0.0015116627 7.5085976e-05
0.0032524578 0.0013353996 1.6062286e-10 5.051844e-15 0.0845101 1.5152396e-14 0.0023169147 0.0066066827
0.0004977684 1.6283467e-13 0.0018561534 0.0013442327 0.0037730467 0.00034863013 0.0020292911 1.4362048e-07
2.2568277e-13 0.00024878257 0.006225871 0.0005973641 0.0036958798 0.003450438 0.01776911 0.0007757906
3.4623233e-12 0.0042847204 0.0029751994 0.024059054 1.3917522e-13 9.140935e-16 4.7707227e-14 0.08164412
0.00022746249 0.0011720931 7.643687e-05 0.002169918 2.1879317e-14 0.0017679081 1.4544716e-14 6.711294e-11
0.00070329336 0.0020901621 1.8483308e-13 0.0014121576 1.6532834e-11 8.8008705e-15 0.008246261 0.098657094
0.0052769096 0.014444399 0.011323412 0.0025705944 3.6814725e-07 0.0067880037 0.0014143449 0.0015739403
0.0019053019 0.0023491664 0.039306566 0.0005941005 0.0012029129 2.8093922e-05 5.151926e-05 0.0073889447
00000000: 0cdb c829 35d5 4c3c 589e 993a 3b73 403a
00000010: a4ba d33a ef74 193c 60b4 3e3a 15ed 853a
00000020: 74ab 443a 2603 6a3a 7264 a73b 6d66 ec31
00000030: c9c2 ac3b 33d5 d739 5db4 523a eca3 b73a
00000040: 5e00 613a 93bf 5b3b 6c69 473b a53a 5b3b
00000050: 314b fc3a ed68 b63a d55e d73a ecb3 d63b
00000060: 450e 8a28 fa1d 4a3a 84b3 d83b ed47 cc3a
00000070: dec7 823a 2cbf 8f29 fd33 463c 0ed3 3329
00000080: 2692 e628 6acf 503b 0274 dd26 aaf3 313b
00000090: 9091 da39 c7ba 083c dd93 682c bafa 833a
000000a0: 9788 552a c531 803a 9dfa ca3b 80d2 fe3a
000000b0: cec3 873a d259 af3a 8056 793c 6dfb 143b
000000c0: e3b6 d639 9c0a 0a3b 2fcd b33a 48ff e829
000000d0: 9612 cf3a 07ff cc35 ebd4 013b 222f 7828
000000e0: 38b7 893a bc51 d83a ca4d ec3a 7f6f 6a3a
000000f0: 67ec 0e3b 35a8 fb37 fc22 c63a 7a77 9d38
00000100: 3027 553b 9308 af3a 519b 302f 0903 b627
00000110: a213 ad3d 0c7b 8828 61d7 173b df7c d83b
00000120: ac7c 023a e655 372a 2c4a f33a f730 b03a
00000130: 3845 773b 58c8 b639 dbfd 043b 1936 1a34
00000140: a118 7e2a 086f 8239 6402 cc3b 6d98 1c3a
00000150: 9336 723b be20 623b 8690 913c 6d5e 4b3a
00000160: aca3 732c d766 8c3b 90fb 423b 7e17 c53c
00000170: 87b2 1c2a 19bc 8326 b0da 5629 0835 a73d
00000180: ff82 6e39 eba0 993a bb4c a038 2f35 0e3b
00000190: 4512 c528 27b9 e73a d501 8328 3a95 932e
000001a0: 385d 383a 1afb 083b 821a 502a 2518 b93a
000001b0: a26c 912d da8a 1e28 531b 073c bb0c ca3d
000001c0: ede9 ac3b 33a8 6c3c d585 393c 6b77 283b
000001d0: c6a5 c534 e76d de3b 8a61 b93a ac4c ce3a
000001e0: 53bb f93a 79f4 193b ecff 203d 69bd 1b3a
000001f0: 0fab 9d3a 3dab eb37 6216 5838 f61e f23b
