results/mimicagentrays/RaceCar/RaceCar-999958.pt (torch, 594095 bytes, 47 tensors)

network_body._body_endoder.seq_layers.0.weight f4 [128, 27]
000000 c6 57 1a bd a4 b4 bd 3d 20 74 d1 bd 04 e0 da 3e
       -0.037681364 0.0926297 -0.10227227 0.42749035
000010 d8 67 46 3e f1 f4 f9 3c 45 23 c6 3d a4 14 3c bd
       0.19375551 0.030512305 0.09674696 -0.045918122
000020 d5 f2 60 be 66 52 0f 3e 06 6b 33 bc 0e cf 45 bd
       -0.21967633 0.13996276 -0.010950809 -0.048293166
000030 d6 6d 41 be c1 b3 08 3e e6 e2 10 be 89 0a ed be
       -0.18889555 0.1334982 -0.14149055 -0.462971
000040 bd 37 ef bd aa 96 30 3e 87 41 1a 3f 09 bc d5 3d
       -0.11680553 0.17244974 0.60256237 0.104362555
000050 69 bf 19 3e 62 c6 1d bb 02 cc cc 3d 6a cd 24 3d
       0.15014423 -0.0024074544 0.09999849 0.04023496
000060 16 4f a3 be 48 80 40 be 7a 98 8f be ac e0 2e bc
       -0.31896275 -0.18798935 -0.28046018 -0.010673683
000070 e9 7a b7 be 33 eb 95 be 75 3b b7 be 89 43 8a bd
       -0.3583596 -0.29281005 -0.3578755 -0.067511626
000080 6a 06 43 be 08 bb e8 3e 0f 60 e7 3b df e7 3a 3d
       -0.19045416 0.45455194 0.0070610116 0.045631286
000090 b5 72 51 bd 3a 6b 09 bf c4 b6 c5 be 7a 35 1f 3e
       -0.051134784 -0.5367924 -0.38616002 0.15547743
0000a0 f0 04 d0 be 9f cd 4b be a4 df 39 be d4 e8 0b 3e
       -0.40628767 -0.19902657 -0.18151718 0.13663036
0000b0 e5 03 a1 be 77 d9 2e 3e 43 14 ff 3d d3 41 fc be
       -0.31448284 0.17075144 0.124550365 -0.4926897
0000c0 e8 8d c1 3d 25 5e a7 3d f8 41 01 3e 86 ad 78 bc
       0.094508946 0.081722535 0.12622821 -0.01517809
0000d0 a5 a4 99 3d 80 2d 6f bd ca d7 04 3e bb b0 a6 3c
       0.075021066 -0.058393 0.12972942 0.020347944
0000e0 63 6f 85 3e f7 db ca 3e f4 8d 80 bd 88 d0 45 bd
       0.26061544 0.39620945 -0.062770754 -0.048294574
0000f0 e3 fa 2f bd 0e 35 ac 3e 6f ab 14 3e e6 16 9e 3d
       -0.042963874 0.33634228 0.14518522 0.07719211
000100 6c 01 d4 bd 8d 87 74 3e 6b 35 8b 3e 77 e0 e3 be
       -0.10351834 0.23879834 0.27189192 -0.4450719
000110 8e 46 e2 3c 5b a4 da bc 9d c5 91 3e f3 40 89 bd
       0.027621534 -0.026689699 0.2847108 -0.06701841
000120 52 4b 4e 3e 1a 7c 8a be 0a 2e 0b be d3 54 1e be
       0.2014592 -0.27047807 -0.13591781 -0.15462045
000130 a0 e6 ac 3e 3c 15 b2 3d f8 12 d9 bd 83 81 e2 3d
       0.33769703 0.086954564 -0.10599321 0.11059859
000140 40 92 21 be 50 75 d9 be c2 b8 f7 bd fd f9 1d 3e
       -0.15778446 -0.42472315 -0.12095787 0.15427394
000150 f5 72 9f bc a7 0f 31 bd a9 3f e2 3d 25 63 2c be
       -0.019463995 -0.043227818 0.110472985 -0.16834696
000160 9a 2d b1 be 3f ef 68 3d d7 dd 4e be 22 2d 9b be
       -0.34605104 0.056868788 -0.20201813 -0.3030787
000170 5c eb 56 3e bc 79 a6 3d 53 5c 82 be 37 57 52 3e
       0.2098822 0.08128688 -0.25461063 0.20541082
000180 eb e4 49 3d 37 08 08 be b9 4c ae be e6 e5 a2 3c
       0.04929058 -0.13284384 -0.3404291 0.019885015
000190 7b 49 0a 3e e5 e1 8f 3d 86 a5 15 bf aa ae ae bd
       0.13504593 0.07025508 -0.58455694 -0.08529408
0001a0 dd 38 a7 be 14 16 be bd 4e 3a c3 bd c4 34 c6 bd
       -0.3266057 -0.09281555 -0.09532605 -0.09678033
0001b0 d3 5c 6c be cc 30 e2 be 57 49 1e 3e bc 24 51 bd
       -0.23082285 -0.44177854 0.15457664 -0.051060423
0001c0 51 bc c3 bd 3c 6b 5e bc 0b 70 cc be 0e 67 44 3d
       -0.09557403 -0.013575371 -0.39929232 0.047949843
0001d0 e1 d2 b2 be 51 f8 8b bd e8 58 91 3d 43 23 08 3e
       -0.34926513 -0.06834472 0.07097036 0.13294701
0001e0 cc e5 88 be c7 80 8b bd e3 e5 ee 3d 65 aa c8 3d
       -0.2673782 -0.06811672 0.11664941 0.09798125
0001f0 24 d6 c9 3d cf 2d 6f 3c d1 5a a9 be d9 43 25 3e
       0.09855297 0.014598324 -0.330771 0.16139163
000200 a1 b7 05 3e 77 1b 36 be 60 9e 09 be 98 da 2c bd
       0.1305833 -0.17783915 -0.13439322 -0.042200655
000210 93 35 8f be 7e 15 a3 3e ce 30 4b 3e 78 b8 e0 3e
       -0.2797056 0.31852335 0.19842836 0.43890738
000220 90 8a 1d 3f 1b ac 7b 3e 40 af c0 3e 72 d3 70 3e
       0.61539555 0.24577372 0.37633705 0.2351816
000230 18 b3 2d be 72 4f fd 3e 0a af 65 3e b8 97 30 3e
       -0.1696285 0.49474674 0.22430053 0.17245376
000240 18 e7 01 bd c9 e4 d0 3d 61 3f 14 be 48 5f a4 bc
       -0.03171453 0.10199887 -0.14477302 -0.020064965
000250 15 97 b3 bd df e8 96 bd 21 60 e1 bc a2 da f0 3d
       -0.08769051 -0.073686354 -0.027511658 0.11760451
000260 84 56 95 bc e7 86 2a 3e 54 64 61 bc c4 1b 9e be
       -0.01822973 0.16653024 -0.01375683 -0.30880558
000270 e5 c1 67 3e 5e 4f e9 bc 6a eb 49 3d 65 99 27 3e
       0.22632559 -0.028480228 0.049296774 0.16367109
000280 22 08 21 3e fc 7c 17 be 4b 90 89 be 9b 39 9c be
       0.15725759 -0.14793772 -0.268679 -0.305127
000290 ac 79 6a be 12 fb 75 bd 90 67 a3 bd 71 89 e6 be
       -0.22897977 -0.060053892 -0.07978737 -0.45026734
0002a0 9c 3d d0 be 81 f5 08 3e f7 f9 51 bc b0 a9 92 be
       -0.40672004 0.13374902 -0.012815944 -0.28645086
0002b0 cb a3 d0 3d cf 44 92 bd d7 c3 b2 3e 61 bf f8 bd
       0.10187491 -0.071420304 0.3491504 -0.12145878
0002c0 06 97 68 be 0d ce 03 3d b8 4e e3 bd 76 9f 2d be
       -0.22713861 0.032178927 -0.11098999 -0.16955361
0002d0 f5 31 9b be 76 1f 8b 3e 64 43 2c bd 37 ca f0 3d
       -0.30311552 0.2717244 -0.042056456 0.117573194
0002e0 45 ba 8b 3e 17 a7 f2 3d c3 9a a7 be 75 00 44 bd
       0.2729055 0.11848276 -0.3273526 -0.047852
0002f0 72 b8 9f 3e ac 19 2d bc 97 60 9e be 3e 97 d1 bd
       0.31195408 -0.010565203 -0.30933067 -0.10233925
000300 73 f2 86 3e ed f6 4b 3e fd d9 f3 be 26 ce 59 be
       0.2635685 0.19918413 -0.4762725 -0.21270046
000310 cf 59 4f be e9 50 0c be 54 e7 20 3d 25 44 ba 3e
       -0.20249103 -0.1370274 0.03928311 0.36380115
000320 58 93 77 be 80 86 9a bd 0a a7 8c be b2 9c 73 3e
       -0.24177301 -0.07545185 -0.2747119 0.23790243
000330 58 48 bc bd 47 42 6c 3e 5a 1e 3e 3c b5 e6 c4 be
       -0.09193486 0.23072158 0.011603916 -0.38457265
000340 f4 d9 7e bc 19 f5 dc 3d cf cf 7d be 56 b1 72 bd
       -0.015554894 0.10788936 -0.24786304 -0.059251152
000350 d7 2b b5 3d 9e f5 36 3d bf 8f 83 be e5 5c c5 be
       0.088462524 0.044667833 -0.25695607 -0.38547435
000360 99 16 a5 bd 03 c2 2b 3e 7c 01 2e 3e 96 22 b4 be
       -0.08060951 0.16773228 0.16992754 -0.35182637
000370 dc 3d 3f bd 34 2d 27 bd e9 d2 29 be fb 74 95 be
       -0.046689853 -0.040814593 -0.16584362 -0.29190812
000380 cf fd 1e bd 08 17 96 bd 6d 31 f8 be 6d 64 d1 3e
       -0.03881627 -0.073286116 -0.4847521 0.4089693
000390 91 07 ac 3e 04 ec fe bd dd 80 04 3e 98 24 a6 3d
       0.33599523 -0.1244736 0.12939782 0.081124485
0003a0 b4 e5 a6 3e cf 96 69 3e 95 fb b6 be e9 7e cd bd
       0.32597125 0.22811435 -0.35738817 -0.10033972
0003b0 0e e5 00 be e8 b0 29 3d 4c 8b 27 be 3f df 95 bd
       -0.12587377 0.041428477 -0.16361731 -0.073179714
0003c0 6e 3e 51 3e 60 a8 23 3e a9 c2 8e be c9 72 6a 3d
       0.20433971 0.15982199 -0.2788289 0.057238374
0003d0 8f 6e 69 be 81 c8 df 3d 4e e1 45 3e be 24 0f be
       -0.22796081 0.10926915 0.19324228 -0.1397886
0003e0 42 3f 90 3d a6 87 05 bf b0 5b 0b be 4e bc f0 bc
       0.070433155 -0.5216011 -0.13609195 -0.029386666
0003f0 56 c8 82 3e 76 77 94 3c b4 43 84 3d 19 11 c8 3d
       0.2554347 0.01812337 0.06458226 0.09768886

network_body._body_endoder.seq_layers.0.bias f4 [128]
000000 2e 3d 1f bb 9a c8 5e bd 9d ab 11 bd b3 d2 62 bd
       -0.002429794 -0.054390527 -0.035564054 -0.05537672
000010 a1 30 4f bd 8c 26 94 bd 47 c4 02 be 5d 3b ba bc
       -0.050583486 -0.07233915 -0.12770186 -0.022733385
000020 f6 b8 33 bd 4a af 79 bb 92 38 9f bd 0a fb d8 3c
       -0.043877564 -0.0038098865 -0.07774462 0.026486892
000030 0d 34 6a bd b0 ef c4 3c e0 cd 3f 3c 87 07 c2 bc
       -0.057178546 0.024040073 0.011706799 -0.02368523
000040 fc b2 7b 3d a8 e7 ad 3c 50 b6 00 3d c1 50 a3 bd
       0.06144999 0.021228626 0.031423867 -0.07974387
000050 a9 f4 b2 3c 49 67 41 3d 58 76 5a bd 13 e6 b7 bc
       0.021845179 0.04721764 -0.053335518 -0.022448575
000060 f9 96 82 bc 7c ce 2e 3d 58 89 7f bd 07 16 0e bd
       -0.01594113 0.042677388 -0.06238684 -0.034688976
000070 47 98 35 bd ea 13 4d 3d 80 d3 67 3c c5 f7 3a bc
       -0.044334676 0.05006782 0.014149547 -0.011411612
000080 8a e7 ef bc 08 25 a2 3c 14 3e eb 3d 13 1f f0 bd
       -0.029285211 0.019793049 0.1148645 -0.11724677
000090 5b d9 c7 bd be 74 e0 bd 60 af b7 bc 55 9d bc bc
       -0.09758254 -0.10959767 -0.022422493 -0.02302424
0000a0 76 b0 bd 3c e3 60 f8 3c 70 98 4b bb 3d 4b bf bd
       0.023155432 0.030319637 -0.0031066202 -0.093405224
0000b0 83 b0 23 3c 5d 20 07 3d e2 1c 14 3c a4 81 18 bd
       0.009990814 0.03298985 0.009040089 -0.03723301
0000c0 3e 26 98 bd 04 22 66 3d b2 4c 26 3e eb d6 9e bd
       -0.07429169 0.056184784 0.16240194 -0.07755836
0000d0 8d 5e 9c 3d 81 9a 57 bd 09 8a 81 bd 4e fa 0a 3d
       0.07635222 -0.05263758 -0.06325156 0.033930115
0000e0 0e 9f 3f bd 50 eb 9d 3d 90 6f 28 3c 3f 5e 9f bd
       -0.046782546 0.07710898 0.010280505 -0.07781648
0000f0 b8 c8 5a 3d 19 f4 4f 3c a8 6b 32 bd b2 b7 9e bd
       0.053414077 0.012692475 -0.0435597 -0.07749881
000100 48 bd e6 3c ea c2 38 bd a3 f7 e9 bb 09 b8 87 bc
       0.028166428 -0.04510776 -0.0071401163 -0.016567247
000110 09 27 97 bc b1 81 5d bc 49 6c af bd 30 bd 53 3c
       -0.01845123 -0.01351969 -0.08565576 0.012923524
000120 ac a7 16 be 66 fb e6 3c 11 9e a9 bd 7a 74 17 3b
       -0.14712399 0.028196048 -0.08282102 0.0023110197
000130 9d b6 46 bc 76 0b 9a bd 56 94 d4 bd 2c 75 9c bd
       -0.012128499 -0.07521717 -0.10379855 -0.07639536
000140 85 5c 34 3c 66 26 87 3c 46 c1 9e 3c c8 be 06 3a
       0.0110083865 0.016497802 0.01937927 0.0005140123
000150 65 53 a3 3c 04 61 02 be 68 04 76 3c 4c bc da bd
       0.019937227 -0.12732321 0.015015699 -0.10680446
000160 cb 4c 5a bb 1d 05 a5 bd 97 37 a1 bd 97 20 a1 3d
       -0.0033309932 -0.08057616 -0.07871931 0.07867544
000170 2c 34 35 be fe 01 a7 3d c0 9d ee bc 45 ff 8f bc
       -0.17695683 0.08154677 -0.029127955 -0.017577777
000180 f5 44 27 bc a0 bb 5a 3d 4a 31 34 3c a5 20 fe bc
       -0.010209312 0.05340159 0.01099808 -0.031021426
000190 40 1b 74 bc 84 56 98 3c 7d 9f 74 3d d7 a2 84 3c
       -0.014899075 0.018595941 0.059722412 0.01619093
0001a0 17 88 cd 3d b7 fc cb 3d e7 b5 dc ba 03 d8 2c 3d
       0.10035723 0.09960311 -0.0016838879 0.042198192
0001b0 92 81 17 3c 97 ca ee 3d 0f 26 0c 3e 0b 9e 38 bd
       0.009247201 0.11659735 0.13686393 -0.045072597
0001c0 fc 5f 7e bd 23 67 d6 bd ef 68 05 be d2 18 cb 3d
       -0.062103257 -0.104688905 -0.1302831 0.099168435
0001d0 06 d4 96 bd 38 58 60 bd 56 24 b5 bd 8a 9b be 3c
       -0.07364659 -0.054771632 -0.08844821 0.023267526
0001e0 3c e8 13 3d a8 b5 70 bd ea 66 ac bd ec 34 2b be
       0.036110148 -0.05876699 -0.08418067 -0.16719407
0001f0 0e 5d 0e bc 6f 11 51 bd f9 a4 cc bd ee 3b cc 3c
       -0.008689178 -0.051042017 -0.099924035 0.02493092

network_body._body_endoder.seq_layers.2.weight f4 [128, 128]
000000 3f 51 30 bd e6 93 9b ba 80 a4 30 3d 3f 1f ee 3c
       -0.043046232 -0.0011869639 0.04312563 0.029067634
000010 50 e9 b8 3d 12 d0 c1 3c 7c 3f 4d 3d 07 89 97 bc
       0.09028876 0.023658786 0.05010937 -0.018497957
000020 ee e9 8e 3d 73 29 98 3d a7 5e 15 bc 2d 68 fb bd
       0.06978212 0.07429781 -0.009116805 -0.12275729
000030 97 a1 ca 3d b6 57 38 bd 6d 6a e9 3c 8d 2b 47 bb
       0.09894102 -0.045005523 0.02849313 -0.0030390949
000040 fb cb 7c 3d 42 2f d9 3d 46 86 17 bd 54 05 09 be
       0.06171797 0.10604717 -0.036993288 -0.13380939
000050 c5 6b ea 3c 06 89 69 3d 20 d1 81 3d 27 82 63 be
       0.028615842 0.05701544 0.063387156 -0.22217618
000060 67 f0 3b bd cd 47 af 3d 40 9e 3f 3e ea ea d5 bd
       -0.045883562 0.08558617 0.18712711 -0.10445197
000070 b5 c7 a9 bd f9 59 35 bc 00 6e ee bd 43 17 dc 3c
       -0.08290044 -0.011068814 -0.116420746 0.02686656
000080 b1 0a 92 bd 9b 5b ce bd 70 d5 86 bb 57 0b 39 bd
       -0.071309455 -0.10076066 -0.004114799 -0.04517683
000090 ca ef 83 bd dd 32 be 3d c5 b3 59 bd b4 d9 c7 bd
       -0.064422205 0.09287045 -0.053149957 -0.097583205
0000a0 0f bb c1 bd 7d 33 cf 3d d9 f9 41 bc d2 b2 21 bd
       -0.09459507 0.101172425 -0.0118393535 -0.039477177
0000b0 0c 74 2f 3e b1 86 4e 3d 26 4d 59 be 3d 0c ac 3d
       0.17134112 0.05042142 -0.21220836 0.08400772
0000c0 78 79 e5 bb e6 d0 b2 bd 00 83 57 bd c8 7a a8 3c
       -0.0070030056 -0.087312505 -0.052615166 0.02056636
0000d0 9d 2f 1e bd ac 1d da 3b b8 4f 5e 3d d2 48 68 3c
       -0.038619626 0.006656369 0.054275244 0.014177518
0000e0 4b 33 f5 bd 0d 29 8f bd 8b 33 c8 bd d1 30 99 bd
       -0.11972674 -0.06990252 -0.09775456 -0.07480014
0000f0 cd 32 84 bc 27 91 89 3a a3 e9 08 3d 02 08 79 bd
       -0.016137505 0.0010495529 0.03342594 -0.060798652
000100 9e 1c 82 3d 7a 49 b7 3d 2a 10 3e bd a5 34 02 3e
       0.063531145 0.089495614 -0.046402134 0.12715395
000110 cf e9 d3 bd 3e bf 56 be 8a 82 93 bd 74 06 a1 bd
       -0.1034733 -0.2097139 -0.07202633 -0.07862559
000120 77 82 13 3c cd 6a a9 bb b0 d3 0c 3e b2 06 a7 3d
       0.009003273 -0.0051702023 0.13752627 0.08155574
000130 79 e2 ec 3b 55 9f 00 3e 2e 50 c1 3c 24 16 b9 bd
       0.007229146 0.1256078 0.023597803 -0.09037426
000140 3e aa 0c bd 49 4a 7a be ec c4 e6 bd b7 9a 21 bd
       -0.034342043 -0.244424 -0.112680286 -0.03945419
000150 b4 91 22 3d 0f ce 3b be d2 da b7 3d cc 59 d9 bd
       0.039689735 -0.18340324 0.089772835 -0.106128305
000160 92 f7 ba 3d 65 4f cb bd 8a 82 f5 bd c5 5a 17 bc
       0.091292515 -0.09927253 -0.11987789 -0.00923795
000170 0e 33 e9 3c 6f d8 2c bd f5 f7 06 bc 31 6e 82 bd
       0.028466728 -0.042198595 -0.0082378285 -0.063686736
000180 d1 66 0b 3e ee cc 13 bc e7 77 a8 bb 20 9c 14 bd
       0.1361344 -0.009021027 -0.0051412466 -0.036281705
000190 5d df 9b bd b4 aa 62 bd 8a 13 42 bd 34 c5 db bd
       -0.076109625 -0.055338576 -0.047381915 -0.10730973
0001a0 2f dc 86 bd b8 9d 0f 3d fd 84 5f 3d ff 47 97 3d
       -0.065849654 0.03506252 0.054570187 0.07386779
0001b0 b4 fd ab bc 4f 49 d5 3c 12 f3 51 3d bb 6e 12 bd
       -0.020994999 0.026035933 0.0512572 -0.035750132
0001c0 40 8e 9e bc 6f 4b 58 3d 9d ae 5c 3d 2b c3 92 bd
       -0.01935494 0.052806314 0.05387746 -0.071661316
0001d0 07 ff b9 bc 2d f4 d1 3b 89 bf c8 bd cc 32 07 bd
       -0.022704614 0.006407282 -0.098021574 -0.033007428
0001e0 d1 55 e6 bc d9 81 89 bd a9 95 b3 bc 49 70 77 bc
       -0.028117092 -0.067142196 -0.02192195 -0.015102454
0001f0 1b f9 20 3c 9e 04 b0 3c a3 78 83 3c e5 81 94 3d
       0.009825016 0.021486577 0.016048735 0.07251338
000200 9e 10 7f bd 40 f5 23 3b 1e 03 17 bd e1 79 89 ba
       -0.062271707 0.0025018007 -0.036868207 -0.0010488593
000210 63 58 0c be d5 f1 c1 bd 72 a2 e9 ba 79 de b9 bd
       -0.13705592 -0.09469954 -0.0017824902 -0.090756364
000220 17 0f 8f 3d 01 ea e6 3d 16 b7 c7 be 33 25 0f bc
       0.069853 0.112751015 -0.3900687 -0.008736896
000230 03 ad 70 3d 79 97 07 3d ce 8c 09 3c 8c 07 26 be
       0.058758747 0.03310344 0.008395387 -0.16213816
000240 df e6 c5 3d 5b 79 ef bc af 78 54 bc 62 13 63 3d
       0.09663176 -0.029232671 -0.012968226 0.055438407
000250 b8 89 ba bd 5a 93 ad bd e8 38 d2 bb 87 42 1e be
       -0.09108299 -0.08475371 -0.006415475 -0.15455066
000260 a3 44 92 bc bd 62 43 bd ad 70 f6 bd c2 ec d4 bd
       -0.017854994 -0.047701586 -0.1203321 -0.103967205
000270 90 81 b6 bd e0 d3 96 3d 78 58 2a bd ca a4 c8 3c
       -0.08911431 0.07364631 -0.041588277 0.02449264
000280 81 80 19 3b 9d a1 7b 3d 43 25 8e bd 92 2f 65 bc
       0.0023422542 0.061433423 -0.06940701 -0.013988392
000290 10 67 93 3d 30 87 ce bc cd 42 f4 3c 2e d2 91 be
       0.07197392 -0.025210947 0.02981701 -0.28480667
0002a0 3d d8 85 bd b7 a0 b1 bd 20 fc 16 bd 83 34 1a bd
       -0.06535385 -0.08673232 -0.03686154 -0.037647735
0002b0 53 87 b6 bd 6e 9e 31 3e 32 0f 92 3d 1f 71 c1 bc
       -0.0891253 0.17345592 0.071318045 -0.02361351
0002c0 33 a7 ac bd ba 07 f4 3d 1b 82 e4 bd e6 09 82 bd
       -0.08430328 0.11915536 -0.11157628 -0.06349544
0002d0 c8 38 86 be d0 68 ab bd d6 41 8b bd a7 92 9c 3d
       -0.26215196 -0.08369601 -0.067996666 0.07645159
0002e0 a4 58 43 bc e7 68 1f bc 23 4c 96 3d 1f 67 1c bc
       -0.011922989 -0.0097296005 0.07338741 -0.00954607
0002f0 31 63 02 be b1 a9 b9 bd 73 f9 b7 3c 02 29 c3 3a
       -0.12733151 -0.09065569 0.022457814 0.0014889541
000300 0e 1b b1 3d 90 f2 1a 3c e4 a7 eb bb 0e 27 01 be
       0.086477384 0.0094572455 -0.007191645 -0.12612554
000310 2c 2c 7a 3d 3b f7 8d bd 14 21 06 3e 8a 89 77 3c
       0.06107728 -0.06931921 0.13098556 0.015108475
000320 d7 45 d1 bd f6 36 16 3c 38 e0 c0 3d d8 a9 93 3c
       -0.10218399 0.009168377 0.09417766 0.018025324
000330 70 37 b5 3d fc 6a f6 be 71 b6 23 be cd df 95 3d
       0.088484645 -0.48128498 -0.15987565 0.07318077
000340 cf ab 7c be 69 cd 91 bd be 2e 8a bd 00 58 27 be
       -0.24674915 -0.07119257 -0.067471966 -0.16342163
000350 88 46 d3 3d 09 e7 38 bd 23 e0 52 3c 0d ce 00 3c
       0.10316187 -0.045142207 0.012870821 0.007861626
000360 af fb 1e ba 06 26 89 3b a7 1a 61 bd eb 50 22 be
       -0.00060647255 0.004185441 -0.05495706 -0.1585118
000370 5c d6 ec bc 09 49 ed 3d 03 a7 83 bd 60 02 28 bd
       -0.028910808 0.11586196 -0.06428339 -0.04101789
000380 26 a8 8a bd 95 4d 37 be 5a cf b8 3d 4f 11 92 bd
       -0.06770353 -0.17900689 0.09023924 -0.071322076
000390 45 c5 31 3d 72 28 cf 3d 17 11 91 3d 3c 87 b3 bb
       0.04340102 0.10115136 0.07083338 -0.0054787677
0003a0 65 a8 7e bd 69 9a ef bd 08 e2 a7 3d 37 20 be 3d
       -0.062172312 -0.11699373 0.08197409 0.09283488
0003b0 9f c7 83 bd 5d da 1a bd bb d5 cf 3b 8c a1 ac bc
       -0.06434559 -0.037805904 0.0063426173 -0.021073125
0003c0 62 c1 bd bd d6 d0 d5 bb 93 95 60 bd 48 cc 7f 3c
       -0.092654005 -0.0065251393 -0.054830145 0.015612669
0003d0 34 f7 da bc 82 57 2b bd 29 2d a4 bd 61 62 7a 3d
       -0.026729204 -0.0418315 -0.08016426 0.061128978
0003e0 f1 a0 8b bd 2f 69 1c bd 2b f3 8a bd e5 4f c3 bc
       -0.068178065 -0.03818625 -0.06784662 -0.023841808
0003f0 3d 84 e2 bd d7 dd 78 bd 1e 64 37 be 60 0a 8c bd
       -0.11060379 -0.060758438 -0.17909285 -0.068379164

network_body._body_endoder.seq_layers.2.bias f4 [128]
000000 e2 a1 a2 3c a2 dc af bc aa c8 9f bc 79 10 af bd
       0.019852582 -0.02146751 -0.019504864 -0.08548064
000010 fd be 4f 3d a5 a9 9e bc eb f3 10 3c e7 23 ba bc
       0.05071925 -0.019368002 0.008847217 -0.022722198
000020 fa 56 90 bb 4d 47 fc 3c 88 2e 19 bc 3c c7 61 3c
       -0.0044048997 0.030795718 -0.009349473 0.013780411
000030 58 89 89 3c bd 48 81 3c 96 b4 4b 3c ca 28 ca bd
       0.016789123 0.015781755 0.012433192 -0.09871061
000040 c8 62 91 3c 08 96 30 3b 81 40 25 bc c1 b0 90 bc
       0.017747298 0.0026944894 -0.01008618 -0.017662408
000050 b4 c4 f4 3a 12 71 e9 bc aa 0f 25 ba 79 73 98 bd
       0.0018674345 -0.028496299 -0.00062965846 -0.074439
000060 4d 58 5e ba 13 b0 a2 39 8c a6 26 bd 6c 77 2d 3d
       -0.0008481786 0.00031030233 -0.040686175 0.042350218
000070 13 7d 65 3c b0 b3 6b 3d c4 13 ac bc 91 ac c4 bd
       0.014006871 0.05754441 -0.021005519 -0.09603227
000080 4f ec 58 bc 11 38 0c be d1 23 7a 3d e0 96 84 ba
       -0.013239934 -0.13693263 0.061069313 -0.0010115765
000090 b0 35 85 3d 16 84 39 bd cb 30 13 3d fd 58 1a 3c
       0.06504381 -0.045291983 0.035935204 0.0094206305
0000a0 87 dd 2e 38 ee db f5 3b c3 57 97 3d e7 d8 2e 3b
       4.1691146e-05 0.0075030243 0.07389786 0.0026679577
0000b0 ae d4 22 3c e9 ac 86 bb 0c 2a 97 3b 61 9b 1f 3c
       0.009938402 -0.004109968 0.0046131667 0.009741635
0000c0 36 11 15 bc 99 e3 13 bd ec d7 76 bd 92 1d a2 3c
       -0.009098342 -0.036105726 -0.060264513 0.01978949
0000d0 9a 97 75 bc 97 20 ad bb 32 84 06 3d 4e 52 82 3a
       -0.014989758 -0.005283426 0.032840915 0.0009942742
0000e0 43 55 04 bd f4 e9 b7 3c a2 72 38 3c 4b 79 97 3d
       -0.032307874 0.022450425 0.011257799 0.07396182
0000f0 2e 06 d1 bb b6 0e 14 bc 69 66 91 3d 26 00 3c 3d
       -0.0063789105 -0.0090367105 0.07099611 0.04589858
000100 90 f9 8e bb e0 6c d8 bc 50 49 8e bd 9f 37 ee bc
       -0.0043632463 -0.026419103 -0.06947577 -0.029079257
000110 74 c5 19 3d 35 99 e1 3c 5d 37 0c bd ab ad bb bc
       0.03754182 0.027538875 -0.034232486 -0.02290996
000120 91 71 03 bd ac a5 4f bc e5 5b f9 bb 4d 81 0b 3d
       -0.032090727 -0.012673777 -0.0076098316 0.034058858
000130 0d 13 54 3d 23 f0 bf 3d 06 be a5 3c 03 e3 b3 3d
       0.05177598 0.09371974 0.020232212 0.087835334
000140 4d ae 87 ba e6 68 e4 bd 42 43 02 bd 18 34 b5 bb
       -0.0010351628 -0.1115282 -0.031802423 -0.0055298917
000150 13 74 e2 3d 36 f9 cc 3b 29 ec a1 3d a1 24 af bd
       0.11057296 0.006255294 0.07906372 -0.08551908
000160 92 a1 30 bd d9 13 1a bd ee c2 8c 3c 82 0f be bc
       -0.043122835 -0.037616584 0.017182793 -0.023200754
000170 c3 c5 0a bd 1b 63 46 bc da 71 ce 3a 14 ac 8f bc
       -0.033880007 -0.0121085895 0.0015750483 -0.017538108
000180 a5 7d f7 bb 0a 29 eb b9 72 9f 6a bd a3 fc f6 3c
       -0.00755282 -0.0004485327 -0.057280965 0.030149763
000190 ed 57 7a bc 1e b9 31 3d fd ca d8 bc 68 65 04 3d
       -0.015279752 0.043389432 -0.02646398 0.03232327
0001a0 b2 1e 2d bd 12 80 de 3c 7c 41 88 3d 7d 8f 2c 3c
       -0.0422656 0.027160678 0.06653115 0.010532257
0001b0 de 04 27 3d 79 17 d4 3c 93 80 88 bd 63 11 25 bd
       0.040776126 0.025890099 -0.066651486 -0.040299784
0001c0 4c 11 a7 bd 0d 24 21 3d 63 88 d9 bd fa 5e 87 3d
       -0.08157596 0.03934102 -0.10621717 0.06609912
0001d0 b8 15 8f bd 67 cc 9e bc 5c f8 fc bc 7a 12 8d bd
       -0.069865644 -0.019384576 -0.030880146 -0.0688829
0001e0 60 8a 73 bd 83 fc 16 bc 20 d7 be 3c c6 54 a5 3d
       -0.059458137 -0.009215477 0.023295939 0.0807281
0001f0 9e 82 4b bd 55 fc 20 3d 1b ec 98 3c ba 27 f8 bc
       -0.049685113 0.039303143 0.018667271 -0.03029238

action_model._continuous_distribution.log_sigma f4 [1, 2]
000000 05 c8 2b bf fa a6 28 bf
       -0.6710208 -0.65879786

action_model._continuous_distribution.mu.weight f4 [2, 128]
000000 cd 5c 94 bd 03 05 20 3c 0a d5 a8 ba ef 57 2c 3a
       -0.07244263 0.00976682 -0.0012880873 0.00065743824
000010 03 9a 63 bd 37 d4 dc bb 50 4c 25 bd 73 de 0b 3d
       -0.0555668 -0.006739165 -0.04035598 0.03414769
000020 b9 67 3c 3d 2f d7 be bd ad 59 49 bc 1a ae 50 be
       0.045997355 -0.09318387 -0.012289447 -0.20378914
000030 05 54 71 bd ce c4 af bd cf d8 8f 3a e9 30 a0 bb
       -0.058918018 -0.085824594 0.0010974648 -0.004888643
000040 24 a7 3a bd db 58 24 bc 18 d1 7e bc a2 71 e3 3b
       -0.045569554 -0.01003095 -0.0155527815 0.0069410363
000050 9e d2 1f be 30 55 48 bb 4c d7 9c 3c c7 b8 26 be
       -0.15607688 -0.0030568354 0.01914563 -0.16281424
000060 8d bf 1a bc 64 6a 1d bb 23 65 1c bc 87 5e 25 bd
       -0.009445083 -0.0024019713 -0.009545597 -0.04037335
000070 1e 68 2f bd 73 be 19 3c 15 22 3c bd 9e 18 d5 bb
       -0.042823903 0.009383786 -0.04593094 -0.0065031787
000080 18 8e 48 bb 80 50 32 bc 8c 94 98 bd 2c 74 fc bd
       -0.0030602273 -0.0108834505 -0.07450208 -0.123268455
000090 76 8a 1d 3b 3d f5 1b bb f1 c2 34 bd 3c d2 0a 3b
       0.0024038828 -0.0023797296 -0.044131223 0.0021182438
0000a0 7f 14 92 bc 09 3d 66 bd 17 91 fe 3c 3f 78 49 bd
       -0.017832039 -0.05621055 0.031075044 -0.04918694
0000b0 c9 3a 87 bd 91 3e dd 3b 8e 34 26 3b dc aa 49 bd
       -0.06603009 0.0067518433 0.0025360915 -0.04923521
0000c0 10 52 3b ba a0 0d 85 bc 05 c9 86 bc 6a 4b 82 bc
       -0.0007145712 -0.016241848 -0.016453275 -0.0159051
0000d0 17 7f 63 3c 16 5e 2b bc 4b 0b 8f bd af fb 64 bd
       0.013885281 -0.010459444 -0.06984576 -0.055904087
0000e0 d9 ef 2f 3b 9a 17 4b 3c ab 99 71 3b 58 28 72 3b
       0.0026845841 0.012395764 0.0036865275 0.0036950316
0000f0 40 31 2f 3c 35 09 98 bb 44 84 88 3c 3d e2 d2 bd
       0.010692894 -0.0046397694 0.016664632 -0.10297058
000100 58 85 e0 b9 31 62 9e 39 b2 36 16 bb be 42 bc bd
       -0.00042823958 0.00030209267 -0.0022920785 -0.091924176
000110 ae da 85 3c 27 0a cc bd ca 71 56 3a 42 34 57 bd
       0.016339626 -0.09962874 0.0008180408 -0.05254007
000120 64 7e 31 bc 5f d2 5a 3d 3e 9f ed bd 35 e6 8a bb
       -0.0108333565 0.05342328 -0.11602639 -0.0042388686
000130 58 3a 9f ba 19 93 32 3c e3 32 7d bd f4 82 8b 3c
       -0.0012148125 0.010899329 -0.061816107 0.017030217
000140 dd 19 89 bb 65 13 5c bb e0 f7 c1 3a b3 bc 0e bd
       -0.0041839913 -0.0033580896 0.0014798604 -0.034847926
000150 8d 74 87 bd 93 9e 16 bd 2a 16 43 3c 71 bd 9b bc
       -0.06614027 -0.036772322 0.01190714 -0.019011231
000160 cc 61 0d bc e7 99 07 be d3 95 cf bd ae d2 98 bc
       -0.008629274 -0.13242303 -0.101359986 -0.018655147
000170 e4 8f 94 bd 2d 4b b4 bc 2a e4 ad bd 8f d1 17 bd
       -0.072540075 -0.022008503 -0.084907845 -0.037065085
000180 18 c6 bb bb 1a 77 c8 bc 5d 61 6e ba 82 37 37 3c
       -0.0057304017 -0.024470855 -0.0009093488 0.011182668
000190 ed f9 ac 3c 43 18 47 bd 58 f6 a4 bd 94 24 52 3c
       0.021115268 -0.048607122 -0.08054799 0.012826104
0001a0 26 4f 2a bc aa 45 b1 39 09 03 19 be b7 84 cd bd
       -0.010394847 0.00033811975 -0.14942564 -0.10035079
0001b0 27 2d 89 bd 19 c9 a2 bc 06 46 2e bd 6b 2f 07 ba
       -0.06698065 -0.019871281 -0.04254725 -0.0005156907
0001c0 40 4a 5a bd b4 10 4e be 0c 24 63 bc 1c 5f 9a 3c
       -0.053293467 -0.20123559 -0.013863575 0.01884418
0001d0 81 8f 58 bc de 4f 38 3d bb 75 47 bc ed a5 8a ba
       -0.013217808 0.044998042 -0.012174065 -0.0010578014
0001e0 ce 7f 0d bd 4b 69 a8 bc 9a c7 aa bd a9 9c 42 be
       -0.034545712 -0.02055802 -0.08338852 -0.19005074
0001f0 0e 72 3b bc d6 c4 13 be 2a 50 22 b9 6c f0 cc 3a
       -0.011440767 -0.14430556 -0.00015479387 0.0015635616
000200 40 47 56 bb 42 ec 24 bc f3 ab 16 3b 56 9a dc bb
       -0.0032696277 -0.010066094 0.0022990673 -0.0067322655
000210 e5 9e 49 bc 5e 52 2a bc a4 4f 8b bc ee a0 10 bb
       -0.01230595 -0.010395614 -0.017005749 -0.0022068578
000220 5d b6 49 3d 83 2d 97 bc 6d 3c 43 3a 6e 1b ad ba
       0.04924618 -0.018454319 0.0007447664 -0.0013207027
000230 e3 27 5a 3b c9 10 e6 b9 96 49 ab b9 8f 90 39 ba
       0.0033287934 -0.00043881524 -0.00032670487 -0.0007078731
000240 6a 01 93 bb d3 02 24 bc 9c 2c e1 3c 7a a2 8d 3c
       -0.0044862526 -0.010010439 0.027487092 0.017289389
000250 2f 68 b3 bc 16 93 dd 3b e4 6f 92 3c e0 7b cf bb
       -0.021900265 0.006761919 0.01787562 -0.0063319057
000260 ea f8 6f ba 19 83 c9 b9 11 76 97 3c 7c 94 d4 3b
       -0.00091542176 -0.00038435383 0.018488916 0.0064874273
000270 75 e6 12 3b 27 0c 16 bb 27 a2 10 3a de c9 5d 3b
       0.0022415195 -0.0022895427 0.00055173266 0.0033842246
000280 62 4c bc bc 42 bd 89 3b 57 bf a6 3c 64 78 1d bc
       -0.02298564 0.0042034695 0.02035491 -0.009611223
000290 a3 b3 f3 3b 96 69 1d bb da 32 70 bc 84 79 36 bc
       0.007437186 -0.0024019233 -0.014660561 -0.01113737
0002a0 01 44 c6 3c 30 12 4b bc 36 8b 6b bc c2 33 b7 bc
       0.024202349 -0.012394473 -0.014376452 -0.022363547
0002b0 4b e8 3b bc d5 34 7f 3c ca 7f 93 bc c1 58 f5 3a
       -0.011468957 0.015576561 -0.01800527 0.0018718467
0002c0 07 9b 4a bc b7 70 da bb ef f4 7f bc f3 01 9b 3b
       -0.012366063 -0.0066662687 -0.015622362 0.004730457
0002d0 77 23 9c 3c 0d 6f 08 bd 32 80 37 ba 3d 39 e6 bb
       0.01905988 -0.03330903 -0.00069999986 -0.0070258663
0002e0 ba cf 61 ba db 78 c3 3c db 65 34 3c ba 15 c3 ba
       -0.00086140225 0.02386134 0.011010612 -0.0014883794
0002f0 44 7b 48 ba 4c 26 e1 ba f2 bc 02 bc bb 7c 46 bc
       -0.00076477625 -0.0017177551 -0.007979618 -0.012114699
000300 f0 48 58 bc 14 c6 3b ba e4 ac 03 3b e2 7a 7c bc
       -0.013200983 -0.0007163 0.0020092065 -0.015410157
000310 40 bf bb bc 63 0a 0a 3d 6b a4 1c 3b 99 22 e8 bb
       -0.022918344 0.03370131 0.0023901712 -0.0070842025
000320 24 5d 0f 3d 18 ee a9 3b c2 a7 10 3b f6 17 12 3b
       0.035000935 0.0051858537 0.0022072648 0.0022292114
000330 11 4f b2 bb 64 98 90 3a a5 65 a0 3b 2c 45 d0 3a
       -0.0054415544 0.0011031744 0.0048949295 0.0015889755
000340 3f b4 1b bb 7c 52 70 ba d1 53 06 3b e7 ab f4 3a
       -0.0023758558 -0.00091675646 0.0020496736 0.0018666954
000350 19 01 70 bc 6d 29 bb bc ea c7 bf ba b5 d7 d4 b9
       -0.014648699 -0.022846902 -0.0014631723 -0.00040596505
000360 a5 d6 46 3b 85 de a9 bc 6b 5e 49 bc ab ef bb b9
       0.003034034 -0.020735988 -0.012290577 -0.00035845986
000370 96 6f 16 3b dd d8 cd bc 46 ca 16 3c 73 39 0d 3c
       0.0022954694 -0.025127823 0.009203499 0.008619654
000380 11 b7 08 3b ae f0 ee 3a 43 6c bd bb dd c7 ab bc
       0.002086107 0.0018229687 -0.005780728 -0.020969326
000390 f7 03 fa 3c 9b e6 a8 bb 0c a8 75 bb e8 79 05 3c
       0.030519469 -0.0051544434 -0.0037484197 0.0081467405
0003a0 4c e6 37 3b a0 c8 0a bc 79 f1 98 bd 53 a7 57 bb
       0.0028060852 -0.008470684 -0.07467932 -0.003290613
0003b0 8d f6 c3 3a 65 02 8b 3c af b6 ec bb 91 ab c0 bb
       0.0014950797 0.016968915 -0.007223926 -0.0058798273
0003c0 c3 83 05 b9 d0 3a 25 bd dd 9a 19 bc 95 61 7a 3c
       -0.00012732953 -0.04033929 -0.009375301 0.015282054
0003d0 31 0b b7 ba 6e a1 b1 3c 7b db 89 3b 65 81 54 bb
       -0.0013965127 0.021683421 0.0042070723 -0.0032425758
0003e0 47 99 4f bc c4 37 86 b8 a9 71 54 bd 52 94 a3 3c
       -0.0126708215 -6.400005e-05 -0.051866207 0.019968186
0003f0 68 bc c2 bc c1 89 00 bd ae 05 7e 3c 28 9a 83 3b
       -0.02377148 -0.031381372 0.015504284 0.0040161796

action_model._continuous_distribution.mu.bias f4 [2]
000000 f3 fc d1 3d 27 9a 74 3b
       0.10253324 0.0037323327

action_model._discrete_distribution.branches.0.weight f4 [1, 128]
000000 44 37 1a bc a3 1b 9a 3b ae df 2d 3b e0 18 80 bc
       -0.00941259 0.0047030016 0.0026531029 -0.015636861
000010 fa 25 ce ba e3 38 c3 bc 13 d8 47 3c b3 da 6c bc
       -0.0015727871 -0.023830837 0.012197512 -0.014456439
000020 ab ae 1b ba eb f8 c9 3b d9 53 8f 3b 6b 1d 8f 3b
       -0.00059388083 0.0061637065 0.004374009 0.0043675206
000030 3d bf 90 3b ef 1e 07 3b 0d fd 3d 3c 2f 2e 63 bc
       0.0044173286 0.0020617803 0.011595977 -0.0138659915
000040 83 6a 7c 3b 18 79 54 3c 07 38 b0 3a 83 18 96 3c
       0.0038515634 0.012968324 0.0013444432 0.018322235
000050 43 ce 75 bb 30 b0 f1 3b 14 a3 a4 3b df 9b 7e 3a
       -0.0037506975 0.0073757395 0.0050243232 0.00097125577
000060 3b a0 ea bb 90 09 25 3c a0 ba 69 3c 0c 92 84 bb
       -0.0071602142 0.010073081 0.014265686 -0.0040457305
000070 ec b7 08 bc 67 8e ae 3b 98 87 3c bc c4 dc 88 bb
       -0.008344632 0.0053270343 -0.011506937 -0.004176708
000080 4d a4 46 3a 5a 24 8e ba b9 e6 28 bc a0 f9 95 3c
       0.00075775833 -0.0010844574 -0.010308915 0.018307507
000090 8e 8e b5 bb db 36 e3 ba 27 af 45 3b c7 23 af ba
       -0.0055406755 -0.0017335074 0.0030164213 -0.0013362103
0000a0 9c e5 9b bc 1c 9d 08 3c 2a 41 dd 3b f3 70 36 ba
       -0.019030385 0.008338239 0.006752153 -0.000695958
0000b0 88 e2 fc 3b 47 39 21 ba 0f 2f c8 ba 50 7b d0 3b
       0.0077174343 -0.00061501976 -0.0015272814 0.0063623562
0000c0 92 01 ff ba 4f ae 7b 39 4c 07 3d 3b 94 1e 4a 3b
       -0.0019455424 0.0002400216 0.002884346 0.003084098
0000d0 94 0e 1a 3c 2e d7 a3 3c b7 ee 3e bc 2b 9b ee 39
       0.00940289 0.020000067 -0.011653594 0.00045510507
0000e0 40 34 26 bc 70 ca e5 bb ea e9 e1 3a 75 7f 33 3a
       -0.010144293 -0.007012658 0.001723585 0.00068473007
0000f0 9d f1 45 3b b0 ed 8b 3b c3 d4 9f bb b7 dc 2f 3c
       0.0030203827 0.004270278 -0.004877658 0.010733775
000100 f7 92 b4 ba b5 2f 82 bb a2 b7 2b bc 44 41 00 3a
       -0.0013776709 -0.0039729723 -0.010480793 0.0004892538
000110 2f 58 6e 3b 48 96 6b 3b b3 c6 67 b9 c5 18 7a bc
       0.003636848 0.003594773 -0.00022103898 -0.015264695
000120 cf f8 1f bc d2 9a 22 3c 0a 72 e4 3b c3 00 51 bb
       -0.00976391 0.009924607 0.0069716023 -0.0031891323
000130 fc c6 08 bc 9f 6e 4b 3c ef 5b fe 3b 93 d1 39 3c
       -0.008348223 0.012416511 0.007762424 0.01134147
000140 d1 d3 09 bc 12 bb d1 ba d1 5a 1e 39 fb a3 84 3b
       -0.008412317 -0.0016001186 0.00015101886 0.0040478683
000150 25 33 d3 b9 d5 73 62 3c 58 5f 87 3b b9 35 ba bb
       -0.00040283162 0.013821562 0.004131239 -0.005682674
000160 f6 4c 11 bc 8d 3a 46 39 db aa d0 bb ea 4f 3f 3c
       -0.008868447 0.00018904563 -0.006368024 0.011676768
000170 4c 40 2a 3b 5f c7 7d 3b f5 01 1d bc 12 16 53 3b
       0.0025978265 0.003872357 -0.009582986 0.00322092
000180 80 f5 5a bb 04 71 1c bb ef d5 76 bc bc b4 93 3b
       -0.003341049 -0.0023871073 -0.015065654 0.004507629
000190 e7 57 c5 3b da 64 e0 bb 06 67 1e bb 9e df 00 3b
       0.0060224417 -0.00684796 -0.0024170293 0.0019664536
0001a0 1b 53 17 39 f5 9b 53 bc c1 d7 2e bc 73 18 4c 3a
       0.00014431441 -0.012915601 -0.010671557 0.00077856256
0001b0 63 cf 54 3c 4b a2 55 bc ea df 27 bc 4f a3 d8 3b
       0.012988898 -0.013039182 -0.010246256 0.006611265
0001c0 b7 ef d5 bb d8 32 86 ba 63 21 dd 3b 83 13 34 bb
       -0.0065288204 -0.0010238541 0.006748365 -0.002747745
0001d0 a3 9c a4 ba e9 b9 37 3c ca 4a 4f bb b3 a9 fd 39
       -0.0012558888 0.011213758 -0.003163027 0.00048382356
0001e0 e9 4d 8c 3c ad 2a a9 3b 33 e0 85 bb 85 62 0a 3c
       0.017126994 0.005162558 -0.0040855645 0.00844634
0001f0 22 b2 f7 3b 65 25 e6 3b 1a ca 06 bc 13 5b 00 3c
       0.007559077 0.0070235007 -0.008226896 0.007834214

exp_avg f4 [128, 27]
000000 9c 21 27 b7 a0 a4 90 b5 7f fd 02 38 02 b8 1c 38
       -9.961801e-06 -1.0776748e-06 3.1230502e-05 3.736467e-05
000010 4a 4c 2c 37 a2 5c 8f 37 5a 8e 12 38 9e 7c 13 38
       1.0269761e-05 1.7090064e-05 3.4941688e-05 3.516359e-05
000020 f9 b6 80 37 6b 9b 20 37 08 d2 57 35 e1 74 d1 37
       1.5343992e-05 9.572929e-06 8.0399377e-07 2.4969167e-05
000030 08 d2 57 35 e6 74 d1 37 f8 2e b5 bc 08 a4 b5 37
       8.0399377e-07 2.4969177e-05 -0.022117123 2.1653264e-05
000040 99 a5 3b bc b4 4c e9 b4 a6 6d 21 b8 b0 e7 20 b5
       -0.011453056 -4.345544e-07 -3.848751e-05 -5.9941794e-07
000050 cc 3d 0f 38 66 5c c6 33 6f 5e b3 b6 57 47 e4 b3
       3.415141e-05 9.236901e-08 -5.345609e-06 -1.0630054e-07
000060 60 7d ba b5 bf d0 f6 35 bf b0 df b4 60 47 27 35
       -1.3894569e-06 1.8389181e-06 -4.1665587e-07 6.231621e-07
000070 4a a2 8b 36 cf f6 a9 b8 71 22 eb b8 0f 51 b9 b7
       4.1614157e-06 -8.10452e-05 -0.000112120884 -2.2091464e-05
000080 02 e0 60 b7 a1 de b3 b8 0e d6 d7 b8 98 72 06 b8
       -1.3403596e-05 -8.576853e-05 -0.0001029187 -3.2054813e-05
000090 78 b5 a7 b7 62 07 3b b8 24 5b af b8 62 07 3b b8
       -1.9992454e-05 -4.459115e-05 -8.3616265e-05 -4.459115e-05
0000a0 1a 5b af b8 c5 0e 42 3d f6 dd 50 b9 09 e7 02 3d
       -8.361619e-05 0.047377367 -0.00019919113 0.031958614
0000b0 81 19 43 35 bc 65 a8 38 06 94 c5 35 47 75 6f b8
       7.2680274e-07 8.029814e-05 1.4720724e-06 -5.7091263e-05
0000c0 ed 91 8e 34 5a 78 1e 38 5d be b4 b3 23 35 3b b6
       2.6555736e-07 3.778222e-05 -8.41653e-08 -2.78961e-06
0000d0 71 1a d3 b6 86 6b 8b b6 c5 14 3e 21 a6 47 18 22
       -6.291368e-06 -4.15504e-06 6.440199e-19 2.0637772e-18
0000e0 3d 14 6c 1d e2 a7 46 a1 00 95 35 a4 1b 91 ca a3
       3.1244803e-21 -6.73072e-19 -3.9374327e-17 -2.1962338e-17
0000f0 2c 64 6a 1e 0a cb 04 a2 a4 ee d7 a1 fa 82 b2 a3
       1.2408572e-20 -1.7996824e-18 -1.4632134e-18 -1.935427e-17
000100 d3 51 c5 22 84 d2 cf a2 d3 51 c5 22 9b d0 cf a2
       5.348359e-18 -5.6330355e-18 5.348359e-18 -5.632833e-18
000110 5e 03 10 28 7f 52 a6 a3 3f 2e 24 27 4c 28 9b 21
       7.994336e-15 -1.8032695e-17 2.2784642e-15 1.0513875e-18
000120 c0 6f 91 23 23 99 8f 1f 30 b7 ec a3 4c 3c 84 1f
       1.576826e-17 6.08162e-20 -2.5664754e-17 5.600393e-20
000130 82 48 64 21 23 f2 34 1f 7d 1c c2 21 d1 87 fd 9f
       7.734537e-19 3.8316773e-20 1.3153492e-18 -1.0737436e-19
000140 2a 73 40 22 e3 fa eb b2 7e 18 3f 36 87 e9 0e 2d
       2.608182e-18 -2.747169e-08 2.8475474e-06 8.123619e-12
000150 93 ca d8 35 d1 15 75 26 c0 40 d4 b3 83 57 e6 a7
       1.6152211e-06 8.5031017e-16 -9.883797e-08 -6.3932704e-15
000160 17 64 03 36 bb 92 6d a4 fa fc 9e b4 b8 fb 94 b0
       1.957878e-06 -5.151547e-17 -2.9613858e-07 -1.083996e-09
000170 0a f2 63 36 b8 fb 94 b0 de f1 63 36 2c 23 a5 b9
       3.3966521e-06 -1.083996e-09 3.3966421e-06 -0.00031497458
000180 b6 e7 47 36 24 3a c7 b9 72 35 27 b1 8b 95 0e b6
       2.9788184e-06 -0.00037999556 -2.4332079e-09 -2.1246694e-06
000190 b8 ef 43 31 ac 4c 20 36 af e7 66 34 8c 91 a2 34
       2.85125e-09 2.3886487e-06 2.1504705e-07 3.028075e-07
0001a0 7d 23 5a b4 20 7a 3c b4 56 04 77 33 f0 64 40 b4
       -2.0315743e-07 -1.7553293e-07 5.7513112e-08 -1.7918114e-07
0001b0 a0 5c 05 25 8c 3b a6 aa f3 08 77 a1 56 a2 90 aa
       1.1567294e-16 -2.9528842e-13 -8.36987e-19 -2.5692182e-13
0001c0 d7 16 c1 a1 bc 80 19 aa 7f 14 a4 9b be 62 92 aa
       -1.3084234e-18 -1.3633794e-13 -2.714477e-22 -2.6003326e-13
0001d0 e0 1b 98 0d 60 45 29 aa cc 04 09 26 cc d3 c1 aa
       9.374434e-31 -1.5034285e-13 4.7537924e-16 -3.443065e-13
0001e0 cc 04 09 26 da d3 c1 aa 7d 59 48 2e 6c 48 83 aa
       4.7537924e-16 -3.4430689e-13 4.5554217e-11 -2.3320527e-13
0001f0 e4 a5 93 2e 21 ec 86 24 ed ed e0 2a ac 5e 97 a4
       6.714254e-11 5.8513254e-17 3.9955487e-13 -6.564619e-17
000200 f8 49 e5 aa 7a e6 d2 a7 97 6b 08 a8 f5 2c 8c 27
       -4.0729898e-13 -5.853659e-15 -7.572846e-15 3.890655e-15
000210 23 7c 70 27 1e 79 fe a6 d6 fb 99 27 d3 e8 9a b6
       3.3373985e-15 -1.7657619e-15 4.273907e-15 -4.616662e-06
000220 42 83 be 37 8a 5a 26 37 d8 24 0a 38 10 9a 1a b8
       2.2710887e-05 9.915451e-06 3.2936077e-05 -3.6859943e-05
000230 e2 ca 0b b7 e0 2e 93 37 06 52 c1 37 e8 6f cc 36
       -8.332283e-06 1.7545593e-05 2.3045588e-05 6.0927014e-06
000240 dd dc fc 37 e4 cf 6f 37 4a 39 1e 38 e4 cf 6f 37
       3.0143588e-05 1.4293913e-05 3.772349e-05 1.4293913e-05
000250 43 39 1e 38 a6 e6 b5 bc be db bf 38 c4 12 24 bc
       3.7723465e-05 -0.022204708 9.14852e-05 -0.01001424
000260 aa 1e 8e 35 e9 4d 65 b8 36 31 a2 33 5b cb 0d 38
       1.0588749e-06 -5.4670414e-05 7.552664e-08 3.380641e-05
000270 4c 75 1b b5 37 3d 4c b7 35 60 c7 34 a2 a6 f4 36
       -5.791269e-07 -1.21736e-05 3.7136638e-07 7.2911653e-06
000280 ed ec 73 36 5a 09 db 36 3e 50 7a 37 64 b1 10 b6
       3.634773e-06 6.5277973e-06 1.4919844e-05 -2.1560927e-06
000290 51 8f 83 b8 80 af bb b8 74 24 47 37 6d ba 94 37
       -6.2732615e-05 -8.949544e-05 1.1869812e-05 1.7729786e-05
0002a0 76 ed 98 b8 ae e7 ab b8 6d f4 d2 b7 62 fb fc b7
       -7.292155e-05 -8.197069e-05 -2.514777e-05 -3.01578e-05
0002b0 a5 95 b3 b8 08 8d ca b8 a5 95 b3 b8 f7 8c ca b8
       -8.5632586e-05 -9.65838e-05 -8.5632586e-05 -9.658367e-05
0002c0 83 76 00 3d 02 9c 83 b9 40 27 c7 3c 14 52 74 b5
       0.03136302 -0.00025102502 0.024310708 -9.101652e-07
0002d0 62 ed 66 38 2d 43 25 35 97 05 1b b8 e0 f9 4f 35
       5.5057353e-05 6.1565044e-07 -3.6960086e-05 7.7477125e-07
0002e0 75 fc 0d 38 de 63 ba b4 bc 68 4a b7 f0 55 f0 b6
       3.385214e-05 -3.4717863e-07 -1.2064524e-05 -7.162562e-06
0002f0 40 cf 3b b7 eb 13 1f 12 c8 d9 5e 17 c0 e4 cb 89
       -1.1194323e-05 5.0196104e-28 7.2006947e-25 -4.9085588e-33
000300 21 c4 c8 97 b1 ce 22 8b 74 0e b5 97 5d cd cb 89
       -1.2974207e-24 -3.1355562e-32 -1.1700499e-24 -4.9063595e-33
000310 f0 5b 88 97 04 00 00 80 69 6d cf 97 b2 83 88 12
       -8.812002e-25 -6e-45 -1.340468e-24 8.615272e-28
000320 ef d3 96 17 b2 83 88 12 47 d3 96 17 78 22 7e 1b
       9.747022e-25 8.615272e-28 9.746857e-25 2.1021525e-22
000330 40 b8 77 16 8d 74 e9 1b 77 1e fd 92 92 bb 3d 18
       2.001064e-25 3.8621936e-22 -1.5974055e-27 2.4522376e-24
000340 ae 1b 0c 13 0f d3 2b 98 0d 07 0b 16 c2 1f 42 16
       1.7684131e-27 -2.220779e-24 1.1230555e-25 1.5681216e-25
000350 64 04 0b 96 22 f8 f3 95 ae f7 0a 15 22 18 fc 95
       -1.1229716e-25 -9.85384e-26 2.8064263e-26 -1.01820064e-25
000360 cc 85 5a 12 f9 48 4c 97 5f bb 7c 88 db 97 14 97
       6.895359e-28 -6.600806e-25 -7.6053745e-34 -4.801305e-25
000370 92 a1 1c 15 7e ed 80 96 24 11 5f 87 06 d1 23 97
       3.1631406e-26 -2.0829394e-25 -1.6781693e-34 -5.2931965e-25
000380 6d f9 2b 80 18 0f 8d 96 19 7e 7f 14 cc cf 76 97
       -4.038403e-39 -2.2789304e-25 1.2899078e-26 -7.9749164e-25
000390 19 7e 7f 14 d0 cf 76 97 eb ba d0 1a cf ee 10 97
       1.2899078e-26 -7.9749183e-25 8.6328766e-23 -4.683033e-25
0003a0 6b c4 17 1b eb 70 70 11 40 c0 61 17 2a da 9b 91
       1.2553893e-22 1.8967457e-28 7.2944075e-25 -2.4589142e-28
0003b0 58 68 6f 97 b9 2f cc 94 d6 49 08 95 ee 00 a5 14
       -7.7356765e-25 -2.0617559e-26 -2.7523228e-26 1.6661109e-26
0003c0 b8 18 8f 14 de 3d e8 93 e1 44 a2 14 dc ed fb 36
       1.444906e-26 -5.862604e-27 1.6384988e-26 7.5080734e-06
0003d0 10 d6 12 36 e5 61 02 b8 30 31 14 b8 a0 4e e5 b6
       2.1880296e-06 -3.1085587e-05 -3.533176e-05 -6.833885e-06
0003e0 8e 96 90 b7 8c 7b fc b7 c2 4a 12 b8 25 09 72 b7
       -1.7236245e-05 -3.0098272e-05 -3.4878736e-05 -1.4426453e-05
0003f0 98 f7 37 b6 8f 70 ed 37 d0 6e 6f b7 8f 70 ed 37
       -2.7413244e-06 2.8305016e-05 -1.4271311e-05 2.8305016e-05

exp_avg_sq f4 [128, 27]
000000 b5 3f 19 33 67 8b 61 33 fa 00 1f 33 bf 9b 53 33
       3.568103e-08 5.251368e-08 3.702096e-08 4.9268916e-08
000010 d5 68 c9 32 65 8e 38 33 6c a5 34 33 86 12 79 33
       2.3447152e-08 4.2970346e-08 4.2059966e-08 5.7991677e-08
000020 9c 74 a1 32 92 28 1a 33 f0 ad 20 33 aa 39 8a 33
       1.8795895e-08 3.5892818e-08 3.7411098e-08 6.436615e-08
000030 f4 ad 20 33 d2 39 8a 33 d7 b4 23 3d 1e 9c 37 39
       3.7411112e-08 6.436643e-08 0.039967384 0.00017510398
000040 8f 3f c9 3b 42 bf 60 31 40 43 94 33 00 fb 61 31
       0.00614161 3.2705008e-09 6.90402e-08 3.2884486e-09
000050 4f 1d 45 33 16 2b 96 2e a0 5a 78 33 92 cc 33 2e
       4.5894293e-08 6.828864e-11 5.7824423e-08 4.0881583e-11
000060 bf 39 07 32 a7 43 22 2f eb 68 22 31 91 0c 46 33
       7.871164e-09 1.4757849e-10 2.3633742e-09 4.6111897e-08
000070 cf a5 ec 33 a5 6c 1b 33 53 99 c3 33 be c4 69 33
       1.1019767e-07 3.618756e-08 9.1082846e-08 5.4428476e-08
000080 52 c5 f9 33 78 7e 3c 33 fc 74 f8 33 15 32 19 33
       1.16308584e-07 4.3887184e-08 1.1569679e-07 3.5668638e-08
000090 e7 3d b6 33 0a 60 ab 33 09 e3 32 34 0a 60 ab 33
       8.4862954e-08 7.9802774e-08 1.6660137e-07 7.9802774e-08
0000a0 23 e3 32 34 92 e9 08 3e 75 76 c2 38 00 e4 55 3c
       1.6660174e-07 0.1337035 9.272705e-05 0.013054848
0000b0 59 5f 03 31 e0 fb 86 34 57 ac b0 30 9a 0a 46 34
       1.9117208e-09 2.5142708e-07 1.2854667e-09 1.8444044e-07
0000c0 98 84 df 2f c3 4b 25 34 68 d1 2b 2f 22 2c f0 32
       4.0657677e-10 1.5394384e-07 1.5626755e-10 2.7959747e-08
0000d0 0f 2d 12 30 2b 68 42 32 fb 87 ba 2d fb 87 ba 2d
       5.317852e-10 1.1315971e-08 2.120614e-11 2.120614e-11
0000e0 5f 90 ba 2d b0 89 ba 2d 4b 87 ba 2d d2 87 ba 2d
       2.1209865e-11 2.1206897e-11 2.1205834e-11 2.1206068e-11
0000f0 d6 84 ba 2d d0 86 ba 2d fb 87 ba 2d fb 87 ba 2d
       2.1204743e-11 2.120562e-11 2.120614e-11 2.120614e-11
000100 ed 87 ba 2d f2 87 ba 2d ed 87 ba 2d f2 87 ba 2d
       2.1206115e-11 2.1206124e-11 2.1206115e-11 2.1206124e-11
000110 3b cd d6 36 2a 03 cb 33 f7 3e 15 35 a5 4e 3e 2c
       6.401589e-06 9.4535e-08 5.559845e-07 2.704428e-12
000120 3e ab 6a 2d 80 d5 33 2b b6 2a 5b 2c 85 64 a4 13
       1.3339383e-11 6.3889866e-13 3.1145481e-12 4.149854e-27
000130 fd c5 65 2d c4 bd 8c 13 a2 27 db 17 78 0f a5 12
       1.3061105e-11 3.552809e-27 1.4162548e-24 1.0416777e-27
000140 9d 30 d7 16 18 c8 c1 2f 03 d2 56 30 3c 32 2a 30
       3.4765803e-25 3.524867e-10 7.815119e-10 6.1917027e-10
000150 f2 69 77 30 5b 25 b7 2f 39 61 13 30 e9 b7 34 30
       9.0008634e-10 3.331405e-10 5.361645e-10 6.574497e-10
000160 a1 31 7c 30 05 8c c9 2f 3a 8e 26 30 a6 ad 24 30
       9.1747593e-10 3.6661177e-10 6.0592564e-10 5.990962e-10
000170 2f 80 90 30 a6 ad 24 30 3a 80 90 30 eb 47 aa 38
       1.0513811e-09 5.990962e-10 1.0513823e-09 8.1196275e-05
000180 28 c8 80 38 d8 33 3e 3a 47 47 4c 2e 36 dd 84 30
       6.1407976e-05 0.000725565 4.6447537e-11 9.667136e-10
000190 26 c4 6f 2d 9f 3e 87 30 0f cb cb 2a eb 4c ff 2f
       1.3629131e-11 9.840341e-10 3.6200944e-13 4.6438883e-10
0001a0 35 ad 1d 2b c1 70 66 2e 9f af 18 2a f3 f5 82 2d
       5.601798e-13 5.239609e-11 1.3561243e-13 1.4888512e-11
0001b0 4d e5 61 2c a0 a4 6d 2c df 61 61 2c de 0b 97 2c
       3.210171e-12 3.377111e-12 3.2028752e-12 4.2929956e-12
0001c0 d2 0b 61 2c fe 46 6a 2c 4e 15 61 2c e5 4a 83 2c
       3.1980985e-12 3.3292809e-12 3.198625e-12 3.731559e-12
0001d0 b8 0a 61 2c 1c 1f 71 2c db 20 61 2c 5e 82 8a 2c
       3.1980373e-12 3.426543e-12 3.1992662e-12 3.9366696e-12
0001e0 db 20 61 2c 60 82 8a 2c 73 2a a6 34 72 0c dc 32
       3.1992662e-12 3.9366704e-12 3.0950795e-07 2.561703e-08
0001f0 3e 8d 3a 34 34 23 22 2a ad ca ea 2b 99 59 08 2a
       1.7373983e-07 1.4400704e-13 1.6682954e-12 1.2110312e-13
000200 62 50 86 2c 1c 46 31 24 fa ad 0a 2c eb 77 bf 24
       3.8174333e-12 3.8440142e-17 1.9707556e-12 8.3036195e-17
000210 3b 94 de 23 dc 77 2d 21 8d 90 a8 23 2f a3 15 32
       2.4132066e-17 5.877331e-19 1.8275816e-17 8.710045e-09
000220 34 47 a9 32 60 d6 04 32 2a ff 85 32 ac 67 39 32
       1.9706569e-08 7.7321545e-09 1.5599273e-08 1.07919895e-08
000230 f2 67 bd 32 6d c8 1b 32 07 f5 b2 32 d5 10 f0 31
       2.2049765e-08 9.067759e-09 2.0833353e-08 6.986833e-09
000240 11 3b 88 32 93 f9 70 32 a6 8b fd 32 94 f9 70 32
       1.5859344e-08 1.4026585e-08 2.9516581e-08 1.4026586e-08
000250 87 8b fd 32 68 d3 d5 3c 66 02 29 38 0c 3d 0e 3b
       2.9516526e-08 0.026101783 4.0294974e-05 0.0021703867
000260 51 c7 fd 2f 97 2c 3a 33 12 26 20 2f 8d 50 0e 33
       4.6162055e-10 4.3347054e-08 1.456544e-10 3.3135212e-08
000270 cb 8a 65 2e 11 81 f4 32 b6 df f8 2d 42 e0 a5 31
       5.2191845e-11 2.8464031e-08 2.8293683e-11 4.827627e-09
000280 23 47 c0 2e cc 20 e3 30 d7 0b 2e 33 02 a2 b3 33
       8.7437856e-11 1.6525745e-09 4.05233e-08 8.364806e-08
000290 e6 71 19 33 40 45 98 33 dd df 2d 33 8f 3c b1 33
       3.572668e-08 7.090648e-08 4.0483304e-08 8.25322e-08
0002a0 cd bf 35 33 4f 80 c1 33 5c 59 ec 32 75 4f 83 33
       4.231679e-08 9.010602e-08 2.7514652e-08 6.114616e-08
0002b0 a7 3c 8b 33 90 6c 04 34 a7 3c 8b 33 92 6c 04 34
       6.4837245e-08 1.2332953e-07 6.4837245e-08 1.2332956e-07
0002c0 10 fa b1 3d 6f 18 13 39 e6 d1 29 3c 80 09 05 31
       0.08690274 0.00014028115 0.010364985 1.9359447e-09
0002d0 1d 19 33 34 7e 36 27 31 f9 94 f6 33 47 ce 8a 2f
       1.667981e-07 2.4332674e-09 1.14823656e-07 2.5248623e-10
0002e0 61 28 e3 33 1f 69 c5 2e 78 10 86 32 e3 fc 92 2f
       1.0577856e-07 8.977196e-11 1.5607142e-08 2.6736932e-10
0002f0 a5 f1 fc 31 4a 07 36 2b 5c 02 c6 2b d2 c8 16 2b
       7.361637e-09 6.4669505e-13 1.4069401e-12 5.35694e-13
000300 37 ce 7d 2c 56 64 13 2b 90 43 a2 2b 3b 1c 13 2b
       3.6067935e-12 5.2364135e-13 1.1529545e-12 5.226407e-13
000310 d9 54 1b 2c 4f e4 12 2b d9 4e be 2b f2 52 14 2b
       2.2073925e-12 5.218646e-13 1.3522197e-12 5.269527e-13
000320 d4 a8 3a 2c f2 52 14 2b d4 a8 3a 2c 37 00 fa 34
       2.6525908e-12 5.269527e-13 2.6525908e-12 4.6566285e-07
000330 ea 82 67 31 31 10 10 34 b3 7c 13 28 b2 da 1a 2c
       3.368934e-09 1.3416935e-07 8.187179e-15 2.2006117e-12
000340 c6 48 e4 28 bd 16 27 2d 8e 83 eb 24 f2 b8 b4 2a
       2.5344645e-14 9.4979e-12 1.02137867e-16 3.2102755e-13
000350 0e e5 7a 25 41 ae 98 24 f9 52 d6 21 35 92 63 24
       2.176165e-16 6.621469e-17 1.4523167e-18 4.934662e-17
000360 f6 80 d2 2c ca 48 d2 2c f6 80 d2 2c fc 48 d8 2c
       5.9828765e-12 5.97664e-12 5.9828765e-12 6.147192e-12
000370 f6 80 d2 2c d7 29 d2 2c f6 80 d2 2c 92 38 d3 2c
       5.9828765e-12 5.973204e-12 5.9828765e-12 6.0032613e-12
000380 f6 80 d2 2c 7b 10 d2 2c f6 80 d2 2c 23 cf d3 2c
       5.9828765e-12 5.9703887e-12 5.9828765e-12 6.0199775e-12
000390 f6 80 d2 2c 23 cf d3 2c f7 ff d0 35 23 95 e0 32
       5.9828765e-12 6.0199775e-12 1.5571703e-06 2.6144852e-08
0003a0 f5 11 c4 34 eb 5d 49 2b 04 2b 86 2c f7 f7 96 2a
       3.652091e-07 7.153988e-13 3.8132848e-12 2.6817413e-13
0003b0 b9 87 db 2b 94 04 89 22 88 a6 81 2c cf 1e 52 23
       1.5598557e-12 3.713877e-18 3.684889e-12 1.1390647e-17
0003c0 db 2f 71 22 8e cb a0 1f 1e 57 07 22 ce 69 ba 32
       3.2686925e-18 6.809939e-20 1.8342031e-18 2.1701364e-08
0003d0 26 5a 21 33 09 bf a7 32 64 8d 0c 33 ba 17 b7 32
       3.7567723e-08 1.9528231e-08 3.2724884e-08 2.1314793e-08
0003e0 61 1f 23 33 ab c2 d0 32 d1 da 2e 33 d8 1a 83 32
       3.7979934e-08 2.4302912e-08 4.0711544e-08 1.5262614e-08
0003f0 1c 5d fd 32 d1 c9 fa 32 e1 b1 63 33 d1 c9 fa 32
       2.9495418e-08 2.9195606e-08 5.3014336e-08 2.9195606e-08
