results/mimicagentrays/RaceCar/RaceCar-184147.onnx (onnx, 93360 bytes, 8 tensors)

action_model._continuous_distribution.log_sigma f4 [1, 2]
000000 97 d9 6c be ac c3 88 be
       -0.23129879 -0.26711786

action_model._continuous_distribution.mu.bias f4 [2]
000000 67 04 fa 3b ce 03 67 3c
       0.0076299193 0.014100028

action_model._continuous_distribution.mu.weight f4 [2, 128]
000000 79 d2 ef 3b 0b d9 08 3c 3d 36 78 3c 5b 65 19 3c
       0.0073187915 0.008352528 0.01514965 0.009362544
000010 b8 8c b2 bc 5e a7 80 3c 31 ab 1e bc 60 51 b8 bc
       -0.021795616 0.015704807 -0.00968437 -0.02249974
000020 4f 98 2f bc 44 8d 79 bc 1a 2c bd bc c1 65 ef 3c
       -0.010717466 -0.015231434 -0.023092318 0.029223325
000030 b7 d9 96 3c b3 c0 f6 3c 1e 75 02 3b d2 02 aa 3c
       0.018414361 0.030121183 0.0019906233 0.020753298
000040 b3 0a 69 3c 42 40 46 bb ba f7 d4 bc 3a 72 7e bb
       0.014223742 -0.0030250703 -0.025997031 -0.0038825409
000050 d0 cd 9b bb 42 4a 88 3c 1b f6 0e bc 12 09 eb 3b
       -0.0047547594 0.016636971 -0.008725668 0.007172712
000060 c9 c2 e7 3c e2 cc 4c ba 3b ad 46 bc bd 0b b1 39
       0.028291123 -0.00078125123 -0.012126262 0.00033768817
000070 0e 65 0a 3b 37 12 38 3c b8 4a 29 3b 6f cf ab bb
       0.0021117362 0.0112348115 0.002583189 -0.005243234
000080 ad 05 cb 3b ba e2 54 bd 85 61 f9 b9 da b6 d0 3a
       0.006195745 -0.051974036 -0.0004756564 0.0015923635
000090 6c e5 89 bc 92 59 c3 39 43 d9 3f 3c 65 7d 78 bb
       -0.01683303 0.00037260033 0.011709514 -0.0037916538
0000a0 a2 c0 0f 3c 82 9d 55 3d c5 d1 1e 3b 90 c6 1f 3c
       0.008773955 0.052152164 0.002423392 0.009751931
0000b0 c4 13 94 bb c1 1d 30 bb 2e 98 ed bc 73 6e 7a 3c
       -0.004518958 -0.0026873203 -0.029003229 0.015285122
0000c0 a8 ee 5d 3b 8a 22 61 bc 06 b1 e9 bb fe b5 e9 3b
       0.0033864174 -0.013741145 -0.0071316985 0.007132291
0000d0 cf f3 ae bc 5d a2 7d bc b4 64 28 bc 72 db 85 3c
       -0.021356491 -0.015480605 -0.010277916 0.016339991
0000e0 5d d1 87 3c 83 cb ed 3a 2b e5 05 bd 14 ae c7 3b
       0.016579324 0.0018142316 -0.032689255 0.00609375
0000f0 07 bd a8 39 94 db 2c bd d1 dc 13 3c f2 99 7a 3b
       0.00032184293 -0.042201594 0.009024815 0.0038238731
000100 28 a4 57 bc 8a a5 bf bc 33 7e fb ba d1 ff 0f bc
       -0.0131616965 -0.023394365 -0.001918739 -0.008789019
000110 cd 98 29 bc 3d eb b4 3b 6d 27 00 3d 6f ba 71 3b
       -0.010351372 0.0055212067 0.0312876 0.0036884805
000120 5d 1c 05 3a 5e 20 89 bc 73 cf 1a bc 28 f4 32 bc
       0.0005077774 -0.016739067 -0.009448874 -0.010922469
000130 4a af 17 3c 4a b1 b4 ba 21 33 e4 bc bf 40 d6 bb
       0.009258101 -0.0013785746 -0.027856411 -0.00653848
000140 58 05 7c bb 2a 84 55 bc 16 e6 d1 bc 49 6c 7f 3c
       -0.0038455334 -0.013031999 -0.025622409 0.015589782
000150 c6 9a 8f 3b 60 2e b0 3b 11 36 bc bb a0 6c 86 ba
       0.004382464 0.005376622 -0.00574375 -0.0010255761
000160 94 46 6f bc 70 de c5 3b f2 83 94 3c 32 39 bc 3a
       -0.0146042295 0.0060384795 0.018129323 0.0014360307
000170 df 51 0d 3b d1 bc d4 bb f6 fc 09 bd ff 4d 42 ba
       0.0021563692 -0.006492235 -0.033688508 -0.0007412135
000180 26 be 4b 3c c4 f0 9f bc 50 6c cb 3a c9 89 dc bb
       0.012435472 -0.019523986 0.001551995 -0.0067302925
000190 ec e5 4b 3c ad 5e 16 3c 9d f3 26 3d 26 a4 c7 bc
       0.012444954 0.009177846 0.04075967 -0.024370264
0001a0 68 bb 99 3c 89 d6 1f 3c 6f ee 02 bb bf 69 9a bc
       0.01876612 0.009755739 -0.0019978543 -0.018849252
0001b0 98 5f a8 39 ee cc 35 bc c6 89 a2 3c 97 52 0c 3c
       0.0003211468 -0.011096222 0.019841086 0.008564613
0001c0 fe 6c 23 3c 11 63 25 bc 8f ad 21 3a 88 e7 62 bb
       0.009974716 -0.01009442 0.0006167525 -0.0034622867
0001d0 d1 e3 b7 3b a7 ed 2a ba 60 0b b1 3a 9d 3b 95 3b
       0.0056118746 -0.00065203983 0.0013507418 0.0045542256
0001e0 c1 04 26 bb bd 9c 46 3c e2 58 06 3d e7 fd 95 bc
       -0.0025332423 0.01212233 0.03279961 -0.018309547
0001f0 e4 57 cb 3c 4e f2 db bb a5 40 d1 b9 5c a7 fa 3a
       0.024822183 -0.0067122346 -0.0003991175 0.0019123363
000200 04 d4 4e 3c f0 4a bb 3b 45 e4 3b 3b ef da 53 bc
       0.012623791 0.0057157204 0.0028669995 -0.012930616
000210 67 45 60 3c 3a 0a 1c bc 4e ff df 3c ae 7d 84 3c
       0.013688422 -0.009523923 0.027343418 0.01617321
000220 ea 35 df bc 32 7a 51 3b 66 27 3e 3b ae e7 97 3b
       -0.027247388 0.0031963703 0.0029015183 0.0046357727
000230 b2 a6 7c ba ec a6 b6 3b 19 f5 58 3b 0b 55 52 bb
       -0.00096378766 0.005574098 0.0033105074 -0.0032094147
000240 e3 68 10 3c f6 ae 44 bc 83 47 82 3c ab 34 d9 3b
       0.008814069 -0.012004605 0.01590324 0.006628593
000250 e9 ea f1 ba 39 31 c8 3c ae c4 59 bc a3 8f 40 bb
       -0.001845685 0.024437534 -0.013291521 -0.002938249
000260 62 4d 5b 3b 72 56 ac bb 35 c9 ce bc 3e c4 73 bb
       0.0033462872 -0.0052593285 -0.025242427 -0.0037195827
000270 95 57 50 bb e6 be 01 bc 69 6f 4f bb 3e 0d cd 3b
       -0.0031790484 -0.007919049 -0.00316521 0.006257682
000280 38 de 13 3c b8 63 0e bc cf 55 e4 ba 05 6f 6e 3c
       0.009025149 -0.008690767 -0.0017420592 0.014552836
000290 e2 67 30 3c e6 b7 8e bc 91 77 0a bb 8b 8a 16 bb
       0.010766955 -0.017421674 -0.0021128396 -0.0022970762
0002a0 c2 b9 93 bb 44 f6 96 bc 5c cb f2 bb c7 4f 7a bc
       -0.004508228 -0.018427975 -0.0074094962 -0.015277809
0002b0 ff 33 10 3c f5 21 44 bc 8a c7 f1 3c 25 d8 91 3c
       0.008801459 -0.011970987 0.029514093 0.017803261
0002c0 f9 25 1b bc 1e 6b b1 bb d2 ee d6 3a a9 f8 d6 bc
       -0.009469503 -0.0054143807 0.0016398078 -0.026241617
0002d0 bd b0 44 bb 86 47 21 bb e7 b3 06 3c c5 f9 57 3c
       -0.003001257 -0.0024609282 0.008221603 0.013182108
0002e0 dc 97 92 bc 20 ba 85 3b 85 04 09 3d 00 bd 64 3c
       -0.017894678 0.0040810257 0.033451576 0.013961077
0002f0 0c 53 b0 ba cb 41 84 bc 38 0d 5f 3c df 6b 08 bb
       -0.0013452484 -0.016144654 0.013613991 -0.002081625
000300 1d 1a f3 bb f8 71 54 bc 6c 1a 6f 3c 4e 3b 44 3b
       -0.0074188844 -0.012966625 0.014593702 0.0029942575
000310 46 58 40 bc 28 40 fd 3b 32 c8 5f bc 4f 71 ec bb
       -0.011739796 0.0077285953 -0.01365857 -0.007215656
000320 ee f6 f1 3b a9 fe 11 3c 62 ba aa 3c 90 da 03 3b
       0.0073841726 0.008910813 0.020840827 0.0020119287
000330 27 dd 1c bc 41 5f 82 bb b5 ac 7e ba 76 3f d0 38
       -0.009574211 -0.0039786403 -0.00097150664 9.9300334e-05
000340 f3 5e 82 3b 85 d4 ba 3c 08 66 2c 3b d1 e3 d0 3b
       0.003978604 0.022806415 0.0026305933 0.006374814
000350 04 30 8d bb a0 90 4d 3c 6e 35 17 3c e8 a4 d0 ba
       -0.0043087024 0.012546688 0.009229047 -0.0015918287
000360 5b 5a 23 bc cc 8f 8b 3c 96 5a e2 bb c3 56 78 3a
       -0.009970273 0.017036341 -0.0069077713 0.0009473378
000370 e4 e0 f1 bb 89 16 d4 3c 36 9b 17 3c d8 24 09 bd
       -0.0073815454 0.025889652 0.009253314 -0.033482403
000380 9f 26 cb bc 82 29 26 3c 04 8a 6f bb 18 37 2f 3c
       -0.02479869 0.010141732 -0.003655077 0.010694288
000390 4e 7b a9 3b fd ee bf bb d4 a8 ed ba 33 30 6b 3d
       0.00517217 -0.005857347 -0.001813198 0.057419013
0003a0 da 76 a1 3c 88 c2 1e 3c 91 ea 76 3c 3f 15 fb bb
       0.019709993 0.009689935 0.015070573 -0.007662445
0003b0 1a 69 23 bb 4d 5c 12 bd de cf ea 3b 4f 8e a1 bd
       -0.0024934472 -0.035732556 0.007165893 -0.07888471
0003c0 d2 ab 02 3c 1d 2b a5 bc 40 a4 ad bc 2b 0e 74 bc
       0.0079755355 -0.02016216 -0.021196485 -0.014895956
0003d0 3c a9 5e ba fa 01 b1 bc 37 74 69 bc 05 6c 99 bc
       -0.0008493846 -0.021607388 -0.014248899 -0.018728266
0003e0 7d ef e2 bb 36 5c 67 3c 9e 9b 60 bd 44 0f 4c bc
       -0.006925522 0.014121106 -0.054835908 -0.0124548115
0003f0 66 53 81 bb ca 87 59 bb 6e 7c d4 b9 15 06 0f bc
       -0.0039467094 -0.003319251 -0.00040528498 -0.008729477

action_model._discrete_distribution.branches.0.weight f4 [1, 128]
000000 c9 c4 94 bb 70 f3 92 bc 27 f8 51 bc d6 ef 44 3b
       -0.00454006 -0.017938346 -0.012815512 0.003005018
000010 70 92 0a bc 50 62 80 bc 53 e0 b1 3b 93 07 cf b9
       -0.008457765 -0.015671879 0.005428353 -0.0003948776
000020 8e 05 c7 bb d5 e4 8b 3c 91 ff 2f 3c 77 63 6f bb
       -0.00607366 0.017076889 0.010742084 -0.0036527792
000030 35 cf 18 3b b7 7d 32 3c 53 81 80 3a a7 61 85 3b
       0.0023316864 0.010894231 0.0009804167 0.004070479
000040 40 bc e0 bb c8 01 6b bc 07 42 54 3c e1 f7 cb bc
       -0.0068583786 -0.014343686 0.012955195 -0.024898471
000050 23 ed eb b8 65 ee 49 3c d4 ac c6 3c 3a 00 94 3b
       -0.000112498434 0.012324904 0.024252333 0.0045166286
000060 40 74 f4 bb 96 17 c3 39 76 5a 15 3c e6 4f 15 bc
       -0.007460147 0.0003721087 0.009115806 -0.009113288
000070 3e 49 93 ba 1d 37 4b 3b 33 d0 a2 bc a3 b6 93 3c
       -0.0011237038 0.0031008192 -0.019874668 0.018031424
000080 d3 03 6d bb 5b 76 5a 3b e4 8c 00 bc e2 5e ec 3a
       -0.003616561 0.0033334706 -0.007846091 0.0018033648
000090 8b c0 c6 bb b9 69 1d 3b cb 87 50 3a 4d a2 d1 39
       -0.0060654334 0.0024019314 0.0007954805 0.0003998451
0000a0 47 19 9b bb ae 65 86 bb a1 a2 2c bc b8 ef af 3c
       -0.004733238 -0.0041014766 -0.010536821 0.021476611
0000b0 03 4f d0 3a a7 8d 58 3a 77 d5 0f bb 93 33 9d bc
       0.0015892688 0.0008260854 -0.0021947303 -0.019189632
0000c0 3f 15 42 3c 07 be 1b 3b 01 1e 09 3c 6d a7 83 bb
       0.011845886 0.0023764388 0.00836897 -0.0040177614
0000d0 c3 89 c1 ba 0e f1 05 38 2e e9 23 bb 80 55 9c bc
       -0.0014765788 3.193417e-05 -0.0025010812 -0.019083738
0000e0 c5 de 73 3c ed ec 81 bb d3 db 60 3b d8 4a d9 ba
       0.014884655 -0.0039650113 0.0034310713 -0.0016578091
0000f0 30 a6 1e 3c 68 77 1c 3c 3b 5b a3 bb 88 6c 2c 3b
       0.009683177 0.009549953 -0.0049852408 0.0026309807
000100 d7 67 c4 39 c7 2e 4b ba 68 e2 fe 3a 95 83 4c 3b
       0.000374614 -0.0007750806 0.0019446136 0.0031206359
000110 02 11 06 bc e5 53 6d 3b 70 5c 1f 3c a8 12 5f 3c
       -0.008182766 0.0036213335 0.009726629 0.013615288
000120 38 6e d9 3b 23 36 5c b9 ff b7 61 3b 4e 5c 31 b8
       0.0066354536 -0.00021001002 0.0034441946 -4.2286054e-05
000130 58 68 a3 39 62 3b 7d 3c 8d 92 54 3b 27 de c6 3b
       0.00031167525 0.0154560525 0.0032435984 0.006068963
000140 5f 5d 98 bc 17 af f3 bb e1 af 00 3b 4c bc 0a bc
       -0.01859921 -0.007436644 0.0019636082 -0.008467745
000150 49 14 84 3b f2 31 9e bc 80 09 e8 b9 1b 9e 17 3a
       0.0040307385 -0.019310925 -0.00044257566 0.00057837524
000160 c6 f9 c0 3c bb d7 4f bb 7b 0b 95 3b c6 63 12 3c
       0.023556601 -0.0031714279 0.0045484877 0.008934921
000170 bf 2b 29 3c db 4b 10 bc 8f 30 61 3b 17 13 35 3b
       0.010325371 -0.008807148 0.0034361219 0.0027629787
000180 5e d7 22 bc 18 df ed bb ed b0 1c ba 93 6f f2 3b
       -0.009939043 -0.007259261 -0.0005977292 0.0073985546
000190 c7 cb 66 3c db 62 ee bb b5 f3 0c 3c 79 05 81 ba
       0.01408667 -0.007274968 0.008603026 -0.000984355
0001a0 6f 5d 90 3c f5 6d d5 3c 04 3f 8c 3a 8d d2 a3 3b
       0.017622678 0.026053408 0.0010699932 0.004999465
0001b0 52 be 18 bb bf af 8c 3b 18 3f 65 3c fd 8b ad 39
       -0.00233068 0.0042934115 0.0139920935 0.0003310143
0001c0 de 61 10 3b 15 e9 b8 3b 3b 3c c0 3b ce 2b bd 39
       0.002203099 0.00564302 0.005866555 0.00036081526
0001d0 92 38 d5 b8 11 c3 be 3a 96 45 14 ba c0 87 37 3c
       -0.000101671685 0.0014553984 -0.0005656121 0.011201799
0001e0 5b 54 01 3c 8b aa 0f 3c c9 4e 2b 3c 25 f5 4e bb
       0.007893647 0.008768688 0.010455796 -0.0031579223
0001f0 2b 55 51 bc 7f 8c 80 3a 12 9f 24 bc 7c 34 09 bc
       -0.012776653 0.0009807496 -0.010047691 -0.00837433

network_body._body_endoder.seq_layers.0.bias f4 [128]
000000 d8 f3 6c bc 6a cc 67 bc 5f 7f 9e 39 00 f6 52 bc
       -0.014462434 -0.014147857 0.00030231007 -0.012876034
000010 1d ce 9f bc 8a 6f 27 b8 c7 38 8b bc 3a 92 19 3b
       -0.019507462 -3.991978e-05 -0.016994847 0.0023433105
000020 fe a5 5d bc 72 ac b5 bc b5 a8 b1 3b e7 3e 24 bc
       -0.013528345 -0.022176955 0.005421723 -0.010024763
000030 c9 96 a8 bc 67 6b 22 3c 28 47 4d 3c a0 5f a4 bc
       -0.020579712 0.009913302 0.012529172 -0.020065129
000040 2c c0 6c bc 5b 3d 72 bc c9 d6 18 ba 2f ec 0e bc
       -0.014450114 -0.014785136 -0.00058303453 -0.008723303
000050 ab 6f 24 3a fd 35 0f bd 85 3d 98 bc e6 a8 20 bb
       0.00062727433 -0.034963597 -0.018584022 -0.0024514734
000060 ad a2 31 bd 48 15 8a 3b ff ce 03 3b bc e3 ef 39
       -0.04336803 0.0042139627 0.0020112393 0.00045755308
000070 40 fc f4 39 63 56 e0 bc af 19 c5 bb bb df 8e bb
       0.00046727248 -0.027384942 -0.0060150246 -0.004360167
000080 cc 1a 25 bc f7 37 8c 3c 9b 31 fe bb 1e 53 c9 bc
       -0.01007719 0.01711653 -0.0077573783 -0.024575766
000090 52 13 00 ba 22 91 70 39 cc f4 78 b8 9a e3 15 3b
       -0.00048856915 0.0002294225 -5.9355792e-05 0.0022871257
0000a0 b6 65 81 bc 1c 7e 88 bc f9 8b 94 bc 35 97 ee 3b
       -0.01579557 -0.016661696 -0.01813315 0.007281209
0000b0 bd 18 8e bc 5b a9 90 bc 32 98 3f bc cc 41 21 bc
       -0.01734578 -0.01765888 -0.011694001 -0.009842347
0000c0 92 65 14 bb 38 a3 1b 3b de c6 83 3a a3 4d 87 bc
       -0.0022643548 0.002374841 0.0010053774 -0.016516512
0000d0 16 8d 84 bc cd 71 d1 3b 3c be 21 bc a2 e4 94 bc
       -0.016180556 0.00639174 -0.009872016 -0.018175427
0000e0 35 0d b2 bb 37 ba 1f bc 9a f5 1a bb 3d a0 94 bc
       -0.0054337033 -0.009748987 -0.0023644925 -0.018142814
0000f0 81 ff b2 bb 8b 6d b3 3b b0 f0 3e bb 07 fc 89 bc
       -0.0054625873 0.005475705 -0.002913516 -0.016843809
000100 64 7b 27 bb 21 0c 97 bc 1e c9 43 bc ae ff e8 bb
       -0.0025555724 -0.0184384 -0.011949806 -0.0071105575
000110 0e b0 cc ba e4 43 a8 bc 38 44 e0 3b b7 3c e1 bb
       -0.0015616433 -0.020540185 0.00684407 -0.006873693
000120 8b 0e ba 3a 2a 3a b3 bb 25 27 dc bb 60 6f 32 3c
       0.0014195008 -0.00546958 -0.0067185336 0.010890812
000130 26 03 50 bc 93 25 12 bd 12 cb 18 3b 20 50 c3 bb
       -0.012696063 -0.035680365 0.0023314399 -0.0059604794
000140 e3 c8 81 3c 8d cf 05 bc 35 b9 1a bc ad 7e b0 3b
       0.01584286 -0.00816716 -0.009443571 0.0053861947
000150 a4 c5 b5 bc 11 61 25 bc e1 2d 24 3c 4e 9b 08 bd
       -0.022188969 -0.010093943 0.010020704 -0.033351235
000160 f9 0d ee bc 4d 8e 04 3c 29 4b a4 bc 10 9d 03 3c
       -0.029059397 0.008090568 -0.02005537 0.008033052
000170 61 8a 27 3b e5 ff ac 3b 66 05 4a bc 92 e6 b3 bb
       0.0025564658 0.0052795284 -0.012330389 -0.0054901326
000180 a6 6d 4c bd 07 9e 5d 3c b5 8f 0d b8 61 3b 0a 3b
       -0.049909256 0.013526446 -3.3750857e-05 0.0021092521
000190 ce 20 10 3c 63 a4 2a bc 84 bb 70 3b df b4 0e 3b
       0.008796884 -0.010415169 0.0036732862 0.0021775288
0001a0 76 56 0b bb 6e 97 48 bb 3d 8e 31 bc e4 3d 54 bc
       -0.0021261252 -0.0030607837 -0.010837135 -0.012954209
0001b0 0a e5 a3 bc c5 46 f3 3b b4 b3 ed ba 4f 20 8d 3b
       -0.020006675 0.007424208 -0.0018135221 0.00430683
0001c0 65 91 5d bc 4c 21 4a bc 66 4f 54 bc 01 7b a7 bc
       -0.013523434 -0.01233704 -0.012958383 -0.020444395
0001d0 c1 b5 a8 bc 8e 99 f3 bb 82 62 fc 3b c9 d1 95 3b
       -0.02059448 -0.0074340766 0.0077021727 0.0045721275
0001e0 76 19 b9 bb 14 39 dc bc fa 33 39 bb d9 25 f4 bb
       -0.005648787 -0.026882686 -0.002825974 -0.007450801
0001f0 b8 f9 a2 bb 49 d1 77 3b b5 52 84 bc b6 98 a9 bb
       -0.0049736165 0.0037813953 -0.016152719 -0.0051756753

network_body._body_endoder.seq_layers.0.weight f4 [128, 43]
000000 79 0f 3a be 83 dc 7a 3d 48 d6 c9 3d 7d 42 b8 bc
       -0.18169965 0.061245453 0.09855324 -0.022492642
000010 32 36 1a 3c e7 fa 5a be 39 c4 91 be ce 96 1f 3d
       0.009412335 -0.21384774 -0.28470019 0.038962178
000020 13 81 1d 3e bb 4a 10 be 60 89 34 bd c2 33 e7 bd
       0.15381269 -0.14091007 -0.044076324 -0.11289169
000030 36 cd d6 3d b9 63 9f be 6c c2 95 be 68 1e ab be
       0.1048836 -0.3113077 -0.29249895 -0.33421636
000040 bc aa 2d bc a6 89 12 3d 21 b4 bc 3e bc 3d 53 be
       -0.010599788 0.035775803 0.36856177 -0.20629019
000050 16 2a e9 bd 01 61 89 3e 1e 10 47 3d 2d 7d 97 3d
       -0.113849804 0.2683182 0.048599355 0.07396922
000060 7a f7 59 be e5 84 f4 3b 8e e1 8c bc a3 18 bc bc
       -0.21285811 0.0074621313 -0.017197397 -0.022960966
000070 0c 86 ef 3e d7 eb 4a 3e a4 90 d0 bd 3b e3 af 3c
       0.46781957 0.19816528 -0.10183838 0.021470657
000080 24 6b 8b 3e 1c 1c 2a bd f8 2c c5 bc 26 01 56 3d
       0.2723018 -0.041530713 -0.024069294 0.05224719
000090 18 9a 99 3e ab 4e 3f bb 20 a8 08 3d 26 84 0a bd
       0.30000377 -0.0029191177 0.03336346 -0.033817433
0000a0 14 7c 9c bd 4b ea 09 bd a4 ab 3c 3e 47 04 8a 3d
       -0.076408535 -0.033670705 0.1842485 0.06739097
0000b0 30 10 ca bc 5e 43 a6 be a5 57 1b 3e cb eb b5 bd
       -0.024665922 -0.32473272 0.15170152 -0.088828646
0000c0 3f 08 45 3e fc 24 35 be d5 85 84 be 3d f6 d7 3d
       0.19241427 -0.1768989 -0.25883356 0.10545013
0000d0 36 c7 85 bd 53 3e ab be 8e 52 7c 3d 93 56 84 3c
       -0.06532137 -0.33445987 0.061602168 0.016154563
0000e0 56 01 4a be cc 82 83 be 4e 95 ae 3d 92 d5 b0 3b
       -0.19727072 -0.25685728 0.08524571 0.0053965533
0000f0 29 9b bf 3c ad a6 36 3e 3a c5 54 bd dc 59 f4 bd
       0.023389416 0.1783702 -0.051945902 -0.11931202
000100 07 89 53 3c fb 5d 23 bd 0c f0 7c 3d 31 ee 86 bd
       0.012911088 -0.03988455 0.061752364 -0.065884
000110 35 1c 13 3c 7e 06 71 3e 97 9c eb 3d 88 28 84 bc
       0.008978893 0.23537633 0.115044765 -0.016132608
000120 16 39 3e be ee 33 82 3d 2c d7 a2 3c 97 63 57 3d
       -0.18576464 0.06357561 0.019877993 0.05258521
000130 7e da f5 3d 4c b0 ba 3e 50 81 0c be c1 47 2a 3e
       0.12004565 0.3646263 -0.13721204 0.16628934
000140 42 24 bb 3d 15 3b cf bd d8 5f 8e 3d 0a f6 bb bb
       0.09137775 -0.10118691 0.069518745 -0.0057361173
000150 02 44 6f 3d 9f ee 9b be 5d d9 a7 bc 18 36 0d 3e
       0.058414467 -0.3045549 -0.02048939 0.13790166
000160 30 bd e4 bd 25 95 d9 3c c8 12 98 3c 43 6e cd bd
       -0.11168897 0.026560375 0.018563643 -0.100307964
000170 be cc 20 be 08 e8 55 be a3 c8 3f 3e 30 7d 85 be
       -0.15703103 -0.20889294 0.1872888 -0.26072073
000180 ef a5 c3 3d b7 bc 9b be db 33 f6 3d 6c 63 e2 bd
       0.09553134 -0.30417415 0.120216094 -0.110541195
000190 54 91 a6 3c 37 87 0a 3e a6 39 86 3e 40 91 12 3c
       0.02033297 0.13528143 0.26215857 0.008945763
0001a0 ee 20 95 3c b2 28 04 3d 10 90 ea 3d 9c 75 13 be
       0.018204179 0.032265373 0.11453259 -0.14400333
0001b0 15 53 25 be e6 4c 52 3e c7 52 25 be c4 8c e4 3d
       -0.16144975 0.20537147 -0.16144858 0.111596614
0001c0 db 59 77 be 42 33 32 bd 42 5d bc 3c 9a 92 8e 3e
       -0.24155371 -0.043505915 0.022993688 0.27846223
0001d0 7b 35 5a be 77 a6 5e 3e 93 f6 ec 3d 92 1a a1 bd
       -0.21309464 0.21743189 0.11570468 -0.07866396
0001e0 4b ac 98 3e 52 0c a4 bd c6 6b 8b be 06 9f 4d 3c
       0.2981895 -0.080101624 -0.27230662 0.012550121
0001f0 bd 26 c3 be 7d e0 45 3d 1b b6 1e be 1e f5 9e 3c
       -0.38115492 0.04830979 -0.15499155 0.01940399
000200 8c 79 71 3e 81 7f 5b 3e 51 c3 76 3d cd f9 0b bd
       0.23581523 0.21435358 0.060244862 -0.034173775
000210 ec a6 db bd 36 7e 01 be dc 57 0e 3e df 8b 93 bd
       -0.10725197 -0.12645802 0.13900703 -0.07204413
000220 0c d2 dd bc ce c3 ca 3d f4 0f 68 bd a6 09 8c 3d
       -0.027077697 0.09900628 -0.05665584 0.06837778
000230 ce 9d cc bd f6 c5 35 be ce dd 94 bd 38 57 35 be
       -0.09991036 -0.17751297 -0.072688684 -0.17709053
000240 60 36 bc 3d b7 89 44 3e f5 b3 a0 3e 3d 87 4f 3d
       0.09190059 0.19193159 0.31387296 0.050666083
000250 13 a1 d0 bd 2b c6 7f 3d 35 57 13 be d0 90 fc 3d
       -0.101869725 0.062444847 -0.14388736 0.12332308
000260 b8 f0 cd bb 99 0c 31 be d0 95 29 bc 76 be 94 3e
       -0.0062847994 -0.17289962 -0.0103506595 0.2905156
000270 36 8c be 3d 92 51 57 bd 38 61 c8 3d 22 10 8c 3e
       0.09304087 -0.052568026 0.09784168 0.27356058
000280 6f 3b 49 be 5b 70 27 3e ad 4c d2 bc 19 14 e9 3e
       -0.19651578 0.16351454 -0.025671327 0.45523146
000290 57 c0 14 be 5a ff de bd a7 63 f0 bd 9b 5a 24 be
       -0.14526497 -0.10888548 -0.11737757 -0.16050188
0002a0 ea d0 e1 3d e3 9c 9e 3d fc 07 c7 3d f7 51 00 3e
       0.11026175 0.077447675 0.0971832 0.12531267
0002b0 62 99 ac 3c 2d 30 8f be 6d a0 46 be ea ef ad 3d
       0.021069232 -0.27966443 -0.19397135 0.084930256
0002c0 9d 34 9e bd 50 d2 cb bc db a4 f5 bd 2f 89 f0 3c
       -0.07724879 -0.024880558 -0.11994334 0.02936229
0002d0 19 f9 92 be df 4b 04 3e ba 4a c9 bd 4b 43 41 be
       -0.2870567 0.12919568 -0.09828706 -0.18873326
0002e0 0f d8 e6 bd 9a 1e 08 3e 0e 6f db 3d 19 f8 c3 bd
       -0.11271679 0.13292924 0.107145414 -0.09568805
0002f0 c5 29 01 bc a1 ee 9d bd ab 00 85 bd e0 44 b0 bd
       -0.007883494 -0.077115305 -0.06494268 -0.08606887
000300 00 e6 41 3e 02 c2 23 3b 3c 29 c5 bd 5e 63 3a bd
       0.18935394 0.0024987464 -0.096270055 -0.04550492
000310 36 e6 65 3e 8b e1 1c 3d 23 aa f9 3d fa 11 85 3d
       0.224511 0.038301032 0.12190654 0.064975694
000320 66 38 36 3e 92 50 05 be 0e 61 cb 3c 4d 72 08 bc
       0.17794952 -0.13019016 0.024826553 -0.008328033
000330 1b d8 5a 3e 1b 6d 2e bd 82 eb a6 bd a5 da cb 3c
       0.213715 -0.04258452 -0.08150388 0.024884531
000340 3c 1c e7 bc 0b 2c 80 3e 0c 13 1a bc 3c e7 44 3e
       -0.028211705 0.25033602 -0.009403955 0.19228834
000350 b0 ee 91 3c 55 ac 88 bd 9f 95 2e 3e 8b 21 93 be
       0.01781401 -0.06673495 0.17049263 -0.2873653
000360 9b aa a8 3c bc f5 ab bd d0 e3 32 bd 9c 3e ab 3c
       0.020589164 -0.083964795 -0.04367429 0.020903878
000370 50 4c 39 be d2 33 87 be a4 ba 2d 3d 3a ef 56 be
       -0.18095517 -0.26406723 0.042414322 -0.20989695
000380 15 9b ac 3d 16 4c c2 bd e8 da 2f be 4a 72 d1 3d
       0.08428017 -0.094871685 -0.1717335 0.10226877
000390 9f e7 c2 bd 2a 3e 5a bd b9 48 4f be 60 e6 0b be
       -0.095168345 -0.05328194 -0.20242585 -0.136621
0003a0 fe 56 c6 3d 3b bc 59 3e 69 1c b4 be 5c 57 b9 bc
       0.09684561 0.2126321 -0.35177925 -0.022624664
0003b0 fd 1c 3f bd dc 4d 83 3d 18 69 39 3e be 17 0d 3e
       -0.046658505 0.06411335 0.18106496 0.13778588
0003c0 c3 b9 43 3d 7b 60 d8 bd 1f a7 2c 3d d1 20 90 3e
       0.047784578 -0.10565277 0.042151567 0.28150037
0003d0 41 d8 b2 bd 09 19 09 be 59 1b 51 be 4e 1c 09 bd
       -0.087326534 -0.13388456 -0.20420589 -0.03347426
0003e0 5d 6e 62 3e e0 7b 04 be 88 0b 71 3e 40 e1 2b 3d
       0.22112413 -0.1293788 0.23539555 0.041962862
0003f0 47 5d ba be b2 01 ac bd 32 67 7e 3e a3 16 16 be
       -0.3639929 -0.08398761 0.24844053 -0.14657073

network_body._body_endoder.seq_layers.2.bias f4 [128]
000000 71 0d 94 3a 1c a0 b7 37 1e 59 7b 3c f1 3b e4 bb
       0.001129551 2.1889857e-05 0.015341071 -0.0069651534
000010 e1 4e 78 bc ec f1 03 bc 1e 2a 6f 3a b1 0e 5f bb
       -0.015155525 -0.008053284 0.00091234024 -0.0034035856
000020 83 1d 83 bc 61 8a 00 bc 0b 23 0a bc 6b a2 50 3c
       -0.016005283 -0.007845492 -0.008431206 0.012734036
000030 47 5c 77 bb b3 a2 08 3c bb ea 6d bc db 9b 91 bb
       -0.003774421 0.008339572 -0.014521296 -0.0044436282
000040 eb 96 02 3c 5d 1c 8a bb 65 9c 38 bc 81 dd 54 bc
       0.007970552 -0.004214807 -0.011267756 -0.012992264
000050 93 97 11 bc 59 99 f8 ba 12 d0 c6 bc 7c 77 66 ba
       -0.008886236 -0.00189666 -0.024269138 -0.0008791608
000060 ee c3 a7 3b 51 f4 41 bc 7b 20 61 bc 23 2a a4 bc
       0.005119792 -0.011838035 -0.013740654 -0.020039624
000070 bf 49 c5 bb 6b ba 9c 3a 8f 3d 30 bc 91 c7 e5 bb
       -0.006020754 0.0011957412 -0.010756864 -0.0070123156
000080 3f ce 5a 3a 85 6e df bb 65 24 94 bc cb f1 b7 38
       0.0008346773 -0.006818595 -0.01808376 8.7711574e-05
000090 f2 70 97 bb e1 53 b5 bc 0c d9 66 3b b3 4b 29 bc
       -0.0046216184 -0.022134723 0.0035224585 -0.0103329895
0000a0 1e 17 07 bc 82 3b 68 b9 2d f0 3c bb cf 3f 4c bc
       -0.008245258 -0.00022147413 -0.002882968 -0.012466385
0000b0 98 d0 24 bc c1 07 dd bc 59 3f 98 ba b9 12 71 3c
       -0.010059498 -0.026981236 -0.0011615559 0.0147139365
0000c0 94 48 f8 b9 df 87 a3 bb 7f 62 16 bc c7 16 34 bc
       -0.0004735632 -0.0049905623 -0.009178757 -0.010991759
0000d0 c8 7e 88 bc d7 cd 60 bc b8 52 81 bc d8 c3 13 3c
       -0.016662017 -0.013720951 -0.015786514 0.009018861
0000e0 4f 13 88 bb 76 1d 44 bb d3 ca a6 bc 04 df 2f 3c
       -0.0041526924 -0.0029924787 -0.020360386 0.010734323
0000f0 fd 6f 18 bc 68 a0 b5 3b 1e b0 fb 3b e9 93 94 bc
       -0.009304044 0.0055428036 0.007680907 -0.018136935
000100 dd 36 94 bc cc 77 84 bc 55 f7 b0 bb c4 2a 15 bc
       -0.018092567 -0.016170405 -0.005400578 -0.009104434
000110 a5 93 ad bc c2 4a d0 ba 16 66 b1 3b dd e5 63 bc
       -0.021188566 -0.001589142 0.005413781 -0.013909784
000120 fd d2 fc 3b b0 48 cf ba ea be 1e 3b 87 6e bd bb
       0.0077155815 -0.0015814509 0.002422268 -0.005780998
000130 24 88 21 b9 bc 0b 60 bc ed 01 17 bc 8c a5 0c bc
       -0.00015404873 -0.013674673 -0.009216768 -0.008584391
000140 a2 06 7b bc 06 9b 4e 3c e6 be d2 bc 54 89 fa 3a
       -0.015321406 0.012610203 -0.025725793 0.0019114413
000150 0f f1 4b 3a bc 31 51 3c ca 94 d8 3b 50 d4 1b bc
       0.0007779756 0.012768205 0.006609534 -0.009511068
000160 f3 ce 96 bc 9f 27 d5 ba 7a bc 1b 38 96 c5 ac bc
       -0.018409228 -0.0016262418 3.7130412e-05 -0.02109031
000170 9b a4 c4 bb e1 0a 6b 3b 63 e0 1b ba 9a e7 f9 bb
       -0.006001068 0.0035864639 -0.0005946217 -0.007626486
000180 e7 b7 b5 3b fd 39 03 bb 51 b1 6e bc e9 1e 64 bc
       0.0055456045 -0.0020023577 -0.014568643 -0.013923385
000190 77 3d db ba 8b 55 8f bb 1a 66 8d 3a 9b 68 fe 3b
       -0.0016726692 -0.004374211 0.0010787875 0.007763935
0001a0 dd 7a 7e ba fa 4c 18 3c b8 ac 1e bc 81 be 37 bc
       -0.0009707639 0.009295696 -0.009684734 -0.011214853
0001b0 0a 6b c8 bc ce f0 aa bc 0f 88 02 3c 02 33 72 3b
       -0.024465103 -0.020866778 0.007967009 0.0036956673
0001c0 2e b8 0e 3c 9e c7 11 bc d3 09 80 bc ba 27 6b bb
       0.008710904 -0.00889769 -0.015629685 -0.0035881833
0001d0 5d 8e f8 bb cb 77 aa bc cc 94 70 bc 69 39 5e bc
       -0.0075853304 -0.020809075 -0.014683913 -0.013563492
0001e0 62 aa 06 bc ca 47 34 3c 8f 0b a3 3b 30 a9 9b bc
       -0.008219333 0.011003444 0.004975743 -0.019001573
0001f0 24 5c 0f 3c 8b 18 ca bc 72 d5 7e bb cd 1f 4e bc
       0.008749995 -0.024669906 -0.0038884548 -0.012580824

network_body._body_endoder.seq_layers.2.weight f4 [128, 128]
000000 61 26 ef bd fa 99 36 bd 89 34 0b bc 4d 32 3c bc
       -0.11677242 -0.044580437 -0.008496412 -0.011486602
000010 87 74 92 3d 32 40 7b bd d1 2b f3 bc a6 f2 43 3d
       0.07151132 -0.06134052 -0.02968398 0.04783883
000020 e6 9d ed bd f1 9a 13 3d c3 d7 bf bd 0d 87 56 3d
       -0.11602382 0.036036436 -0.09367325 0.05237489
000030 38 25 35 bc 5c 2f 19 be 50 0a 14 be 9d ea 2d 3d
       -0.011056237 -0.14959472 -0.14457059 0.042460073
000040 45 8d 15 3c bb 6e d5 3d 5e 06 63 3d d8 78 bf bc
       0.00912792 0.10421511 0.055425994 -0.023373052
000050 3c ab 88 3d c9 13 dd 3c c7 42 fe 3d b6 89 68 bc
       0.06673285 0.026986973 0.124150805 -0.014192989
000060 65 61 30 3c 76 9f 24 3e cc 46 67 bd ce 9c 24 bd
       0.010765408 0.16076455 -0.056464 -0.040188603
000070 99 c0 5e be 3f ce af 3d db ae f8 3d 04 c8 6f ba
       -0.21753158 0.0858426 0.12142726 -0.0009146931
000080 cd 2f dc bd 6e 20 bd bc 71 1d 30 be ce 9a d7 3d
       -0.10751305 -0.023086753 -0.17198731 0.105275735
000090 38 a3 b4 3d 28 55 77 3b c4 1e 85 be 91 fe a2 3b
       0.08820194 0.0037739966 -0.26000035 0.0049741943
0000a0 ac 28 52 3d 99 bc 05 bd 21 ae bb bc 71 0b c6 3d
       0.05130832 -0.032650564 -0.02291018 0.09670151
0000b0 4e 8e ef bc 33 bc 06 be ca 3b 0f be 28 ab 46 3e
       -0.02924266 -0.1315773 -0.13987651 0.19401228
0000c0 b1 2e 96 3d 0f 93 ef bc bc 11 1e bd 8b 6e ba 3d
       0.073331244 -0.029244928 -0.03859113 0.09103116
0000d0 fc b1 11 3d 00 c9 dd bc 55 e7 38 3e 63 0d be bd
       0.03557013 -0.027073383 0.18056996 -0.09279897
0000e0 65 f9 30 3e e2 92 c8 3d 91 11 ff 3d c8 5e 85 3d
       0.17282636 0.09793641 0.124545224 0.06512219
0000f0 d2 b6 60 3d 8d f0 0a be cd 22 7a 3d d7 ff d5 3c
       0.05486185 -0.13568325 0.061068345 0.02612297
000100 b2 02 b7 bd 92 a3 95 bb b7 a9 73 bd ce c8 93 3d
       -0.08936061 -0.0045666182 -0.059488025 0.07216035
000110 54 f4 02 3d 8a e3 3c 3a cf c0 6e 3c c2 45 45 3c
       0.03197129 0.0007205537 0.014572336 0.012040557
000120 d1 f3 7b be 71 99 80 3e be a4 23 3e e4 70 9a bd
       -0.24604727 0.25117067 0.15980813 -0.075410634
000130 ed f9 2c bd 9b ce 83 3d 45 a0 1b be 12 18 03 3e
       -0.042230535 0.06435891 -0.15197857 0.12802151
000140 b6 83 f6 3d d8 f2 27 3e a0 51 42 bc 1d a1 bb 3c
       0.120368406 0.16401231 -0.011860281 0.022903973
000150 92 7b f4 3d 58 15 16 bd c8 a0 a1 bd 5c 16 ec 39
       0.11937632 -0.03664145 -0.07891995 0.00045030087
000160 e4 6f 7e 3c 40 23 0d 3d 6b 1d 6b 3d eb 78 0a 3e
       0.0155296065 0.034457445 0.057401102 0.13522689
000170 0c 05 a1 bd 9e 34 31 3d ba 90 4a bd e6 db 95 bc
       -0.07862291 0.04326307 -0.04945443 -0.018293332
000180 3b b3 9c 3d be e6 88 bc 9e 54 f1 bc 48 dd 39 bb
       0.07651373 -0.016711589 -0.029459294 -0.0028360654
000190 3c 1f ab 3d cb ca b8 3c 7c 94 1e be e1 9e dc bb
       0.08355567 0.022557637 -0.1548633 -0.006732807
0001a0 29 c2 90 bb ce 80 d1 bd 1a 46 f5 bd 33 6b ae bd
       -0.004417677 -0.10229646 -0.119762614 -0.085165404
0001b0 bb 66 5b 3d 84 df 57 bd 57 a9 85 3d a8 4d ad bc
       0.05356477 -0.052703395 0.0652644 -0.021155193
0001c0 ea 61 b8 3d af 60 12 be 3c eb 3e be ee f1 7f 3d
       0.090030506 -0.14294694 -0.18644422 0.06248658
0001d0 d5 d5 03 3e 12 98 8c bd f2 ca ba 3d 95 85 f1 bd
       0.12874539 -0.068649426 0.0912074 -0.11793057
0001e0 6c 0a 13 3e d3 0c 8e bc b6 fb 2b 3d d1 2d 3c be
       0.14359444 -0.0173401 0.041988097 -0.18376853
0001f0 f3 9d 07 bd e4 8b 12 bd b4 51 a9 bc 43 8e fa bd
       -0.033109616 -0.03577794 -0.020668842 -0.122341655
000200 fa a0 29 3e 46 31 6f bc 55 5f 36 3e 93 1e bc bb
       0.16565314 -0.01459915 0.17809804 -0.0057409494
000210 97 d3 03 be 4a 6a 9f bd 41 27 83 3d aa 53 88 3b
       -0.12873684 -0.07783945 0.064039715 0.004160364
000220 23 b2 15 3e a5 a1 e7 3d 5b 24 cc bd 2a 09 65 bd
       0.14618735 0.11310128 -0.09967872 -0.055916943
000230 46 2e 12 3e 43 bb 39 3d be c4 72 3c 1a bd e7 bd
       0.14275464 0.045344602 0.014817415 -0.11315365
000240 d6 f4 94 3d 7a e9 b0 3c 22 1b 47 bd 0b c8 7f 3d
       0.07273261 0.021595705 -0.04860986 0.062446635
000250 46 b8 35 3d 6a da 53 be 70 13 ce 3d 7f 3c 03 3e
       0.04436519 -0.20688787 0.10062301 0.12816046
000260 30 ba 00 be af e8 f2 bd 7a 10 33 bc 54 8d 6a 3d
       -0.12571025 -0.11860787 -0.010929221 0.057263687
000270 a5 c6 23 be e4 ae de 3c c1 0b 37 3d 28 87 c4 3c
       -0.15993746 0.027183004 0.044688944 0.023990229
000280 ef e0 2a 3e a6 e2 ec 3b ba dd a3 bd f1 78 0f be
       0.16687368 0.007229167 -0.08001275 -0.14010979
000290 b1 2e 38 bd 8e e3 d3 bb f7 e2 27 bc 47 02 cf 3d
       -0.044966403 -0.0064663356 -0.010246984 0.10107856
0002a0 08 22 d7 bc d6 b8 ab 3d 3a 1c 53 3d 53 b8 52 be
       -0.026261345 0.08384864 0.05154059 -0.20578127
0002b0 8d 4c 59 bd 08 8f 68 3c 75 a1 b3 3d 44 58 19 3e
       -0.05305152 0.014194258 0.0877103 0.14975077
0002c0 84 72 05 bd b0 82 ac 3d 59 8f 17 3c ae 20 af 3c
       -0.032579914 0.08423364 0.009250485 0.021377888
0002d0 72 bb c6 bd 07 3b 16 be 0c 35 cf bc c5 21 e7 b9
       -0.09703721 -0.14670955 -0.02529385 -0.00044084914
0002e0 e6 c1 26 3b 75 54 ee 3d de d1 2d 3d 84 9e 1d 3d
       0.0025445162 0.11637203 0.042436473 0.03848125
0002f0 f0 37 2f 3e eb 73 9c bd 11 59 00 bd 60 9a fb bd
       0.17111182 -0.07639297 -0.03133494 -0.12285304
000300 c8 5b 7f 3c 9f d8 98 3b 56 f7 01 be 42 a2 ca bd
       0.015585847 0.004664495 -0.12692007 -0.098942295
000310 3c 69 da 3c 17 7e 80 bc 1d 00 85 3b 2e 9c f2 3c
       0.026661508 -0.015685124 0.0040588514 0.029615488
000320 7d 6b cf bc 90 0a 9b bd 57 88 87 bd 4b 1c db 3d
       -0.02531981 -0.07570374 -0.06617802 0.10698756
000330 87 28 25 be 4b fb 7c bd 12 e4 6d 3d 1d a5 20 3d
       -0.16128741 -0.06176309 0.058078833 0.039219964
000340 1b 20 1a 3c 14 97 be bd 5b 1b 96 3d ac 41 37 bd
       0.009407069 -0.093061596 0.073294364 -0.044740364
000350 2a e8 0f 3d 5e 14 07 3d 14 b4 19 3c 8e 0c 4e 3e
       0.03513352 0.032978408 0.009381313 0.20121977
000360 a5 5e 66 bd 1b b1 fc 3c 5b 04 98 3c 76 4a 05 3d
       -0.056242604 0.03084617 0.018556764 0.032541715
000370 ee 7d e4 3c 48 f9 a4 bd 41 fc 1b bd 77 42 99 3c
       0.02789208 -0.08055359 -0.038082365 0.01870845
000380 b0 bd 91 3d db d6 73 3b 63 fd c8 3d cf 70 10 3d
       0.07116258 0.0037206921 0.09813955 0.035263833
000390 f3 43 83 3d 65 e1 30 bc 13 ad d6 3d 2a e6 e9 3c
       0.06409445 -0.010795926 0.1048223 0.028552134
0003a0 2d 93 c6 bd 83 df 3e 3c 4c 49 b3 3c 5c 9d 76 3d
       -0.0969604 0.011649969 0.021885537 0.060208663
0003b0 65 57 b1 bc cb d8 c2 bd 31 ed 63 3e 5b 2f ad bd
       -0.021648118 -0.09514006 0.2225845 -0.08456298
0003c0 20 21 b8 3d 71 1c 93 3b e4 fe 29 be 9e 9f 3d 3e
       0.08990693 0.0044894745 -0.1660114 0.1851792
0003d0 ca 50 ea bd e6 b6 25 3d 10 06 1d be 3b ba b9 3d
       -0.114411905 0.04045763 -0.15334344 0.09068724
0003e0 c8 18 b3 3d 1d 9a 7c bd 32 75 f5 bb 1b 20 37 3e
       0.08744961 -0.06167041 -0.0074907774 0.17883341
0003f0 a8 ff d6 bc b0 13 a8 3d 75 f5 8c bd 0d f7 87 3d
       -0.026244953 0.0820688 -0.06882755 0.06638918
