results/imitationlearningf/RaceCar/RaceCar-511928.pt (torch, 594095 bytes, 47 tensors)

network_body._body_endoder.seq_layers.0.weight f4 [128, 27]
000000 42 81 27 3f 5a 30 0f 3e 49 38 fd 3e 9a 2f a1 be
       0.65431607 0.13983288 0.49457005 -0.3148163
000010 2c dc 59 3e 57 b8 64 be 65 d1 b9 3e f0 7e 3f be
       0.21275395 -0.22335945 0.36292568 -0.18700767
000020 7a 25 77 3e 47 89 94 bd 5e c5 aa 3e 90 b3 32 3e
       0.2413539 -0.07252746 0.33353704 0.1745131
000030 fd 2a c5 3e 0c 10 d0 3e 76 47 41 bc 21 66 14 bf
       0.3850936 0.40637243 -0.011796823 -0.57968336
000040 f0 fd 25 be fb 92 bd 3a 64 0e 58 3e 0b 4b fd 3c
       -0.1621015 0.0014463359 0.2109924 0.030919572
000050 81 f3 06 3e 3d 4b 75 3e e3 86 a3 3e 52 0b dc 3c
       0.13178827 0.23954482 0.31938848 0.026860867
000060 6e 7d 78 3d e3 fc 94 3e 76 2f 87 3e 02 e7 f7 be
       0.060666494 0.29099187 0.26403397 -0.48418432
000070 7d 59 66 be ae 24 32 be e2 51 05 3f 10 2e b5 bc
       -0.22495075 -0.17396805 0.5207807 -0.02211669
000080 5f 45 83 be b9 69 27 3e 3a 8e c2 be 4f e2 73 3e
       -0.25638863 0.16348924 -0.37999135 0.23816799
000090 2a aa e4 3d 9e dd 84 3e b5 98 2c 3e 96 0d 0d 3d
       0.11165269 0.2595033 0.16855128 0.034436785
0000a0 29 aa ad bd 0b 9b 03 bf 0e 99 9c be b9 71 d8 bd
       -0.08479721 -0.5140845 -0.3058552 -0.10568566
0000b0 1f 07 3f be ae 0c 36 3d 1b f3 71 3e d8 82 9f bc
       -0.1865506 0.044445686 0.23627894 -0.01947157
0000c0 c1 cb cd 3e f3 a8 18 3e 87 2f 64 3e d3 e8 00 3f
       0.40194514 0.14908199 0.22283755 0.5035526
0000d0 6e c8 70 3e 40 18 32 bd b1 9c db 3e c0 16 0f 3f
       0.23513958 -0.043480158 0.42892984 0.5589409
0000e0 d0 5c bb 3f a8 c7 33 3f 99 8f bf 3e 25 ea 51 3d
       1.4637699 0.70226526 0.37414244 0.05124869
0000f0 71 e1 5d 3f 23 c7 22 3f 71 e0 1e 3e 66 77 15 3f
       0.8667212 0.6358511 0.15515305 0.5838531
000100 a3 d3 89 3e c0 d4 13 3f f5 3c 73 3e ba 12 3f 3f
       0.26919279 0.57746506 0.23753722 0.7463795
000110 5a 29 21 be 57 27 ce 3d 57 51 bf bd fa 46 26 3d
       -0.1573843 0.10066097 -0.09341686 0.040595032
000120 9e 90 9b bc 00 cf 00 bf a9 a9 3f 3f c6 ad 12 be
       -0.018989857 -0.50315857 0.74868256 -0.14324102
000130 67 70 8d be 9a 59 cd bd 1a bd 2d 3e b1 fd a7 3e
       -0.2762482 -0.10026856 0.16966668 0.3281074
000140 40 99 d5 3e d5 9f 2b 3e 20 d4 08 be f3 76 a9 bd
       0.41718483 0.1676019 -0.1336217 -0.08274641
000150 99 a2 8e 3e 8f cb 26 3d 32 1d 66 3d 08 61 89 3d
       0.27858427 0.040721472 0.056180187 0.0670796
000160 98 b1 81 3e 5b 91 1b 3c a8 29 cc bd 69 d8 fa 3b
       0.25330806 0.009495105 -0.09968883 0.0076551926
000170 38 01 40 bd 23 9a 71 3d c7 1e c4 bc c7 c1 f5 bc
       -0.046876162 0.058984887 -0.023940457 -0.029999627
000180 54 05 a9 be 7d 5a 40 3e 45 28 33 3e 0e bb 29 3e
       -0.33011878 0.18784519 0.1749583 0.16575262
000190 97 1c ba 3c af 34 c2 3d c4 33 42 be 07 c8 c1 3e
       0.02271871 0.09482705 -0.1896506 0.3784792
0001a0 71 e5 b2 bc fa 7b be 3d 96 24 14 be a5 de 97 be
       -0.021837922 0.093009904 -0.14467081 -0.29662052
0001b0 05 0a 3a bf 94 12 87 bf b8 fb cf bf 70 7c 57 bf
       -0.7267154 -1.0552545 -1.6248693 -0.8417425
0001c0 36 f7 88 bf 05 b2 fb be 10 c2 a9 bf 73 13 24 bf
       -1.0700443 -0.49159256 -1.3262348 -0.6409218
0001d0 fb a6 7d 3e 6f b9 1f bf 69 c8 19 bf 89 4c 40 bf
       0.24770729 -0.62392324 -0.60071427 -0.75116783
0001e0 95 9f 7f bd 71 25 59 bf 3f 8f 85 be ce d5 92 3e
       -0.06240805 -0.84822756 -0.2608585 0.28678745
0001f0 61 fc 42 bc 68 92 a4 be e9 da 8e 3e 25 83 18 3f
       -0.011900992 -0.3214295 0.2790139 0.5957511
000200 09 b9 f1 bf 93 a2 34 3e 04 75 54 3e 41 cf 24 be
       -1.8884593 0.17640142 0.20747763 -0.16094686
000210 86 28 9b be 75 3f 81 3c b3 a4 58 3e a8 bb db 3e
       -0.30304354 0.015777329 0.21156578 0.42916608
000220 fa ae 2a 3e d7 ac 88 3f 14 34 31 3d 8d 19 fa 3d
       0.16668311 1.0677747 0.043262556 0.12211905
000230 97 10 57 3e d1 64 2d 3f bd 80 77 be 71 eb d2 be
       0.21002422 0.6773196 -0.24170204 -0.41195253
000240 5e 63 82 3e 92 1a 6c 3f 67 4e 45 3e d9 dc 3d 3f
       0.25466436 0.92228043 0.1926819 0.7416511
000250 2a 7c 86 3e e3 91 c6 bc 8d ef 81 3d 1d 22 56 bd
       0.26266605 -0.024239486 0.06344519 -0.052278627
000260 d5 75 47 3e 22 49 e5 bc 20 7c 3d bd 5a a3 d2 3e
       0.19478543 -0.027988974 -0.046260953 0.41140252
000270 e3 8e 94 bd ef f3 7e be c6 27 58 3e 5d 36 ab be
       -0.07253816 -0.24897741 0.21108922 -0.33439913
000280 3c 48 e2 3e e9 7c 8c 3e 4b 2d cf 3e c7 6b 70 be
       0.44195735 0.2743905 0.40464243 -0.23478614
000290 b8 82 1d bf 63 5b 92 be 72 d4 12 bf 46 77 ad be
       -0.61527586 -0.28585348 -0.57355416 -0.3388006
0002a0 f2 9f cb bd 9a 3d 43 bf 36 d0 cd bf a0 2d cb be
       -0.099426165 -0.7626587 -1.6079166 -0.39683247
0002b0 e7 b2 f4 3e e3 9e 82 bd 17 99 0d 3f e6 fe ba bd
       0.47792742 -0.063779615 0.5531172 -0.09130649
0002c0 ad a1 73 3e 9d ad 17 be 7e f6 0a bd 75 52 54 3f
       0.23792143 -0.14812322 -0.03392648 0.8293832
0002d0 a1 08 c8 be ae 30 8e be 85 01 c5 3e 09 b1 ec be
       -0.39069083 -0.27771515 0.38477722 -0.46228817
0002e0 9c ba b4 be 68 b6 26 3d 01 fd 63 be 1e 4a 04 3f
       -0.35298622 0.0407013 -0.22264482 0.51675594
0002f0 95 c1 ec 3e 34 39 db bd 20 6f 79 be 83 46 92 be
       0.4624144 -0.1070427 -0.24358797 -0.2856942
000300 01 85 c0 bd 4b 81 20 3f 3a 9c 63 3c c6 f6 95 bd
       -0.094003685 0.62697285 0.013892228 -0.07322459
000310 dc 42 f4 3c f5 6a 96 bd b0 0a 93 bd 28 4d 9b 3e
       0.029817037 -0.07344619 -0.07179773 0.30332303
000320 4e 23 84 be 8b 6a 89 be e1 4f ff 3d ff b5 0b 3e
       -0.25808185 -0.26839098 0.124664076 0.13643645
000330 93 4e 6f be 8f 46 ac bc 98 cc fb 3d f4 79 c3 3d
       -0.23369817 -0.021029739 0.122948825 0.09544745
000340 78 f7 8b 3d 44 c6 ea 3d 11 a5 36 be 1b 50 38 3e
       0.0683431 0.114635974 -0.17836405 0.17999308
000350 76 e4 28 be d1 e4 7b be c6 d6 1f be bf b3 31 3e
       -0.16493401 -0.24599005 -0.15609273 0.17353724
000360 ce 00 2d 3f 1d 27 0d 3e c6 2a 79 3f 12 4b 45 3e
       0.6757935 0.13784452 0.9733089 0.19266918
000370 74 c3 23 3f d0 b0 84 3e 9c c9 2b 3f b1 48 4a 3f
       0.6397011 0.25916147 0.67104506 0.7901717
000380 d7 f6 2b 3e db 2f 29 3e ad 5d 03 3f 05 d7 a6 3e
       0.1679338 0.16522162 0.5131481 0.32585922
000390 87 1c 9c 3e e2 7c a4 3e 44 bc 95 bc 04 17 fa bd
       0.30490515 0.32126528 -0.018278249 -0.12211421
0003a0 5b 06 71 3b 34 59 48 be 84 cc a3 3e e3 54 26 3f
       0.003677747 -0.19565278 0.3199197 0.64973277
0003b0 98 b1 e8 be 4e 37 ba be 2b 9a 8d bc 9d 67 d7 bd
       -0.45447993 -0.3637032 -0.017285427 -0.105178095
0003c0 ae 10 35 3e db 27 af 3e 5f 8a b3 bc 40 b9 c3 3e
       0.17682144 0.34210095 -0.021916566 0.38227272
0003d0 7e 8c 52 be a1 e9 2b be fc b8 3e be f9 eb 0f bf
       -0.20561406 -0.16788341 -0.18625253 -0.5621944
0003e0 96 4e 82 be 6a 04 84 3e 29 13 4d be 45 12 67 bf
       -0.2545058 0.25784618 -0.2002684 -0.9026225
0003f0 5c 8f 2e 3e 6d d2 63 3e 43 36 f6 be 39 b1 24 3e
       0.17046875 0.2224824 -0.48088273 0.1608323

network_body._body_endoder.seq_layers.0.bias f4 [128]
000000 68 d6 92 bd f3 7f 54 bd 00 03 7b 3e ad 51 47 3d
       -0.07169801 -0.051879834 0.24512863 0.048661876
000010 ab 18 ed be df 63 f9 3d bd 59 6f be da 9b b4 bc
       -0.46307883 0.12177252 -0.23374076 -0.022046972
000020 c7 3b 0e 3e 31 4b d7 bd f3 a8 34 3e 88 72 f7 bd
       0.13889991 -0.105123885 0.17642574 -0.12082392
000030 53 51 ca bd 14 f4 a6 3e 61 37 43 bd e6 6d a8 be
       -0.098787926 0.32608092 -0.047660235 -0.32896346
000040 1e 17 99 3d 41 f5 76 be fe 2b 0c 3d a9 ac d1 3c
       0.074751124 -0.24116994 0.03422164 0.025595026
000050 60 f4 b0 be 1f 8b 86 bd b8 8a 58 3e f6 65 e8 3d
       -0.34561443 -0.06569504 0.21146667 0.113475725
000060 cc c4 ea bd da a5 6a 3e c8 cb 84 be 83 c0 62 3d
       -0.11463317 0.2291483 -0.25936723 0.055359375
000070 a3 ee 99 3a cb e5 15 3f de 1d 0d 3e f3 0b c2 3e
       0.0011744093 0.5855376 0.13780925 0.37899742
000080 4a 16 b5 be 01 58 55 3e 5e 52 91 3d 23 3c 8d be
       -0.35368568 0.20834352 0.070957884 -0.27584943
000090 9c e5 1d 3d 4f c4 b0 3e b4 f0 b7 3d 01 31 15 bd
       0.03854905 0.34524772 0.08981457 -0.036423687
0000a0 38 a9 39 3e a5 e5 2b 3e 4e 1c 90 be 41 a4 f0 be
       0.18130958 0.16786821 -0.28146595 -0.47000316
0000b0 62 e9 dd 3d 65 e9 db 3d f5 29 f5 bc 7b 93 12 3d
       0.1083553 0.10737876 -0.029927233 0.03578518
0000c0 5a d3 e3 3d 56 34 b8 3c 20 16 90 3e c9 2b 85 3c
       0.111242965 0.022485893 0.2814188 0.01625623
0000d0 df 85 26 be 1a d9 1b 3e ae b4 bc 3e f0 85 0b bf
       -0.16262005 0.15219536 0.36856598 -0.5450125
0000e0 54 90 a7 3c 0b 2e 7c bd ce 9d 26 3e 96 13 be 3e
       0.020454563 -0.061567347 0.16271135 0.37124318
0000f0 ef 7a 5d be 74 60 92 3d 98 3e 8e be a6 b8 15 be
       -0.21628927 0.07147303 -0.2778213 -0.14621219
000100 80 5e b8 bd 5f a5 78 bd 14 82 0b be 19 40 92 bd
       -0.090023994 -0.060704585 -0.1362384 -0.07141132
000110 8b 35 eb 3e 78 e1 5f 3e 90 e3 06 3d 63 43 26 3f
       0.45939288 0.21863353 0.032931864 0.64946574
000120 ac 70 24 3d f7 5f 06 3c 26 d4 23 3e 0e 25 49 be
       0.040146515 0.008201591 0.15998897 -0.19643041
000130 b0 23 00 bd de f9 5b be ad 38 13 3e 01 ab 36 3e
       -0.031284034 -0.21482036 0.14377089 0.1783867
000140 83 cb 10 bf 0c 7e 75 be 4e be e1 3e 12 27 64 be
       -0.56560534 -0.23973864 0.44090503 -0.22280529
000150 a3 cd b6 bd 56 86 40 bb b4 60 75 3e 28 a0 15 be
       -0.08925941 -0.0029376945 0.2396267 -0.14611876
000160 c6 ad fa bd 64 5d 7f 3d ea 50 59 bd f4 42 0a 3d
       -0.12240176 0.062344924 -0.05305568 0.033755258
000170 f2 12 3d 3f 14 f2 ca be 0b 15 a4 be fc 4b eb 3d
       0.73857033 -0.39637816 -0.32047305 0.11489102
000180 87 fc 14 bd 77 c8 4c bd 05 c8 0e be 24 99 ac bd
       -0.03637364 -0.049995866 -0.13943489 -0.08427647
000190 9a 6b c7 3d 98 5b f7 3e f4 83 31 bd 0a 9a 80 3e
       0.0973732 0.48312068 -0.04333873 0.25117522
0001a0 78 89 b0 be 78 d2 21 be 60 41 cf bd 9a 26 37 bc
       -0.3447988 -0.15802944 -0.10119891 -0.011178637
0001b0 cd 49 1f bd 80 1b bd be f9 ed 48 3e 82 c6 03 be
       -0.03888874 -0.36935043 0.1962203 -0.12868693
0001c0 00 5a ce 3d ac c4 89 be 15 d7 24 be 9b 55 b0 3d
       0.1007576 -0.2690786 -0.16097672 0.08610078
0001d0 33 f6 bb bd 05 9d e0 bd ea 49 2b 3e 2f bc 32 be
       -0.09177818 -0.10967449 0.16727415 -0.17454599
0001e0 d8 43 0d 3d 32 07 a3 bc 84 f4 6e 3e d7 d8 67 bd
       0.03448853 -0.019900892 0.23335463 -0.05660328
0001f0 c2 54 6e bc fa 66 64 3e 99 ad 6b be 48 a1 80 be
       -0.014546575 0.22304907 -0.23015441 -0.25123048

network_body._body_endoder.seq_layers.2.weight f4 [128, 128]
000000 56 7c 04 3d aa 41 16 bd e4 fe 54 3d 29 00 62 3d
       0.03234514 -0.036683716 0.052000895 0.055175934
000010 ac 9a f1 bc a2 f8 df bd b5 ca 37 be 8a 50 a9 bc
       -0.029492699 -0.10936095 -0.1794842 -0.020668287
000020 11 a9 87 bc 78 aa 74 3d 51 03 88 3d 0f 11 c5 3c
       -0.01656011 0.059732884 0.066412576 0.024055986
000030 67 9a a0 bd f0 70 f0 bd d1 f6 ba bd 1a 8b 06 3b
       -0.0784195 -0.11740291 -0.09129108 0.0020529688
000040 57 50 e5 bd 3f a1 4a 3d a8 e4 dd 3d 3f 6f 88 3d
       -0.11196964 0.049470183 0.10834628 0.066618435
000050 88 87 a1 3d 33 7d c0 bd 5b 73 29 3c 31 e1 b5 3b
       0.07887179 -0.0939888 0.010342444 0.0055505265
000060 27 16 a6 bd 44 08 9a bd 65 8b e6 bd 1e b1 9c 3d
       -0.08109694 -0.07521108 -0.11257056 0.0765097
000070 20 aa 0c bd ff 5e e7 3d 69 bd 74 bd cc 38 5a be
       -0.03434193 0.11297416 -0.059750948 -0.21310729
000080 23 61 aa bd 87 86 44 ba bd 5f d5 bd c0 48 e3 3d
       -0.083193086 -0.0007496853 -0.10418651 0.1109786
000090 a7 db 19 3e bd 05 62 bd 85 6f 7f bd b6 55 09 be
       0.15025197 -0.055181254 -0.062362213 -0.13411602
0000a0 f5 d8 b6 3c a4 3e a1 3c 28 a0 34 be b3 22 fc 3d
       0.02232025 0.01968319 -0.1763922 0.12311306
0000b0 95 cb 77 bd 07 62 c7 3d d8 b2 c0 3d 95 24 15 bb
       -0.060496885 0.09735494 0.09409112 -0.00227574
0000c0 d6 d2 94 3c 42 8b b4 39 51 85 6e bd 52 b0 f3 bd
       0.01816694 0.0003443603 -0.05823261 -0.11898865
0000d0 ab dd 01 be c4 29 11 bd 58 dd 65 be 76 18 bd bd
       -0.12682216 -0.03544022 -0.22447717 -0.09233181
0000e0 d2 b0 60 3c a7 cf dc 3d ec d4 b7 bd ab 1f 90 bd
       0.013714032 0.10781794 -0.089761585 -0.0703729
0000f0 b1 cd 20 be 4f 11 a1 bd 9d 7d 03 bd 2c 52 08 bd
       -0.15703465 -0.078646295 -0.032102216 -0.03328149
000100 91 ec 5c 3e b9 6b 43 bc e5 55 fd bc 1b 3c c9 3b
       0.21574618 -0.011927539 -0.030924747 0.0061411983
000110 87 af e8 3b d5 5c 6d 3d 24 ab a7 bd 3a 89 23 3f
       0.0071010026 0.05794986 -0.08186939 0.63881266
000120 9a 1d aa 3c b6 ed d7 bd 70 28 44 39 5e 61 a8 3d
       0.020766068 -0.10543387 0.00018707081 0.08221696
000130 ad 09 15 3e db 4d 2f 3e 98 49 d9 3c 09 7e 96 bd
       0.14554472 0.17119543 0.02652435 -0.07348258
000140 81 2f b5 bc 6a a8 c4 bd d7 97 fb bd d7 59 81 3d
       -0.022117378 -0.09602435 -0.122848205 0.06315964
000150 86 47 3a bd 1b 36 09 bd b4 db 69 ba ce 37 a7 bd
       -0.045478366 -0.033498865 -0.0008920983 -0.08164941
000160 ba 15 9b bd db 72 a1 3d fc e2 0b bb 33 ac 75 3d
       -0.075725034 0.07883235 -0.002134501 0.059978675
000170 d8 8a ad bc e0 fe 84 bc db 8e 58 3e 7e c9 a6 3b
       -0.02118437 -0.016234815 0.21148245 0.0050899377
000180 21 74 19 3d 91 20 f0 3b 6b e4 da bc 6d 68 f6 bd
       0.037464265 0.007328101 -0.026720246 -0.120316364
000190 ef 3d d1 3a cd dc 67 be bd 54 59 3c 66 d5 6d 3d
       0.0015963892 -0.22642823 0.013264832 0.05806484
0001a0 c9 0e ed 3d bf 50 2c 3d 8e 14 34 3d bb d6 f7 3d
       0.11575086 0.042069193 0.043964915 0.121015035
0001b0 02 53 32 bd c2 01 8d 3d 03 dc af 3d c1 b0 3c be
       -0.043536194 0.06885101 0.08586886 -0.18426801
0001c0 b6 c0 65 bd eb ff 88 3c db 53 b9 bd 9c 8f b7 bd
       -0.056091987 0.016723594 -0.09049197 -0.08962938
0001d0 4b 26 0b be a5 f7 20 3e 82 5a 98 bd c0 1a f6 3d
       -0.13588826 0.15719469 -0.07439138 0.12016821
0001e0 6f a8 08 3d a6 03 15 3d a4 fc bc bd d3 99 87 be
       0.033363756 0.036380433 -0.09227875 -0.26484546
0001f0 ff 7e 98 bd 69 af 19 be e6 f4 cd 3d 04 8c 60 be
       -0.074460976 -0.1500832 0.10056476 -0.21928412
000200 16 3e 25 bd 50 e8 18 3e 96 13 37 3e 5e be ee bb
       -0.040342413 0.1493237 0.17878565 -0.007285877
000210 ae c1 86 3d a5 fe c3 3b d6 20 8c bc 67 b9 01 3d
       0.0657991 0.0059812837 -0.017105501 0.031670954
000220 b0 cc d7 bc 18 e8 37 bc 2e 15 a5 3c 68 c4 4e bd
       -0.02634272 -0.011224769 0.0201517 -0.050480276
000230 08 2e aa bd 80 9c 4b 3e a8 d9 af bd f0 56 90 bc
       -0.08309561 0.19883919 -0.085864365 -0.01761958
000240 cf 51 36 bd 56 97 d4 3d 60 18 74 3c 34 fa 21 3d
       -0.044511613 0.103804275 0.01489839 0.039545253
000250 e9 74 59 bd 39 40 9a 3d ba 28 91 bd 1f 36 f4 bd
       -0.05309001 0.07531781 -0.07087846 -0.11924385
000260 26 66 24 bd 80 47 e3 3d 39 da e5 bd fe 69 81 3c
       -0.04013648 0.11097622 -0.11223263 0.015797611
000270 fa 2f 35 be 56 e9 14 bc 7c bc 89 bc 65 b1 2b bd
       -0.17694083 -0.009088835 -0.01681351 -0.041917223
000280 e2 3e 9a 3b a4 34 84 3d cb 7e 84 3d e6 61 9c 3c
       0.0047072032 0.06455353 0.06469496 0.01908965
000290 c1 26 84 3c e0 3e 4c bb db 0c 18 bd 30 2a 82 3c
       0.01613176 -0.0031165406 -0.037121635 0.015889257
0002a0 9a 8d 99 bd 52 31 0e 3d d5 12 01 3e df af 5d bd
       -0.074977115 0.034715004 0.1260484 -0.054122802
0002b0 54 e1 f6 bd d8 6d d0 bd f0 18 d4 bd e5 fb f3 3c
       -0.12054697 -0.10177201 -0.10356319 0.029783199
0002c0 e0 75 1c be 0d d0 0f 3e bc 92 b3 3c 27 cf 77 3d
       -0.1527934 0.14044209 0.021920554 0.06050029
0002d0 f6 6f 26 bc 69 70 75 bd 15 5a 39 3e 74 08 ff bd
       -0.0101585295 -0.059921656 0.1810077 -0.12452784
0002e0 9f 64 d5 bc 42 b6 3b 3a 55 a3 3e 3e 6d 78 b6 bd
       -0.026048956 0.00071606424 0.18616994 -0.08909688
0002f0 44 7c 9b 3d 45 ae 53 3d 80 c4 41 bd 54 61 f0 bc
       0.07592061 0.05167987 -0.047306538 -0.029343285
000300 d8 dc 2a bd bf b5 05 be ab b4 d2 bd ce 45 b1 bd
       -0.04171452 -0.13057612 -0.10288366 -0.08655892
000310 2c 42 b7 3a e7 78 83 3c 88 03 9d 3c f2 7f b8 be
       0.0013981513 0.016048862 0.019166723 -0.36035115
000320 13 87 45 3e fe 44 2e 3d 6e 62 9f bd a1 ac 51 bd
       0.19289808 0.042546265 -0.07782446 -0.051190022
000330 39 26 f4 3d cf f9 06 3e 17 a3 c5 bd cb 98 75 bd
       0.11921353 0.13181232 -0.096502475 -0.059960168
000340 87 2c 81 3d 62 53 6b 3d 39 75 65 3d 65 78 23 bd
       0.06307321 0.057452567 0.056019995 -0.03990974
000350 f7 a8 db 3c 40 d1 10 3d 70 0d 89 3d 61 89 61 3e
       0.026813967 0.035355806 0.06692016 0.22025062
000360 7a 1e 2c 3d a5 b5 ae bd 90 ff 82 be b5 70 98 be
       0.042021252 -0.0853074 -0.25585604 -0.2977349
000370 a2 f0 1d bd ea 7b 61 3d c9 d1 f3 bd 08 8b 18 3e
       -0.038559563 0.055049814 -0.11905248 0.14896786
000380 9d 7b e4 3d bb 85 b1 bd 80 51 fd 3d 0f 33 b5 3d
       0.1115639 -0.08668085 0.123690605 0.08847629
000390 b9 53 54 bd e7 b5 80 3a e8 52 7f 3d d0 10 93 bd
       -0.051837657 0.0009819836 0.062334925 -0.07180941
0003a0 3a b3 86 bd 01 05 91 bd 5f f8 c2 3c bc 7f 1b 3d
       -0.065771535 -0.070810325 0.023800073 0.037963614
0003b0 78 e2 eb bd eb a4 30 bd 60 20 ad bd 21 df 23 3d
       -0.11517805 -0.043126028 -0.08453441 0.040007714
0003c0 a9 55 f2 bb ea a5 c9 bd 56 2d f1 3c 96 5c 2d 3d
       -0.0073954654 -0.09846099 0.029440563 0.042324625
0003d0 ac c8 d5 3d b1 6e 11 3e d1 3d bc bc 4d 19 23 3d
       0.10438666 0.14202382 -0.022978695 0.03981905
0003e0 45 a2 ca 3c 87 19 fd bd 21 ba 0b be 6b 6e 74 3d
       0.02473558 -0.123583846 -0.13645221 0.059675615
0003f0 0b b1 1e be 9a 0d af 3b 70 f3 c0 39 12 ec 32 bd
       -0.15497224 0.0053421976 0.0003680247 -0.043682165

network_body._body_endoder.seq_layers.2.bias f4 [128]
000000 e1 62 c0 bd 2a 00 6a 3d 40 63 f5 bd 2a 25 38 3d
       -0.0939386 0.057129063 -0.11981821 0.044957317
000010 2d 89 c7 3d 17 94 06 3f 48 8d ba 3b 74 90 3a 3e
       0.09742961 0.5256972 0.0056931116 0.18219167
000020 91 00 73 bd 3d 0b 0f bb 23 a9 c1 3e 51 56 02 b9
       -0.059326712 -0.0021826767 0.37824354 -0.00012429921
000030 40 96 92 bb 22 7a b2 bd de 64 5d 3d c8 7c 1e bc
       -0.0044734776 -0.08714701 0.054051273 -0.009673305
000040 b0 7c 32 3e 87 3f 72 be 36 5f 63 bc 49 de 44 3d
       0.17430377 -0.23657046 -0.0138776805 0.04806355
000050 4d f1 25 bc 4f e4 8e be 7e 7d 5a bc ba b0 35 bc
       -0.010128331 -0.2790856 -0.013335584 -0.011089498
000060 86 35 24 bb 83 bf ee 3c 26 0d 95 3c 70 a3 1c bd
       -0.0025056317 0.029144054 0.018194746 -0.038241804
000070 18 71 ac 3b 63 6a 43 3d 72 ee 02 bd 08 60 44 bd
       0.0052625053 0.04770888 -0.03196568 -0.047943145
000080 4c fc 8e 3c 6d 99 3e bd 7d 00 6c ba 0e 92 ec 3d
       0.017454289 -0.046533037 -0.00090027583 0.11551295
000090 3e 70 03 3e 59 e5 b0 be 24 50 77 3d 94 5f e6 bc
       0.12835786 -0.34549978 0.060379162 -0.028121747
0000a0 aa 5f 17 bc c2 57 0c be 02 b9 8a 3d 61 67 72 3c
       -0.009239117 -0.13705352 0.06773569 0.014795155
0000b0 8c 05 4e 3d 40 4f 5d 3e 27 d4 7c 3c c1 2c c0 bc
       0.05029826 0.21612263 0.01543144 -0.02345884
0000c0 19 d0 25 3d 0a e9 27 3d af 7a 5f 3e 1a 33 c7 3c
       0.04048166 0.040993728 0.21824144 0.02431636
0000d0 f0 8c 27 be 2e 89 6e 3d ac 9f 7b bd 0d 1f d1 3c
       -0.16362357 0.058236293 -0.06143157 0.025527501
0000e0 10 3d 1d 3d 1d 78 d2 bd 72 bc 9f 3d b8 d5 40 3d
       0.038388312 -0.10276816 0.07799615 0.047078818
0000f0 1c 80 56 3b b8 ad 08 3e 08 79 c4 bc 9f 08 c1 bc
       0.0032730168 0.13347518 -0.023983493 -0.023563681
000100 3a 70 7b 3c bb 19 b0 3d 84 98 02 3d 49 a0 88 be
       0.015346581 0.08598658 0.03188373 -0.26684788
000110 1d 59 89 3d cf 46 af bc b3 4a 6d bd 95 1a a2 bc
       0.0670645 -0.021396069 -0.057932567 -0.019788066
000120 ba 5a 80 bd 9c 03 9e 3d 15 49 d8 bc 40 37 49 be
       -0.06267305 0.07715532 -0.026402036 -0.19649982
000130 30 d8 63 3d 69 ab 14 bc 7d f0 05 3e f9 73 62 3d
       0.055626094 -0.0090740705 0.1308002 0.05528638
000140 d8 b4 70 3b 62 26 41 bd dd b1 1a bd b8 84 be 3d
       0.0036728885 -0.047155745 -0.03776728 0.09302658
000150 f7 45 0f 3d dd 6c 80 bc 68 86 ec 3e 6d 8f a2 3e
       0.034978833 -0.01567691 0.46196294 0.3175005
000160 36 6d f4 3b e3 74 95 bc 65 13 0c be 8e 0c f0 bd
       0.007459308 -0.018244212 -0.13679273 -0.117211446
000170 fa 2e bf bd 6c d2 40 be 5c a2 ad bd 6b 9a fd bb
       -0.09335132 -0.1883027 -0.08478233 -0.0077393553
000180 fe 79 99 3e ea 62 db 39 16 c8 34 bc 40 d6 5e 3d
       0.29975885 0.00041844632 -0.011034032 0.054403543
000190 9c 05 a2 bd a5 2c 51 3e 2a 22 37 3d ba 14 16 be
       -0.07911226 0.20427187 0.044710316 -0.14656344
0001a0 78 75 81 3c 7e d2 ff 3a c0 96 0e bd 04 6a d8 3c
       0.015803084 0.0019517688 -0.034811735 0.02641774
0001b0 27 22 5f bd a0 19 ac bc a5 e6 92 bd 94 4d 97 bc
       -0.05447593 -0.021008313 -0.07172898 -0.01846961
0001c0 d1 c1 3c 3d d6 fd cd bd da c0 b9 bc 65 5f bc 3d
       0.046083275 -0.10058181 -0.022674967 0.091978826
0001d0 d1 81 e1 bc 11 a5 71 3e 3e e6 73 bb 47 92 e4 bc
       -0.027527722 0.23598124 -0.0037216092 -0.027901782
0001e0 30 a5 96 bc 84 d5 e4 bc 10 4b 0c 3d 10 80 29 bc
       -0.018389314 -0.027933843 0.034251273 -0.010345474
0001f0 a6 ca 0f 3e 3e 18 2b bd 0a ab 02 3f 32 a4 bb 3d
       0.14042148 -0.041771166 0.51042235 0.09162177

action_model._continuous_distribution.log_sigma f4 [1, 2]
000000 b1 89 8b c0 75 20 8c c0
       -4.360558 -4.378962

action_model._continuous_distribution.mu.weight f4 [2, 128]
000000 ef 54 85 bb f2 19 3b be 96 45 07 3c 6f 72 e2 ba
       -0.0040689628 -0.18271616 0.008256337 -0.0017276536
000010 dd bf 6a 3e 83 0e d9 3c 14 37 c0 3d 7f 94 53 3f
       0.22924753 0.026496178 0.09385505 0.8264846
000020 b0 91 e4 bb f4 65 2e 3c dd b6 37 bf 9d 35 9b ba
       -0.006975375 0.010644425 -0.717634 -0.001184154
000030 49 17 77 bc 78 7d 83 bd e8 1b 25 bc b3 38 2e 3a
       -0.015081235 -0.06420416 -0.010077454 0.0006646022
000040 a9 58 d8 be 85 c9 e2 bb e0 37 02 bb df 44 83 be
       -0.42255142 -0.0069209957 -0.001986973 -0.25638482
000050 a5 37 b0 bb 46 db 9b ba cb 09 5a 3d e3 11 22 bb
       -0.005377727 -0.001189091 0.053231996 -0.00247299
000060 aa a4 da bc 6e 5d 0c bd 87 87 d8 be 83 fc 64 bd
       -0.026689846 -0.03426879 -0.422909 -0.055904876
000070 a3 f9 d5 bc 51 70 ba 3d e6 20 44 bc cd db 59 bc
       -0.026120013 0.09103454 -0.011970734 -0.0132970335
000080 f8 6e d8 3c 4b af b4 3c cf ca c9 bc 26 d1 c1 3e
       0.026420102 0.022056242 -0.02463284 0.3785488
000090 46 b3 88 bc bb 5f c6 ba 62 a9 54 bd fa 4b 8f bc
       -0.016687047 -0.0015134731 -0.05191935 -0.017492283
0000a0 ed 23 8b 3c 6e a3 b3 ba af 90 d0 be 8f 0c e5 bd
       0.016984904 -0.0013705322 -0.40735385 -0.11184036
0000b0 dd 7f d6 3a 4c 53 19 3f 50 0f f8 bc 78 96 a1 bc
       0.001636501 0.59892726 -0.03028074 -0.01972507
0000c0 d2 52 1c 3e f3 b6 96 bc ae f4 d1 3f 2a c2 3d 3f
       0.15265968 -0.018397784 1.6402795 0.74124396
0000d0 2b 8f 74 bc 38 ec f2 3d 62 e7 d9 bc 2f 5e 42 3b
       -0.014926712 0.118614614 -0.02659959 0.0029658189
0000e0 3b 41 b3 39 9b d2 5b bb e0 62 03 3e 59 22 8b bd
       0.0003419014 -0.0033542279 0.12830687 -0.06793661
0000f0 b6 35 5b 3c f4 a1 72 be 79 54 5f bd ae 55 40 bb
       0.013379505 -0.23694593 -0.05452392 -0.0029347944
000100 53 1e 14 be 53 7d 63 3b 03 48 9d 3b da 21 10 3c
       -0.14464693 0.003471215 0.004799844 0.008797133
000110 c9 54 b7 39 c5 9a 0b bd 9e 70 43 39 d9 ce 31 3b
       0.0003496765 -0.034083147 0.00018638602 0.0027131347
000120 fd 46 e5 bb 8c 68 4b bc 4d 9a 9a ba 26 85 4a ba
       -0.006996988 -0.012415063 -0.0011795253 -0.0007725529
000130 6a f5 97 3e 08 1c e3 3b 37 4b b0 bd d6 5a be 3b
       0.29679424 0.006930832 -0.08608096 0.0058091683
000140 d9 e2 09 bd 10 14 dd bc 77 3c 18 ba c2 b3 6e 3e
       -0.033663604 -0.026987106 -0.000580735 0.2331076
000150 db 7f 86 3c e2 b8 09 bd ba 75 08 3d 72 81 f1 3b
       0.016418388 -0.033623584 0.033315398 0.0073701674
000160 d7 62 91 3d 74 e5 58 ba fe d8 29 3b fb 01 5a bc
       0.0709893 -0.0008273937 0.002591669 -0.013306136
000170 96 2a ba bb ab ca 76 bc c9 77 e4 ba 5e c1 89 3b
       -0.005681346 -0.015062968 -0.0017430718 0.0042039594
000180 c4 d4 63 3c 80 95 b7 3c b6 3d 98 bc 05 0f 26 bc
       0.013905708 0.022410154 -0.018584114 -0.010135417
000190 8a 35 b5 3b 29 d2 32 3c f2 33 3b be a9 a7 c0 bc
       0.005530064 0.010914364 -0.18281534 -0.023517447
0001a0 fc a2 3e 3e 00 c2 ed 3b 68 da 03 be 98 d4 c3 3b
       0.18616861 0.0072557926 -0.12876284 0.005976271
0001b0 ca 91 99 3b a6 9d 90 3a c7 fd 86 bb 73 ab ba bc
       0.004686569 0.0011033311 -0.004119608 -0.022786831
0001c0 87 cc 03 3a c9 1f 24 3b d8 5a 67 bb 7c 87 a6 3c
       0.00050277304 0.002504336 -0.003530195 0.020328276
0001d0 c3 e0 9a 3b 41 03 2b bf 53 96 e9 39 02 57 29 bc
       0.0047265007 -0.6680184 0.00044553223 -0.010335686
0001e0 7e 0f 59 3c f2 98 5b 3b 2e ed 0b be 21 e1 0c bc
       0.0132483225 0.003350791 -0.13664696 -0.008598597
0001f0 37 67 e9 be a4 38 9b bb f4 f8 f1 3b c6 60 b6 3e
       -0.4558656 -0.0047369767 0.007384414 0.35620707
000200 5e 7a 81 3b 78 6a 31 bd 25 47 76 bb d7 f2 c3 3a
       0.003951355 -0.043314427 -0.0037579027 0.0014949691
000210 f6 09 be ba 04 a1 ea 3b d0 fb e3 3c b1 ae 23 3e
       -0.0014498818 0.007160308 0.027830034 0.15984608
000220 97 08 5b 3b bf 6a 58 3b 8b 0a ed bc 93 28 d1 bc
       0.0033421868 0.003302261 -0.028935691 -0.025532043
000230 65 c3 b6 bc 63 56 79 3c fb dd 09 3b 67 9a 04 bb
       -0.022309968 0.01521835 0.0021036852 -0.0020233633
000240 d6 51 5c bd 8a 7d fb 3b 81 eb 66 bb 9e bb 8b bc
       -0.053788982 0.0076748775 -0.0035235586 -0.017057236
000250 74 80 e1 3b f4 ad 48 3a 39 b6 9b 3c 90 de 9b 3b
       0.006881768 0.00076553156 0.019007789 0.004756756
000260 4c a6 1b 3c 1e d6 51 bb ac 40 fd 3c e3 90 ad 3c
       0.0095000975 -0.0032018493 0.030914627 0.021187251
000270 b6 96 e0 bb 4a 30 d2 3c e7 85 29 3c 06 25 8d 3c
       -0.0068539036 0.025657792 0.010346866 0.017229568
000280 ae 71 9a bb 26 ad 9a 3d 8d 59 2b 3c fb f6 be 3d
       -0.0047132587 0.07552557 0.010458362 0.093244515
000290 3d 00 38 ba c4 87 fc bb 70 56 9e 3b 8c 9f 7a 3b
       -0.00070190785 -0.007706614 0.0048320815 0.003824207
0002a0 e7 d2 21 bc 4c cb 04 3b 2f 98 1f 3d b3 a2 70 bb
       -0.009876943 0.0020262776 0.038963493 -0.003671807
0002b0 3a b1 4c 3c a5 9a 4c 3d 77 1e 3a b8 2d b4 ec 3b
       0.012493426 0.049952168 -4.437423e-05 0.007223627
0002c0 4a 4f 46 bd 4f 14 fd 3b 66 f8 93 3d 60 06 9e 3d
       -0.04841546 0.0077233682 0.072251126 0.0771606
0002d0 4d b6 71 ba d6 4e 06 3c 64 63 63 bb 8c a3 ae 3c
       -0.00092205853 0.008197507 -0.0034696693 0.02131822
0002e0 a1 ec fa 3a 63 de 86 3b 6d fd e1 bb 52 c8 03 3b
       0.0019144007 0.004115866 -0.006896666 0.0020108414
0002f0 d9 fa 6e 3c bd 8a 65 bd 43 fb a9 bc bc 40 c6 3a
       0.014586174 -0.056040514 -0.020749694 0.0015125494
000300 6f 85 08 3d 59 bf 33 3b 79 c8 88 bc a5 ed 7f 39
       0.033330377 0.0027427285 -0.016697155 0.00024407225
000310 36 f4 63 ba 76 39 77 3c 0a 5a 80 ba e4 54 34 bc
       -0.0008695753 0.015089383 -0.0009792459 -0.011006568
000320 ab ce 56 3b 91 1a 61 ba 0d c0 8c bc e4 8b aa bb
       0.0032776992 -0.00085870276 -0.01718142 -0.0052046645
000330 ab 28 41 3d 7d fc 16 3c e4 f6 35 3b ea 0c 4b bb
       0.047157925 0.009215471 0.0027765566 -0.003098304
000340 46 5a e3 b9 45 c4 5f bc d4 5f 4c 3b c3 25 45 3d
       -0.00043364073 -0.013657634 0.0031185048 0.048131716
000350 76 f2 a4 bb a1 56 99 3b 56 94 1a bb b2 b7 13 bb
       -0.0050337864 0.0046795164 -0.002358695 -0.002253991
000360 80 d7 44 bc 02 86 d5 bb 7f ce 9b 3b 23 1e 86 3b
       -0.01201427 -0.006516219 0.004754841 0.004092948
000370 55 bb 32 3c 7f 8a 33 3c 6b 10 30 3b c8 e7 b5 bc
       0.010908921 0.010958313 0.0026865255 -0.022205248
000380 ae 25 2a bb 07 b0 29 3d 1d 96 a8 3c 0f 4f c5 b9
       -0.00259624 0.04142764 0.020579392 -0.0003763367
000390 b1 29 f0 ba 17 18 22 3c b1 12 27 bc 16 4e b6 3a
       -0.0018322972 0.009893439 -0.0101973275 0.001390877
0003a0 a2 08 05 bc a7 bb 33 3b b8 7a 0e bd c2 fe 5c bb
       -0.008119734 0.0027425082 -0.034785002 -0.0033721183
0003b0 5e 6f c2 ba d7 20 27 3b ad 31 1e bc c7 72 f5 3b
       -0.0014834215 0.0025501752 -0.009655398 0.007490489
0003c0 e9 0b c0 bb 54 53 62 3c 8b 0b ad 3b e9 22 d3 3a
       -0.005860795 0.013813812 0.005280917 0.0016108426
0003d0 fb 9a 1b ba df 9d a6 bc e7 ec 0e bb d2 2c 9d 39
       -0.00059358747 -0.02033895 -0.0021808685 0.00029978767
0003e0 a4 63 d8 3b 4b 56 c6 3b be 4c 4d bb 25 c0 ee b9
       0.006603675 0.0060527674 -0.003132626 -0.00045538056
0003f0 b7 46 0a bc fb 64 9e 3b 80 46 08 bb 09 86 94 3d
       -0.008439711 0.004833815 -0.0020793974 0.07252128

action_model._continuous_distribution.mu.bias f4 [2]
000000 11 da 04 3f af d0 b3 3d
       0.5189524 0.087800376

action_model._discrete_distribution.branches.0.weight f4 [1, 128]
000000 2d 3a 71 bc 7b a7 81 bc c5 0d f2 3b 5a dd fe 3a
       -0.014723343 -0.015826931 0.0073868954 0.001944463
000010 72 3d d9 bb 4b 33 55 3c 8f 7c 2e 3c a8 50 da bb
       -0.0066296393 0.0130127175 0.010649814 -0.006662447
000020 b3 84 49 bb ad 5d f8 3b dd 00 c9 bc 97 d8 4b 3c
       -0.003074926 0.0075795264 -0.024536544 0.012441776
000030 78 42 a2 ba 87 74 23 3c ff df 7c bc 05 13 0b bc
       -0.0012379428 0.009976513 -0.015434264 -0.008488421
000040 16 25 88 3b 7a b4 fe 3b 70 e0 50 3c 52 51 a2 bb
       0.0041548116 0.0077729793 0.012748823 -0.004953542
000050 85 79 08 3c 19 e0 b7 3c 7f e8 9a bb 57 99 ae ba
       0.008329754 0.022445725 -0.0047274227 -0.0013320845
000060 43 52 51 3c 5b 9e 42 3a f7 15 0b 3b 97 89 32 3c
       0.01277596 0.00074241095 0.002122281 0.010897062
000070 90 ff 15 bc 55 5a 74 bc 85 14 56 bb 88 8c de bb
       -0.009155169 -0.014914115 -0.003266604 -0.006791655
000080 78 28 45 bc 32 80 cd 3b c0 c1 2a 3c ce 01 0e 3c
       -0.012033574 0.0062713856 0.01042217 0.008667422
000090 fb ed 66 3b 45 6a d8 3b 97 6a d4 3b b3 2e 18 3b
       0.0035237062 0.006604465 0.006482433 0.0023221194
0000a0 ea 78 0c bb 7a 69 23 3c 6d 11 ef 3b 63 ed 09 bc
       -0.0021434375 0.009973878 0.0072957785 -0.008418414
0000b0 0d 1e 69 bc 87 b1 3d bc 15 0b d4 3b eb ad 1c bc
       -0.014228356 -0.01157797 0.0064710476 -0.00956295
0000c0 fc a5 a5 bc cb 37 85 3c 5b 97 11 bc 95 c3 3b bc
       -0.02022075 0.016261956 -0.008886184 -0.011460205
0000d0 4d dc 5c bb c2 c9 87 b9 d7 86 95 3c 8a 8d 68 ba
       -0.0033700645 -0.00025899528 0.018252773 -0.00088711886
0000e0 9a e6 d9 bb 42 ad 08 3b 76 1b 98 ba ac 7a 43 bb
       -0.0066498043 0.0020855223 -0.0011604864 -0.0029827757
0000f0 97 32 39 bc ef 2d c3 3b b4 d0 c8 bb fd 30 cd bb
       -0.011303565 0.0059564034 -0.006128395 -0.0062619434
000100 f8 dc 68 3c d2 32 da 3b ac 30 af 3b 6f a5 e0 ba
       0.014212839 0.0066588903 0.0053463783 -0.0017139147
000110 de a8 83 3b 07 0e 22 ba 2b 6b 2a bb 90 c0 72 bc
       0.0040179333 -0.00061819 -0.0026003818 -0.014816418
000120 db 95 45 3a 82 71 23 bb d8 26 b2 bb 83 15 cd ba
       0.0007537284 -0.0024939482 -0.0054367594 -0.001564667
000130 7a ab 6f 39 bb 65 51 bc 1f ed ac 3b f6 92 89 3b
       0.00022856696 -0.012780602 0.0052772905 0.0041984273
000140 8e 6f 2d bc c3 c2 12 3c d7 a9 6c bb 77 94 8d 39
       -0.010585679 0.008957568 -0.0036111975 0.0002700423
000150 3e c2 0e 3b cc 53 19 bc 9b bb b3 3b 02 ce d4 3b
       0.0021783258 -0.009358358 0.005485011 0.0064942846
000160 af 27 af bb c0 d1 e6 3c 07 f3 33 3c 90 c5 50 bc
       -0.005345307 0.028176188 0.010983235 -0.012742415
000170 47 58 14 3c 9d 79 2c 39 45 c9 33 bb 08 ca 8d ba
       0.00905425 0.00016448503 -0.0027433198 -0.0010817656
000180 5f 39 43 bc db 6f ca ba 3b 59 ff bb c2 38 4f 3c
       -0.011915534 -0.0015444712 -0.0077926195 0.012647809
000190 f0 ab 30 3c d7 18 fd 3b 63 15 e5 bb 2b fd 6d 3c
       0.010783181 0.0077239084 -0.006991075 0.014525692
0001a0 92 05 04 3c 4a 2e 6d 3b c8 9b e8 3b 07 f0 4f 3c
       0.008057969 0.003619092 0.0070986487 0.012691504
0001b0 77 37 52 bc c3 23 b8 3c d4 c0 09 3c 99 33 4a 3b
       -0.012830607 0.02247799 0.00840779 0.0030853509
0001c0 53 37 f8 3b 74 04 2c 3b d0 73 23 3c 4f e9 84 bc
       0.0075749545 0.0026247771 0.009976342 -0.016224531
0001d0 77 3d 00 3c 73 42 8a bc f5 ea 20 3a f7 74 96 bb
       0.007827154 -0.016877389 0.0006138527 -0.00459158
0001e0 40 ed 2e bc d5 ca 31 3b cf 60 1f 3b 55 b3 ba 3b
       -0.010676682 0.0027128954 0.0024319177 0.0056976476
0001f0 c4 ed 9d bb 80 23 12 bc ed d7 27 3b 7b cf 2c bc
       -0.0048196036 -0.008919597 0.002561088 -0.010547514

exp_avg f4 [128, 27]
000000 24 71 39 39 39 22 c6 39 f1 e3 35 b8 a7 76 89 39
       0.00017685123 0.00037791 -4.336605e-05 0.0002621908
000010 67 d6 62 b8 ef d7 41 39 4b 97 a9 b7 d2 f1 a2 39
       -5.4082277e-05 0.00018486356 -2.0216821e-05 0.00031079218
000020 de d6 40 b8 5f 00 47 39 e6 95 6b 39 29 dc e3 39
       -4.5976478e-05 0.00018978257 0.00022467188 0.00043460846
000030 bb a8 6f 39 88 cb e5 39 86 e1 19 bd 0e 25 27 3a
       0.00022855673 0.00043829926 -0.03756859 0.0006376066
000040 f1 9e 9d 3c 42 94 f6 35 c8 bb 01 ba db b3 b5 35
       0.019240828 1.8371577e-06 -0.0004948941 1.3537896e-06
000050 80 d2 2e 3a 31 e4 71 b5 25 2e 64 38 07 85 bc 36
       0.000666894 -9.011156e-07 5.440241e-05 5.618323e-06
000060 73 a9 9f 36 4e 4d c9 b4 e0 02 8a 35 50 b0 76 b9
       4.7582957e-06 -3.7495414e-07 1.0282638e-06 -0.0002352607
000070 ee 59 4a ba 7d 7d df 38 3b 29 07 ba 0e fa f8 38
       -0.0007719089 0.00010656843 -0.0005155985 0.00011872138
000080 aa d3 96 b9 df cb 21 38 64 42 0d ba 60 d2 a3 38
       -0.00028767932 3.857526e-05 -0.0005388616 7.811631e-05
000090 b0 67 91 b9 1a 4f 2a b9 a2 8c bc b9 44 7c 2e b9
       -0.00027733808 -0.00016241931 -0.00035962934 -0.00016640226
0000a0 89 88 be b9 b4 2a ea 3d a4 a7 9f ba b0 33 3f bc
       -0.0003634135 0.11433926 -0.0012180698 -0.011670038
0000b0 56 ca 49 b6 62 f4 54 3a ce 0d 10 b6 b3 96 90 ba
       -3.006911e-06 0.0008123574 -2.1465708e-06 -0.001103124
0000c0 e0 3e 00 b4 54 02 a8 b8 72 6d fe b6 08 88 bd b6
       -1.1943803e-07 -8.011298e-05 -7.582531e-06 -5.648475e-06
0000d0 d0 d7 18 b4 2c a1 c9 34 19 88 a4 38 88 04 fa 38
       -1.4234615e-07 3.7556435e-07 7.8454796e-05 0.00011921773
0000e0 12 09 2f b8 3e 5e 12 39 92 c6 cb b8 dc 03 4e 38
       -4.17317e-05 0.00013958753 -9.716781e-05 4.911782e-05
0000f0 f0 b3 2a b8 5e e2 20 39 82 2b 9d b8 44 d6 12 39
       -4.069874e-05 0.00015343117 -7.494447e-05 0.00014003465
000100 93 2c 90 38 44 0d 81 39 2c fe 48 38 22 5b 6d 39
       6.874758e-05 0.0002461468 4.7920432e-05 0.00022636031
000110 cc c0 8b be 41 70 b6 3a 64 2f a8 be 5b c7 c8 b6
       -0.2729553 0.0013918952 -0.32848656 -5.9836725e-06
000120 1e ae f6 b9 3b a8 b3 b6 f6 56 28 39 68 f1 2b b7
       -0.00047050504 -5.3542003e-06 0.00016054124 -1.0248601e-05
000130 b2 af cf b7 cc 74 30 35 80 88 f8 b2 b4 70 bf b4
       -2.4758137e-05 6.573507e-07 -2.8933073e-08 -3.5658525e-07
000140 67 54 01 37 42 ce 5e 35 cb 20 8a 37 3a a3 47 b7
       7.708651e-06 8.300159e-07 1.6466152e-05 -1.18993285e-05
000150 30 3f 41 b7 15 1f 8d 37 03 b4 ef 37 eb 16 92 b7
       -1.1518408e-05 1.6822984e-05 2.8574845e-05 -1.7415228e-05
000160 11 60 96 b6 25 37 8e b6 82 16 c9 37 a0 98 b5 32
       -4.481532e-06 -4.2383494e-06 2.3971548e-05 2.1140579e-08
000170 42 a0 1e 38 84 1a 01 b3 00 6c 1e 38 71 bf fc bc
       3.7819387e-05 -3.005927e-08 3.777072e-05 -0.030853005
000180 34 45 2b b8 a5 3b 80 bb 7f 8d 37 b4 99 e0 08 b8
       -4.0834027e-05 -0.00391336 -1.7094679e-07 -3.26341e-05
000190 9f 30 8b b3 7b 1f e3 37 ac ce 7c b4 4a e7 31 b7
       -6.481536e-08 2.7075168e-05 -2.3544516e-07 -1.0603873e-05
0001a0 50 b0 5c 34 2d e1 48 34 c8 d7 4b b2 10 e8 30 34
       2.0553239e-07 1.870837e-07 -1.1865218e-08 1.6475701e-07
0001b0 64 3f c1 38 e2 5a 90 b7 a2 4f 1a b8 ba 11 a3 b8
       9.2147646e-05 -1.7208458e-05 -3.6790625e-05 -7.7757475e-05
0001c0 26 f1 b7 b7 4e ec 21 38 19 fc d0 b7 de 08 a3 b7
       -2.1927593e-05 3.8605467e-05 -2.4912924e-05 -1.9435243e-05
0001d0 77 05 c3 b7 38 2a e2 b6 c8 97 20 39 86 0f 2a 39
       -2.3248356e-05 -6.7402398e-06 0.00015315332 0.00016218246
0001e0 a4 41 2e 39 9e 0a 37 39 4c c6 02 3e b8 19 f8 b8
       0.00016618386 0.00017456195 0.12770957 -0.00011830352
0001f0 6e 65 69 3e b7 f9 86 36 cf 60 9b 38 0d e2 76 36
       0.22792599 4.022582e-06 7.409008e-05 3.6788435e-06
000200 7b 24 76 39 64 75 dc 36 f2 1b 88 38 b4 a1 56 b4
       0.00023473978 6.570177e-06 6.4901906e-05 -1.998913e-07
000210 38 f8 af b3 70 ff 0c 34 b9 fd b2 b6 8e 09 3e b9
       -8.194223e-08 1.3131444e-07 -5.3343506e-06 -0.00018123371
000220 f3 b2 1e ba 6f dc 88 38 14 13 e9 b9 20 33 b9 38
       -0.0006053887 6.526044e-05 -0.00044455437 8.83101e-05
000230 27 6e 89 b9 8e 34 80 37 e6 6f f0 b9 b2 09 79 38
       -0.00026212746 1.5283262e-05 -0.00045859738 5.9375256e-05
000240 c8 d3 86 b9 d6 6e f3 b8 b3 77 c2 b9 79 6b f8 b8
       -0.0002571626 -0.00011607788 -0.00037091746 -0.0001184558
000250 f0 a6 c3 b9 88 38 c3 3d fb 8e 70 ba 4c 34 6e 3c
       -0.00037317676 0.09532267 -0.0009176579 0.014538836
000260 7b db 10 b6 6a 98 3a 3a a3 46 bb b5 e2 ae 6f ba
       -2.1585427e-06 0.00071180484 -1.3953144e-06 -0.0009143186
000270 8f 08 eb 35 6f 37 7d b8 bc 03 f5 b6 65 33 c5 b6
       1.7511355e-06 -6.0371527e-05 -7.3020037e-06 -5.8770406e-06
000280 26 cb a2 34 b4 93 ce b5 d5 68 08 36 ed 04 a9 b5
       3.032266e-07 -1.5391183e-06 2.03266e-06 -1.2592915e-06
000290 13 a1 49 37 f8 0c 79 37 f0 68 73 37 38 0a bc b3
       1.2018037e-05 1.4844576e-05 1.4508361e-05 -8.756291e-08
0002a0 2f 99 49 37 5a 04 65 37 df 5b 82 37 fd 42 30 b6
       1.2016199e-05 1.3650477e-05 1.5539988e-05 -2.6265036e-06
0002b0 29 0e 06 b6 1a 26 4e b6 29 0e 06 b6 42 26 4e b6
       -1.9975798e-06 -3.071857e-06 -1.9975798e-06 -3.071866e-06
0002c0 76 d4 78 ba fa ae 9d b8 37 9c 26 bb 7f af 9f 33
       -0.00094921084 -7.518935e-05 -0.00254227 7.435937e-08
0002d0 c7 38 8a b6 ad a3 bf b2 88 da 15 b5 61 25 c5 32
       -4.1193302e-06 -2.2309758e-08 -5.582483e-07 2.2950816e-08
0002e0 2a 0c 4f 37 d0 dd b5 33 5d 4e 93 33 c9 8d 81 b2
       1.2340994e-05 8.468817e-08 6.859475e-08 -1.5082053e-08
0002f0 5c 55 fb b2 f7 10 1d 36 e0 e9 87 36 b1 d5 41 b6
       -2.9259063e-08 2.3404698e-06 4.05054e-06 -2.8883626e-06
000300 16 81 7a b6 d6 5b 6e b6 4f 59 71 35 b5 c8 41 b6
       -3.732804e-06 -3.551822e-06 8.990946e-07 -2.8876068e-06
000310 05 fd 0c b6 4f e6 5b b6 14 66 51 33 37 a5 10 36
       -2.1008902e-06 -3.27676e-06 4.8754444e-08 2.155384e-06
000320 ce e1 73 36 37 a5 10 36 f6 e1 73 36 fd 91 31 bb
       3.6341257e-06 2.155384e-06 3.6341348e-06 -0.0027095072
000330 e0 7f 9d 36 2e a1 c4 bb de 73 52 b3 a0 36 7c b6
       4.693851e-06 -0.0060006594 -4.8999816e-08 -3.7582722e-06
000340 90 84 26 34 50 a7 d9 b5 89 9f c2 b3 d0 8b ae b6
       1.550818e-07 -1.6216454e-06 -9.062848e-08 -5.2018804e-06
000350 54 b8 b9 b3 f7 bd 9e b3 16 66 5e b1 1e 49 a7 33
       -8.648263e-08 -7.392003e-08 -3.236328e-09 7.7898434e-08
000360 63 69 b5 3b ce 64 6a 3c 2c 21 f9 ba e7 8d 14 3c
       0.0055362447 0.01430626 -0.0019007078 0.009067035
000370 9f af 12 bb 74 02 bd 3b b3 f3 4a ba 6c fe 23 3c
       -0.002238251 0.0057681147 -0.00077420025 0.010009389
000380 b2 5b d3 ba 0a 4b b6 3b 4f e0 9c 3b a4 ef 16 3c
       -0.001612535 0.0055631446 0.004787482 0.009212408
000390 aa ff a0 3b f7 e4 18 3c c6 c7 cf bf 1c 4f a9 3c
       0.00491329 0.009331933 -1.6232841 0.020667605
0003a0 4e a5 36 3f f5 00 8f 38 89 d9 7e bc ff ae 61 38
       0.71345985 6.8189496e-05 -0.015554794 5.3807158e-05
0003b0 10 e9 b0 3c cc c4 3c 37 97 8d 93 3a a0 93 1e 39
       0.021595508 1.1251494e-05 0.0011257407 0.00015123049
0003c0 28 73 f6 38 3c 2d 9e 34 68 db 2b b7 ba fa 97 b5
       0.000117516436 2.9462706e-07 -1.0243479e-05 -1.1323348e-06
0003d0 17 90 3b 35 6a a6 7a 32 51 ba 12 b5 51 58 0c b4
       6.9872607e-07 1.4589753e-08 -5.4660364e-07 -1.3070645e-07
0003e0 2e a5 96 35 06 30 34 32 ab 63 0b b6 dc b2 5f b6
       1.1223945e-06 1.0488298e-08 -2.0770628e-06 -3.33337e-06
0003f0 71 ba 36 36 f7 77 5b 33 43 1c a8 b4 f7 77 5b 33
       2.7228637e-06 5.109902e-08 -3.1313002e-07 5.109902e-08

exp_avg_sq f4 [128, 27]
000000 65 8d 81 36 34 b5 d5 36 e0 2e 8c 36 20 0e c1 36
       3.86096e-06 6.3689895e-06 4.177782e-06 5.7534926e-06
000010 8b db 7c 36 7f e6 c6 36 a3 03 5b 36 67 ab 9b 36
       3.7678717e-06 5.927693e-06 3.263566e-06 4.639314e-06
000020 31 37 98 36 76 b5 c2 36 88 7e 9b 36 15 83 e6 36
       4.536378e-06 5.8027754e-06 4.63409e-06 6.869794e-06
000030 35 81 9b 36 32 86 e6 36 ad 86 cf 40 7a 77 9e 39
       4.6344016e-06 6.8701565e-06 6.48519 0.00030225125
000040 41 22 8e 3f ab 27 0c 32 cc ec 1f 37 9e 8f 86 31
       1.1104203 8.158092e-09 9.532272e-06 3.9162407e-09
000050 c8 e5 cb 36 c1 22 73 31 b3 da 54 36 aa 94 a1 31
       6.0766215e-06 3.538091e-09 3.1717761e-06 4.702618e-09
000060 f3 4a 9e 33 f3 64 6d 31 1f 71 8f 32 10 01 db 36
       7.3710815e-08 3.4545422e-09 1.6698833e-08 6.5268323e-06
000070 d7 72 88 37 51 b1 d5 36 1d d3 2d 37 ed 62 a1 36
       1.626594e-05 6.368537e-06 1.0360757e-05 4.8096904e-06
000080 1b e1 46 37 b7 32 6d 36 c2 31 04 37 3a 00 f0 36
       1.1854131e-05 3.5345272e-06 7.879398e-06 7.1525837e-06
000090 59 71 41 37 56 56 d9 36 d2 6d 70 37 55 59 d9 36
       1.1530087e-05 6.477155e-06 1.4330684e-05 6.4775036e-06
0000a0 f8 6d 70 37 80 a8 28 41 46 b4 c1 39 af 69 a7 3f
       1.4330719e-05 10.541138 0.00036946143 1.3079127
0000b0 9e 71 15 33 e1 a2 bc 37 ea 74 a9 32 80 0b 9b 37
       3.47951e-08 2.2487193e-05 1.9727356e-08 1.8482795e-05
0000c0 b5 f9 9a 31 a0 33 c7 36 31 5b 0b 32 d3 9e c5 34
       4.5103783e-09 5.936672e-06 8.111599e-09 3.680967e-07
0000d0 90 88 cd 31 9c 80 ec 32 a5 ec 8c 36 72 da 4b 37
       5.9818106e-09 2.75325e-08 4.199874e-06 1.2150604e-05
0000e0 d2 c4 a1 36 9d c4 0f 37 e2 76 aa 36 ab b8 f7 36
       4.821087e-06 8.569242e-06 5.0802346e-06 7.382672e-06
0000f0 42 c1 95 36 34 4e fc 36 69 1b ac 36 d0 80 f7 36
       4.463044e-06 7.5192893e-06 5.1291904e-06 7.3761694e-06
000100 55 8f c3 36 ea 31 34 37 99 99 c3 36 4f 35 34 37
       5.828139e-06 1.0740458e-05 5.829334e-06 1.0741248e-05
000110 0e 59 32 41 2b 8c cb 39 32 81 af 40 e5 b8 55 32
       11.146742 0.0003882361 5.484521 1.2440272e-08
000120 95 24 9b 37 47 15 7f 31 4c 7d 38 37 3c 03 d5 31
       1.8494475e-05 3.7119479e-09 1.0996428e-05 6.1994836e-09
000130 be fd 7d 36 cb 34 de 31 0c d8 0c 34 6f cd eb 31
       3.7847635e-06 6.4670522e-09 1.3117113e-07 6.8627553e-09
000140 5b 6d 63 33 5a b6 15 35 7e c8 72 35 d9 6b b9 33
       5.2952014e-08 5.577218e-07 9.044378e-07 8.634351e-08
000150 bc db e3 33 c8 b2 04 35 79 56 be 35 e9 95 9d 33
       1.0610481e-07 4.9433993e-07 1.418127e-06 7.338151e-08
000160 c0 4a 14 34 ff dd 2f 35 14 e7 b0 35 c3 b5 59 35
       1.3810768e-07 6.5515627e-07 1.3180274e-06 8.11033e-07
000170 c4 ec e1 35 e3 b5 59 35 cd ec e1 35 b4 5d 89 3f
       1.6832714e-06 8.110348e-07 1.6832724e-06 1.0731721
000180 bb a3 0d 38 42 27 a7 3c 45 21 c8 31 5a e6 b3 35
       3.3769506e-05 0.020404462 5.8245484e-09 1.340358e-06
000190 a8 91 08 32 f3 7e 83 35 30 da ce 31 05 96 e0 35
       7.94936e-09 9.797208e-07 6.020194e-09 1.6732962e-06
0001a0 76 58 3c 32 6a 4f f0 34 ee 72 9b 31 52 a2 11 33
       1.0963154e-08 4.4761265e-07 4.5241597e-09 3.3908073e-08
0001b0 17 70 cf 35 63 5a fe 37 eb 04 bb 35 f8 b5 36 37
       1.5455324e-06 3.032125e-05 1.3934017e-06 1.0890413e-05
0001c0 c5 4a aa 35 1f 4b ad 36 52 93 80 35 95 d0 1a 37
       1.2687748e-06 5.164547e-06 9.579619e-07 9.22768e-06
0001d0 30 ea c7 35 ad c1 d9 36 46 12 db 35 b9 1e a0 37
       1.4894813e-06 6.489651e-06 1.632209e-06 1.9087793e-05
0001e0 c1 36 db 35 e3 21 a0 37 3f 46 95 40 f7 c9 fd 38
       1.6332707e-06 1.9089266e-05 4.664825 0.00012101599
0001f0 a8 04 1c 40 bf 73 1e 32 ec 63 ed 37 d8 5f 72 31
       2.4377842 9.223128e-09 2.8299131e-05 3.5270116e-09
000200 fc 22 bf 37 2c 6d fa 30 c6 cb dc 35 d1 11 52 31
       2.2785265e-05 1.8220923e-09 1.6450583e-06 3.056915e-09
000210 87 74 8b 34 1d b4 92 31 ee ca 66 33 fd f9 13 36
       2.5975552e-07 4.2696358e-09 5.373561e-08 2.205022e-06
000220 f4 88 16 37 d4 d6 04 36 b6 f0 9c 36 a1 fe 15 36
       8.972584e-06 1.979458e-06 4.6771847e-06 2.2350944e-06
000230 e4 fb b0 36 06 a1 c8 35 a9 c1 93 36 8c b0 1e 36
       5.2745327e-06 1.4948025e-06 4.4034864e-06 2.3646598e-06
000240 64 7c a2 36 3b b4 55 36 3c 5b 04 37 4f b6 55 36
       4.842457e-06 3.1844381e-06 7.889055e-06 3.184559e-06
000250 f7 5a 04 37 cd c2 ab 40 d3 b8 0f 39 cb b3 df 3f
       7.8889925e-06 5.3675294 0.00013706395 1.7476743
000260 54 72 b3 32 d5 04 55 37 08 c7 46 32 a5 4a 2d 37
       2.0890333e-08 1.2696914e-05 1.1570371e-08 1.0328983e-05
000270 99 6d 07 31 d3 c1 19 36 d6 d8 8b 31 ab 85 76 34
       1.9707385e-09 2.2911597e-06 4.070084e-09 2.2959163e-07
000280 07 e3 61 31 96 38 d1 32 a9 d6 67 33 da 81 7f 33
       3.287086e-09 2.4356535e-08 5.397911e-08 5.9489913e-08
000290 e7 d1 3e 33 44 e2 52 33 18 9f 45 33 8d 62 80 33
       4.4428727e-08 4.9100223e-08 4.601233e-08 5.978391e-08
0002a0 63 9a 3e 33 f8 3e 51 33 d3 6d 41 33 0d 80 81 33
       4.4378236e-08 4.8718874e-08 4.50362e-08 6.030323e-08
0002b0 14 03 68 33 57 3d 74 33 14 03 68 33 59 3d 74 33
       5.401951e-08 5.6866465e-08 5.401951e-08 5.6866472e-08
0002c0 7d db b1 3c d1 18 89 36 f5 24 fd 3d 11 83 9f 2c
       0.021711105 4.085807e-06 0.123605646 4.533603e-12
0002d0 47 b6 41 33 8a cd 73 2d 96 ea 84 33 76 4f d0 2c
       4.5102095e-08 1.385859e-11 6.1894e-08 5.9205375e-12
0002e0 9a ac 13 33 f8 07 0b 2c d0 bf b7 2b 9f dd 50 29
       3.4383085e-08 1.9757512e-12 1.3056171e-12 4.6377503e-14
0002f0 3b 32 73 2c 61 f4 29 33 4d f2 38 33 b2 23 22 33
       3.456026e-12 3.957064e-08 4.306121e-08 3.775103e-08
000300 fd fc 37 33 a1 6a 24 33 b1 38 54 33 a3 16 22 33
       4.28381e-08 3.8281204e-08 4.9411657e-08 3.7739152e-08
000310 6f 94 2b 33 f1 6f 22 33 e6 1e 84 33 05 92 29 33
       3.994904e-08 3.7820374e-08 6.1523494e-08 3.9481183e-08
000320 d1 85 30 33 05 92 29 33 d5 85 30 33 87 58 e2 3c
       4.10999e-08 3.9481183e-08 4.1099913e-08 0.027630104
000330 95 21 66 36 e1 0f 89 3d 2c 3e 93 2c 61 e5 e9 32
       3.4292218e-06 0.06692482 4.1848938e-12 2.722908e-08
000340 f1 26 c0 2d 76 18 57 33 44 91 38 2d ce da d3 32
       2.1845166e-11 5.0080835e-08 1.04914445e-11 2.4663134e-08
000350 43 93 81 2b 27 41 d8 2b 6c ff 68 29 15 6c f3 2c
       9.206875e-13 1.5365807e-12 5.173589e-14 6.918475e-12
000360 84 ae 99 3a ec b9 11 3b 73 92 93 3a e3 56 c7 3a
       0.0011724983 0.0022236062 0.0011258855 0.0015208389
000370 52 7f 83 3a f7 28 1d 3b 0a 6c 29 3a c0 e6 9e 3a
       0.0010032451 0.0023980716 0.00064629375 0.0012123212
000380 2b 65 ad 3a 92 6a 0b 3b 74 0f b7 3a c4 c4 27 3b
       0.0013229003 0.0021273238 0.0013966397 0.002559946
000390 9d 19 b7 3a 17 c9 27 3b 7b ff f0 44 0f f2 78 3d
       0.0013969425 0.0025602037 1927.9838 0.06077772
0003a0 a3 e7 1e 43 2b d7 23 37 77 9d 4a 3b 18 d3 b9 36
       158.90483 9.765655e-06 0.003091661 5.538004e-06
0003b0 75 f6 22 3b 42 a3 0f 35 97 b6 a0 3a 77 73 cf 35
       0.0024866138 5.350922e-07 0.0012261447 1.5456307e-06
0003c0 f6 89 f5 38 b9 0c 01 36 7a 60 28 37 a7 22 f4 2f
       0.000117082076 1.9229904e-06 1.0036043e-05 4.4407963e-10
0003d0 67 82 af 30 78 27 90 2e 83 ce 00 31 0a fc d1 2e
       1.2769988e-09 6.555373e-11 1.874384e-09 9.548991e-11
0003e0 93 ac 90 31 0c 6c 18 2e e3 41 a1 30 90 c8 1a 30
       4.210571e-09 3.4656764e-11 1.1733018e-09 5.630989e-10
0003f0 a1 61 17 32 21 63 d0 30 dc 3f 09 31 21 63 d0 30
       8.811555e-09 1.5162166e-09 1.9972424e-09 1.5162166e-09
