Assets/results/CubeAgent8/AutoAgentFinale/AutoAgentFinale-380.onnx (onnx, 89226 bytes, 11 tensors)

60 f4 [33]
0.051231552 0.5026161 0.3598058 0.051231552 0.5026161 0.35229105 0.051231552 0.07240481
0.07240481 0.051231552 0.07240481 0.07240481 0.051231552 0.07240481 0.07240481 0.051231552
0.07240481 0.07240481 0.051231552 0.07240481 0.07240481 0.051231552 0.07240481 0.07240481
0.051231552 0.07240481 0.07240481 0.051231552 0.07240481 0.07240481 0.051231552 0.07240481
0.07240481
00000000: 2dd8 513d 73ab 003f 7738 b83e 2dd8 513d
00000010: 73ab 003f 7e5f b43e 2dd8 513d f948 943d
00000020: f948 943d 2dd8 513d f948 943d f948 943d
00000030: 2dd8 513d f948 943d f948 943d 2dd8 513d
00000040: f948 943d f948 943d 2dd8 513d f948 943d
00000050: f948 943d 2dd8 513d f948 943d f948 943d
00000060: 2dd8 513d f948 943d f948 943d 2dd8 513d
00000070: f948 943d f948 943d 2dd8 513d f948 943d
00000080: f948 943d

63 f4 [6]
0.059012804 0.05136972 0.06746085 8.625201 0.2667156 0.12084667
00000000: 69b7 713d 0e69 523d ea28 8a3d d300 0a41
00000010: f28e 883e 757e f73d

action_model._continuous_distribution.log_sigma f4 [1, 2]
0.0 0.0
00000000: 0000 0000 0000 0000

action_model._continuous_distribution.mu.bias f4 [2]
0.0 0.0
00000000: 0000 0000 0000 0000

action_model._continuous_distribution.mu.weight f4 [2, 127]
0.007690161 0.009306627 -0.011126232 0.013806316 0.026971826 0.008227029 -0.024011504 0.016155154
-0.017920872 -0.02527284 -0.029980233 -0.011383419 -0.036746383 0.0018594092 -0.0027516389 -0.028166631
-0.0042893696 -0.00074120145 -0.01793128 0.0029802693 0.019657835 0.00575108 -0.016871387 0.014095207
-0.008572862 0.027520074 -0.010349788 -0.0154801 -0.014325782 -0.012157073 -0.042838138 -0.03386341
0.018551333 0.0060272203 -0.0125125125 0.009665134 0.029944032 -0.010701748 -0.01653113 -0.0017816983
0.00351104 -0.022083445 -0.009550035 0.0012905386 -0.0062561817 0.006266977 -0.017467357 0.010341554
0.003334019 0.013905795 -0.037561547 -0.034443665 -0.011664968 0.0020176626 -0.010409116 -0.015957506
0.0033148674 0.023954507 -0.013143882 -0.0028685268 -0.0029715335 0.014820794 0.010496731 -0.018943734
-0.0042754696 -9.099414e-05 0.04214646 0.0071434784 0.021174071 0.0076133194 -0.01710195 0.0053113503
0.024600351 0.0016306259 -0.019555163 0.012388589 -0.018380268 -0.004030025 -0.011071763 -0.008213643
-0.027644223 0.036366854 -0.00365115 -0.0063758343 0.0032861002 0.021245113 0.02581176 0.02526398
0.0014938208 0.018303016 -0.0009812025 0.022277597 -0.006341307 -0.03188814 0.018027214 0.024780864
0.007045681 0.04497981 -0.004684666 0.0025144739 -0.020845477 -0.012802322 0.021780796 0.0134852305
0.028916413 -0.008936295 -0.010631051 -0.02527414 -0.016744403 0.012143837 0.017498633 0.014102857
0.037449207 -0.02858369 -0.008964027 0.01854656 0.00040948048 0.014942947 0.020595314 0.028736768
0.015845176 -0.010820512 0.0043523936 0.013918634 0.029784516 -0.020695029 0.015322729 -0.030916063
0.03204819 0.006243793 0.0034268189 -0.0010168996 0.016787264 0.024540698 0.02312796 0.012538371
0.011590656 -0.008278201 0.0015431846 0.008172381 -0.0051960163 -0.010931014 0.010779337 0.03672802
0.01568407 0.02168744 -0.010227676 -0.014130517 0.021697158 0.006089903 -0.039411526 0.003305815
0.031492885 0.01936369 0.016018502 -0.019217415 8.034236e-05 -0.009765972 0.0024932192 0.012958287
0.026956437 0.0050142906 -0.012472347 -0.008998486 -0.010799961 -0.009046818 0.008068902 0.013733414
-0.0013158873 -0.006731314 0.00875951 0.002496051 0.007374617 0.010565465 -0.0056027947 -0.0074959393
0.0030852542 0.024876317 0.007998726 0.023028603 0.008930818 -0.0011779469 -0.01653018 -0.006013991
-0.007163352 0.0018475823 -6.893873e-05 0.01326709 0.0013613728 0.0109506855 0.023775574 -0.048619058
0.01531111 0.004839911 -0.0105373515 0.0022242628 0.0070839114 -0.03108194 -0.018111076 -0.0043008598
0.017010855 -0.002000166 -0.0030164572 -0.02759401 0.02584727 -0.00400427 -0.016509488 0.013014785
0.00808983 -0.02712053 0.009576748 0.005526839 -0.013122591 -0.0055970787 0.0053989287 0.0073153684
0.018206453 0.012211225 0.007402246 -0.0026297984 0.009785684 -0.0015931847 -0.0019745172 -0.00032661506
0.0024203018 -0.0007032585 0.0073863952 0.015951118 -0.00080133334 -0.009603798 0.02287115 -0.002253751
-0.024056258 0.012077324 0.0059425062 0.010969902 0.0016802739 0.009060578 -0.0036332216 0.03417362
0.006808698 -0.006567298 -0.0038359524 -0.029799921 -0.019509042 -0.012445513 -0.013554744 -0.0017116627
0.0076491833 0.038332418 0.010129871 0.014325467 0.003693619 0.03671782
00000000: bffd fb3b d37a 183c cd4a 36bc e333 623c
00000010: 05f4 dc3c a9ca 063c c6b3 c4bc d057 843c
00000020: cbce 92bc fd08 cfbc 1b99 f5bc 8581 3abc
00000030: 6083 16bd 6bb7 f33a d754 34bb b5bd e6bc
00000040: d78d 8cbb 304d 42ba 9fe4 92bc 9f50 433b
00000050: 7809 a13c 8e73 bc3b dd35 8abc 95ef 663c
00000060: 3075 0cbc c771 e13c 2892 29bc 3fa0 7dbc
00000070: afb6 6abc 762e 47bc 0b77 2fbd 5cb4 0abd
00000080: f7f8 973c fd7f c53b 4801 4dbc 835a 1e3c
00000090: 304d f53c 6256 2fbc 4b6c 87bc e087 e9ba
000000a0: 7a19 663b 57e8 b4bc c077 1cbc 4a27 a93a
000000b0: a800 cdbb 375b cd3b b417 8fbc 9f6f 293c
000000c0: 8f7f 5a3b 22d5 633c 23da 19bd cd14 0dbd
000000d0: 6c1e 3fbc c33a 043b ff8a 2abc 51b9 82bc
000000e0: 3f3e 593b 3e3c c43c 7059 57bc e5fd 3bbb
000000f0: 0fbe 42bb ead2 723c 7bfa 2b3c e42f 9bbc
00000100: 3d19 8cbb 1bd4 beb8 c4a1 2c3d d713 ea3b
00000110: 3f75 ad3c 2779 f93b 6319 8cbc d60a ae3b
00000120: ad86 c93c baba d53a 2632 a0bc 82f9 4a3c
00000130: 3792 96bc 4d0e 84bb 5766 35bc 8492 06bc
00000140: 2376 e2bc 69f5 143d 2248 6fbb 60ec d0bb
00000150: 9d5b 573b 3b0a ae3c 2f73 d33c 68f6 ce3c
00000160: 4fcc c33a 35f0 953c b19b 80ba 827f b63c
00000170: bdca cfbb 239d 02bd cfad 933c 3d01 cb3c
00000180: 75df e63b c03c 383d d481 99bb dfc9 243b
00000190: 22c4 aabc d5c0 51bc a46d b23c 28f1 5c3c
000001a0: 1de2 ec3c 8a69 12bc dc2d 2ebc b70b cfbc
000001b0: 8f2b 89bc f2f6 463c 4b59 8f3c ab0f 673c
000001c0: 5764 193d 5828 eabc dbdd 12bc f5ee 973c
000001d0: 8aaf d639 43d3 743c 81b7 a83c 5f69 eb3c
000001e0: becd 813c 8448 31bc 869e 8e3b fb0a 643c
000001f0: a8fe f33c 9f88 a9bc 2f0c 7b3c af43 fdbc
00000200: f644 033d bb98 cc3b 7b94 603b 7d49 85ba
00000210: 7285 893c 9309 c93c d976 bd3c bd6d 4d3c
00000220: bce6 3d3c 4ba1 07bc af44 ca3a 73e5 053c
00000230: 5843 aabb ff17 33bc d19b 303c 1f70 163d
00000240: e17b 803c dca9 b13c fb91 27bc af83 67bc
00000250: 3dbe b13c cf8d c73b fb6d 21bd 5fa6 583b
00000260: affe 003d 9aa0 9e3c 3c39 833c d76d 9dbc
00000270: 7a7d a838 7501 20bc 4765 233b ff4e 543c
00000280: bfd3 dc3c eb4e a43b d158 4cbc 636e 13bc
00000290: 52f2 30bc 1b39 14bc 6e33 043c 1d02 613c
000002a0: da79 acba 5b92 dcbb 0c84 0f3c c994 233b
000002b0: c5a6 f13b c61a 2d3c a697 b7bb 7fa0 f5bb
000002c0: fa31 4a3b 6bc9 cb3c 170d 033c 7ba6 bc3c
000002d0: 9152 123c 5765 9aba 4d6a 87bc 0311 c5bb
000002e0: 8dba eabb 932a f23a 3393 90b8 355e 593c
000002f0: 1770 b23a 816a 333c fec4 c23c c724 47bd
00000300: 73db 7a3c 1e98 9e3b dba4 2cbc f0c4 113b
00000310: 2820 e83b 8d9f febc ae5d 94bc 3aee 8cbb
00000320: 595a 8b3c 3815 03bb c1af 45bb d50c e2bc
00000330: a7bd d33c 4036 83bb e83e 87bc f73b 553c
00000340: 358b 043c e02b debc cbe7 1c3c 7c1a b53b
00000350: 2300 57bc b367 b7bb 7fe9 b03b c2b5 ef3b
00000360: b325 953c 9711 483c 8a8e f23b b258 2cbb
00000370: 2254 203c 68d2 d0ba e766 01bb 883d abb9
00000380: ed9d 1e3b e15a 38ba 9309 f23b ebab 823c
00000390: 9210 52ba 4059 1dbc 475c bb3c abb3 13bb
000003a0: a111 c5bc f8df 453c 5bb9 c23b 1bbb 333c
000003b0: a33c dc3a d272 143c 581b 6ebb a3f9 0b3d
000003c0: 801b df3b 7d32 d7bb 9a64 7bbb f71e f4bc
000003d0: 6dd1 9fbc 44e8 4bbc b814 5ebc df59 e0ba
000003e0: 00a6 fa3b 7402 1d3d c2f7 253c 5db5 6a3c
000003f0: a510 723b 6d65 163d

network_body._body_endoder.seq_layers.0.bias f4 [127]
0.0 0.0 0.0 0.0 0.0 0.0 0.0 0.0
0.0 0.0 0.0 0.0 0.0 0.0 0.0 0.0
0.0 0.0 0.0 0.0 0.0 0.0 0.0 0.0
0.0 0.0 0.0 0.0 0.0 0.0 0.0 0.0
0.0 0.0 0.0 0.0 0.0 0.0 0.0 0.0
0.0 0.0 0.0 0.0 0.0 0.0 0.0 0.0
0.0 0.0 0.0 0.0 0.0 0.0 0.0 0.0
0.0 0.0 0.0 0.0 0.0 0.0 0.0 0.0
0.0 0.0 0.0 0.0 0.0 0.0 0.0 0.0
0.0 0.0 0.0 0.0 0.0 0.0 0.0 0.0
0.0 0.0 0.0 0.0 0.0 0.0 0.0 0.0
0.0 0.0 0.0 0.0 0.0 0.0 0.0 0.0
0.0 0.0 0.0 0.0 0.0 0.0 0.0 0.0
0.0 0.0 0.0 0.0 0.0 0.0 0.0 0.0
0.0 0.0 0.0 0.0 0.0 0.0 0.0 0.0
0.0 0.0 0.0 0.0 0.0 0.0 0.0
00000000: 0000 0000 0000 0000 0000 0000 0000 0000
00000010: 0000 0000 0000 0000 0000 0000 0000 0000
00000020: 0000 0000 0000 0000 0000 0000 0000 0000
00000030: 0000 0000 0000 0000 0000 0000 0000 0000
00000040: 0000 0000 0000 0000 0000 0000 0000 0000
00000050: 0000 0000 0000 0000 0000 0000 0000 0000
00000060: 0000 0000 0000 0000 0000 0000 0000 0000
00000070: 0000 0000 0000 0000 0000 0000 0000 0000
00000080: 0000 0000 0000 0000 0000 0000 0000 0000
00000090: 0000 0000 0000 0000 0000 0000 0000 0000
000000a0: 0000 0000 0000 0000 0000 0000 0000 0000
000000b0: 0000 0000 0000 0000 0000 0000 0000 0000
000000c0: 0000 0000 0000 0000 0000 0000 0000 0000
000000d0: 0000 0000 0000 0000 0000 0000 0000 0000
000000e0: 0000 0000 0000 0000 0000 0000 0000 0000
000000f0: 0000 0000 0000 0000 0000 0000 0000 0000
00000100: 0000 0000 0000 0000 0000 0000 0000 0000
00000110: 0000 0000 0000 0000 0000 0000 0000 0000
00000120: 0000 0000 0000 0000 0000 0000 0000 0000
00000130: 0000 0000 0000 0000 0000 0000 0000 0000
00000140: 0000 0000 0000 0000 0000 0000 0000 0000
00000150: 0000 0000 0000 0000 0000 0000 0000 0000
00000160: 0000 0000 0000 0000 0000 0000 0000 0000
00000170: 0000 0000 0000 0000 0000 0000 0000 0000
00000180: 0000 0000 0000 0000 0000 0000 0000 0000
00000190: 0000 0000 0000 0000 0000 0000 0000 0000
000001a0: 0000 0000 0000 0000 0000 0000 0000 0000
000001b0: 0000 0000 0000 0000 0000 0000 0000 0000
000001c0: 0000 0000 0000 0000 0000 0000 0000 0000
000001d0: 0000 0000 0000 0000 0000 0000 0000 0000
000001e0: 0000 0000 0000 0000 0000 0000 0000 0000
000001f0: 0000 0000 0000 0000 0000 0000

network_body._body_endoder.seq_layers.0.weight f4 [127, 39]
-0.29032996 0.15297095 -0.25741047 -0.19577365 -0.037568443 -0.06226241 0.1216405 0.015938085
-0.0019782572 0.055525016 -0.0034183348 -0.19089843 -0.15107931 -0.22182912 -0.095506825 0.10207699
0.046649624 -0.1328504 -0.050559264 0.05207111 -0.088722706 -0.26699835 -0.2825046 -0.10137744
0.07323902 -0.17531164 -0.029271202 -0.0149257155 0.24895263 -0.10006764 0.11161082 0.013065774
0.08671446 0.030770997 0.09517077 -0.065889016 -0.08194387 -0.12967147 -0.09012532 0.1389505
0.19224045 0.097831845 -0.06615438 0.0709211 0.012315951 0.047747165 0.07770464 -0.1346853
-0.25416112 0.014527611 0.3862779 -0.09061175 0.06794915 0.12824643 -0.09276311 0.014786975
-0.077563085 -0.04605288 -0.23880866 0.019139284 -0.21766108 -0.0070326263 -0.015726384 -0.1289283
0.20315035 -0.19378681 0.083688155 0.18274462 -0.21453576 -0.07402757 -0.059260156 0.004454483
0.3401689 0.19967836 -0.06062838 -0.13527513 -0.18015279 -0.11581623 -0.2545692 -0.19047087
0.018670537 -0.14922826 -0.11039601 -0.11753525 -0.015589325 0.06662369 -0.06095224 0.19181877
0.12968063 -0.05627001 0.06431227 0.36340892 -0.08300664 0.060910165 0.09198774 -0.03534515
0.30014536 -0.34445614 0.00011765053 0.119586565 -0.061298497 0.030350786 -0.13487166 -0.08184293
-0.14996172 0.03659071 -0.31186464 -0.12769824 -0.13097289 0.13166524 0.23726441 -0.2677197
-0.0916742 -0.14020047 0.15855932 0.1605431 -0.2678836 0.077854596 0.1384003 0.1862379
0.051073078 0.23620905 -0.1382107 0.20227216 0.1380444 -0.3444917 -0.10303429 -0.10375451
-0.19427782 -0.15936543 0.062294126 -0.048655186 -0.0837328 0.049876455 0.07169797 0.20869052
0.117612965 0.16155505 -0.21568908 -0.021975497 -0.07460729 -0.045162514 -0.0467379 -0.16132817
0.21725754 0.11308927 -0.178897 -0.15879108 -0.10368814 -0.094801486 0.09560254 0.28090447
0.031538524 -0.26517037 0.15457374 0.006165163 -0.1949997 0.020418378 -0.15630701 -0.07910114
0.58144 -0.11515174 0.24213006 -0.06973106 -0.119928196 0.12169138 -0.047484055 -0.022674529
-0.035410948 0.11941912 0.076502964 0.15492941 -0.21008234 -0.13261788 0.22037268 0.25886777
-0.3912991 0.022215005 -0.09258928 0.08925599 0.19607574 -0.09497449 -0.044424243 0.025254406
-0.03777139 -0.015751718 -0.13522089 -0.13176961 0.24152236 -0.019362196 0.114145726 -0.08372982
0.06609705 0.09336683 -0.118758 0.06523056 0.18271083 -0.0463301 0.09076423 0.1616356
0.12555048 -0.14609273 -0.1601344 -0.37476417 -0.0046212594 -0.036415186 0.07920952 0.12111656
0.031422786 0.17514388 0.1233232 0.09702199 0.054250043 -0.17427798 -0.05553893 0.03120609
-0.27336055 0.18427128 -0.04558301 0.11512288 -0.18233007 0.0019603735 0.032774247 0.20686635
-0.16892183 -0.047242805 0.014622236 0.08128718 -0.13228661 -0.067257345 -0.007524171 -0.06687338
0.029846868 0.28275216 -0.1586539 -0.13767701 -0.5058916 -0.02505821 -0.054755628 0.02723332
0.13339777 -0.052984253 0.016185634 -0.22024013 0.088482864 0.2287645 -0.150814 -0.15649524
0.11231793 -0.044846863 0.087220974 0.122866236 -0.22960445 0.16712026 -0.10733836 -0.06347446
00000000: 21a6 94be 6ba4 1c3e 4ecb 83be e378 48be
00000010: 5ee1 19bd de06 7fbd a81e f93d 9690 823c
00000020: a6a5 01bb 336e 633d 2406 60bb e17a 43be
00000030: 89b4 1abe 2c27 63be 1599 c3bd be0d d13d
00000040: ad13 3f3d ef09 08be 3b17 4fbd 8448 553d
00000050: 40b4 b5bd 02b4 88be 71a4 90be fa9e cfbd
00000060: 57fe 953d e584 33be 29ca efbc fd8a 74bc
00000070: 70ed 7e3e 43f0 ccbd 3794 e43d d411 563c
00000080: 5a97 b13d 7513 fc3c e5e8 c23d d2f0 86bd
00000090: 30d2 a7bd 99c8 04be a093 b8bd 0a49 0e3e
000000a0: aeda 443e 105c c83d f37b 87bd 153f 913d
000000b0: d8c8 493c 8892 433d 9c23 9f3d f1ea 09be
000000c0: 6821 82be 3805 6e3c 38c6 c53e a792 b9bd
000000d0: ed28 8b3d 0853 033e 96fa bdbd 1245 723c
000000e0: 65d9 9ebd f2a1 3cbd 428a 74be fdc9 9c3c
000000f0: 8ce2 5ebe f271 e6bb 9ed4 80bc c805 04be
00000100: a506 503e 0d70 46be b264 ab3d 6821 3b3e
00000110: 43af 5bbe c49b 97bd c7ba 72bd e9f6 913b
00000120: 9e2a ae3e 7c78 4c3e 7755 78bd 9085 0abe
00000130: f979 38be 0f31 edbd e556 82be cc0a 43be
00000140: f4f2 983c 4bcf 18be 4e17 e2bd 52b6 f0bd
00000150: 5e6a 7fbc 0072 883d 0ea9 79bd 246c 443e
00000160: 00cb 043e 627b 66bd 27b6 833d bc10 ba3e
00000170: 63ff a9bd f07c 793d 1164 bc3d 13c6 10bd
00000180: a7ac 993e 8e5c b0be 26bb f638 cde9 f43d
00000190: 2214 7bbd 36a2 f83c cc1b 0abe 449d a7bd
000001a0: 918f 19be 24e0 153d b9ac 9fbe 54c3 02be
000001b0: c21d 06be 41d3 063e 71f5 723e 8e12 89be
000001c0: afbf bbbd b690 0fbe 605d 223e 6965 243e
000001d0: 0a28 89be 3b72 9f3d cfb8 0d3e 26b5 3e3e
000001e0: 0132 513d c9e0 713e 1b87 0dbe 6f20 4f3e
000001f0: 835b 0d3e 3761 b0be a403 d3bd 3f7d d4bd
00000200: c4f0 46be b130 23be 2028 7f3d a94a 47bd
00000210: 1a7c abbd 414b 4c3d 63d6 923d f8b2 553e
00000220: 11df f03d b06e 253e 99dd 5cbe f505 b4bc
00000230: b5cb 98bd 54fc 38bd 3d70 3fbd 3633 25be
00000240: c378 5e3e 599b e73d c630 37be 219a 22be
00000250: 735a d4bd 4827 c2bd 44cb c33d b6d2 8f3e
00000260: 8a2e 013d 69c4 87be 9448 1e3e 2305 ca3b
00000270: 00ae 47be 7144 a73c f20e 20be c7ff a1bd
00000280: 40d9 143f add4 ebbd f1f0 773e 28cf 8ebd
00000290: ea9c f5bd 5539 f93d a47e 42bd efbf b9bc
000002a0: 120b 11bd 0392 f43d 96ad 9c3d d1a5 1e3e
000002b0: d31f 57be fbcc 07be 60a9 613e 518a 843e
000002c0: 5b58 c8be 3efc b53c 739f bdbd d8cb b63d
000002d0: 14c8 483e fc81 c2bd 32f6 35bd 54e2 ce3c
000002e0: 2cb6 1abd bf09 81bc 5877 0abe 9dee 06be
000002f0: a351 773e 789d 9ebc 3cc5 e93d 8a7a abbd
00000300: e45d 873d 1c37 bf3d 6537 f3bd 9a97 853d
00000310: 8c18 3b3e a2c4 3dbd 99e2 b93d cd83 253e
00000320: 4e90 003e 5599 15be 46fa 23be 17e1 bfbe
00000330: ef6d 97bb 1728 15bd 9a38 a23d f60b f83d
00000340: 2eb5 003d eb58 333e e090 fc3d 77b3 c63d
00000350: 4b35 5e3d ed75 32be ca7c 63bd eaa3 ff3c
00000360: eaf5 8bbe 9cb1 3c3e 40b5 3abd 8bc5 eb3d
00000370: bcb4 3abe 9c79 003b 4a3e 063d c6d4 533e
00000380: d8f9 2cbe ac81 41bd 1a92 6f3c e579 a63d
00000390: 2476 07be 38be 89bd 528d f6bb e9f4 88bd
000003a0: 6b81 f43c e4c4 903e 2b76 22be 34fb 0cbe
000003b0: 1d82 01bf e046 cdbc 7047 60bd 6918 df3c
000003c0: 6d99 083e 0406 59bd bc97 843c a186 61be
000003d0: 8136 b53d 3e41 6a3e fc6e 1abe 4a40 20be
000003e0: f106 e63d 58b1 37bd e9a0 b23d 4ba1 fb3d
000003f0: 6e1d 6bbe 9321 2b3e 37d4 dbbd e6fe 81bd

network_body._body_endoder.seq_layers.2.bias f4 [127]
0.0 0.0 0.0 0.0 0.0 0.0 0.0 0.0
0.0 0.0 0.0 0.0 0.0 0.0 0.0 0.0
0.0 0.0 0.0 0.0 0.0 0.0 0.0 0.0
0.0 0.0 0.0 0.0 0.0 0.0 0.0 0.0
0.0 0.0 0.0 0.0 0.0 0.0 0.0 0.0
0.0 0.0 0.0 0.0 0.0 0.0 0.0 0.0
0.0 0.0 0.0 0.0 0.0 0.0 0.0 0.0
0.0 0.0 0.0 0.0 0.0 0.0 0.0 0.0
0.0 0.0 0.0 0.0 0.0 0.0 0.0 0.0
0.0 0.0 0.0 0.0 0.0 0.0 0.0 0.0
0.0 0.0 0.0 0.0 0.0 0.0 0.0 0.0
0.0 0.0 0.0 0.0 0.0 0.0 0.0 0.0
0.0 0.0 0.0 0.0 0.0 0.0 0.0 0.0
0.0 0.0 0.0 0.0 0.0 0.0 0.0 0.0
0.0 0.0 0.0 0.0 0.0 0.0 0.0 0.0
0.0 0.0 0.0 0.0 0.0 0.0 0.0
00000000: 0000 0000 0000 0000 0000 0000 0000 0000
00000010: 0000 0000 0000 0000 0000 0000 0000 0000
00000020: 0000 0000 0000 0000 0000 0000 0000 0000
00000030: 0000 0000 0000 0000 0000 0000 0000 0000
00000040: 0000 0000 0000 0000 0000 0000 0000 0000
00000050: 0000 0000 0000 0000 0000 0000 0000 0000
00000060: 0000 0000 0000 0000 0000 0000 0000 0000
00000070: 0000 0000 0000 0000 0000 0000 0000 0000
00000080: 0000 0000 0000 0000 0000 0000 0000 0000
00000090: 0000 0000 0000 0000 0000 0000 0000 0000
000000a0: 0000 0000 0000 0000 0000 0000 0000 0000
000000b0: 0000 0000 0000 0000 0000 0000 0000 0000
000000c0: 0000 0000 0000 0000 0000 0000 0000 0000
000000d0: 0000 0000 0000 0000 0000 0000 0000 0000
000000e0: 0000 0000 0000 0000 0000 0000 0000 0000
000000f0: 0000 0000 0000 0000 0000 0000 0000 0000
00000100: 0000 0000 0000 0000 0000 0000 0000 0000
00000110: 0000 0000 0000 0000 0000 0000 0000 0000
00000120: 0000 0000 0000 0000 0000 0000 0000 0000
00000130: 0000 0000 0000 0000 0000 0000 0000 0000
00000140: 0000 0000 0000 0000 0000 0000 0000 0000
00000150: 0000 0000 0000 0000 0000 0000 0000 0000
00000160: 0000 0000 0000 0000 0000 0000 0000 0000
00000170: 0000 0000 0000 0000 0000 0000 0000 0000
00000180: 0000 0000 0000 0000 0000 0000 0000 0000
00000190: 0000 0000 0000 0000 0000 0000 0000 0000
000001a0: 0000 0000 0000 0000 0000 0000 0000 0000
000001b0: 0000 0000 0000 0000 0000 0000 0000 0000
000001c0: 0000 0000 0000 0000 0000 0000 0000 0000
000001d0: 0000 0000 0000 0000 0000 0000 0000 0000
000001e0: 0000 0000 0000 0000 0000 0000 0000 0000
000001f0: 0000 0000 0000 0000 0000 0000

network_body._body_endoder.seq_layers.2.weight f4 [127, 127]
0.12806408 -0.06069246 0.037759323 -0.20059423 0.06492145 0.09572016 -0.119901806 0.14694658
-0.04402458 -0.15572084 -0.026183242 -0.109467864 -0.022385785 -0.12651074 -0.015260139 -0.09968845
-0.0038175986 -0.11429184 -0.18351036 -0.010645401 -0.04551701 0.22146448 -0.07377315 -0.02328295
-0.03304294 0.032633666 0.006908501 0.040739086 0.030270621 0.10713655 -0.023562703 -0.08671538
0.078405984 0.020456044 0.04639753 -0.029562628 0.0045736474 -0.069068156 0.04006195 0.03794891
0.0577481 -0.17686437 0.05018258 -0.1719433 0.075569384 0.115526505 0.086204045 0.12798968
0.09680846 0.003153829 -0.17103755 -0.08479138 0.03609402 0.03252521 0.116684936 -0.12424542
0.10444967 0.05526532 0.06449717 0.06310982 0.005150699 -0.011254094 -0.022496907 0.060613055
-0.09613917 0.039725445 0.22589636 0.107558794 -0.03267299 -0.07593735 0.015185033 0.19937554
-0.17191349 0.07094592 0.04990624 -0.095768526 0.03980409 -0.013131209 0.020980902 0.026420793
-0.06728515 0.057090096 -0.027760398 0.048166357 -0.124790855 -0.017116912 -0.002932115 -0.1050887
-0.012365422 -0.04897283 0.09539358 0.002554024 -0.064723946 0.054966304 0.0040363204 -0.043519426
0.14183399 -0.2349823 -0.11317399 -0.10421082 -0.14888959 0.031055052 0.068995684 0.10442869
0.022058548 0.044473056 0.06942626 0.015881676 0.0007355068 0.18487525 -0.100304864 0.10594497
0.09244563 0.010873567 0.1102032 -0.1602463 0.054068774 0.01120781 -0.24216071 -0.020486444
0.0062516895 -0.12036465 -0.03446667 0.067778006 0.14208192 -0.04162064 0.071477324 -0.052678835
0.094825216 -0.025555648 -0.027785327 0.015205413 0.02904022 -0.036431678 0.043542996 -0.0823266
-0.09022944 -0.025043264 -0.2500483 -0.03502073 0.09910963 0.057473414 0.07048885 -0.073049426
0.07791497 -0.01114098 0.11830513 -0.1654367 0.12105023 -0.20183058 0.12866764 -0.032517206
-0.085080974 -0.2141048 0.106798306 -0.00041823604 0.017597048 0.049726125 0.07499379 -0.04511409
-0.05912138 0.050136216 0.121951155 -0.061897457 -0.008105003 -0.09313628 0.1076637 0.11047312
-0.06693752 0.013883795 -0.04541297 0.0037407314 -0.0019476811 -0.07082483 -0.061132785 -0.036425617
-0.07409547 -0.12341539 0.034463294 -0.08326465 -0.011452574 -0.031505283 -0.10070765 -0.13104606
0.098064125 0.04203771 0.079201095 -0.020804362 0.061381985 0.0021156678 0.005857753 0.19457045
0.032301523 -0.037536275 -0.04292239 0.032015074 -0.028049663 -0.159876 -0.014142955 -0.0523041
0.025676455 0.099358656 -0.098166235 -0.006230237 -0.054487444 -0.12690298 -0.018174432 -0.09970291
0.022183513 -0.12315346 -0.0028115842 0.03529037 -0.026924156 -0.006631923 0.038063955 -0.065625556
-0.005392055 -0.08402122 -0.08655948 0.019878028 -0.037976574 0.016255222 -0.07282292 -0.043972537
-0.057125382 -0.025357293 -0.03601337 -0.012235048 -0.13968755 -0.09623069 -0.13082898 -0.02749105
-0.15389194 0.076388866 0.09092721 0.008973005 0.043269105 0.009546681 0.017053239 0.06846894
0.16396989 0.06855807 0.0058392035 0.09541669 -0.03564927 -0.08739486 0.047195178 -0.007856561
-0.052651927 -0.018800309 -0.013027821 -0.10983781 -0.12546414 -0.0021118622 -0.101250455 -0.07153021
00000000: 3b23 033e a898 78bd 85a9 1a3d 9368 4dbe
00000010: 8af5 843d ee08 c43d 148f f5bd 2a79 163e
00000020: 1e53 34bd 4975 1fbe 3d7e d6bc b030 e0bd
00000030: 6562 b7bc 088c 01be a905 7abc 7529 ccbd
00000040: ad30 7abb d711 eabd 24ea 3bbe 0c6a 2ebc
00000050: 0b70 3abd 96c7 623e 6116 97bd e3bb bebc
00000060: 0958 07bd e1aa 053d b560 e23b 07de 263d
00000070: 18fa f73c 686a db3d 9206 c1bc d597 b1bd
00000080: 5193 a03d 6f93 a73c 560b 3e3d 532d f2bc
00000090: 89de 953b 9b73 8dbd 0018 243d 5170 1b3d
000000a0: 4689 6c3d ef1b 35be 408c 4d3d e811 30be
000000b0: 1fc4 9a3d 2999 ec3d bf8b b03d ba0f 033e
000000c0: 8443 c63d 78b0 4e3b 7824 2fbe 1aa7 adbd
000000d0: 53d7 133d 2839 053d 83f8 ee3d 6274 febd
000000e0: b5e9 d53d e35d 623d 1817 843d b93f 813d
000000f0: 32c7 a83b 1763 38bc 6f4b b8bc 6545 783d
00000100: 9de4 c4bd 26b7 223d 6051 673e c947 dc3d
00000110: 1dd4 05bd 0b85 9bbd a5ca 783c 1a29 4c3e
00000120: 170a 30be 184c 913d 7c6a 4c3d 4a22 c4bd
00000130: 9d09 233d 4824 57bc 24e0 ab3c 6b70 d83c
00000140: cccc 89bd 4ed7 693d c669 e3bc 164a 453d
00000150: 5992 ffbd c438 8cbc ba28 40bb bf38 d7bd
00000160: 5798 4abc bc97 48bd b65d c33d 6a61 273b
00000170: fd8d 84bd 5924 613d 1c43 843b 6d41 32bd
00000180: ee3c 113e 339f 70be c4c7 e7bd 7b6c d5bd
00000190: 8376 18be 2a67 fe3c 9c4d 8d3d b6de d53d
000001a0: 21b4 b43c 6129 363d 5b2f 8e3d 4a1a 823c
000001b0: 07cf 403a f04f 3d3e a36c cdbd adf9 d83d
000001c0: 2254 bd3d 0c27 323c 37b2 e13d 9b17 24be
000001d0: 3877 5d3d f6a0 373c faf8 77be 30d3 a7bc
000001e0: f9da cc3b be81 f6bd ec2c 0dbd 32cf 8a3d
000001f0: ec7d 113e 677a 2abd b462 923d c3c5 57bd
00000200: b933 c23d 145a d1bc 0e9e e3bc 2020 793c
00000210: c1e5 ed3c 6239 15bd 245a 323d d99a a8bd
00000220: 36ca b8bd 8827 cdbc 5506 80be e671 0fbd
00000230: fdf9 ca3d 3e69 6b3d 755c 903d f09a 95bd
00000240: e291 9f3d a888 36bc f649 f23d 3d68 29be
00000250: 2fe9 f73d adac 4ebe 73c1 033e c330 05bd
00000260: ef3e aebd 4a3e 5bbe 12b9 da3d b146 dbb9
00000270: af27 903c 9fad 4b3d 5896 993d 8dc9 38bd
00000280: 4329 72bd a25b 4d3d 87c1 f93d 3088 7dbd
00000290: d9ca 04bc 3cbe bebd c97e dc3d bb3f e23d
000002a0: 8a16 89bd db78 633c f302 3abd 0f27 753b
000002b0: 5549 ffba 9c0c 91bd 5f66 7abd 0733 15bd
000002c0: 5ebf 97bd 35c1 fcbd 6229 0d3d a886 aabd
000002d0: 94a3 3bbc af0b 01bd d03f cebd f030 06be
000002e0: d8d5 c83d bc2f 2c3d 2f34 a23d e96d aabc
000002f0: ad6b 7b3d 04a7 0a3b 65f2 bf3b 7a3d 473e
00000300: 9a4e 043d a3bf 19bd 63cf 2fbd 3d22 033d
00000310: 68c8 e5bc 89b6 23be dab7 67bc d33c 56bd
00000320: 6e57 d23c 8d7c cb3d 610b c9bd 0427 ccbb
00000330: 3a2e 5fbd dbf2 01be 8ce2 94bc 0a31 ccbd
00000340: 33ba b53c e237 fcbd 8e42 38bb a38c 103d
00000350: 0c90 dcbc 9a50 d9bb f3e8 1b3d b166 86bd
00000360: d6af b0bb 5113 acbd 1946 b1bd 3fd7 a23c
00000370: 538d 1bbd ac29 853c 2f24 95bd 8c1c 34bd
00000380: 4efc 69bd 19ba cfbc c182 13bd 8375 48bc
00000390: 410a 0fbe 9914 c5bd 08f8 05be e934 e1bc
000003a0: d995 1dbe c471 9c3d 0c38 ba3d 8303 133c
000003b0: f23a 313d af69 1c3c 3cb3 8b3c 7239 8c3d
000003c0: b9e7 273e 2c68 8c3d ca56 bf3b d369 c33d
000003d0: f804 12bd 14fc b2bd bb4f 413d ceb8 00bc
000003e0: 8ca9 57bd 1b03 9abc a472 55bc a5f2 e0bd
000003f0: ac79 00be 2b67 0abb 665c cfbd 6e7e 92bd

network_body.observation_encoder.processors.0.normalizer.running_mean f4 [33]
0.0 0.49868765 0.6432331 0.0 0.49868765 0.650888 0.0 0.9973752
0.9973752 0.0 0.9973752 0.9973752 0.0 0.9973752 0.9973752 0.0
0.9973752 0.9973752 0.0 0.9973752 0.9973752 0.0 0.9973752 0.9973752
0.0 0.9973752 0.9973752 0.0 0.9973752 0.9973752 0.0 0.9973752
0.9973752
00000000: 0000 0000 fd53 ff3e edaa 243f 0000 0000
00000010: fd53 ff3e 99a0 263f 0000 0000 fb53 7f3f
00000020: fb53 7f3f 0000 0000 fb53 7f3f fb53 7f3f
00000030: 0000 0000 fb53 7f3f fb53 7f3f 0000 0000
00000040: fb53 7f3f fb53 7f3f 0000 0000 fb53 7f3f
00000050: fb53 7f3f 0000 0000 fb53 7f3f fb53 7f3f
00000060: 0000 0000 fb53 7f3f fb53 7f3f 0000 0000
00000070: fb53 7f3f fb53 7f3f 0000 0000 fb53 7f3f
00000080: fb53 7f3f

network_body.observation_encoder.processors.1.normalizer.running_mean f4 [6]
0.5294785 -0.0052474556 0.8451053 138.41469 0.43406042 0.30004826
00000000: e78b 073f d9f2 abbb d258 583f 296a 0a43
00000010: 2b3d de3e ed9f 993e
