Assets/results/CubeAgent8/AutoAgentFinale/AutoAgentFinale-0.pt (torch, 188463 bytes, 28 tensors)

network_body.observation_encoder.processors.0.normalizer.running_mean f4 [33]
0	0x00000000	0.0
1	0x00000000	0.0
2	0x00000000	0.0
3	0x00000000	0.0
4	0x00000000	0.0
5	0x00000000	0.0
6	0x00000000	0.0
7	0x00000000	0.0
8	0x00000000	0.0
9	0x00000000	0.0
10	0x00000000	0.0
11	0x00000000	0.0
12	0x00000000	0.0
13	0x00000000	0.0
14	0x00000000	0.0
15	0x00000000	0.0
16	0x00000000	0.0
17	0x00000000	0.0
18	0x00000000	0.0
19	0x00000000	0.0
20	0x00000000	0.0
21	0x00000000	0.0
22	0x00000000	0.0
23	0x00000000	0.0
24	0x00000000	0.0
25	0x00000000	0.0
26	0x00000000	0.0
27	0x00000000	0.0
28	0x00000000	0.0
29	0x00000000	0.0
30	0x00000000	0.0
31	0x00000000	0.0
32	0x00000000	0.0

network_body.observation_encoder.processors.0.normalizer.running_variance f4 [33]
0	0x3f800000	1.0
1	0x3f800000	1.0
2	0x3f800000	1.0
3	0x3f800000	1.0
4	0x3f800000	1.0
5	0x3f800000	1.0
6	0x3f800000	1.0
7	0x3f800000	1.0
8	0x3f800000	1.0
9	0x3f800000	1.0
10	0x3f800000	1.0
11	0x3f800000	1.0
12	0x3f800000	1.0
13	0x3f800000	1.0
14	0x3f800000	1.0
15	0x3f800000	1.0
16	0x3f800000	1.0
17	0x3f800000	1.0
18	0x3f800000	1.0
19	0x3f800000	1.0
20	0x3f800000	1.0
21	0x3f800000	1.0
22	0x3f800000	1.0
23	0x3f800000	1.0
24	0x3f800000	1.0
25	0x3f800000	1.0
26	0x3f800000	1.0
27	0x3f800000	1.0
28	0x3f800000	1.0
29	0x3f800000	1.0
30	0x3f800000	1.0
31	0x3f800000	1.0
32	0x3f800000	1.0

network_body.observation_encoder.processors.1.normalizer.running_mean f4 [6]
0	0x00000000	0.0
1	0x00000000	0.0
2	0x00000000	0.0
3	0x00000000	0.0
4	0x00000000	0.0
5	0x00000000	0.0

network_body.observation_encoder.processors.1.normalizer.running_variance f4 [6]
0	0x3f800000	1.0
1	0x3f800000	1.0
2	0x3f800000	1.0
3	0x3f800000	1.0
4	0x3f800000	1.0
5	0x3f800000	1.0

network_body.processors.0.normalizer.running_mean f4 [33]
0	0x00000000	0.0
1	0x00000000	0.0
2	0x00000000	0.0
3	0x00000000	0.0
4	0x00000000	0.0
5	0x00000000	0.0
6	0x00000000	0.0
7	0x00000000	0.0
8	0x00000000	0.0
9	0x00000000	0.0
10	0x00000000	0.0
11	0x00000000	0.0
12	0x00000000	0.0
13	0x00000000	0.0
14	0x00000000	0.0
15	0x00000000	0.0
16	0x00000000	0.0
17	0x00000000	0.0
18	0x00000000	0.0
19	0x00000000	0.0
20	0x00000000	0.0
21	0x00000000	0.0
22	0x00000000	0.0
23	0x00000000	0.0
24	0x00000000	0.0
25	0x00000000	0.0
26	0x00000000	0.0
27	0x00000000	0.0
28	0x00000000	0.0
29	0x00000000	0.0
30	0x00000000	0.0
31	0x00000000	0.0
32	0x00000000	0.0

network_body.processors.0.normalizer.running_variance f4 [33]
0	0x3f800000	1.0
1	0x3f800000	1.0
2	0x3f800000	1.0
3	0x3f800000	1.0
4	0x3f800000	1.0
5	0x3f800000	1.0
6	0x3f800000	1.0
7	0x3f800000	1.0
8	0x3f800000	1.0
9	0x3f800000	1.0
10	0x3f800000	1.0
11	0x3f800000	1.0
12	0x3f800000	1.0
13	0x3f800000	1.0
14	0x3f800000	1.0
15	0x3f800000	1.0
16	0x3f800000	1.0
17	0x3f800000	1.0
18	0x3f800000	1.0
19	0x3f800000	1.0
20	0x3f800000	1.0
21	0x3f800000	1.0
22	0x3f800000	1.0
23	0x3f800000	1.0
24	0x3f800000	1.0
25	0x3f800000	1.0
26	0x3f800000	1.0
27	0x3f800000	1.0
28	0x3f800000	1.0
29	0x3f800000	1.0
30	0x3f800000	1.0
31	0x3f800000	1.0
32	0x3f800000	1.0

network_body.processors.1.normalizer.running_mean f4 [6]
0	0x00000000	0.0
1	0x00000000	0.0
2	0x00000000	0.0
3	0x00000000	0.0
4	0x00000000	0.0
5	0x00000000	0.0

network_body.processors.1.normalizer.running_variance f4 [6]
0	0x3f800000	1.0
1	0x3f800000	1.0
2	0x3f800000	1.0
3	0x3f800000	1.0
4	0x3f800000	1.0
5	0x3f800000	1.0

network_body._body_endoder.seq_layers.0.weight f4 [127, 39]
0	0x3d8428d9	0.064531036
1	0xbe3417f2	-0.1758726
2	0x3d6863b2	0.0567357
3	0x3dbfa6f0	0.09358013
4	0xbd4e21c4	-0.05032517
5	0xbe4cb688	-0.19991505
6	0xbdefff27	-0.11718588
7	0x3e115938	0.1419419
8	0xbd3ff253	-0.046861958
9	0xbc0b2866	-0.008493518
10	0x3d9489b5	0.07252828
11	0x3e11720f	0.14203666
12	0xbe13e965	-0.14444502
13	0xbe29906e	-0.16559002
14	0xbe275faa	-0.16345087
15	0xbd889627	-0.06669264
16	0x3cbc88a8	0.023014382
17	0xbe8a14b1	-0.2696891
18	0x3ea87894	0.32904494
19	0x3e20df73	0.15710239
20	0xbd4b5e7f	-0.049650665
21	0x3f042ca2	0.51630604
22	0x3da2b0d8	0.079438865
23	0x3e61a0ab	0.22033946
24	0x3dcffd91	0.10155786
25	0x3e75a2c5	0.23987873
26	0xbea299cf	-0.31757972
27	0xbe38937c	-0.18025011
28	0xbdd79515	-0.10526482
29	0xbce231fe	-0.027611729
30	0x3e4419de	0.19150493
31	0x3ea5f617	0.32414314
32	0x3ea355bf	0.31901357
33	0xbe61b469	-0.22041477
34	0xbd35ff2e	-0.04443281
35	0xbd93cb35	-0.07216493
36	0x3d6327a4	0.055457726
37	0x3ea90c34	0.33017123
38	0x3da0d370	0.078528285
39	0xbd1cba4e	-0.03826361
40	0xbd82b9f8	-0.06383127
41	0x3d3fa50b	0.046788257
42	0x3da52a11	0.08064664
43	0xbe348ad9	-0.17631091
44	0xbe884960	-0.2661848
45	0xbe1ff255	-0.15619786
46	0xbd1dec9c	-0.038555726
47	0xbd432732	-0.0476448
48	0xbba0eee7	-0.004911292
49	0xbe6fa160	-0.23401403
50	0xbd47d60e	-0.048788123
51	0xbcfdbf05	-0.030974874
52	0x3e7ede4a	0.24889484
53	0xbdd504d2	-0.1040131
54	0xbe5ec0a3	-0.21753173
55	0xbe8bd905	-0.2731401
56	0x3c90d53a	0.0176798
57	0x3d8b83b1	0.068122275
58	0xbd1ede78	-0.03878638
59	0x3dc09839	0.09404034
60	0x3d3310c1	0.04371715
61	0xbe9693a8	-0.29409528
62	0xbd379e48	-0.044828683
63	0x3d40832e	0.047000103
64	0xbc9fa1bc	-0.0194863
65	0x3d05143d	0.032490004
66	0x3d68e6e4	0.05686082
67	0x3e16163f	0.14656924
68	0x3c89f3d8	0.016839907
69	0xbe89302c	-0.26794565
70	0x3dbf9f07	0.09356504
71	0x3e8822ea	0.26589137
72	0xbd47c667	-0.048773196
73	0xbcad8a1a	-0.021184016
74	0x3cacd716	0.021098655
75	0xbde02f62	-0.109465376
76	0xbdd1a300	-0.10236168
77	0xbe1b4b91	-0.15165545
78	0x3de199f9	0.11015696
79	0x3e12d19f	0.14337777
80	0xbd213646	-0.0393584
81	0x3a469981	0.00075759745
82	0xbd90f303	-0.07077601
83	0x3e82c0df	0.25537774
84	0x3e14df35	0.14538272
85	0x3c8c6d28	0.017141894
86	0x3ed2fb86	0.41207522
87	0x3df1229b	0.117741786
88	0x3eca19e1	0.3947287
89	0x3dc08e97	0.09402197
90	0x3d94440e	0.07239543
91	0x3dfbe069	0.12298662
92	0x3976f044	0.00023549894
93	0x3d14b207	0.036302593
94	0x3e3a30ea	0.18182722
95	0xbe6d3a95	-0.23166879
96	0xbd795924	-0.060876027
97	0xbe8154bc	-0.2525996
98	0x3db743fa	0.089485124
99	0xbcbd0136	-0.023071866
100	0xbe4dbd74	-0.20091802
101	0x3ddb16f6	0.10697739
102	0xbdac6541	-0.0841775
103	0x3dc56ee3	0.096402906
104	0xbdac12eb	-0.08402046
105	0xbb8755d3	-0.004130104
106	0xbe038391	-0.12843157
107	0xbe3179cd	-0.1733162
108	0xbe64e301	-0.2235222
109	0xbe2c264c	-0.16811484
110	0xbe20f13d	-0.15717025
111	0xbd7aa82a	-0.06119553
112	0x3e20ccd2	0.15703133
113	0xbdcfe278	-0.10150617
114	0x3d173b05	0.03692152
115	0x3d7f1791	0.062278334
116	0x3dcbbf2c	0.099485725
117	0xbe2b7619	-0.1674427
118	0xbe91740a	-0.28408843
119	0x3dbf4d36	0.09340899
120	0x3dce021b	0.10058995
121	0xbe28def9	-0.16491307
122	0x3dc78d3e	0.09743737
123	0x3e17288a	0.14761558
124	0x3dbfe855	0.09370486
125	0x3d0fd3d6	0.035114132
126	0xbe9ac20d	-0.30226174
127	0xbb9e148a	-0.004824226
128	0xbd988a01	-0.07448197
129	0xbd95e2ab	-0.07318624
130	0xbe06878c	-0.13137645
131	0x3e84a130	0.25904226
132	0x3dbc4d78	0.091944635
133	0xbd65740f	-0.056018885
134	0x3c99d398	0.018777654
135	0xbcd06b18	-0.025441691
136	0xbe6c8a54	-0.23099643
137	0xbe1c7840	-0.15280247
138	0x3a52a9b7	0.0008036154
139	0xbeabe349	-0.33571842
140	0xbdd49fe4	-0.10382059
141	0x3c9a35dc	0.01882451
142	0x3e7ff664	0.24996334
143	0x3e25b9eb	0.16184203
144	0x3dc85125	0.09781102
145	0x3ddde4ae	0.10834633
146	0xbe0995d5	-0.13436063
147	0x3dfab62e	0.12241779
148	0x3d1587e3	0.036506545
149	0xbc956b9b	-0.018239787
150	0xbe090572	-0.13380983
151	0x3ce7d93b	0.028301826
152	0x3d40717a	0.04698322
153	0xbe488405	-0.19581611
154	0x3d4a07fa	0.049324013
155	0xbcbbb240	-0.022912145
156	0x3e8c6df8	0.2742765
157	0xbcfd3231	-0.030907722
158	0xbe27f2b9	-0.16401185
159	0xbdcd0e2e	-0.1001247
160	0xbe130640	-0.14357853
161	0xbe8af388	-0.27138925
162	0x3d8f0349	0.069830485
163	0xbc64c378	-0.013962619
164	0xbe376838	-0.1791085
165	0xbe24484b	-0.16043203
166	0x3caf119b	0.0213707
167	0xbc916329	-0.017747479
168	0x3a91c314	0.001112076
169	0x3d6c51fc	0.057695374
170	0x3ea594c6	0.32340068
171	0xbcd09ff7	-0.025466902
172	0x3e1ae4df	0.1512637
173	0xbae6df98	-0.0017614244
174	0x3e3454e4	0.17610508
175	0xbd99d3ba	-0.07511087
176	0xbcfed5d7	-0.031107826
177	0xbe578391	-0.21046282
178	0x3e4e0792	0.20120075
179	0x3cac964f	0.021067766
180	0xbead3d1f	-0.33835694
181	0xbe1b9056	-0.15191779
182	0x3e690135	0.22754367
183	0x3e4d3d99	0.20043029
184	0xbc384da0	-0.011248976
185	0xbe2fee7c	-0.17180818
186	0xbd2f3cf3	-0.042782735
187	0x3e9e0697	0.30864403
188	0xbe1c9456	-0.1529096
189	0x3defd2d0	0.11710131
190	0x3c6a99e1	0.014318914
191	0xbe931f1a	-0.28734666
192	0xbd3318ff	-0.04372501
193	0xbe26825c	-0.16260666
194	0x3cf0af6b	0.02938052
195	0x3dadfb4a	0.08495195
196	0xbd4fcce3	-0.050732505
197	0x3de127af	0.10993897
198	0xbe296183	-0.16541104
199	0xbd755555	-0.059895832
200	0x3df6ad49	0.1204477
201	0x3dae722b	0.085178696
202	0xbb2f7048	-0.0026769806
203	0xbe12fc2e	-0.14354011
204	0x3d9a33ab	0.07529386
205	0x3dcbbf89	0.09948642
206	0x3c76a8c0	0.015054882
207	0x3d514ec0	0.051100492
208	0x3c7b84e6	0.01535151
209	0x3e78d049	0.24298204
210	0x3d8df985	0.06932358
211	0x3e9fa2d4	0.31178916
212	0xbe2fb0ce	-0.1715729
213	0x3e065d16	0.13121447
214	0xbac8023a	-0.0015259453
215	0xbdd3ac51	-0.10335601
216	0x3d0076f6	0.03136345
217	0x3d45e426	0.048313282
218	0x3e2179d6	0.15769133
219	0x3e4f22d5	0.20228131
220	0xbbb3743a	-0.005476502
221	0x3d8458df	0.06462263
222	0xbc92cf39	-0.017921077
223	0xbe841228	-0.25795102
224	0x3dc8b8c6	0.09800868
225	0x3d2b125d	0.04176556
226	0xbb679267	-0.0035335065
227	0xbd75ebd4	-0.060039356
228	0xbcb2cfab	-0.02182754
229	0xbe4dfcac	-0.20115918
230	0xbe50a8b1	-0.2037685
231	0x3df372b3	0.118871115
232	0x3ba688c5	0.005082222
233	0xbe4985b5	-0.19679911
234	0x3d27ce81	0.04096842
235	0x3caa5e87	0.020797027
236	0x3e0fe957	0.14053856
237	0xbd4163ce	-0.04721432
238	0xbdf81179	-0.12112708
239	0xbde5edad	-0.11226974
240	0x3dfa5f7d	0.12225244
241	0x3e0a755c	0.13521332
242	0x3e466688	0.1937505
243	0x3e159841	0.14608862
244	0xbd99affa	-0.07504268
245	0x3e430ff0	0.19049048
246	0x3d958bc3	0.07302048
247	0x3cc72be8	0.024312928
248	0x3d67c3b6	0.05658313
249	0x3b63fa96	0.0034786812
250	0x3d42f05f	0.047592517
251	0x3c612aca	0.013743112
252	0x3de8b2a5	0.11362199
253	0x3de4a1ce	0.11163674
254	0xbdbd00bf	-0.09228658
255	0x3d1a5503	0.03767873

network_body._body_endoder.seq_layers.0.bias f4 [127]
0	0x00000000	0.0
1	0x00000000	0.0
2	0x00000000	0.0
3	0x00000000	0.0
4	0x00000000	0.0
5	0x00000000	0.0
6	0x00000000	0.0
7	0x00000000	0.0
8	0x00000000	0.0
9	0x00000000	0.0
10	0x00000000	0.0
11	0x00000000	0.0
12	0x00000000	0.0
13	0x00000000	0.0
14	0x00000000	0.0
15	0x00000000	0.0
16	0x00000000	0.0
17	0x00000000	0.0
18	0x00000000	0.0
19	0x00000000	0.0
20	0x00000000	0.0
21	0x00000000	0.0
22	0x00000000	0.0
23	0x00000000	0.0
24	0x00000000	0.0
25	0x00000000	0.0
26	0x00000000	0.0
27	0x00000000	0.0
28	0x00000000	0.0
29	0x00000000	0.0
30	0x00000000	0.0
31	0x00000000	0.0
32	0x00000000	0.0
33	0x00000000	0.0
34	0x00000000	0.0
35	0x00000000	0.0
36	0x00000000	0.0
37	0x00000000	0.0
38	0x00000000	0.0
39	0x00000000	0.0
40	0x00000000	0.0
41	0x00000000	0.0
42	0x00000000	0.0
43	0x00000000	0.0
44	0x00000000	0.0
45	0x00000000	0.0
46	0x00000000	0.0
47	0x00000000	0.0
48	0x00000000	0.0
49	0x00000000	0.0
50	0x00000000	0.0
51	0x00000000	0.0
52	0x00000000	0.0
53	0x00000000	0.0
54	0x00000000	0.0
55	0x00000000	0.0
56	0x00000000	0.0
57	0x00000000	0.0
58	0x00000000	0.0
59	0x00000000	0.0
60	0x00000000	0.0
61	0x00000000	0.0
62	0x00000000	0.0
63	0x00000000	0.0
64	0x00000000	0.0
65	0x00000000	0.0
66	0x00000000	0.0
67	0x00000000	0.0
68	0x00000000	0.0
69	0x00000000	0.0
70	0x00000000	0.0
71	0x00000000	0.0
72	0x00000000	0.0
73	0x00000000	0.0
74	0x00000000	0.0
75	0x00000000	0.0
76	0x00000000	0.0
77	0x00000000	0.0
78	0x00000000	0.0
79	0x00000000	0.0
80	0x00000000	0.0
81	0x00000000	0.0
82	0x00000000	0.0
83	0x00000000	0.0
84	0x00000000	0.0
85	0x00000000	0.0
86	0x00000000	0.0
87	0x00000000	0.0
88	0x00000000	0.0
89	0x00000000	0.0
90	0x00000000	0.0
91	0x00000000	0.0
92	0x00000000	0.0
93	0x00000000	0.0
94	0x00000000	0.0
95	0x00000000	0.0
96	0x00000000	0.0
97	0x00000000	0.0
98	0x00000000	0.0
99	0x00000000	0.0
100	0x00000000	0.0
101	0x00000000	0.0
102	0x00000000	0.0
103	0x00000000	0.0
104	0x00000000	0.0
105	0x00000000	0.0
106	0x00000000	0.0
107	0x00000000	0.0
108	0x00000000	0.0
109	0x00000000	0.0
110	0x00000000	0.0
111	0x00000000	0.0
112	0x00000000	0.0
113	0x00000000	0.0
114	0x00000000	0.0
115	0x00000000	0.0
116	0x00000000	0.0
117	0x00000000	0.0
118	0x00000000	0.0
119	0x00000000	0.0
120	0x00000000	0.0
121	0x00000000	0.0
122	0x00000000	0.0
123	0x00000000	0.0
124	0x00000000	0.0
125	0x00000000	0.0
126	0x00000000	0.0

network_body._body_endoder.seq_layers.2.weight f4 [127, 127]
0	0x3d3080d4	0.04309161
1	0xbdca2bec	-0.09871659
2	0x3e0d3b40	0.13792133
3	0xbc24d40e	-0.010060323
4	0x3de3d39b	0.11124345
5	0xbd90d1d5	-0.07071272
6	0x3e0ec5e7	0.13942681
7	0xbdc28b1f	-0.094991915
8	0x3cfca568	0.03084059
9	0xba8f5fa9	-0.0010938543
10	0x3b971657	0.0046108174
11	0xbdd80ccd	-0.105493166
12	0xbdb78d65	-0.08962516
13	0x3d446883	0.047951233
14	0xbc6c89fb	-0.014437194
15	0x3d8323dc	0.06403324
16	0xbd179eca	-0.037016667
17	0x3d7b0b57	0.06129011
18	0x3db4664c	0.08808574
19	0x3d916ab4	0.0710043
20	0x3d649154	0.05580266
21	0xbc4a25b6	-0.012338093
22	0x3d7bccde	0.061474673
23	0xbcb08f81	-0.021552803
24	0xbd72a368	-0.059237868
25	0x3cecfc93	0.02892903
26	0xbd6f12f8	-0.0583677
27	0x3d0b7b2f	0.034053024
28	0xbe0455ec	-0.12923402
29	0x3e2fc817	0.17166172
30	0xbca24031	-0.019806
31	0xbd939bfc	-0.07207486
32	0xbd2b0be5	-0.04175939
33	0xbcf925f1	-0.0304136
34	0x3e231567	0.15926133
35	0xbe4bce92	-0.19903019
36	0x3dda45f5	0.106578745
37	0x3cab9f6a	0.020950038
38	0xbcd8bc39	-0.026456939
39	0x3d50e960	0.051003814
40	0xbdd8c4c3	-0.10584404
41	0xbd90d9a4	-0.07072762
42	0xbc0e0b21	-0.0086696455
43	0x3d3225e6	0.043493174
44	0xbd43c60e	-0.0477963
45	0x3c9532c5	0.018212685
46	0xbda4303d	-0.08017013
47	0x3ca3786d	0.019954884
48	0x3d065e31	0.03280467
49	0xbd04cf25	-0.03242411
50	0xbdc81eac	-0.09771475
51	0xbdf594c7	-0.11991268
52	0x3bd327a8	0.0064439364
53	0xbc22477e	-0.00990474
54	0xbca2753e	-0.019831296
55	0x3d15cbfa	0.03657148
56	0x3d9d70f6	0.07687561
57	0xbce9711e	-0.028496321
58	0x3c1e45a5	0.009660159
59	0x3cc386e8	0.02386804
60	0xbdb7d370	-0.089758754
61	0x3c0c8104	0.008575682
62	0xbe6dec31	-0.23234631
63	0x3b938c81	0.0045028334
64	0x3da12667	0.07868653
65	0xbd3ef417	-0.0466195
66	0xbdb15adf	-0.086599104
67	0x3cd1f073	0.02562735
68	0x3d9c021e	0.07617591
69	0x3c59d03c	0.013294276
70	0xbe27d4d9	-0.16389789
71	0xb97422ab	-0.00023282568
72	0xbd56d0c6	-0.052445196
73	0xbc9d67c2	-0.019214515
74	0xbdb09b1f	-0.08623337
75	0x3e355802	0.17709354
76	0xbcc04afe	-0.023473259
77	0xbd224b98	-0.039622873
78	0xbcffcb07	-0.03122474
79	0x3c07b126	0.008281982
80	0xbdd3cf48	-0.1034227
81	0x3d8053fa	0.06266017
82	0x3d2c5915	0.042077143
83	0x3dbcba30	0.092152
84	0xba8c6993	-0.0010712616
85	0xbc2dccd2	-0.010607915
86	0x3d2c1847	0.04201534
87	0xbe0a8583	-0.13527493
88	0x3d732dd2	0.05936987
89	0xbb48b041	-0.0030622634
90	0x3c6e9b76	0.014563432
91	0x3ce686f1	0.028140517
92	0x3b08dc16	0.0020883135
93	0x3bade019	0.0053062555
94	0xbded46b6	-0.11585753
95	0x3c985e9d	0.018599803
96	0xbd86b12b	-0.06576761
97	0x3e2604c7	0.1621276
98	0xbd711744	-0.05886008
99	0x3d9aea6f	0.07564246
100	0x3de6ab7d	0.112631775
101	0xbc98adaf	-0.018637506
102	0x3df1a9d3	0.117999695
103	0x3d62cc84	0.055370823
104	0x3cb1cf6a	0.021705348
105	0xbda3709f	-0.07980465
106	0xbc339814	-0.010961551
107	0xbd16a26b	-0.036775988
108	0x3d5db540	0.05412793
109	0x3c6c5f61	0.014427037
110	0xbe203b07	-0.15647517
111	0x3da4e3e2	0.08051278
112	0x3cf2e16b	0.029648503
113	0x3dc31881	0.09526158
114	0xbc6b469a	-0.014360094
115	0xbdc5f3cd	-0.09665642
116	0xbdb15ea3	-0.08660629
117	0x3b479773	0.003045526
118	0xbe2e414e	-0.170171
119	0xbd925c0c	-0.07146463
120	0xbcf47140	-0.029839158
121	0xbc3c2138	-0.011482529
122	0xbce21764	-0.027599044
123	0xbdab56be	-0.08366154
124	0x3de82f4c	0.11337146
125	0x3c636e82	0.013881328
126	0xbc8dba2e	-0.017300691
127	0x3db5c7be	0.088759884
128	0xbbc1e5a7	-0.0059172693
129	0xbd9191d9	-0.07107896
130	0xbd0658b1	-0.032799426
131	0x3cfca373	0.030839657
132	0xbc733caf	-0.014846011
133	0xbd86aac6	-0.06575541
134	0xbd4cece7	-0.050030615
135	0x3ceac841	0.028659942
136	0x3d4d7141	0.050156835
137	0x3e219f81	0.15783502
138	0x3e046e2a	0.12932649
139	0xbe0f1ef4	-0.13976651
140	0xbe040213	-0.12891416
141	0x3d27f624	0.041006222
142	0xbd624e56	-0.05525049
143	0xbda8ed88	-0.082484305
144	0x3d30657e	0.04306554
145	0xbe0332d0	-0.12812352
146	0xbce2fd4b	-0.02770867
147	0xbdd082bd	-0.10181186
148	0x3cdc455c	0.026888542
149	0xbd989806	-0.07450871
150	0x3dc7a296	0.09747808
151	0x3dfca662	0.123364225
152	0x3d816982	0.06318952
153	0xbde44f25	-0.11147908
154	0xbd031567	-0.032002833
155	0xbde5a651	-0.11213363
156	0xbd8fe0a9	-0.070252724
157	0x3bd1e5dc	0.006405575
158	0xbd40c345	-0.047061224
159	0xbdc66c6b	-0.09688648
160	0xbcc01805	-0.023448953
161	0xbdf4beaa	-0.11950429
162	0xbd516685	-0.05112316
163	0x3c214ea3	0.009845409
164	0xbd35aa02	-0.044351585
165	0x3bb5affb	0.00554466
166	0x3d6979b8	0.057000846
167	0x3cb78b29	0.022405224
168	0x3bcf5937	0.006327774
169	0x3c987149	0.018608706
170	0xbd92693d	-0.07148979
171	0xbd90ca71	-0.07069863
172	0x3d489f32	0.048979945
173	0x3ad54ab3	0.0016272872
174	0xbe148281	-0.14502908
175	0xbd1e611c	-0.03866683
176	0xbba390fc	-0.0049916487
177	0x3dbbe4dc	0.09174511
178	0x3e025dfb	0.12731163
179	0x3db71d06	0.08941083
180	0x3d675ff1	0.05648798
181	0x3dbef51a	0.09324093
182	0x3d9f04af	0.07764565
183	0x3e2c31bb	0.16815846
184	0xbde8e085	-0.11370949
185	0xbc83010f	-0.015991716
186	0xbddacc1c	-0.10683462
187	0x3d2ed65c	0.042684898
188	0xbe3ab43a	-0.18232813
189	0xbd9bbce0	-0.076043844
190	0x3ea6e000	0.32592773
191	0xbbe42162	-0.0069619874
192	0xba8c5817	-0.0010707405
193	0xbe0b31eb	-0.13593261
194	0x3d850707	0.06495481
195	0x3e2dd904	0.16977316
196	0x3e4e66cb	0.201564
197	0xbcfd7859	-0.030941175
198	0xbd650132	-0.055909343
199	0xbd1fe94f	-0.03904086
200	0x3d810cea	0.06301291
201	0xbcd0fe8f	-0.025512008
202	0xbca473fe	-0.02007484
203	0xbdc48cf9	-0.09597201
204	0x3d9af1a7	0.07565623
205	0xbd75b30d	-0.05998521
206	0xbdde2f25	-0.10848836
207	0x3b50a983	0.0031839318
208	0xbde914b0	-0.11380899
209	0xbb930f0b	-0.0044878772
210	0x3e7ff788	0.2499677
211	0xbe4786bf	-0.19484995
212	0x3e294720	0.16531038
213	0xbd91ba61	-0.07115627
214	0xbc4d2b98	-0.012522601
215	0xbc7f6bde	-0.015589682
216	0x3ca0019d	0.01953202
217	0xbdcd2ef9	-0.10018725
218	0x3c0c18a3	0.008550796
219	0x3cd7266d	0.02626344
220	0xbd5a0470	-0.05322689
221	0x3d2631fc	0.040575013
222	0xbdc70f6a	-0.09719737
223	0x3de5959e	0.11210178
224	0xbcd21d41	-0.025648715
225	0x3e3056cb	0.17220609
226	0xbc77b0e8	-0.015117861
227	0xbdd09a15	-0.10185639
228	0x3deed478	0.11661619
229	0xbe678939	-0.2261094
230	0xbd8059ac	-0.062671036
231	0xbd495a6d	-0.049158502
232	0xbdc70956	-0.097185776
233	0x3d0d4da1	0.03449786
234	0x3aef8e2d	0.0018276625
235	0xbdfd0d1b	-0.12356015
236	0x3d097126	0.033555172
237	0x3cc53fc1	0.024078252
238	0xbd9125d0	-0.0708729
239	0xbc72bb40	-0.014815152
240	0x3d675be5	0.05648412
241	0x3c01cdab	0.00792257
242	0x3c1c9698	0.009557389
243	0x3e4bcb86	0.19901857
244	0x3e12fb18	0.14353597
245	0xbe01d4a2	-0.12678769
246	0x3a7fec86	0.0009762723
247	0x3c3ead63	0.011638018
248	0xbd1632cc	-0.036669537
249	0xbd16735e	-0.036731116
250	0xbca45b7e	-0.020063158
251	0xbcb7cb17	-0.022435708
252	0x3dd1a739	0.10236973
253	0xbd4b731a	-0.049670316
254	0xbc5ed5be	-0.013600765
255	0x3e02872e	0.1274688

network_body._body_endoder.seq_layers.2.bias f4 [127]
0	0x00000000	0.0
1	0x00000000	0.0
2	0x00000000	0.0
3	0x00000000	0.0
4	0x00000000	0.0
5	0x00000000	0.0
6	0x00000000	0.0
7	0x00000000	0.0
8	0x00000000	0.0
9	0x00000000	0.0
10	0x00000000	0.0
11	0x00000000	0.0
12	0x00000000	0.0
13	0x00000000	0.0
14	0x00000000	0.0
15	0x00000000	0.0
16	0x00000000	0.0
17	0x00000000	0.0
18	0x00000000	0.0
19	0x00000000	0.0
20	0x00000000	0.0
21	0x00000000	0.0
22	0x00000000	0.0
23	0x00000000	0.0
24	0x00000000	0.0
25	0x00000000	0.0
26	0x00000000	0.0
27	0x00000000	0.0
28	0x00000000	0.0
29	0x00000000	0.0
30	0x00000000	0.0
31	0x00000000	0.0
32	0x00000000	0.0
33	0x00000000	0.0
34	0x00000000	0.0
35	0x00000000	0.0
36	0x00000000	0.0
37	0x00000000	0.0
38	0x00000000	0.0
39	0x00000000	0.0
40	0x00000000	0.0
41	0x00000000	0.0
42	0x00000000	0.0
43	0x00000000	0.0
44	0x00000000	0.0
45	0x00000000	0.0
46	0x00000000	0.0
47	0x00000000	0.0
48	0x00000000	0.0
49	0x00000000	0.0
50	0x00000000	0.0
51	0x00000000	0.0
52	0x00000000	0.0
53	0x00000000	0.0
54	0x00000000	0.0
55	0x00000000	0.0
56	0x00000000	0.0
57	0x00000000	0.0
58	0x00000000	0.0
59	0x00000000	0.0
60	0x00000000	0.0
61	0x00000000	0.0
62	0x00000000	0.0
63	0x00000000	0.0
64	0x00000000	0.0
65	0x00000000	0.0
66	0x00000000	0.0
67	0x00000000	0.0
68	0x00000000	0.0
69	0x00000000	0.0
70	0x00000000	0.0
71	0x00000000	0.0
72	0x00000000	0.0
73	0x00000000	0.0
74	0x00000000	0.0
75	0x00000000	0.0
76	0x00000000	0.0
77	0x00000000	0.0
78	0x00000000	0.0
79	0x00000000	0.0
80	0x00000000	0.0
81	0x00000000	0.0
82	0x00000000	0.0
83	0x00000000	0.0
84	0x00000000	0.0
85	0x00000000	0.0
86	0x00000000	0.0
87	0x00000000	0.0
88	0x00000000	0.0
89	0x00000000	0.0
90	0x00000000	0.0
91	0x00000000	0.0
92	0x00000000	0.0
93	0x00000000	0.0
94	0x00000000	0.0
95	0x00000000	0.0
96	0x00000000	0.0
97	0x00000000	0.0
98	0x00000000	0.0
99	0x00000000	0.0
100	0x00000000	0.0
101	0x00000000	0.0
102	0x00000000	0.0
103	0x00000000	0.0
104	0x00000000	0.0
105	0x00000000	0.0
106	0x00000000	0.0
107	0x00000000	0.0
108	0x00000000	0.0
109	0x00000000	0.0
110	0x00000000	0.0
111	0x00000000	0.0
112	0x00000000	0.0
113	0x00000000	0.0
114	0x00000000	0.0
115	0x00000000	0.0
116	0x00000000	0.0
117	0x00000000	0.0
118	0x00000000	0.0
119	0x00000000	0.0
120	0x00000000	0.0
121	0x00000000	0.0
122	0x00000000	0.0
123	0x00000000	0.0
124	0x00000000	0.0
125	0x00000000	0.0
126	0x00000000	0.0

action_model._continuous_distribution.log_sigma f4 [1, 2]
0	0x00000000	0.0
1	0x00000000	0.0

action_model._continuous_distribution.mu.weight f4 [2, 127]
0	0xba927b83	-0.0011175725
1	0x3bd1dcfd	0.0064045177
2	0x3c9d4b07	0.019200815
3	0x3d35fa36	0.044428073
4	0x3cb8058a	0.022463579
5	0xbb8838c2	-0.0041571567
6	0x3c101944	0.008795086
7	0xbc786eed	-0.0151631655
8	0x3cc934c8	0.0245613
9	0xbc1e51d9	-0.009663069
10	0x3c2aab2d	0.010416788
11	0x3d092bfc	0.033489212
12	0x3c8afb1b	0.01696544
13	0xbc659927	-0.014013565
14	0x3c6b2e6d	0.0143543305
15	0x3bb845b7	0.005623545
16	0x3c31bb7d	0.010847923
17	0xbc765a07	-0.015036113
18	0x3cbaa85f	0.022785364
19	0x3c0efd9c	0.008727457
20	0x3cb6dc67	0.022321893
21	0xb97c32df	-0.00024051544
22	0xbcaeb56e	-0.021326747
23	0x3c8fdfe7	0.01756282
24	0xba78abe3	-0.00094860623
25	0x3c8e779d	0.01739102
26	0xbca69caa	-0.020338375
27	0x3c9d1549	0.019175189
28	0x3ca35e52	0.019942436
29	0xbd11270f	-0.03543764
30	0xbb652f9d	-0.0034971007
31	0x3cf98dff	0.030463217
32	0xbc84847b	-0.016176453
33	0x3c51f002	0.01281357
34	0xbce5e240	-0.028061986
35	0xbc0a48fd	-0.008440253
36	0x3c1b5179	0.009479874
37	0xbc0cbea1	-0.008590371
38	0x3c447859	0.011991584
39	0xbaa0ddbb	-0.0012273112
40	0x3ca72aef	0.020406215
41	0x3cc95a15	0.024579087
42	0x3c345440	0.011006415
43	0x3be2512d	0.0069066496
44	0x3c0239cd	0.007948351
45	0xbc94397b	-0.018093815
46	0x3bc25e67	0.005931664
47	0xbd256c63	-0.04038657
48	0x3c68ab1b	0.014200951
49	0xbc06f77e	-0.008237718
50	0xbb504508	-0.0031779427
51	0x3a3751dd	0.00069930946
52	0xba173660	-0.00057682954
53	0x3b1442b1	0.002262276
54	0x3c46ee8f	0.012141838
55	0x3c66496d	0.014055592
56	0x3c5140b8	0.012771778
57	0x3c8a9df1	0.016921015
58	0xbb751db2	-0.0037401733
59	0x3ce4b0dd	0.027916366
60	0x3bd9e8af	0.0066500525
61	0xbb7e7687	-0.0038827972
62	0xbc028368	-0.0079659
63	0x3c0993ae	0.008397026
64	0x3cac0c5b	0.021001985
65	0x3ca46ae6	0.020070504
66	0xbd15825c	-0.036501274
67	0x3cf542b5	0.029939035
68	0x3b03eb7e	0.0020129378
69	0xbcbb80a6	-0.022888493
70	0x3d157f89	0.03649858
71	0xbcb4d803	-0.022075659
72	0x3c87e22c	0.01658734
73	0xbc74b3f2	-0.01493548
74	0xbb965ecf	-0.004588939
75	0x3ccb9e04	0.024855621
76	0xbc2e042b	-0.010621111
77	0x3cb0f802	0.021602634
78	0x3cbd2690	0.023089677
79	0x3c08d4ec	0.008351546
80	0x3c01fad7	0.00793334
81	0x3c05378e	0.008130921
82	0xbbc306b6	-0.0059517277
83	0xbc1a73d7	-0.009427032
84	0xbc180b94	-0.009280104
85	0xbb7bb410	-0.0038406886
86	0xbc24d844	-0.010061327
87	0xbc49a039	-0.012306266
88	0xbca9573b	-0.020671478
89	0xbc398917	-0.011324189
90	0xbc8f7042	-0.017509583
91	0xbc86e8f1	-0.016468497
92	0xbc9facf3	-0.019491648
93	0x3c1975a9	0.009366431
94	0xbc764f5a	-0.015033567
95	0x3cef1f50	0.029189736
96	0x3a0d3e2e	0.00053879886
97	0x3d020ab8	0.031748503
98	0x3cececd7	0.028921528
99	0xbbd9abeb	-0.0066428087
100	0x3b9c35b3	0.0047671436
101	0xbc51be25	-0.012801682
102	0xbbc3f317	-0.0059799063
103	0x3d50cf67	0.050979044
104	0x39e86868	0.00044328277
105	0x3d117737	0.035514083
106	0x3cb2d7dd	0.021831447
107	0xbc100780	-0.008790851
108	0x3c824fd3	0.015907204
109	0xbc0c35ab	-0.008557717
110	0x3c4edc62	0.012625786
111	0xbd07dba1	-0.03316844
112	0x3b5272db	0.0032111916
113	0x3c224fde	0.009906737
114	0x37d08213	2.4856103e-05
115	0x3bb1cd7f	0.0054261084
116	0xbab6e505	-0.0013953751
117	0xbb9cee68	-0.0047891624
118	0xbc8056be	-0.015666362
119	0x3b8368e3	0.004010306
120	0x3c86cc42	0.01645482
121	0xbb4ce8a2	-0.003126659
122	0x3c4f36b7	0.012647322
123	0xba23e1e7	-0.00062516186
124	0xbcf6356a	-0.030054767
125	0x3c6ea9e5	0.014566873
126	0x3c4a16fb	0.0123345805
127	0xbbf1760f	-0.00736881
128	0x3c8d31c1	0.017235639
129	0xbb23a333	-0.00249691
130	0xbbdaf903	-0.0066825165
131	0x3c974926	0.018467497
132	0x3cc39121	0.023872914
133	0xbce0694f	-0.027393965
134	0xbcd7591d	-0.02628761
135	0x3c454939	0.012041383
136	0xbbaa06ad	-0.005188784
137	0xbbaf354c	-0.0053469297
138	0xbcfddb3f	-0.030988334
139	0xbd43c672	-0.047796674
140	0xbcdd888d	-0.027042652
141	0xbcafe683	-0.021472221
142	0x3b4a0163	0.003082358
143	0xbc1db143	-0.009624782
144	0x3c86d580	0.016459227
145	0x3c0e3750	0.00868018
146	0xbc126453	-0.008935052
147	0xbaf79a58	-0.0018890603
148	0xbb923a19	-0.004462492
149	0x3c58ea07	0.01323939
150	0xbc4d31ad	-0.012524051
151	0xbd20c32f	-0.03924864
152	0x3c1ec9bd	0.009691653
153	0x3bff8b88	0.007798616
154	0x3a2be6e3	0.0006557537
155	0x3d01e14f	0.03170901
156	0xbbc0b2ff	-0.005880713
157	0xbc81a8de	-0.015827592
158	0xbba8046a	-0.0051274793
159	0xbd2f798c	-0.042840526
160	0xbbd140d2	-0.006385901
161	0xbc739873	-0.01486789
162	0xbcf01bdd	-0.029310161
163	0xbc22037f	-0.009888529
164	0x3c52ca7d	0.01286566
165	0x3c772ab7	0.015085868
166	0xbb0d6626	-0.0021575778
167	0xbc4bb57a	-0.012433404
168	0xbc6a71f7	-0.014309398
169	0x3d0d4024	0.034484997
170	0xbc2fc646	-0.010728424
171	0x3bfea5f8	0.00777125
172	0xbcaca9d0	-0.021077067
173	0xbca5c29f	-0.020234404
174	0xbb70f2f7	-0.0036765912
175	0xbc472607	-0.0121550625
176	0xbaa11de4	-0.0012292233
177	0xbc6d1253	-0.014469701
178	0x3be43293	0.0069640367
179	0xbc565200	-0.013081074
180	0x3c002787	0.007821924
181	0xbc71b952	-0.014753656
182	0xbc63bf72	-0.013900625
183	0xbd3111a5	-0.043229718
184	0x3c2ed7a2	0.010671528
185	0x3b94eb2a	0.0045446353
186	0x3b953e53	0.0045545488
187	0x3ccb996a	0.024853427
188	0x3d0623e1	0.03274906
189	0x3b988509	0.004654531
190	0xbbb5f72c	-0.005553147
191	0xbcb04b14	-0.021520175
192	0x3c865c93	0.016401565
193	0x3b18a603	0.002329231
194	0x3cc87fe0	0.024475038
195	0x3c94abea	0.018148381
196	0xbd12a0bf	-0.03579783
197	0xb9c655a7	-0.0003782932
198	0xbca48acb	-0.020085713
199	0x3b96958c	0.004595464
200	0x3c8d3bfb	0.017240515
201	0x3c8dc267	0.017304612
202	0xbaab66c7	-0.0013076895
203	0x3c46241d	0.012093571
204	0x3cf65a87	0.030072464
205	0x3c826e5c	0.015921764
206	0x3c455e66	0.012046432
207	0xbb90084f	-0.0043955217
208	0x3c0c1e0c	0.008552086
209	0xbc3eb933	-0.011640835
210	0x3c0bba9b	0.008528377
211	0xbc371870	-0.01117526
212	0xba48010f	-0.0007629552
213	0xbb830a6f	-0.0039990465
214	0xbb15fd5b	-0.0022886607
215	0xbd292e50	-0.041303933
216	0xbc18d695	-0.009328504
217	0x3c6e012a	0.014526645
218	0xbc227a77	-0.009916893
219	0xbb88e4cb	-0.004177665
220	0xbc6df3ba	-0.014523441
221	0xbc20c2f6	-0.009812107
222	0x3bf95997	0.007609557
223	0xb86c441d	-5.633022e-05
224	0xbc7ff7ea	-0.015623072
225	0x3c5b98a0	0.013403088
226	0x3b52f6d7	0.0032190585
227	0xbc61586f	-0.013753994
228	0xbd2fd93f	-0.04293179
229	0xbc06b4ef	-0.008221849
230	0xbc9c40d3	-0.01907388
231	0x3b57fb6b	0.0032956253
232	0x3cf9a112	0.030472312
233	0xbbb90f78	-0.005647596
234	0x3c88b187	0.016686214
235	0x3afa2fe8	0.0019087764
236	0x3cae73f3	0.021295523
237	0xbc79c73b	-0.015245254
238	0xbc47b15f	-0.012188285
239	0x39d621c7	0.00040842427
240	0xbb030178	-0.001998989
241	0x3bbffbfb	0.005858896
242	0x3bf7753d	0.0075518177
243	0x3cc7a466	0.024370383
244	0xbc62bfef	-0.013839706
245	0x3bff449f	0.0077901627
246	0xbbd516fd	-0.0065029846
247	0xbcc81547	-0.024424208
248	0xbc1bbdf6	-0.009505739
249	0x3d04b273	0.032396745
250	0xbcd1420a	-0.025544185
251	0x3c06422b	0.008194487
252	0xbb852dda	-0.004064304
253	0xbcef1a5a	-0.02918737

action_model._continuous_distribution.mu.bias f4 [2]
0	0x00000000	0.0
1	0x00000000	0.0

network_body.observation_encoder.processors.0.normalizer.running_mean f4 [33]
0	0x00000000	0.0
1	0x00000000	0.0
2	0x00000000	0.0
3	0x00000000	0.0
4	0x00000000	0.0
5	0x00000000	0.0
6	0x00000000	0.0
7	0x00000000	0.0
8	0x00000000	0.0
9	0x00000000	0.0
10	0x00000000	0.0
11	0x00000000	0.0
12	0x00000000	0.0
13	0x00000000	0.0
14	0x00000000	0.0
15	0x00000000	0.0
16	0x00000000	0.0
17	0x00000000	0.0
18	0x00000000	0.0
19	0x00000000	0.0
20	0x00000000	0.0
21	0x00000000	0.0
22	0x00000000	0.0
23	0x00000000	0.0
24	0x00000000	0.0
25	0x00000000	0.0
26	0x00000000	0.0
27	0x00000000	0.0
28	0x00000000	0.0
29	0x00000000	0.0
30	0x00000000	0.0
31	0x00000000	0.0
32	0x00000000	0.0

network_body.observation_encoder.processors.0.normalizer.running_variance f4 [33]
0	0x3f800000	1.0
1	0x3f800000	1.0
2	0x3f800000	1.0
3	0x3f800000	1.0
4	0x3f800000	1.0
5	0x3f800000	1.0
6	0x3f800000	1.0
7	0x3f800000	1.0
8	0x3f800000	1.0
9	0x3f800000	1.0
10	0x3f800000	1.0
11	0x3f800000	1.0
12	0x3f800000	1.0
13	0x3f800000	1.0
14	0x3f800000	1.0
15	0x3f800000	1.0
16	0x3f800000	1.0
17	0x3f800000	1.0
18	0x3f800000	1.0
19	0x3f800000	1.0
20	0x3f800000	1.0
21	0x3f800000	1.0
22	0x3f800000	1.0
23	0x3f800000	1.0
24	0x3f800000	1.0
25	0x3f800000	1.0
26	0x3f800000	1.0
27	0x3f800000	1.0
28	0x3f800000	1.0
29	0x3f800000	1.0
30	0x3f800000	1.0
31	0x3f800000	1.0
32	0x3f800000	1.0

network_body.observation_encoder.processors.1.normalizer.running_mean f4 [6]
0	0x00000000	0.0
1	0x00000000	0.0
2	0x00000000	0.0
3	0x00000000	0.0
4	0x00000000	0.0
5	0x00000000	0.0

network_body.observation_encoder.processors.1.normalizer.running_variance f4 [6]
0	0x3f800000	1.0
1	0x3f800000	1.0
2	0x3f800000	1.0
3	0x3f800000	1.0
4	0x3f800000	1.0
5	0x3f800000	1.0

network_body.processors.0.normalizer.running_mean f4 [33]
0	0x00000000	0.0
1	0x00000000	0.0
2	0x00000000	0.0
3	0x00000000	0.0
4	0x00000000	0.0
5	0x00000000	0.0
6	0x00000000	0.0
7	0x00000000	0.0
8	0x00000000	0.0
9	0x00000000	0.0
10	0x00000000	0.0
11	0x00000000	0.0
12	0x00000000	0.0
13	0x00000000	0.0
14	0x00000000	0.0
15	0x00000000	0.0
16	0x00000000	0.0
17	0x00000000	0.0
18	0x00000000	0.0
19	0x00000000	0.0
20	0x00000000	0.0
21	0x00000000	0.0
22	0x00000000	0.0
23	0x00000000	0.0
24	0x00000000	0.0
25	0x00000000	0.0
26	0x00000000	0.0
27	0x00000000	0.0
28	0x00000000	0.0
29	0x00000000	0.0
30	0x00000000	0.0
31	0x00000000	0.0
32	0x00000000	0.0

network_body.processors.0.normalizer.running_variance f4 [33]
0	0x3f800000	1.0
1	0x3f800000	1.0
2	0x3f800000	1.0
3	0x3f800000	1.0
4	0x3f800000	1.0
5	0x3f800000	1.0
6	0x3f800000	1.0
7	0x3f800000	1.0
8	0x3f800000	1.0
9	0x3f800000	1.0
10	0x3f800000	1.0
11	0x3f800000	1.0
12	0x3f800000	1.0
13	0x3f800000	1.0
14	0x3f800000	1.0
15	0x3f800000	1.0
16	0x3f800000	1.0
17	0x3f800000	1.0
18	0x3f800000	1.0
19	0x3f800000	1.0
20	0x3f800000	1.0
21	0x3f800000	1.0
22	0x3f800000	1.0
23	0x3f800000	1.0
24	0x3f800000	1.0
25	0x3f800000	1.0
26	0x3f800000	1.0
27	0x3f800000	1.0
28	0x3f800000	1.0
29	0x3f800000	1.0
30	0x3f800000	1.0
31	0x3f800000	1.0
32	0x3f800000	1.0

network_body.processors.1.normalizer.running_mean f4 [6]
0	0x00000000	0.0
1	0x00000000	0.0
2	0x00000000	0.0
3	0x00000000	0.0
4	0x00000000	0.0
5	0x00000000	0.0

network_body.processors.1.normalizer.running_variance f4 [6]
0	0x3f800000	1.0
1	0x3f800000	1.0
2	0x3f800000	1.0
3	0x3f800000	1.0
4	0x3f800000	1.0
5	0x3f800000	1.0

network_body._body_endoder.seq_layers.0.weight f4 [127, 39]
0	0x3e225b14	0.15855056
1	0xbd5f4f59	-0.05451903
2	0x399ca576	0.00029877917
3	0x3e0ef870	0.13961959
4	0x3d8b5097	0.06802481
5	0xbd970b7c	-0.07375237
6	0x3dcb5a1a	0.09929295
7	0xbb5f5f47	-0.003408389
8	0xbe6d0f55	-0.2315038
9	0xbde9cec3	-0.1141639
10	0x3d905c4e	0.07048856
11	0xbe1b5155	-0.15167744
12	0xbe2cbd32	-0.16869047
13	0x3d588157	0.052857723
14	0xbe0e2e3c	-0.13884825
15	0x3d6fd4ea	0.05855266
16	0xbd4cff88	-0.05004838
17	0xbe129cb5	-0.14317591
18	0xbc0e8295	-0.008698125
19	0xbd96a850	-0.07356322
20	0x3db0c19d	0.08630679
21	0x3dae568f	0.085126035
22	0x3d0d719a	0.034532167
23	0xbe126f9b	-0.14300387
24	0x3d8bfb3d	0.06835029
25	0xbc599eb4	-0.013282467
26	0x3e139f8f	0.14416336
27	0xbd891c68	-0.06694871
28	0x3e3eecdf	0.18645047
29	0xbc39a606	-0.011331087
30	0x3d266b73	0.040629815
31	0xbb581d6a	-0.0032976517
32	0xbce2a58a	-0.027666826
33	0xbd827db9	-0.06371636
34	0xbe52f803	-0.20602421
35	0x3db6e48f	0.08930313
36	0x3e665eb6	0.22497067
37	0x3d8bfcb9	0.068353124
38	0x3c8f7466	0.017511558
39	0x3ac17e4e	0.0014762373
40	0xbe8350cf	-0.2564759
41	0x3e3f8589	0.18703283
42	0x3d778424	0.060428753
43	0xbe961107	-0.29309866
44	0xbe56af7d	-0.20965381
45	0xbd99d9da	-0.07512255
46	0x3dc6e439	0.09711499
47	0x3e2bbc3a	0.16771021
48	0xbead74fb	-0.33878312
49	0x3e900dad	0.28135434
50	0xbdb154c3	-0.08658745
51	0xbe8cf566	-0.27530974
52	0xbe218d2f	-0.15776514
53	0xbd3d70d7	-0.04625019
54	0x3e7826b9	0.24233522
55	0x3e5c8255	0.21534093
56	0xbe853505	-0.26017013
57	0xbd91cdc2	-0.07119323
58	0xbc24982c	-0.010046046
59	0xbe4cfbb4	-0.20017892
60	0x3d8d0e6d	0.06887517
61	0x3d9020ae	0.07037483
62	0x3e02bcd1	0.1276734
63	0x3b648ef1	0.0034875239
64	0x3e9f9c29	0.31173828
65	0x3e5351f5	0.20636733
66	0x3e2cdc07	0.16880809
67	0xbd80acad	-0.06282935
68	0x3db10fea	0.086456135
69	0x3e743107	0.23846827
70	0xbde2f075	-0.1108102
71	0x3e5efdb4	0.21776468
72	0x3d4d99c0	0.050195456
73	0xbe2890f3	-0.16461544
74	0xbe385552	-0.18001297
75	0x3d8f9643	0.07011082
76	0x3d93ae2c	0.07210955
77	0x3d06d1c1	0.03291488
78	0x3de18039	0.11010785
79	0xbe79d6ae	-0.243983
80	0xbda01436	-0.07816355
81	0x3c7013da	0.0146531705
82	0xbd005918	-0.031334966
83	0xbe167beb	-0.14695708
84	0x3e2eb19d	0.17059942
85	0xbe9ec2a5	-0.31007877
86	0x3d32e5ea	0.043676294
87	0x3e307fbb	0.17236225
88	0x3e223697	0.15841137
89	0x3d918ed6	0.07107322
90	0x3d8f3f52	0.06994499
91	0xbe790714	-0.24319106
92	0xbc63d497	-0.013905666
93	0x3dd7765d	0.10520623
94	0x3e7873da	0.24262944
95	0x3c071bfa	0.008246416
96	0x3e0f2046	0.13977155
97	0x3da40559	0.080088325
98	0xbdbc59d6	-0.09196822
99	0xbdbb5f1a	-0.091489986
100	0x3ce91f89	0.02845742
101	0x3e487bcf	0.19578479
102	0xbd1e896f	-0.038705286
103	0x3c30125b	0.010746564
104	0xbdc71bc2	-0.09722091
105	0x3c822e42	0.015891198
106	0xbdb49be5	-0.08818797
107	0xbe58bcdd	-0.21165796
108	0x3e832b85	0.2561914
109	0x3c691fe9	0.014228799
110	0xbe807010	-0.25085497
111	0xbbc66e30	-0.006055616
112	0x3dbc2056	0.09185855
113	0xbd7512f8	-0.059832543
114	0xba28dd33	-0.00064416527
115	0xbce77af7	-0.028256876
116	0xbcaa2bf9	-0.02077292
117	0x3e26b6ed	0.16280718
118	0xbd8d875d	-0.06910584
119	0xbe16d297	-0.14728771
120	0xbb35c7be	-0.0027737464
121	0x3e441a93	0.19150762
122	0x3dcf5e49	0.10125405
123	0x3e84a545	0.2590734
124	0x3d93bf03	0.07214167
125	0x3e8d18cb	0.27557978
126	0xbe627afb	-0.22117226
127	0xbda7422c	-0.08166918
128	0xbd3724e5	-0.04471292
129	0x3e11f35f	0.14252995
130	0xbc908669	-0.017642217
131	0x3db5dc94	0.088799626
132	0xbe000a0e	-0.12503836
133	0x3d959ca6	0.07305269
134	0x3e2ba8dc	0.16763633
135	0xbe008dd0	-0.12554097
136	0x3c86d3ee	0.016458478
137	0x3e550bda	0.20805302
138	0x3db7732b	0.089575134
139	0xbd710574	-0.05884309
140	0xbeed4696	-0.46342915
141	0x3de1dd5e	0.110285506
142	0x3e3a0183	0.18164639
143	0xbe8c57ef	-0.27410838
144	0xbdcff7d5	-0.10154692
145	0x3d50d66d	0.050985742
146	0xbdfde090	-0.123963475
147	0xbd0473d7	-0.032337036
148	0xbd8aee0e	-0.067836866
149	0xbe6a02d8	-0.22852647
150	0xbc4b42b0	-0.012406036
151	0xbde6172c	-0.112348884
152	0x3ec116e9	0.37712792
153	0xbe979623	-0.29606733
154	0xbd60b47f	-0.054859634
155	0x3e672087	0.22571002
156	0x3e9d7a25	0.3075725
157	0x3e4a438a	0.19752327
158	0xbe11206a	-0.14172521
159	0xbe9645e0	-0.29350185
160	0x3ea5d43c	0.32388484
161	0x3d48aec5	0.0489948
162	0xbe16ec83	-0.1473866
163	0xbe92b6c1	-0.28655055
164	0xbd10063f	-0.035162207
165	0x3e37e37a	0.17957869
166	0x3e641cf9	0.22276677
167	0x3b603868	0.0034213308
168	0x3d85bfa0	0.0653069
169	0xbd644cd9	-0.05573735
170	0x3d41f58c	0.047353312
171	0xbe3ad1aa	-0.18244043
172	0xbbba15a0	-0.0056788474
173	0xbda4d8f6	-0.080491945
174	0xbcac7859	-0.02105348
175	0xbe093e92	-0.13402775
176	0x3e4c3467	0.19941865
177	0xbda8a82e	-0.08235203
178	0xbe109484	-0.14119154
179	0x3d8dde9b	0.06927224
180	0xbbe00a5f	-0.006837174
181	0x3d8e34c5	0.06943659
182	0x3d6b6002	0.057464607
183	0xbe04098f	-0.12894271
184	0xbe0dff0c	-0.13866824
185	0xbde3a945	-0.1111627
186	0xbe59dcc3	-0.2127562
187	0x3e74644a	0.23866382
188	0x3ba8e5e8	0.00515436
189	0xbe83c262	-0.2573424
190	0xbd1c41d8	-0.03814873
191	0xbe2763ae	-0.16346619
192	0xbe6d7698	-0.23189771
193	0xbe459459	-0.19294871
194	0x3e70d0fb	0.2351722
195	0x3e2911a1	0.16510631
196	0xbc8884b3	-0.016664838
197	0xbdbb56a0	-0.09147382
198	0x3e40659f	0.18788765
199	0xbded38ca	-0.11583097
200	0x3dbb3467	0.09140854
201	0x3e008c16	0.12553439
202	0x3dbb8fec	0.0915831
203	0x3d42174c	0.0473855
204	0x3e43933c	0.19099134
205	0xbdf9eb5c	-0.12203094
206	0xbe416009	-0.18884291
207	0xbe5458a1	-0.20736934
208	0xbcb52795	-0.0221136
209	0xbe6a172e	-0.22860405
210	0x3dc545ce	0.09632455
211	0xbdeb82e9	-0.114995785
212	0x3e215c5d	0.1575789
213	0xbbc1e2b6	-0.0059169186
214	0xbe3eb425	-0.18623407
215	0xbe96aa14	-0.29426634
216	0xbd84b54b	-0.064798914
217	0xbe5d6f2c	-0.2162444
218	0xbe46f7f3	-0.19430523
219	0x3d9d2b44	0.07674268
220	0xbe180c06	-0.14848337
221	0xbb02796b	-0.0019908797
222	0x3db03970	0.08604705
223	0xbe7ccef4	-0.24688321
224	0x3c3a1d9c	0.0113595985
225	0x3e6380fc	0.22217172
226	0x3de7dcf5	0.11321441
227	0xbe1c9de0	-0.152946
228	0x3e06976f	0.13143705
229	0x3c847abb	0.016171804
230	0x3e407f83	0.18798642
231	0xbd8ea312	-0.06964697
232	0xbe8134bc	-0.25235546
233	0x3de0ce25	0.10976819
234	0x3e99ae9a	0.30016023
235	0x3d5e1220	0.054216504
236	0x3d1d1a21	0.038354997
237	0x3e0d31e9	0.1378857
238	0x3e1a87e6	0.15090904
239	0xbe1d3563	-0.15352397
240	0x3d148135	0.036256034
241	0x3d89d6f0	0.06730449
242	0xbe19f715	-0.1503566
243	0x3dd31e9a	0.10308571
244	0xbd8c04b2	-0.06836833
245	0xbe06cf99	-0.1316513
246	0xbebd717b	-0.3700064
247	0x3e3f7494	0.18696815
248	0xbe4b8f2a	-0.19878832
249	0xbd658741	-0.05603719
250	0xbe5f3183	-0.21796231
251	0xbdcd90f0	-0.1003741
252	0x3e19793a	0.1498765
253	0xbdee9a7a	-0.11650558
254	0xbd5bdf9b	-0.053680044
255	0xbd076853	-0.033058476

network_body._body_endoder.seq_layers.0.bias f4 [127]
0	0x00000000	0.0
1	0x00000000	0.0
2	0x00000000	0.0
3	0x00000000	0.0
4	0x00000000	0.0
5	0x00000000	0.0
6	0x00000000	0.0
7	0x00000000	0.0
8	0x00000000	0.0
9	0x00000000	0.0
10	0x00000000	0.0
11	0x00000000	0.0
12	0x00000000	0.0
13	0x00000000	0.0
14	0x00000000	0.0
15	0x00000000	0.0
16	0x00000000	0.0
17	0x00000000	0.0
18	0x00000000	0.0
19	0x00000000	0.0
20	0x00000000	0.0
21	0x00000000	0.0
22	0x00000000	0.0
23	0x00000000	0.0
24	0x00000000	0.0
25	0x00000000	0.0
26	0x00000000	0.0
27	0x00000000	0.0
28	0x00000000	0.0
29	0x00000000	0.0
30	0x00000000	0.0
31	0x00000000	0.0
32	0x00000000	0.0
33	0x00000000	0.0
34	0x00000000	0.0
35	0x00000000	0.0
36	0x00000000	0.0
37	0x00000000	0.0
38	0x00000000	0.0
39	0x00000000	0.0
40	0x00000000	0.0
41	0x00000000	0.0
42	0x00000000	0.0
43	0x00000000	0.0
44	0x00000000	0.0
45	0x00000000	0.0
46	0x00000000	0.0
47	0x00000000	0.0
48	0x00000000	0.0
49	0x00000000	0.0
50	0x00000000	0.0
51	0x00000000	0.0
52	0x00000000	0.0
53	0x00000000	0.0
54	0x00000000	0.0
55	0x00000000	0.0
56	0x00000000	0.0
57	0x00000000	0.0
58	0x00000000	0.0
59	0x00000000	0.0
60	0x00000000	0.0
61	0x00000000	0.0
62	0x00000000	0.0
63	0x00000000	0.0
64	0x00000000	0.0
65	0x00000000	0.0
66	0x00000000	0.0
67	0x00000000	0.0
68	0x00000000	0.0
69	0x00000000	0.0
70	0x00000000	0.0
71	0x00000000	0.0
72	0x00000000	0.0
73	0x00000000	0.0
74	0x00000000	0.0
75	0x00000000	0.0
76	0x00000000	0.0
77	0x00000000	0.0
78	0x00000000	0.0
79	0x00000000	0.0
80	0x00000000	0.0
81	0x00000000	0.0
82	0x00000000	0.0
83	0x00000000	0.0
84	0x00000000	0.0
85	0x00000000	0.0
86	0x00000000	0.0
87	0x00000000	0.0
88	0x00000000	0.0
89	0x00000000	0.0
90	0x00000000	0.0
91	0x00000000	0.0
92	0x00000000	0.0
93	0x00000000	0.0
94	0x00000000	0.0
95	0x00000000	0.0
96	0x00000000	0.0
97	0x00000000	0.0
98	0x00000000	0.0
99	0x00000000	0.0
100	0x00000000	0.0
101	0x00000000	0.0
102	0x00000000	0.0
103	0x00000000	0.0
104	0x00000000	0.0
105	0x00000000	0.0
106	0x00000000	0.0
107	0x00000000	0.0
108	0x00000000	0.0
109	0x00000000	0.0
110	0x00000000	0.0
111	0x00000000	0.0
112	0x00000000	0.0
113	0x00000000	0.0
114	0x00000000	0.0
115	0x00000000	0.0
116	0x00000000	0.0
117	0x00000000	0.0
118	0x00000000	0.0
119	0x00000000	0.0
120	0x00000000	0.0
121	0x00000000	0.0
122	0x00000000	0.0
123	0x00000000	0.0
124	0x00000000	0.0
125	0x00000000	0.0
126	0x00000000	0.0

network_body._body_endoder.seq_layers.2.weight f4 [127, 127]
0	0xbd68e1d2	-0.056855984
1	0xbc277d74	-0.010222781
2	0xbc80e727	-0.015735222
3	0xbd62f933	-0.055413436
4	0x3d336a7f	0.043802734
5	0xbdd6cd00	-0.104883194
6	0x3cd91b46	0.026502263
7	0xbc7a81bc	-0.01528972
8	0x3d1f2248	0.038851053
9	0xbd27d03b	-0.04097007
10	0x3db5a1f6	0.08868782
11	0x3d1f831a	0.038943388
12	0x3e847245	0.2586843
13	0xbc6c7026	-0.014431035
14	0x3d335018	0.043777555
15	0x3ddc6ec5	0.10763315
16	0xbc8bd076	-0.017067175
17	0xbc37ef4b	-0.0112264855
18	0xbdaaabae	-0.083335266
19	0x3d95cd26	0.073145196
20	0xbd823375	-0.06357471
21	0x3c33fb2a	0.010985175
22	0x3d896c45	0.06710104
23	0xbce0951d	-0.027414853
24	0xbb95667e	-0.004559337
25	0xbd38021d	-0.04492389
26	0x3ad2f3cb	0.0016094384
27	0x3e056e59	0.13030376
28	0x3cd76ce5	0.026297042
29	0xbc651bc6	-0.0139836725
30	0xbda8ac24	-0.08235958
31	0x3e1be453	0.15223818
32	0xbe00c01d	-0.12573285
33	0x3cb0e332	0.02159271
34	0x39539284	0.0002017711
35	0x3e21363b	0.15743344
36	0xbdb6c01e	-0.08923362
37	0xbd7dca06	-0.061960243
38	0x3c7b3578	0.015332572
39	0x3d824649	0.06361062
40	0x3c1227bb	0.008920605
41	0x3bf93d62	0.0076061944
42	0xba4034cf	-0.0007332088
43	0x3ea1e43d	0.31619444
44	0x3d8ea38a	0.06964786
45	0x3daeba6b	0.0853165
46	0xbe673474	-0.22578603
47	0xbdb3af37	-0.08773654
48	0x3e201b41	0.15635397
49	0xbc75830c	-0.014984857
50	0x3c932592	0.01796225
51	0x3ab0b844	0.001348265
52	0xbc320ac2	-0.010866823
53	0xbda9d0f0	-0.08291805
54	0x3dd65e8d	0.10467253
55	0xbde5004b	-0.111816965
56	0xbd66b309	-0.056323085
57	0xbc47b023	-0.01218799
58	0x3d111ff0	0.03543085
59	0xbc9edb1b	-0.019391587
60	0xbe86fbf1	-0.2636409
61	0x3d39d696	0.04537066
62	0xbdc3a9be	-0.0955386
63	0x3d944bf7	0.07241052
64	0x3e2ae78a	0.16689888
65	0x3e58f47e	0.21187016
66	0xbe8c55fc	-0.2740935
67	0xbd4a995c	-0.04946266
68	0xbde8ee6c	-0.113736
69	0x3d923753	0.071394585
70	0xbc20ed1b	-0.009822155
71	0x3de5c4fa	0.11219211
72	0xbd40f1a5	-0.04710545
73	0xbd1e18d6	-0.038597904
74	0x3e22541d	0.15852399
75	0xbe3a9e79	-0.18224515
76	0xbe2605f9	-0.16213216
77	0xbd97f66b	-0.074200474
78	0xbdf36528	-0.118845284
79	0x3b1638f3	0.0022922128
80	0x3cb52d2c	0.022116266
81	0xbdb78102	-0.08960153
82	0x3bad0a90	0.0052808
83	0x3e0181ee	0.1264722
84	0xbe0afe36	-0.13573536
85	0x3db59f4d	0.08868275
86	0x3d5b729f	0.053576108
87	0xbda9807a	-0.08276458
88	0xbd9a0c07	-0.07521825
89	0x3bd3c697	0.0064628827
90	0x3cc32b61	0.023824396
91	0x3e01ef8d	0.12689038
92	0x3d472182	0.04861594
93	0xbdc39af8	-0.09551042
94	0x3abd19e0	0.0014427267
95	0xbd1246f5	-0.0357122
96	0x3d1dfbf8	0.038570374
97	0x3dec0e2e	0.11526142
98	0x3d81255c	0.06305954
99	0xbd20eb3d	-0.03928684
100	0xbdc981c8	-0.09839207
101	0xbe51121d	-0.20417066
102	0xbe19d103	-0.15021138
103	0xbb9991fa	-0.004686591
104	0xbca341d8	-0.019928858
105	0xbe56c86f	-0.20974897
106	0x3c951a1b	0.018200925
107	0x3ce302f0	0.027711362
108	0x3e315299	0.17316665
109	0xbda39ee8	-0.07989293
110	0x3d6c47b7	0.05768558
111	0xbd9ab0ba	-0.07553239
112	0x3d045f84	0.032317653
113	0xbe58946e	-0.21150371
114	0xbdafa1ee	-0.085758075
115	0xbdae7eb2	-0.08520259
116	0x3e0c5f6f	0.1370828
117	0x3ccf98b3	0.025341367
118	0x3d83af6c	0.064299434
119	0x3dccbe65	0.099972524
120	0x3bafd069	0.0053654206
121	0x3c9d28fd	0.019184584
122	0x3e1ce977	0.15323435
123	0xbe0d9bf8	-0.13829029
124	0x3e409e99	0.188105
125	0x3c0c515a	0.008564318
126	0x3d2e4209	0.042543445
127	0xbd88e459	-0.06684179
128	0xbdb242e0	-0.08704162
129	0x3acd6b49	0.0015672232
130	0x3d9964a9	0.074899025
131	0x3e2069a0	0.15665293
132	0xbdecfad8	-0.11571282
133	0xbcf27299	-0.02959566
134	0xbd72acda	-0.059246875
135	0xbde119ee	-0.10991274
136	0xbccb7ea0	-0.024840653
137	0xbd94309f	-0.07235836
138	0x3c792499	0.0152064795
139	0xbd43ba42	-0.04778505
140	0x3dbbd3b8	0.091712415
141	0xbdafcbe7	-0.08583813
142	0xbd808aee	-0.06276499
143	0xbc003b71	-0.007826672
144	0x3de6a769	0.112624
145	0x3e264b7d	0.16239734
146	0x3df351ec	0.1188086
147	0xbd0b5501	-0.034016613
148	0xbdef8d29	-0.11696846
149	0x3e02636e	0.12733242
150	0xbe1d9d80	-0.15392113
151	0x3de29655	0.1106383
152	0x3dbe8ba3	0.09303977
153	0x3db37030	0.087616324
154	0x3e04f7b7	0.1298512
155	0xbd1bfa22	-0.038080342
156	0x3c7daa39	0.015482479
157	0x3e8aa7c2	0.27081114
158	0x3d291b06	0.041285537
159	0xbc0bdeed	-0.008537036
160	0xbe020192	-0.12695912
161	0x3c3fe808	0.011713035
162	0x3df49473	0.11942377
163	0x3d07fda0	0.03320086
164	0xbe02fdd0	-0.12792134
165	0x3e229a75	0.15879233
166	0x3da6032c	0.08106074
167	0x3c8aadb4	0.016928531
168	0x3d996619	0.07490177
169	0x3dbf433b	0.09338995
170	0x3dc7b229	0.09750778
171	0x3cc8b744	0.02450145
172	0x3ca6919e	0.020333108
173	0xbc076f7b	-0.008266325
174	0xbe0f47dd	-0.13992257
175	0xbd41edae	-0.04734581
176	0x3dae2032	0.085022345
177	0xbc2b8a1a	-0.010469938
178	0xbdf84d3d	-0.12124107
179	0xbd11559d	-0.035482038
180	0x3da3fd16	0.08007257
181	0x3d317685	0.04332592
182	0xbd3fc774	-0.046821073
183	0x3c8324b7	0.016008718
184	0xbaf1f05e	-0.0018458476
185	0x3d23ed62	0.040021308
186	0xbd8880f7	-0.06665223
187	0xbe193e43	-0.14965157
188	0xbde8adef	-0.113613
189	0x3c496f1d	0.012294558
190	0x3d92742c	0.07151064
191	0xbcbc0adb	-0.022954395
192	0x3c9c2d53	0.019064581
193	0xbd80df78	-0.06292623
194	0xbd9378f2	-0.07200803
195	0xbd9b7e0d	-0.07592402
196	0xbb5dc52b	-0.0033839445
197	0x3d124c94	0.03571756
198	0xbdd36e26	-0.103237435
199	0xbc0f821c	-0.008759048
200	0x3cabbed2	0.020965014
201	0x3dbb4b99	0.091452785
202	0x3d76c766	0.060248755
203	0x3cbf238c	0.02333238
204	0x3d6bdcba	0.057583548
205	0x3d0aff43	0.033934843
206	0xbdc7649f	-0.09735989
207	0x3cb63232	0.022240732
208	0x3d8cafda	0.068694785
209	0xbddb233b	-0.10700079
210	0x3d8b8188	0.068118155
211	0xbdbd7e67	-0.09252625
212	0x3e062b65	0.13102491
213	0xbddf97e5	-0.109176435
214	0xbd2324f8	-0.039830178
215	0xbb9ef2cc	-0.004850721
216	0xbdaa9b0d	-0.08330355
217	0x3d1186f7	0.035529103
218	0xbd835e91	-0.064145215
219	0x3d7c2623	0.061559808
220	0x3d836e98	0.064175785
221	0xbda0afb5	-0.078460135
222	0xbd850f12	-0.06497015
223	0xbe31e2b3	-0.17371635
224	0xbe0f3465	-0.1398483
225	0xbc212ec1	-0.009837807
226	0xbd3ae5ef	-0.045629438
227	0xbe2529df	-0.16129254
228	0x3d024905	0.031807918
229	0x3db6be89	0.089230604
230	0x3c576062	0.013145538
231	0x3ccc7c7a	0.024961699
232	0xbd114443	-0.03546549
233	0x3de4f777	0.11180013
234	0xbca8c787	-0.020602955
235	0xbce3ff9e	-0.027831849
236	0x3d8daace	0.06917344
237	0xbd60f3cd	-0.054920007
238	0xbc0ea394	-0.008705992
239	0x3de91bc7	0.11382251
240	0x3e3950b2	0.18097189
241	0xbd3205b6	-0.043462478
242	0xbdeca4a0	-0.11554837
243	0xbe24d860	-0.16098166
244	0xbdd485e3	-0.10377099
245	0x3c9ef228	0.019402578
246	0xbd62d05c	-0.05537449
247	0x3d8e89a6	0.06959848
248	0xbd3f892e	-0.046761684
249	0x3d8c9a4f	0.068653695
250	0x3d2bd683	0.04195262
251	0x3dbc57fd	0.0919647
252	0x3c16bb78	0.0091999695
253	0xbd890868	-0.066910565
254	0x3d2ac6fe	0.04169368
255	0x3cc42cd4	0.023947157

network_body._body_endoder.seq_layers.2.bias f4 [127]
0	0x00000000	0.0
1	0x00000000	0.0
2	0x00000000	0.0
3	0x00000000	0.0
4	0x00000000	0.0
5	0x00000000	0.0
6	0x00000000	0.0
7	0x00000000	0.0
8	0x00000000	0.0
9	0x00000000	0.0
10	0x00000000	0.0
11	0x00000000	0.0
12	0x00000000	0.0
13	0x00000000	0.0
14	0x00000000	0.0
15	0x00000000	0.0
16	0x00000000	0.0
17	0x00000000	0.0
18	0x00000000	0.0
19	0x00000000	0.0
20	0x00000000	0.0
21	0x00000000	0.0
22	0x00000000	0.0
23	0x00000000	0.0
24	0x00000000	0.0
25	0x00000000	0.0
26	0x00000000	0.0
27	0x00000000	0.0
28	0x00000000	0.0
29	0x00000000	0.0
30	0x00000000	0.0
31	0x00000000	0.0
32	0x00000000	0.0
33	0x00000000	0.0
34	0x00000000	0.0
35	0x00000000	0.0
36	0x00000000	0.0
37	0x00000000	0.0
38	0x00000000	0.0
39	0x00000000	0.0
40	0x00000000	0.0
41	0x00000000	0.0
42	0x00000000	0.0
43	0x00000000	0.0
44	0x00000000	0.0
45	0x00000000	0.0
46	0x00000000	0.0
47	0x00000000	0.0
48	0x00000000	0.0
49	0x00000000	0.0
50	0x00000000	0.0
51	0x00000000	0.0
52	0x00000000	0.0
53	0x00000000	0.0
54	0x00000000	0.0
55	0x00000000	0.0
56	0x00000000	0.0
57	0x00000000	0.0
58	0x00000000	0.0
59	0x00000000	0.0
60	0x00000000	0.0
61	0x00000000	0.0
62	0x00000000	0.0
63	0x00000000	0.0
64	0x00000000	0.0
65	0x00000000	0.0
66	0x00000000	0.0
67	0x00000000	0.0
68	0x00000000	0.0
69	0x00000000	0.0
70	0x00000000	0.0
71	0x00000000	0.0
72	0x00000000	0.0
73	0x00000000	0.0
74	0x00000000	0.0
75	0x00000000	0.0
76	0x00000000	0.0
77	0x00000000	0.0
78	0x00000000	0.0
79	0x00000000	0.0
80	0x00000000	0.0
81	0x00000000	0.0
82	0x00000000	0.0
83	0x00000000	0.0
84	0x00000000	0.0
85	0x00000000	0.0
86	0x00000000	0.0
87	0x00000000	0.0
88	0x00000000	0.0
89	0x00000000	0.0
90	0x00000000	0.0
91	0x00000000	0.0
92	0x00000000	0.0
93	0x00000000	0.0
94	0x00000000	0.0
95	0x00000000	0.0
96	0x00000000	0.0
97	0x00000000	0.0
98	0x00000000	0.0
99	0x00000000	0.0
100	0x00000000	0.0
101	0x00000000	0.0
102	0x00000000	0.0
103	0x00000000	0.0
104	0x00000000	0.0
105	0x00000000	0.0
106	0x00000000	0.0
107	0x00000000	0.0
108	0x00000000	0.0
109	0x00000000	0.0
110	0x00000000	0.0
111	0x00000000	0.0
112	0x00000000	0.0
113	0x00000000	0.0
114	0x00000000	0.0
115	0x00000000	0.0
116	0x00000000	0.0
117	0x00000000	0.0
118	0x00000000	0.0
119	0x00000000	0.0
120	0x00000000	0.0
121	0x00000000	0.0
122	0x00000000	0.0
123	0x00000000	0.0
124	0x00000000	0.0
125	0x00000000	0.0
126	0x00000000	0.0
