Assets/results/CubeAgent8/AutoAgentFinale/AutoAgentFinale-750.onnx (onnx, 89226 bytes, 11 tensors)

60 f4 [33]
00000000: 1577 153d 294e 533d 294e 533d 1577 153d
00000010: 294e 533d 294e 533d 1577 153d 294e 533d
00000020: 294e 533d 1577 153d 294e 533d 294e 533d
00000030: 1577 153d 294e 533d 294e 533d 1577 153d
00000040: 294e 533d 294e 533d 1577 153d 294e 533d
00000050: 294e 533d 1577 153d 294e 533d 294e 533d
00000060: 1577 153d 294e 533d 294e 533d 1577 153d
00000070: 294e 533d 294e 533d 1577 153d 294e 533d
00000080: 294e 533d
0.03649052 0.05158821 0.05158821 0.03649052 0.05158821 0.05158821 0.03649052 0.05158821
0.05158821 0.03649052 0.05158821 0.05158821 0.03649052 0.05158821 0.05158821 0.03649052
0.05158821 0.05158821 0.03649052 0.05158821 0.05158821 0.03649052 0.05158821 0.05158821
0.03649052 0.05158821 0.05158821 0.03649052 0.05158821 0.05158821 0.03649052 0.05158821
0.05158821

63 f4 [6]
00000000: e363 273d 13e7 283d cfb7 3d3d 95cc a840
00000010: bf34 363d 3389 0a43
0.040866744 0.041235995 0.04631787 5.2749734 0.044483896 138.53593

action_model._continuous_distribution.log_sigma f4 [1, 2]
00000000: 0000 0000 0000 0000
0.0 0.0

action_model._continuous_distribution.mu.bias f4 [2]
00000000: 0000 0000 0000 0000
0.0 0.0

action_model._continuous_distribution.mu.weight f4 [2, 127]
00000000: b065 a33b 5358 9cba 8aa7 0a3d 778c 7bb9
00000010: 8b05 b13c 937c 99bc b5ac 5d3c 63f9 b3bc
00000020: 776b 353b a2c3 a1bb 829a d9bc 5048 183c
00000030: 0f3f 4cbc 2911 3ebc c077 14bb 1d17 88bb
00000040: 5035 bd3c 9203 ad39 e777 bb3c 2b92 3fbc
00000050: 17ec 163c d831 10bc 2410 ae3c 38d3 db3c
00000060: bef4 b23b 7050 d5bc 6291 d4bc 046f 223c
00000070: ff83 473c 91fb 04bd 45d4 6fbc 5d54 47bc
00000080: aa34 b93b 9679 91bb 65bd e13a 30d3 ea3c
00000090: 98ff babb 388a 393c 027b 7f3c 5f3d dfbc
000000a0: 8192 2dbc ee05 c13c 1243 783c 47b8 9c3b
000000b0: 8fad bcbc db99 39bc 9046 13bc 1ad8 2bbc
000000c0: 3696 373c e456 a93c b07b 09bd ef26 96bc
000000d0: b24e 9f3b f1fa 0fbc 1faf 11bd 4960 2f3c
000000e0: a53c 673b 26eb 483c 65f4 62bb 59a3 10bd
000000f0: ba56 a2ba ea6e 72b9 abfc abbc a519 a33c
00000100: eb7e 5e3c 088c 11bd b32e 3ebb bb22 0bbd
00000110: d04e 39bc 2581 573b cf3f 01bc b56b 5fbc
00000120: 230d d9bb 3f95 e8bb ad64 773c 53de 513c
00000130: 6643 8fbc 0766 1a3c e090 98bc fbce 343d
00000140: 1353 06bd c8a2 5a3c 8776 e1bb cb92 41ba
00000150: fb2d e5bb 4bf1 1ebc bae9 70bb b794 013d
00000160: 0bcc 923c bb43 19bc 5f84 00bd 83b0 323a
00000170: 3b68 4abc cd96 5e3c 68d6 bdbc 7248 a53c
00000180: 1175 0ebd 780b 28bc afe9 fe3a f77e 90bc
00000190: 0fc9 b13c c090 bbbb 8340 8e3b bb92 86bc
000001a0: 7e03 21bb 7b24 063c 406d cdbb 68ae 5d3c
000001b0: c2d2 d53b fa27 57bc bfdf b6bb fbe9 993c
000001c0: 9c80 babc e32a e43c a74b 113c 3ffd d6bc
000001d0: fb75 9f3c 9dfc 14bd 1788 90bc 1b48 0bbd
000001e0: 0794 d93c 6d41 5e3b c302 6cbc 978f 79bc
000001f0: 23ec 933c 6773 44bd 52a8 34bc 9712 893c
00000200: c977 c7bc da29 1e3c da96 a23b a47c b3bc
00000210: 7f6b b139 aa0c 603c 3f6c 8a3c 12b8 61bc
00000220: d035 9d3a 8344 873c cdb9 5b3c fd90 043d
00000230: bb8f 7fbc 670f 28bc 1f06 f63c 318c 20bc
00000240: bba6 74bc a9f8 3cbc 19bf 94ba e009 843c
00000250: f117 143c 9aa6 a4bc e49b 8fbc fc29 81bc
00000260: 34e7 3b3b e3e0 9c3c a792 0c3d 8aa2 e1bb
00000270: ed69 f43b 76d4 c53b cfc7 623c 72e6 203d
00000280: 7d5b fcbb bd11 81bc 3dd8 74ba 740c 933b
00000290: bb05 00bd 9790 c63b 83ac 99bc 6849 373c
000002a0: eda6 a63c 0463 293c 3371 0abc 5af9 fdbb
000002b0: 22e8 e7bc e918 9cbb 93f7 c5bc 901a eabc
000002c0: 83a0 c1bc ef57 2f3c c93b 8c3c c63d 87ba
000002d0: 26ab 09bb 57d1 4abc 87db 16bb d73d bc3c
000002e0: e8fa 4e3c 1348 573c 8fd0 51bc c22e 423c
000002f0: 67a9 a1bc 85f1 d2bc c1a9 4a3c fb4d 813c
00000300: 2146 9f3c 5962 87bb 2def 963c 374a 58bc
00000310: da73 d03b 1b33 ad3c 81d0 233c 574e 7c3c
00000320: 7265 3038 feaa 49bc a2e6 40bc bdd2 0b3d
00000330: eb11 513b 2fab 30bb 7d23 273d 8cf3 2abd
00000340: b8a8 10bc ca79 403b f302 12bc 05b7 c9bb
00000350: 5083 4b3c 1337 813a e6ac cbbc 90b5 043c
00000360: a96a 37bc efc6 b4bc 854c 783b 1ffb e3bc
00000370: 6e6c 8d3c 2ab0 283a 38b0 afbb 3b5d 783c
00000380: eb54 b23c 4025 48bd 93d1 d13a 0b0a 6fbb
00000390: f7fb 16bd eae3 62bc 2e11 413c 3659 053c
000003a0: c783 96bc 1ff3 8bbc 830a b73a 158e 94bc
000003b0: 676e cfbb f3cb edbc 058c bfbb 92dd d8ba
000003c0: 17ab 9f3c c72f febb 07ce 2b3c 879a 45bc
000003d0: 1508 57ba 5812 7e39 dc08 0d3c 0274 b13c
000003e0: 65f4 703c d87c 95bb a040 5f3b f97f 9cba
000003f0: 0646 093d 1a66 273c
0.0049864873 -0.0011928178 0.033851184 -0.00023989553 0.021609088 -0.01873616 0.013529946 -0.021969503
0.0027682462 -0.0049366513 -0.026562933 0.009294584 -0.012466206 -0.011600771 -0.0022654384 -0.004153146
0.02309671 0.0003299979 0.022884322 -0.011692564 0.009211562 -0.008800946 0.02124793 0.026834115
0.0054613044 -0.026039332 -0.02594823 0.0099141635 0.012177466 -0.032466475 -0.014638011 -0.01216611
0.00565203 -0.004439543 0.0017222582 0.028665155 -0.0057067387 0.011324458 0.015593292 -0.027250944
-0.010594011 0.023562398 0.01515271 0.0047827098 -0.023031978 -0.011328186 -0.008988991 -0.010488534
0.011205247 0.020671315 -0.033565223 -0.018329112 0.004861676 -0.008787856 -0.0355674 0.0107041085
0.003528395 0.012263095 -0.0034630534 -0.03531203 -0.0012385466 -0.00023120237 -0.020994505 0.01990969
0.013580064 -0.035533935 -0.0029019534 -0.03396867 -0.011310294 0.0032883373 -0.007888748 -0.013636519
-0.0066238805 -0.0070978696 0.015099687 0.012809354 -0.017488193 0.009423739 -0.01862377 0.044142704
-0.03279407 0.013344474 -0.0068805846 -0.00073842396 -0.0069940067 -0.009701083 -0.0036760406 0.031635966
0.01791956 -0.009354527 -0.03137624 0.00068164634 -0.012353952 0.013585758 -0.023173526 0.020176146
-0.034779612 -0.010256641 0.0019448305 -0.017638667 0.021702318 -0.0057240427 0.0043411865 -0.016427388
-0.0024568732 0.008187409 -0.006269127 0.013530351 0.0065253684 -0.01313209 -0.005580872 0.018788328
-0.022766404 0.027852481 0.008868135 -0.026243804 0.019465437 -0.036373723 -0.017643018 -0.034004312
0.026559843 0.0033913509 -0.014404955 -0.015231988 0.018056935 -0.04796162 -0.011026459 0.016732497
-0.02434911 0.009653533 0.0049618306 -0.02191002 0.00033840162 0.013674894 0.016897319 -0.013776796
0.0011994187 0.016512161 0.013410998 0.032364834 -0.015598233 -0.010257578 0.030032216 -0.009799049
-0.01493233 -0.011533895 -0.0011348455 0.01611799 0.009038911 -0.020098973 -0.01753039 -0.01576709
0.0028671743 0.019150203 0.034319546 -0.0068858312 0.0074589164 0.00603729 0.013841583 0.03928227
-0.007701336 -0.015755529 -0.00093400833 0.0044875685 -0.031255465 0.006059717 -0.018759018 0.011186935
0.020343268 0.010338549 -0.00844984 -0.0077506723 -0.028308932 -0.0047637117 -0.024165904 -0.02857712
-0.023636108 0.010702117 0.017118352 -0.0010318093 -0.0021006553 -0.012379012 -0.0023019032 0.022978706
0.012633063 0.013139742 -0.012806072 0.011851968 -0.019734098 -0.025749931 0.012369574 0.015784254
0.01944262 -0.004131597 0.018424595 -0.013201288 0.006361467 0.021142533 0.009998442 0.015399537
4.205615e-05 -0.012308834 -0.011773737 0.034136523 0.003190155 -0.0026957502 0.04080533 -0.04173617
-0.008829288 0.0029369467 -0.008911836 -0.006155851 0.012421444 0.0009858332 -0.024862718 0.0080999285
-0.011194863 -0.022067515 0.0037887406 -0.027829705 0.017263617 0.0006434942 -0.005361583 0.015158947
0.021769008 -0.04886365 0.0016007893 -0.0036474492 -0.036861386 -0.013848284 0.011783881 0.008138945
-0.018373383 -0.017083703 0.0013964925 -0.018134156 -0.0063302997 -0.029027915 -0.005845549 -0.0016545525
0.019490762 -0.0077571603 0.010486132 -0.012060768 -0.00082028034 0.00024230161 0.008608069 0.021661762
0.014706706 -0.0045620017 0.003406562 -0.0011939994 0.033514045 0.010217214

network_body._body_endoder.seq_layers.0.bias f4 [127]
00000000: 0000 0000 0000 0000 0000 0000 0000 0000
00000010: 0000 0000 0000 0000 0000 0000 0000 0000
00000020: 0000 0000 0000 0000 0000 0000 0000 0000
00000030: 0000 0000 0000 0000 0000 0000 0000 0000
00000040: 0000 0000 0000 0000 0000 0000 0000 0000
00000050: 0000 0000 0000 0000 0000 0000 0000 0000
00000060: 0000 0000 0000 0000 0000 0000 0000 0000
00000070: 0000 0000 0000 0000 0000 0000 0000 0000
00000080: 0000 0000 0000 0000 0000 0000 0000 0000
00000090: 0000 0000 0000 0000 0000 0000 0000 0000
000000a0: 0000 0000 0000 0000 0000 0000 0000 0000
000000b0: 0000 0000 0000 0000 0000 0000 0000 0000
000000c0: 0000 0000 0000 0000 0000 0000 0000 0000
000000d0: 0000 0000 0000 0000 0000 0000 0000 0000
000000e0: 0000 0000 0000 0000 0000 0000 0000 0000
000000f0: 0000 0000 0000 0000 0000 0000 0000 0000
00000100: 0000 0000 0000 0000 0000 0000 0000 0000
00000110: 0000 0000 0000 0000 0000 0000 0000 0000
00000120: 0000 0000 0000 0000 0000 0000 0000 0000
00000130: 0000 0000 0000 0000 0000 0000 0000 0000
00000140: 0000 0000 0000 0000 0000 0000 0000 0000
00000150: 0000 0000 0000 0000 0000 0000 0000 0000
00000160: 0000 0000 0000 0000 0000 0000 0000 0000
00000170: 0000 0000 0000 0000 0000 0000 0000 0000
00000180: 0000 0000 0000 0000 0000 0000 0000 0000
00000190: 0000 0000 0000 0000 0000 0000 0000 0000
000001a0: 0000 0000 0000 0000 0000 0000 0000 0000
000001b0: 0000 0000 0000 0000 0000 0000 0000 0000
000001c0: 0000 0000 0000 0000 0000 0000 0000 0000
000001d0: 0000 0000 0000 0000 0000 0000 0000 0000
000001e0: 0000 0000 0000 0000 0000 0000 0000 0000
000001f0: 0000 0000 0000 0000 0000 0000
0.0 0.0 0.0 0.0 0.0 0.0 0.0 0.0
0.0 0.0 0.0 0.0 0.0 0.0 0.0 0.0
0.0 0.0 0.0 0.0 0.0 0.0 0.0 0.0
0.0 0.0 0.0 0.0 0.0 0.0 0.0 0.0
0.0 0.0 0.0 0.0 0.0 0.0 0.0 0.0
0.0 0.0 0.0 0.0 0.0 0.0 0.0 0.0
0.0 0.0 0.0 0.0 0.0 0.0 0.0 0.0
0.0 0.0 0.0 0.0 0.0 0.0 0.0 0.0
0.0 0.0 0.0 0.0 0.0 0.0 0.0 0.0
0.0 0.0 0.0 0.0 0.0 0.0 0.0 0.0
0.0 0.0 0.0 0.0 0.0 0.0 0.0 0.0
0.0 0.0 0.0 0.0 0.0 0.0 0.0 0.0
0.0 0.0 0.0 0.0 0.0 0.0 0.0 0.0
0.0 0.0 0.0 0.0 0.0 0.0 0.0 0.0
0.0 0.0 0.0 0.0 0.0 0.0 0.0 0.0
0.0 0.0 0.0 0.0 0.0 0.0 0.0

network_body._body_endoder.seq_layers.0.weight f4 [127, 39]
00000000: f647 f23d bf62 a83c 44a9 a436 5425 4cbe
00000010: 7873 67bd 598c 343c 20a9 07be 4b47 413e
00000020: 364e 003e 4503 afbd 4812 1fbd e210 83bc
00000030: 3ddc bbbd 7c9a 2f3e 93a3 813d 3ae9 c8bd
00000040: f585 b83c 9f31 163e 99d9 443e bbf7 273e
00000050: b526 173e d2d5 f23b f638 eabd cc35 3cbe
00000060: 77b6 a4be 55b9 3ebd 6ebd 51bd 6257 f03c
00000070: f36e 88be 89b4 49be f28d e0bc 2509 34be
00000080: 672c 873c 0b6a cf3d 137b 183e bc84 ddbd
00000090: fd86 f0bb 7421 90be 540d 71be 82c2 dcbe
000000a0: 7895 cc3e bc32 8c3d 5fd9 97bd c972 96be
000000b0: 4b30 3dbb 8943 853d 45e3 7d3d 31ac 0ebe
000000c0: 0e48 053e 6cf5 debb 060a 9d3d 677e afbd
000000d0: b081 7ebe df67 593c 9842 37bd 6554 b3bd
000000e0: 37c0 8bbe 800a 653e ecc5 71bd 4717 d33d
000000f0: 3eb3 f33d 6463 fd3b 0ca3 0a3e 8da1 d5be
00000100: 1dbc aa3e 1d8f a7bd 96e3 89be 436c c03c
00000110: e61c cd3c 32d7 70bc 10a2 b1bd 78a5 52be
00000120: 6c38 393d 7f1f 84bd bb1e b13c c640 433c
00000130: 58a1 8ebe 810d 1c3d 6061 f83d 362f 2c3e
00000140: 2e81 0c3d b89a 3c3e 0780 8e3d 5e40 5e3e
00000150: 57dc f6be 1b9c 9b3c cc30 b4bd f50f 8dbe
00000160: fcd8 373e a92b 0abd fe74 7f3e 2150 393e
00000170: b941 113e f10f c7bd 55aa b93b f375 24be
00000180: 5cc1 113d 98fa a93d b4d9 fb3b b136 993d
00000190: 0c4b 353e 9817 d0bc d069 94be 2946 85be
000001a0: f888 03be 7fcd 7abd 44eb 80bd d752 bd3e
000001b0: 291f 483e 40a6 183d f2f1 5c3e 3c83 69be
000001c0: 3aeb cb3d cf58 d33d 48f1 563e f8e0 893d
000001d0: b5fa dd3c ceb4 82be f604 14bd 812c 353d
000001e0: 244e 1abe 7399 50be ecaf 1e3e f6f0 d5be
000001f0: aa4b 5abe 8dc0 ae3e 4466 673d 283a 5d3d
00000200: e3cd 913e 4120 56bd d95b 533c 573c 943e
00000210: 9681 1d3e 0ed6 25be 3568 3d3d 08c4 b93d
00000220: b423 a63c b0eb 253d 1635 853e abfd 623e
00000230: cd0b 76bd dea6 86be 55c1 593d 917c 62be
00000240: 5dd5 0c3d 050c 0fbe ede9 d4ba dd74 93be
00000250: 1d06 1cbe 0d84 00be a9f9 423e 7b2c 0e3e
00000260: d493 81be 6650 25be 684a 3cbe 781d ca3d
00000270: 3375 8cbc 3213 91be a00e 863c b4f7 723e
00000280: 2f2b 96bd a933 7b3e 11de 96bd 9e68 69be
00000290: 734f 35bd a160 50bd 49ac 2ebe 3a30 71bd
000002a0: ec2c 5a3d 50f8 cabc c4a7 b63e 68a8 34be
000002b0: 2c07 91be ad4c 93be e28f d53c db68 a63d
000002c0: 686e 95bc c445 5fbe f721 b3bc c9f4 c13d
000002d0: 1da1 2ebd f245 a53e 1284 83be 49bc 25bd
000002e0: 68a3 98be 1fe7 64bd 4823 7c3d dbbd ab3b
000002f0: ec7e f3bd f82d febc 1037 27be 1c1b 053e
00000300: 6840 6b3e 8000 963d c3ce 86bd 2040 f6bc
00000310: f768 39be ae94 afbd e92c 973d 0b61 61be
00000320: cd6e 953d 8e28 743e b26b 1d3c 7c71 ae3d
00000330: 207d 38be b1d1 1ebe 772a 0c3d b6f8 613e
00000340: 0095 af3d 88b4 243d a927 02be 8e20 fb3c
00000350: 3f18 dabe 6487 8ebe dac5 cbbd db71 c83c
00000360: 1316 4dbe 863f 623d b819 99be 953a 643e
00000370: 48f9 e4bc d1a6 873e e7a8 19bc 23cc c33c
00000380: 0426 8f3d 7f80 69bd d1d6 833d 8029 95bd
00000390: 0354 cbbd 7004 66bd e64d 07bd 78bc d13d
000003a0: cc31 943d cdee cb3d 5883 e53d 74a0 db3d
000003b0: 0480 213e 4fff 4dbe 1503 ac3d 592c 78bd
000003c0: f4d9 853d 2b67 bf3d 3058 90bc b1d8 a63d
000003d0: ab35 b6bc 5f5d 97bd de9c bc3d 4d39 1dbd
000003e0: a046 c23d 829e 013e 1ee2 533c 1f75 07bd
000003f0: 4e68 7dbe 062b 85be 380d 53be 0e01 cabe
0.11830132 0.020554898 4.907286e-06 -0.19936115 -0.056506604 0.01101979 -0.1324811 0.18874852
0.12529835 -0.085455455 -0.038835794 -0.015999261 -0.091728665 0.17148775 0.063300274 -0.098101094
0.022524813 0.14667366 0.19223632 0.16403095 0.1476086 0.0074107433 -0.11436646 -0.18379897
-0.3217046 -0.046563465 -0.051206045 0.029338542 -0.26647148 -0.19697775 -0.027411435 -0.17581613
0.016500665 0.10127648 0.14890699 -0.10816333 -0.0073403106 -0.28150523 -0.2354024 -0.43117148
0.39957786 0.06845614 -0.07414507 -0.2938445 -0.0028867896 0.06507022 0.06198432 -0.13932873
0.13015768 -0.006804159 0.076679274 -0.08569031 -0.2485416 0.013269394 -0.044741243 -0.08756331
-0.27295086 0.22367287 -0.059026644 0.10307174 0.11899422 0.0077327956 0.1353876 -0.41724816
0.33346644 -0.081815936 -0.26931447 0.023489123 0.025038194 -0.014699744 -0.08673489 -0.20570934
0.045219824 -0.0645132 0.021621099 0.011917299 -0.2785747 0.038098816 0.12127948 0.16814885
0.034302883 0.18418396 0.06958013 0.21704242 -0.4821498 0.018995335 -0.0879837 -0.27551237
0.17953867 -0.033733044 0.24946973 0.18096973 0.14185227 -0.097198375 0.005666057 -0.16060619
0.035584792 0.0829975 0.0076858643 0.07481135 0.1770441 -0.025401875 -0.2898698 -0.2603009
-0.12845218 -0.061231133 -0.06294873 0.36977264 0.19543137 0.037267923 0.2157667 -0.22803968
0.09956975 0.10319673 0.20990479 0.067323625 0.027097085 -0.25528568 -0.036137544 0.044231895
-0.15068871 -0.20371036 0.15496796 -0.417854 -0.21317926 0.3413128 0.056494012 0.05401054
0.28477392 -0.052276853 0.012900316 0.28952286 0.15381464 -0.16194937 0.046241958 0.09070593
0.020280696 0.040507972 0.26017064 0.22167079 -0.060069848 -0.26299185 0.05316289 -0.22117831
0.034383167 -0.13969429 -0.0016244032 -0.28800097 -0.15236707 -0.12550373 0.1904055 0.13884155
-0.25308096 -0.16143951 -0.18387759 0.09868902 -0.017145729 -0.28334957 0.016364396 0.23727304
-0.07332455 0.24531426 -0.073665746 -0.22793815 -0.04426522 -0.050873403 -0.17057909 -0.058883883
0.053265497 -0.024776608 0.3567487 -0.17642367 -0.28325784 -0.28769436 0.026069585 0.08125468
-0.018241122 -0.21803957 -0.021866782 0.09470517 -0.04263412 0.32279927 -0.256867 -0.040462766
-0.2981217 -0.055884477 0.061557084 0.0052411384 -0.11889443 -0.031027779 -0.16329598 0.12998623
0.22973788 0.07324314 -0.065824054 -0.030059874 -0.18106447 -0.0857328 0.07381613 -0.22009675
0.07296524 0.23843595 0.009608196 0.08517739 -0.18016481 -0.15509678 0.034220185 0.22067532
0.08573341 0.04021123 -0.12710442 0.030655172 -0.42596623 -0.2783767 -0.099498466 0.024468353
-0.20027952 0.055236362 -0.29902434 0.22287972 -0.027950898 0.26494458 -0.009378648 0.02390105
0.06989673 -0.05700731 0.06437457 -0.07283306 -0.09928133 -0.056156576 -0.033033274 0.10241026
0.072360605 0.09957657 0.112066925 0.107239634 0.1577149 -0.20116924 0.08399025 -0.06058917
0.06535712 0.093458496 -0.017620176 0.08146799 -0.022242388 -0.07390856 0.092096075 -0.038384724
0.09486127 0.12658122 0.0129323285 -0.03307068 -0.2474682 -0.26009387 -0.20610511 -0.3945393

network_body._body_endoder.seq_layers.2.bias f4 [127]
00000000: 0000 0000 0000 0000 0000 0000 0000 0000
00000010: 0000 0000 0000 0000 0000 0000 0000 0000
00000020: 0000 0000 0000 0000 0000 0000 0000 0000
00000030: 0000 0000 0000 0000 0000 0000 0000 0000
00000040: 0000 0000 0000 0000 0000 0000 0000 0000
00000050: 0000 0000 0000 0000 0000 0000 0000 0000
00000060: 0000 0000 0000 0000 0000 0000 0000 0000
00000070: 0000 0000 0000 0000 0000 0000 0000 0000
00000080: 0000 0000 0000 0000 0000 0000 0000 0000
00000090: 0000 0000 0000 0000 0000 0000 0000 0000
000000a0: 0000 0000 0000 0000 0000 0000 0000 0000
000000b0: 0000 0000 0000 0000 0000 0000 0000 0000
000000c0: 0000 0000 0000 0000 0000 0000 0000 0000
000000d0: 0000 0000 0000 0000 0000 0000 0000 0000
000000e0: 0000 0000 0000 0000 0000 0000 0000 0000
000000f0: 0000 0000 0000 0000 0000 0000 0000 0000
00000100: 0000 0000 0000 0000 0000 0000 0000 0000
00000110: 0000 0000 0000 0000 0000 0000 0000 0000
00000120: 0000 0000 0000 0000 0000 0000 0000 0000
00000130: 0000 0000 0000 0000 0000 0000 0000 0000
00000140: 0000 0000 0000 0000 0000 0000 0000 0000
00000150: 0000 0000 0000 0000 0000 0000 0000 0000
00000160: 0000 0000 0000 0000 0000 0000 0000 0000
00000170: 0000 0000 0000 0000 0000 0000 0000 0000
00000180: 0000 0000 0000 0000 0000 0000 0000 0000
00000190: 0000 0000 0000 0000 0000 0000 0000 0000
000001a0: 0000 0000 0000 0000 0000 0000 0000 0000
000001b0: 0000 0000 0000 0000 0000 0000 0000 0000
000001c0: 0000 0000 0000 0000 0000 0000 0000 0000
000001d0: 0000 0000 0000 0000 0000 0000 0000 0000
000001e0: 0000 0000 0000 0000 0000 0000 0000 0000
000001f0: 0000 0000 0000 0000 0000 0000
0.0 0.0 0.0 0.0 0.0 0.0 0.0 0.0
0.0 0.0 0.0 0.0 0.0 0.0 0.0 0.0
0.0 0.0 0.0 0.0 0.0 0.0 0.0 0.0
0.0 0.0 0.0 0.0 0.0 0.0 0.0 0.0
0.0 0.0 0.0 0.0 0.0 0.0 0.0 0.0
0.0 0.0 0.0 0.0 0.0 0.0 0.0 0.0
0.0 0.0 0.0 0.0 0.0 0.0 0.0 0.0
0.0 0.0 0.0 0.0 0.0 0.0 0.0 0.0
0.0 0.0 0.0 0.0 0.0 0.0 0.0 0.0
0.0 0.0 0.0 0.0 0.0 0.0 0.0 0.0
0.0 0.0 0.0 0.0 0.0 0.0 0.0 0.0
0.0 0.0 0.0 0.0 0.0 0.0 0.0 0.0
0.0 0.0 0.0 0.0 0.0 0.0 0.0 0.0
0.0 0.0 0.0 0.0 0.0 0.0 0.0 0.0
0.0 0.0 0.0 0.0 0.0 0.0 0.0 0.0
0.0 0.0 0.0 0.0 0.0 0.0 0.0

network_body._body_endoder.seq_layers.2.weight f4 [127, 127]
00000000: e93d 893d cbe0 1d3e 2063 8a3c bd72 d73d
00000010: 28b9 34be 3717 9d3c b983 a83d 377d 16be
00000020: f259 213e 399a f8bc 3156 cf3c 667d 9d3d
00000030: e25a ca3c 7011 0c3e f4c4 c4bc f315 65be
00000040: 5174 233e a0c5 b6bb 0316 a7bd 60dd 0c3e
00000050: a39e 66bd 7923 bdbd 702c 3e3d a727 c8bd
00000060: 5b98 fbbd 033d 9d3d 4912 36bc 055a c1bc
00000070: a676 4d3d 4a29 bf3b fe65 00be 7423 8f3d
00000080: 60fc 163d f305 8cbd 201a 083e 96a6 953d
00000090: 57ce 073e 5e85 7dbc 1df7 26be 112a 393e
000000a0: a1f9 363d 083d c8bd f77d 88bd d576 083d
000000b0: 3e9e cfbc ab12 a6bd b751 243d 01d9 613d
000000c0: a32e 063d 77d2 4abd d179 d93d 6138 1a3e
000000d0: 4f08 95bb 886a eebd fda3 92bc 7249 dcbd
000000e0: b76f 9fbd 419c 74ba 3fbb 5e3d 885a 863d
000000f0: 3d79 033d 2de3 e1bd 37bd b9bd 2ee0 6d3d
00000100: 4850 02bd e67e a83d 39ab 683e 2d7e 57bc
00000110: ecfd 14be 7390 3bbd 8f55 6f3d e075 84bd
00000120: 87a2 ff3a 3ec2 383d 7329 22bd d652 89bd
00000130: a2c9 bf3d a05d 7d3c 183c d03d c86d a83c
00000140: 437f d6bb aeb6 d13c 5480 e1bd 96ab 2b3e
00000150: 6692 2e3d 8aa5 2b3d 51cf 463d 223f ab3d
00000160: 3eb8 b03c 8034 9ebc e930 96bd b770 24bc
00000170: c9c7 2c3a bceb 213d 84a2 003e 4db8 c3bd
00000180: 64ef 6fbd 45fb 573e 5c42 df3c 81d1 94ba
00000190: 3dc4 28be 3682 eebd 89a3 dc3c f255 07be
000001a0: 7f88 af3d 366e f0bb 5832 c33d a515 54bd
000001b0: efd5 9b3d 7975 b53d 5317 09bd 3aa1 89bd
000001c0: 92d3 80bd e1ae d63d 966f 8d3d 5a34 c33b
000001d0: 29d4 e3bc 7686 40bc fff3 433c be20 2d3d
000001e0: 3318 43bd a987 aebc e470 a5bc fd1b 1e3d
000001f0: 0855 853d b7ee e33d a10b 06bd d85f 113d
00000200: be5a c8bc d764 1d3e 9ced 4b3c 6d68 e1bc
00000210: 0a3a 973d 9f72 043e 83c0 3f3d e001 5ebd
00000220: ce44 153e a3f0 86bd 94db 8dbd f0c7 193e
00000230: 04e1 68bd debf 01be f9ba 14bd 801b 77bd
00000240: 1d2f dabd e87a a83c 4b5a d0bc c4a5 84bb
00000250: e7c5 73bd 554a 713c 8467 31bb 6175 c2b9
00000260: bdbd 39bd 606a 9abd 5e44 3b3e f33a 88bd
00000270: a129 b5bd e67b 2bbd 303e 293d 5ae7 243d
00000280: 2094 bf3d 1f1b 823d 3ec8 223d bfe5 02bd
00000290: 4f71 ef3c 2b5b 153e 5365 19be 6cc8 ce3d
000002a0: 26f7 d03d ec7c 4fbd 4398 edbc a59e 92bd
000002b0: 7a7c ebbd 819f baba 2d71 4d3d cb53 5c3d
000002c0: d6a2 583d a675 5d3e d0d1 e7bd 1c47 e8bd
000002d0: ca5b 5b3c f3e9 963d e1cc b4bd 39cf d93c
000002e0: e8f1 86bd b8df 423d 772f febd ac04 34bd
000002f0: eeab afbd 80b1 af3d 37b1 bdbd 0443 953d
00000300: 4e2a 04bd acf4 b7bc 4e1a 063d 49eb ac3d
00000310: 860f 2fbd 3567 5fbd c877 713d 7190 a7bd
00000320: f988 b83d 1ca2 1b3c dbbc e33c a2f7 8ebd
00000330: 228e 1ebd 6b36 07bd 95b5 843d 239e f1bd
00000340: b8c7 94bc a980 40bd 6711 193e fc8b 07be
00000350: 5f05 27bd e0aa c2ba bda9 ef3b d8a7 b6bd
00000360: 2a68 633d 5e2f a6bd 4000 fd3c a934 283d
00000370: 3521 b8bc 4e0d 22bd fee8 12be 6389 3b3d
00000380: cc71 2cbe 211e 483c a99f 133d 90de 17be
00000390: 5a93 0ebd 1c09 203d 220d d73b af2d d5bd
000003a0: 1118 acbc 9951 46be 1651 4fbc 2ef0 a2bb
000003b0: ab91 263e a17c 383e 0dcd ad3d d782 a13d
000003c0: ccc3 01be ff14 e63d 9d12 a93d d99d 573d
000003d0: afa7 0abc 2907 18be 130a 4f3d c54c 473d
000003e0: 369b 00bd 5c8b b1ba 9159 213d 5467 98bd
000003f0: ffcb e73c 672b fabd 8559 b4ba a863 cf3d
0.067012616 0.15417783 0.01689297 0.105199315 -0.17648757 0.019176109 0.08228249 -0.14696203
0.15756968 -0.030346977 0.025309654 0.076899335 0.02470154 0.13678527 -0.024019696 -0.22371654
0.1596234 -0.005577758 -0.08158495 0.13756323 -0.05630363 -0.092352815 0.046429098 -0.09773188
-0.12284919 0.07677653 -0.011112758 -0.023602495 0.05016198 0.0058337795 -0.12538907 0.06989184
0.036861777 -0.06837072 0.13291216 0.07307164 0.13262306 -0.015473692 -0.16305204 0.18082453
0.04467166 -0.09777266 -0.06664651 0.033316452 -0.02534401 -0.081090294 0.04011699 0.05513859
0.03275932 -0.04951712 0.10618938 0.1506057 -0.0045481096 -0.11641413 -0.017900461 -0.10756196
-0.0778498 -0.0009331145 0.05437779 0.06560236 0.032098044 -0.110296585 -0.09069293 0.058075123
-0.031814843 0.08227329 0.22721566 -0.013152641 -0.14549989 -0.045792054 0.058431204 -0.06467795
0.0019503393 0.04510712 -0.03959031 -0.06705253 0.0936463 0.0154642165 0.10167712 0.02056016
-0.0065459325 0.025599804 -0.11010805 0.16764674 0.042620085 0.041905917 0.048537556 0.08361651
0.021572229 -0.019312143 -0.073335476 -0.010036639 0.00065910496 0.039531454 0.12561995 -0.09556637
-0.05857791 0.21091945 0.027253322 -0.0011353941 -0.16481109 -0.116459295 0.026933448 -0.1321638
0.085709564 -0.007337357 0.09531087 -0.051778454 0.07609164 0.08860297 -0.03346951 -0.06720205
-0.06290354 0.10482574 0.06906049 0.0059571685 -0.027811127 -0.011750808 0.011960029 0.042267554
-0.0476305 -0.021304922 -0.020195432 0.03860091 0.06510359 0.111295156 -0.032725934 0.035491794
-0.024457332 0.15370499 0.012446787 -0.027515614 0.07384117 0.1293435 0.046814453 -0.054201007
0.14577028 -0.065888666 -0.06926647 0.15017676 -0.056855217 -0.12670848 -0.036311124 -0.06032896
-0.106535174 0.020566419 -0.02543368 -0.004048081 -0.059514906 0.014727195 -0.0027069757 -0.00037090018
-0.045346964 -0.07539821 0.18287799 -0.06651869 -0.08845831 -0.041866206 0.041319072 0.040259697
0.093544245 0.06352829 0.039741747 -0.031957384 0.029228834 0.14585559 -0.14980058 0.10096821
0.1020339 -0.050656244 -0.029003268 -0.07159165 -0.114983514 -0.001423821 0.05015676 0.05379085
0.052889667 0.2162691 -0.113193154 -0.11341688 0.013388583 0.07368841 -0.0882814 0.02658807
-0.06589109 0.047576636 -0.12411397 -0.043949768 -0.08577715 0.08578777 -0.09262317 0.07288173
-0.032266907 -0.022455536 0.03273993 0.084433146 -0.042739414 -0.054541785 0.058952123 -0.08181847
0.090105005 0.009499099 0.027800014 -0.06980826 -0.038709767 -0.03301088 0.064799465 -0.1179774
-0.01816164 -0.0469977 0.14948045 -0.13236994 -0.040776607 -0.001485195 0.0073139356 -0.089187324
0.05551926 -0.08114503 0.030883908 0.041065846 -0.022476772 -0.03956347 -0.14346692 0.04578532
-0.16840285 0.012214215 0.036040936 -0.14830995 -0.034808494 0.039071187 0.006562845 -0.10409104
-0.02100757 -0.19367065 -0.01265361 -0.0049724793 0.16266505 0.18016292 0.08486376 0.07886284
-0.12672347 0.112344734 0.08255503 0.05264077 -0.00846283 -0.14846481 0.050546717 0.048657198
-0.03139802 -0.0013545561 0.039392058 -0.07441583 0.028295515 -0.122153096 -0.0013759589 0.1012643

network_body.observation_encoder.processors.0.normalizer.running_mean f4 [33]
00000000: 0000 0000 bba8 7f3f bba8 7f3f 0000 0000
00000010: bba8 7f3f bba8 7f3f 0000 0000 bba8 7f3f
00000020: bba8 7f3f 0000 0000 bba8 7f3f bba8 7f3f
00000030: 0000 0000 bba8 7f3f bba8 7f3f 0000 0000
00000040: bba8 7f3f bba8 7f3f 0000 0000 bba8 7f3f
00000050: bba8 7f3f 0000 0000 bba8 7f3f bba8 7f3f
00000060: 0000 0000 bba8 7f3f bba8 7f3f 0000 0000
00000070: bba8 7f3f bba8 7f3f 0000 0000 bba8 7f3f
00000080: bba8 7f3f
0.0 0.9986684 0.9986684 0.0 0.9986684 0.9986684 0.0 0.9986684
0.9986684 0.0 0.9986684 0.9986684 0.0 0.9986684 0.9986684 0.0
0.9986684 0.9986684 0.0 0.9986684 0.9986684 0.0 0.9986684 0.9986684
0.0 0.9986684 0.9986684 0.0 0.9986684 0.9986684 0.0 0.9986684
0.9986684

network_body.observation_encoder.processors.1.normalizer.running_mean f4 [6]
00000000: 9399 003f 2b4b bebe 0065 473f ce14 1043
00000010: 76b6 313f 2d8f 2745
0.50234336 -0.37166724 0.7788849 144.08127 0.6941904 2680.9485
