Assets/results/CubeAgent8/AutoAgent/AutoAgent-4497.onnx (onnx, 89226 bytes, 11 tensors)

60 f4 [33]
0	0x3c744ae4	0.014910433
1	0x3cacbb8b	0.021085521
2	0x3cacbb8b	0.021085521
3	0x3c744ae4	0.014910433
4	0x3cacbb8b	0.021085521
5	0x3cacbb8b	0.021085521
6	0x3c744ae4	0.014910433
7	0x3cacbb8b	0.021085521
8	0x3cacbb8b	0.021085521
9	0x3c744ae4	0.014910433
10	0x3cacbb8b	0.021085521
11	0x3cacbb8b	0.021085521
12	0x3c744ae4	0.014910433
13	0x3cacbb8b	0.021085521
14	0x3cacbb8b	0.021085521
15	0x3c744ae4	0.014910433
16	0x3cacbb8b	0.021085521
17	0x3cacbb8b	0.021085521
18	0x3c744ae4	0.014910433
19	0x3cacbb8b	0.021085521
20	0x3cacbb8b	0.021085521
21	0x3c744ae4	0.014910433
22	0x3cacbb8b	0.021085521
23	0x3cacbb8b	0.021085521
24	0x3c744ae4	0.014910433
25	0x3cacbb8b	0.021085521
26	0x3cacbb8b	0.021085521
27	0x3c744ae4	0.014910433
28	0x3cacbb8b	0.021085521
29	0x3cacbb8b	0.021085521
30	0x3c744ae4	0.014910433
31	0x3cacbb8b	0.021085521
32	0x3cacbb8b	0.021085521

63 f4 [6]
0	0x3c8aeb32	0.016957853
1	0x3c744b04	0.014910463
2	0x3c9f8d1a	0.019476462
3	0x3fff7c1d	1.9959751
4	0x3c94d5f0	0.01816842
5	0x3c8ec0b2	0.017425869

action_model._continuous_distribution.log_sigma f4 [1, 2]
0	0x3c8532d9	0.016259598
1	0xbd0788fd	-0.033089627

action_model._continuous_distribution.mu.bias f4 [2]
0	0x3cee0936	0.029057126
1	0xbbd081c5	-0.006363126

action_model._continuous_distribution.mu.weight f4 [2, 127]
0	0x3cc0c3bd	0.023530835
1	0xbcc76780	-0.024341345
2	0x3c171efe	0.009223698
3	0x3d0cd136	0.034379207
4	0x3d6400a3	0.05566467
5	0x3ba48925	0.0050212317
6	0xbcd6ef52	-0.026237164
7	0x3ca5ec93	0.020254409
8	0xbd812d63	-0.06307485
9	0xbbc8162d	-0.006106159
10	0x3af44040	0.0018634871
11	0xbc153794	-0.009107489
12	0x3d4536be	0.04814791
13	0x3d469af5	0.048487622
14	0xbd927704	-0.07151607
15	0xbcc4749c	-0.023981385
16	0xbcf0cc6d	-0.029394353
17	0xbcf00cbb	-0.029302945
18	0x3d42ccdf	0.04755866
19	0x3ba227cf	0.004948593
20	0x3cf0cb04	0.02939368
21	0x3d22fd73	0.03979249
22	0xbcd1ec35	-0.025625328
23	0xbd4227dc	-0.047401294
24	0x3c825fa2	0.015914742
25	0xbd693dda	-0.056943752
26	0xbbe0c86b	-0.006859829
27	0xbcc367c2	-0.023853187
28	0x3cdad6ee	0.026713815
29	0x3d0868b5	0.03330298
30	0xbd03d072	-0.03218121
31	0x3bd33477	0.0064454633
32	0xbb9dba78	-0.0048134886
33	0x3b957ddf	0.004562124
34	0x3d27c27e	0.040956967
35	0x3842bde6	4.643006e-05
36	0xbca247f4	-0.0198097
37	0x3c8ee4b4	0.017443039
38	0x3d294bb5	0.041331965
39	0xbd368e11	-0.04456908
40	0x3bb842ec	0.005623212
41	0xbcce7293	-0.025201118
42	0x3d034166	0.03204479
43	0xbbc59144	-0.00602928
44	0x3c3e5962	0.01161799
45	0x3c1c039f	0.009522348
46	0xbce07f8d	-0.027404571
47	0x3d3e7c91	0.046505515
48	0x3c14de40	0.009086192
49	0xbcd40ea1	-0.025885882
50	0x3be158b7	0.0068770307
51	0xbd72d3cd	-0.05928402
52	0x3c95b148	0.01827301
53	0x3d70b47d	0.058765877
54	0x3be3d340	0.006952673
55	0xbca8bdd9	-0.020598339
56	0xbcc5c1de	-0.024140295
57	0x3c176e96	0.009242674
58	0xbc845492	-0.016153608
59	0x3c15e38c	0.00914849
60	0x3c98d523	0.018656319
61	0x3c33bf21	0.010970862
62	0x3d77bb38	0.06048128
63	0xba93eb91	-0.0011285414
64	0xbba90d5c	-0.0051590633
65	0xbbe238fa	-0.006903765
66	0xbc2a6465	-0.0103999125
67	0x3c4b3636	0.012403062
68	0x37834664	1.5649195e-05
69	0x3cc40800	0.023929596
70	0xbcd6a9ab	-0.02620395
71	0xbcd47b96	-0.025937837
72	0x3b9ecda6	0.0048462925
73	0xbbb1199d	-0.0054046647
74	0xbbe52ad5	-0.0069936314
75	0xbd2bb3f1	-0.041919652
76	0x3cd74cf8	0.026281819
77	0xbd03dac0	-0.032191038
78	0xbb050f0f	-0.0020303165
79	0x3c8a1dea	0.016859967
80	0xbb1988b9	-0.002342744
81	0xbd27ccae	-0.040966682
82	0x3bbab1bd	0.0056974576
83	0x3bd65d83	0.006541909
84	0x3c42b75d	0.0118845375
85	0xbcd9ae27	-0.0265723
86	0x3a6d0049	0.0009040875
87	0x3d900656	0.070324585
88	0x3c8e48d9	0.01736872
89	0x3cc0bd62	0.023527805
90	0x3d2967d2	0.041358776
91	0x3cce83d9	0.025209354
92	0x3d072b56	0.033000313
93	0xbccb8fc7	-0.024848832
94	0xbb8a96e9	-0.0042294157
95	0x3c961475	0.018320302
96	0xbce1aa42	-0.027547006
97	0x3c38f517	0.011288903
98	0xbc00d2f6	-0.007862797
99	0xbceec3ec	-0.029146157
100	0xbc1ebfad	-0.009689254
101	0xbd28e265	-0.04123153
102	0x3d5b48c9	0.05353621
103	0xbd313964	-0.043267623
104	0x3b89b721	0.004202739
105	0xbbf3bcd1	-0.00743828
106	0x3d0f254b	0.034947675
107	0xbc6f2859	-0.014597022
108	0xbc8d48ac	-0.017246567
109	0xbc451fa2	-0.012031468
110	0xbb801f67	-0.0039099935
111	0xbb8d5ca2	-0.004314021
112	0x39b02147	0.0003359413
113	0xbd185f5c	-0.037200317
114	0xbc132905	-0.008981948
115	0xbd0b2036	-0.033966266
116	0xbd0c5710	-0.034262717
117	0xbd152f2e	-0.036421947
118	0xbc8f5cb2	-0.017500255
119	0x3c5bf8bb	0.013426001
120	0x3cd34973	0.02579186
121	0x3c02b180	0.00797689
122	0xbc99ac80	-0.018759012
123	0xbd03290c	-0.032021567
124	0x3c353ff9	0.011062616
125	0xbb6a66da	-0.003576687
126	0x3cc58407	0.024110807
127	0x3ca06d0e	0.019583251
128	0x3ca991e8	0.020699456
129	0xbc85ca10	-0.016331702
130	0xbd0027ff	-0.031288143
131	0xbc92904f	-0.017891077
132	0xbbf03315	-0.007330308
133	0x3c8ef384	0.017450102
134	0xbd12fd6b	-0.03588621
135	0x3cd7b683	0.026332146
136	0x3bcafd34	0.006194735
137	0x3d22f247	0.039781835
138	0x3c9da72e	0.019244757
139	0xbc7b9919	-0.015356326
140	0x3bfd29a5	0.0077259117
141	0x3ccd7116	0.025078338
142	0x3ca816a8	0.020518616
143	0x3c60fe65	0.013732527
144	0x3c96f483	0.01842714
145	0xbc8b81f3	-0.017029738
146	0xbb346c02	-0.0027530198
147	0x3c5a8c93	0.01333918
148	0x3cc93c4f	0.02456489
149	0x3c18e1fb	0.009331222
150	0x3c314f9b	0.010822202
151	0xbb240db9	-0.0025032593
152	0x3cbd27df	0.023090301
153	0x3c0c54e3	0.00856516
154	0x3c05eabd	0.008173642
155	0xbd92ffcd	-0.071776964
156	0xbc88bcbf	-0.016691564
157	0x3cd4c343	0.025972014
158	0x3bd6fed0	0.0065611377
159	0xbc210cab	-0.00982968
160	0x3cbb83cc	0.022889994
161	0xbca99932	-0.020702932
162	0x3ca944cf	0.020662693
163	0x3cd3670b	0.02580597
164	0x3bc5ecf5	0.0060402104
165	0xbc6a84e6	-0.014313912
166	0x3bb46fb0	0.0055064783
167	0xbd053de8	-0.03252974
168	0x3ca5a860	0.020221889
169	0xbcbbabee	-0.02290913
170	0xbc38633b	-0.011254127
171	0xbc60f5bf	-0.013730465
172	0x3ae63652	0.0017563796
173	0x3cac8572	0.021059725
174	0xbcf7cdc7	-0.03024949
175	0xbc4b0563	-0.012391421
176	0x3c89b625	0.016810486
177	0xbbae4c09	-0.0053191227
178	0x3c6ac35f	0.014328807
179	0x3b8dc136	0.004326011
180	0xbcb8bd40	-0.022551179
181	0xbc983634	-0.018580534
182	0x3cab7fa7	0.020934893
183	0x3d2419c8	0.04006365
184	0xbc561ccf	-0.013068392
185	0x3c887ed0	0.016662031
186	0x3aea3781	0.0017869325
187	0xbc6ea315	-0.014565249
188	0xbcf89e7e	-0.030349012
189	0xbbf08033	-0.0073395013
190	0xbc8e5072	-0.017372344
191	0x3c11e92e	0.008905692
192	0x3bd082c9	0.006363247
193	0x3d5c98aa	0.05385653
194	0x3b21a470	0.0024664663
195	0xbcb02e72	-0.021506522
196	0xbb60efa4	-0.0034322524
197	0x3cca552e	0.02469882
198	0x3cf9249e	0.030412968
199	0x3c8920d3	0.016739285
200	0x3c60b46c	0.013714891
201	0x3c5f8c06	0.013644224
202	0x3ba029a7	0.004887778
203	0xbbb7fae7	-0.0056146267
204	0x3c587eef	0.013213857
205	0x3b8ad5f5	0.0042369314
206	0xbcc788ef	-0.024357287
207	0x3cb6e98e	0.022328164
208	0x3d1cb906	0.03826239
209	0x3caa39cb	0.020779511
210	0x3b8047f2	0.0039148265
211	0x3c02eef3	0.00799154
212	0x3cd85fa4	0.026412793
213	0xbca81020	-0.020515501
214	0xbcc58704	-0.024112232
215	0x3b892c51	0.004186191
216	0xbd3881ea	-0.04504577
217	0xbcdeff7d	-0.027221436
218	0x3c477a53	0.01217516
219	0xbcb805f6	-0.02246378
220	0x3cf06442	0.029344682
221	0x3cfce6d6	0.03087179
222	0xbc98d160	-0.018654525
223	0x3bc7b91e	0.0060950657
224	0x3b162244	0.0022908607
225	0x3c81d960	0.015850723
226	0x3cb7a1f3	0.02241609
227	0x3cf81a05	0.030285845
228	0x3d0f8036	0.03503438
229	0xbc0776fc	-0.008268114
230	0x3bc2a1cc	0.005939698
231	0xbbd19082	-0.0063954005
232	0x3c8910ce	0.016731646
233	0xb90f9b4b	-0.00013695394
234	0x3d122ab3	0.035685252
235	0xbc427f4c	-0.01187117
236	0x3d2948c7	0.04132917
237	0xbb1bfff7	-0.002380369
238	0x3a7ea9dd	0.00097146427
239	0xbcda785f	-0.026668726
240	0x3c1b7d47	0.009490318
241	0x3c46ae2c	0.012126487
242	0x3d69a435	0.057041366
243	0xbb26ad4e	-0.0025432887
244	0x3d089fe2	0.0333556
245	0x3c91adeb	0.017783126
246	0xbba7ecbe	-0.0051246574
247	0x3b964bc8	0.0045866705
248	0x3c2f1962	0.010687204
249	0x3c52cc44	0.0128660835
250	0x3cd1e849	0.025623458
251	0x3bbb53d0	0.0057167783
252	0x3d02d5c8	0.03194216
253	0x3ae2ca2c	0.0017302684

network_body._body_endoder.seq_layers.0.bias f4 [127]
0	0xbc84540c	-0.016153358
1	0xbcf2a066	-0.0296175
2	0x3cda0f59	0.026618646
3	0x3aca399e	0.0015428548
4	0x3c2de33a	0.010613257
5	0x3cc98a82	0.024602178
6	0x3cc2bb0d	0.023770833
7	0xbc39e3dc	-0.01134583
8	0x3a0e8d14	0.00054378924
9	0xbce37f3d	-0.027770633
10	0x3ac3e2d1	0.0014944916
11	0x3c8db1f3	0.017296767
12	0xbc0500d4	-0.008117873
13	0xbc1f3237	-0.009716562
14	0x3c680839	0.014162117
15	0xbc6f67c2	-0.01461214
16	0x3b83287b	0.0040026284
17	0xbb44e80d	-0.003004554
18	0x3ce7f933	0.02831707
19	0x3c8df4ef	0.017328708
20	0x3c41bf4a	0.011825392
21	0xbcd2c2fb	-0.02572774
22	0x3b88c4ae	0.0041738367
23	0x3ca163b5	0.019700864
24	0x3c0ed83b	0.008718546
25	0xbcd83012	-0.02639011
26	0xbca68710	-0.020328075
27	0xbbb1b81c	-0.005423559
28	0x3c3093ce	0.010777427
29	0xbc8bfbd5	-0.017087856
30	0xbceea3d8	-0.029130861
31	0xbc418943	-0.011812511
32	0x3cfbe6ba	0.030749667
33	0x3bb085f5	0.0053870627
34	0xbca6f97f	-0.02038264
35	0x3c912f74	0.017722823
36	0xbc5ab297	-0.013348243
37	0x3c85a420	0.016313612
38	0x3c07bdfa	0.00828504
39	0xbc44ac1c	-0.012003925
40	0xbc8f57b5	-0.017497877
41	0xbca480c8	-0.020080939
42	0x3bb518a6	0.00552662
43	0x3d02a48b	0.0318952
44	0x3c9929b6	0.018696647
45	0x3cb3d3e9	0.021951633
46	0xbc1dfdbb	-0.009643014
47	0xbc45d45a	-0.012074554
48	0x3af6eb32	0.0018838404
49	0x3c8159c0	0.015789866
50	0x38f66b9f	0.0001175024
51	0x3cca6647	0.024706973
52	0x3bb2e1ee	0.005459062
53	0xbcb3239e	-0.02186757
54	0x3c677782	0.014127614
55	0xbca76a7a	-0.020436514
56	0xbb2150d2	-0.0024614823
57	0x3c854af4	0.016271092
58	0xbc409a81	-0.011755587
59	0x3bfd1f3e	0.0077246716
60	0xba857c5b	-0.0010184156
61	0xbca8d8c1	-0.020611169
62	0xbc119f82	-0.008888127
63	0xbcce480c	-0.025180839
64	0x3c9e69f5	0.019337634
65	0xbbee6273	-0.0072749197
66	0x3c87902a	0.016548235
67	0x3c00293e	0.007822333
68	0x3cb5d908	0.022198215
69	0xbcadc050	-0.021209866
70	0xbc5294ed	-0.0128528895
71	0x3c6e1179	0.014530533
72	0xbc1dc0b3	-0.009628463
73	0xbc46c04a	-0.012130806
74	0x3c8e83d4	0.017396845
75	0x3c8a3340	0.016870141
76	0xbc8c3487	-0.01711489
77	0x3bebf8e6	0.007201302
78	0xba40167b	-0.00073275686
79	0xbd02312b	-0.03178517
80	0xbc11e038	-0.008903556
81	0xbc24f63d	-0.010068473
82	0xbcccd7d6	-0.025005262
83	0x3ca5863b	0.020205608
84	0xbc9fa823	-0.019489354
85	0xbc245c3a	-0.010031754
86	0x3c83d814	0.016094245
87	0xbc18aced	-0.0093185725
88	0x3c605ce9	0.0136940265
89	0xbc228369	-0.009919026
90	0x3cd13304	0.025537021
91	0x3a94c24f	0.0011349412
92	0x3d07d153	0.03315861
93	0x3cb55384	0.02213455
94	0x3cac3ae0	0.021024168
95	0x3cc100b1	0.0235599
96	0x3b3d0203	0.002884031
97	0xbbb7f34f	-0.0056137214
98	0x3c8baf04	0.017051227
99	0x3ca164f3	0.019701457
100	0xbc28d4a4	-0.010304604
101	0x3c93b8af	0.0180324
102	0xbc2d4698	-0.010575913
103	0x3c7bc839	0.015367561
104	0x3cb31cc2	0.021864299
105	0xbc709ec1	-0.014686287
106	0x3ca92e4b	0.020651957
107	0x3c99aef5	0.018760184
108	0x3ca5c7e4	0.020236917
109	0x3c034c2f	0.008013769
110	0x3c865fff	0.016403196
111	0xbbf24a5e	-0.007394119
112	0xbcb2a7ac	-0.021808468
113	0xbc874f7c	-0.016517393
114	0x3cbed4c8	0.023294821
115	0xbc7dcd27	-0.015490807
116	0x3cd394cf	0.025827793
117	0x3ccea665	0.025225827
118	0x3c86e698	0.016467378
119	0xbb391dbc	-0.0028246483
120	0xbcc62c3e	-0.024191018
121	0x3caf5667	0.021403505
122	0xbcc77e7c	-0.024352305
123	0x3bab66a5	0.005230742
124	0xba00dc78	-0.0004915665
125	0x3ba5ccfe	0.0050598374
126	0x3c516c92	0.012782233

network_body._body_endoder.seq_layers.0.weight f4 [127, 39]
0	0xbd903bb2	-0.07042636
1	0xbdb82cd4	-0.08992925
2	0x3e6beb29	0.23038925
3	0xbd3b3a30	-0.04570979
4	0x3e2dcf7a	0.16973677
5	0x3e3c207e	0.1837177
6	0xbdd3164c	-0.10306987
7	0xbe4802ca	-0.19532314
8	0xbe8825c8	-0.26591325
9	0x3e9f9d85	0.31174865
10	0x3dd31e39	0.10308499
11	0xbd4f33f6	-0.050586663
12	0xbe055bd0	-0.13023305
13	0xbe88e7fc	-0.2673949
14	0xbe78b6c6	-0.24288473
15	0x3e808022	0.25097758
16	0x3bd0719c	0.0063611995
17	0x3d3e6cbd	0.04649042
18	0xbb945224	-0.0045263935
19	0xbdfb5af4	-0.12273207
20	0xbd065089	-0.032791648
21	0xbbee1d7f	-0.0072667
22	0x3cd29d13	0.025709664
23	0x3e0298cc	0.127536
24	0x3df6b2d6	0.12045829
25	0x3e04dd8c	0.12975138
26	0xbe9ed450	-0.31021357
27	0xbe285001	-0.16436769
28	0x3e9be2cc	0.3044647
29	0xbda3100e	-0.079620466
30	0x3ec99350	0.39370203
31	0x3e890966	0.26764983
32	0x3bd5d94b	0.0065261475
33	0xbe42ab6b	-0.19010703
34	0xbe644d35	-0.22295077
35	0x3e3f3659	0.18673076
36	0xbe398c12	-0.18119839
37	0xbe1cd770	-0.15316558
38	0x3d4d596d	0.05013411
39	0x3e9f0ecb	0.31065974
40	0x3e198424	0.14991814
41	0x3dcdc04b	0.100464426
42	0x3e930837	0.28717205
43	0xbe7dbe74	-0.24779683
44	0x3c8ebcf3	0.017424082
45	0xbe7d4f79	-0.24737348
46	0xbdd7c26a	-0.105351284
47	0x3df3e3ab	0.119086586
48	0xbdd67022	-0.104706064
49	0x3e464bb8	0.19364822
50	0xbd467d8c	-0.048459575
51	0x3e579572	0.21053103
52	0xbbd7d467	-0.0065865996
53	0x3e7ee5e5	0.24892385
54	0xbe4f6eef	-0.20257162
55	0x3ba9d64d	0.0051830173
56	0xbe2d860f	-0.1694567
57	0x3d93e752	0.07221855
58	0x3e460760	0.19338751
59	0x3e19a10d	0.15002842
60	0x3e623868	0.2209183
61	0x3e269f5d	0.1627173
62	0xbdbb6937	-0.091509275
63	0xbbe4aceb	-0.0069786212
64	0x3deabcdf	0.114618056
65	0xbd3727ca	-0.04471568
66	0xbdd204d0	-0.10254824
67	0xbe4140e7	-0.18872415
68	0x3e4c0379	0.199232
69	0xbd66ea90	-0.05637604
70	0xbe3209be	-0.17386529
71	0x3a3ad2f2	0.000712677
72	0xbd0a0094	-0.033691958
73	0xbe00c381	-0.12574579
74	0x3d29815b	0.04138313
75	0xbe93ac4e	-0.28842396
76	0xbdfe7cf7	-0.12426179
77	0x3e4029a4	0.18765885
78	0x3dea31ea	0.114353016
79	0xbc9aaea7	-0.018882109
80	0xbda02f20	-0.078214884
81	0x3c387e2f	0.011260553
82	0xbd278d82	-0.040906437
83	0xbe010895	-0.1260093
84	0xbdf80778	-0.121107996
85	0x3e447516	0.1918529
86	0x3e8f6f64	0.28014672
87	0x3e363856	0.17794928
88	0xbdf9ad41	-0.12191249
89	0xbd76a690	-0.06021744
90	0xbdabdfa0	-0.083922625
91	0x3ea1d628	0.316087
92	0x3d86a9db	0.06575366
93	0xbe64bb92	-0.22337177
94	0xbe90145a	-0.28140527
95	0x3de964da	0.11396189
96	0xbd80c7d9	-0.06288118
97	0xbc9a8ab1	-0.018864961
98	0x3c97d5aa	0.0185345
99	0x3cdaf2d7	0.026727123
100	0x3d40a5a8	0.047032982
101	0x3d2fa9c0	0.042886496
102	0x3e19b536	0.15010533
103	0x3d8a28c4	0.06746057
104	0x3bf712c0	0.007540077
105	0xbe48b6d6	-0.19600996
106	0x3d486294	0.048922136
107	0xbd92c5d8	-0.07166642
108	0x3e0f4d2f	0.13994287
109	0x3e371efa	0.1788291
110	0x3ea58fe1	0.32336333
111	0x3dadd236	0.0848736
112	0xbe91ab77	-0.2845113
113	0x3d455bff	0.048183437
114	0x3d5544a2	0.052067406
115	0x3e3646d6	0.1780046
116	0xbbdaf336	-0.006681825
117	0x3e7d8ef9	0.24761571
118	0xbd875982	-0.06608869
119	0x3da1f36c	0.07907757
120	0xbbecaca4	-0.007222729
121	0xbd9cc14c	-0.07654056
122	0x3d149496	0.036274515
123	0xbe02f18c	-0.12787455
124	0xbcbf399e	-0.023342904
125	0xbba40ae2	-0.00500618
126	0xbd780e8b	-0.060560744
127	0x3e0ddc16	0.13853487
128	0xbe84607f	-0.2585487
129	0x3dbb1590	0.09134972
130	0xbdf3f326	-0.11911611
131	0xbe7d13e4	-0.24714619
132	0xbe7a3abb	-0.24436466
133	0x3c088af9	0.008333915
134	0xbeb52f1a	-0.35387498
135	0x3dedad1a	0.11605282
136	0xbd807c05	-0.06273655
137	0xbeeadd0a	-0.45871764
138	0x3e2e9256	0.1704801
139	0xbc5b4546	-0.013383215
140	0xbe2ff185	-0.17181976
141	0xbdffd601	-0.1249199
142	0x3d70efe7	0.05882254
143	0xbd8962bd	-0.06708286
144	0xbe04c7e8	-0.12966883
145	0x3d476356	0.04867872
146	0x3e81f3b2	0.25381237
147	0xbdaf3866	-0.08555679
148	0x3e6ee516	0.23329577
149	0xbeaa9fea	-0.3332513
150	0x3bd0df08	0.0063742436
151	0x3cccb83a	0.02499019
152	0xbdb63845	-0.08897451
153	0xbd8d43e9	-0.068977185
154	0x3db3cc69	0.087792225
155	0xbed87a29	-0.422807
156	0x3de6b82a	0.11265595
157	0x3e8da4fc	0.27664936
158	0x3d4d47a8	0.050117165
159	0x3dc50dc3	0.096217655
160	0x3d166162	0.036713965
161	0x3dc097bd	0.09403942
162	0xbddba0fb	-0.10724064
163	0x3c9a35ca	0.018824477
164	0xbd650cf0	-0.05592054
165	0xbe4131ea	-0.18866697
166	0x3e51e75d	0.20498414
167	0x3c8cac80	0.017172098
168	0xbe1e789d	-0.15475698
169	0x3d89abe7	0.06722241
170	0x3e26d178	0.16290843
171	0xbc014533	-0.007890034
172	0xbe4a9017	-0.19781528
173	0x3df8a589	0.12140948
174	0xbe12c7d0	-0.14334035
175	0x3d887c66	0.06664352
176	0x3e83e001	0.2575684
177	0x3e3a35c9	0.1818458
178	0x3e0d1873	0.13778858
179	0xbe4c2dd5	-0.19939359
180	0xbd537838	-0.05162832
181	0xbe5e8da8	-0.21733725
182	0xbe8b6fb3	-0.27233657
183	0x3dcb4cf8	0.0992679
184	0xbe63e431	-0.22255017
185	0xbe54dd51	-0.2078755
186	0x3d7cf306	0.061755203
187	0x3d2622cd	0.040560532
188	0xbd5a4e3a	-0.05329726
189	0xbca266a9	-0.019824343
190	0x3eef54e0	0.46744442
191	0x3d2da2a0	0.04239142
192	0x3dec48a6	0.11537294
193	0xbe81034a	-0.25197822
194	0xbe6c8885	-0.23098953
195	0x3e8af055	0.27136484
196	0xbca38364	-0.019960113
197	0xbea67083	-0.32507715
198	0xbea29b17	-0.3175895
199	0xbc39481d	-0.011308697
200	0xbd4ad68e	-0.04952102
201	0x3d7d344d	0.061817456
202	0xbd4a2f2c	-0.049361393
203	0x3da8297a	0.08211036
204	0xbd041273	-0.032244157
205	0x3d9e9c56	0.077446625
206	0x3e1a258b	0.15053384
207	0xbe1420ab	-0.14465587
208	0x3e295c5e	0.16539142
209	0x3e96a7c2	0.29424864
210	0x3e807018	0.2508552
211	0x3e208faf	0.15679811
212	0x3e961261	0.29310897
213	0x3e624584	0.2209683
214	0x3e94881e	0.290101
215	0xbe328315	-0.17432816
216	0x3dc34a4b	0.09535655
217	0xbe2a69ae	-0.16641876
218	0x3e010437	0.12599264
219	0x3dfe5674	0.124188334
220	0x3df6ca6a	0.12050326
221	0x3dca4609	0.098766394
222	0x3e385fec	0.18005341
223	0xbeae4114	-0.34034026
224	0xbaaf2ee0	-0.001336541
225	0xbcb24fe3	-0.021766609
226	0x3e35d7af	0.17758058
227	0x3d86bae9	0.06578619
228	0x3d4d9217	0.05018815
229	0x3e553df9	0.20824422
230	0x3c9d0042	0.019165162
231	0xbd159583	-0.03651954
232	0xbd120d40	-0.035657167
233	0xbe109498	-0.14119184
234	0x3eb529e3	0.3538352
235	0x3e7fd916	0.24985155
236	0xbdc4100b	-0.095733725
237	0x3eb1a862	0.34698778
238	0xbdddfe89	-0.10839564
239	0x3d1c69fb	0.03818701
240	0x3d88c07c	0.066773385
241	0x3e76da9c	0.2410683
242	0xbc1a23c2	-0.009407939
243	0xbe496862	-0.19668725
244	0x3e017f5d	0.12646241
245	0xbdd15848	-0.102219164
246	0xbd77803e	-0.060425036
247	0x3e25b0da	0.16180745
248	0xbbdc43b1	-0.0067219366
249	0x3d74f872	0.05980725
250	0x3cd75dbf	0.026289819
251	0x3ef2a0f5	0.47388425
252	0xbe0bbf2f	-0.1364715
253	0xbdfee7f6	-0.12446587
254	0x3d03e117	0.032197084
255	0x3e8d2533	0.27567443

network_body._body_endoder.seq_layers.2.bias f4 [127]
0	0x3c0459c4	0.008078042
1	0xbcb04c90	-0.021520883
2	0x3c8c5e79	0.017134892
3	0x3cb5036b	0.022096356
4	0x3d0afbf8	0.033931702
5	0x3c3447f7	0.011003486
6	0xbd0d4d14	-0.034497336
7	0x3c3bb781	0.011457325
8	0xbcfc828d	-0.03082397
9	0xbc779f8c	-0.0151137225
10	0xbb9d860a	-0.0048072385
11	0xbc31a27f	-0.010841965
12	0x3d0e925d	0.03480755
13	0x3ca06186	0.019577753
14	0xbcfc3ba0	-0.03079015
15	0xbc9092a8	-0.017648056
16	0xbcdfb0a4	-0.027305909
17	0xbc9d86a7	-0.019229246
18	0x3ce7a48a	0.0282767
19	0x3c311e81	0.010810495
20	0x3c265d8b	0.010154138
21	0x3bce50fc	0.006296275
22	0xbce4063c	-0.027835004
23	0xbd08c20a	-0.033388175
24	0x3c98da49	0.018658774
25	0xbcf12ba7	-0.02943976
26	0xbc0cb646	-0.008588379
27	0xbd05a8a8	-0.032631546
28	0x3c2b9a6e	0.010473831
29	0x3cfee970	0.031117171
30	0xbcafed0d	-0.02147534
31	0x3c1b356f	0.009473189
32	0x3b4e4c36	0.003147853
33	0xbb0320c5	-0.0020008546
34	0x3cf86f46	0.030326497
35	0xbbdaa20a	-0.0066721486
36	0xbc88df3d	-0.01670801
37	0x3bb98b49	0.005662356
38	0x3d124b46	0.035716318
39	0xbccf84d1	-0.025331886
40	0x3c0cf0ff	0.00860238
41	0xbc9918c8	-0.018688574
42	0x3ce1a3ca	0.027543921
43	0xbc0612d0	-0.008183196
44	0x3caf6a50	0.021412998
45	0x3c37bcad	0.011214417
46	0xbcefe5e5	-0.029284427
47	0x3cd8e222	0.026475016
48	0x3be02921	0.0068408404
49	0xbcedfce1	-0.029051246
50	0x3ca7bf38	0.020476922
51	0xbcebde54	-0.028792538
52	0x3c47a495	0.0121852355
53	0x3d07bb71	0.033137742
54	0x3c125c5f	0.008933156
55	0xbc9206e3	-0.01782555
56	0xbc3d68a0	-0.011560589
57	0x3c2beb79	0.010493153
58	0xbcd3654a	-0.025805134
59	0x3c83a5ce	0.016070273
60	0x3c920905	0.017826566
61	0x3c1429f0	0.009043202
62	0x3ce59c1b	0.028028538
63	0xbaf6068a	-0.0018770259
64	0xbc43f070	-0.01195918
65	0xbc7b3a7f	-0.015333771
66	0xbc04eaf6	-0.00811266
67	0x3c74837c	0.014923926
68	0x3aaa1f49	0.0012979294
69	0x3cb6c651	0.022311362
70	0xbcd9da0b	-0.026593229
71	0xbc87afbd	-0.01656329
72	0xb9a02103	-0.00030542174
73	0xbb9ca86e	-0.0047808206
74	0xbc95e089	-0.018295543
75	0xbcf4145e	-0.029794868
76	0x3ce5e9bc	0.028065555
77	0xbd02082d	-0.03174608
78	0xbb26a762	-0.0025429358
79	0x3c62030f	0.013794675
80	0xbb9da95c	-0.004811449
81	0xbc978672	-0.018496726
82	0xbb2c42c9	-0.0026284924
83	0x3be99e0a	0.0071294354
84	0x3c33c999	0.010973358
85	0xbc969ce3	-0.018385356
86	0x3c0c7e7e	0.00857508
87	0x3d062217	0.032747354
88	0x3c86b1f8	0.016442284
89	0x3c5efffc	0.013610836
90	0x3cec1a1f	0.02882105
91	0x3bf87656	0.007582466
92	0x3cda9a80	0.026685
93	0xbc7a4bac	-0.015276831
94	0xbbbe5e4d	-0.0058095814
95	0x3c8e8db2	0.01740155
96	0xbcb5b5ba	-0.02218138
97	0x3c44c184	0.012009028
98	0xbc2d4c6a	-0.010577301
99	0xbcca0e99	-0.024665164
100	0xbc223367	-0.009899951
101	0xbca1c738	-0.019748315
102	0x3cb29dee	0.021803822
103	0xbcf81e3d	-0.030287856
104	0xbab6e298	-0.0013953028
105	0xbb633cab	-0.0034673612
106	0x3ca634b2	0.020288799
107	0xbc1adbd4	-0.009451825
108	0xbc08731e	-0.008328227
109	0xbbfccc1c	-0.0077147614
110	0xbbbc05fe	-0.005738019
111	0xbc4ed9e2	-0.0126251895
112	0x3bf56a72	0.007489496
113	0xbca4c8d5	-0.020115295
114	0xbc870a5a	-0.016484428
115	0xbc54e68f	-0.012994423
116	0xbcb9c5bb	-0.022677293
117	0xbcaf2de0	-0.02138418
118	0xbc955f16	-0.018233817
119	0x3c96ba8e	0.018399503
120	0x3c8e46e1	0.017367782
121	0x3a911c79	0.0011071108
122	0xbcb39abb	-0.021924367
123	0xbcd4e1c6	-0.025986563
124	0x3b6d067c	0.0036167195
125	0xbbb25437	-0.005442168
126	0x3c47108b	0.01214994

network_body._body_endoder.seq_layers.2.weight f4 [127, 127]
0	0x3e27667d	0.1634769
1	0x3d98861e	0.07447456
2	0x3c4b9a4b	0.012426923
3	0x3a0346ca	0.0005007802
4	0xbcd8f225	-0.026482651
5	0x3d223c57	0.039608326
6	0xbc9a12f2	-0.018807862
7	0xbdae7991	-0.08519281
8	0xbbe2f659	-0.0069263396
9	0xbc6c9f34	-0.014442254
10	0x3d73087f	0.059334274
11	0x3cf294fa	0.029612053
12	0x3d0481a3	0.032350194
13	0x3e3188f8	0.17337406
14	0x3db9a2a4	0.09064224
15	0x3d579729	0.052634392
16	0x3d71b999	0.05901489
17	0x3da4b732	0.08042754
18	0xbce2c37d	-0.027681107
19	0xbc94fa99	-0.0181859
20	0xbd3689ff	-0.044565197
21	0xbdfd1fa7	-0.12359553
22	0xbc36cc69	-0.011157134
23	0x3da275ea	0.079326466
24	0x3dcf7c8f	0.101311795
25	0x3e66d517	0.22542225
26	0x3ca28174	0.019837119
27	0xbd52ca36	-0.051462375
28	0xbdb02006	-0.08599858
29	0xbe7a1a2b	-0.24424045
30	0x3dd20c75	0.10256282
31	0x3d60a16c	0.054841444
32	0x3e2aed5e	0.16692111
33	0x3bccff53	0.006256023
34	0x3dbe1101	0.09280587
35	0xbd82cd43	-0.06386807
36	0x3cddb3db	0.0270633
37	0xbde9fe2c	-0.114254326
38	0x3d3f8635	0.04675885
39	0x3dce2a06	0.10066609
40	0x3c934b09	0.017980115
41	0x3d246b2b	0.040141266
42	0xbdcf98ea	-0.10136588
43	0x3d590c89	0.05299047
44	0x3cdc1382	0.02686477
45	0x3dcb1444	0.09915975
46	0x3ea42fb0	0.32067633
47	0xbd1252fe	-0.03572368
48	0xbe33dd2d	-0.1756484
49	0x3b723bc0	0.0036961883
50	0xbcbf376e	-0.02334186
51	0xbc88fb8d	-0.016721511
52	0x3ca26bbc	0.019826762
53	0xbd907da9	-0.07055218
54	0xbde3e9a0	-0.11128545
55	0x3d20660d	0.039159823
56	0xbd80092e	-0.06251751
57	0xbe0f77d3	-0.14010553
58	0x3da11c8a	0.078667715
59	0xbc6d7bdb	-0.0144948615
60	0x3d80e4e4	0.062936574
61	0xbdb08f0f	-0.08621036
62	0x3d12ddfc	0.035856232
63	0x3db1dddd	0.08684895
64	0x3dbf8b4c	0.09352741
65	0x3c72f541	0.014828981
66	0x3d112636	0.03543683
67	0x3d99d577	0.07511418
68	0x3d33dc2e	0.04391115
69	0xbd79d93c	-0.060998186
70	0x3d9aa907	0.07551771
71	0xbd9ab2ef	-0.0755366
72	0x3d12bddc	0.035825595
73	0x3ca44f69	0.020057397
74	0xbce7e0d0	-0.028305441
75	0x3e297864	0.16549832
76	0xbe530bfd	-0.20610042
77	0x3e05860e	0.13039419
78	0x3ae9a7b7	0.0017826472
79	0xbdd9abc2	-0.10628463
80	0x3db17c2f	0.08666264
81	0xbb28a9fb	-0.0025736082
82	0xbd8c03c3	-0.06836655
83	0x3d08c00e	0.033386283
84	0xbdaee4e7	-0.085397534
85	0xbd834c80	-0.064110756
86	0xbdface45	-0.12246374
87	0xbe03fdbe	-0.12889764
88	0x3baba503	0.005238177
89	0xbd0a627a	-0.03378532
90	0xbe54d6b1	-0.20785023
91	0xbdac2c55	-0.08406893
92	0x3e4c3f39	0.19945993
93	0xbd3d7154	-0.046250656
94	0x3d693ec6	0.05694463
95	0xbd5ab67b	-0.053396683
96	0xbc3cca29	-0.011522808
97	0x3cce178e	0.025157716
98	0x3d864727	0.0655654
99	0xbc1f96e8	-0.009740569
100	0xbd1eb27d	-0.03874444
101	0xbdb378a3	-0.08763244
102	0xbbd83013	-0.006597528
103	0xbc9c7746	-0.019099843
104	0xbdef107c	-0.11673066
105	0x3ca7b73b	0.020473113
106	0x3e049504	0.1294747
107	0xbd033427	-0.03203216
108	0x3dff9c1c	0.124809474
109	0xbd6f41d8	-0.058412403
110	0x3d3a90e8	0.04554835
111	0xbde65774	-0.11247149
112	0xbd937a37	-0.07201045
113	0x3d2d608a	0.042328395
114	0x3dba7d50	0.09105933
115	0x3d27cb5d	0.040965427
116	0xbdc6e25c	-0.097111434
117	0xbcd1e33e	-0.025621053
118	0x3e43f9d7	0.19138275
119	0xb8171ac7	-3.6026144e-05
120	0x3de298d4	0.11064306
121	0x3daa50f2	0.0831622
122	0x3d9cd5ae	0.07657944
123	0x3ca156f0	0.019694775
124	0xbd1901e0	-0.037355304
125	0x3db74a86	0.08949761
126	0xbd1bad5a	-0.038007118
127	0x3e39ff8a	0.18163887
128	0xbc1d57d9	-0.009603464
129	0xbe14da74	-0.14536458
130	0xbd6cb79e	-0.0577923
131	0x3d472c02	0.048625953
132	0x3db8dff8	0.09027094
133	0xbd81b3c4	-0.06333116
134	0xbcbbaa4e	-0.022908356
135	0xbc9d9fb9	-0.0192412
136	0xbdaba2d3	-0.08380666
137	0x3c625e1f	0.0138163855
138	0x3c4fae69	0.01267586
139	0x3dc2f81b	0.095199786
140	0xbc38dbf9	-0.011282914
141	0xbded0d06	-0.1157475
142	0x3df46dd0	0.119350076
143	0x3db680d4	0.08911291
144	0x3df69636	0.12040369
145	0x3b82f9b5	0.0039970526
146	0x3e10c2cd	0.1413681
147	0xbd3d1dcc	-0.046170995
148	0xbd808620	-0.06275582
149	0x3dcd6950	0.100298524
150	0xbbc231ac	-0.0059263315
151	0x3e10aa6b	0.1412751
152	0xbdc52fe8	-0.09628278
153	0xbdb31a6f	-0.08745276
154	0xbdbc28bc	-0.09187457
155	0x3b00c477	0.0019648352
156	0xbda06d02	-0.078332916
157	0xbc8228de	-0.015888628
158	0xbd9123ab	-0.07086881
159	0xbdbe6f3d	-0.09298561
160	0x3d262b15	0.04056843
161	0x3d86b631	0.06577719
162	0xbe18ce2d	-0.149224
163	0x3dbff037	0.09371989
164	0xbcd0167f	-0.025401352
165	0x3db632a2	0.08896376
166	0x3c8784f1	0.016542884
167	0x3c57b37c	0.013165351
168	0xbd7537ba	-0.059867598
169	0x3e27b312	0.16376904
170	0x3d430028	0.04760757
171	0x3e046d3b	0.12932293
172	0xbde5576d	-0.11198316
173	0xbdc40daf	-0.095729224
174	0x3e534057	0.20630012
175	0x3ba25535	0.004954005
176	0x3de63d33	0.112421416
177	0x3d1a49a0	0.03766787
178	0xbda0f35f	-0.07858919
179	0xbda28115	-0.07934777
180	0xbd99d3dd	-0.07511113
181	0x3db7b36e	0.0896977
182	0x3d8e1cb3	0.06939068
183	0x3bfd1dde	0.0077245077
184	0xbc2185cf	-0.009858563
185	0x3ddee3f2	0.10883321
186	0xbe21e094	-0.15808326
187	0x3d59c1d4	0.053163365
188	0xbe004f42	-0.12530234
189	0x3e319561	0.1734214
190	0xba6ca055	-0.0009026577
191	0xbc83ba47	-0.016080035
192	0x3ce04160	0.027374923
193	0x3d1fac32	0.038982578
194	0x3db20378	0.08692068
195	0xbc9dcae2	-0.019261781
196	0x3e8d67a1	0.27618125
197	0x3dbd8dac	0.092555374
198	0x3c0c9a24	0.008581672
199	0x3d80f98f	0.062975995
200	0x3d4e657b	0.050389748
201	0xbc74b394	-0.014935393
202	0xbd1d651c	-0.038426504
203	0xbd7a68ce	-0.061135106
204	0xbdab56d6	-0.08366172
205	0x3c175783	0.009237173
206	0x3e465a07	0.1937028
207	0x3df79540	0.12089014
208	0x3bb46fcb	0.005506491
209	0x3a18fe32	0.0005836218
210	0xbd0c9d09	-0.034329448
211	0xbc99dbdc	-0.018781595
212	0x3de45645	0.11149267
213	0xbdb1045a	-0.08643408
214	0xbc991f1a	-0.018691588
215	0x3dadcfd5	0.084869064
216	0x3cfee5ed	0.031115497
217	0x3cbe1938	0.023205385
218	0x3bf8dc10	0.007594593
219	0x3d87125a	0.06595297
220	0xbd9bea47	-0.07613044
221	0xbc4484d8	-0.011994563
222	0x3d8ec088	0.06970316
223	0x3e169d30	0.147084
224	0xbe162681	-0.14663126
225	0xbd42e733	-0.04758377
226	0x3e6b804f	0.22998165
227	0xbe3d69e0	-0.1849742
228	0xbdcca453	-0.0999228
229	0xbdbe6cb0	-0.09298074
230	0x3e32d575	0.1746424
231	0xbce7cadc	-0.028294973
232	0xbcc1c56f	-0.023653714
233	0xbdbcdefb	-0.09222218
234	0xbda6c6ee	-0.081434116
235	0xbe6bf914	-0.23044235
236	0xbd3254a0	-0.043537736
237	0xbcfd4323	-0.030915802
238	0x3e2e8ed9	0.1704668
239	0x3be68b59	0.0070356545
240	0xbdc8bbac	-0.098014206
241	0xbe0bdcb2	-0.13658407
242	0x3cd19f48	0.025588647
243	0xbdb1beb0	-0.08678949
244	0x3b75c02c	0.0037498577
245	0xbdfefc70	-0.124504924
246	0x3daad19f	0.08340763
247	0x3d800d74	0.06252566
248	0xbe422fe6	-0.18963584
249	0x3c847f44	0.016173966
250	0xbd856849	-0.065140314
251	0xbaf54518	-0.0018712608
252	0x3bc58632	0.00602796
253	0x3dc3d929	0.095629044
254	0xbd99d6e5	-0.07511691
255	0x3db25822	0.08708216

network_body.observation_encoder.processors.0.normalizer.running_mean f4 [33]
0	0x00000000	0.0
1	0x3f7ff120	0.999773
2	0x3f7ff120	0.999773
3	0x00000000	0.0
4	0x3f7ff120	0.999773
5	0x3f7ff120	0.999773
6	0x00000000	0.0
7	0x3f7ff120	0.999773
8	0x3f7ff120	0.999773
9	0x00000000	0.0
10	0x3f7ff120	0.999773
11	0x3f7ff120	0.999773
12	0x00000000	0.0
13	0x3f7ff120	0.999773
14	0x3f7ff120	0.999773
15	0x00000000	0.0
16	0x3f7ff120	0.999773
17	0x3f7ff120	0.999773
18	0x00000000	0.0
19	0x3f7ff120	0.999773
20	0x3f7ff120	0.999773
21	0x00000000	0.0
22	0x3f7ff120	0.999773
23	0x3f7ff120	0.999773
24	0x00000000	0.0
25	0x3f7ff120	0.999773
26	0x3f7ff120	0.999773
27	0x00000000	0.0
28	0x3f7ff120	0.999773
29	0x3f7ff120	0.999773
30	0x00000000	0.0
31	0x3f7ff120	0.999773
32	0x3f7ff120	0.999773

network_body.observation_encoder.processors.1.normalizer.running_mean f4 [6]
0	0x3f0aae58	0.5417228
1	0xbac5d074	-0.0015092031
2	0x3f571d5d	0.8402918
3	0x4305d878	133.84558
4	0x3f323a48	0.6962018
5	0x3ed28146	0.41114253
