results/imitationlearningfinal/RaceCar/RaceCar-3499978.pt (torch, 594095 bytes, 47 tensors)

network_body._body_endoder.seq_layers.0.weight f4 [128, 27]
0	0x3e61bc2b	0.22044437
1	0x3ebd3a1d	0.369584
2	0xbe7f2469	-0.24916233
3	0x3dab523d	0.08365295
4	0xbe734c14	-0.2375949
5	0xbd920ab2	-0.07130946
6	0xbd00e97e	-0.031472676
7	0xbd547975	-0.051873643
8	0x3e87af7a	0.26501065
9	0x3d4dfd0b	0.05029015
10	0xbd6c07c5	-0.057624597
11	0x3e46f8e0	0.19430876
12	0x3e4d3d68	0.20042956
13	0xbed2a210	-0.4113927
14	0xbce1ff43	-0.027587539
15	0xbe523991	-0.20529772
16	0xbd8a17cd	-0.06742821
17	0xbf26a9a6	-0.6510261
18	0xbd5cb42f	-0.053882774
19	0x3eb8554d	0.3600258
20	0x3bc04544	0.005867632
21	0x3e400b2e	0.18754265
22	0xbe33f163	-0.1757255
23	0x3db87c25	0.09008054
24	0x3e40c359	0.18824519
25	0xbf0faa5c	-0.5611932
26	0x3e33b128	0.17548048
27	0xbe670705	-0.22561271
28	0xbe2f18cd	-0.17099304
29	0xbe9d66c1	-0.30742458
30	0xbdaf2f19	-0.08553905
31	0xbe3c2e0b	-0.18376939
32	0xbeaaf5b2	-0.33390576
33	0x3e431315	0.19050248
34	0x3dbff078	0.09372038
35	0x3cf68f43	0.03009761
36	0xbdb966b6	-0.09052794
37	0xbe6b43c3	-0.22975068
38	0xbe41e86d	-0.1893632
39	0x3e1855fd	0.14876552
40	0x3d9b841f	0.075935595
41	0x3e24d0b5	0.1609524
42	0xbeb20b69	-0.3477433
43	0xbdf15071	-0.11782921
44	0x3ec200e1	0.37891296
45	0x3e1b68c7	0.15176688
46	0xbed940a1	-0.4243212
47	0xbe0a2d7e	-0.13493916
48	0x3cd824c5	0.02638472
49	0xbf2f4a74	-0.6847298
50	0xbee20633	-0.44145355
51	0xbf2d206f	-0.67627615
52	0xbf84845d	-1.0352894
53	0xbdf94402	-0.121711746
54	0x3f208faa	0.62719214
55	0x3e4afd59	0.19823207
56	0xbe5bd2fb	-0.21467201
57	0x3e17d0c9	0.14825739
58	0xbe7e1758	-0.24813592
59	0x3ea6af11	0.3255544
60	0xbe906ae7	-0.2820656
61	0xbe572201	-0.21009065
62	0xbf63114e	-0.8869828
63	0x3e87b1e0	0.26502895
64	0x3ebabc48	0.36471772
65	0xbd765839	-0.06014273
66	0x3f27befc	0.65525794
67	0xbcd13bb5	-0.025541166
68	0x3dfb5e72	0.122738734
69	0x3dc98d89	0.09841449
70	0xbe130ef8	-0.14361179
71	0x3ff9fc88	1.9530191
72	0xbef4fd9f	-0.47849748
73	0xbf1fdd27	-0.62446827
74	0xbe7e11f4	-0.24811536
75	0xbfaa5782	-1.3307955
76	0x3f08addf	0.53390306
77	0xbedaaf17	-0.42711708
78	0xbcb2952c	-0.021799646
79	0x400c9f70	2.1972313
80	0x3fb714a9	1.430318
81	0xbeba9de4	-0.36448586
82	0xbe48f0f5	-0.19623168
83	0xbe29264b	-0.16518514
84	0xbe95f53b	-0.29288658
85	0xbedc7db3	-0.4306465
86	0xbeaf7edb	-0.3427647
87	0xbe743391	-0.23847796
88	0xbecd325d	-0.40077487
89	0xbcc420a9	-0.023941355
90	0xbef7e141	-0.48414043
91	0x3ee31b6c	0.4435686
92	0xbe68dd38	-0.22740638
93	0x3e946394	0.28982222
94	0xbeb22a2d	-0.34797803
95	0xbdee519e	-0.11636661
96	0xbe01df29	-0.12682785
97	0x3ceb6b0f	0.028737573
98	0xbd318240	-0.043337107
99	0x3e98b853	0.29828128
100	0x3d7894a0	0.060688615
101	0xbe5b06d0	-0.21389318
102	0x3f2708d8	0.6524787
103	0xbebac652	-0.3647943
104	0xbf12ac01	-0.5729371
105	0xbf4c04ef	-0.7969503
106	0xbf9840f0	-1.1894817
107	0x3d3aeb52	0.045634575
108	0x3f273d3f	0.6532783
109	0xbd6c5a58	-0.057703346
110	0xbefc5247	-0.49281523
111	0x3ed5a254	0.4172541
112	0x3ee465cf	0.44608924
113	0xbee29bea	-0.44259578
114	0xbae9bb85	-0.0017832374
115	0x3e24cdbd	0.16094108
116	0xbec1f7d6	-0.37884396
117	0x3f632b66	0.88738096
118	0xbf0aed28	-0.5426812
119	0xbf4a140e	-0.7893685
120	0xbe9a6bea	-0.30160457
121	0xbf812b0e	-1.0091264
122	0x3d929121	0.071565874
123	0x400e21ac	2.2208052
124	0x3de7fd58	0.11327618
125	0x4040cd4b	3.01253
126	0x3e998db3	0.2999092
127	0xc073263e	-3.799209
128	0x3f279a81	0.6547013
129	0x3fc72de3	1.5560879
130	0xbf205d2b	-0.62642163
131	0x3fdd731f	1.7300757
132	0x3f4f62be	0.81010044
133	0xc0224e4f	-2.5360296
134	0xbfb5d8bb	-1.4206766
135	0xbfc68d16	-1.5511806
136	0x3f87a5eb	1.0597509
137	0x3ed23cde	0.41062063
138	0x3ed5bad5	0.41744104
139	0x3f20ad18	0.6276412
140	0xbd1df925	-0.03856768
141	0x3e8d544c	0.27603376
142	0x3f247cb3	0.64252776
143	0x3fb6a1f9	1.426818
144	0x3ed15066	0.40881652
145	0xbfc9b932	-1.5759642
146	0x3ec8b2e3	0.3919898
147	0xbfe0d89c	-1.7566104
148	0x3eacaf66	0.33727568
149	0x3dd30ceb	0.10305198
150	0xbf45742e	-0.771304
151	0x3ea81bb1	0.32833627
152	0xbd1afecb	-0.037840646
153	0x3efcbcc0	0.49362755
154	0x3e90b55a	0.2826336
155	0xbc6d540a	-0.0144853685
156	0x3f67543d	0.9036291
157	0x3fcf9869	1.6218387
158	0x3eb53a7b	0.3539618
159	0x3e01fab6	0.12693295
160	0xbe571feb	-0.2100827
161	0xbf46a71a	-0.77598727
162	0x3f42d4f0	0.76106167
163	0x3e00580a	0.12533584
164	0x3e341938	0.17587745
165	0x3e6eda5f	0.2332549
166	0x3f4177bc	0.75573325
167	0x3e0116b7	0.12606321
168	0x3ebbc3b9	0.36672762
169	0x3f0f54e1	0.5598889
170	0x3f4321c2	0.76223385
171	0xbe4ee353	-0.20203905
172	0x3ecd6f5a	0.40124017
173	0x3b82744f	0.00398115
174	0x3eb41ad4	0.35176718
175	0x3e67bca1	0.2263055
176	0x3bc1afbe	0.0059108427
177	0xbea6e318	-0.32595134
178	0xbd2585f9	-0.04041097
179	0x3fbea756	1.4894817
180	0xbdc498c8	-0.09599453
181	0xbfc4c86c	-1.5373664
182	0x3d80cf78	0.062895715
183	0x3d8d8cbe	0.0691161
184	0xbdfdbb1a	-0.123892024
185	0xbebe5da2	-0.3718081
186	0x3ce6522b	0.028115353
187	0xbec5c527	-0.38626978
188	0x3ccfa7d5	0.025348583
189	0xbeae48ec	-0.3404001
190	0xbe4e43ec	-0.20143098
191	0xbe9d1e38	-0.30687118
192	0x3e8d5415	0.27603212
193	0xbda89693	-0.08231845
194	0x3e80d819	0.2516487
195	0x3e961bfd	0.29318228
196	0x3df5e1cd	0.12005959
197	0xbf05b82a	-0.5223414
198	0x3ee2784a	0.44232398
199	0xbe482aac	-0.19547528
200	0xbde7f1dc	-0.11325428
201	0xbeafcdb3	-0.34336624
202	0x3c03af7f	0.008037447
203	0x3e063c13	0.13108854
204	0xbef6b9e9	-0.48188713
205	0xbdbc0a2c	-0.09181628
206	0xbebb2ff4	-0.36560023
207	0x3ec11c88	0.3771708
208	0x3d3c4b8d	0.04597049
209	0xbdd0bae8	-0.101918995
210	0x3e2f1499	0.17097701
211	0x3f69ee17	0.9137892
212	0xbd7b0abf	-0.061289545
213	0xbea7fabe	-0.3280849
214	0xbf0a3a64	-0.5399535
215	0x3d01ebf8	0.031719178
216	0xbe830655	-0.25590768
217	0x3e9482eb	0.29006132
218	0xbd25f88c	-0.040520236
219	0x3ecad28d	0.39613762
220	0xbdaf9e50	-0.085751176
221	0x3e90fe16	0.28318852
222	0x3e705593	0.23470144
223	0x3e36ed81	0.17864038
224	0xbf7ca9a6	-0.9869636
225	0x3eaf9142	0.3429051
226	0xbe88a145	-0.2668554
227	0x3dcf4660	0.10120845
228	0xbeb6a226	-0.35670584
229	0x3c6e6fc4	0.014553014
230	0x3c902e71	0.01760027
231	0xbcafcd91	-0.021460326
232	0xbd995273	-0.07486429
233	0x3e355b39	0.1771058
234	0x3d9cdba2	0.07659079
235	0xbf5446da	-0.8292061
236	0x3e511bb6	0.20420727
237	0x3e9ec8f5	0.31012693
238	0xbe336888	-0.17520344
239	0xbec8895e	-0.39167303
240	0xbee97d1b	-0.4560326
241	0xbb433beb	-0.0029790353
242	0xbe3eb7fd	-0.18624873
243	0xbfe1ed9d	-1.7650639
244	0xbe1ad213	-0.151192
245	0x3e2e310e	0.170109
246	0xbf42a3cf	-0.760312
247	0xbf051446	-0.5198406
248	0x3e3cc799	0.18435515
249	0x3d713381	0.05888701
250	0xbea5b149	-0.3236182
251	0x3f82c384	1.0215917
252	0xbf8b4bc7	-1.08825
253	0xbe2ec9d4	-0.17069179
254	0xbee6a223	-0.45045575
255	0x3e3a8363	0.18214183

network_body._body_endoder.seq_layers.0.bias f4 [128]
0	0x3e4d82f7	0.2006949
1	0xbcc7a4d0	-0.02437058
2	0xbcb7106c	-0.022346698
3	0xbe847c41	-0.25876048
4	0xbee8913f	-0.45423314
5	0x3e9aecd7	0.3025882
6	0x3ea00dbb	0.31260476
7	0x3e6324a3	0.22181945
8	0x3ddd2869	0.10798723
9	0x3d4ed00c	0.050491378
10	0x3cf879f9	0.030331599
11	0x3e93a7b1	0.28838876
12	0xbf35853f	-0.7090644
13	0x3c461048	0.012088843
14	0xbf751d7f	-0.9574813
15	0xbefcfd73	-0.49412116
16	0xbe1add71	-0.15123536
17	0x3dc1f374	0.09470263
18	0x3ec6c01f	0.38818452
19	0xbef4c0f3	-0.4780346
20	0x3e8705b5	0.26371542
21	0xbd85d560	-0.06534839
22	0xbdf490b2	-0.11941661
23	0xbd319d19	-0.04336271
24	0x3f1bc33e	0.6084479
25	0x3bbe1187	0.0058004293
26	0xbc1a0a8c	-0.009401929
27	0xbe7bb35b	-0.24580137
28	0x3e87f75d	0.2655591
29	0xbed8be33	-0.4233261
30	0xbd257068	-0.040390402
31	0xbefed97b	-0.497753
32	0x3eede273	0.4646183
33	0xbe8aa193	-0.27076396
34	0x3e3db4cb	0.18525998
35	0x3f25bcfe	0.64741504
36	0x3e0b78ae	0.13620254
37	0xbddafc87	-0.10692697
38	0x3e095ef9	0.13415135
39	0xbee1b16e	-0.4408068
40	0x3d920f84	0.071318656
41	0x3dfb4004	0.122680694
42	0xbde1087e	-0.10987948
43	0x3f48fe58	0.785131
44	0x3dfe1639	0.124065824
45	0xbe79a75f	-0.24380253
46	0xbded6e1a	-0.11593266
47	0xbe008dea	-0.12554136
48	0x3ddbfdb5	0.1074175
49	0xbf29f59a	-0.66390383
50	0xbe04dee1	-0.12975647
51	0x3e80cfd3	0.25158557
52	0x3e27026a	0.16309515
53	0xbe6c2394	-0.23060447
54	0x3f0459e6	0.51699674
55	0x3f206978	0.6266093
56	0x3eb25dba	0.34837133
57	0xbdbe9be9	-0.09307081
58	0x3d0a762b	0.0338041
59	0x3eaeeadb	0.34163556
60	0x3e4995fe	0.19686124
61	0x3cb16dac	0.021658741
62	0xbeefbc4b	-0.46823344
63	0x3d475449	0.048664365
64	0xbbe6754f	-0.0070330272
65	0xbea574a0	-0.3231554
66	0x3f61e13c	0.88234305
67	0xbe5be8f8	-0.2147559
68	0xbe8c5012	-0.2740484
69	0xbcb2eecb	-0.021842381
70	0xbe002f22	-0.1251798
71	0xbce0fce9	-0.027464347
72	0x3ceb48e4	0.02872128
73	0xbe4e1dc4	-0.20128542
74	0x3e05ae6f	0.13054822
75	0xbcc508a4	-0.024051972
76	0x3e08ae89	0.1334783
77	0xbd87bea9	-0.066281624
78	0xbd269c13	-0.040676188
79	0xbeef0995	-0.46686998
80	0xbd63f115	-0.055649836
81	0xbf0f59d3	-0.55996436
82	0x3b72fc77	0.003707675
83	0x3d86ef3f	0.06588601
84	0xbe2b80d6	-0.16748366
85	0x3e787e0b	0.24266832
86	0x3e317435	0.17329486
87	0x3e1eda62	0.15512994
88	0x3df9c411	0.121956
89	0xbe983e5f	-0.29735085
90	0x3ea41570	0.32047606
91	0xbdde2e53	-0.108486794
92	0x3f70e35d	0.9409693
93	0x3c308537	0.010773948
94	0xbe655249	-0.2239467
95	0xbd667228	-0.05626121
96	0xbe97808e	-0.29590267
97	0xbf0f4685	-0.5596698
98	0x3eb2edb6	0.34946984
99	0xbe44f9f4	-0.19235975
100	0xbea4b421	-0.32168677
101	0xbe4016a2	-0.18758634
102	0x3f7b5d09	0.98188835
103	0x3d52390a	0.051323928
104	0xbdafad7f	-0.08578014
105	0xbf09ad5c	-0.5378015
106	0xbe03e867	-0.12881623
107	0x3e0c3a9a	0.1369423
108	0xbd9e80b2	-0.077393904
109	0x3f0f1d32	0.55903924
110	0xbdcbfc90	-0.09960282
111	0xbcee10ea	-0.0290608
112	0x3d439324	0.047747746
113	0xbd3da6de	-0.046301715
114	0xbec7b35e	-0.39004034
115	0xbd133b11	-0.035945002
116	0x3e044863	0.12918238
117	0x3c4c7252	0.012478428
118	0x3ea7e411	0.32791188
119	0x3e355401	0.17707826
120	0xbe1787fa	-0.14797965
121	0x3ebf129f	0.37318894
122	0x3f150b0b	0.58219975
123	0xbe341492	-0.17585972
124	0xbf39a7a9	-0.72521454
125	0x3d564c87	0.052319076
126	0x3d2596fe	0.0404272
127	0xbed62071	-0.41821626

network_body._body_endoder.seq_layers.2.weight f4 [128, 128]
0	0x3dfa3bcf	0.12218439
1	0xbe4360e4	-0.1907993
2	0x3e0be5c8	0.13661873
3	0xbcacb8f0	-0.021084279
4	0xbd8db4d3	-0.06919255
5	0xbdcf5124	-0.10122898
6	0xbfa028ca	-1.2512448
7	0xbdbc144a	-0.09183557
8	0x3e310f42	0.17290977
9	0xbdc3a598	-0.09553069
10	0xbd40ac7f	-0.047039505
11	0x3e541ccd	0.20714112
12	0xbe84027c	-0.25783145
13	0x3e07cd14	0.13261825
14	0xbdaaa503	-0.08332255
15	0x3dc11682	0.09428121
16	0x3d76a248	0.060213357
17	0xbe02e49f	-0.12782525
18	0xbda1924a	-0.078892305
19	0x3e17cd35	0.14824374
20	0xbdbf1d7a	-0.09331794
21	0x3dc751b1	0.09732378
22	0x3e3b5613	0.18294553
23	0xbe323931	-0.1740463
24	0xbcb67717	-0.022273583
25	0x3e56ae45	0.20964916
26	0xba492540	-0.0007673092
27	0xbca1f49a	-0.019769955
28	0xbf1a24d2	-0.60212433
29	0xbd98d281	-0.074620254
30	0x3e29c32b	0.16578357
31	0x3ef9f6fc	0.48821247
32	0x3df1d831	0.11808813
33	0xbd07958b	-0.0331016
34	0x3c0f6890	0.008752957
35	0x3e5c8223	0.21534018
36	0x3da3805b	0.07983466
37	0x3d7edec0	0.06222415
38	0x3d4df4aa	0.050282158
39	0xbecaea1d	-0.3963174
40	0xbd7f94e7	-0.062397864
41	0x3caaa99e	0.020832833
42	0xbd65c7a7	-0.056098606
43	0xbde923ea	-0.11383803
44	0x3d9e1c47	0.07720237
45	0xbbba5890	-0.005686827
46	0x3c47f832	0.0122051705
47	0x3d2c2a8a	0.042032756
48	0x3ec4df9a	0.38451844
49	0xbd3b0643	-0.04566027
50	0x3b180734	0.0023197653
51	0x3e4d8f3f	0.20074175
52	0x3d2b6a54	0.04184945
53	0x3d8417ae	0.06449829
54	0xc0557c32	-3.3357053
55	0x3d4d4dc0	0.050122976
56	0x3d97d59a	0.07413788
57	0xbebe6754	-0.37188208
58	0x3e57ae52	0.21062592
59	0xbf04b128	-0.5183282
60	0xbd57b74c	-0.05266504
61	0xbd1df7e4	-0.038566485
62	0xbe008949	-0.1255237
63	0xbd1226ed	-0.035681654
64	0x3dc23fd5	0.09484831
65	0xbe193ac4	-0.14963824
66	0x3d9d118d	0.07669363
67	0x3e25813a	0.16162577
68	0x3da4859d	0.08033297
69	0x3d97af5d	0.07406495
70	0x3e0b10e8	0.13580668
71	0x3d2a334f	0.041552838
72	0x3d9aaa58	0.07552022
73	0x3e122191	0.14270617
74	0xbd91af78	-0.07113546
75	0x3e5a01c9	0.21289743
76	0x3de6aed4	0.112638146
77	0xbe09429d	-0.13404317
78	0x3e165c11	0.14683558
79	0xbdde0f4e	-0.10842763
80	0x3c34a789	0.011026272
81	0x3c8057c1	0.015666844
82	0xbdee1e8e	-0.116269216
83	0x3d539bd2	0.051662274
84	0xbcefe122	-0.029282156
85	0xbb642844	-0.003481404
86	0x3dc5dadf	0.09660887
87	0x3e1c6515	0.15272935
88	0x3e1412ed	0.14460345
89	0xbbff0b59	-0.007783335
90	0xbeade9fe	-0.33967584
91	0xbe80a922	-0.25129038
92	0x3da78187	0.08179002
93	0x3d9193a3	0.071082376
94	0x3dd41c0a	0.103569105
95	0xbca22ec7	-0.019797696
96	0xbd55c95f	-0.052193996
97	0xbe194785	-0.14968689
98	0x3f6cdc9c	0.92524123
99	0xbeb52004	-0.35375988
100	0xbd9dda3c	-0.077076405
101	0xbe05604f	-0.1302502
102	0x3e045fec	0.12927216
103	0xbce414af	-0.027841894
104	0xbd48763f	-0.048940893
105	0xbedb030c	-0.42775762
106	0xbcd29141	-0.025704028
107	0xbb38ae50	-0.002818007
108	0x3e25aee3	0.16179995
109	0x3d2066d6	0.039160572
110	0xbe528bdb	-0.20561163
111	0x3db1b22b	0.08676561
112	0xbd900329	-0.07031853
113	0xbd9c836a	-0.07642253
114	0xbe0c94c0	-0.13728619
115	0xbe22310e	-0.15839025
116	0xbe2ad1c1	-0.16681577
117	0x3d9037f9	0.07041926
118	0xbec21d06	-0.37912768
119	0x3e16d450	0.14729428
120	0xbb7293ba	-0.0037014321
121	0x3e3c241e	0.18373153
122	0xbd7740be	-0.060364477
123	0xbdea411f	-0.11438202
124	0xbe27e2ac	-0.16395062
125	0x3e3ae59e	0.18251655
126	0xbf431b2f	-0.76213354
127	0xbe14e8da	-0.14541951
128	0xbeb59557	-0.354655
129	0x3cfe03fe	0.031007763
130	0x3d89ca8c	0.06728086
131	0xbde98014	-0.11401382
132	0x3d8c6e97	0.06857031
133	0xbdf90a58	-0.12160176
134	0x3c535963	0.012899729
135	0x3cb9b136	0.022667509
136	0xbd8665d2	-0.065623894
137	0x3c743986	0.014906293
138	0xbe1571e2	-0.14594224
139	0x3dea426d	0.11438451
140	0xbd93367e	-0.07188128
141	0xbcb53934	-0.022122003
142	0xbe393095	-0.18084939
143	0xbdcf9a0a	-0.101368025
144	0x3e9b7867	0.30365297
145	0x3d10c5c4	0.035344854
146	0xbd75e1ff	-0.06002998
147	0x3ba53f45	0.0050429427
148	0xbd981080	-0.07425022
149	0x3ba6bc5c	0.005088372
150	0xbe0cf59f	-0.13765572
151	0xbcdd10fa	-0.026985634
152	0xbe5a01f2	-0.21289805
153	0x3d1c5880	0.038170338
154	0x3c84df70	0.016219825
155	0xbdc36ebf	-0.095426075
156	0xbd222449	-0.039585385
157	0xbf854561	-1.0411798
158	0xbe872a21	-0.2639933
159	0xbe9b9d74	-0.30393565
160	0x3d4d3b48	0.050105363
161	0x3cb5374f	0.0221211
162	0xbda33798	-0.07969588
163	0x3db61f00	0.088926315
164	0x3e11b060	0.14227438
165	0xbaf59078	-0.0018735072
166	0xbe128395	-0.14308007
167	0x3e1c1ad0	0.15244603
168	0xbe0799d6	-0.13242278
169	0x3d39d6e9	0.04537097
170	0x3ee4ef48	0.44713807
171	0xbd832a8e	-0.06404601
172	0x3c90ccf5	0.017675856
173	0xbdb35241	-0.08755923
174	0x3e0e521d	0.13898511
175	0x3d7b45f7	0.06134602
176	0x3c835380	0.016031027
177	0x3ea15f8a	0.31518203
178	0x3aa97d8f	0.0012931096
179	0x3d337945	0.043816824
180	0x3de945eb	0.11390289
181	0xbcd27047	-0.025688304
182	0x3ea66bb3	0.32504043
183	0xbc56ef97	-0.013118646
184	0xbbf9a7c2	-0.0076188752
185	0xbe4165c0	-0.18886471
186	0x3e1a11d3	0.15045862
187	0x3d3bf024	0.045883313
188	0xbcc83bbe	-0.02444255
189	0x3d018957	0.031625118
190	0xbd356d78	-0.04429385
191	0x3c03da3c	0.008047637
192	0xbdbf0ad0	-0.09328234
193	0x3e0226c1	0.12710096
194	0xbde4fd40	-0.11181116
195	0x3d620519	0.055180643
196	0xbd97d94d	-0.07414494
197	0x3d900161	0.07031513
198	0xbd39f246	-0.045397066
199	0xbd9be966	-0.076128766
200	0x3d90721e	0.07053016
201	0xbc9dc798	-0.019260213
202	0xbe6ab46c	-0.22920388
203	0x3e37152f	0.17879175
204	0xbd303196	-0.04301604
205	0x3d679830	0.05654162
206	0x3d5ccfea	0.05390922
207	0x3babe293	0.0052455156
208	0xbdcec1f5	-0.10095588
209	0x3dcbf7bd	0.09959362
210	0xbd016d65	-0.031598467
211	0xbe958db9	-0.29209688
212	0x3d58f37a	0.052966572
213	0xbd3512a9	-0.04420725
214	0x3c683ad5	0.014174183
215	0xbe4f983e	-0.2027292
216	0x3d81cd10	0.06337941
217	0x3e0259e0	0.12729597
218	0x3d0820a6	0.03323426
219	0x3b80513f	0.0039159353
220	0xbdf55589	-0.11979205
221	0x3c72680e	0.014795316
222	0x3decc750	0.11561453
223	0x3d333db8	0.04376003
224	0x3d84228f	0.06451904
225	0xbac0d62a	-0.0014712263
226	0x3eda8707	0.42681143
227	0x3e3c4ee0	0.18389463
228	0x3d0a8789	0.033820663
229	0xbc1c8416	-0.009552976
230	0x3d9126a0	0.07087445
231	0x3e0d942c	0.13826054
232	0xbdc6a1dd	-0.09698842
233	0x3df00a91	0.117207654
234	0x3ddc527a	0.10757919
235	0x3aea148b	0.0017858905
236	0xbe59c44d	-0.21266289
237	0x3e67d513	0.22639875
238	0xbe92adb7	-0.2864816
239	0xbe613307	-0.21992122
240	0x3c06d6e3	0.008229944
241	0xbdc74ac9	-0.09731061
242	0x3d5aa629	0.05338112
243	0xbd858e58	-0.065212905
244	0x3c8b6561	0.017016115
245	0xbd908977	-0.07057469
246	0x3d24cced	0.040234495
247	0xbcf57602	-0.029963497
248	0xbbb03a13	-0.0053780167
249	0x3c8833ec	0.01662632
250	0x3cd50113	0.026001489
251	0xbda59cd9	-0.08086557
252	0xbdac3590	-0.08408654
253	0xbcd0e5da	-0.025500227
254	0x3c78f995	0.015196224
255	0x3da217a9	0.07914669

network_body._body_endoder.seq_layers.2.bias f4 [128]
0	0x3f2d17b6	0.67614305
1	0x3e2b0749	0.16701998
2	0x3e573c3c	0.21019071
3	0x3b2312b5	0.0024882976
4	0x3e024103	0.12720113
5	0x3c3ece75	0.011645903
6	0x3e7081f8	0.23487079
7	0x3c87e101	0.016586782
8	0xbea3aff3	-0.31970176
9	0xbaa5c1e2	-0.0012646283
10	0x3f006f83	0.50170153
11	0xbd8c7928	-0.06859046
12	0xbbf01e30	-0.0073278174
13	0x3ef4e54e	0.47831196
14	0x3f13d94d	0.5775345
15	0x3e781017	0.24224888
16	0xbc32599f	-0.010885625
17	0x3e7952de	0.24348018
18	0x3f0bf858	0.5467582
19	0x3e19100a	0.14947525
20	0xbcaf79d0	-0.02142039
21	0x3d266a48	0.0406287
22	0x3e982171	0.29713014
23	0xbc83c0d9	-0.016083168
24	0x3e1229b9	0.14273728
25	0x3f31e2e1	0.69486815
26	0x3ea7daad	0.32784024
27	0x3dc928a9	0.098222084
28	0xbc43fda7	-0.011962331
29	0x3dd317c9	0.10307271
30	0x3eec1d28	0.46115994
31	0x3ddd0228	0.10791427
32	0x3df14061	0.117798574
33	0x3c8c85d3	0.017153656
34	0x3e734b1d	0.23759122
35	0x3ca670e7	0.020317508
36	0x3d2d4c71	0.04230923
37	0x3e4512a7	0.19245397
38	0x3e93e844	0.28888142
39	0x3f105c89	0.563912
40	0x3dc38c81	0.09548283
41	0x3f103118	0.5632491
42	0xb648528c	-2.985037e-06
43	0x3e1551d3	0.14581995
44	0x3e6c0283	0.23047833
45	0xbcb1136c	-0.021615706
46	0xbc0c7a38	-0.008574061
47	0x3eda7a16	0.4267127
48	0x3e9d170e	0.30681652
49	0x3e1b038a	0.15138069
50	0x3ee14008	0.43994164
51	0x3e82f78c	0.25579488
52	0x3e7bf14c	0.24603766
53	0xbcec05d3	-0.028811371
54	0x3e06c2f0	0.131603
55	0x3e8eff74	0.2792927
56	0x3dcb8a66	0.09938507
57	0x3e282a5a	0.16422406
58	0x3dd4f04e	0.10397397
59	0x3eaa33d2	0.3324266
60	0x3e7f87a4	0.24954087
61	0x3ded3b85	0.11583618
62	0x3e472ad8	0.19449937
63	0xbe6a37c4	-0.22872835
64	0x3df1ef87	0.11813264
65	0xbd69adbc	-0.05705045
66	0x3dd4372d	0.103620864
67	0x3e2a9ffc	0.16662592
68	0xbcb99dfe	-0.022658344
69	0xbd033af8	-0.03203866
70	0x3ee032a5	0.4378864
71	0xbca2a4e8	-0.019854024
72	0x3f31c2db	0.6943795
73	0x3e24512d	0.16046591
74	0xbb1e2148	-0.0024128724
75	0x3ec08f4e	0.37609333
76	0xbaf7df1b	-0.0018911095
77	0xbd9c20b1	-0.07623423
78	0xbc058037	-0.008148245
79	0x3b418f0f	0.0029534732
80	0x3f193f22	0.5986196
81	0x3e7619ca	0.24033275
82	0x3ef963e3	0.4870902
83	0x3e78431d	0.24244352
84	0x3deec9fa	0.11659618
85	0x392b8e82	0.00016360919
86	0x3b11be5e	0.0022238712
87	0x3ccaf44b	0.024774691
88	0x3ea22055	0.31665292
89	0x3d891d0f	0.066949956
90	0x3d808a3f	0.06276368
91	0x3e7ee904	0.24893576
92	0xbbe40a40	-0.0069592297
93	0x3bb9a496	0.005665372
94	0xbca11c45	-0.0196668
95	0x3ea6319a	0.32459718
96	0x3f03f9f7	0.5155329
97	0x3e48aa51	0.1959622
98	0x3eb0c747	0.34527037
99	0x3d06fbf3	0.03295512
100	0xbd10e4de	-0.035374515
101	0x3e6f6add	0.23380609
102	0x3d9833c8	0.074317515
103	0xbd48ab18	-0.048991293
104	0x3f1a066a	0.6016604
105	0x3ea6423e	0.32472414
106	0x3ea5e49e	0.32400984
107	0x3e6bef57	0.2304052
108	0x3ee6dc89	0.4509013
109	0x3e60856d	0.21925898
110	0x3dbe6bf6	0.09297936
111	0x3defa597	0.11701506
112	0x3ea0fe9e	0.31444257
113	0x3e601543	0.2188311
114	0x3eb6d8b4	0.35712206
115	0xbb9a1351	-0.0047020097
116	0x3e17f63d	0.14840026
117	0x3e09d8cc	0.13461608
118	0x3a01c78e	0.00049506954
119	0x3e159bf8	0.14610279
120	0x3e744db1	0.23857762
121	0xbc7d6374	-0.015465606
122	0xbbd00524	-0.006348269
123	0x3e2730a8	0.16327155
124	0x3e777dc4	0.2416907
125	0x3ec107e9	0.37701347
126	0xbcba1ff5	-0.022720316
127	0x3e1073c4	0.14106661

action_model._continuous_distribution.log_sigma f4 [1, 2]
0	0xc1112eaf	-9.073897
1	0xc0fccf9d	-7.9003434

action_model._continuous_distribution.mu.weight f4 [2, 128]
0	0x3fa5b278	1.2945089
1	0x3c9400a6	0.018066715
2	0xbec6b93a	-0.38813192
3	0xbc25e1c1	-0.010124625
4	0x3f174812	0.59094346
5	0xbdfbb887	-0.12291055
6	0xbc2397a6	-0.009984886
7	0xbe2e6191	-0.17029406
8	0x3b985c8c	0.0046497043
9	0xbc6973b9	-0.014248782
10	0x3fcc3cb7	1.5956029
11	0xbb5c8dce	-0.0033653858
12	0x3be7d1e9	0.007074584
13	0x3f8c8103	1.0976871
14	0x3f2bf471	0.67169863
15	0x3fb26d65	1.3939635
16	0xbd606860	-0.05478704
17	0x3fc894c9	1.5670406
18	0x3f4a9bbf	0.791439
19	0x3ef6c681	0.4819832
20	0x3cb6fd81	0.022337677
21	0x3ca98e9b	0.020697882
22	0x3f563d4c	0.8368728
23	0xbf31dc8a	-0.6947714
24	0x3f1c1ec6	0.60984457
25	0x4006f58f	2.1087377
26	0x3f0c031f	0.5469226
27	0x3f94e40e	1.1632097
28	0x3bbc2b5f	0.005742475
29	0xbc2bdc86	-0.010489589
30	0x3fa52964	1.2903256
31	0x3ee573dc	0.44814956
32	0x3e358fe4	0.17730671
33	0x3da6c93f	0.081438534
34	0x3f8f1ced	1.1180702
35	0xbe446af8	-0.1918143
36	0xbba98ae8	-0.0051740296
37	0x3fa5db10	1.2957478
38	0x3f3bd259	0.7336784
39	0x3faac487	1.3341225
40	0xbe719f68	-0.23595965
41	0x3feaa2f9	1.8330985
42	0x3d20835a	0.039187767
43	0x3b928931	0.004471921
44	0xbca33d3e	-0.019926663
45	0xbc1d68ac	-0.009607475
46	0xba2e24e8	-0.00066430727
47	0x3fb0a54c	1.3800445
48	0x3f1d627d	0.61478406
49	0xbeaa9f36	-0.33324593
50	0x40216e06	2.5223403
51	0xbd49b1de	-0.049241893
52	0x3f920ae6	1.1409576
53	0xbb5cf05e	-0.0033712606
54	0xbf1835fb	-0.5945737
55	0x3ef002fb	0.46877274
56	0x3ecbb619	0.39787367
57	0xbe16eb37	-0.14738165
58	0xbd029ac8	-0.031885892
59	0x3fbe8fc2	1.4887621
60	0x3f5c76fc	0.86119056
61	0xbea47507	-0.32120535
62	0x3b0aede0	0.0021198913
63	0x3c92a2a7	0.017899824
64	0xbedf0289	-0.43556622
65	0xbe50a5b6	-0.20375714
66	0x3d4fc97e	0.050729267
67	0x3fb7099b	1.4299806
68	0xbcd90ccf	-0.026495365
69	0xba56d7bc	-0.0008195599
70	0x3c6fe224	0.0146413185
71	0xba7ed6f0	-0.0009721359
72	0xbc7bde60	-0.015372843
73	0x3fe34a9c	1.7757144
74	0x3bfd76f6	0.0077351285
75	0xbad34acb	-0.0016120313
76	0x3a9f5758	0.0012156768
77	0x3d2ef905	0.042717952
78	0xbae22b96	-0.0017255421
79	0xbde99504	-0.114053756
80	0x3fce02a6	1.6094558
81	0x3f954ec5	1.1664664
82	0xbba3f531	-0.0050035943
83	0x3f3ac21d	0.72952443
84	0x3c1c34a1	0.009534032
85	0xbdc006fa	-0.09376331
86	0xbd3c5d22	-0.045987256
87	0x3d06b77e	0.032889836
88	0x3f1e637b	0.61870545
89	0xbc41113a	-0.011783892
90	0xbc746d3c	-0.014918622
91	0x3e0e219d	0.1388001
92	0xb7ddd743	-2.6445492e-05
93	0xbc8813ca	-0.016610999
94	0xbb8fc280	-0.0043872
95	0xbe0e12ba	-0.13874331
96	0x3f8786b0	1.0587978
97	0x3f59a0a7	0.8501076
98	0x3f5fd0c7	0.87427944
99	0xbe3f91c5	-0.1870795
100	0xbdfee757	-0.12446468
101	0x3c3004d2	0.010743337
102	0x3bf45525	0.007456439
103	0xbc92b02e	-0.017906275
104	0x3c015938	0.007894807
105	0x3d966946	0.07344298
106	0x3f83a54e	1.0284822
107	0x3e52bd6b	0.2058007
108	0xbf16621a	-0.5874344
109	0x3eb85de6	0.3600914
110	0x3da74627	0.081676774
111	0x3a656e54	0.0008752097
112	0x3f7775c1	0.96664053
113	0x3fd08e45	1.6293417
114	0x3ccc88f7	0.024967654
115	0x3d0c35a2	0.034230836
116	0x3c147f58	0.009063564
117	0x3b381b82	0.0028092568
118	0xbc638f77	-0.013889185
119	0xbdd84fcf	-0.10562097
120	0xbc3b1942	-0.011419596
121	0xb89e4540	-7.546926e-05
122	0xbd27daf3	-0.04098029
123	0x3b5f7011	0.0034093896
124	0x3f9268d7	1.1438245
125	0xbceef761	-0.029170694
126	0x3affca02	0.0019515159
127	0xbd6b7bcb	-0.057491105
128	0x3c3a9bc5	0.011389677
129	0xbe9c05e0	-0.30473232
130	0x3cd5e5ee	0.026110616
131	0xbd259ac5	-0.040430803
132	0xbc782f94	-0.015148062
133	0xbd896a27	-0.067097
134	0xbead8ccd	-0.33896485
135	0xbe9eb94f	-0.31000754
136	0xbdd5e269	-0.10443575
137	0xbc32b293	-0.010906833
138	0x3d80f549	0.062967844
139	0x3a81b7cf	0.0009896698
140	0x3b530cd6	0.0032203696
141	0x3b41e165	0.0029583809
142	0xbce9a0f5	-0.028519133
143	0xbbe8345d	-0.0070863203
144	0xbcd79e94	-0.026320733
145	0xbce0de2b	-0.027449688
146	0xbc7da46f	-0.015481099
147	0xbe18fa0e	-0.14939138
148	0xbc809cd8	-0.015699789
149	0xbe9f451f	-0.31107423
150	0x3e0ab46c	0.13545388
151	0x3cdb6840	0.026783109
152	0x3b970c6d	0.0046096356
153	0xbcbf8fbe	-0.023383971
154	0xbd97058b	-0.07374104
155	0xbc8cffcf	-0.017211823
156	0x3ca69abe	0.020337459
157	0xbdbb4429	-0.0914386
158	0x3e148370	0.14503264
159	0x3c3ca9cb	0.011515091
160	0xbd170639	-0.03687117
161	0xbda1eabe	-0.07906102
162	0xbc1d04c3	-0.009583655
163	0xbbd2c985	-0.0064327144
164	0x3bf083c5	0.007339927
165	0xbc523467	-0.0128298765
166	0x3daae48c	0.08344373
167	0x3ceb15dc	0.028696947
168	0xbd6c396a	-0.05767194
169	0xbcdb66ff	-0.02678251
170	0x3d3ee765	0.046607394
171	0xbe9037f8	-0.281677
172	0xbe94fed9	-0.29100683
173	0xba7cd573	-0.00096448435
174	0x3c5abe56	0.013351044
175	0x3cf42092	0.029800687
176	0xbdc3d091	-0.09561265
177	0xbd6dc247	-0.058046605
178	0x3bf76a00	0.007550478
179	0xbec75024	-0.3892833
180	0x3dba4d17	0.09096735
181	0x39485972	0.00019106807
182	0x3ba07940	0.0048972666
183	0xb8c9f7cf	-9.630585e-05
184	0x3d4314d7	0.047627296
185	0xbec0d0aa	-0.37659198
186	0xbe1d086f	-0.15335248
187	0x3d832ae4	0.06404665
188	0x3db9e438	0.090767324
189	0x3c8826f6	0.01662014
190	0xbeaded5b	-0.3397015
191	0xbe23f4b6	-0.16011319
192	0xbd7d7752	-0.06188137
193	0xbddf8816	-0.10914628
194	0xbe324260	-0.17408133
195	0xbd0be802	-0.034156807
196	0x3c00617a	0.00783574
197	0xbb8fbf3a	-0.0043868097
198	0xbaf70136	-0.0018844965
199	0xbc852036	-0.016250711
200	0xbec80b4d	-0.39071122
201	0x3d704f7e	0.05866956
202	0xbcc61401	-0.02417946
203	0xbeb098e0	-0.34491634
204	0x3c7219ea	0.014776686
205	0xbdacdef5	-0.08440963
206	0xbc91375b	-0.01772659
207	0xbe47929a	-0.19489518
208	0xbd8eee72	-0.069790736
209	0x3c89d52c	0.016825281
210	0xbec0d4e9	-0.37662438
211	0x3caa5ea9	0.02079709
212	0x3b0c5fc5	0.0021419388
213	0xbc328f12	-0.010898368
214	0xbc4d3d72	-0.012526857
215	0x3b6c2efb	0.0036038745
216	0xbe04074c	-0.12893409
217	0xbba008bb	-0.0048838533
218	0x3b154ec6	0.0022782548
219	0xbe9c1af4	-0.30489314
220	0xbb9161c3	-0.004436703
221	0xbc78932f	-0.01517181
222	0x3910feb6	0.00013827797
223	0xbe1ff7f7	-0.15621935
224	0x3d60e8e8	0.054909617
225	0x3dccde69	0.10003359
226	0xbc9d6b56	-0.01921622
227	0xbcd2c2ca	-0.025727648
228	0xbbc7c406	-0.006096366
229	0xbbe614e5	-0.007021534
230	0xbea84568	-0.32865453
231	0x3cb6cd52	0.022314701
232	0xbeb45d09	-0.3522723
233	0xbead0473	-0.33792457
234	0x3da20beb	0.079124294
235	0x3c44b128	0.012005128
236	0xbe061f11	-0.13097788
237	0x3be0d68a	0.0068615125
238	0xbe35533a	-0.1770753
239	0xbea2361b	-0.31681904
240	0x3e01e1bc	0.12683767
241	0x3c6f5886	0.014608508
242	0xbeb139d7	-0.3461444
243	0x3b9fe523	0.00487961
244	0xbb7eb20f	-0.0038863455
245	0xbbb438ef	-0.005499951
246	0xbcc69588	-0.024241224
247	0x3dd56489	0.10419566
248	0xbeb6c1fb	-0.3569487
249	0xbc0ee612	-0.008721845
250	0xbc8388df	-0.016056476
251	0xbb48325e	-0.00305476
252	0xbbb95c25	-0.0056567364
253	0xbeabc3e7	-0.335479
254	0x3ba95c6c	0.0051684882
255	0xbeb39b4f	-0.3507943

action_model._continuous_distribution.mu.bias f4 [2]
0	0x3f7fa44c	0.9986007
1	0xbda07f29	-0.07836754

action_model._discrete_distribution.branches.0.weight f4 [1, 128]
0	0xbacc0af1	-0.0015567226
1	0xbcdff658	-0.027339146
2	0x3b56416b	0.00326928
3	0x3bd1ce6d	0.0064027817
4	0x3b8bddfd	0.0042684064
5	0xbc4dce7a	-0.012561435
6	0x3ab165bb	0.0013534346
7	0x3c318c08	0.010836609
8	0xbb82c5a7	-0.003990847
9	0x3c0fa2bd	0.008766827
10	0x3bb75909	0.0055953306
11	0x3c9bfa0a	0.019040126
12	0x3c4febad	0.012690467
13	0x3940600c	0.00018346327
14	0xbad4d500	-0.0016237795
15	0x3c56f8f0	0.013120875
16	0x3b7c77a7	0.0038523467
17	0xbbadc5c7	-0.005303118
18	0xbc488f3a	-0.012241179
19	0xbb8a2215	-0.0042154887
20	0xbc52caf2	-0.012865769
21	0x3b8eda6a	0.004359533
22	0xbc08ca7d	-0.008349058
23	0x3ae665cb	0.0017577944
24	0xbc02db77	-0.007986895
25	0xbbc23199	-0.0059263227
26	0xbc05f8e9	-0.008177021
27	0x3c52ac3d	0.012858448
28	0xbc1f3be0	-0.009718865
29	0x3c4fbd5b	0.012679423
30	0x3b29349b	0.0025818709
31	0xbc8ed1ab	-0.017433962
32	0xbc603428	-0.01368431
33	0xbb146b60	-0.0022647008
34	0xbc401b10	-0.011725202
35	0xbb880a7b	-0.00415164
36	0x3be7453f	0.0070578153
37	0xbc5499ad	-0.012976092
38	0x3bf5826f	0.0074923555
39	0x3ba2fcf0	0.004974
40	0xbc2810b1	-0.010257886
41	0xbc3c3534	-0.011487294
42	0x3c9619de	0.018322881
43	0xbb5d4578	-0.003376333
44	0x3b30754d	0.0026925385
45	0x3b822293	0.0039714067
46	0x3a06cd3a	0.00051422755
47	0xbc84595f	-0.016155897
48	0xbaa64bb7	-0.001268736
49	0x398520b7	0.0002539211
50	0x3c0d7a45	0.008635108
51	0x3bd60945	0.0065318667
52	0x3c2c47e3	0.010515186
53	0x3abddb65	0.001448494
54	0xbbf99a05	-0.0076172375
55	0x3c04f472	0.008114921
56	0xbc365df8	-0.011130802
57	0xbc840555	-0.016115824
58	0xbc566b97	-0.013087175
59	0xbbf391ed	-0.007433167
60	0xbc187f49	-0.009307691
61	0xb76de76d	-1.4180184e-05
62	0x3ba697af	0.005084
63	0x3c06f64f	0.0082374355
64	0x3b863ce3	0.0040966137
65	0x39cfb1da	0.00039614626
66	0x3be18a13	0.006882915
67	0xbbb80793	-0.0056161373
68	0x3bcea79a	0.0063066008
69	0x3b22d2c6	0.002484487
70	0xbcc43d9f	-0.023955164
71	0xbb0a8242	-0.0021134769
72	0x3c1fae83	0.009746197
73	0x3bfda0eb	0.00774013
74	0xbc218144	-0.0098574795
75	0xbb2f0717	-0.0026707107
76	0xbc2ea56f	-0.01065956
77	0x3bb8ead5	0.0056432285
78	0x3b908e9d	0.004411532
79	0x3c04da67	0.008108712
80	0x3ab68110	0.0013923962
81	0x3c9dfaf6	0.019284707
82	0xb8b414f2	-8.58697e-05
83	0x3c85a9c4	0.016316302
84	0xbc9d6431	-0.019212814
85	0x3ab677f3	0.0013921246
86	0x3bed1235	0.0072348365
87	0xbc944218	-0.018097922
88	0x3c2f3b74	0.010695327
89	0x3b12e960	0.0022416934
90	0x3ad70617	0.0016405013
91	0xbc3e4449	-0.01161296
92	0x3c1a0917	0.009401581
93	0x3be3c380	0.0069507957
94	0xbb1cdac2	-0.00239341
95	0xbbba2e43	-0.0056817844
96	0x3b909388	0.0044121183
97	0xbac39a8f	-0.0014923381
98	0xbc0f63af	-0.008751794
99	0x3c05b0db	0.008159841
100	0x3b9c7d1d	0.004775657
101	0x3b816b43	0.003949554
102	0x3c8ebaec	0.017423116
103	0x3c0949ab	0.00837938
104	0x3c092a53	0.008371907
105	0xbbb37a0a	-0.0054771947
106	0x3bd4e2c3	0.0064967587
107	0xbbe9d342	-0.0071357796
108	0x3b7cad1d	0.0038555332
109	0xbb2d3959	-0.0026431887
110	0xbbf84f1b	-0.0075777895
111	0xbc13b7d8	-0.009016
112	0xbb88c23b	-0.0041735447
113	0xbc3577e5	-0.011075948
114	0xbb4f38bb	-0.0031619507
115	0xbc177add	-0.0092456015
116	0xbbb11a87	-0.0054047736
117	0xbb8ea5bc	-0.004353253
118	0x3c1cddc8	0.009574361
119	0x3c15df61	0.009147496
120	0xbbc41466	-0.005983877
121	0x3c4645bb	0.012101586
122	0xbb0cc833	-0.0021481633
123	0xbc2dfed8	-0.0106198415
124	0xbaf403c8	-0.001861685
125	0x3c211524	0.0098317005
126	0xbc2bd5df	-0.010488003
127	0xbb40d7c3	-0.002942548

exp_avg f4 [128, 27]
0	0x303b4c82	6.813893e-10
1	0x3c633895	0.013868471
2	0x2f97e493	2.7629152e-10
3	0x3c0c9d5b	0.008582438
4	0x2e865f24	6.110515e-11
5	0x3b8b2f28	0.004247565
6	0xaebad4b2	-8.496083e-11
7	0x3bd94612	0.0066306675
8	0x0abb6886	1.8046762e-32
9	0x3bc7bfd0	0.006095864
10	0xb2216e1c	-9.396469e-09
11	0x3c37d25e	0.011219589
12	0xb2216e1c	-9.396469e-09
13	0x3c37d263	0.011219594
14	0xbf970a24	-1.179997
15	0x3c07a2ec	0.00827859
16	0xbff7965b	-1.934276
17	0xb4d308e5	-3.9308284e-07
18	0xbc539e19	-0.012916111
19	0x346f410f	2.2282278e-07
20	0x3c29bfcf	0.010360672
21	0xb7cb235c	-2.4215951e-05
22	0x3788d67d	1.6312342e-05
23	0x38afc61d	8.381552e-05
24	0x3885f727	6.38797e-05
25	0xb598c05a	-1.1380864e-06
26	0x37a13f2e	1.9222116e-05
27	0xb0515b1c	-7.616323e-10
28	0xbcff7c11	-0.03118709
29	0x27d8f8bf	6.0221734e-15
30	0xbc9e94ee	-0.019358125
31	0x84db6d54	-5.1587055e-36
32	0xbc152ce0	-0.009104937
33	0x0f07fb66	6.7044315e-30
34	0xbc736113	-0.014854687
35	0x00000004	6e-45
36	0xbc56f99b	-0.013121034
37	0x2be983dd	1.6592245e-12
38	0xbcc52e61	-0.024069967
39	0x2be983dd	1.6592245e-12
40	0xbcc52e5b	-0.024069956
41	0x4029885a	2.6489472
42	0xbc984531	-0.01858768
43	0x408af4e2	4.342393
44	0x356962aa	8.694284e-07
45	0x3cee1b53	0.029065764
46	0xb50a46dd	-5.1512126e-07
47	0xbcbdee4c	-0.023184918
48	0x3855c834	5.096961e-05
49	0xb69bc867	-4.64269e-06
50	0xb944493a	-0.00018719296
51	0xb91817db	-0.00014504736
52	0x36186115	2.2706274e-06
53	0xb829522a	-4.036926e-05
54	0x30942612	1.0779238e-09
55	0x3d4c6a3a	0.049905993
56	0x2f1da604	1.4338047e-10
57	0x3cfdff6b	0.031005582
58	0x13fd91bb	6.400988e-27
59	0x3c75dc97	0.015006206
60	0x9ba554ed	-2.7351842e-22
61	0x3cc28b17	0.023747964
62	0x80000004	-6e-45
63	0x3cb163b3	0.021653986
64	0xb05e6316	-8.090394e-10
65	0x3d22ab62	0.039714225
66	0xb05e6316	-8.090394e-10
67	0x3d22ab63	0.03971423
68	0xc08793bf	-4.2367854
69	0x3cf38e6e	0.029731002
70	0xc0de4328	-6.945698
71	0xb5ba6e2a	-1.3890142e-06
72	0xbd3e8be5	-0.046520133
73	0x356374a4	8.4733824e-07
74	0x3d17c226	0.03705039
75	0xb8ab14d2	-8.1577935e-05
76	0xb71c499d	-9.315464e-06
77	0x399ef799	0.00030320583
78	0x3976e633	0.00023546144
79	0xb63ef6ce	-2.8455866e-06
80	0x38870c34	6.439575e-05
81	0x30a4d301	1.1992541e-09
82	0xbc0084a1	-0.007844121
83	0x2e618f5a	5.12864e-11
84	0xbb9f6637	-0.00486448
85	0xad80ed1a	-1.465721e-11
86	0xbb0e453f	-0.0021708754
87	0x2dbd4e5f	2.1521616e-11
88	0xbb74ee46	-0.0037373467
89	0x89b67c57	-4.3931835e-33
90	0xbb4cc3fe	-0.003124475
91	0x311ccc06	2.2816962e-09
92	0xbbbbacba	-0.0057273777
93	0x311ccc06	2.2816962e-09
94	0xbbbbacad	-0.0057273717
95	0x3f2a9881	0.6663895
96	0xbb993caa	-0.004676421
97	0x3f8bd1ff	1.0923461
98	0x346189bc	2.1004865e-07
99	0x3bef82d9	0.0073092994
100	0xb4056035	-1.242159e-07
101	0xbbbf3ddb	-0.005836231
102	0x3753edb4	1.2631925e-05
103	0xb6ff17e7	-7.602375e-06
104	0xb83c1b90	-4.4848362e-05
105	0xb8116815	-3.4667628e-05
106	0x35786937	9.2540307e-07
107	0xb7296a57	-1.0097944e-05
108	0xa4b519a8	-7.85397e-17
109	0x3108d00b	1.9908863e-09
110	0x9dd439db	-5.6175754e-21
111	0x30a986ac	1.2334644e-09
112	0x0cf31fbb	3.7459175e-31
113	0x300b7a19	5.0741417e-10
114	0x952b7ac6	-3.4630026e-26
115	0x3082d8a4	9.520318e-10
116	0x80000004	-6e-45
117	0x30480afa	7.2775175e-10
118	0xa1857274	-9.042726e-19
119	0x30b7be6e	1.3369126e-09
120	0xa1857274	-9.042726e-19
121	0x30b7be4d	1.3369089e-09
122	0xb435e889	-1.6941534e-07
123	0x30a354e4	1.1883938e-09
124	0xb49516e8	-2.777008e-07
125	0xa980a76f	-5.713387e-14
126	0xb0fee610	-1.854632e-09
127	0x2903db68	2.9278148e-14
128	0x30cc4e5b	1.4865223e-09
129	0xac68707a	-3.303162e-12
130	0x2c105d7e	2.051553e-12
131	0x2d4d45a6	1.1668366e-11
132	0x2d1dcb2e	8.969532e-12
133	0xaa5fa358	-1.986305e-13
134	0x2c391c20	2.6305694e-12
135	0x122dd6d6	5.485398e-28
136	0x9e8d6c56	-1.4973762e-20
137	0x04161598	1.764233e-36
138	0x9e2f3498	-9.275299e-21
139	0x00000004	6e-45
140	0x9da5e123	-4.3907922e-21
141	0x00000dc6	4.941e-42
142	0x9e06ecb9	-7.142854e-21
143	0x80000004	-6e-45
144	0x9dee6ec1	-6.3112592e-21
145	0x0bd7da54	8.314349e-32
146	0x9e5ae787	-1.1588703e-20
147	0x0bd7da54	8.314349e-32
148	0x9e5ae783	-1.15886994e-20
149	0x21bbd293	1.2727351e-18
150	0x9e28b46e	-8.931158e-21
151	0x2219f0e5	2.0862895e-18
152	0x16fc6f2d	4.0782958e-25
153	0x1e83be69	1.3948916e-20
154	0x969548e8	-2.4118259e-25
155	0x9e52cb2d	-1.1159323e-20
156	0x19f311ad	2.513275e-23
157	0x99a0ff97	-1.6646844e-23
158	0x9ad40ba7	-8.769997e-23
159	0x9aa2c966	-6.7327006e-23
160	0x17f07ade	1.5540653e-24
161	0x99c1bae1	-2.0031212e-23
162	0x316c393e	3.4375058e-09
163	0xbe492e88	-0.19646657
164	0xaf2340dc	-1.4847806e-10
165	0xbdf94309	-0.12170989
166	0xaf40ed82	-1.7546678e-10
167	0xbd6ae67e	-0.05734872
168	0x2f8835ea	2.4776564e-10
169	0xbdc044ef	-0.09388148
170	0x8cc0dca2	-2.9715072e-31
171	0xbda8b1df	-0.08237051
172	0x32f2ecf2	2.8280258e-08
173	0xbe1b1db8	-0.15148056
174	0x32f2ecf2	2.8280258e-08
175	0xbe1b1db1	-0.15148045
176	0x4185b2ad	16.712244
177	0xbdf01dcf	-0.117244355
178	0x41db2963	27.395208
179	0x36badeca	5.569168e-06
180	0x3e3b68ee	0.18301746
181	0xb6502f37	-3.1021898e-06
182	0xbe162265	-0.14661558
183	0x39afbfc6	0.00033521483
184	0xb94bc5b5	-0.0001943324
185	0xba9a3d25	-0.001176749
186	0xba6c3f5c	-0.0009012127
187	0x37891a47	1.6343909e-05
188	0xb98b83fe	-0.00026610488
189	0x31d36c37	6.153211e-09
190	0xbbab722a	-0.0052321153
191	0x2a092445	1.2180628e-13
192	0xbb474420	-0.0030405596
193	0x0b18d2ba	2.9432668e-32
194	0xba231269	-0.00062207
195	0x9445e06f	-9.99022e-27
196	0xbb2fa700	-0.002680242
197	0x80000004	-6e-45
198	0xba33b4d2	-0.00068552524
199	0x2e83b81e	5.989896e-11
200	0xbabcb2ac	-0.001439651
201	0x2e83b81e	5.989896e-11
202	0xbabcb0c0	-0.0014395937
203	0x3eebc5b5	0.46049276
204	0xbb530fa5	-0.003220537
205	0x3f40dcbb	0.7533681
206	0x3424d1a8	1.5349963e-07
207	0x3b9d8664	0.0048072804
208	0x330f8ccc	3.3422836e-08
209	0xbb8c5295	-0.0042823055
210	0x3781dc3b	1.5480551e-05
211	0xb912ee41	-0.00014012402
212	0xb784a72a	-1.5813468e-05
213	0xb6b5d38b	-5.418847e-06
214	0x36907936	4.3056452e-06
215	0xb76011e6	-1.3355608e-05
216	0xafeaea63	-4.2730894e-10
217	0xbd28a8c5	-0.041176576
218	0xae481f0d	-4.5502314e-11
219	0xbcd11e1d	-0.025527054
220	0x2c47e745	2.8407981e-12
221	0xbc4c2177	-0.0124591505
222	0xacbc6908	-5.354942e-12
223	0xbca0eef5	-0.019645194
224	0x06c83ae5	7.5318176e-35
225	0xbc92d4fa	-0.01792382
226	0x2f9b249e	2.8220354e-10
227	0xbd06e7c3	-0.03293587
228	0x2f9b249e	2.8220354e-10
229	0xbd06e7c3	-0.03293587
230	0x405fffbf	3.4999845
231	0xbcc92d13	-0.024557626
232	0x40b799a0	5.737503
233	0x359b0e44	1.1552552e-06
234	0x3d1d23c3	0.038364183
235	0xb5357969	-6.760443e-07
236	0xbcfb4aa5	-0.030675242
237	0x3892565b	6.9779075e-05
238	0xb7ccc4a8	-2.441027e-05
239	0xb982718a	-0.00024880125
240	0xb9489102	-0.00019127506
241	0x364b29df	3.027373e-06
242	0xb867e00f	-5.5283363e-05
243	0xa61626f3	-5.209449e-16
244	0x336fb0d5	5.580735e-08
245	0x965ec7c1	-1.7996048e-25
246	0x3314fa1d	3.4686412e-08
247	0x80000004	-6e-45
248	0x327cb497	1.4709392e-08
249	0x80000004	-6e-45
250	0x32e46c7e	2.659203e-08
251	0x80000004	-6e-45
252	0x32b63408	2.121125e-08
253	0x9fe7330f	-9.7916775e-20
254	0x3326f982	3.8876813e-08
255	0x9fe7330f	-9.7916775e-20

exp_avg_sq f4 [128, 27]
0	0x3a3406f3	0.00068674906
1	0x3d1b91f1	0.037980977
2	0x39d4f372	0.00040617172
3	0x3c64cade	0.013964383
4	0x39edfd89	0.0004539306
5	0x3b8e3cd8	0.0043407492
6	0x3940a389	0.00018371468
7	0x3c2a6eab	0.010402362
8	0x38947b35	7.080139e-05
9	0x3bc8b1fc	0.006124733
10	0x3a3d8bb9	0.0007230598
11	0x3cc3bd9f	0.02389413
12	0x3a3d8bbb	0.00072305993
13	0x3cc3bd99	0.023894118
14	0x44612fde	900.7479
15	0x3c8b58fb	0.017010203
16	0x44521d4f	840.45795
17	0x356de059	8.861585e-07
18	0x3d096228	0.033540875
19	0x34523522	1.9577104e-07
20	0x3cd41102	0.025887016
21	0x351f3ca1	5.932034e-07
22	0x382313b2	3.888057e-05
23	0x36065446	2.001661e-06
24	0x37b77396	2.1869124e-05
25	0x346b058f	2.1888103e-07
26	0x37586db2	1.2900144e-05
27	0x39ba7d73	0.00035570152
28	0x3d89c75d	0.06727479
29	0x305b9afb	7.9891976e-10
30	0x3cbd9c58	0.02314584
31	0x34803367	2.3879258e-07
32	0x3be32b34	0.0069326404
33	0x2b3a12c8	6.610654e-13
34	0x3c926aaa	0.017873127
35	0x34004c83	1.1948764e-07
36	0x3c29cdf2	0.010364043
37	0x34d6e97f	4.0030497e-07
38	0x3d22f832	0.03978748
39	0x34d6e97f	4.0030497e-07
40	0x3d22f82e	0.039787464
41	0x43fa1fb8	500.2478
42	0x3ccd47ac	0.02505859
43	0x44aaa75a	1365.2297
44	0x2e94dc02	6.769342e-11
45	0x3d6381ae	0.055543594
46	0x2dd94a42	2.4703021e-11
47	0x3d374bc5	0.044749994
48	0x34981ce0	2.8333216e-07
49	0x35213ad9	6.006281e-07
50	0x3642801a	2.8982818e-06
51	0x35eceffd	1.7653216e-06
52	0x321b56f3	9.041957e-09
53	0x343d7d2f	1.7647538e-07
54	0x39099760	0.0001312173
55	0x3d192f0a	0.037398376
56	0x38342b9e	4.2955966e-05
57	0x3c5840f0	0.013199076
58	0x37d8ff78	2.5868168e-05
59	0x3b76f38d	0.0037681789
60	0x37dc1b48	2.6238748e-05
61	0x3c1e6467	0.0096674925
62	0x37da87fa	2.6050944e-05
63	0x3bc6db81	0.0060686474
64	0x38eab817	0.00011192279
65	0x3cbf5c17	0.023359342
66	0x38eab817	0.00011192279
67	0x3cbf5c18	0.023359343
68	0x43966e6b	300.86264
69	0x3c87a073	0.016556
70	0x443feb7b	767.6794
71	0x2ff108b1	4.384382e-10
72	0x3d0112ea	0.03151218
73	0x2f8b827f	2.5376676e-10
74	0x3cc63ac7	0.02419795
75	0x3456e889	2.0014899e-07
76	0x378a8f8c	1.6517726e-05
77	0x35e11305	1.6769342e-06
78	0x358dfb28	1.0578415e-06
79	0x320095d7	7.48465e-09
80	0x341403da	1.3784975e-07
81	0x3a78ac88	0.00094861584
82	0x3d116e8d	0.03550582
83	0x3867159d	5.509482e-05
84	0x3c3d811d	0.011566428
85	0x388077c1	6.1258215e-05
86	0x3b78ad2a	0.003794501
87	0x37c94ddd	2.3997325e-05
88	0x3c219144	0.009861294
89	0x3726770b	9.922088e-06
90	0x3b969dfd	0.0045964704
91	0x38aba38d	8.184379e-05
92	0x3c9dd434	0.019266225
93	0x38aba38f	8.1843806e-05
94	0x3c9dd464	0.019266315
95	0x43a2d397	325.65305
96	0x3c58f7d7	0.013242683
97	0x443133bf	708.80853
98	0x344b4299	1.8930076e-07
99	0x3ce278aa	0.027645428
100	0x3340ca24	4.488733e-08
101	0x3cc6c350	0.024263054
102	0x34203d26	1.4923407e-07
103	0x3699933a	4.5768948e-06
104	0x35c01ad1	1.4312919e-06
105	0x367b7a26	3.7473014e-06
106	0x327bf8ce	1.46666945e-08
107	0x35eb15cc	1.7515208e-06
108	0x256d6da1	2.0593617e-16
109	0x26d9abdd	1.5103983e-15
110	0x25cc6ff2	3.5464216e-16
111	0x273e9978	2.6450992e-15
112	0x255d3488	1.9186493e-16
113	0x268e1f62	9.861736e-16
114	0x1ce56625	1.5180353e-21
115	0x2735041e	2.5121028e-15
116	0x29cf2e1c	9.2006453e-14
117	0x29f5f6ee	1.0923021e-13
118	0x1fc3889f	8.281173e-20
119	0x2888e2a0	1.5197316e-14
120	0x1fc3889f	8.281173e-20
121	0x2888e2a0	1.5197316e-14
122	0x2f81be81	2.3600324e-10
123	0x29359aa4	4.0324203e-14
124	0x3091d1a1	1.0609719e-09
125	0x1bafcbcd	2.9083025e-22
126	0x27c94a75	5.5869433e-15
127	0x1c19c808	5.088199e-22
128	0x2a2f57a4	1.5573529e-13
129	0x1fdc7645	9.3369285e-20
130	0x210a62d3	4.688701e-19
131	0x2253bc7a	2.869561e-18
132	0x21f70333	1.6738218e-18
133	0x20860ca1	2.270884e-19
134	0x1f65fdb7	4.8702504e-20
135	0x1ebf1757	2.0232565e-20
136	0x213e56df	6.4489477e-19
137	0x1ebc1d45	1.991738e-20
138	0x1f466c99	4.201796e-20
139	0x1cada7c8	1.149155e-21
140	0x1f7600a2	5.209305e-20
141	0x1ebb1846	1.9809434e-20
142	0x1fcb43e4	8.608616e-20
143	0x1dd5c21f	5.6581347e-21
144	0x1fdf5bb2	9.459587e-20
145	0x1ec7751a	2.1118377e-20
146	0x21857d79	9.045643e-19
147	0x1ec7751a	2.1118377e-20
148	0x21857e28	9.045824e-19
149	0x2c2258dc	2.3070912e-12
150	0x23cc51cf	2.2152372e-17
151	0x2b0f1a48	5.084028e-13
152	0x1883180c	3.3886987e-24
153	0x240c5c9f	3.0436114e-17
154	0x18f0a19a	6.220172e-24
155	0x24678b61	5.02082e-17
156	0x1bf0de91	3.98485e-22
157	0x1e73c319	1.2904658e-20
158	0x1d469a7b	2.6284946e-21
159	0x1ca7e7ba	1.1111033e-21
160	0x19a85038	1.7403193e-23
161	0x1b88aa9d	2.260957e-22
162	0x3c8cc702	0.017184738
163	0x4012b5f0	2.2923546
164	0x3ad2d009	0.0016083728
165	0x3f529347	0.8225598
166	0x3b09ce40	0.0021027476
167	0x3e7cfe87	0.2470647
168	0x3a5bd766	0.0008386284
169	0x3f1ac265	0.6045287
170	0x39d3ebbd	0.00040420695
171	0x3ed0a0ae	0.4074759
172	0x3b15ce9d	0.0022858747
173	0x3fc36265	1.5264403
174	0x3b15cea4	0.0022858763
175	0x3fc36275	1.5264422
176	0x46991225	19593.072
177	0x3f692210	0.910676
178	0x473c0e79	48142.473
179	0x3692cfa4	4.3753116e-06
180	0x3ffdaeeb	1.9819006
181	0x35aeaae7	1.3013749e-06
182	0x3fc42773	1.5324539
183	0x37d6a1e0	2.5586167e-05
184	0x399c4e04	0.00029812765
185	0x390865c4	0.00013007881
186	0x38cb6d84	9.700193e-05
187	0x35acc604	1.2872629e-06
188	0x3796dd0c	1.7984326e-05
189	0x3c086c5d	0.008326617
190	0x3f087b69	0.5331331
191	0x2cc0369a	5.46303e-12
192	0x3e46f173	0.19428043
193	0x32033635	7.637529e-09
194	0x3d61860c	0.055059478
195	0x26927aef	1.0164106e-15
196	0x3e144041	0.14477636
197	0x30f1728e	1.7567616e-09
198	0x3db3f1b2	0.08786334
199	0x345804d7	2.0118328e-07
200	0x3ea93ab6	0.33052605
201	0x345804d7	2.0118328e-07
202	0x3ea93ab9	0.33052614
203	0x457f53d2	4085.2388
204	0x3e51bbcd	0.20481797
205	0x462f990f	11238.265
206	0x302ddd33	6.3251376e-10
207	0x3eec343a	0.46133596
208	0x2fc363cb	3.55412e-10
209	0x3eb7e8bb	0.35919747
210	0x36754955	3.655053e-06
211	0x370f79f2	8.551857e-06
212	0x37de4a22	2.6498983e-05
213	0x3789422e	1.636249e-05
214	0x3411fd61	1.3596356e-07
215	0x3623deca	2.4418573e-06
216	0x3a075c35	0.0005163581
217	0x3daa2845	0.08308462
218	0x3855c964	5.0970717e-05
219	0x3cf00140	0.029297471
220	0x38094f07	3.2736945e-05
221	0x3c010e6c	0.007876974
222	0x386b7fbf	5.614734e-05
223	0x3ca6b517	0.020350022
224	0x37ef6ac6	2.854074e-05
225	0x3c62e5b0	0.013848707
226	0x38e6b20e	0.0001100042
227	0x3d5192b2	0.05116529
228	0x38e6b20e	0.0001100042
229	0x3d5192b0	0.051165283
230	0x444828c8	800.6372
231	0x3d03f1ca	0.03221301
232	0x44d458f1	1698.7794
233	0x345dafbf	2.0646165e-07
234	0x3d90d6e9	0.07072241
235	0x335ce04a	5.142673e-08
236	0x3d543c33	0.051815223
237	0x3542aadf	7.251928e-07
238	0x38d4af5a	0.000101416095
239	0x3695dbbc	4.4661265e-06
240	0x37edb764	2.8338e-05
241	0x3630478a	2.6267685e-06
242	0x37197e30	9.148891e-06
243	0x2b28024e	5.968879e-13
244	0x2e71f40e	5.501382e-11
245	0x29e2335c	1.00453256e-13
246	0x2d876061	1.5390524e-11
247	0x2ea1dcdf	7.360667e-11
248	0x2eb475c6	8.206373e-11
249	0x23dd02c1	2.3962034e-17
250	0x2d53d0fa	1.20403635e-11
251	0x2e5379d0	4.8084037e-11
252	0x2e81baad	5.899401e-11
253	0x1f6637cc	4.875055e-20
254	0x2e38866a	4.195614e-11
255	0x1f6637cc	4.875055e-20

exp_avg f4 [128]
0	0x3c87a489	0.016557949
1	0xbd184a2d	-0.037180115
2	0x3d739860	0.059471488
3	0xbc193f48	-0.009353466
4	0x312355f5	2.3768483e-09
5	0x9ea8b70b	-1.7863397e-20
6	0xbe702150	-0.23450208
7	0xbbd2a343	-0.0064281537
8	0xbd493206	-0.04911997
9	0x338edf0d	6.652963e-08
10	0x3c53cef0	0.012927756
11	0xbd63bc60	-0.05559957
12	0x24a63f56	7.209832e-17
13	0x3ce14475	0.027498463
14	0x286e0add	1.321401e-14
15	0x1d4d7a76	2.7194835e-21
16	0x27931eea	4.0834213e-15
17	0xbca2915d	-0.019844705
18	0x27dd7897	6.1470566e-15
19	0x0eedcd65	5.86228e-30
20	0x3c4b2c74	0.012400735
21	0xbc65dc3b	-0.014029558
22	0xb0da8b1a	-1.5901123e-09
23	0xbd94ed11	-0.07271779
24	0x28694400	1.2948843e-14
25	0xbd5b24d2	-0.05350191
26	0xbcd36a7b	-0.02580761
27	0xbc5ff0f4	-0.013668288
28	0x37a4543d	1.958955e-05
29	0xbcda7508	-0.026667133
30	0x238d135d	1.5295451e-17
31	0x3d0f2366	0.034945868
32	0x3bb55145	0.0055333697
33	0x3a371e75	0.00069854344
34	0x3d0a4f8f	0.03376728
35	0x214d77d9	6.961532e-19
36	0xbd834302	-0.06409265
37	0x3c68eac4	0.014216129
38	0x3daebb4a	0.08531816
39	0xa6f910c3	-1.7282389e-15
40	0xa598304b	-2.6400521e-16
41	0x3d972cdc	0.07381603
42	0xbd3d3efc	-0.046202645
43	0x2c2b127b	2.431082e-12
44	0xbc542be4	-0.012949917
45	0xbc12e8e2	-0.008966656
46	0xbc2f00e4	-0.010681365
47	0xbb5410d8	-0.0032358672
48	0xbc4982d4	-0.012299258
49	0x2d1873f7	8.665949e-12
50	0x3d3da621	0.04630101
51	0x3ce02d81	0.027365448
52	0x32feea8b	2.967615e-08
53	0xbcc5f3f3	-0.024164176
54	0x3cccf3b3	0.025018549
55	0x325d1db9	1.2870651e-08
56	0x3cb2492f	0.021763412
57	0x3c2b5260	0.010456651
58	0x3c55d14d	0.0130503895
59	0x2ea8f0c1	7.682522e-11
60	0xa6624718	-7.850585e-16
61	0xbcd37127	-0.025810791
62	0x30258d01	6.022703e-10
63	0xbca7220e	-0.02040198
64	0x3bc38e8d	0.005967921
65	0xbce2a593	-0.027666843
66	0x2a58e37c	1.9263578e-13
67	0xbc2dcf20	-0.0106084645
68	0xbd33336a	-0.043750204
69	0xbb06f6fb	-0.002059399
70	0xbd51b28c	-0.051195666
71	0xb123ea73	-2.385289e-09
72	0xbb671abb	-0.0035263735
73	0xbb25d9e7	-0.0025306882
74	0x1f740905	5.167647e-20
75	0xae41f28d	-4.4098548e-11
76	0x3d8c37af	0.06846558
77	0x3d01f576	0.03172823
78	0xbd3b11ad	-0.045671154
79	0x93c62e68	-5.0027987e-27
80	0x3d2e5a88	0.042566806
81	0xb1c5cade	-5.756518e-09
82	0xb0d74335	-1.566241e-09
83	0xb14d6f7c	-2.9894798e-09
84	0x3c585ca7	0.013205684
85	0x3d39d88d	0.045372535
86	0xbb4cd718	-0.0031256136
87	0x3c1e4599	0.009660148
88	0xbd4be827	-0.049781945
89	0xbce4bd23	-0.027922219
90	0x3d57140d	0.052509356
91	0x3d05ca1b	0.032663446
92	0x1750e394	6.749567e-25
93	0xbc99d76b	-0.018779477
94	0x3ac5481c	0.0015051397
95	0xbc182fb0	-0.009288713
96	0xbcc4cd78	-0.024023756
97	0xa5370546	-1.5874507e-16
98	0x3ebf2a5c	0.37337005
99	0xbcdeae09	-0.027182596
100	0xaace059f	-3.659685e-13
101	0x3c4f693c	0.012659367
102	0xa850e4f7	-1.1595968e-14
103	0x3005d212	4.8683646e-10
104	0xbd1e1027	-0.038589623
105	0x38923124	6.970976e-05
106	0xbccc3a3a	-0.024930108
107	0x22c60ad0	5.3679456e-18
108	0xbbcf36c3	-0.006323667
109	0x3d2243ef	0.039615568
110	0x3a94a298	0.0011339961
111	0x3bc02ed0	0.0058649555
112	0xbc0c7385	-0.008572464
113	0xa740924c	-2.672466e-15
114	0x3c527895	0.012846132
115	0xbc0b0a3a	-0.008486325
116	0xbb766bc9	-0.0037600866
117	0x3c974097	0.018463416
118	0xbd95abc6	-0.07308154
119	0xbce4f6ba	-0.02794968
120	0xbcecf04f	-0.028923182
121	0xbd481e1b	-0.048856836
122	0xa90ce72e	-3.128676e-14
123	0xb354109e	-4.937521e-08
124	0x337de985	5.9118538e-08
125	0x3cf7c1af	0.030243723
126	0xbddb9718	-0.10722178
127	0x9a8ded56	-5.869967e-23
