results/imitationlearningfinal/RaceCar/RaceCar-3999975.pt (torch, 594095 bytes, 47 tensors)

network_body._body_endoder.seq_layers.0.weight f4 [128, 27]
000000 5f 70 b0 3e ce 07 c7 3e a2 d8 74 be 97 63 27 3e
       0.34460732 0.38873142 -0.23910764 0.16346584
000010 83 44 5d be b8 4a a2 bc 98 aa f2 bd 96 0d e6 bc
       -0.21608166 -0.01981102 -0.118489444 -0.02808265
000020 61 a3 6d 3e 08 98 f1 3d 1b 2a 0e 3e 8d 05 68 3e
       0.23206855 0.11796576 0.1388325 0.22658367
000030 fd 34 cb 3e cb 1b c2 be 2e 16 1c bc dc 12 a7 be
       0.39688864 -0.3791183 -0.009526772 -0.32631576
000040 fb 78 a8 bd 4c 3f 98 3e 7f b5 b5 bd c1 b7 9b be
       -0.082262 0.29735792 -0.08872508 -0.3041363
000050 03 29 89 3d 26 b8 fe 3d 0c 7c 13 3d 90 2e a8 3e
       0.066972755 0.12437467 0.036006972 0.32848024
000060 5a eb c2 3e 08 12 c8 be f9 c7 59 3e 05 1d 66 be
       0.38070184 -0.39076257 0.2126769 -0.22472008
000070 54 42 2f be 6a b4 c5 be 58 82 d8 bd a8 a9 5e be
       -0.17115146 -0.38614208 -0.10571736 -0.21744406
000080 5f 6b a7 be 15 13 43 3e 34 00 59 3d 46 ff 4a bb
       -0.32699105 0.19050248 0.05297871 -0.0030974909
000090 22 85 aa bd 46 89 35 3d ca c1 5b be 5a 7e d8 3e
       -0.08326174 0.044320367 -0.21460643 0.422839
0000a0 bc a2 4f 3d 12 c0 47 3e 5c 9d c6 be 04 ae 01 be
       0.050692305 0.19506863 -0.3879193 -0.12664038
0000b0 15 b4 05 3f c8 04 37 3e d4 24 14 bf 7a 26 1c be
       0.5222791 0.17872918 -0.57868695 -0.15249053
0000c0 a4 e6 11 3e 3a 09 67 bf 95 00 0f bf 91 d4 54 bf
       0.14248139 -0.90248454 -0.55860263 -0.8313685
0000d0 b9 ef 9e bf 71 4f 86 be 2b 81 1f 3f 20 3f 49 3e
       -1.2416908 -0.26232484 0.6230647 0.19652987
0000e0 8f cd a5 be aa 0f 19 3e f4 b5 88 be a6 7b ad 3e
       -0.3238339 0.14947382 -0.2670132 0.338834
0000f0 e7 6a 90 be c9 da 7a be 28 26 5c bf a0 dd 87 3e
       -0.2820656 -0.24497522 -0.8599572 0.26536274
000100 76 34 07 3f c1 87 47 bd 24 95 51 3f a9 37 67 bc
       0.52814424 -0.04871345 0.81868196 -0.0141123915
000110 2b c2 d6 3d d2 56 02 3e 82 32 09 be 60 94 0a 40
       0.10486253 0.12728432 -0.13398173 2.165306
000120 a0 f3 f7 be 6d d5 53 bf f6 c9 68 be 48 1b a8 bf
       -0.4842806 -0.82747537 -0.22733292 -1.3133326
000130 b7 0e a1 3e 9c 52 09 bf 3e 5b ea bd 7d 26 fa 3f
       0.3145654 -0.53641677 -0.11443184 1.9542996
000140 8a 2a bb 3f 9e 47 ef be 31 6b 54 be 5a 8a 29 be
       1.4622357 -0.46734327 -0.20744015 -0.16556683
000150 fc 59 b2 be 67 59 f1 be 67 e6 b2 be 48 6d 25 be
       -0.34834278 -0.4713852 -0.34941408 -0.16154969
000160 36 0c df be 80 29 c1 bc 2d 27 06 bf 80 dc 8b 3e
       -0.43564004 -0.023579359 -0.5240353 0.27316666
000170 a1 ae 7c be 28 93 f4 3d e8 12 bc be ed 1b d2 bd
       -0.2467599 0.1194213 -0.36733174 -0.10259233
000180 82 42 b7 bc 38 75 fe 3c 80 00 75 bf 20 5e a8 3e
       -0.02237058 0.031061754 -0.9570389 0.32884312
000190 0f 18 40 3f 41 e0 93 be 32 1a 3c 3f 8c fa 17 bf
       0.7503671 -0.2888203 0.7347747 -0.5936668
0001a0 f9 ff 49 bf 4f e6 7b bf 2f da af bf 79 88 80 bb
       -0.7890621 -0.983983 -1.3738459 -0.003922519
0001b0 e7 42 2e 3f 79 1f 55 bd eb 3b 16 bf 08 38 d4 3e
       0.68070835 -0.052031968 -0.5868518 0.41448998
0001c0 4e 97 e4 3e 6d 8d eb be 8a bb e9 ba 4c d1 db 3d
       0.44646686 -0.46006337 -0.001783238 0.107332796
0001d0 88 91 be be a9 ba 5d 3f c8 72 07 bf ab a4 51 bf
       -0.37220407 0.86612946 -0.5290952 -0.8189189
0001e0 30 73 93 be de f2 84 bf ab 99 90 3d fe d3 10 40
       -0.2879882 -1.0386617 0.0706056 2.262939
0001f0 67 2e ea 3d be f2 4e 40 e3 c6 98 3e 8d 4a 80 c0
       0.11434632 3.2335658 0.2983924 -4.0091004
000200 c9 4a 31 3f 3c e5 d1 3f fd d7 ff be 05 42 e9 3f
       0.6925474 1.6398082 -0.49969473 1.8223273
000210 90 c8 5b 3f c4 55 25 c0 ee da bf bf 36 5e ca bf
       0.8585291 -2.5833597 -1.4988687 -1.5810001
000220 05 29 8e 3f dc 33 ca 3e d8 ae d2 3e 87 0b 11 3f
       1.1106268 0.3949269 0.4114902 0.56658214
000230 eb 0f 5e bd 4c 54 8d 3e e2 7f 2f 3f 52 f6 ad 3f
       -0.0542144 0.27603376 0.6855451 1.3590796
000240 cf b4 d9 3e 10 00 cb bf 6a c7 e7 3e 7a 1f e2 bf
       0.42520759 -1.5859394 0.45269328 -1.7665856
000250 df c3 cb 3e 83 ec e3 3d f5 86 44 bf ed 69 a2 3e
       0.39797875 0.111290954 -0.7676843 0.3172144
000260 10 17 e7 3c 7a c5 0b 3f 12 ec 54 3e e5 f7 4b bc
       0.02820924 0.545982 0.20793179 -0.012449239
000270 f9 cd 72 3f 53 fb d7 3f 16 59 c3 3e 6a 58 00 3e
       0.9484554 1.6873573 0.38153905 0.12533727
000280 02 3f 5e be a0 f9 51 bf 68 e1 0b 3f f4 aa fc 3d
       -0.21703723 -0.8202152 0.5464082 0.12337294
000290 4b c5 12 3e 49 ad 70 3e e4 f2 3f 3f fe 39 15 3e
       0.14333074 0.23503603 0.74979997 0.14572904
0002a0 45 dc 8d 3e c2 e0 10 3f 42 c3 35 3f 92 59 3f be
       0.27707115 0.56592953 0.71001065 -0.18686512
0002b0 60 b0 a4 3e 30 53 d1 3c 88 5b 8b 3e 3f d3 7d 3e
       0.32165813 0.025552362 0.2721827 0.24787615
0002c0 1a 91 71 bb cf bf a5 be f1 c9 85 bd 67 8a c5 3f
       -0.003686017 -0.323729 -0.06532658 1.5432862
0002d0 33 93 ca bd 4b 48 d3 bf c6 46 98 3d 53 b7 89 3e
       -0.09891357 -1.6506437 0.07435374 0.26897678
0002e0 22 e5 e3 3c b4 15 5f be bb dd ad 3d 99 56 2e be
       0.02781922 -0.21785623 0.08489557 -0.17025222
0002f0 93 ec 91 be eb 3b 9d be d1 b7 80 be 42 ac c1 be
       -0.28500804 -0.30709776 -0.2514024 -0.37826735
000300 07 b0 75 3e 91 a1 b4 bd 70 33 80 3e fd 1b 96 3e
       0.2399293 -0.08819879 0.25039244 0.29318228
000310 1d 4d 49 3d 58 e2 fb be d6 91 c8 3e f4 0b 67 3e
       0.049145807 -0.49196124 0.39173764 0.22563154
000320 18 99 59 be 70 36 9f 3d 6d ca ba bd 96 bd 28 3e
       -0.21249807 0.07774055 -0.09120641 0.16478571
000330 0d 37 07 bf c1 55 c7 bd 6c e4 99 be 63 8b c6 3e
       -0.52818376 -0.09733153 -0.30057085 0.3877822
000340 0e 11 2d bd c4 43 11 be 3b aa bc 3e 8d 8c 06 3f
       -0.042252593 -0.14186007 0.36848626 0.52558213
000350 42 89 c5 be 0e 47 2b bf 6b c3 5e bf 09 b9 3e be
       -0.38581282 -0.66905296 -0.87016934 -0.18625273
000360 89 1e dc bd 3e df 97 3e 40 83 35 bd ad 36 ed 3e
       -0.107480116 0.29662508 -0.044314623 0.46330777
000370 2e e8 02 bc a7 cc a5 3e 24 08 92 3d f3 14 74 3e
       -0.007989926 0.323827 0.07130459 0.23836116
000380 02 36 79 bf 12 f8 b8 3e 07 e7 6f 3d a4 48 1f 3e
       -0.97348034 0.36126763 0.058569934 0.15555054
000390 be 1e 00 bd f4 18 8d 3d 7b 9d 23 3c 1b c1 29 be
       -0.031279318 0.06889525 0.009986277 -0.1657757
0003a0 fc 59 ae bd 95 af c5 3f 63 75 22 3d dd 78 f1 bf
       -0.08513257 1.5444208 0.03966273 -1.886501
0003b0 4d 82 b1 3e 01 2e ca 3e 64 7f 89 be 9d 97 f2 be
       0.34669724 0.39488223 -0.26855004 -0.47381297
0003c0 a5 5c 0e bf a7 83 a1 be 61 bc 81 be 04 7d e3 bf
       -0.55610114 -0.31545755 -0.25339034 -1.7772527
0003d0 55 70 2b be 3d b5 6d 3e fa ee 43 bf 17 b0 fd be
       -0.1674207 0.23213668 -0.76536524 -0.49548408
0003e0 4e 20 50 3e 81 33 71 3d 78 d7 a1 be d6 5b 81 3f
       0.20324823 0.05888701 -0.31609702 1.0106151
0003f0 58 df 8a bf 6f 40 2a be 85 c4 e4 be c8 0c 3f 3e
       -1.0849409 -0.16626142 -0.44681183 0.1865722

network_body._body_endoder.seq_layers.0.bias f4 [128]
000000 d4 02 86 3e 33 31 45 bd 3b bc 09 bd 39 55 9d be
       0.26174033 -0.048142623 -0.033626776 -0.30729082
000010 32 ae f2 be 6a 94 a6 3e db d5 a6 3e 3a 79 35 3e
       -0.47398525 0.32535106 0.32585034 0.17722026
000020 f9 60 31 3e 9a 38 78 3d 74 fd b2 38 31 e3 b0 3e
       0.17322148 0.060600854 8.534911e-05 0.34548333
000030 f2 70 3c bf 0f 3a e6 3c 0b 60 79 bf 03 6e 09 bf
       -0.7360984 0.028103856 -0.97412175 -0.5368349
000040 6e 6c 42 be 9c 90 b7 ba 28 53 d2 3e b6 84 03 bf
       -0.18986675 -0.0014004889 0.41079068 -0.51374376
000050 ff 24 b1 3e 16 04 7d bd 1b 0d b1 bd d2 95 c2 bd
       0.34598538 -0.061771475 -0.08645078 -0.09501232
000060 69 b2 25 3f 6b 31 11 3d 8e 6e f5 3b f8 46 99 be
       0.6472536 0.03544752 0.007489986 -0.29936957
000070 dc cb ba 3e aa ab ca be de 42 cf bd e3 28 d4 be
       0.36483657 -0.39584094 -0.10120176 -0.41437444
000080 5a c3 e9 3e 4c dc 81 be 5a de 32 3e a2 8c 19 3f
       0.45656854 -0.25363386 0.17467633 0.59980214
000090 0e db f9 3d f5 da 32 be 64 df 0e 3e 4d 5b e3 be
       0.121999845 -0.17466338 0.13952404 -0.44405594
0000a0 d3 24 a1 3d 5e 35 ed 3d bd 27 76 bd 7c 82 52 3f
       0.07868352 0.115824446 -0.06009649 0.82230353
0000b0 1a d8 8a 3d 31 c7 94 be 75 f3 48 be fb 8a 4b be
       0.06779499 -0.2905822 -0.19624121 -0.19877236
0000c0 2d 2d c3 3d 9b 6b 33 bf 35 7d 22 be e3 cd 72 3e
       0.09530101 -0.7008607 -0.15868075 0.23711352
0000d0 79 f1 95 3d 31 b1 29 be 40 86 00 3f 29 66 1e 3f
       0.07321448 -0.165715 0.5020485 0.61874634
0000e0 da e3 83 3e 96 67 4a bd 53 5d 4c bd b8 d8 c3 3e
       0.25759774 -0.049415193 -0.04989369 0.3825128
0000f0 40 84 23 3e 38 fa 14 3d dd 12 ea be 3e e0 80 3d
       0.15968418 0.03637144 -0.45717517 0.06292771
000100 55 8a 07 bd 85 18 a8 be c4 f2 67 3f 6c f3 90 be
       -0.033090908 -0.32831207 0.90604806 -0.28310716
000110 84 8d 88 be 37 68 77 3d 35 5a e4 bd 1c 2f 19 be
       -0.26670468 0.06040212 -0.11150018 -0.14959377
000120 3e 6f b4 bc 8c ff 86 be ee 49 26 3e c1 82 02 3e
       -0.0220257 -0.26366842 0.1623914 0.12745191
000130 bc 99 01 3e 86 10 f4 bd 91 d6 c7 bd 7f e2 ff be
       0.12656301 -0.11917214 -0.09757722 -0.4997749
000140 fd 53 c4 bc 8a fc e5 be 41 7e cd 3c 8f ce 12 be
       -0.02396583 -0.44919235 0.025084617 -0.14336608
000150 24 cc c3 bd b6 7f 76 3e 4c 61 30 3e b7 11 20 3e
       -0.09560421 0.24072155 0.17224616 0.15631758
000160 8d bf a2 bb eb c8 bf be 86 49 9a 3e c4 61 da bd
       -0.0049666823 -0.37457976 0.3013422 -0.106631786
000170 72 e4 65 3f 0b 71 a2 3d bb ab 79 be 4f dc 9c bd
       0.89801705 0.079317175 -0.24381916 -0.07659208
000180 9f 52 81 be ec bb 1d bf 2b 12 b1 3e d1 28 27 be
       -0.25258347 -0.6161487 0.34584174 -0.16324164
000190 fe cd ab be c4 10 29 be ed 93 78 3f e2 ac b1 3d
       -0.33555597 -0.16510302 0.97100717 0.08675553
0001a0 11 40 ee bd 1d 68 16 bf 4b 0b f1 bd 09 ad 24 3e
       -0.116333134 -0.58752614 -0.11769732 0.16081633
0001b0 17 0a 77 bd c9 f4 02 3f 16 cd f4 bd 92 33 4c bd
       -0.060312357 0.5115476 -0.119531795 -0.04985387
0001c0 6a 18 db 3c 88 bd cf bc bc 89 e7 be ee 96 1d 3c
       0.02674504 -0.02535893 -0.4522227 0.009618504
0001d0 c8 5f ef 3d 20 4a 12 bc b5 58 b0 3e 4e 81 27 3e
       0.11688191 -0.008928806 0.34442678 0.1635792
0001e0 62 4c 47 be 88 d2 b1 3e ba 8a 09 3f 6d 30 d6 bd
       -0.19462731 0.34730935 0.53727305 -0.10458455
0001f0 4d 0c 3f bf 66 e9 b6 3d ce b8 51 3d 23 ca d2 be
       -0.74628145 0.08931236 0.051201634 -0.41169843

network_body._body_endoder.seq_layers.2.weight f4 [128, 128]
000000 7f 51 03 3e 60 cf 47 be 74 2e 17 3e d8 e8 b7 bc
       0.12824057 -0.19512701 0.14763814 -0.022449896
000010 c5 f1 8e bd 24 51 cf bd 3b 06 9f bf 3f 9a a2 bd
       -0.06979708 -0.10122898 -1.2423776 -0.07939576
000020 d8 43 38 3e 3d e5 c1 bd 52 fa 29 bd 32 5a 5a 3e
       0.1799463 -0.09467552 -0.04149849 0.2132347
000030 7c 02 84 be 66 5a 04 3e 03 a5 aa bd 82 16 c1 3d
       -0.25783145 0.1292511 -0.08332255 0.09428121
000040 48 a2 76 3d 07 6e fa bd 4a 92 a1 bd 35 cd 17 3e
       0.060213357 -0.12228017 -0.078892305 0.14824374
000050 e6 12 b4 bd 73 d1 d3 3d 27 9f 3d 3e b5 81 2a be
       -0.08792667 0.10342684 0.18517743 -0.16651042
000060 17 77 b6 bc 4f a2 7b 3e 70 3d 19 3b ab 80 6e bc
       -0.022273583 0.24573635 0.0023382567 -0.014557044
000070 ba 51 0e bf ef de 8b bd 2b c3 29 3e 08 dc fe 3e
       -0.55593455 -0.068296306 0.16578357 0.49777246
000080 d3 f1 ff 3d 1a 34 e5 bc cd 5f 92 3c 23 82 5c 3e
       0.12497296 -0.027978946 0.017867947 0.21534018
000090 93 da 08 3e 3e 61 88 3d 69 97 bf 3d 1d ea ca be
       0.1336463 0.066591725 0.09355051 -0.3963174
0000a0 e7 94 7f bd 77 e2 67 3c c1 8f 4f bd 9f 24 e9 bd
       -0.062397864 0.0141531145 -0.050674204 -0.11383938
0000b0 2c 63 a8 3d fa 94 22 bc a0 c5 84 3c 95 c6 31 3d
       0.082220405 -0.009923214 0.016207516 0.043402273
0000c0 7e c7 c5 3e 31 1b 3b bd ad 3f f2 3b 70 81 55 3e
       0.38628763 -0.04568023 0.0073928447 0.20850158
0000d0 dd a9 59 3d 84 f8 8f 3d cc 0b 58 c0 d4 4a 4d 3d
       0.05314051 0.070298225 -3.37572 0.05012019
0000e0 6a c5 9c 3d 6a a0 bd be 3d 26 2d 3e 0c b3 04 bf
       0.07654841 -0.3703645 0.16909118 -0.51835704
0000f0 4c b7 57 bd b0 97 5d bd 94 b9 00 be 25 67 04 bd
       -0.05266504 -0.05409974 -0.12570792 -0.03232493
000100 15 56 d1 3d aa 87 3c be 7f 11 9d 3d 31 e8 27 3e
       0.10221497 -0.18411127 0.07669353 0.16397168
000110 b4 96 ab 3d 30 c3 a0 3d e8 7c 17 3e 4f 33 2a 3d
       0.08378354 0.07849729 0.14793742 0.041552838
000120 89 68 40 3d 8d 4a 16 3e 78 af 91 bd 0f f8 5b 3e
       0.046974692 0.14676876 -0.07113546 0.21481346
000130 6f 9e fe 3d 8d f8 02 be 6e 63 19 3e 4e 0f de bd
       0.124325626 -0.12790127 0.14979336 -0.10842763
000140 77 60 71 3c d8 45 81 3c 0e 1d ee bd e8 b9 53 3d
       0.014732472 0.015780374 -0.116266355 0.051690966
000150 03 7e c5 bc eb f1 1d 3b 23 01 d6 3d e0 67 22 3e
       -0.024107939 0.0024100493 0.104494356 0.15859938
000160 9f 26 1b 3e 85 1f c0 ba 51 88 a9 be de c0 7a be
       0.15151452 -0.0014657831 -0.33111814 -0.24487635
000170 87 81 a7 3d 3d 4e 91 3d 02 94 e3 3d 42 c8 fa bd
       0.08179002 0.07095001 0.111122146 -0.122452274
000180 68 d9 39 bd 85 47 19 be 11 18 73 3f 92 02 b4 be
       -0.04537335 -0.14968689 0.949586 -0.3515821
000190 6e da 9d bd b2 88 00 be ec 5f 04 3e c2 0d e6 bc
       -0.07707678 -0.12552145 0.12927216 -0.028082732
0001a0 c9 6e 99 bd 79 b2 dc be 13 54 74 bd 50 ae 38 bb
       -0.07491834 -0.43104914 -0.059650492 -0.002818007
0001b0 12 fd 65 3e 54 f5 47 3d 2b f2 4d be 65 22 be 3d
       0.2245982 0.048817948 -0.20111911 0.09283904
0001c0 82 ab 86 bd 6a 83 9c bd 6c 51 16 be fe 8e 1d be
       -0.06575681 -0.07642253 -0.14679497 -0.15386578
0001d0 c7 80 22 be 27 0a a6 3d 52 8a da be 09 7b ed 3d
       -0.15869437 0.08107405 -0.42683655 0.11595733
0001e0 45 92 98 ba 6f bd 3a 3e be 40 77 bd d2 35 e5 bd
       -0.0011640271 0.18236326 -0.060364477 -0.11191906
0001f0 9e 81 27 be 27 71 3d 3e 51 8a 42 bf da e8 14 be
       -0.16358039 0.18500195 -0.75992304 -0.14541951
000200 43 52 b5 be 02 d5 f4 3c 53 9d 85 3d 14 80 e9 bd
       -0.35414323 0.029886726 0.06524148 -0.11401382
000210 b8 97 84 3d 08 24 f2 bd 54 27 10 3c 5d 56 ab 3c
       0.064742506 -0.11823279 0.008798439 0.020915205
000220 19 dc 8e bd bb 55 6f 3c 00 29 17 be 78 5c e2 3d
       -0.06975574 0.014607842 -0.14761734 0.11052793
000230 4b 0c 9a bd ed d6 d0 bc ff f3 3c be f2 ab ce bd
       -0.07521876 -0.02549311 -0.18452452 -0.1009139
000240 0d 8f 9b 3e 49 c7 10 3d b0 1a 74 bd dc d6 62 3b
       0.30382577 0.035346303 -0.059595764 0.003461293
000250 80 10 98 bd 73 5e b9 3a 9f f5 0c be f9 1e 01 bd
       -0.07425022 0.0014142528 -0.13765572 -0.03152368
000260 a4 d1 59 be a0 be 0f 3d 70 df 84 3c 1f 6f c3 bd
       -0.21271378 0.035093904 0.016219825 -0.09542679
000270 49 24 22 bd ee 35 85 bf 21 2a 87 be a2 eb 9d be
       -0.039585385 -1.0407083 -0.2639933 -0.30843836
000280 d4 1f 45 3d ac 1a 90 3c b1 b1 a9 bd d4 09 b6 3d
       0.048126057 0.017590843 -0.08285845 0.08888593
000290 9f fd 0e 3e 78 90 f5 ba 8d 99 12 be 94 c0 1c 3e
       0.13963936 -0.0018735072 -0.14316387 0.15307838
0002a0 a9 ce 0a be e9 d6 39 3d 93 c5 e2 3e bd 2d 85 bd
       -0.13555397 0.04537097 0.44291362 -0.065028645
0002b0 f5 cc 90 3c 41 52 b3 bd 1d 52 0e 3e f7 45 7b 3d
       0.017675856 -0.08755923 0.13898511 0.06134602
0002c0 d0 0a 50 3c d5 99 9f 3e f8 9d 52 bb 6c e4 26 3d
       0.01269789 0.31172052 -0.0032137614 0.040745184
0002d0 eb 45 e9 3d eb 7c f5 bc d4 db a4 3e 7c c4 6f bc
       0.11390289 -0.029966792 0.32198966 -0.014634248
0002e0 c2 a7 f9 bb c0 65 41 be d3 11 1a 3e c9 fd 36 3d
       -0.0076188752 -0.18886471 0.15045862 0.044675622
0002f0 fc 6d c8 bc 41 62 eb 3c eb 8e 40 bd 3c da 03 3c
       -0.024466507 0.028733375 -0.047011297 0.008047637
000300 61 42 c6 bd ed f7 02 3e a3 21 e7 bd 19 05 62 3d
       -0.096806295 0.12789889 -0.112857126 0.055180643
000310 4d d9 97 bd 61 01 90 3d 18 5a 43 bd 66 e9 9b bd
       -0.07414494 0.07031513 -0.047693342 -0.076128766
000320 1e 72 90 3d 98 c7 9d bc c6 3a 6b be 2f 15 37 3e
       0.07053016 -0.019260213 -0.22971639 0.17879175
000330 01 21 39 bd 32 fb 56 3d ea cf 5c 3d e8 df be 3b
       -0.04519749 0.052485652 0.05390922 0.0058250315
000340 f5 c1 ce bd bd f7 cb 3d e6 74 00 bd b9 8d 95 be
       -0.10095588 0.09959362 -0.031361483 -0.29209688
000350 7a f3 58 3d 7d 61 43 bd f0 b1 48 3c e9 b6 53 be
       0.052966572 -0.047700394 0.012249455 -0.20675243
000360 08 eb 75 3d d9 aa fc 3d 70 8d fb 3c 2b 8a dd 3a
       0.060038596 0.12337274 0.030707091 0.0016902139
000370 da 7c fa bd 0e 68 72 3c aa 50 e8 3d b8 3d 33 3d
       -0.12230845 0.014795316 0.113435104 0.04376003
000380 44 6a 7a 3d 1e a6 f6 b9 91 95 da 3e 48 82 3a 3e
       0.0611365 -0.00047044543 0.42692235 0.18213761
000390 de 6a 02 3d 16 84 1c bc d4 88 93 3d e7 04 0a 3e
       0.031840198 -0.009552976 0.07203832 0.13478433
0003a0 57 dd cb bd eb 78 f1 3d b0 62 d9 3d 1d 69 e3 3a
       -0.099543266 0.117906414 0.10614526 0.0017350052
0003b0 0c 04 5c be 70 d5 67 3e b7 ad 92 be 0f ba 65 be
       -0.21485919 0.22640014 -0.2864816 -0.22434257
0003c0 e3 d6 06 3c a5 d4 c4 bd 29 a6 5a 3d 58 8e 85 bd
       0.008229944 -0.09610871 0.05338112 -0.065212905
0003d0 79 57 67 3c 3d d6 94 bd ed cc 24 3d 26 ba 06 bd
       0.014119976 -0.07267425 0.040234495 -0.03289237
0003e0 13 3a b0 bb ec 33 88 3c 56 ae d4 3c d9 9c a5 bd
       -0.0053780167 0.01662632 0.025962036 -0.08086557
0003f0 52 33 b4 bd da e5 d0 bc 95 f9 78 3c 4e 20 a4 3d
       -0.08798851 -0.025500227 0.015196224 0.08013974

network_body._body_endoder.seq_layers.2.bias f4 [128]
000000 0e 96 2f 3f 1f 4a 29 3e 66 35 4f 3e 1b 43 03 bb
       0.6858834 0.16532181 0.20235214 -0.0020029012
000010 03 41 02 3e 75 ce 3e 3c 6f fa 6c 3e fe d5 30 3e
       0.12720113 0.011645903 0.23142408 0.17269132
000020 41 58 a7 be e1 c1 a5 ba 83 6f 00 3f 28 79 8c bd
       -0.3268452 -0.0012646281 0.50170153 -0.06859046
000030 7a 08 37 bc 05 a6 fc 3e 73 56 18 3f 17 10 78 3e
       -0.011171455 0.49345413 0.5950691 0.24224888
000040 6a 37 1d bc 4a 42 7c 3e 45 41 0b 3f 85 31 25 3e
       -0.009595731 0.24634662 0.5439647 0.16132171
000050 d0 79 af bc 86 67 b3 3d 71 21 98 3e 67 ed 83 bc
       -0.02142039 0.0875998 0.29713014 -0.016104413
000060 b9 29 12 3e 54 22 33 3f ad da a7 3e db ff e7 3d
       0.14273728 0.69974256 0.32784024 0.113280974
000070 a9 fd 43 bc ca 17 d3 3d 38 30 f3 3e 28 02 dd 3d
       -0.011962333 0.10307272 0.47497725 0.10791427
000080 61 40 f1 3d 9a e6 c5 3d 1d 4b 73 3e 54 71 a6 3c
       0.117798574 0.096631244 0.23759122 0.020317711
000090 0d 4b 2d 3d a7 12 45 3e 44 e8 93 3e 89 5c 10 3f
       0.042307902 0.19245397 0.28888142 0.563912
0000a0 81 8c c3 3d aa b0 0f 3f a8 71 49 b6 d3 51 15 3e
       0.09548283 0.5612894 -3.001749e-06 0.14581995
0000b0 91 6f 77 3e 6c 13 b1 bc 38 7a 0c bc b8 30 e8 3e
       0.24163653 -0.021615706 -0.008574061 0.4534967
0000c0 0e 17 9d 3e 8a 03 1b 3e 08 40 e1 3e 08 58 9e 3e
       0.30681652 0.15138069 0.43994164 0.30926538
0000d0 4c f1 7b 3e 06 67 f2 bc f0 c2 06 3e 74 ff 8e 3e
       0.24603766 -0.029590141 0.131603 0.2792927
0000e0 66 8a cb 3d 5a 2a 28 3e 81 79 ee 3d d2 33 aa 3e
       0.09938507 0.16422406 0.11644269 0.3324266
0000f0 a4 87 7f 3e 85 3b ed 3d 28 30 47 3e d8 bb 58 be
       0.24954087 0.11583618 0.19451964 -0.21165407
000100 49 14 f2 3d 06 10 6d bd 2d 37 d4 3d 43 03 3d 3e
       0.11820275 -0.05787661 0.103620864 0.18458275
000110 fe 9d b9 bc 7b d8 13 bd a6 32 e0 3e e8 a4 a2 bc
       -0.022658344 -0.036095124 0.43788642 -0.019854024
000120 55 2f 32 3f 2d 51 24 3e 48 21 1e bb 4e 8f c0 3e
       0.6960347 0.16046591 -0.0024128724 0.37609333
000130 1b df f7 ba 51 93 8a bd 37 80 05 bc 7d 8f 41 3b
       -0.0018911095 -0.067663796 -0.008148245 0.0029534989
000140 78 e5 1a 3f ca 19 76 3e b2 da fb 3e 1d 43 78 3e
       0.6050639 0.24033275 0.4919029 0.24244352
000150 d5 c9 ee 3d 2d ae 2e 39 fa 1a 2b 3b 4b f4 ca 3c
       0.1165959 0.00016658819 0.0026108609 0.024774691
000160 55 20 a2 3e bd 6e 88 3d 72 d0 81 3d 77 03 8c 3e
       0.31665292 0.06661747 0.06338586 0.27346393
000170 78 09 e4 bb 4d a5 b9 3b d3 1b a1 bc a7 78 c8 3e
       -0.0069591366 0.0056654573 -0.019666588 0.3915455
000180 7a 11 04 3f 9c b0 5a 3e 47 c7 b0 3e 00 fd 06 3d
       0.5158917 0.21356434 0.34527037 0.032956123
000190 39 d2 0c bd dd 6a 6f 3e c8 33 98 3d 25 c0 48 bd
       -0.03438017 0.23380609 0.074317515 -0.04901137
0001a0 ac 33 1d 3f 3e 42 a6 3e 9e e4 a5 3e 57 ef 6b 3e
       0.6140697 0.32472414 0.32400984 0.2304052
0001b0 89 dc e6 3e 6d 85 60 3e 3e 60 ad 3d 97 a5 ef 3d
       0.4509013 0.21925898 0.08465622 0.11701506
0001c0 9e fe a0 3e 43 15 60 3e b4 d8 b6 3e 99 17 9a bb
       0.31444257 0.2188311 0.35712206 -0.00470252
0001d0 3d f6 17 3e 68 da 09 3e 95 c7 01 3a f8 9b 15 3e
       0.14840026 0.13462222 0.00049506995 0.14610279
0001e0 b1 4d 74 3e f8 61 7d bc 24 05 d0 bb a8 30 27 3e
       0.23857762 -0.015465252 -0.006348269 0.16327155
0001f0 c4 7d 77 3e 36 a0 c0 3e f5 1f ba bc c4 73 10 3e
       0.2416907 0.3762223 -0.022720316 0.14106661

action_model._continuous_distribution.log_sigma f4 [1, 2]
000000 e9 b5 16 c1 4a 78 01 c1
       -9.419412 -8.091867

action_model._continuous_distribution.mu.weight f4 [2, 128]
000000 94 22 a6 3f 64 f4 88 3c b8 93 c2 be ce 6d 84 bc
       1.2979302 0.016718097 -0.38003325 -0.01616564
000010 12 48 17 3f 87 b8 fb bd 3e e0 da bc 5a 79 a4 bb
       0.59094346 -0.12291055 -0.026718255 -0.005019349
000020 3b b9 c4 37 a4 73 69 bc b7 3c cc 3f 49 7c 5c bb
       2.3451275e-05 -0.014248762 1.5956029 -0.0033643416
000030 de b0 98 3a 78 6c 8f 3f b7 58 2f 3f 65 6d b2 3f
       0.001164939 1.1204977 0.68494743 1.3939635
000040 6c 93 61 bd 54 45 c8 3f d6 ea 49 3f 15 b6 ff 3e
       -0.055072233 1.5646157 0.78873956 0.49943605
000050 82 fd b6 3c 74 c3 09 3d 4c 3d 56 3f 63 dc 31 bf
       0.022337679 0.033633664 0.8368728 -0.6947691
000060 c6 1e 1c 3f af e3 06 40 1f 03 0c 3f 70 08 98 3f
       0.60984457 2.1076467 0.5469226 1.1877575
000070 2f 37 bc 3b 3f e5 2b bc 3c 09 a4 3f dc 73 e5 3e
       0.005743883 -0.010491668 1.2815318 0.44814956
000080 e4 8f 35 3e a4 99 36 3b ed 1c 8f 3f f8 6a 44 be
       0.17730671 0.0027862573 1.1180702 -0.1918143
000090 6f 9f a9 bb 10 db a5 3f 59 d2 3b 3f 87 c4 aa 3f
       -0.0051764767 1.2957478 0.7336784 1.3341225
0000a0 68 9f 71 be 6f 3c f0 3f 5a 83 20 3d 31 89 92 3b
       -0.23595965 1.8768443 0.039187767 0.004471921
0000b0 6d d6 b2 bc f7 6a 1d bc 87 2a 2e ba 51 12 b1 3f
       -0.021830762 -0.009608022 -0.00066439103 1.3833715
0000c0 7d 62 1d 3f 36 9f aa be 06 6e 21 40 9f 04 15 bb
       0.61478406 -0.33324593 2.5223403 -0.002273835
0000d0 e6 0a 92 3f 88 6a f9 bb fb 35 18 bf fb 02 f0 3e
       1.1409576 -0.0076115765 -0.5945737 0.46877274
0000e0 19 b6 cb 3e 37 eb 16 be 33 28 64 bc c2 8f be 3f
       0.39787367 -0.14738165 -0.0139256 1.4887621
0000f0 fc 76 5c 3f 07 75 a4 be b1 e9 0d 3b d5 8d 3f 3b
       0.86119056 -0.32120535 0.0021654184 0.0029228826
000100 1b 0a df be 87 a8 4f be 7e c9 4f 3d 13 d9 d3 3f
       -0.43562397 -0.20279132 0.050729267 1.6550621
000110 98 0c d9 bc 6e cb 6c bb 63 7c 6e 3c f0 d6 7e ba
       -0.026495263 -0.0036131996 0.014556023 -0.0009721359
000120 67 ae 92 3c 9c 4a e3 3f eb 76 fd 3b cb 4a d3 ba
       0.017905427 1.7757144 0.0077351234 -0.0016120313
000130 8f 57 9f 3a b2 ff 3c 3d 96 2b e2 ba 04 95 e9 bd
       0.0012156832 0.046142288 -0.0017255421 -0.114053756
000140 7d 95 d8 3f c5 4e 95 3f 92 a5 30 3b 1d c2 3a 3f
       1.692062 1.1664664 0.0026954156 0.72952443
000150 bf 34 1c 3c 29 0e c0 bd 81 95 3e bd 7e b7 06 3d
       0.00953406 -0.09377701 -0.046529297 0.032889836
000160 7b 63 1e 3f 84 53 2f bc ac 06 7d bc 38 e6 3e bb
       0.61870545 -0.010701064 -0.015443485 -0.002912892
000170 a5 63 e7 b7 85 15 88 bc bb 2f 91 bb c8 3f 41 be
       -2.7583746e-05 -0.016611824 -0.0044307387 -0.18871987
000180 13 97 87 3f 1a 8e 67 3f c7 d0 5f 3f b8 92 3f be
       1.0592979 0.90451205 0.87427944 -0.18708313
000190 eb 09 00 be db 05 30 3c 25 55 f4 3b 72 22 93 bc
       -0.12503783 0.010743584 0.007456439 -0.01796076
0001a0 ec 85 02 3c 46 69 96 3d 4e a5 83 3f 6b bd 52 3e
       0.0079665 0.07344298 1.0284822 0.2058007
0001b0 1a 62 16 bf e6 5d b8 3e ea 9c 89 3d 58 6e 65 3a
       -0.5874344 0.3600914 0.06719382 0.0008752099
0001c0 c1 75 77 3f 45 8e d0 3f f7 88 cc 3c 16 3a 0c 3d
       0.96664053 1.6293417 0.024967654 0.034235083
0001d0 58 7f 14 3c 41 d9 35 3b 77 8f 63 bc cf 4f d8 bd
       0.009063564 0.0027747902 -0.013889185 -0.10562097
0001e0 2e 19 3b bc f7 7d 9f b8 f3 da 27 bd 11 70 5f 3b
       -0.0114195775 -7.6051736e-05 -0.04098029 0.0034093896
0001f0 d7 68 92 3f f5 c6 80 bb f9 c9 ff 3a cb 7b 6b bd
       1.1438245 -0.0039299675 0.0019515149 -0.057491105
000200 c1 c1 b1 bd e6 97 9a be b6 2e 51 3c 47 f9 17 bd
       -0.08679534 -0.30194014 0.012767484 -0.037102964
000210 94 2f 78 bc 27 6a 89 bd 01 41 b2 be 93 e2 b1 be
       -0.015148062 -0.067097 -0.3481522 -0.34743175
000220 e9 9e cb bd 99 b3 32 bc 49 f5 80 3d 25 3a 81 3a
       -0.09942419 -0.010907077 0.062967844 0.0009859247
000230 75 12 d7 bb 50 bf 61 bc 84 1c 61 3b 5d 34 e8 bb
       -0.0065634795 -0.013778523 0.0034349272 -0.0070863203
000240 0f f0 ea bc 53 84 4e bb 68 15 ca bc aa 0c ac bd
       -0.028678922 -0.0031511977 -0.02466841 -0.08400853
000250 0f 9d 80 bc 6c bd ad be 6c b4 0a 3e d4 d7 da 3c
       -0.015699891 -0.3393358 0.13545388 0.026714243
000260 6d 0c 97 3b 2c 54 5b bd 8b 05 97 bd 51 65 a8 bd
       0.0046096356 -0.05354707 -0.07374104 -0.082224496
000270 b4 97 a6 3c 33 48 bb bd bf 5e 60 3e cb a9 3c 3c
       0.02033601 -0.0914463 0.21911143 0.011515091
000280 39 06 17 bd 49 58 8a be c3 04 1d bc b7 e2 d2 bb
       -0.03687117 -0.2702048 -0.009583655 -0.006435718
000290 78 44 f0 3b 67 34 52 bc 8c e4 aa 3d dc 15 eb 3c
       0.007332381 -0.0128298765 0.08344373 0.028696947
0002a0 6a 39 6c bd 1d 85 9b bd 2f e7 3e 3d f8 37 90 be
       -0.05767194 -0.07593749 0.046607193 -0.281677
0002b0 cf 05 9d be 1f fb 7c ba 50 bc 5a 3c 94 17 0a bd
       -0.30668494 -0.0009650457 0.013350561 -0.033713892
0002c0 91 d0 c3 bd 47 c2 6d bd 00 6a f7 3b 7e 24 d7 be
       -0.09561265 -0.058046605 0.007550478 -0.4202003
0002d0 17 4d ba 3d 8b 7d 0e 3b 40 79 a0 3b cf f7 c9 b8
       0.09096735 0.002174231 0.0048972666 -9.630585e-05
0002e0 d7 14 43 3d aa d0 c0 be e2 a7 3f be e4 2a 83 3d
       0.047627296 -0.37659198 -0.18716386 0.06404665
0002f0 38 e4 b9 3d f6 26 88 3c 6e ee ad be 0d a5 46 be
       0.090767324 0.01662014 -0.3397097 -0.193989
000300 38 26 7e bd c5 0b df bd 60 42 32 be 10 c4 c2 bd
       -0.062048167 -0.10890917 -0.17408133 -0.09510052
000310 36 5e 00 3c 7b 78 05 bc ca f2 1f bb 36 20 85 bc
       0.007834962 -0.008146401 -0.0024406188 -0.016250711
000320 e2 dc c5 be 7e 4f 70 3d 05 14 c6 bc e0 98 b0 be
       -0.38645083 0.05866956 -0.024179468 -0.34491634
000330 3e 19 72 3c 94 e3 b7 bd 5b 37 91 bc 9a 92 47 be
       0.014776526 -0.08978954 -0.01772659 -0.19489518
000340 d9 62 be bd 2c d5 89 3c 96 71 10 bf a9 5e aa 3c
       -0.092961974 0.016825281 -0.5642332 0.02079709
000350 0b e1 0b 3b b1 a5 34 bc c8 15 67 bc fb 2e 6c 3b
       0.0021343853 -0.011025832 -0.014104314 0.0036038745
000360 4c 07 04 be e8 b5 af bb 49 a3 9f ba de a2 ab be
       -0.12893409 -0.005362261 -0.00121794 -0.33522695
000370 69 14 92 bb 0a b1 78 bc 8a 8c 0e 39 f8 25 1b bc
       -0.0044579995 -0.015178928 0.0001359453 -0.009469502
000380 39 2f 57 3d a8 15 98 bd 56 6b 9d bc 20 dd d2 bc
       0.05253527 -0.074260056 -0.01921622 -0.025740206
000390 d7 9f 03 bc ac 20 e6 bb 68 45 a8 be 3c 48 b6 3c
       -0.008033714 -0.0070229378 -0.32865453 0.02225124
0003a0 7e 32 b9 be 73 04 ad be eb 0b a2 3d 28 b1 44 3c
       -0.36171335 -0.33792457 0.079124294 0.012005128
0003b0 11 1f 06 be 8a d6 e0 3b a7 94 2f be 1b 36 a2 be
       -0.13097788 0.0068615125 -0.1714655 -0.31681904
0003c0 bc e1 01 3e 86 58 6f 3c d7 39 b1 be c3 d2 9d 3b
       0.12683767 0.014608508 -0.3461444 0.0048163845
0003d0 0f b2 7e bb 83 a9 b7 bb 8f 95 c6 bc 89 64 d5 3d
       -0.0038863455 -0.005604924 -0.024241237 0.10419566
0003e0 fb c1 b6 be 35 0c 0f bc 19 89 83 bc 5e 32 48 bb
       -0.3569487 -0.008730938 -0.016056584 -0.00305476
0003f0 25 5c b9 bb d1 ef e3 be 56 5c a9 3b 4f 9b b3 be
       -0.0056567364 -0.44518903 0.005168478 -0.3507943

action_model._continuous_distribution.mu.bias f4 [2]
000000 5b c3 7f 3f 58 a6 a0 bd
       0.99907464 -0.078442276

action_model._discrete_distribution.branches.0.weight f4 [1, 128]
000000 f1 0a cc ba 58 f6 df bc 6b 41 56 3b 6d ce d1 3b
       -0.0015567226 -0.027339146 0.00326928 0.0064027817
000010 fd dd 8b 3b 7a ce 4d bc bb 65 b1 3a 08 8c 31 3c
       0.0042684064 -0.012561435 0.0013534346 0.010836609
000020 a7 c5 82 bb bd a2 0f 3c 09 59 b7 3b 0a fa 9b 3c
       -0.003990847 0.008766827 0.0055953306 0.019040126
000030 ad eb 4f 3c 0c 60 40 39 00 d5 d4 ba f0 f8 56 3c
       0.012690467 0.00018346327 -0.0016237795 0.013120875
000040 a7 77 7c 3b c7 c5 ad bb 3a 8f 48 bc 15 22 8a bb
       0.0038523467 -0.005303118 -0.012241179 -0.0042154887
000050 f2 ca 52 bc 6a da 8e 3b 7d ca 08 bc cb 65 e6 3a
       -0.012865769 0.004359533 -0.008349058 0.0017577944
000060 77 db 02 bc 99 31 c2 bb e9 f8 05 bc 3d ac 52 3c
       -0.007986895 -0.0059263227 -0.008177021 0.012858448
000070 e0 3b 1f bc 5b bd 4f 3c 9b 34 29 3b ab d1 8e bc
       -0.009718865 0.012679423 0.0025818709 -0.017433962
000080 28 34 60 bc 60 6b 14 bb 10 1b 40 bc 7b 0a 88 bb
       -0.01368431 -0.0022647008 -0.011725202 -0.00415164
000090 3f 45 e7 3b ad 99 54 bc 6f 82 f5 3b f0 fc a2 3b
       0.0070578153 -0.012976092 0.0074923555 0.004974
0000a0 b1 10 28 bc 34 35 3c bc de 19 96 3c 78 45 5d bb
       -0.010257886 -0.011487294 0.018322881 -0.003376333
0000b0 4d 75 30 3b 93 22 82 3b 3a cd 06 3a 5f 59 84 bc
       0.0026925385 0.0039714067 0.00051422755 -0.016155897
0000c0 b7 4b a6 ba b7 20 85 39 45 7a 0d 3c 45 09 d6 3b
       -0.001268736 0.0002539211 0.008635108 0.0065318667
0000d0 e3 47 2c 3c 65 db bd 3a 05 9a f9 bb 72 f4 04 3c
       0.010515186 0.001448494 -0.0076172375 0.008114921
0000e0 f8 5d 36 bc 55 05 84 bc 97 6b 56 bc ed 91 f3 bb
       -0.011130802 -0.016115824 -0.013087175 -0.007433167
0000f0 49 7f 18 bc 6d e7 6d b7 af 97 a6 3b 4f f6 06 3c
       -0.009307691 -1.4180184e-05 0.005084 0.0082374355
000100 e3 3c 86 3b da b1 cf 39 13 8a e1 3b 93 07 b8 bb
       0.0040966137 0.00039614626 0.006882915 -0.0056161373
000110 9a a7 ce 3b c6 d2 22 3b 9f 3d c4 bc 42 82 0a bb
       0.0063066008 0.002484487 -0.023955164 -0.0021134769
000120 83 ae 1f 3c eb a0 fd 3b 44 81 21 bc 17 07 2f bb
       0.009746197 0.00774013 -0.0098574795 -0.0026707107
000130 6f a5 2e bc d5 ea b8 3b 9d 8e 90 3b 67 da 04 3c
       -0.01065956 0.0056432285 0.004411532 0.008108712
000140 10 81 b6 3a f6 fa 9d 3c f2 14 b4 b8 c4 a9 85 3c
       0.0013923962 0.019284707 -8.58697e-05 0.016316302
000150 31 64 9d bc f3 77 b6 3a 35 12 ed 3b 18 42 94 bc
       -0.019212814 0.0013921246 0.0072348365 -0.018097922
000160 74 3b 2f 3c 60 e9 12 3b 17 06 d7 3a 49 44 3e bc
       0.010695327 0.0022416934 0.0016405013 -0.01161296
000170 17 09 1a 3c 80 c3 e3 3b c2 da 1c bb 43 2e ba bb
       0.009401581 0.0069507957 -0.00239341 -0.0056817844
000180 88 93 90 3b 8f 9a c3 ba af 63 0f bc db b0 05 3c
       0.0044121183 -0.0014923381 -0.008751794 0.008159841
000190 1d 7d 9c 3b 43 6b 81 3b ec ba 8e 3c ab 49 09 3c
       0.004775657 0.003949554 0.017423116 0.00837938
0001a0 53 2a 09 3c 0a 7a b3 bb c3 e2 d4 3b 42 d3 e9 bb
       0.008371907 -0.0054771947 0.0064967587 -0.0071357796
0001b0 1d ad 7c 3b 59 39 2d bb 1b 4f f8 bb d8 b7 13 bc
       0.0038555332 -0.0026431887 -0.0075777895 -0.009016
0001c0 3b c2 88 bb e5 77 35 bc bb 38 4f bb dd 7a 17 bc
       -0.0041735447 -0.011075948 -0.0031619507 -0.0092456015
0001d0 87 1a b1 bb bc a5 8e bb c8 dd 1c 3c 61 df 15 3c
       -0.0054047736 -0.004353253 0.009574361 0.009147496
0001e0 66 14 c4 bb bb 45 46 3c 33 c8 0c bb d8 fe 2d bc
       -0.005983877 0.012101586 -0.0021481633 -0.0106198415
0001f0 c8 03 f4 ba 24 15 21 3c df d5 2b bc c3 d7 40 bb
       -0.001861685 0.0098317005 -0.010488003 -0.002942548

exp_avg f4 [128, 27]
000000 0a 0c 23 bb ee 1a 94 bd 4c 2c c4 3a c1 7f 31 bd
       -0.0024879002 -0.07231699 0.0014966815 -0.043334726
000010 d9 e9 a7 1c fe 2d 0c bc 7a 64 d4 9b f5 c3 1b bd
       1.1111581e-21 -0.008555887 -3.513739e-22 -0.038028676
000020 45 3e 35 15 66 29 38 bc a2 83 6b ba 1a 09 a8 bc
       3.660178e-26 -0.011240339 -0.00089841534 -0.020512152
000030 a2 83 6b ba 2a 09 a8 bc a4 7f 04 41 fa d5 51 bd
       -0.00089841534 -0.020512182 8.281162 -0.051229455
000040 0f 44 46 41 2e 00 58 36 4f 42 9d 3d 35 c0 69 b5
       12.391616 3.2186613e-06 0.07678663 -8.707896e-07
000050 a8 36 8c bd 14 7a ee 38 50 41 28 b9 20 dc 04 ba
       -0.06846362 0.00011371463 -0.0001604606 -0.00050682016
000060 b6 76 cc b9 cf 35 9e 37 02 ae b8 b8 1c 36 53 38
       -0.0003899836 1.8860124e-05 -8.806215e-05 5.0356713e-05
000070 6a 7a af bd ab 82 54 b4 2b 3c 49 bd 04 00 00 80
       -0.085682705 -1.9791575e-07 -0.049129646 -6e-45
000080 40 91 16 bc fd 00 00 80 93 26 4a bd 04 00 00 80
       -0.009189904 -3.55e-43 -0.049353193 -6e-45
000090 6c 01 fe bb e3 97 8c b8 e0 c6 b4 bc e3 97 8c b8
       -0.0077516343 -6.704011e-05 -0.022067487 -6.704011e-05
0000a0 d8 c6 b4 bc 58 91 fb 40 fa 57 62 bd 18 d4 4d 41
       -0.022067472 7.861492 -0.055259682 12.864281
0000b0 52 92 b9 35 b6 bc 9e 3d a2 45 21 b6 f3 fd 9d bd
       1.3826159e-06 0.077508375 -2.4031401e-06 -0.077144526
0000c0 90 cf b8 37 0c cd ad ba 4b 0e d0 b9 cd 6f 9b b9
       2.2031163e-05 -0.0013259961 -0.000396835 -0.00029647202
0000d0 af 7a 05 39 2c ad c6 b7 8c b0 37 bb dd 8f a9 bc
       0.00012729572 -2.3684079e-05 -0.0028028814 -0.020698482
0000e0 de 66 b6 3a 4b bb 2f bc 9e 97 c5 8a 17 b4 1b bc
       0.0013916155 -0.0107258065 -1.9027442e-32 -0.009503386
0000f0 34 a5 3a 8e a2 27 58 bc 59 97 7d 88 ee 68 75 bc
       -2.3005812e-30 -0.013193043 -7.6312326e-34 -0.0149786305
000100 95 6f 67 38 69 51 81 bc 95 6f 67 38 92 51 81 bc
       5.517861e-05 -0.01578589 5.517861e-05 -0.015785966
000110 ea bc 04 41 d8 e5 07 bd 94 b2 0f 41 52 4d c3 35
       8.296122 -0.03317818 8.981098 1.4551135e-06
000120 37 69 54 3d 48 d7 98 b5 7c 43 26 bd 93 45 18 39
       0.051858153 -1.1387538e-06 -0.040591702 0.00014521768
000130 18 53 95 b9 6a e2 bc b9 49 59 94 b9 5d 07 12 38
       -0.00028481404 -0.00036026846 -0.00028295282 3.481597e-05
000140 38 f8 f1 b8 81 ca aa bb 78 8a 52 bc 99 54 57 ba
       -0.0001153801 -0.0052121286 -0.012850396 -0.0008214205
000150 58 33 0d bc 8d 16 88 9c 78 d8 05 3b 2f fc ab 1b
       -0.008618198 -9.005554e-22 0.0020423215 2.8452547e-22
000160 d0 54 d8 bb 24 ca 12 95 20 ac 36 3a cc 40 3d 3a
       -0.0066019073 -2.9643926e-26 0.00069683976 0.00072194333
000170 f0 f7 97 3b cc 40 3d 3a f8 f7 97 3b 9c 02 b2 3f
       0.0046377108 0.00072194333 0.0046377145 1.3907046
000180 48 3b e4 bb 00 d5 f5 3f e7 1b 14 36 1c a7 63 3c
       -0.0069650747 1.9205627 2.206996e-06 0.013894822
000190 c9 7f a4 35 00 97 08 bc 76 e7 c2 38 77 01 74 3a
       1.2256143e-06 -0.008336782 9.293754e-05 0.00093080796
0001a0 ce f7 2a b9 14 61 0a b9 08 58 b9 b8 63 6d 8a b8
       -0.00016304778 -0.0001319687 -8.8378845e-05 -6.600728e-05
0001b0 a6 97 1e 2d 52 3f d1 b1 c5 6f 09 aa 4a a1 78 b1
       9.014933e-12 -6.0898993e-09 -1.2206822e-13 -3.6180432e-09
0001c0 29 46 00 80 b3 5b 4f b0 bd c6 c4 80 06 22 69 b1
       -2.5169e-41 -7.5436474e-10 -1.8071051e-38 -3.3925303e-09
0001d0 04 00 00 80 a1 5f 55 b0 e6 1d 15 ab a9 4d 02 b1
       -6e-45 -7.7624845e-10 -5.2976926e-13 -1.8961634e-09
0001e0 e6 1d 15 ab a8 4d 02 b1 c6 73 15 35 f1 04 85 b1
       -5.2976926e-13 -1.8961632e-09 5.56753e-07 -3.8713712e-09
0001f0 d2 9b 73 35 68 d9 50 2a 18 b5 c0 31 3f 4e ef a9
       9.07513e-07 1.8549539e-13 5.6085234e-09 -1.06273056e-13
000200 f6 17 b6 b1 7d 89 ae 2c cc 67 47 ae 02 a4 13 ae
       -5.299621e-09 4.9606417e-12 -4.533955e-11 -3.35696e-11
000210 29 8b e1 ad 24 22 a8 2c cd 55 90 ac 76 3c 9a 9d
       -2.5641338e-11 4.7786376e-12 -4.102252e-12 -4.0825976e-21
000220 4c bc 8d 21 23 c6 71 10 6c e5 21 21 04 00 00 00
       9.604373e-19 4.768151e-29 5.485256e-19 6e-45
000230 62 e3 57 20 04 00 00 00 e4 5b 24 21 04 00 00 80
       1.8286443e-19 6e-45 5.568698e-19 -6e-45
000240 42 a7 46 20 37 ca 81 14 d0 8a 04 21 37 ca 81 14
       1.6826593e-19 1.3105431e-26 4.4907056e-19 1.3105431e-26
000250 d0 8a 04 21 e4 39 c9 a4 30 0b 38 21 12 1e 25 a5
       4.4907056e-19 -8.7267925e-17 6.235643e-19 -1.4321657e-16
000260 00 6a 91 98 c0 db 7b a1 df 2a 2e 1a dc 04 80 21
       -3.7588654e-24 -8.5332945e-19 3.6016988e-23 8.674904e-19
000270 10 b4 3a 1b 89 04 c3 1e 4c 58 97 1d 60 d1 5f 1d
       1.5443741e-22 2.0648304e-20 4.0060664e-21 2.9622049e-21
000280 a0 f3 16 9d 80 c6 84 99 0a 51 78 bc c2 19 97 be
       -1.9978286e-21 -1.3728654e-23 -0.01515604 -0.2951184
000290 52 55 cf ba 7f 4f 35 be 49 c1 2a 1b 22 4e 37 bd
       -0.0015818274 -0.17706107 1.4124524e-22 -0.044752248
0002a0 b9 1b 5a 9a 13 ce 1c be 51 74 b9 13 3d cd 41 bd
       -4.5103738e-23 -0.15312986 4.6815262e-27 -0.04731487
0002b0 e9 fe c4 b7 e2 60 01 be e9 fe c4 b7 dd 60 01 be
       -2.3483723e-05 -0.12634614 -2.3483723e-05 -0.12634607
0002c0 10 a6 a1 41 71 7b 25 be f1 5e 14 42 63 d7 49 37
       20.206085 -0.1616037 37.092716 1.2030682e-05
0002d0 1e 7f 74 3e cb 23 5e b5 4c 42 63 be 51 ed 90 39
       0.23876616 -8.275353e-07 -0.22193259 0.00027642635
0002e0 3c 6b c9 39 53 30 d1 ba 6e f7 a0 ba 97 6e cd b7
       0.00038417603 -0.0015959836 -0.0012280771 -2.4489402e-05
0002f0 dd 78 5a b9 78 14 2d 3a 61 2c 52 bc d1 14 95 b4
       -0.00020835125 0.00066024764 -0.012827964 -2.776856e-07
000300 2b 9d 05 bc 11 01 00 80 00 cd 97 38 b7 66 00 80
       -0.008155148 -3.83e-43 7.238425e-05 -3.6847e-41
000310 20 ff e7 bb 04 00 00 80 20 4b d9 b8 c1 c9 1d b8
       -0.007079974 -6e-45 -0.000103613595 -3.7619615e-05
000320 b0 38 f4 39 c1 c9 1d b8 50 38 f4 39 8e 5d 9e 3f
       0.00046581542 -3.7619615e-05 0.00046581263 1.2372301
000330 e0 6b 03 bc 36 f2 ff 3f 88 d2 43 35 98 85 51 3c
       -0.008021325 1.9995792 7.2949524e-07 0.012788199
000340 f7 db 38 33 42 16 38 bc 4a dc d4 37 d7 ea bd 38
       4.3040895e-08 -0.011235775 2.537495e-05 9.0559646e-05
000350 80 4c b6 b8 8c 12 8f b8 a8 26 fe b6 bd 57 a2 b7
       -8.6926855e-05 -6.822226e-05 -7.57429e-06 -1.9352761e-05
000360 3b 1d ac b9 7c e9 a7 3c 8f e5 80 3a f5 d9 46 3c
       -0.00032828175 0.020497076 0.0009834039 0.012136926
000370 01 e1 e7 1c c0 13 49 3a 94 91 12 9c eb 0c 7a 3c
       1.534446e-21 0.00076704845 -4.8495503e-22 0.015261869
000380 82 14 79 15 20 f9 95 3a 50 47 9a ba 10 ca f2 ba
       5.0301327e-26 0.0011442043 -0.001177052 -0.0018523354
000390 50 47 9a ba 20 ca f2 ba 04 61 6b c0 28 7a 98 3c
       -0.001177052 -0.0018523373 -3.6777964 0.018612936
0003a0 80 dd 96 c0 f2 a8 10 b5 e0 99 e1 bc 4c 80 63 35
       -4.7145386 -5.389003e-07 -0.027539194 8.4750786e-07
0003b0 2e c0 ca 3c 1a 3d 3b b8 51 7e bf 39 02 8f 24 39
       0.024749842 -4.464118e-05 0.00036524472 0.00015693533
0003c0 6d 5e fd 38 ca 73 14 b8 e6 19 1a 38 fe 6b a0 30
       0.00012081568 -3.5393787e-05 3.674058e-05 1.1672225e-09
0003d0 df 6f 58 35 7d 60 43 a4 28 7b ee 34 04 00 00 80
       8.0629064e-07 -4.2365613e-17 4.4420563e-07 -6e-45
0003e0 4a 5f 56 34 04 00 00 80 0e 1c fc 34 04 00 00 80
       1.9964969e-07 -6e-45 4.695907e-07 -6e-45
0003f0 4c 77 40 34 b0 9f 25 aa fe d4 00 35 b0 9f 25 aa
       1.7924793e-07 -1.4710347e-13 4.799366e-07 -1.4710347e-13

exp_avg_sq f4 [128, 27]
000000 b7 fb ba 3a 04 be 8e 3e a0 e6 5b 3a 30 8c d9 3d
       0.0014265691 0.27879345 0.0008388553 0.10622442
000010 4e c4 83 3a 2c 44 e3 3c e6 34 93 39 4b 49 8f 3d
       0.001005301 0.027742468 0.00028077437 0.069964014
000020 b9 a9 76 3a 13 d7 4c 3d 6a 20 f8 3a dd 36 3e 3e
       0.0009409446 0.0500098 0.0018930559 0.18575616
000030 76 20 f8 3a de 36 3e 3e 5b 9a 7f 45 d5 85 df 3d
       0.0018930573 0.18575618 4089.6472 0.10914198
000040 f4 7b b6 45 a6 6b eb 36 65 8e 7c 3e 06 ee 7e 36
       5839.494 7.0160777e-06 0.24663694 3.7987497e-06
000050 ba 6a 32 3e 05 ff 38 38 c0 c8 ab 3b cc 97 50 38
       0.17423525 4.4106524e-05 0.005242437 4.9732436e-05
000060 e5 dc 58 3b 80 56 ba 39 32 23 e5 3a 99 e9 c8 37
       0.0033090648 0.00035541132 0.0017481802 2.3950635e-05
000070 75 cf 2b 40 6a 98 78 2c 1d c5 7a 3f ad 82 83 30
       2.6845372 3.5327526e-12 0.9795702 9.568645e-10
000080 e6 af 81 3e 7c e0 3e 27 02 71 26 3f 67 9c 03 30
       0.25329512 2.648949e-15 0.65016186 4.7879783e-10
000090 1d 73 f4 3e f0 94 9c 34 bc 8c da 3f f0 94 9c 34
       0.47744074 2.916563e-07 1.7074199 2.916563e-07
0000a0 ba 8c da 3f c7 e6 98 46 9a f5 77 3f 1a 79 4f 47
       1.7074196 19571.389 0.96859133 53113.1
0000b0 83 e3 65 31 dd 85 11 40 06 99 70 2f 21 f8 cc 3f
       3.3453211e-09 2.2737954 2.1882238e-10 1.6013223
0000c0 29 a2 e7 36 79 54 11 37 ff e5 de 38 24 1f 88 38
       6.9032144e-06 8.662341e-06 0.00010628625 6.490786e-05
0000d0 9d 05 d1 32 26 1c 8e 36 b4 71 3f 39 2d 0d 7d 3f
       2.4333355e-08 4.2352067e-06 0.00018257537 0.9884823
0000e0 ac e9 29 3b 01 93 b4 3e 66 99 de 33 17 70 c6 3d
       0.0025926633 0.35268405 1.03655836e-07 0.09689348
0000f0 0f ca e1 33 1f 55 84 3e 28 2c e0 33 b5 3a 28 3e
       1.0514133e-07 0.25846192 1.0438845e-07 0.16428645
000100 b2 97 91 39 3e f4 24 3f b2 97 91 39 3e f4 24 3f
       0.00027769577 0.64435184 0.00027769577 0.64435184
000110 cb 79 f1 45 14 40 bc 3e 3d ab 9e 46 c1 74 53 30
       7727.224 0.36767638 20309.62 7.692727e-10
000120 a5 e9 54 3f 8a de 73 2e bf b4 23 3f 6a 09 29 36
       0.83169013 5.5449458e-11 0.6394767 2.5188442e-06
000130 28 3a 46 36 82 de 29 38 6d 62 cf 37 95 ef c3 31
       2.953815e-06 4.0499966e-05 2.4722156e-05 5.7024843e-09
000140 2c 5d cc 35 a3 90 92 3a 50 a2 05 40 ac d4 03 3a
       1.5226301e-06 0.0011182021 2.0880318 0.0005028944
000150 af a1 43 3f 77 45 29 3a 60 29 4c 3e d1 bb 3c 39
       0.76418585 0.00064571894 0.19937658 0.00017999044
000160 12 7b 06 3f 42 a8 20 3a 2e 63 b8 3e da 50 a5 3a
       0.5253154 0.0006128588 0.36013168 0.0012612597
000170 fd 2c ad 3f de 50 a5 3a fd 2c ad 3f 95 92 84 46
       1.3529354 0.0012612601 1.3529354 16969.291
000180 8a b5 44 3f 36 ba 24 47 7b 40 99 36 e9 ff e2 3f
       0.76839507 42170.21 4.567262e-06 1.7734348
000190 94 80 27 36 0b 40 a5 3f 33 9f 0a 38 b3 cb 62 3b
       2.4959782e-06 1.2910169 3.305003e-05 0.0034606277
0001a0 12 db e3 38 e9 43 12 3b b6 5d 73 39 a0 4c 96 3a
       0.000108650085 0.002231831 0.00023209196 0.0011466928
0001b0 3c 2d 05 22 02 5c e6 27 26 b7 d1 21 68 38 26 27
       1.8048808e-18 6.393758e-15 1.421087e-18 2.3067706e-15
0001c0 66 ea 62 21 a0 57 32 26 31 52 eb 18 0a f1 e8 26
       7.6882e-19 6.187491e-16 6.082907e-24 1.6163568e-15
0001d0 65 87 d4 25 ab b1 dc 26 d0 3e 0e 1c 28 44 96 27
       3.6867885e-16 1.5313724e-15 4.706504e-22 4.170726e-15
0001e0 d0 3e 0e 1c 28 44 96 27 38 7e 55 2e 1b ef 33 27
       4.706504e-22 4.170726e-15 4.8542698e-11 2.497086e-15
0001f0 b4 d3 11 2f 7e 01 50 19 b4 8c c2 27 cf 5d 81 18
       1.3262885e-10 1.0753649e-23 5.3998367e-15 3.344044e-24
000200 54 68 a5 27 9b 4d 9f 1e b8 8f d6 1e 76 b2 9e 20
       4.5909813e-15 1.6866877e-20 2.2717572e-20 2.6884337e-19
000210 4b 87 41 20 a4 f3 94 1c a5 72 42 1e 30 06 c4 1a
       1.63925e-19 9.856798e-22 1.02939824e-20 8.1073696e-23
000220 c7 40 43 1d 5a f8 c0 1a d8 8b 4b 1b 6b 23 b2 18
       2.5841524e-21 7.981057e-23 1.6836952e-22 4.6047685e-24
000230 5e 5a 7c 1b b8 ec bf 1a 49 83 d0 1b e1 46 db 19
       2.0874151e-22 7.937819e-23 3.4495555e-22 2.2672697e-23
000240 e2 1f e5 1b 36 9b cc 1a 9b ef 88 1d 36 9b cc 1a
       3.7905476e-22 8.462318e-23 3.6246647e-21 8.462318e-23
000250 75 f0 88 1d be 89 26 28 43 98 d1 1f 07 cc 12 27
       3.6247527e-21 9.244719e-15 8.876684e-20 2.0372174e-15
000260 78 7a 86 14 3d fc 0f 20 de d7 f6 14 8a 85 6d 20
       1.3578848e-26 1.219603e-19 2.4924797e-26 2.0118865e-19
000270 8a 16 f7 17 12 0e 7a 1a 12 bb 4b 19 81 3d ac 18
       1.5967691e-24 5.1710154e-23 1.05326326e-23 4.452306e-24
000280 a5 a8 ac 15 cd 31 8c 17 87 57 9c 3b 82 28 a7 41
       6.973632e-26 9.059859e-25 0.0047711763 20.89478
000290 89 82 95 3b 94 ea f0 40 89 58 bb 3a ac 92 02 40
       0.00456268 7.528635 0.0014293353 2.0402021
0002a0 39 2b b2 3a 01 9c ad 40 d3 0e 6f 39 51 dd 5f 40
       0.0013593204 5.4252934 0.00022798339 3.497883
0002b0 66 8b e4 3a b1 ec 5b 41 66 8b e4 3a b1 ec 5b 41
       0.0017436564 13.745286 0.0017436564 13.745286
0002c0 a8 b1 1c 48 e1 71 f8 40 81 84 d0 48 10 4c 7f 36
       160454.62 7.763901 427044.03 3.8042235e-06
0002d0 1f 16 8d 41 a1 d1 3b 35 13 e2 55 41 db a9 87 38
       17.635801 6.996798e-07 13.367694 6.46894e-05
0002e0 0a 4a ea 3a 0d d0 64 3a 13 bd 9e 3a 9d 9c 83 39
       0.0017874849 0.0008728512 0.0012110792 0.00025102953
0002f0 e9 f1 33 39 ab 7e 86 38 d4 37 e5 3d e3 d0 9a 2b
       0.00017160889 6.413212e-05 0.11192289 1.1000336e-12
000300 e2 38 26 3d 57 99 06 2e cd cc 2d 3c fd 42 96 22
       0.04058159 3.0604266e-11 0.01060791 4.072851e-18
000310 d6 2e e5 3c 66 ae f7 2c d7 ee 9c 3c 03 b2 df 33
       0.027976435 7.0395243e-12 0.019156856 1.0416627e-07
000320 6f d1 91 3d 03 b2 df 33 6f d1 91 3d 7b a1 4e 44
       0.071200244 1.0416627e-07 0.071200244 826.52313
000330 ef cd 26 3d 8e 2c 0c 45 b6 d2 00 2f a5 4d c1 3d
       0.040723737 2242.7847 1.1716392e-10 0.09438638
000340 f1 9d ed 2d b7 cc 8c 3d b6 20 c1 34 24 4f 12 35
       2.701392e-11 0.06874984 3.5972852e-07 5.4504403e-07
000350 88 40 9c 36 a6 62 40 36 b7 a4 b6 31 3e a9 81 34
       4.6566747e-06 2.866765e-06 5.315623e-09 2.4151262e-07
000360 12 78 20 3b c4 ac ad 3e 7e 50 fd 3a 5b 10 ff 3d
       0.002448563 0.33920872 0.0019326357 0.124542914
000370 49 82 f5 3a 46 f3 10 3d 18 6a 20 3a 9e 22 b6 3d
       0.0018730845 0.035388254 0.0006119325 0.088933215
000380 14 f9 cc 3a 59 c7 71 3d d9 9d 75 3b 05 34 68 3e
       0.0015638196 0.059028003 0.0037478118 0.22676094
000390 d3 9d 75 3b 05 34 68 3e 05 0d c9 45 fc f8 0c 3e
       0.0037478104 0.22676094 6433.6274 0.13766855
0003a0 94 ce e1 45 c8 f0 59 37 ee 5f 97 3e 37 0a e9 36
       7225.8223 1.2990269e-05 0.29565376 6.9451303e-06
0003b0 0e 5a 63 3e e2 1c a1 38 1f 12 21 3c 98 3e aa 38
       0.22202322 7.682458e-05 0.009830981 8.117891e-05
0003c0 fa b6 d0 3b b8 c4 20 3a ac 17 55 3b 98 bc 38 27
       0.0063694688 0.0006132829 0.003251533 2.5637366e-15
0003d0 d7 11 11 30 6c 0a e8 25 48 ac 52 2f 8e 0a a6 2a
       5.2776045e-10 4.0252647e-16 1.9160595e-10 2.9494847e-13
0003e0 10 ef 5c 2e 65 b7 e2 1f 9e e2 0d 2f 3c ef 58 2a
       5.023454e-11 9.6018124e-20 1.2904386e-10 1.9267655e-13
0003f0 6f ca cb 2e 0e 23 74 1b dd 8f b8 2f 0e 23 74 1b
       9.2673307e-11 2.0194534e-22 3.3571626e-10 2.0194534e-22

exp_avg f4 [128]
000000 66 ed d2 bd 58 ef df bd ac 5c 87 bd 54 99 81 bc
       -0.102991864 -0.10934323 -0.06609473 -0.015820183
000010 84 9d 04 b2 e9 9a b3 21 9e b0 a6 be 62 67 8b bc
       -7.719226e-09 1.2170516e-18 -0.32556623 -0.01701707
000020 a4 38 18 3d b9 98 88 35 b7 f8 c2 3d e2 db 67 bd
       0.03716339 1.0177238e-06 0.09520095 -0.05660618
000030 1c 7a fd a5 e3 0c 2c bb 25 17 8c 29 1e 80 8c 9f
       -4.3971248e-16 -0.0026252798 6.221264e-14 -5.950426e-20
000040 48 a4 ab 28 5e 42 43 3d 80 83 2e 25 a4 3b f4 0e
       1.905606e-14 0.047670715 1.5136648e-16 6.0208076e-30
000050 82 96 96 3d bb 97 3d 3e ef 03 f7 b9 dd 01 85 bd
       0.07352926 0.18514912 -0.00047114442 -0.06494496
000060 20 df cb a7 7e ea 66 3d 28 78 3f be a3 fe fe bc
       -5.658573e-15 0.056375973 -0.1869818 -0.03112728
000070 02 16 d4 ba 44 5f 4d be 7a 28 a4 24 bd a4 fd 3d
       -0.0016180875 -0.20055872 7.119223e-17 0.12384937
000080 48 b1 f2 bd eb 3d 7c 3d e4 da 82 bd fd 97 b3 a1
       -0.1185022 0.061582487 -0.06389406 -1.2169743e-18
000090 e4 b4 cd bb b9 dd 8a bd 0b c8 a1 3d 28 6e 1b 26
       -0.0062776674 -0.067805715 0.07899483 5.3925717e-16
0000a0 30 9e 0a 25 e0 b5 67 3c 75 81 1d 3f b6 d8 21 ab
       1.2023188e-16 0.0141424835 0.6152566 -5.7499437e-13
0000b0 2a fd c8 3c 10 dd 46 bd 0e d7 3e bc 74 d9 c9 bc
       0.02453478 -0.048550665 -0.011647953 -0.024639823
0000c0 94 ac 48 be 98 3c 3f ae f5 a6 8a 3d f6 bb 2b be
       -0.19597083 -4.348219e-11 0.06770126 -0.1677092
0000d0 27 b9 95 b8 b5 1d 2e 3e 3e c7 7c bd ac 9f 21 32
       -7.139361e-05 0.1700352 -0.06171345 9.407739e-09
0000e0 0e 6d 50 bd f4 27 1e bf 14 b5 f1 bb 5e 0f 88 2f
       -0.050885253 -0.61779714 -0.0073763225 2.4749175e-10
0000f0 28 8a d2 a5 62 9c f7 3d 60 79 a1 af d0 49 7b 3c
       -3.652281e-16 0.120903745 -2.9371972e-10 0.0153374225
000100 94 d5 95 3d 80 1f ec bd 87 84 21 a8 79 48 4b bd
       0.073161274 -0.11529446 -8.966033e-15 -0.049629662
000110 4a 32 b8 bc ce c1 9c 3d 7c db 74 bc 1a 90 96 b4
       -0.022484917 0.07654153 -0.014944907 -2.8044525e-07
000120 d4 3b f7 bc cc 78 11 3c 0e af 6b 9f 8e 8b 3d 37
       -0.030179895 0.008878898 -4.9907987e-20 1.12977705e-05
000130 50 f9 46 3e 30 fd 81 3c b0 f0 4a 3d 71 9f 06 96
       0.19431043 0.0158678 0.049545944 -1.0874745e-25
000140 3c 92 e6 bc ac ac de bb ca df 60 b1 e7 94 b2 32
       -0.028145902 -0.0067954864 -3.27235e-09 2.078964e-08
000150 42 17 8a 3d 86 8f ba bd 9c 6a f6 3c e6 03 95 3d
       0.06742717 -0.09109406 0.030080132 0.07276134
000160 e0 3f 6f bb 7c 70 b6 3c 08 9d a1 be e2 72 ce bd
       -0.0036506578 0.022270434 -0.31565118 -0.10080506
000170 dd a3 8e 96 11 1d 06 be 22 c0 12 3e 09 e3 d3 bd
       -2.304475e-25 -0.13097025 0.14331105 -0.10346038
000180 dc e5 01 3c b6 42 94 25 27 62 f1 3f 8f 30 47 3f
       0.007928338 2.5719113e-16 1.8858079 0.7780847
000190 a4 11 96 a9 60 7a 4c bc c4 7a dd a7 69 b9 d8 af
       -6.664398e-14 -0.012480348 -6.1472925e-15 -3.9421913e-10
0001a0 90 4f 5f bd 46 ad 30 38 6e 03 08 3e a7 2f 74 24
       -0.054519236 4.2123043e-05 0.13282558 5.294943e-17
0001b0 5d bd 0c 3e 61 13 51 3e 52 a0 4f be 16 ab fa 3d
       0.13744111 0.20417549 -0.20276001 0.12239663
0001c0 84 f5 fc 3d 69 0d bf a6 fd f9 44 be 52 c9 c2 bb
       0.12351516 -1.3256922e-15 -0.19235988 -0.0059444094
0001d0 86 65 7d bd f8 58 c7 3b 55 39 8b be 72 c8 29 bd
       -0.0618644 0.006083604 -0.27192178 -0.041450925
0001e0 a3 7d 01 be 3e 0e 02 3e 86 9b da a8 b7 e2 37 b8
       -0.12645583 0.12700745 -2.427031e-14 -4.3841745e-05
0001f0 01 6b 13 b3 f4 38 bd bd 9a 1f 9b 3d 36 a9 10 9c
       -3.4323424e-08 -0.092393786 0.07574387 -4.7864303e-22
