results/imitationlearningfinal/RaceCar/RaceCar-2499975.onnx (onnx, 85166 bytes, 8 tensors)

action_model._continuous_distribution.log_sigma f4 [1, 2]
000000 61 17 05 c1 f6 01 f1 c0
       -8.318208 -7.5314894

action_model._continuous_distribution.mu.bias f4 [2]
000000 56 47 7e 3f d7 af 92 bd
       0.993276 -0.07162445

action_model._continuous_distribution.mu.weight f4 [2, 128]
000000 1b f6 79 3f a6 00 94 3c 90 5e c8 be 0f c1 28 bc
       0.9764115 0.018066715 -0.39134645 -0.010299935
000010 2d 48 17 3f 1c 35 fb bd ee 48 57 3d 30 7d bc be
       0.59094507 -0.12265989 0.052559786 -0.3681426
000020 9b a0 a5 3c 52 b2 43 bc b7 3c cc 3f 36 c2 92 ba
       0.020218184 -0.01194437 1.5956029 -0.0011196795
000030 2d b6 ea 3b 1b c7 68 3f 16 b8 19 3f 65 6d b2 3f
       0.0071628303 0.9092881 0.6004652 1.3939635
000040 05 1d 5a bd 2b 89 a4 3f c5 fd 22 3f 75 ab 4c 3e
       -0.05325033 1.285436 0.6366847 0.1998728
000050 af fc b8 3c ed 7d 7a 3d 4c 3d 56 3f fd db 31 bf
       0.022581426 0.06115525 0.8368728 -0.694763
000060 c6 1e 1c 3f 8f 96 f9 3f 1f 03 0c 3f 95 5a 70 3f
       0.60984457 1.9499072 0.5469226 0.9388822
000070 a6 03 bd 3b b9 82 9f bc bb 22 8a 3f dc 73 e5 3e
       0.005768257 -0.019471513 1.0791849 0.44814956
000080 d4 7f 35 3e 2f 0a 8b bc ed 1c 8f 3f 67 48 44 be
       0.17724544 -0.01697263 1.1180702 -0.19168244
000090 3a 1b ad bb 10 db a5 3f 59 d2 3b 3f 87 c4 aa 3f
       -0.0052827867 1.2957478 0.7336784 1.3341225
0000a0 8f 81 71 be d4 81 5e 3f 8f 9d 21 3d 31 89 92 3b
       -0.23584579 0.8691685 0.0394569 0.004471921
0000b0 6d 43 02 bc 87 ff 1a bc 17 cc 33 ba 36 d9 8e 3f
       -0.007950646 -0.0094603365 -0.000685872 1.1160038
0000c0 7d 62 1d 3f 36 9f aa be b8 56 16 40 9e 59 38 bb
       0.61478406 -0.33324593 2.349043 -0.0028129588
0000d0 e6 0a 92 3f 09 ef 69 3b fb 35 18 bf ec 02 f0 3e
       1.1409576 0.0035695455 -0.5945737 0.4687723
0000e0 19 b6 cb 3e 37 eb 16 be 7a 20 91 bd c2 8f be 3f
       0.39787367 -0.14738165 -0.070862725 1.4887621
0000f0 fc 76 5c 3f 07 75 a4 be 5a 0b 44 bd 6c 64 30 ba
       0.86119056 -0.32120535 -0.04786239 -0.0006728831
000100 ef 1b de be f6 8f 53 be 23 d5 4f 3d f8 34 88 3f
       -0.43380687 -0.20660385 0.050740372 1.0641165
000110 fc 32 d7 bc a2 78 06 3a 69 60 90 3c c8 b0 7c ba
       -0.026269428 0.000512967 0.017624097 -0.00096393796
000120 5b 17 6c 3d 9c 4a e3 3f c2 17 08 3c 28 a9 90 3c
       0.05763946 1.7757144 0.008306446 0.017658785
000130 d1 d0 a8 3a 6b 74 aa bc 03 93 e1 ba e9 93 e9 bd
       0.0012879615 -0.020807466 -0.0017209951 -0.11405165
000140 e1 e9 a1 3f c5 4e 95 3f dd 19 ad bc 1d c2 3a 3f
       1.2649499 1.1664664 -0.021130497 0.72952443
000150 8e a5 3d 3c 87 59 b8 bd 82 89 33 bd d4 67 0c 3d
       0.011575116 -0.09001451 -0.04383231 0.034278706
000160 7b 63 1e 3f 90 bd 26 bc de 8f 52 bc 5a 92 db bd
       0.61870545 -0.010177031 -0.012851683 -0.10721274
000170 05 dd 99 3a d3 e1 79 bc be 84 74 bb 53 cc a6 bd
       0.0011738843 -0.015251595 -0.0037310566 -0.081444405
000180 fb 10 44 3f 10 86 07 3f c7 d0 5f 3f c6 85 3f be
       0.7658841 0.5293894 0.87427944 -0.18703374
000190 a4 32 f6 bd ff c2 2f 3c a2 ef 44 bc 99 a3 5a bc
       -0.12021378 0.010727643 -0.012020024 -0.013344669
0001a0 03 d6 38 bd 46 69 96 3d 4e a5 83 3f 6b bd 52 3e
       -0.045125972 0.07344298 1.0284822 0.2058007
0001b0 bb 3a b3 be e6 5d b8 3e 3e c3 83 bd 05 db 0f 3a
       -0.35005745 0.3600914 -0.06433724 0.00054876535
0001c0 c1 75 77 3f 45 8e d0 3f a5 73 2b bd 00 aa 0d 3d
       0.96664053 1.6293417 -0.041858334 0.034585953
0001d0 62 7f 14 3c 28 33 35 3b d9 18 63 bc c8 4f d8 bd
       0.009063574 0.00276489 -0.013860905 -0.10562092
0001e0 42 19 3b bc 1f ec 9a 39 b1 e7 26 bd 11 70 5f 3b
       -0.011419596 0.00029549093 -0.040748302 0.0034093896
0001f0 d7 68 92 3f a4 e0 20 bd 10 87 00 3b cb 7b 6b bd
       1.1438245 -0.039276734 0.0019611754 -0.057491105
000200 17 f7 39 3e e0 05 9c be 44 49 2c 3d d3 ca 25 bd
       0.18160664 -0.30473232 0.04206206 -0.04047663
000210 b9 3c 78 bc ed d2 89 bd 46 63 77 bd 87 71 cb bd
       -0.015151196 -0.06729684 -0.06039741 -0.09933763
000220 79 cc 6c bd 16 7d 5c bc 49 f5 80 3d 67 5b 2b bb
       -0.057812188 -0.013457557 0.062967844 -0.002614701
000230 6c ac 4b 3b 12 57 50 be 77 c5 0d be 5d 34 e8 bb
       0.0031078113 -0.20345715 -0.13844858 -0.0070863203
000240 38 a9 0d bd 16 89 b3 be 72 54 c6 bd 5d 57 8f be
       -0.034585208 -0.35065526 -0.096840754 -0.2799634
000250 3b 6f 9d bc cd 64 84 be 6c b4 0a 3e 01 57 db 3c
       -0.019218078 -0.25858155 0.13545388 0.026774885
000260 6d 0c 97 3b 3a 92 be bd 8b 05 97 bd d1 84 6a bd
       0.0046096356 -0.09305234 -0.07374104 -0.05725557
000270 a2 17 a7 3c 93 88 44 bd 8f b4 08 3e cb a9 3c 3c
       0.020397011 -0.04798181 0.13350128 0.011515091
000280 26 0c 17 bd 62 e8 a2 bd ca 04 1d bc d8 d5 cf bb
       -0.03687682 -0.0795448 -0.009583661 -0.006342631
000290 f7 56 f3 3b 75 34 52 bc 8c e4 aa 3d a8 0f eb 3c
       0.0074261385 -0.01282989 0.08344373 0.028693989
0002a0 c4 d3 6d bd bc b9 6e bd 8b 47 3e 3d f8 37 90 be
       -0.058063284 -0.0582826 0.046454947 -0.281677
0002b0 d7 74 55 be 48 27 4e ba 97 13 5b 3c 00 5d 53 3c
       -0.20845352 -0.000786413 0.01337137 0.012900591
0002c0 93 d0 c3 bd 47 c2 6d bd fb a3 01 be df b8 b8 be
       -0.09561267 -0.058046605 -0.1266021 -0.36078545
0002d0 17 4d ba 3d 07 77 b8 38 40 79 a0 3b 1b d7 c0 b8
       0.09096735 8.795974e-05 0.0048972666 -9.19534e-05
0002e0 d7 14 43 3d aa d0 c0 be 0c 58 ee bd e4 2a 83 3d
       0.047627296 -0.37659198 -0.11637887 0.06404665
0002f0 38 e4 b9 3d e4 26 88 3c ee 73 ac be e0 a8 e7 bd
       0.090767324 0.016620107 -0.33682197 -0.11311507
000300 b8 dd 7e bd 36 fa db bd 6e 48 32 be 17 9f c0 bd
       -0.062223166 -0.10741083 -0.17410442 -0.09405344
000310 b2 7c 02 3c 85 e9 e6 bb 55 aa 98 3a c1 47 85 bc
       0.0079643 -0.0070468807 0.0011647443 -0.016269566
000320 43 f5 ec be 7e 4f 70 3d fb 10 d0 bc 81 58 80 be
       -0.4628087 0.05866956 -0.025398722 -0.25067523
000330 6b 23 71 3c dd 8e 6d bd 2a 39 91 bc c9 92 47 be
       0.014717917 -0.057997573 -0.017727453 -0.19489588
000340 67 65 af be 2c d5 89 3c b4 9a 8f be a9 5e aa 3c
       -0.3425705 0.016825281 -0.28047717 0.02079709
000350 e0 bc 0e 3b 0e 31 82 bc 47 03 99 bc ab d1 2d 3b
       0.0021780059 -0.015892532 -0.01867832 0.0026522677
000360 4c 07 04 be cd e1 63 bb 37 2a 10 3b 18 0c a8 bd
       -0.12893409 -0.003477204 0.0021997818 -0.08205432
000370 f8 a3 e6 bb d1 b8 9d bc fe 60 a6 ba 39 eb 12 be
       -0.0070385896 -0.019253166 -0.0012693701 -0.14347543
000380 40 12 c3 bd 33 30 8c bd 56 6b 9d bc a8 ee d2 bc
       -0.09524965 -0.06845131 -0.01921622 -0.025748566
000390 ae 5f 1a bc 93 5a e6 bb ef 3b ac be 68 6c be 3c
       -0.009422226 -0.0070298403 -0.33639476 0.023245052
0003a0 fc 8f ae be 73 04 ad be eb 0b a2 3d 1c b1 44 3c
       -0.34094226 -0.33792457 0.079124294 0.012005117
0003b0 fd 40 91 be 8a d6 e0 3b f2 99 35 be a7 86 a2 be
       -0.28369895 0.0068615125 -0.17734507 -0.31743357
0003c0 bc e1 01 3e 86 58 6f 3c e6 6b 85 be cb 68 01 3c
       0.12683767 0.014608508 -0.26058882 0.00789852
0003d0 1d b2 7e bb e9 c8 b9 bb 8a 9e c6 bc 89 64 d5 3d
       -0.0038863488 -0.0056697023 -0.02424552 0.10419566
0003e0 fb c1 b6 be 6d 4c 23 bc 67 40 85 bc 5e 32 48 bb
       -0.3569487 -0.009966952 -0.016266061 -0.00305476
0003f0 ad 56 b9 bb 8d 11 b0 be 9a a0 a8 3b 4f 9b b3 be
       -0.0056560845 -0.3438839 0.0051460983 -0.3507943

action_model._discrete_distribution.branches.0.weight f4 [1, 128]
000000 f1 0a cc ba 58 f6 df bc 6b 41 56 3b 6d ce d1 3b
       -0.0015567226 -0.027339146 0.00326928 0.0064027817
000010 fd dd 8b 3b 7a ce 4d bc bb 65 b1 3a 08 8c 31 3c
       0.0042684064 -0.012561435 0.0013534346 0.010836609
000020 a7 c5 82 bb bd a2 0f 3c 09 59 b7 3b 0a fa 9b 3c
       -0.003990847 0.008766827 0.0055953306 0.019040126
000030 ad eb 4f 3c 0c 60 40 39 00 d5 d4 ba f0 f8 56 3c
       0.012690467 0.00018346327 -0.0016237795 0.013120875
000040 a7 77 7c 3b c7 c5 ad bb 3a 8f 48 bc 15 22 8a bb
       0.0038523467 -0.005303118 -0.012241179 -0.0042154887
000050 f2 ca 52 bc 6a da 8e 3b 7d ca 08 bc cb 65 e6 3a
       -0.012865769 0.004359533 -0.008349058 0.0017577944
000060 77 db 02 bc 99 31 c2 bb e9 f8 05 bc 3d ac 52 3c
       -0.007986895 -0.0059263227 -0.008177021 0.012858448
000070 e0 3b 1f bc 5b bd 4f 3c 9b 34 29 3b ab d1 8e bc
       -0.009718865 0.012679423 0.0025818709 -0.017433962
000080 28 34 60 bc 60 6b 14 bb 10 1b 40 bc 7b 0a 88 bb
       -0.01368431 -0.0022647008 -0.011725202 -0.00415164
000090 3f 45 e7 3b ad 99 54 bc 6f 82 f5 3b f0 fc a2 3b
       0.0070578153 -0.012976092 0.0074923555 0.004974
0000a0 b1 10 28 bc 34 35 3c bc de 19 96 3c 78 45 5d bb
       -0.010257886 -0.011487294 0.018322881 -0.003376333
0000b0 4d 75 30 3b 93 22 82 3b 3a cd 06 3a 5f 59 84 bc
       0.0026925385 0.0039714067 0.00051422755 -0.016155897
0000c0 b7 4b a6 ba b7 20 85 39 45 7a 0d 3c 45 09 d6 3b
       -0.001268736 0.0002539211 0.008635108 0.0065318667
0000d0 e3 47 2c 3c 65 db bd 3a 05 9a f9 bb 72 f4 04 3c
       0.010515186 0.001448494 -0.0076172375 0.008114921
0000e0 f8 5d 36 bc 55 05 84 bc 97 6b 56 bc ed 91 f3 bb
       -0.011130802 -0.016115824 -0.013087175 -0.007433167
0000f0 49 7f 18 bc 6d e7 6d b7 af 97 a6 3b 4f f6 06 3c
       -0.009307691 -1.4180184e-05 0.005084 0.0082374355
000100 e3 3c 86 3b da b1 cf 39 13 8a e1 3b 93 07 b8 bb
       0.0040966137 0.00039614626 0.006882915 -0.0056161373
000110 9a a7 ce 3b c6 d2 22 3b 9f 3d c4 bc 42 82 0a bb
       0.0063066008 0.002484487 -0.023955164 -0.0021134769
000120 83 ae 1f 3c eb a0 fd 3b 44 81 21 bc 17 07 2f bb
       0.009746197 0.00774013 -0.0098574795 -0.0026707107
000130 6f a5 2e bc d5 ea b8 3b 9d 8e 90 3b 67 da 04 3c
       -0.01065956 0.0056432285 0.004411532 0.008108712
000140 10 81 b6 3a f6 fa 9d 3c f2 14 b4 b8 c4 a9 85 3c
       0.0013923962 0.019284707 -8.58697e-05 0.016316302
000150 31 64 9d bc f3 77 b6 3a 35 12 ed 3b 18 42 94 bc
       -0.019212814 0.0013921246 0.0072348365 -0.018097922
000160 74 3b 2f 3c 60 e9 12 3b 17 06 d7 3a 49 44 3e bc
       0.010695327 0.0022416934 0.0016405013 -0.01161296
000170 17 09 1a 3c 80 c3 e3 3b c2 da 1c bb 43 2e ba bb
       0.009401581 0.0069507957 -0.00239341 -0.0056817844
000180 88 93 90 3b 8f 9a c3 ba af 63 0f bc db b0 05 3c
       0.0044121183 -0.0014923381 -0.008751794 0.008159841
000190 1d 7d 9c 3b 43 6b 81 3b ec ba 8e 3c ab 49 09 3c
       0.004775657 0.003949554 0.017423116 0.00837938
0001a0 53 2a 09 3c 0a 7a b3 bb c3 e2 d4 3b 42 d3 e9 bb
       0.008371907 -0.0054771947 0.0064967587 -0.0071357796
0001b0 1d ad 7c 3b 59 39 2d bb 1b 4f f8 bb d8 b7 13 bc
       0.0038555332 -0.0026431887 -0.0075777895 -0.009016
0001c0 3b c2 88 bb e5 77 35 bc bb 38 4f bb dd 7a 17 bc
       -0.0041735447 -0.011075948 -0.0031619507 -0.0092456015
0001d0 87 1a b1 bb bc a5 8e bb c8 dd 1c 3c 61 df 15 3c
       -0.0054047736 -0.004353253 0.009574361 0.009147496
0001e0 66 14 c4 bb bb 45 46 3c 33 c8 0c bb d8 fe 2d bc
       -0.005983877 0.012101586 -0.0021481633 -0.0106198415
0001f0 c8 03 f4 ba 24 15 21 3c df d5 2b bc c3 d7 40 bb
       -0.001861685 0.0098317005 -0.010488003 -0.002942548

network_body._body_endoder.seq_layers.0.bias f4 [128]
000000 e9 55 25 3e 2f c1 e3 3b 2a cb 5a 3c 74 4e 81 be
       0.16146053 0.0069505195 0.013354102 -0.25255167
000010 8f ef cb be 0d 27 97 3e 39 f3 ad 3e 55 13 48 3e
       -0.39831206 0.2952198 0.33974627 0.19538625
000020 ce 51 0a 3e a1 ce 3d 3b bc 16 18 ba 1a af a5 3e
       0.13507769 0.0028962272 -0.00058017275 0.32360154
000030 ad f7 28 bf f5 7d c7 bb d1 96 65 bf 49 c2 ee be
       -0.66002923 -0.0060880133 -0.8968325 -0.46632603
000040 b3 01 fc bd a5 fa f0 3d cf f3 b1 3e 0f 0a d9 be
       -0.123050116 0.11766557 0.34756324 -0.42390487
000050 12 75 81 3e 78 fa 90 bd b8 90 fc bc 3e 5f d8 bd
       0.2528463 -0.07079023 -0.030830726 -0.10565041
000060 7a 10 09 3f 2d a0 f6 bc 66 43 e9 bc d8 bd 75 be
       0.53540766 -0.030105675 -0.02847452 -0.23998201
000070 8c 3b 1b 3e b0 b6 dd be 76 91 23 3d dc f3 01 bf
       0.15159434 -0.43303442 0.039933644 -0.50762725
000080 a5 2c e0 3e 4d 54 66 be 2c a0 5c 3e d0 36 1e 3f
       0.4378406 -0.22493096 0.21545476 0.6180239
000090 03 1c 03 3e 64 12 d5 bd 79 f2 1c 3e 40 fb e2 be
       0.12803654 -0.10403898 0.15326871 -0.44332314
0000a0 d7 25 06 3e 8b 7d af 3d 5b c1 9c bd 6d 44 38 3f
       0.13100372 0.08568867 -0.07654067 0.7197941
0000b0 4d d5 d6 3d c1 10 70 be e8 94 17 be 7e f8 bf bd
       0.10489903 -0.23443891 -0.14802897 -0.09373568
0000c0 13 20 d0 3d 9e d7 1e bf d4 d1 ac bd 3b 0c 7c 3e
       0.10162368 -0.62047756 -0.08438459 0.2461404
0000d0 88 f3 8b 3e 51 c7 65 be a1 9d 08 3f ae 72 14 3f
       0.27334237 -0.22439314 0.5336552 0.5798749
0000e0 f1 f8 a1 3e 51 a3 b2 bd fd 00 8d 3d a3 e7 98 3e
       0.3163524 -0.087225564 0.06884954 0.29864225
0000f0 a0 16 75 3e c6 4a e0 3c b7 2d d0 be 4a ee 96 3d
       0.23934412 0.027379405 -0.40659878 0.07369669
000100 27 63 fc bc 17 58 96 be ae 2f 57 3f 3a 76 58 be
       -0.030808998 -0.29364082 0.8405713 -0.2113885
000110 75 ef 96 be 9a b3 bc bb 10 0b 08 be c7 f9 0b 3e
       -0.29479566 -0.005758715 -0.1328547 0.13669501
000120 84 ed d4 3c 4b 0d 16 be 6d 13 b7 3d 01 2c bd 3d
       0.025992163 -0.14653508 0.08939252 0.09236909
000130 27 45 04 3e e5 7c ab bd 6f 80 ab bb eb 42 da be
       0.12917005 -0.08373431 -0.0052338163 -0.4262918
000140 82 e6 4f bd fb f4 e1 be ce 72 e1 bc b6 c2 4c 3e
       -0.05075694 -0.44132218 -0.027520563 0.19996151
000150 e3 8d 1c be 70 38 79 3e b8 b9 51 3e 09 57 4f 3e
       -0.152885 0.24337935 0.20481002 0.20248045
000160 3a 65 b9 3d db 8a 8b be 0c 60 95 3e 02 be de bd
       0.090525106 -0.27254376 0.2917484 -0.10876085
000170 d5 d1 67 3f 72 ab 62 3c 3d 95 27 be 42 24 6e bd
       0.90554553 0.013834821 -0.16365524 -0.058140047
000180 cc 69 90 be 83 9e 04 bf 32 13 a2 3e c9 f6 3e be
       -0.28205717 -0.5180437 0.3165527 -0.18648829
000190 d0 a3 83 be 00 56 4e be 9b f6 6f 3f bf 9c a5 3b
       -0.25710917 -0.20149994 0.93735665 0.005054086
0001a0 c7 83 81 bd 59 3f 00 bf 56 5a 0b be be d8 3c 3e
       -0.06323963 -0.5009666 -0.13608679 0.18442056
0001b0 eb a2 65 bd 87 a0 07 3f 00 2f fc bd 6e 03 12 3c
       -0.056063574 0.5297932 -0.12313652 0.0089119505
0001c0 b7 59 90 3d 3b 3c b7 bd f0 23 d6 be da 86 6e bd
       0.07048362 -0.08947035 -0.41824293 -0.058234073
0001d0 4e fa d6 3d 54 fe 43 3d c9 ca 93 3e 6c 76 5a 3e
       0.104969606 0.047849968 0.2886565 0.21334237
0001e0 74 51 25 be ef 8d d1 3e 76 76 1f 3f 1d 5e 6b be
       -0.16144353 0.409286 0.6229013 -0.2298512
0001f0 ab 58 2e bf 40 24 73 3d 33 66 28 bc aa 88 b9 be
       -0.68104047 0.059360743 -0.010278272 -0.3623708

network_body._body_endoder.seq_layers.0.weight f4 [128, 27]
000000 1a 3a dc 3c 0f 64 99 3e d6 0e 8c be 73 05 03 3d
       0.026883174 0.2995915 -0.2735507 0.03198762
000010 ec c4 4f 3d 6f a4 0b be 3f c2 70 3b f6 ca a3 bd
       0.05072491 -0.13636945 0.0036736873 -0.07997696
000020 06 77 a5 3e 19 9f 12 bc 36 ab 27 be 74 7b 35 3e
       0.3231737 -0.008949065 -0.16373906 0.17722875
000030 69 27 c1 3d fc 5f db be 2e 25 aa 3c b2 eb a0 be
       0.09431345 -0.42846668 0.020769682 -0.3142982
000040 e7 cd 16 bd 62 01 b5 be fd 18 e3 ba 71 d2 fb 3c
       -0.036817458 -0.35352618 -0.0017326173 0.030739995
000050 1c 11 8f 3c e1 73 88 3e c6 96 d8 bc 5c 4b 6d 3e
       0.017464213 0.2665091 -0.026439082 0.23173279
000060 c6 21 82 3e 75 12 c6 be c4 04 31 3d b2 c6 27 be
       0.25416392 -0.38685957 0.043217435 -0.1638439
000070 da 51 b3 bc 57 95 a2 be f0 c8 29 bd b9 a9 55 be
       -0.021889616 -0.31754562 -0.041451395 -0.20865525
000080 b7 29 8d be d7 c5 40 3e 8a c0 0b 3e a2 58 96 3d
       -0.27570888 0.1882547 0.13647667 0.07341124
000090 9b b4 47 bd 09 24 17 be 87 04 d9 bd 19 77 6c 3e
       -0.048756223 -0.1475984 -0.10596567 0.23092307
0000a0 e0 28 23 3e 0e a3 1f 3e 2c 38 9c be 45 57 e2 bd
       0.15933561 0.15589544 -0.30511606 -0.110518016
0000b0 f2 4f 4e 3e 5f ce f0 3d 71 f3 04 be 97 4f b1 bd
       0.20147684 0.11758112 -0.1298349 -0.08657759
0000c0 e8 46 42 bd f1 19 b9 be b7 fe 53 be bc c4 d5 be
       -0.047430903 -0.36152604 -0.20702635 -0.4175166
0000d0 85 9d 1d bf 05 49 4c bd 0c dc 94 3f ba 1b 62 3e
       -0.6156848 -0.049874324 1.1629653 0.2208089
0000e0 38 bc 7e be 4a ce 43 3e 1c e1 81 be 7e c2 ba 3e
       -0.24876487 0.19121662 -0.25367057 0.3647651
0000f0 85 13 93 be c8 e6 37 be e3 8f 5c bf b1 f1 97 3e
       -0.2872583 -0.1795913 -0.86157054 0.29676583
000100 19 12 10 3f c4 c1 0a 3d 67 73 5a 3f e7 3e 8c 3d
       0.56277615 0.033876196 0.8533234 0.06847935
000110 16 5d c8 3d 1d 9e 08 3e 37 a8 2f be 02 b3 ee 3f
       0.0978338 0.13341565 -0.17154013 1.8648379
000120 ef 7d 03 bf be a3 f9 be 52 05 8b be 20 b1 ac bf
       -0.51364034 -0.48757738 -0.27152497 -1.3491554
000130 0c 77 1d 3f 4b 3e a2 be df 95 b7 3d 92 c1 14 40
       0.61509776 -0.3168815 0.089641325 2.3243146
000140 e7 d8 b6 3f 46 de 29 be ff 9f 53 be ca 1f c3 bd
       1.4284943 -0.16588697 -0.20666502 -0.09527548
000150 f8 20 90 be 3f c3 83 be 89 6b a4 be d7 f4 58 bd
       -0.28150153 -0.25734898 -0.32113293 -0.052967872
000160 a7 e0 ca be 3b 69 f2 bc 7f ea f1 be ff 59 8e 3e
       -0.3962452 -0.029591193 -0.4724922 0.27803037
000170 fd 40 52 be ba 8e fe 3d 9e dc a6 be ea 57 f8 bd
       -0.20532604 0.12429567 -0.32590193 -0.12126143
000180 46 b3 d0 bd f5 21 fe 3b 36 fb 86 be 05 70 93 3e
       -0.10190444 0.007755513 -0.26363534 0.28796402
000190 9e b3 65 3e c4 53 7b be 8d 44 1d 3f d2 7c a3 be
       0.224318 -0.24543673 0.61432725 -0.31931168
0001a0 98 42 cf be af 32 27 bf d8 30 71 bf ef 8b 8a 3d
       -0.40480494 -0.6531171 -0.94215155 0.067649715
0001b0 1f 9a 27 3f 3f e1 ab be 9e fd 01 bf 52 bd ca 3e
       0.65469545 -0.33570287 -0.50777614 0.39597565
0001c0 41 a4 cb 3e 59 c0 ce be 84 bb e9 ba 69 93 bc 3d
       0.39773753 -0.40381125 -0.0017832373 0.09207804
0001d0 aa 4d bc be fd 0c 48 3f c2 89 0e bf c2 c0 23 bf
       -0.36778003 0.7814482 -0.5567895 -0.63966
0001e0 ae c3 a1 be 6a 02 5c bf 3a 67 99 3d 70 9e fd 3f
       -0.31594604 -0.85941184 0.07490392 1.9813976
0001f0 16 48 d8 3d 2f 60 f1 3f 29 53 7b 3e af 82 2c c0
       0.10560624 1.8857478 0.24543442 -2.6954763
000200 02 2e fa 3e 77 37 9f 3f 77 0a 9e bf 05 02 a6 3f
       0.48863226 1.2438802 -1.2346944 1.2969366
000210 5e ca 1c 3f ec 9b 0f c0 c8 63 90 bf 59 53 c7 bf
       0.6124629 -2.2438917 -1.1280451 -1.5572311
000220 be 0a 86 3f eb 33 b9 3e 11 8e 3d 3f 1d 6a 07 3f
       1.0472028 0.36172423 0.740449 0.5289629
000230 f8 16 b0 3d 4c 54 8d 3e 17 87 eb 3e de 84 bf 3f
       0.08598131 0.27603376 0.46001503 1.4962423
000240 8d 6b 8e 3e be bb c9 bf 46 73 d6 3e 28 db e0 bf
       0.2781643 -1.5760419 0.41884822 -1.7566881
000250 1c 70 ba 3e 85 25 ae 3d 1c 47 84 bf b8 19 ad 3e
       0.36413658 0.0850325 -1.0334201 0.33808684
000260 72 1b 3a bf 21 a4 d2 3e ea c7 85 3f 61 94 ac bd
       -0.7269813 0.41140845 1.0451634 -0.084267385
000270 64 81 23 3f 76 e2 91 3f db 04 b0 bd 6b 5d 02 be
       0.6386931 1.1397235 -0.08594676 -0.12730949
000280 93 83 96 bc 85 27 08 bf 1d 55 63 3f ff 9b a4 3e
       -0.018373286 -0.531853 0.8880175 0.32150266
000290 59 da fd 3e 89 84 8c 3e 46 bb 5e 3f 48 5c a6 3e
       0.4958065 0.27444866 0.87004507 0.3249228
0002a0 d9 68 e9 3e 0f 23 18 3f 94 74 4b 3f 70 d6 ec bd
       0.45587805 0.59428495 0.7947476 -0.11564338
0002b0 d2 1e 09 3f 05 2b 6d 3c 29 e9 f8 3e ce 7b 72 3e
       0.53562653 0.014475589 0.48615387 0.2368004
0002c0 2e 1d 3b 3d b8 20 82 be 4d 83 3f bc 4b d7 b2 3f
       0.045682125 -0.25415587 -0.011689019 1.3971952
0002d0 32 96 05 be 20 b2 91 bf 4e 79 2e 3e 68 5b 48 3c
       -0.13045576 -1.1382484 0.17038462 0.012228824
0002e0 7c ce 06 bf 18 1f 3a bf 98 db 54 be 89 ea 9c bf
       -0.5265882 -0.72703695 -0.20786893 -1.2259074
0002f0 5f 7d 5b 3e 0b 18 d6 be 31 39 03 be aa 20 9c be
       0.21434544 -0.41815218 -0.12814786 -0.3049367
000300 2b 2c 98 3e 7d 50 e0 bd e5 45 86 3e d4 3b 96 3e
       0.29721197 -0.10952852 0.262252 0.2934252
000310 46 da 1d 3e 71 3a f8 be e3 1f c6 3e f2 b4 c4 bc
       0.15415296 -0.48482087 0.38696203 -0.024012063
000320 d8 8c 9a bd c2 03 30 be c6 b8 3b 3d 5d 6e 3e 3e
       -0.07546395 -0.17188933 0.04583051 0.18596788
000330 f7 67 f7 be ad e0 f1 bc 64 44 a2 be 1b c8 ce 3e
       -0.48321506 -0.02952608 -0.31692803 0.40387043
000340 65 9c 1a 3e 3e 13 0e bc 10 8a 16 3e 79 12 6d 3f
       0.15098722 -0.00867158 0.14701104 0.9260631
000350 05 03 ee 3c 09 df 5f be 08 55 ee be 5e 7f 7a 3d
       0.029054174 -0.21862425 -0.4654925 0.061156623
000360 2f 05 6a be 81 24 b6 3e 94 6e 12 3e e3 fa d1 3e
       -0.2285354 0.35574725 0.14299995 0.41011724
000370 e8 43 2d bd 0e 5d ae 3e 82 94 b9 3e c5 97 47 3e
       -0.04230109 0.3405537 0.36246115 0.19491489
000380 a1 bf 77 bf 86 24 be 3e 39 2e 4d be 97 02 f7 3d
       -0.9677678 0.3713724 -0.20037164 0.12061041
000390 c6 97 94 be e2 11 0b 3d 80 75 97 3b 0c 44 8b 3b
       -0.29022044 0.0339526 0.0046221614 0.004250055
0003a0 51 a8 a3 bd 46 2c a5 3d 3d be 46 3d 96 98 13 bf
       -0.07991088 0.08065085 0.04852127 -0.576547
0003b0 8a 2d 72 3e f3 77 0a 3e 5f a3 93 3e 9f a2 f6 bc
       0.23650184 0.1352232 0.2883558 -0.03010684
0003c0 8b 90 66 bd 5a 0d c7 3e 07 dd 07 bc e6 ff e7 bf
       -0.05629019 0.38877374 -0.008292443 -1.8124969
0003d0 1a 7b 2b bd ca b4 3d 3e ec e8 51 bf b7 00 fe be
       -0.041865446 0.18525997 -0.81996036 -0.4960992
0003e0 5f 7d e7 3c 81 33 71 3d 14 57 9e be fd df 78 3f
       0.028258024 0.05888701 -0.3092581 0.9721678
0003f0 2f e0 87 bf 95 79 2b be 51 58 03 bf a2 d3 3d 3e
       -1.061529 -0.16745599 -0.51306635 0.18537763

network_body._body_endoder.seq_layers.2.bias f4 [128]
000000 96 8b 10 3f 49 07 2b 3e 7e 76 5d 3e 05 49 23 3b
       0.5646299 0.16701998 0.21627232 0.002491535
000010 39 42 02 3e fd c7 3d 3c 25 c7 93 3d 41 9e 24 bc
       0.12720574 0.011583325 0.07215718 -0.010047496
000020 11 10 be be 92 97 a4 ba 83 6f 00 3f 18 0d 8c bd
       -0.37121633 -0.0012557379 0.50170153 -0.06838435
000030 24 aa ee bb 24 87 b7 3e f8 be 04 3f 17 10 78 3e
       -0.007283466 0.35845292 0.51853895 0.24224888
000040 5f 96 f0 bb 62 55 42 3e b9 c1 e9 3e b7 03 af 3d
       -0.0073421444 0.18977883 0.4565561 0.085456304
000050 e6 fb a5 bc 2c 4f a4 3b 71 21 98 3e 21 04 84 bc
       -0.020261716 0.005014321 0.29713014 -0.01611525
000060 b9 29 12 3e fe 69 1c 3f ad da a7 3e 0d dd ae 3c
       0.14273728 0.6109923 0.32784024 0.02134564
000070 b3 f5 43 bc 37 e7 d0 3d 78 b8 ca 3e 28 02 dd 3d
       -0.011960435 0.10200351 0.39593863 0.10791427
000080 23 3a f1 3d 4f 93 6b 3c 1d 4b 73 3e f8 63 a5 3c
       0.11778667 0.014378383 0.23759122 0.02018927
000090 44 6c 2e 3d a7 12 45 3e 44 e8 93 3e 76 5c 10 3f
       0.04258372 0.19245397 0.28888142 0.56391084
0000a0 92 8e c3 3d 8b d3 63 3e 85 be 41 35 d3 51 15 3e
       0.095486775 0.22248666 7.2175345e-07 0.14581995
0000b0 70 19 2b 3e c4 16 b1 bc a3 7b 0c bc 82 df b3 3e
       0.16708922 -0.0216173 -0.008574399 0.3513146
0000c0 0e 17 9d 3e 8a 03 1b 3e 1b db c8 3e 4f 1d 02 3e
       0.30681652 0.15138069 0.39229664 0.12706493
0000d0 4c f1 7b 3e b7 23 e0 bc f0 c2 06 3e 5a ff 8e 3e
       0.24603766 -0.02736078 0.131603 0.27929193
0000e0 66 8a cb 3d 5a 2a 28 3e 07 2a a2 3d d2 33 aa 3e
       0.09938507 0.16422406 0.07918172 0.3324266
0000f0 a4 87 7f 3e 35 3b ed 3d a2 cc fa 3d 90 a4 6e be
       0.24954087 0.115835585 0.12246062 -0.23304963
000100 d8 02 f0 3d 2c 77 67 bd f1 4d d4 3d 2b 55 86 3d
       0.117192924 -0.056510136 0.10366429 0.06559213
000110 b8 a9 b9 bc 7d eb 02 bd 0c b8 e1 3e e6 92 a2 bc
       -0.022663936 -0.03196286 0.4408573 -0.019845437
000120 35 dc af 3e 2d 51 24 3e 88 85 1a bb 3f 3e 48 3e
       0.34347692 0.16046591 -0.0023578126 0.19554995
000130 71 f8 f7 ba 18 72 bc bd 35 80 05 bc 48 93 41 3b
       -0.0018918646 -0.09201449 -0.008148243 0.002953725
000140 63 a9 dd 3e ca 19 76 3e 9e 9b 5c 3d 1d 43 78 3e
       0.43293294 0.24033275 0.053859346 0.24244352
000150 5f bb f1 3d a1 3a 27 ba 22 e1 2e 3b 9b e3 cb 3c
       0.11803316 -0.0006379281 0.0026684483 0.024888804
000160 55 20 a2 3e 52 27 8a 3d aa 1b 8f 3d 13 b6 e0 3d
       0.31665292 0.06745781 0.069876984 0.10972228
000170 a1 b1 e1 bb 4c 49 c0 3b 65 99 a0 bc d8 63 4b 3e
       -0.00688763 0.0058681127 -0.019604394 0.19862306
000180 69 7b d7 3e cf c9 f3 3d 47 c7 b0 3e 22 d6 06 3d
       0.42086342 0.11903726 0.34527037 0.032919057
000190 0a c9 25 bd ae 6a 6f 3e cd 6a 92 3d 7f cb 44 bd
       -0.04047493 0.23380539 0.07149277 -0.04804563
0001a0 0b 25 0d 3f 3e 42 a6 3e 9e e4 a5 3e 57 ef 6b 3e
       0.5513465 0.32472414 0.32400984 0.2304052
0001b0 1c 75 d9 3e 6d 85 60 3e c8 33 b1 3d f4 26 f0 3d
       0.4247216 0.21925898 0.086524546 0.1172618
0001c0 9e fe a0 3e 43 15 60 3e d5 86 91 3e cc 5a 54 bb
       0.31444257 0.2188311 0.2842318 -0.0032402752
0001d0 3d f6 17 3e 6c 66 0b 3e 3e b4 01 3a f8 9b 15 3e
       0.14840026 0.1361329 0.00049478177 0.14610279
0001e0 b1 4d 74 3e ba 06 6f bc d8 97 d5 bb a8 30 27 3e
       0.23857762 -0.014589006 -0.0065183453 0.16327155
0001f0 c3 7d 77 3e 51 cd 98 3e 37 21 ba bc c4 73 10 3e
       0.24169068 0.29844144 -0.022720916 0.14106661

network_body._body_endoder.seq_layers.2.weight f4 [128, 128]
000000 fc 34 ac 3d 9e 8a c2 bd eb 4f d5 3d e6 8b 36 bc
       0.084085435 -0.094990954 0.10415634 -0.011141753
000010 b6 31 8d bd 40 51 cf bd ea 5d dc bf 81 fd b4 3d
       -0.06894247 -0.10122919 -1.721616 0.088374145
000020 34 76 11 3e 3b 94 ac 3b 7b 37 89 bd 58 b9 3b 3e
       0.14205247 0.005266694 -0.06700035 0.18332422
000030 0c 05 84 be d1 01 c8 3d b2 21 ab bd 82 16 c1 3d
       -0.257851 0.097659715 -0.08356036 0.09428121
000040 a9 c6 74 3d ed 1b 18 be 58 a0 a1 bd 35 cd 17 3e
       0.05975977 -0.14854403 -0.07891911 0.14824374
000050 00 94 e6 bd 34 c7 98 3d 1b fe 37 3e 27 17 7d be
       -0.112586975 0.0745987 0.17968027 -0.24715863
000060 f0 02 b8 bc 6e ab 33 3e 99 a9 4b bc 86 2d 1b bd
       -0.022462338 0.17545864 -0.012430572 -0.03788521
000070 c5 dc 1b bf 31 b3 cc bd bf b7 29 3e 7c d0 e5 3e
       -0.6088374 -0.099951155 0.16574 0.44885623
000080 c5 7a 92 3d 0b 93 50 bd 70 b0 97 bc 26 82 5c 3e
       0.07152323 -0.05092148 -0.01851675 0.21534023
000090 34 ec 15 3d 66 2a 45 3d 9d ed 4d bb aa eb ca be
       0.036602214 0.048136137 -0.0031422146 -0.39632922
0000a0 be b4 7f bd 3c 95 40 be 1b cb 96 bd 79 e6 ea bd
       -0.06242823 -0.18806928 -0.07362958 -0.114697404
0000b0 9f 26 70 3d b4 46 a8 bb 41 02 33 3a 76 47 31 3d
       0.058630582 -0.0051353816 0.0006828644 0.04328104
0000c0 54 2a a8 3e a5 f3 3a bd 70 07 7a bc dc 7d 2f 3e
       0.32844794 -0.045642514 -0.015260562 0.17137855
0000d0 b0 70 e0 bc 36 82 31 3d 94 68 37 c0 07 90 37 3d
       -0.027397484 0.04333707 -2.865758 0.04481509
0000e0 f5 bf 93 3d ea b4 b1 be 72 79 2a 3d c2 9e 05 bf
       0.07214347 -0.3470834 0.041619726 -0.5219537
0000f0 83 d7 57 bd 23 07 67 3d 53 94 02 be 30 f6 4f bd
       -0.052695762 0.05640329 -0.12751894 -0.050771892
000100 73 82 88 3d 0c 63 8d 3c c9 53 97 3d 99 20 22 3e
       0.06665506 0.017259143 0.073890276 0.15832748
000110 fe 30 95 3d 90 66 76 3d a0 c9 81 3d 0b d8 2a 3d
       0.07284735 0.060156405 0.06337285 0.04170994
000120 e5 2f 75 3d 97 79 04 3e a1 af 91 bd 76 5f 3f 3e
       0.05986013 0.12937008 -0.07113577 0.18688759
000130 c0 34 92 3d 25 ec 1e be a4 4e 0d 3e 4e 0f de bd
       0.071389675 -0.1551977 0.1379953 -0.10842763
000140 1c d8 06 3b 7b e3 12 3d ea b1 22 bd 6a a3 1d 3d
       0.0020575589 0.035861474 -0.039720453 0.038485922
000150 e4 98 3a bd 66 68 d9 bc b8 82 8a 3d cc 9f 05 3e
       -0.045555964 -0.026539039 0.06763214 0.13049239
000160 b2 ac ee 3d 7e 4b f7 bc 1f 0b c5 be af 6d 8d be
       0.11654033 -0.030187365 -0.38485047 -0.27622744
000170 87 81 a7 3d ba a6 a7 bd 6d 29 a7 3d 79 16 36 be
       0.08179002 -0.081860974 0.08162198 -0.1778201
000180 61 56 99 bd 38 4c 19 be bf a4 00 3f 17 2b bf be
       -0.074871786 -0.14970481 0.5025138 -0.37337562
000190 b4 9a a2 bd b4 74 13 be 5b 20 03 3e 00 03 ed bc
       -0.079396635 -0.14399987 0.12805311 -0.028932095
0001a0 fc ec bc 3d 39 4a 94 be 59 61 75 3d 31 99 38 bb
       0.09224889 -0.28962877 0.05990729 -0.002816748
0001b0 06 7f f7 3c 2d 58 1e 3b 09 e8 5f be a5 21 84 3d
       0.030211937 0.0024161444 -0.21865858 0.0645173
0001c0 ce 3c ae bd 90 9a 6f bd 97 25 fb bd d7 a8 32 be
       -0.08507691 -0.05849701 -0.12263029 -0.1744722
0001d0 66 10 5e be 33 dd 1b 3d 47 90 4f be 94 9a 8b 3d
       -0.21685943 0.03805275 -0.20269881 0.06816593
0001e0 2a 27 c5 ba 66 1c eb bd 52 6d 78 bd d5 b2 c5 bd
       -0.0015041579 -0.11480026 -0.06065113 -0.0965325
0001f0 87 4b 28 be 43 33 2d 3e 62 1b 09 bf da e8 14 be
       -0.16435061 0.16914086 -0.5355741 -0.14541951
000200 57 95 b5 be af 28 fd 3c ab a2 89 3d 14 80 e9 bd
       -0.354655 0.030903189 0.067204796 -0.11401382
000210 ff 69 8c 3d 58 0a f9 bd 7d 19 53 3c 26 fd b8 3c
       0.06856155 -0.12160176 0.012884495 0.022581648
000220 13 6c 86 bd 8c d8 71 3c e2 71 15 be 30 36 ea 3d
       -0.06563582 0.014761101 -0.14594224 0.11436117
000230 26 3e 93 bd e6 85 b5 bc 0e 31 39 be 0a 9a cf bd
       -0.07189588 -0.022158574 -0.18085119 -0.101368025
000240 67 78 9b 3e c4 c5 10 3d ff e1 75 bd 18 26 a2 3b
       0.30365297 0.035344854 -0.06002998 0.004948389
000250 80 10 98 bd 55 a3 a5 3b 9f f5 0c be d2 30 dd bc
       -0.07425022 0.005054871 -0.13765572 -0.027000818
000260 66 28 5a be 26 2f 1c 3d 70 df 84 3c bf 6e c3 bd
       -0.21304473 0.0381309 0.016219825 -0.095426075
000270 49 24 22 bd 5a 45 85 bf 21 2a 87 be 8f 9d 9b be
       -0.039585385 -1.041179 -0.2639933 -0.30393645
000280 e2 e6 4c 3d b3 0e b5 3c 89 47 a3 bd 00 1f b6 3d
       0.050024875 0.022101736 -0.079726286 0.088926315
000290 b7 a6 11 3e 3a 90 f5 ba 50 a8 12 be 3e ef 1b 3e
       0.14223753 -0.0018735 -0.14322019 0.15227982
0002a0 20 9b 07 be e9 d6 39 3d 34 ef e4 3e 38 64 83 bd
       -0.13242769 0.04537097 0.44713748 -0.064155996
0002b0 f5 cc 90 3c 41 52 b3 bd 1d 52 0e 3e f7 45 7b 3d
       0.017675856 -0.08755923 0.13898511 0.06134602
0002c0 ec fd 82 3c 0e 5f a1 3e 04 73 a8 3a 62 4c 33 3d
       0.01599022 0.31517833 0.001285166 0.043774016
0002d0 eb 45 e9 3d 69 a6 d2 bc cf 6a a6 3e a1 94 58 bc
       0.11390289 -0.025714116 0.32503363 -0.01321903
0002e0 c2 a7 f9 bb c0 65 41 be d3 11 1a 3e 68 81 3b 3d
       -0.0076188752 -0.18886471 0.15045862 0.04577771
0002f0 54 3d c8 bc bd 5c 01 3d 25 a7 35 bd 3c da 03 3c
       -0.024443306 0.031582583 -0.044348855 0.008047637
000300 fb 17 bf bd 41 f7 01 3e 82 fe e4 bd 19 05 62 3d
       -0.09330746 0.12691976 -0.11181356 0.055180643
000310 4d d9 97 bd 61 01 90 3d 8f 47 3a bd 66 e9 9b bd
       -0.07414494 0.07031513 -0.0454784 -0.076128766
000320 1e 72 90 3d 98 c7 9d bc 29 d5 6a be 2f 15 37 3e
       0.07053016 -0.019260213 -0.22932877 0.17879175
000330 7b 88 30 bd 47 81 67 3d ea cf 5c 3d 7b e2 ab 3b
       -0.043098908 0.056519773 0.05390922 0.0052455044
000340 f5 c1 ce bd bd f7 cb 3d f0 24 02 bd b9 8d 95 be
       -0.10095588 0.09959362 -0.031773508 -0.29209688
000350 7a f3 58 3d 65 3b 35 bd f8 dc 66 3c 97 99 4f be
       0.052966572 -0.044246096 0.014090769 -0.20273434
000360 af ba 81 3d 90 56 02 3e e8 ea 07 3d fa 0b 7b 3b
       0.06334435 0.12728333 0.03318301 0.00383067
000370 3c 64 f5 bd 0e 68 72 3c 92 a5 ec 3d b8 3d 33 3d
       -0.11982009 0.014795316 0.115550175 0.04376003
000380 3b 0e 84 3d b0 9e c1 ba 07 87 da 3e e0 4e 3c 3e
       0.06448027 -0.0014772024 0.42681143 0.18389463
000390 d8 7c 0a 3d 13 84 1c bc a0 26 91 3d 3c 91 0d 3e
       0.033810467 -0.009552973 0.07087445 0.13824934
0003a0 d4 ba c6 bd 85 0a f0 3d 92 1d dc 3d 8b 14 ea 3a
       -0.097036034 0.117207564 0.107478276 0.0017858905
0003b0 c7 d1 59 be 13 d5 67 3e b7 ad 92 be 2c 34 61 be
       -0.2127143 0.22639875 -0.2864816 -0.21992558
0003c0 e3 d6 06 3c eb bb c7 bd 29 a6 5a 3d 58 8e 85 bd
       0.008229944 -0.097526394 0.05338112 -0.065212905
0003d0 cc ec 8a 3c 27 b0 90 bd ed cc 24 3d fc e9 f5 bc
       0.016958617 -0.070648484 0.040234495 -0.030018799
0003e0 0f 3a b0 bb ec 33 88 3c 09 01 d5 3c d9 9c a5 bd
       -0.005378015 0.01662632 0.02600147 -0.08086557
0003f0 de 35 ac bd da e5 d0 bc 95 f9 78 3c a9 17 a2 3d
       -0.08408712 -0.025500227 0.015196224 0.07914669
