Assets/results/CubeAgent10/AutoAgentFinale/AutoAgentFinale-11889.pt (torch, 540991 bytes, 52 tensors)

network_body.observation_encoder.processors.0.normalizer.running_mean f4 [33]
000000 00 00 00 00 ae 33 50 3f 5a 46 5e 3f 00 00 00 00
       0.0 0.81328857 0.868261 0.0
000010 cd b9 4d 3f 21 67 5c 3f 00 00 00 00 1c 49 4e 3f
       0.80361634 0.8609486 0.0 0.80580306
000020 06 e6 5c 3f 00 00 00 00 db 26 4a 3f 13 36 5b 3f
       0.8628849 0.0 0.7896554 0.85629386
000030 00 00 00 00 4d 5a 47 3f 9e c7 59 3f 00 00 00 00
       0.0 0.77872163 0.85070217 0.0
000040 76 ba 46 3f 60 da 5b 3f 00 00 00 00 52 4f 3e 3f
       0.77628267 0.8588009 0.0 0.74339783
000050 2f f7 58 3f 00 00 00 00 35 b6 41 3f bd 16 5f 3f
       0.8475217 0.0 0.7566865 0.8714407
000060 00 00 00 00 d4 6f 33 3f 6f b6 5a 3f 00 00 00 00
       0.0 0.7009251 0.8543462 0.0
000070 60 70 3e 3f 22 63 63 3f 00 00 00 00 6c 6a 21 3f
       0.7439022 0.8882314 0.0 0.6305301
000080 b8 46 5d 3f
       0.86436033

network_body.observation_encoder.processors.0.normalizer.running_variance f4 [33]
000000 00 00 80 3f 09 d0 e1 44 2f 2f 90 44 00 00 80 3f
       1.0 1806.5011 1153.4745 1.0
000010 3c ae ea 44 be ec 96 44 00 00 80 3f 2c b3 e8 44
       1877.4448 1207.3982 1.0 1861.5991
000020 42 1b 95 44 00 00 80 3f aa fd f6 44 b3 27 99 44
       1192.8518 1.0 1975.927 1225.2406
000030 00 00 80 3f 0e 1d 00 45 2e 9f 9e 44 00 00 80 3f
       1.0 2049.816 1268.9744 1.0
000040 97 1e 01 45 f5 79 93 44 00 00 80 3f b6 d1 0d 45
       2065.9119 1179.8112 1.0 2269.107
000050 8c 34 9b 44 00 00 80 3f 7d e1 08 45 b7 fb 7f 44
       1241.6421 1.0 2190.093 1023.93304
000060 00 00 80 3f d3 d7 1b 45 ef f5 89 44 00 00 80 3f
       1.0 2493.489 1103.6854 1.0
000070 ef a2 0d 45 f2 b9 4a 44 00 00 80 3f ad 2e 2d 45
       2266.1833 810.9054 1.0 2770.9172
000080 a8 bf 63 44
       910.9946

network_body.observation_encoder.processors.1.normalizer.running_mean f4 [6]
000000 59 16 09 3f c6 15 77 bb 53 70 51 3f dd 58 09 43
       0.53549725 -0.0037702187 0.8181202 137.34712
000010 eb 7b 0f 3f 29 df ee 3c
       0.5604846 0.029159145

network_body.observation_encoder.processors.1.normalizer.running_variance f4 [6]
000000 1e 03 b5 43 0e c9 80 3f 1a 09 21 43 82 4d 0a 4b
       362.02435 1.0061357 161.03555 9.06381e+06
000010 04 a6 d2 44 40 da ab 43
       1685.188 343.70508

network_body.processors.0.normalizer.running_mean f4 [33]
000000 00 00 00 00 ae 33 50 3f 5a 46 5e 3f 00 00 00 00
       0.0 0.81328857 0.868261 0.0
000010 cd b9 4d 3f 21 67 5c 3f 00 00 00 00 1c 49 4e 3f
       0.80361634 0.8609486 0.0 0.80580306
000020 06 e6 5c 3f 00 00 00 00 db 26 4a 3f 13 36 5b 3f
       0.8628849 0.0 0.7896554 0.85629386
000030 00 00 00 00 4d 5a 47 3f 9e c7 59 3f 00 00 00 00
       0.0 0.77872163 0.85070217 0.0
000040 76 ba 46 3f 60 da 5b 3f 00 00 00 00 52 4f 3e 3f
       0.77628267 0.8588009 0.0 0.74339783
000050 2f f7 58 3f 00 00 00 00 35 b6 41 3f bd 16 5f 3f
       0.8475217 0.0 0.7566865 0.8714407
000060 00 00 00 00 d4 6f 33 3f 6f b6 5a 3f 00 00 00 00
       0.0 0.7009251 0.8543462 0.0
000070 60 70 3e 3f 22 63 63 3f 00 00 00 00 6c 6a 21 3f
       0.7439022 0.8882314 0.0 0.6305301
000080 b8 46 5d 3f
       0.86436033

network_body.processors.0.normalizer.running_variance f4 [33]
000000 00 00 80 3f 09 d0 e1 44 2f 2f 90 44 00 00 80 3f
       1.0 1806.5011 1153.4745 1.0
000010 3c ae ea 44 be ec 96 44 00 00 80 3f 2c b3 e8 44
       1877.4448 1207.3982 1.0 1861.5991
000020 42 1b 95 44 00 00 80 3f aa fd f6 44 b3 27 99 44
       1192.8518 1.0 1975.927 1225.2406
000030 00 00 80 3f 0e 1d 00 45 2e 9f 9e 44 00 00 80 3f
       1.0 2049.816 1268.9744 1.0
000040 97 1e 01 45 f5 79 93 44 00 00 80 3f b6 d1 0d 45
       2065.9119 1179.8112 1.0 2269.107
000050 8c 34 9b 44 00 00 80 3f 7d e1 08 45 b7 fb 7f 44
       1241.6421 1.0 2190.093 1023.93304
000060 00 00 80 3f d3 d7 1b 45 ef f5 89 44 00 00 80 3f
       1.0 2493.489 1103.6854 1.0
000070 ef a2 0d 45 f2 b9 4a 44 00 00 80 3f ad 2e 2d 45
       2266.1833 810.9054 1.0 2770.9172
000080 a8 bf 63 44
       910.9946

network_body.processors.1.normalizer.running_mean f4 [6]
000000 59 16 09 3f c6 15 77 bb 53 70 51 3f dd 58 09 43
       0.53549725 -0.0037702187 0.8181202 137.34712
000010 eb 7b 0f 3f 29 df ee 3c
       0.5604846 0.029159145

network_body.processors.1.normalizer.running_variance f4 [6]
000000 1e 03 b5 43 0e c9 80 3f 1a 09 21 43 82 4d 0a 4b
       362.02435 1.0061357 161.03555 9.06381e+06
000010 04 a6 d2 44 40 da ab 43
       1685.188 343.70508

network_body._body_endoder.seq_layers.0.weight f4 [127, 39]
000000 28 82 cd 3d 4a 01 54 be de 7a c8 3c a5 46 22 be
       0.10034591 -0.20703617 0.02447265 -0.15847261
000010 f4 69 d2 3d 8d ea 0b be e1 df 00 3e c1 1d eb 3d
       0.10274115 -0.13663693 0.12585403 0.114802845
000020 33 5b 73 bd 61 13 c0 3e 58 c8 d7 3d 54 7e 76 3d
       -0.059413146 0.37514785 0.105362594 0.06017907
000030 44 a9 3d 3d 6e ff 82 be 20 14 05 bd 73 3c 54 bd
       0.046304002 -0.25585502 -0.032489896 -0.05181546
000040 5b fd 1d 3e f3 27 27 be fe 23 9d be 23 c7 0d be
       0.15428679 -0.16323833 -0.30691522 -0.13845496
000050 22 c9 b5 bd 05 d8 61 3d 58 59 0b bd b3 5f c0 bd
       -0.08876254 0.055137653 -0.03402075 -0.09393253
000060 af ca 95 3e 3d 9c 25 3e 91 f3 7b 3e ee 32 a9 3d
       0.29256198 0.16172881 0.24604632 0.08261667
000070 f6 a4 2a be a2 9f 47 3e af b2 9a 3c 0b a5 16 3e
       -0.1666449 0.19494489 0.018884031 0.14711396
000080 0e 25 5f 3e 5b 6d 0c 3e f7 2d 4d bd 87 19 0d be
       0.21791479 0.13713591 -0.050092664 -0.13779269
000090 7c 46 af bd d1 7f 04 3e cb d7 27 3d f1 b3 ff 3d
       -0.08558366 0.12939383 0.04097728 0.12485493
0000a0 06 fc a0 be a0 4a 16 bd ce 2f 0b bd 6c c8 af bc
       -0.3144228 -0.03669226 -0.033981137 -0.021457873
0000b0 d6 06 fd 3b 47 2c 95 be e0 96 52 be 4d 78 8c 3e
       0.007721762 -0.29135343 -0.20565367 0.27435532
0000c0 64 12 ea be 68 ab 70 3e ad c1 1f be ae f6 c9 3d
       -0.45717156 0.23502886 -0.15601225 0.098615035
0000d0 77 de 93 3d a1 6f 94 3e e0 35 90 3d 64 31 2a 3a
       0.07220166 0.28991416 0.07041526 0.0006492345
0000e0 4f a4 1f be c3 be 66 be 6c 01 9e bd d3 71 20 3e
       -0.15590023 -0.22533707 -0.07715115 0.1566842
0000f0 e8 4b 1f be 48 5f 92 3d 88 01 ff bd 13 52 2e bd
       -0.155563 0.0714708 -0.12451464 -0.04255874
000100 e4 47 fe bd 73 3e 01 3b f0 07 a3 bd f9 00 27 bc
       -0.12416056 0.001972106 -0.07960498 -0.010193103
000110 4a 56 b0 bd b2 d8 65 3d c1 6e 1d 3e 6d d9 de 3c
       -0.08610208 0.05611486 0.1537428 0.027203286
000120 4b cd 0f 3e f8 fb 86 be cd 5d 14 be 12 c2 b6 bd
       0.14043157 -0.26364112 -0.14488907 -0.08923735
000130 5b 6c d7 3d a1 bd ff bd e7 c2 44 3d 2e 47 a4 3e
       0.10518714 -0.12487341 0.048037436 0.32085556
000140 16 b2 5e bd aa e0 08 3e 30 15 a8 3e dd 18 0a be
       -0.054369055 0.13366953 0.32828665 -0.13486047
000150 2b 9a 1d 3e 4d c8 e8 bd 66 93 64 bd 35 5e 97 be
       0.15390842 -0.11366329 -0.055804633 -0.29564062
000160 b9 a4 83 bd 4b 31 fc 3d 7e 24 96 3c 90 73 a0 bd
       -0.06427903 0.123140894 0.018327948 -0.07834542
000170 96 40 f0 3d 1c 3d 8c bd c2 17 98 be cb ab 58 be
       0.11731069 -0.06847593 -0.29705626 -0.21159284
000180 cc 2f af 3d 2e 16 11 3d dc be 1f 3d de d0 0b 3e
       0.085540384 0.035421543 0.039000377 0.13653895
000190 72 1d 90 bd 2f 19 a3 bd be 3d 07 bd 09 18 69 3e
       -0.07036866 -0.07963788 -0.033017866 0.22763075
0001a0 e1 f2 b5 bb 88 c5 40 bd c0 c5 15 3e 44 1e 25 bd
       -0.005552635 -0.04706338 0.14626217 -0.040312067
0001b0 26 15 8b 3d d9 29 52 3e e5 82 9c 3e 0e 6a 44 3d
       0.06791143 0.20523776 0.30568615 0.047952704
0001c0 d0 bb 00 3e 05 56 22 be a1 dd f0 bd cb 07 a0 be
       0.12571645 -0.15853126 -0.11761022 -0.31255946
0001d0 cc 73 13 be 56 17 a8 3d 7c c2 ef 3d 9d 02 b0 3d
       -0.14399642 0.08207576 0.11707017 0.085942484
0001e0 ae 9f 37 be 3b 69 40 3e 23 4d a3 bd ac 78 0b 3b
       -0.17932007 0.18790142 -0.07973697 0.0021281643
0001f0 9b ef ad 3e 27 28 b5 3e 73 56 93 be 5f 58 a0 bd
       0.33971867 0.35382196 -0.28776893 -0.078293554
000200 7d af b9 be b3 2a 59 be f6 ef b5 3d be a8 81 3c
       -0.362667 -0.21207695 0.088836595 0.015827533
000210 9a b1 15 be 53 0b 88 3c 42 92 49 3e 79 44 75 3d
       -0.14618531 0.016606962 0.19684699 0.059879754
000220 b5 fa ff bc f7 91 bd bc c7 68 69 3c e0 d3 85 be
       -0.031247476 -0.02314089 0.014246172 -0.2613821
000230 a4 96 86 be 19 23 c3 bd 66 3d 76 3e 63 69 4d bd
       -0.26286805 -0.09528179 0.24046859 -0.050149333
000240 97 37 c7 3b 65 6b 93 3d f2 17 de bd 58 be 34 3d
       0.006079625 0.07198218 -0.10844411 0.04412684
000250 5f 14 af 3e b2 ae 87 be 88 8c 0a 3e fb 18 95 be
       0.3419523 -0.2650047 0.13530171 -0.2912062
000260 74 ff c6 3c a9 35 21 3e af 97 da 3d 01 b1 45 3e
       0.024291731 0.15743126 0.106734626 0.19305803
000270 1f ff 95 be 46 b9 1a 3d d6 cb 1f 3e 14 6c 90 be
       -0.29296204 0.037774347 0.15605101 -0.28207457
000280 97 98 69 3e 9a 93 7a 3d a3 74 20 be ba 0c 16 3e
       0.22812115 0.06117592 -0.15669493 0.14653292
000290 a5 51 0b 3c 7e 39 82 3e d9 64 9a 3c 84 3d 5b bd
       0.008503352 0.25434488 0.018846916 -0.053525463
0002a0 20 7e 46 3c a6 8c 3c 3d 49 74 b0 bd 70 fa b9 3d
       0.0121150315 0.04603257 -0.0861593 0.0908097
0002b0 67 9f ba bd 3e d1 c1 bd 87 1c 83 bd f0 ab c9 bd
       -0.09112435 -0.09463738 -0.064019255 -0.098472476
0002c0 a3 3c 37 be 55 13 79 bc b8 d9 7d 3e dd 00 b0 bd
       -0.17894225 -0.015202363 0.24790084 -0.08593915
0002d0 aa ab f2 3c e9 08 06 3e 59 71 90 be 3b bd 94 3d
       0.029622871 0.13089336 -0.28211477 0.07262655
0002e0 0b 7f 27 be 30 0d 40 3d 00 20 92 bd d4 94 6d bc
       -0.16357057 0.046887577 -0.0713501 -0.014500815
0002f0 17 08 e8 bd 85 02 bc bd b6 92 16 3e 42 ac 01 3e
       -0.11329668 -0.09180168 0.14704403 0.12663367
000300 90 48 a9 3e 07 c8 20 3e e9 bc 4e bd a8 a1 f7 bd
       0.33063173 0.15701304 -0.050473128 -0.1209138
000310 39 1a 65 3e 8f fd 82 3d 28 72 9b 3c 6f 12 7d be
       0.22373284 0.06396019 0.018975332 -0.24714063
000320 cc 3c 28 be 69 87 03 3e 22 82 8b 3d f0 bb 90 bd
       -0.16429442 0.12844624 0.0681193 -0.07067096
000330 23 ee 1e bd 33 62 a6 bd d7 48 cb bd b6 50 28 3d
       -0.038801324 -0.08124199 -0.099260025 0.041092597
000340 61 ad 9c bd a4 ae da bd af 1a 7b be 75 f2 44 3e
       -0.07650257 -0.10677841 -0.24521898 0.19233115
000350 d0 8f 12 bd 4e 2e 01 3d 3f 90 fb 3d 9f d3 f2 bd
       -0.03578168 0.0315383 0.12283372 -0.1185677
000360 3d 2a 81 3c 02 66 0b 3e b7 b9 50 3e f8 1a 6e 3d
       0.015767211 0.13613132 0.20383345 0.05813119
000370 af 66 14 3d 9d 80 f8 3d 23 fc 5a 3e f2 62 ae 3d
       0.03623074 0.12133906 0.21385245 0.08514966
000380 08 28 31 be a1 79 4c 3e 33 28 19 3d 84 69 7d 3e
       -0.17300427 0.19968273 0.037391853 0.24747282
000390 13 7b 17 bd 45 dd ae 3c ac 87 f0 bd 9c b8 aa bd
       -0.036982607 0.021345744 -0.11744627 -0.08335993
0003a0 51 bf f1 bd c5 04 97 be 5c 9f 52 3e 8e 59 1a 3d
       -0.11804069 -0.29495826 0.20568603 0.037683062
0003b0 e6 fc 45 be a0 46 bf 3c 68 32 ab 3c db a6 bd 3c
       -0.19334754 0.023349106 0.020898059 0.023150852
0003c0 53 44 84 bd 38 d9 5d bd f9 26 e8 3d 96 07 92 bc
       -0.06458344 -0.054162234 0.113355584 -0.017825883
0003d0 f1 32 db 3c e7 89 37 be 9d 55 02 be a8 65 11 be
       0.02675769 -0.179237 -0.12727971 -0.14198935
0003e0 a4 23 31 3e 5e e9 6d 3d 2c 24 81 3d 9b 49 96 3d
       0.17298752 0.058083884 0.06305727 0.07338258
0003f0 bd 78 a9 bc 1b e8 22 3c 23 f7 d9 3c 3f 13 1d bd
       -0.020687455 0.009943034 0.026607102 -0.038348433

network_body._body_endoder.seq_layers.0.bias f4 [127]
000000 14 a7 19 bb 36 80 38 3c 41 2f d3 bb 07 88 76 3c
       -0.0023445534 0.011261037 -0.006444842 0.01504708
000010 71 e7 ac 3b 3d c3 ac bc 9a ec 8f bc d2 88 09 bd
       0.0052766134 -0.02108919 -0.017568875 -0.033577748
000020 11 ff 19 bc 95 2e f3 bb 75 b8 05 3c 7c 4c 95 3b
       -0.0093991915 -0.0074213245 0.008161654 0.004556237
000030 7a a8 56 3b b8 67 61 bd 07 26 32 bd 8b 9d ef 3b
       0.0032754228 -0.055030555 -0.043493297 0.0073124818
000040 11 93 da bc 9a 8e 30 bc 38 42 e1 3c bc 01 6e bb
       -0.026681455 -0.010776186 0.027497396 -0.0036316952
000050 e5 d3 9d bc c3 de 1b bd 5e 28 ea bc 73 28 1a bd
       -0.019266078 -0.03805424 -0.028583702 -0.03763623
000060 d1 41 28 bd 54 7a 22 bd 7a 1a a3 bc 04 1c f1 bb
       -0.041078392 -0.039667442 -0.019910086 -0.007358076
000070 61 01 f0 bb f4 3b 06 bb a9 c3 f3 bb a5 4b f7 bb
       -0.007324383 -0.0020482512 -0.007439096 -0.0075468593
000080 ee 32 2d bd 91 8b 9c bb 21 38 c3 3b 19 34 76 bc
       -0.0422849 -0.00477738 0.005957619 -0.0150270695
000090 b4 6f 79 bb 6c 39 6f bb 56 bc 31 3c 72 b8 43 bb
       -0.0038060965 -0.0036502732 0.010848125 -0.0029864577
0000a0 b9 7b 16 bd 62 f8 1a bd 66 4c 56 bc 43 83 e8 bb
       -0.036739085 -0.037834533 -0.013079738 -0.0070957257
0000b0 af 13 86 bc 51 76 a8 3c b5 8f 89 3c 38 ac 36 bc
       -0.016366808 0.02056423 0.016792158 -0.011149459
0000c0 71 05 90 bc 17 a5 01 bd b6 80 b5 bc 15 e6 1c 3c
       -0.01758072 -0.031651583 -0.0221561 0.00957634
0000d0 58 ee f9 bb c1 22 0c bc 7f 2c 95 bc 2b fe 0f bd
       -0.0076272897 -0.008553208 -0.018209694 -0.035154503
0000e0 a3 45 c5 3c 86 9c a7 3c d7 09 68 bc 07 d1 ba 3b
       0.024081057 0.020460378 -0.014162502 0.0057011875
0000f0 6e 36 23 bc a4 9f c3 3b 50 3f 9a bc a5 32 e2 3b
       -0.0099617075 0.0059699584 -0.018829018 0.00690301
000100 92 44 6f bc 30 ec 40 bd e5 46 f3 bb cd ba 7b bd
       -0.014603751 -0.047100246 -0.007424223 -0.061457444
000110 30 dd 91 bc f3 c4 06 3c 5a 51 32 bc 4b ce 61 bc
       -0.017805666 0.008225667 -0.010883654 -0.013782094
000120 92 8d 82 3a a1 c9 6a bc e2 33 50 bd bb 2e 55 3c
       0.0009960404 -0.014330299 -0.05083073 0.01301163
000130 5f 17 b1 3b ba 4c c3 bc a8 a1 b5 bb 32 84 8f bc
       0.0054043974 -0.023840297 -0.0055429526 -0.01751909
000140 5d 10 8b bc 32 cf a7 bc db 2c cd 3c 70 2a d5 ba
       -0.016975576 -0.02048454 0.025045803 -0.0016263258
000150 a0 02 c4 3c e0 f8 53 bd e0 74 83 bc ef 07 5d bc
       0.023927033 -0.051751018 -0.016046941 -0.013490661
000160 cd e5 7f bc 75 67 e0 bc 47 9f 51 bc 3e 13 a3 3c
       -0.015618754 -0.027393082 -0.012794322 0.019906636
000170 b9 1f ac 3c 9a a3 da bc 80 59 e8 bc 7d ed 17 bd
       0.02101122 -0.02668934 -0.02836299 -0.03709172
000180 0b 43 83 bb 15 28 ab bb 0c 77 a1 bc 68 2c 7c bc
       -0.004005795 -0.005223284 -0.019710086 -0.015391447
000190 f7 3f 9a bd cc 98 8d bc 9e aa 40 3c 49 74 03 bd
       -0.075317316 -0.017284773 0.011759428 -0.03209332
0001a0 c4 04 1e 3c 45 f0 a5 bc 01 b4 64 bc de 4a ed bc
       0.009644691 -0.020256171 -0.013958932 -0.028966364
0001b0 4c 10 99 3c 42 e3 e2 bb 84 e5 72 bc 19 bc e0 bc
       0.018684529 -0.006924064 -0.014825229 -0.027433442
0001c0 d8 09 da bc d0 76 68 bc 30 e9 71 3b 65 bc 8a bc
       -0.026616022 -0.014188483 0.0036912672 -0.016935537
0001d0 7b d2 7c bc eb e3 87 3c ee e8 97 bc fa 81 ce bb
       -0.015431042 0.016588172 -0.018543687 -0.0063021155
0001e0 69 6f a5 bc e1 3e 65 bb 8b ab 64 3b ce 74 e5 bc
       -0.020194726 -0.0034980106 0.0034892287 -0.028009798
0001f0 ad 96 84 bc 13 55 06 bc be 71 d1 3b
       -0.016185129 -0.008198994 0.006391733

network_body._body_endoder.seq_layers.2.weight f4 [127, 127]
000000 cd 7d 57 bd ed af c0 3d 3e 27 74 be f6 d0 94 bd
       -0.052610207 0.09408555 -0.23843095 -0.07266419
000010 37 86 7a 3d e1 89 6c bd 17 48 d9 bd ef 16 c4 3d
       0.061163153 -0.05774868 -0.10609453 0.09574687
000020 bf 79 69 3d 28 50 e0 bc 7a 6f 1b bd 8d b3 5b bd
       0.05700087 -0.027381971 -0.03794811 -0.05363803
000030 9e 51 fe bd 85 bd 67 3e 51 67 28 3e e8 a9 ae bd
       -0.12417911 0.2263089 0.16445662 -0.08528501
000040 c5 74 88 3d d9 7a a7 bd bd 9f 27 be d6 49 ae 3d
       0.06662897 -0.08177728 -0.16369529 0.08510177
000050 2d a9 de 3d 1c c8 d8 bd ed 4c 4c be 9d f2 13 3e
       0.108721115 -0.10585043 -0.1995122 0.14448018
000060 ab b2 5d bc 34 8d 14 3a 15 77 e4 bc 67 c2 25 3d
       -0.013531367 0.0005666793 -0.027888814 0.0404686
000070 89 72 ed bd bb a9 bf 3d e6 42 6f bc 67 9a 47 3d
       -0.115941115 0.093585454 -0.014603352 0.048731234
000080 79 81 53 3d 08 f7 53 3e ea ef 24 3e e2 42 ff 3c
       0.051637147 0.20699704 0.16107145 0.031159822
000090 36 6b 8b 3d a2 11 9c bd 84 01 50 bc 60 df 01 be
       0.06807558 -0.07620551 -0.012695674 -0.12682867
0000a0 54 65 9b 3d 62 8a 29 3d 07 4e 57 be 68 2e bb 3d
       0.07587686 0.041391738 -0.21025859 0.09139711
0000b0 37 15 3b 3d 90 76 6b bd 2b ce 56 bd 70 e0 bf bd
       0.04567453 -0.057486117 -0.05244271 -0.0936898
0000c0 a8 e2 a5 bd 31 76 61 3d fb b8 d8 3d c5 92 ad bd
       -0.08099872 0.055044357 0.10582157 -0.0847526
0000d0 a6 c1 c3 3d b1 2d 4b 3d 00 40 d4 3d 5f 17 8e 3d
       0.0955842 0.04960412 0.103637695 0.069380514
0000e0 48 63 15 be 8e bf f5 bd 49 e7 00 3e ce a1 36 bd
       -0.14588654 -0.11999427 0.12588228 -0.044587903
0000f0 21 4a ab 3d 6a 55 b6 3c 99 f7 bc bd 4b de 10 3e
       0.08363748 0.022257525 -0.09226913 0.14147298
000100 09 85 53 be e3 e4 89 bd 28 ea 0a 3c 9d c2 f2 bd
       -0.20656218 -0.0673311 0.008478679 -0.11853526
000110 ee be b4 bc dd ba 99 bc 67 b6 15 be b8 f5 2b 3d
       -0.022063699 -0.018765861 -0.14620362 0.041982383
000120 b7 a6 b0 3d bf f3 bc bc 40 69 93 3c 5d 0c 27 be
       0.08625548 -0.023065446 0.017994523 -0.1631331
000130 d6 e6 fd bc 5b 2a d1 bd 7b b5 0a be b0 14 e0 3d
       -0.03099386 -0.10213157 -0.13545792 0.10941446
000140 6f 73 82 3d e0 d0 19 3e 9f 81 19 3e 75 d7 36 ba
       0.063696735 0.15021086 0.14990853 -0.00069748546
000150 b7 5c 56 3d 20 39 79 bd 33 94 34 bd 44 33 98 3c
       0.052334514 -0.060845494 -0.044086646 0.018579133
000160 d3 48 d6 3d 3f 22 47 3d 3e 2e 8e bb 62 c3 0a be
       0.10463109 0.048616644 -0.0043390086 -0.13551095
000170 36 5c 11 be d8 ec 3b 3c b5 3b d1 bb a2 a0 17 3d
       -0.14195332 0.011470042 -0.0063852915 0.037018426
000180 95 16 8a bd a8 45 70 3a 2e 62 2c 3d 3d f3 9a 3c
       -0.067425884 0.0009165653 0.04208582 0.018914813
000190 fa 93 08 3d d6 92 1c 3e 8c 9c bb 3b 83 48 e3 3c
       0.033344246 0.15290388 0.005725449 0.027744537
0001a0 72 2d 2f be ff 5e ac bd 60 86 1d 3e 03 17 51 bd
       -0.1710718 -0.084165566 0.15383291 -0.051047336
0001b0 81 ee 0b bd ca 87 2c 3c ea 32 d6 bc 30 c7 bc 3d
       -0.034163002 0.0105304215 -0.026147325 0.092176795
0001c0 08 07 32 bd 93 da 26 3c c7 5a 99 3d f7 6c 27 3e
       -0.043463737 0.010183948 0.074880175 0.1635016
0001d0 bd d6 35 3d 25 9b 67 bd 77 c8 1e bc 0d 09 bc 3d
       0.044394244 -0.05654444 -0.009691349 0.09181414
0001e0 f3 60 a4 3d de 4e 77 3d 79 f6 d7 3d cf a9 ec 3d
       0.08026304 0.060377948 0.10545058 0.11555826
0001f0 b7 d9 2c 3d 41 12 26 bd 41 41 11 3d d8 d0 84 3d
       0.042199817 -0.040544752 0.03546262 0.06485146
000200 b3 b2 f5 3d 27 a3 d0 3c bc 4e 16 be e4 c0 c3 bd
       0.11996975 0.025468422 -0.14678472 -0.09558275
000210 c0 24 84 3d 19 ed 28 3d c0 b9 d3 bd bc 2f 85 bd
       0.06452322 0.04124174 -0.103381634 -0.06503245
000220 b4 f0 2f bd 89 11 10 3e 7a a1 52 bd 08 11 35 be
       -0.04295416 0.14069189 -0.051423527 -0.17682278
000230 d1 c8 aa bc ef be 90 3d 22 ac b4 3d 32 95 f7 3c
       -0.02084771 0.07067668 0.08821894 0.030222509
000240 fb 11 05 bc 7e bf 58 3d c8 0a 3c bd 09 2c f4 3d
       -0.008121963 0.052916996 -0.04590872 0.119224615
000250 0e 5c 03 3b c3 ec 68 bc 80 36 e1 bd de 08 d3 bd
       0.0020043883 -0.014216605 -0.10996723 -0.10304426
000260 84 c4 8e 3d a9 a2 81 3e 55 b7 de b9 5e 08 7d bc
       0.06971076 0.25319412 -0.00042479733 -0.015443889
000270 26 06 bd bd 69 04 87 ba 23 bd 09 3e 25 10 f2 3c
       -0.09229688 -0.0010300997 0.13451056 0.029548714
000280 c7 d5 3d bd 28 d6 09 3e e0 7f 6b bb c4 80 5c bd
       -0.046346452 0.134606 -0.0035934374 -0.053833738
000290 3b 60 e4 3b ff 2d 0b 3d 83 80 17 3e 4e 32 7e bd
       0.0069694794 0.033979412 0.14795117 -0.062059693
0002a0 cd 99 0d 3c 0a 0b 8a 3c 91 3a 6f bd 06 91 cb bd
       0.008642626 0.016850967 -0.058405463 -0.099397704
0002b0 a5 9a 61 3c f5 f7 71 bd d2 20 cf bc 10 de ea 3c
       0.01376978 -0.05907436 -0.025284205 0.02867034
0002c0 2f f6 04 3e 31 d9 9c 3d d0 2c ff bd 7e e5 5c bd
       0.12984537 0.076586135 -0.12459719 -0.0539298
0002d0 e2 84 71 be 8d 9a 3d be ec ef 0a 3e 11 4a 6b bd
       -0.23585847 -0.18515988 0.13568085 -0.057443682
0002e0 c1 73 aa bd e3 8b af 3d 66 84 cc bd 8b 8e 1e 3c
       -0.083228596 0.08571603 -0.099861905 0.00967754
0002f0 55 75 a7 3c ed 56 16 3e e1 36 b4 bd d8 05 57 be
       0.02044169 0.14681597 -0.0879953 -0.20998323
000300 9b 8d 9b bd 89 8e d8 3d 81 cf ea 3b 9a 76 a2 bd
       -0.075953685 0.105740614 0.0071658497 -0.07932778
000310 f7 e4 6c be 80 fe d1 bd 58 49 b3 bd bd 7a d8 3d
       -0.23134218 -0.1025362 -0.087542236 0.105702855
000320 2b fe 0c bd cb 53 95 3d f0 32 90 3d 03 65 ec 3d
       -0.03442208 0.07291373 0.070409656 0.11542704
000330 1e 0d 0b be 62 71 63 3d a4 d4 a6 3d 94 7e 0a 3e
       -0.13579223 0.055528052 0.08146027 0.13524848
000340 ef 8e ee bd 95 32 28 be 17 ed 2c be f5 e0 ad bd
       -0.11648356 -0.16425546 -0.16887318 -0.08490173
000350 16 fe c8 3d 8b 04 2e 3e 95 7a 39 3e 05 10 7c 3e
       0.09814088 0.1699392 0.18113168 0.24615486
000360 f2 58 85 3d b6 68 09 bd 7d 81 b4 3c c3 ab 64 3c
       0.065111056 -0.033547126 0.022034401 0.013956967
000370 0d 69 f9 3c 6f 6a 4e bd b7 2a e3 bd f2 85 19 bd
       0.0304456 -0.05039447 -0.110921316 -0.037481256
000380 fe 60 35 3e d5 90 10 3d f9 30 ed bd 84 81 31 bc
       0.17712781 0.035294373 -0.115816064 -0.010834102
000390 17 f0 52 bc 84 dd 65 3d 10 94 c2 3d 5f b1 39 3e
       -0.012874625 0.056119457 0.09500897 0.18134068
0003a0 0c 4b 7b bd 8c e6 2d 3d 8d 97 33 3e 79 5b 89 bd
       -0.061350867 0.042456195 0.17538281 -0.067069
0003b0 09 3e 04 be 3d 67 25 3e 9f cf 79 ba c1 a4 ca bc
       -0.1291429 0.16152664 -0.0009529534 -0.024736764
0003c0 99 6a a4 3d 6a 20 8b bd 5f 2f fb bd 77 7a 4d 3e
       0.080281444 -0.06793292 -0.12264895 0.20066248
0003d0 78 ad 6a bd 25 8d 58 3c e8 00 3c 3c dc b1 61 3c
       -0.05729434 0.013217245 0.011474825 0.013775315
0003e0 2e ca 80 bd 00 13 5b 3c ef c2 1c 3e dd e6 4b 3d
       -0.06288563 0.013371229 0.15308736 0.049780715
0003f0 bd c5 1d 3d 11 35 02 be 1c 96 18 be 40 26 17 3e
       0.038518656 -0.12715556 -0.14901012 0.14760685

network_body._body_endoder.seq_layers.2.bias f4 [127]
000000 9a 88 c9 bc 1b 79 63 bc 8c 94 7f bc 2b a0 0a 3c
       -0.02460127 -0.013883854 -0.015599381 0.008461039
000010 b9 dd b0 bc 49 9d b4 bc 51 ad 90 bc ed 97 d8 bc
       -0.0215901 -0.022047656 -0.017660769 -0.026439631
000020 0b 13 ae bc cb 12 ba bc 1f cf 21 3b 29 48 a4 bc
       -0.021249315 -0.02271404 0.0024690104 -0.02005394
000030 ce 6e e3 bc 29 18 9b bc ee 5b bb bc 51 24 e3 3b
       -0.027762797 -0.018932419 -0.022870984 0.0069318195
000040 91 bd 30 bc 77 1c 13 ba 92 94 c3 bc 6c 13 c7 ba
       -0.010787384 -0.00056118466 -0.023874555 -0.0015188283
000050 d9 bc 2d bc 64 94 0e bc 95 0b bc bc b2 b9 18 bd
       -0.010604107 -0.008702371 -0.022954741 -0.037286468
000060 d8 05 22 bb 9a bf c4 3b c6 20 16 bd d6 a2 38 bc
       -0.0024722721 0.006004286 -0.03665235 -0.011269292
000070 f0 32 c9 bc 33 7f 0e ba 3f 2e 32 bc b8 14 c1 bb
       -0.024560422 -0.0005435824 -0.010875284 -0.0058923624
000080 f9 11 a4 bc eb cf 3f bc 14 99 ab bc 91 fd 33 3c
       -0.020028101 -0.011707286 -0.020947017 0.010985748
000090 76 3b 8a 3b cc 62 e0 bb 61 a3 2c 3c 8a 82 71 bc
       0.004218514 -0.006847715 0.010536999 -0.014740596
0000a0 32 cb a5 bc df c4 f7 3a 29 71 06 3a bc b0 95 bc
       -0.020238493 0.0018903277 0.00051285565 -0.01827275
0000b0 ac d2 bc 3c f4 ec eb bc ac a4 c6 3b 0b 11 e5 bb
       0.023049675 -0.028799511 0.006062111 -0.006990557
0000c0 5d f4 54 bc 84 fe df 3b e2 16 95 3b 50 3f 18 3b
       -0.012997714 0.0068357605 0.004549847 0.0023231097
0000d0 f1 00 04 3c 1e 58 a7 bc 07 54 b0 bc 23 4d ad 3b
       0.008056865 -0.02042776 -0.021524442 0.0052887364
0000e0 da 69 bd 3b 52 81 14 bc 4d 80 f0 ba 4d f9 30 bd
       0.0057804408 -0.0090640355 -0.0018348783 -0.0432065
0000f0 ae ab a8 bc 17 b9 32 bc 81 b6 59 3c 20 16 9b bb
       -0.020589676 -0.010908387 0.013288141 -0.004732862
000100 bd ad 52 bc e1 d8 2b 3c a0 ac 1f bd 13 04 06 bd
       -0.012858805 0.01048872 -0.038982987 -0.03271873
000110 22 45 f9 3a ef d5 1b bc 91 9e 85 39 fe 01 4c bc
       0.0019017796 -0.009511455 0.00025485878 -0.012451647
000120 a4 47 c4 bb ed 01 8c 3b 3c 7d ae bc f0 34 77 bc
       -0.0059899855 0.0042726905 -0.02129995 -0.015088305
000130 75 b1 93 bc 28 36 60 bc 17 4a 21 39 c8 10 d1 b9
       -0.018028954 -0.013684787 0.00015381757 -0.0003987609
000140 17 db df 3b 05 ee 84 bc 28 ea 1b bb c8 fb e3 bb
       0.0068315375 -0.016226778 -0.002379069 -0.006957505
000150 28 02 1b bd 4e 88 0c bc 90 b9 1b 3b 23 37 a8 bc
       -0.037843853 -0.008577419 0.0023761727 -0.020534104
000160 5f 04 d1 bb 07 c8 19 bd cc 91 67 bc 87 dc c3 bc
       -0.006378695 -0.037544277 -0.014133882 -0.023908867
000170 d2 fe 11 3c 91 ad e1 3b 97 9c fc bb 84 b6 27 bd
       0.008910852 0.006887146 -0.0077090967 -0.040945545
000180 50 cc 53 bc f3 c9 72 bb ef 97 97 bc fa 50 43 bc
       -0.01292713 -0.003704664 -0.018505065 -0.011921162
000190 d0 e9 b9 bc 7a 2e d8 bc d7 4e 89 bc a2 ac 03 bc
       -0.022694498 -0.02638935 -0.016761227 -0.008036764
0001a0 ce 74 e9 bc 04 4d 6a bc c6 64 86 bc 5f 1f c6 3c
       -0.02849808 -0.0143005885 -0.016405474 0.02418488
0001b0 74 4a c0 bb 65 c9 98 bc 9a d5 31 3c 24 5f 0b bb
       -0.0058682505 -0.01865072 0.010854149 -0.0021266425
0001c0 c2 69 88 bc c4 57 5a bc af d2 44 bc e4 67 a1 3b
       -0.016651992 -0.013326589 -0.0120131215 0.004925715
0001d0 0c 66 82 b9 e4 20 4b 3a f3 9d 1e 3c 8d 80 26 3c
       -0.00024871563 0.00077487365 0.009681213 0.010162485
0001e0 bb 38 01 bb 4e be dc bc 35 97 df bc f6 98 08 3c
       -0.0019717652 -0.026946213 -0.02729378 0.00833725
0001f0 db 66 0b 3c da 59 98 3c 68 8a cb bc
       0.008508409 0.018597532 -0.02484627

action_model._continuous_distribution.log_sigma f4 [1, 2]
000000 0a 43 2f 3b 71 30 18 3d
       0.002674284 0.037155572

action_model._continuous_distribution.mu.weight f4 [2, 127]
000000 9a d1 0a 3d a7 a5 7f 3c b4 fb ec 3c c6 0f 80 bc
       0.033891298 0.015603459 0.028928615 -0.015632521
000010 4c 22 4c 3d 09 69 38 3c 1d e4 c6 3b 10 c7 b2 b9
       0.049837396 0.011255511 0.0060696737 -0.0003409912
000020 63 19 ba 3c 6c 0c 1e 3d 24 20 42 bd 0a 28 d7 3b
       0.022717183 0.038586065 -0.047393933 0.0065660523
000030 48 25 06 3b 89 f7 63 3c 8b 4b 14 3d 45 f6 42 bd
       0.0020468999 0.013913997 0.036204856 -0.047598142
000040 92 25 b0 3c ff 9c 7e 3d 38 8b 99 3c bd d8 86 bc
       0.02150229 0.062161442 0.018743142 -0.01646077
000050 4f 36 7d 3c 6f bb a4 3b 38 79 b7 ba 50 44 2c 3c
       0.015454843 0.0050272266 -0.0013997918 0.010514334
000060 69 71 c5 bb 5d ff 88 bb a2 7d 13 bb 01 79 40 bc
       -0.0060254824 -0.0041808323 -0.0022505303 -0.0117476
000070 20 72 b7 bb 88 6f c4 bb 12 87 91 3c ed f5 58 3c
       -0.0055983216 -0.005994741 0.017764602 0.013242227
000080 a9 df 1c 3d 33 29 cc 3c 44 88 b8 3c a9 47 47 bd
       0.038299236 0.024921989 0.022525914 -0.048652325
000090 8d bf 11 bd de 4b fa 3c 08 24 9b bd b7 38 08 3c
       -0.035583068 0.030553754 -0.07575232 0.008314303
0000a0 79 bb f1 3c 42 1b a3 bc 79 14 9c bc 96 6e 40 3d
       0.02950834 -0.019910458 -0.01905273 0.046980463
0000b0 2b 75 90 bd a7 cb 8c bb 48 5f 19 bd 23 94 d3 bc
       -0.07053598 -0.004296738 -0.037444383 -0.025827473
0000c0 e5 be bc 3c 63 0e 28 bd 97 07 03 bd 6f bd 4b bc
       0.023040244 -0.041029345 -0.03198966 -0.012435301
0000d0 4b 57 21 bd 6e 0e 4f 3d c3 97 8d bb 85 37 22 bd
       -0.03938989 0.05055087 -0.00432107 -0.03960373
0000e0 83 c5 0b bd 9c 74 bf 3c d4 d8 02 bd 7f aa 1c 3c
       -0.03412391 0.023371033 -0.031945065 0.009562134
0000f0 39 b9 a1 bc 01 3e 17 3c b2 03 49 bc dd 7f 62 3d
       -0.019741641 0.0092310915 -0.012268947 0.05529772
000100 1e b5 37 3c 4d a4 fb bc e6 8d 0f 3c 4f 6f 53 3c
       0.011212615 -0.030717993 0.008761859 0.012904956
000110 3d fc c1 bb 6d 1f 01 bb 9f 9b 5d bc e6 8a 69 3c
       -0.0059199617 -0.001970257 -0.0135258725 0.014254307
000120 74 62 4f bd 47 de 93 bc 27 87 98 3c f3 02 3e 3d
       -0.050631 -0.018050326 0.018619133 0.04638953
000130 60 f3 05 3d e6 19 31 bc 2f ec 41 bb 8b 58 de bc
       0.032702804 -0.010809397 -0.002959024 -0.02714183
000140 84 e6 77 bd 0f 68 7e bc e7 5f 04 bd db 3c a8 b8
       -0.06052257 -0.015527739 -0.032318022 -8.0221995e-05
000150 1f 2b 2f 3c 38 25 1b bd 33 11 2c bc 3f 4a 6e 3c
       0.010691433 -0.03787729 -0.0105021475 0.014544069
000160 00 31 4d 3c b8 96 a7 3c f9 6e cb 3c 4f ec 0a 3c
       0.01252389 0.02045761 0.02483319 0.008479192
000170 84 d0 54 bd de a6 31 bc e6 7c 3c 3d 68 f3 02 3c
       -0.05195667 -0.010843007 0.04601755 0.007992603
000180 bd 3b 5b bc 33 8b 13 bd 53 3a f9 bb bc 5e e2 3c
       -0.013380942 -0.036021423 -0.0076058297 0.027633063
000190 7a a6 0f bb 44 22 68 3c de 0f 1e 3b 52 8f 6e bc
       -0.0021919296 0.014168326 0.0024118344 -0.014560537
0001a0 dc 73 7c 3c 41 a9 50 3d ce 05 cf 3c 8d 9d 9f bd
       0.015408482 0.050942663 0.025271323 -0.07793722
0001b0 af b2 74 3c 25 d6 15 3d 1a dc 10 bd 23 f8 4c bc
       0.01493518 0.036581177 -0.035366155 -0.012510332
0001c0 e5 d0 cf 3c fd 14 0b 3d 4d b8 60 3c 93 ea 11 bd
       0.025368163 0.033955563 0.013715816 -0.035624098
0001d0 da c3 d3 bc 24 b7 9d bb fa 2a 2b bd c5 6c 49 bd
       -0.025850225 -0.004813092 -0.041789033 -0.049175996
0001e0 a7 e1 11 bd 02 f7 52 3a 83 ae 3e 3c 74 bf 03 3d
       -0.03561559 0.0008047671 0.0116382865 0.032165006
0001f0 20 bc 4a bd 37 96 0f bd bb d3 6e 3d af 4c 49 3c
       -0.049495816 -0.035055365 0.05830739 0.012286349
000200 7c 2f 39 3d a4 4a 58 3c d3 f8 89 3c 71 3d 0b 3d
       0.0452113 0.013201389 0.016842281 0.033994142
000210 2c 2a b6 3b ed 25 85 3c ba 65 84 3c 46 07 1b 3b
       0.0055592265 0.016253436 0.016161788 0.0023655458
000220 23 94 06 3c c3 54 92 bb 34 e0 f5 bc 9a e0 e5 bb
       0.0082140295 -0.004465671 -0.030014135 -0.0070153
000230 75 b4 0a bd 70 57 ff 3c 86 6c 41 bc 9f 6f c9 3c
       -0.033863503 0.031169623 -0.011805659 0.024589358
000240 9c 64 a4 3c 01 e8 8f bb a2 d5 5d 3d d4 38 11 3d
       0.020067506 -0.0043916707 0.054158814 0.035454586
000250 45 64 ba 3c d6 0e 4a 3c e2 31 b8 ba 88 65 57 bc
       0.02275289 0.012332639 -0.0014052952 -0.0131467655
000260 28 66 9e 3c 00 e1 ae bb 22 90 69 bc cb 39 c1 39
       0.019335821 -0.0053368807 -0.014255555 0.00036854888
000270 cb 04 82 3b f3 b0 5a 3d 5f be 48 3d 21 35 c4 3c
       0.0039678565 0.05339141 0.049009677 0.023951115
000280 67 b1 97 3c 7b 5d ae 3c 88 c5 29 bd 59 50 87 bc
       0.01851721 0.02128481 -0.041448146 -0.016517805
000290 37 6f 28 bd 3e 12 6f 3c 62 e8 7e 3d 6e 24 3d bd
       -0.041121688 0.014591752 0.062233336 -0.04617732
0002a0 b2 c5 13 3c e5 bc 4b 3c ab cd 89 bc ee 1f 1b 3d
       0.009019302 0.012435173 -0.016821703 0.037872247
0002b0 8d 17 79 3b ad 7d a2 3b c6 8c a7 3b c2 55 75 3b
       0.0038008422 0.0049588294 0.005113217 0.003743515
0002c0 fe 88 71 bb 8d 8d 3a 3b a2 23 62 bd 7a 7a 56 3c
       -0.0036855335 0.0028465718 -0.055209763 0.013090724
0002d0 7d 36 17 3c 09 1a 7a bb 83 5a 72 bd fc 29 c6 bc
       0.0092293 -0.003816249 -0.05916835 -0.024189942
0002e0 f4 4e 06 3c 49 f6 a9 3c f7 4f f2 3b 90 7e 6d 3c
       0.008197535 0.02074732 0.0073947865 0.014495507
0002f0 a1 f5 fd bc 80 9d 52 bb 5a 69 85 3c c8 ea 49 bc
       -0.031000914 -0.0032137334 0.016285587 -0.012324043
000300 13 e9 f5 3b 88 2b 7c bc c6 33 fd 3b e5 2b 37 bd
       0.0075045913 -0.015391238 0.007727119 -0.044719595
000310 fb 15 4f 3c 19 26 3b 3d 97 a5 08 bd a6 f3 83 bb
       0.012639518 0.04569063 -0.033361044 -0.004026848
000320 39 f8 dd bc 63 ca b7 3c 64 71 50 3c e8 c7 4f 3c
       -0.0270959 0.022435373 0.012722347 0.012681939
000330 fc 87 3f 3b 6a e6 11 bd 59 be 62 bc 50 84 da bc
       0.002922534 -0.03562013 -0.013839328 -0.02667442
000340 dd 11 b3 ba 48 d0 10 3d c3 d1 a0 3c 11 1d 7f 3c
       -0.001366194 0.035354882 0.019631272 0.015570895
000350 de 48 cd 3c 6d dc 2c 3b c4 80 d7 bb a1 81 9e 3c
       0.02505916 0.0026376501 -0.0065766294 0.019348921
000360 cf 6e a0 bc 40 e0 0a bd 1a 06 5c 3b b0 e0 a3 bb
       -0.019584088 -0.033905268 0.0033572973 -0.00500115
000370 06 b2 88 bd 3c 2f b2 3a b5 b4 45 bb 86 66 c1 3b
       -0.0667458 0.0013594399 -0.0030167524 0.0059021143
000380 e6 ac 34 3c 47 0a 98 3b d1 85 65 3b 52 e3 6f bc
       0.01102755 0.004639897 0.0035022388 -0.0146416
000390 14 cc 2e bc e8 73 41 3c 6f 4f 84 3c 9b 3b 15 3b
       -0.010668773 0.011807419 0.016151158 0.0022771123
0003a0 0d d1 73 bb 1c 17 e1 bc 99 69 50 bc da 1f 7b 3c
       -0.0037203461 -0.02747684 -0.012720489 0.015327418
0003b0 69 ce 1c 3c c0 91 ad bc 67 f6 fc 3b df e3 45 3d
       0.009570696 -0.021187663 0.007719803 0.048313018
0003c0 09 04 32 bd 28 e3 18 bd c4 33 00 3d df c1 8a 3b
       -0.04346088 -0.037326008 0.031299368 0.004234537
0003d0 8b 3c 88 bd da 3a 10 bd cb 24 ee bc b3 79 5f bc
       -0.06652173 -0.035212375 -0.029070279 -0.013639855
0003e0 d9 2c b4 3b 8e 1f 87 3a 97 b1 d0 bd 52 0c c6 bc
       0.0054985103 0.0010309087 -0.101901226 -0.024175797
0003f0 dc 7c 9c 3c 31 b5 c4 bc
       0.019102506 -0.02401218

action_model._continuous_distribution.mu.bias f4 [2]
000000 d3 ca 2d bc ee 07 ee ba
       -0.010607439 -0.0018160322

exp_avg f4 [127, 39]
000000 00 00 00 00 11 4d 77 b9 0b c6 5e b9 00 00 00 00
       0.0 -0.00023584465 -0.00021245347 0.0
000010 66 53 44 b9 fa ab 57 b9 00 00 00 00 6e f2 36 b9
       -0.00018723085 -0.00020568064 0.0 -0.00017447185
000020 3b 8d 67 b9 00 00 00 00 07 f9 31 b9 3e 28 49 b9
       -0.00022082489 0.0 -0.00016972805 -0.00019183845
000030 00 00 00 00 2a 05 5a b9 36 59 65 b9 00 00 00 00
       0.0 -0.00020792024 -0.00021872376 0.0
000040 b8 dc 30 b9 c7 8e 51 b9 00 00 00 00 c0 01 51 b9
       -0.00016866892 -0.00019984982 0.0 -0.00019932445
000050 3c 77 68 b9 00 00 00 00 31 99 15 b9 1d 35 9f b9
       -0.00022169662 0.0 -0.00014266816 -0.00030366416
000060 00 00 00 00 27 5f b6 b8 4c 7b 09 b9 00 00 00 00
       0.0 -8.69616e-05 -0.0001311127 0.0
000070 5d d2 bf 37 12 2c 69 38 00 00 00 00 3b a7 d6 37
       2.2866932e-05 5.5592573e-05 0.0 2.558866e-05
000080 77 b0 9f 36 d8 00 4e b7 a9 6b 58 b6 d2 30 13 37
       4.7591125e-06 -1.2278753e-05 -3.2249175e-06 8.77325e-06
000090 00 75 a8 b7 5f 0f ac b8 3e 6f 00 37 00 00 00 00
       -2.0081643e-05 -8.204462e-05 7.655295e-06 0.0
0000a0 15 ab 15 3a 31 41 04 3a 00 00 00 00 30 bc 1c 3a
       0.0005709392 0.00050451147 0.0 0.000597897
0000b0 97 e2 05 3a 00 00 00 00 52 af d1 39 f2 4b a7 39
       0.0005107312 0.0 0.0003999421 0.00031909306
0000c0 00 00 00 00 44 56 13 3a 89 6f 06 3a 00 00 00 00
       0.0 0.00056204596 0.00051283144 0.0
0000d0 1b 32 a6 39 6e 79 ca 39 00 00 00 00 15 18 18 3a
       0.0003169932 0.00038618915 0.0 0.00058019283
0000e0 5f c2 fc 39 00 00 00 00 c6 b1 2e 39 c8 f9 a3 39
       0.00048210003 0.0 0.00016660159 0.00031275884
0000f0 00 00 00 00 e4 0b fb 39 88 34 2a 3a 00 00 00 00
       0.0 0.0004788331 0.0006492813 0.0
000100 e6 d8 7f 39 19 28 8b 39 00 00 00 00 e8 29 9a 36
       0.00024399496 0.0002654202 0.0 4.594436e-06
000110 87 b1 d0 39 00 00 00 00 68 13 e4 38 8a f5 84 b8
       0.0003980512 0.0 0.00010875502 -6.339986e-05
000120 4f b6 68 39 78 02 44 38 ce c7 58 b9 5c e0 fd 39
       0.0002219316 4.673234e-05 -0.00020673798 0.0004842308
000130 4a 08 c3 39 3c 18 4f b8 00 00 00 00 c9 ec 01 3a
       0.00037199474 -4.9375216e-05 0.0 0.0004956243
000140 f2 d7 1a 3a 00 00 00 00 69 ab 19 3a f0 52 1f 3a
       0.0005906812 0.0 0.0005862029 0.00060777273
000150 00 00 00 00 e9 e7 15 3a 07 3c 0c 3a 00 00 00 00
       0.0 0.0005718456 0.0005349521 0.0
000160 96 7c 21 3a 81 09 29 3a 00 00 00 00 e9 6b ad 39
       0.00061602273 0.00064482546 0.0 0.0003307753
000170 67 4a 0b 3a 00 00 00 00 f4 da 31 3a 23 3c 23 3a
       0.0005313516 0.0 0.0006784641 0.00062269176
000180 00 00 00 00 d3 8a 82 39 ac fe 04 3a 00 00 00 00
       0.0 0.00024898964 0.00050733495 0.0
000190 90 4e 13 3a 7e ec 0f 3a 00 00 00 00 a9 4c ea 39
       0.00056193117 0.0005490257 0.0 0.00044689074
0001a0 99 0c 04 3a 00 00 00 00 8c 81 83 39 38 35 1b 3a
       0.00050372776 0.0 0.00025082787 0.0005920711
0001b0 00 00 00 00 0a 9a dc 39 75 55 ed 39 ab 50 62 39
       0.0 0.00042076438 0.00045267833 0.0002158309
0001c0 cf 8b f6 37 f7 1f 09 b9 cc 04 8e 39 24 f8 4c 39
       2.9390589e-05 -0.00013077246 0.00027087925 0.00019547396
0001d0 e3 61 7f b9 00 00 00 00 70 53 d7 b8 56 99 d7 b7
       -0.0002435516 0.0 -0.0001026754 -2.57014e-05
0001e0 00 00 00 00 5f b2 05 3a 41 e0 28 39 00 00 00 00
       0.0 0.0005100127 0.0001610527 0.0
0001f0 38 13 d8 37 21 2b ed 37 00 00 00 00 fa 4b c5 39
       2.5758156e-05 2.8272685e-05 0.0 0.00037631375
000200 45 4d 35 39 00 00 00 00 15 d6 8d b9 fb 23 db b8
       0.0001729029 0.0 -0.0002705312 -0.00010449436
000210 00 00 00 00 47 4c 2c 39 27 38 21 39 00 00 00 00
       0.0 0.00016431614 0.00015375075 0.0
000220 9e d6 74 b9 b2 ed a0 b8 00 00 00 00 3c 5d a5 38
       -0.00023349604 -7.673669e-05 0.0 7.8851794e-05
000230 c1 31 84 38 00 00 00 00 a5 2c 45 b9 0b 8e 00 b5
       6.303518e-05 0.0 -0.00018804015 -4.7890416e-07
000240 00 00 00 00 3e 55 ec 37 4b 56 e1 b7 00 00 00 00
       0.0 2.8173086e-05 -2.6862273e-05 0.0
000250 f1 a1 a5 b9 b2 bd a1 38 ae b7 00 ba f8 54 c4 b7
       -0.00031591908 7.712412e-05 -0.0004910183 -2.3404587e-05
000260 c1 b0 dd 39 3a ba 67 b9 2c a9 e1 b9 12 09 3a b9
       0.00042284097 -0.00022099252 -0.00043041387 -0.00017741721
000270 00 00 00 00 eb 56 50 b9 72 37 79 b9 00 00 00 00
       0.0 -0.00019868805 -0.00023767145 0.0
000280 63 74 0d b9 df ed 16 b9 00 00 00 00 34 58 a0 b9
       -0.00013490165 -0.00014393729 0.0 -0.00030583295
000290 5a d2 b7 b9 00 00 00 00 b4 78 1c b9 6d b1 03 b9
       -0.00035061204 0.0 -0.00014922285 -0.0001255923
0002a0 00 00 00 00 17 fe e3 b9 77 10 b9 b9 00 00 00 00
       0.0 -0.00043486126 -0.00035298217 0.0
0002b0 a6 5d 1c b9 33 95 ef b8 00 00 00 00 49 59 d5 b9
       -0.00014912206 -0.000114241986 0.0 -0.00040693049
0002c0 d6 5e d6 b9 00 00 00 00 97 b2 47 b9 b6 49 44 b9
       -0.0004088792 0.0 -0.00019044649 -0.00018719476
0002d0 00 00 00 00 9d 7f d6 b9 b2 41 e0 b9 00 00 00 00
       0.0 -0.0004091234 -0.00042773556 0.0
0002e0 d2 59 26 39 7f 39 99 b8 00 00 00 00 4c 16 ca b9
       0.00015864454 -7.306318e-05 0.0 -0.00038545055
0002f0 bc d1 c4 b9 af ba 85 b9 57 61 c0 34 62 fd 78 39
       -0.00037540297 -0.00025506827 3.583361e-07 0.00023745516
000300 bd a1 6d 37 26 45 5b b9 24 fc 38 b7 00 00 00 00
       1.4163958e-05 -0.00020911227 -1.1025961e-05 0.0
000310 e6 63 51 b8 ab 4c 8b b8 00 00 00 00 86 bd b6 b8
       -4.992252e-05 -6.642317e-05 0.0 -8.713738e-05
000320 0c 5d b8 b8 00 00 00 00 5f 03 c2 37 97 8f 5d b7
       -8.791135e-05 0.0 2.3128172e-05 -1.3206059e-05
000330 00 00 00 00 14 13 9c b8 d9 3d d7 b8 00 00 00 00
       0.0 -7.442213e-05 -0.00010263519 0.0
000340 88 a6 97 36 25 89 56 b7 00 00 00 00 a2 5e 86 b8
       4.5195375e-06 -1.2787325e-05 0.0 -6.407245e-05
000350 49 1f cc b8 00 00 00 00 92 31 e8 36 4f 9f 29 37
       -9.733305e-05 0.0 6.9199095e-06 1.0110277e-05
000360 00 00 00 00 61 8b 03 b9 80 f3 70 b9 00 00 00 00
       0.0 -0.00012545056 -0.00022978894 0.0
000370 39 37 f3 38 0c 95 2a 38 00 00 00 00 d0 60 cc b8
       0.00011597429 4.066997e-05 0.0 -9.745511e-05
000380 6d 95 3f b8 00 00 00 00 aa 42 4c 39 05 ef b0 38
       -4.5677112e-05 0.0 0.0001947979 8.436855e-05
000390 91 2a 19 39 76 f3 28 b6 63 42 0f b9 7d 0b 32 b8
       0.00014607074 -2.5175664e-06 -0.00013662274 -4.2449206e-05
0003a0 0a 40 0f 36 77 fe 8e 37 00 00 00 00 8f df e2 b7
       2.1345936e-06 1.7046214e-05 0.0 -2.7045402e-05
0003b0 69 69 7a b7 00 00 00 00 73 85 fc 37 44 88 09 38
       -1.4925704e-05 0.0 3.0102883e-05 3.2790253e-05
0003c0 00 00 00 00 d4 2a b7 b8 f7 45 a4 b8 00 00 00 00
       0.0 -8.734097e-05 -7.833161e-05 0.0
0003d0 2e 65 0f 38 d0 1a eb 37 00 00 00 00 f8 3a b4 b8
       3.4188088e-05 2.8026669e-05 0.0 -8.5940526e-05
0003e0 5c 9f 95 b8 00 00 00 00 94 ea 29 38 f5 11 1f 38
       -7.134557e-05 0.0 4.0511208e-05 3.7925278e-05
0003f0 00 00 00 00 b1 ea ec b8 f1 fa f8 b8 00 00 00 00
       0.0 -0.000112970716 -0.00011872303 0.0

exp_avg_sq f4 [127, 39]
000000 00 00 00 00 51 23 36 35 f6 11 7b 35 00 00 00 00
       0.0 6.7851676e-07 9.3530923e-07 0.0
000010 42 e8 27 35 31 50 6a 35 00 00 00 00 3e 3d 29 35
       6.255033e-07 8.7288487e-07 0.0 6.3046525e-07
000020 ac ff 6a 35 00 00 00 00 77 99 14 35 00 72 5f 35
       8.7543845e-07 0.0 5.5357617e-07 8.3239865e-07
000030 00 00 00 00 74 74 11 35 99 e6 50 35 00 00 00 00
       0.0 5.418617e-07 7.78216e-07 0.0
000040 58 8e 0d 35 59 df 5e 35 00 00 00 00 db 44 e8 34
       5.273373e-07 8.302646e-07 0.0 4.3263466e-07
000050 9c cb 43 35 00 00 00 00 84 f7 f9 34 58 fd 43 35
       7.293945e-07 0.0 4.6559956e-07 7.3011824e-07
000060 00 00 00 00 21 13 a9 34 e7 60 19 35 00 00 00 00
       0.0 3.149262e-07 5.7137953e-07 0.0
000070 c8 67 e1 34 dc ee 3d 35 00 00 00 00 99 0b 73 34
       4.1985027e-07 7.075557e-07 0.0 2.2635358e-07
000080 24 4d b2 34 55 d0 af 34 20 60 b4 30 03 af d4 34
       3.321121e-07 3.2747872e-07 1.3124044e-09 3.9615415e-07
000090 cf e6 9d 34 cb 5b 82 34 a6 3b 6c 35 00 00 00 00
       2.9411464e-07 2.4281175e-07 8.800365e-07 0.0
0000a0 09 dc 9b 35 52 78 a6 35 00 00 00 00 82 c0 99 35
       1.1612439e-06 1.2402982e-06 0.0 1.1455415e-06
0000b0 13 b1 b2 35 00 00 00 00 68 7c 85 35 fc c6 97 35
       1.3313569e-06 0.0 9.945479e-07 1.1308289e-06
0000c0 00 00 00 00 04 36 91 35 aa 68 b2 35 00 00 00 00
       0.0 1.0819062e-06 1.3292495e-06 0.0
0000d0 df 15 64 35 4c d2 8c 35 00 00 00 00 98 25 8f 35
       8.4968445e-07 1.0492017e-06 0.0 1.0665271e-06
0000e0 3d bc b5 35 00 00 00 00 22 86 70 35 95 6a 88 35
       1.3540335e-06 0.0 8.9602156e-07 1.0163809e-06
0000f0 00 00 00 00 29 a8 82 35 1d 46 c5 35 00 00 00 00
       0.0 9.734696e-07 1.4698049e-06 0.0
000100 ac b5 6b 35 ce 31 86 35 00 00 00 00 14 be 89 35
       8.780869e-07 9.998273e-07 0.0 1.0262615e-06
000110 76 f6 da 35 00 00 00 00 4d 36 4d 35 24 04 4e 35
       1.6313995e-06 0.0 7.644747e-07 7.6747006e-07
000120 5a 61 42 35 d5 f1 a2 31 45 ea 61 35 aa 0c 39 35
       7.2412297e-07 4.7423137e-09 8.415994e-07 6.89363e-07
000130 5e 7d fc 34 f2 89 d8 35 00 00 00 00 86 e5 5c 35
       4.7029874e-07 1.6133401e-06 0.0 8.2290387e-07
000140 03 39 66 35 00 00 00 00 7b 80 80 35 c6 d3 65 35
       8.576464e-07 0.0 9.574136e-07 8.561732e-07
000150 00 00 00 00 e7 42 60 35 98 90 53 35 00 00 00 00
       0.0 8.354386e-07 7.8814037e-07 0.0
000160 50 15 83 35 d1 04 66 35 00 00 00 00 93 40 40 35
       9.766463e-07 8.5688686e-07 0.0 7.161954e-07
000170 d8 9d 3a 35 00 00 00 00 62 d5 8b 35 f1 47 63 35
       6.952009e-07 0.0 1.041841e-06 8.466878e-07
000180 00 00 00 00 91 35 26 35 22 47 25 35 00 00 00 00
       0.0 6.191777e-07 6.15708e-07 0.0
000190 5e 28 88 35 7e 3d 45 35 00 00 00 00 91 6f 10 35
       1.0144538e-06 7.34777e-07 0.0 5.380653e-07
0001a0 83 95 ec 34 00 00 00 00 31 f8 88 35 e6 f8 36 35
       4.406721e-07 0.0 1.0205023e-06 6.816248e-07
0001b0 00 00 00 00 0d cc 23 35 37 3c 9a 34 af 8c 49 35
       0.0 6.1019165e-07 2.8728547e-07 7.5083057e-07
0001c0 78 7b 9a 31 18 95 46 35 f8 a6 7f 35 5e ec ad 35
       4.4960267e-09 7.397771e-07 9.5237874e-07 1.2958296e-06
0001d0 4d de aa 34 00 00 00 00 f5 c0 2e 35 a7 08 1f 35
       3.1826713e-07 0.0 6.510084e-07 5.9244707e-07
0001e0 00 00 00 00 97 8a 52 35 95 57 49 35 00 00 00 00
       0.0 7.843277e-07 7.5005784e-07 0.0
0001f0 b8 99 02 35 3c 53 0c 35 00 00 00 00 53 b6 73 35
       4.8652464e-07 5.2275186e-07 0.0 9.078987e-07
000200 17 4d 56 35 00 00 00 00 8f a9 29 35 4c 32 37 35
       7.9833393e-07 0.0 6.3204146e-07 6.8246004e-07
000210 00 00 00 00 bc b5 7f 35 11 96 62 35 00 00 00 00
       0.0 9.525936e-07 8.4409936e-07 0.0
000220 1c 64 45 35 50 d6 5b 35 00 00 00 00 20 f6 a6 35
       7.35339e-07 8.1895723e-07 0.0 1.2439596e-06
000230 3a b9 88 35 00 00 00 00 0b c0 4f 35 11 92 81 35
       1.0186698e-06 0.0 7.739297e-07 9.65376e-07
000240 00 00 00 00 4f 28 a9 35 f5 28 ad 35 00 00 00 00
       0.0 1.2603213e-06 1.2901424e-06 0.0
000250 62 77 58 35 dc f6 88 35 37 19 85 35 b0 52 e0 31
       8.0639995e-07 1.0204635e-06 9.916611e-07 6.5286585e-09
000260 6c 20 84 35 7c b7 a2 35 61 02 50 35 f5 5b 98 35
       9.844202e-07 1.2123342e-06 7.74895e-07 1.1351646e-06
000270 00 00 00 00 c1 56 b9 34 5b b2 af 34 00 00 00 00
       0.0 3.4522057e-07 3.272606e-07 0.0
000280 3f a0 95 34 39 ad ae 34 00 00 00 00 a8 3d ef 34
       2.7870007e-07 3.2536062e-07 0.0 4.456208e-07
000290 33 38 e5 34 00 00 00 00 5e dc a4 34 e6 e8 b5 34
       4.2695464e-07 0.0 3.070772e-07 3.3883333e-07
0002a0 00 00 00 00 12 02 14 35 62 f1 12 35 00 00 00 00
       0.0 5.513731e-07 5.4740497e-07 0.0
0002b0 76 1d b6 34 09 ce be 34 00 00 00 00 c4 95 2d 35
       3.3921577e-07 3.5540168e-07 0.0 6.466546e-07
0002c0 dc 91 26 35 00 00 00 00 7f d4 b5 34 8e 50 c7 34
       6.205207e-07 0.0 3.3868488e-07 3.712525e-07
0002d0 00 00 00 00 dd 18 29 35 c5 bd 40 35 00 00 00 00
       0.0 6.2993587e-07 7.1801725e-07 0.0
0002e0 24 c9 de 34 85 58 bb 34 00 00 00 00 47 cd 19 35
       4.149707e-07 3.489587e-07 0.0 5.729566e-07
0002f0 b7 bc 64 35 7d 48 11 35 59 aa 2e 31 af 5c 1e 35
       8.5211235e-07 5.4122194e-07 2.5417164e-09 5.899446e-07
000300 4a 1d 56 35 19 b4 85 34 4a 7d 02 34 00 00 00 00
       7.9763834e-07 2.490422e-07 1.2152773e-07 0.0
000310 e1 40 6e 34 e8 31 9c 34 00 00 00 00 11 34 77 34
       2.218908e-07 2.9093576e-07 0.0 2.3022609e-07
000320 d4 d2 96 34 00 00 00 00 82 ca 5b 34 b4 62 95 34
       2.8093075e-07 0.0 2.0469636e-07 2.782523e-07
000330 00 00 00 00 2c a4 66 34 e0 a7 8f 34 00 00 00 00
       0.0 2.1480145e-07 2.675797e-07 0.0
000340 85 40 47 34 06 bf 85 34 00 00 00 00 56 df 46 34
       1.8556791e-07 2.4912168e-07 0.0 1.8521436e-07
000350 c1 aa 82 34 00 00 00 00 fd 80 1a 34 43 dd 5f 34
       2.4338627e-07 0.0 1.4389293e-07 2.0848988e-07
000360 00 00 00 00 4e 6d 19 34 d1 3c 15 34 00 00 00 00
       0.0 1.4289e-07 1.3898831e-07 0.0
000370 a9 49 f7 33 cd cd b0 33 00 00 00 00 25 3e 22 34
       1.15152325e-07 8.2330736e-08 0.0 1.5110034e-07
000380 cf da 0d 34 00 00 00 00 f2 15 f6 33 9a d2 67 33
       1.321125e-07 0.0 1.14592595e-07 5.397542e-08
000390 38 d6 f8 33 f7 1f 0f 30 66 65 d0 33 ae fa d7 33
       1.1587366e-07 5.206852e-10 9.704199e-08 1.0057316e-07
0003a0 f7 a6 88 34 42 dc b7 32 00 00 00 00 b1 ec a9 33
       2.5453457e-07 2.1404166e-08 0.0 7.91273e-08
0003b0 83 f0 b6 33 00 00 00 00 61 93 87 33 5c fd a0 33
       8.518784e-08 0.0 6.3132354e-08 7.4966664e-08
0003c0 00 00 00 00 4a aa bd 33 a0 44 c4 33 00 00 00 00
       0.0 8.831974e-08 9.139444e-08 0.0
0003d0 19 9b 88 33 a4 1c 99 33 00 00 00 00 d6 b1 c3 33
       6.3612056e-08 7.1298274e-08 0.0 9.112743e-08
0003e0 3f c5 d5 33 00 00 00 00 1f f4 8a 33 ec 8d 8b 33
       9.954464e-08 0.0 6.470531e-08 6.498507e-08
0003f0 00 00 00 00 36 43 cd 33 a7 fc db 33 00 00 00 00
       0.0 9.558282e-08 1.02439394e-07 0.0

exp_avg f4 [127]
000000 45 6f aa 37 fd 11 ac 39 62 bf 3d 3a c7 31 87 b9
       2.0317393e-05 0.000328198 0.0007238296 -0.00025786294
000010 c3 5d 1c b9 86 3e 5c 39 7e c1 96 38 1e c0 7d b9
       -0.00014912248 0.00021004127 7.188598e-05 -0.0002419953
000020 51 fa 8b 36 21 a7 8b b9 2f 07 f8 ba 70 d9 3b b9
       4.1716635e-06 -0.00026636667 -0.0018923039 -0.00017914711
000030 4b 77 7e b9 8d 45 12 3a 90 4b 3d b9 50 9f 53 39
       -0.00024267768 0.0005579822 -0.00018052594 0.00020181877
000040 81 ae 01 ba 69 46 3d 39 41 13 0d 3a 53 3e 9b 39
       -0.00049469626 0.00018050674 0.0005381592 0.0002961034
000050 89 3d 77 b8 58 21 91 39 f4 44 81 38 b4 8b f3 b8
       -5.8946698e-05 0.00027681398 6.164043e-05 -0.00011613165
000060 5c c0 87 3a 2f 64 4c ba c3 c2 17 ba 70 85 80 ba
       0.001035701 -0.0007796911 -0.00057892146 -0.0009805392
000070 0c 0b b1 b9 35 37 b0 39 8f 08 16 ba 8b 3f a2 b9
       -0.000337683 0.00033610468 -0.0005723321 -0.0003094639
000080 24 91 cb 39 cc d0 82 38 ac 56 68 ba bd c3 91 b8
       0.00038827315 6.2377745e-05 -0.0008863013 -6.950598e-05
000090 55 2c 04 ba 28 d3 09 3a 98 bd 8e 3a 82 96 7b ba
       -0.00050420064 0.00052576 0.0010890244 -0.00095973175
0000a0 ea ee f8 35 6e d0 c1 ba f7 3a ab 3a ea bc 0e 3a
       1.8546973e-06 -0.0014786848 0.0013063838 0.00054450205
0000b0 09 66 3e 38 7d fb 86 39 ee 5c 79 b9 af 5f 2c 39
       4.5394558e-05 0.00025745845 -0.0002378111 0.00016438843
0000c0 39 33 5e ba 49 51 25 39 4b e2 d9 b9 d3 fb b0 b9
       -0.00084762607 0.00015765907 -0.00041558067 -0.0003375696
0000d0 99 87 52 39 19 a8 5f ba 6c 32 c5 39 f8 d1 01 ba
       0.00020077675 -0.00085318234 0.00037612335 -0.0004952247
0000e0 ec 06 8e 3a 42 9c 8f 39 30 44 3a ba a6 32 25 3a
       0.0010835803 0.00027391507 -0.00071054976 0.00063017977
0000f0 5f f8 34 ba d3 31 26 ba cd c8 ba b9 88 e3 01 3a
       -0.0006903465 -0.0006339822 -0.00035626293 0.0004954864
000100 c0 ff d2 b9 68 90 6d b9 5c 8d 92 b7 91 bc 95 b8
       -0.0004024487 -0.00022655877 -1.7470382e-05 -7.139997e-05
000110 eb 91 e3 b8 5a d2 8b 3a 93 45 80 3a 0e 03 46 3a
       -0.00010851383 0.0010667548 0.000978636 0.0007553556
000120 60 bb 8a b9 c5 1f 42 b9 6d fe 41 38 f5 78 45 b9
       -0.00026461016 -0.00018513117 4.625174e-05 -0.00018832444
000130 a8 72 52 3a 0e b6 f7 b9 ed 9c f2 39 d2 74 83 39
       0.00080279494 -0.00047247153 0.00046274756 0.00025073305
000140 c1 b2 c7 ba 93 c8 27 ba b0 38 10 3a e6 82 10 39
       -0.0015235768 -0.00064004323 0.0005501611 0.00013781674
000150 32 d9 9b ba 43 10 80 b9 6f cb 38 ba e1 26 77 38
       -0.0011890291 -0.00024426178 -0.0007049357 5.8925598e-05
000160 c8 a9 23 b9 a2 1f 95 b9 a1 d0 e1 39 9c 35 3c 3a
       -0.0001560814 -0.00028443063 0.00043070785 0.0007179619
000170 65 25 35 39 ac 7e 0f 3a e5 79 ae 39 19 f2 ef b8
       0.00017275436 0.00054738927 0.00033278685 -0.00011441502
000180 ea 8f e9 39 fb e8 a8 38 cf 42 17 ba e7 5d e4 39
       0.00044548447 8.05426e-05 -0.0005770148 0.00043557512
000190 10 f4 b4 b8 76 29 a2 b8 c7 50 0f ba 3c 18 70 39
       -8.628529e-05 -7.732485e-05 -0.0005467054 0.00022897212
0001a0 ee 01 5c 3a d1 c8 88 39 bf b0 6c ba 68 b5 dc b8
       0.00083926215 0.0002608956 -0.0009029023 -0.00010524207
0001b0 11 1b 27 3b 45 6b 58 ba ae fc 01 3a 46 f2 cc b9
       0.002549831 -0.00082557305 0.00049586117 -0.0003909042
0001c0 03 c8 95 b9 a2 4e 15 ba fc dd 6a 39 38 38 b8 b9
       -0.00028568515 -0.0005695616 0.00022398675 -0.000351371
0001d0 f2 5b f1 38 51 42 00 3a 48 69 5b 3a d9 78 21 3a
       0.00011508902 0.00048926944 0.0008369875 0.00061596703
0001e0 c6 b8 69 b9 d2 61 c1 39 ee 84 68 3a 17 19 26 ba
       -0.00022289445 0.0003688471 0.0008869906 -0.0006336136
0001f0 15 ea 3a 39 0c 25 24 ba 15 58 b2 39
       0.00017825545 -0.0006261624 0.00034016432
