Assets/RaceCar-499941.pt (torch, 594095 bytes, 47 tensors)

network_body._body_endoder.seq_layers.0.weight f4 [128, 27]
000000 01 82 27 3f 01 ee 0e 3e 79 69 f5 3e 26 a2 a0 be
       0.65432745 0.13957979 0.47932032 -0.3137371
000010 4c cb 55 3e 04 9f 63 be 86 21 b7 3e eb 5b 40 be
       0.20878333 -0.22228628 0.35767764 -0.18785064
000020 72 16 37 3e b8 83 98 bd 00 86 a8 3e 80 0f 30 3e
       0.17879656 -0.07446998 0.32914734 0.17193413
000030 77 ef c2 3e e7 c0 ce 3e 0d ff 15 bc a1 d3 13 bf
       0.38073322 0.40381548 -0.009155047 -0.57744795
000040 f7 fc 27 be e8 b6 02 3b 25 82 58 3e 50 36 a4 3c
       -0.16405092 0.0019945446 0.21143396 0.02004543
000050 14 06 03 3e 6b 80 76 3e 49 2b a0 3e 41 56 dd 3c
       0.12795287 0.24072425 0.31283024 0.027018668
000060 8b 18 7a 3d c3 55 97 3e 32 55 86 3e 08 30 f8 be
       0.061058562 0.29557618 0.26236874 -0.48474145
000070 9c 15 6b be 1f cd 16 be 9e 7f 04 3f c2 a2 56 bc
       -0.22957462 -0.14726685 0.5175723 -0.013100328
000080 74 59 84 be 6d a1 32 3e 09 d5 c4 be 25 4f 77 3e
       -0.25849497 0.17444392 -0.38443783 0.24151285
000090 4c ef e2 3d ea 1f 8b 3e 7f 96 29 3e ea fd 3e 3d
       0.110807985 0.27172786 0.16561316 0.04662887
0000a0 53 b9 b3 bd 1a b9 03 bf 9f 14 9d be 88 92 d7 bd
       -0.08775582 -0.5145432 -0.30679795 -0.105259955
0000b0 ed f4 3d be dc 1e 41 3d c1 0b 70 3e 12 35 c3 bc
       -0.18550463 0.04714857 0.23441984 -0.023829017
0000c0 a5 72 ce 3e 24 76 17 3e 26 b3 63 3e f1 9c 00 3f
       0.40321842 0.14791161 0.22236308 0.50239474
0000d0 e0 7e 6f 3e 4c 58 36 bd 93 99 db 3e 5b 79 0f 3f
       0.23388243 -0.0445178 0.42890605 0.5604455
0000e0 94 91 bb 3f 86 ef 33 3f 19 7d c1 3e 22 c6 52 3d
       1.4653802 0.7028736 0.37790754 0.051458485
0000f0 e2 14 5e 3f 71 bd 22 3f 3b c9 10 3e 1a e8 15 3f
       0.86750615 0.63570315 0.14139263 0.58557284
000100 55 6e 89 3e f1 28 14 3f ba 53 72 3e 97 61 3f 3f
       0.2684199 0.5787497 0.23664752 0.74758285
000110 6e 0e 21 be b4 dd cd 3d 6d 8a bd bd bc 82 1b 3d
       -0.1572816 0.10052052 -0.09254918 0.037966475
000120 92 a3 99 bc 33 6c ff be 6b 1f 40 3f 8a 23 15 be
       -0.018754754 -0.49887237 0.7504794 -0.14564338
000130 3a f8 8b be 34 f6 c7 bd 11 c8 31 3e b2 cd a7 3e
       -0.2733782 -0.097637564 0.17361476 0.3277412
000140 d4 0c d6 3e 30 85 3c 3e 9c 50 01 be bc 32 ba bd
       0.41806662 0.18410182 -0.12628406 -0.09091708
000150 dd cc 88 3e 06 a9 53 3d 84 b9 ad 3d f7 1c 89 3d
       0.26718798 0.051674865 0.0848265 0.06694978
000160 8d fe 87 3e c7 25 17 bb fd e9 54 bd 18 5e 8b 3d
       0.26561394 -0.0023063289 -0.05198096 0.06805056
000170 4a ca 77 3c fa 7c f4 3d 93 e3 1b 3d e3 e8 00 bd
       0.015123913 0.119379 0.03805883 -0.031472098
000180 ea ed 8b be 54 8a 49 3e 48 40 0b 3e bb 57 2b 3e
       -0.27329952 0.19681674 0.1359874 0.16732685
000190 99 af 3a 3d 44 db af 3d 9f 6b 4b be 8c 8a bc 3e
       0.04557762 0.085867435 -0.19865273 0.36824453
0001a0 cb e5 62 bc ac 73 d4 3d 89 1f 0d be e0 53 96 be
       -0.013848732 0.10373625 -0.13781561 -0.29360867
0001b0 e9 3a 3a bf 92 3f 87 bf d9 a5 d3 bf 05 c5 57 bf
       -0.7274614 -1.0566275 -1.6534988 -0.84285
0001c0 3f 2c 8a bf 6c 37 fd be c8 4f ab bf 6e 5c 24 bf
       -1.0794753 -0.49456346 -1.3383722 -0.64203537
0001d0 65 49 7f 3e 2c b9 20 bf 5b 54 1c bf b8 b3 41 bf
       0.24930342 -0.6278255 -0.61066216 -0.75664854
0001e0 87 e4 93 bd 09 8a 5a bf 04 68 85 be b3 a7 92 3e
       -0.072213225 -0.85366875 -0.2605592 0.2864357
0001f0 fe ff 3b bc 6d c0 a3 be 36 d5 8e 3e 46 c5 17 3f
       -0.0114746075 -0.31982747 0.27897042 0.5928539
000200 1e 8d f1 bf 6c 8c 3c 3e 23 c6 3e 3e ab 12 34 be
       -1.887119 0.18412942 0.1863027 -0.17585246
000210 33 15 a4 be 0d 32 ac bc 23 06 51 3e f0 59 db 3e
       -0.32047424 -0.02101996 0.20412497 0.42842054
000220 ec 41 29 3e 1f dc 91 3f bd 01 29 3d 49 36 13 3e
       0.16529053 1.1395301 0.041261423 0.14376177
000230 f0 1d 57 3e cd a5 38 3f 4b 7c 78 be d0 b1 f9 be
       0.21007514 0.7212799 -0.24266164 -0.48768473
000240 30 bc 82 3e 41 cd 77 3f 21 1f 48 3e 95 8d 49 3f
       0.255342 0.9679757 0.19543125 0.7873166
000250 18 e2 87 3e 2d 8e cc bc 2e 03 81 3d 94 4d 56 bd
       0.26539683 -0.024970138 0.062994346 -0.052320078
000260 3b 7a 46 3e 70 9e d8 bc e1 38 34 bd 37 ca d0 3e
       0.19382565 -0.026442736 -0.043999556 0.40779278
000270 f0 8b 86 bd bd 81 7d be f7 4c 57 3e 5f 2b ac be
       -0.0656966 -0.24756522 0.21025454 -0.3362684
000280 fa 0b dd 3e f8 b4 89 3e b9 ab ce 3e 0d 19 64 be
       0.431732 0.2689588 0.4036539 -0.22275181
000290 57 29 1a bf 5f 61 8b be 52 c7 0d bf e3 64 a5 be
       -0.6021933 -0.27222726 -0.55382264 -0.32303533
0002a0 d0 9d cb bd 8c 73 40 bf aa 51 c5 bf bd 5d c1 be
       -0.0994221 -0.7517631 -1.5415547 -0.3776683
0002b0 5d 72 ef 3e 02 43 49 bd ce f8 0a 3f 8b 01 9d bd
       0.4676694 -0.04913617 0.54285896 -0.0766631
0002c0 e6 ad 7c 3e 77 3d 0f be cc a8 21 bd f4 c7 52 3f
       0.24675712 -0.1398829 -0.039467618 0.82336354
0002d0 b3 cf c2 be 49 0a 86 be e0 7b bf 3e 33 86 dd be
       -0.38049087 -0.26179722 0.37399197 -0.43266448
0002e0 4b 4d b0 be 2e ca 77 3d 7c 67 52 be 16 d1 00 3f
       -0.3443397 0.060495548 -0.20547289 0.5031904
0002f0 07 7e de 3e 97 71 d5 bd 09 ee 7b be 3e 90 92 be
       0.43455526 -0.10422056 -0.24602522 -0.28625673
000300 cf 1a c5 bd 1b 86 1f 3f 6f 67 05 3c 95 cf 94 bd
       -0.09624254 0.62314004 0.008142336 -0.07266156
000310 08 44 f2 3c dc c2 73 bd 3f 09 9c bd a4 06 9a 3e
       0.029573455 -0.059512004 -0.07618951 0.3008319
000320 db 20 86 be 0f b1 8a be a9 59 f7 3d 03 dc 06 3e
       -0.26196942 -0.2708821 0.12077648 0.13169865
000330 f0 fe 6b be 0c c2 a9 bc bf 5c d9 3d 0a be ba 3d
       -0.2304647 -0.020722412 0.10613393 0.09118278
000340 ee ef 5c 3d 1a ca f2 3d 55 5d 52 be 91 81 2c 3e
       0.053939752 0.11854954 -0.20543416 0.168463
000350 c5 68 3a be 4c e7 84 be d3 5d 1f be 99 b0 4a 3e
       -0.18204029 -0.25957716 -0.15563135 0.19793929
000360 ef c6 2b 3f e5 45 1c 3e 32 3c 64 3f d2 cd 55 3e
       0.67100424 0.15261038 0.8915435 0.20879295
000370 75 8e 17 3f d5 d1 83 3e 5b e5 1c 3f 2a 9c 4c 3f
       0.5920175 0.25746027 0.6128747 0.7992579
000380 f6 b6 0c 3e 26 60 28 3e 41 6a df 3e 8a f2 a1 3e
       0.13741669 0.16442928 0.43635753 0.31630355
000390 40 a6 69 3e ca 9d 9f 3e 05 74 9b bc 02 70 01 be
       0.22817326 0.3117507 -0.01897622 -0.12640384
0003a0 9d 0f 9f 3b 16 e9 34 be 13 de 97 3e 4d 75 20 3f
       0.004854156 -0.1766704 0.29661617 0.62678987
0003b0 94 9b c9 be 4b b2 c0 be fe d4 dd bc 76 04 97 bd
       -0.3937651 -0.37636027 -0.027079102 -0.07373898
0003c0 9d 55 56 3e 01 a3 bd 3e 86 a4 fa bb 8b a8 b4 3e
       0.20931096 0.37038425 -0.0076490073 0.35284838
0003d0 16 9b 4b be af ba 2e be 73 38 33 be 9f fd 13 bf
       -0.1988338 -0.17063402 -0.17502002 -0.5780887
0003e0 5d cd 79 be 65 1f 88 3e ad 3d 53 be d2 2d 77 bf
       -0.24394746 0.26586452 -0.20628996 -0.9655429
0003f0 e6 9c 35 3e c7 d6 66 3e c9 52 f8 be 92 b5 27 3e
       0.17735633 0.22542869 -0.4850066 0.16377857

network_body._body_endoder.seq_layers.0.bias f4 [128]
000000 b3 12 8d bd ad cc 61 bd 95 a3 7a 3e 85 65 33 3d
       -0.06888332 -0.055126835 0.24476464 0.04379799
000010 34 f3 ec be 89 c0 f4 3d e1 b0 63 be d1 fb d4 bc
       -0.462793 0.11950786 -0.22235443 -0.025998982
000020 bc ea 2d 3e 43 ba b9 bd cb 8a 34 3e e1 b3 ef bd
       0.16984075 -0.0906873 0.1763107 -0.11704231
000030 36 b8 cb bd f8 88 ab 3e 10 32 4c bd 35 1e a5 be
       -0.09947245 0.33502936 -0.04985243 -0.3224961
000040 0b c0 99 3d eb f5 75 be 5a e5 42 3d 07 9f d6 3c
       0.075073324 -0.24019592 0.047582008 0.026198877
000050 35 62 af be 07 ae 8b bd 6b b5 51 3e a9 a9 ea 3d
       -0.34254614 -0.068203025 0.20479362 0.11458141
000060 5b bc e8 bd 0c 47 63 3e 8c 56 85 be c2 14 69 3d
       -0.11364051 0.22195071 -0.26042593 0.05690456
000070 8c 0d 9b b9 52 ce 15 3f 32 1e 0d 3e ae cb c1 3e
       -0.00029573997 0.58517945 0.1378105 0.37850708
000080 00 53 ad be 2a 60 54 3e 93 21 8c 3d b8 e7 8a be
       -0.33852386 0.20739809 0.06842341 -0.27129912
000090 a3 0a 22 3d 90 8b ac 3e d3 40 e8 3d 32 18 15 bd
       0.039560925 0.33700228 0.11340489 -0.036400028
0000a0 4d 77 24 3e 0f c4 28 3e ae b6 8e be b1 b2 ed be
       0.16061135 0.1648104 -0.2787375 -0.46425393
0000b0 39 41 d4 3d 5c fa ce 3d 65 c9 32 3a d4 35 21 3d
       0.10364003 0.10106346 0.0006820171 0.039357975
0000c0 86 7d e4 3d 33 eb ce 3c 12 31 8f 3e ca 0c 7e 3c
       0.11156754 0.025258636 0.27967125 0.015505979
0000d0 fa ee 23 be b0 b3 2f 3e aa 3b bd 3e b6 5a 08 bf
       -0.16009131 0.17158389 0.36959583 -0.53263414
0000e0 81 16 b8 3c 75 44 8c bd 66 68 28 3e ad 96 bc 3e
       0.022471668 -0.06848995 0.16446075 0.36833706
0000f0 88 88 5a be 86 d0 99 3d cf bc 8d be a4 ba 17 be
       -0.21341145 0.07510476 -0.27683112 -0.14817291
000100 f5 f1 b6 bd 5d 47 74 bd 3d 0c 0c be 80 3a 80 bd
       -0.089328684 -0.05963837 -0.13676544 -0.06261158
000110 10 64 ea 3e 3c 8b 5d 3e dc 61 f5 3c 2a 9c 22 3f
       0.45779467 0.21635145 0.02995389 0.6351954
000120 97 57 2d 3d ec 6b a5 3b 69 f1 1e 3e 82 d3 42 be
       0.04231986 0.0050482657 0.15521778 -0.19025996
000130 c4 45 f9 bc 68 aa 55 be 02 d6 0c 3e 87 e0 36 3e
       -0.030428775 -0.20865786 0.13753513 0.17859088
000140 e7 7a 10 bf e8 a5 6e be 2f c1 df 3e e7 73 63 be
       -0.56437534 -0.23305476 0.43702075 -0.22212182
000150 c3 3a ae bd 59 34 d9 3a 7d 67 74 3e 30 23 1c be
       -0.08507302 0.0016571387 0.23867603 -0.15247798
000160 79 ff e8 bd c8 55 7a 3d 82 3c 56 bd 83 63 09 3d
       -0.113768525 0.061116964 -0.0523038 0.033542167
000170 7b d6 38 3f 75 42 c9 be 97 a3 a3 be a0 95 f0 3d
       0.7220227 -0.39308515 -0.31960747 0.11747289
000180 b7 bc 1e bd 70 4b 61 bd e6 be 04 be 36 70 a5 bd
       -0.03875419 -0.055003583 -0.12963447 -0.08078043
000190 31 d2 c3 3d 6b 75 ea 3e c6 60 30 bd e8 44 78 3e
       0.09561575 0.45792708 -0.04306104 0.24245036
0001a0 57 aa ae be 1e 0c 2f be 78 c1 d3 bd f1 2b c0 ba
       -0.34114334 -0.17094466 -0.103396356 -0.0014661533
0001b0 e8 92 0a bd 1d fb c5 be 63 6c 55 3e e5 30 02 be
       -0.033831507 -0.38668147 0.20842128 -0.12713964
0001c0 09 75 c9 3d e6 af 8a be 2a d5 25 be 2b 2f bb 3d
       0.09836776 -0.27087325 -0.16194597 0.09139856
0001d0 f6 58 db bd dd 7d dc bd aa 56 25 3e 72 25 32 be
       -0.10710327 -0.10766194 0.16146341 -0.17397097
0001e0 83 1e ca 3c 23 8a 96 bc 82 56 6b 3e 79 3d 45 bd
       0.024672752 -0.018376416 0.22982219 -0.048154328
0001f0 00 87 39 bc 31 78 5e 3e ca 54 65 be 8d 57 81 be
       -0.01132369 0.21725537 -0.22395626 -0.25262108

network_body._body_endoder.seq_layers.2.weight f4 [128, 128]
000000 7e 87 04 3d 10 36 16 bd 49 0e 55 3d 29 00 62 3d
       0.032355778 -0.03667265 0.052015577 0.055175934
000010 7a 84 f1 bc c7 ed df bd b5 ca 37 be 13 52 a9 bc
       -0.029482115 -0.10934024 -0.1794842 -0.020669019
000020 75 85 84 bc 78 aa 74 3d 80 0b 88 3d 35 21 c5 3c
       -0.016176919 0.059732884 0.066428185 0.024063686
000030 67 9a a0 bd f0 70 f0 bd a2 e7 ba bd ea f7 07 3b
       -0.0784195 -0.11740291 -0.09126212 0.0020747134
000040 55 4a e5 bd aa a1 4a 3d a8 e4 dd 3d c2 77 88 3d
       -0.11195818 0.04947058 0.10834628 0.06663467
000050 ac 8d a1 3d f1 5c c0 bd 9b af 29 3c 82 74 b6 3b
       0.0788835 -0.09392727 0.010356809 0.005568088
000060 c0 0c a6 bd 44 08 9a bd ca 83 e6 bd 19 ba 9c 3d
       -0.081079006 -0.07521108 -0.112556055 0.07652683
000070 f5 9d 0c bd ff 5e e7 3d 69 bd 74 bd cc 38 5a be
       -0.034330327 0.11297416 -0.059750948 -0.21310729
000080 23 61 aa bd 43 f0 41 ba 44 55 d5 bd 77 4f e3 3d
       -0.083193086 -0.00073981675 -0.10416654 0.11099141
000090 b7 de 19 3e bd 05 62 bd fc 56 7f bd b6 55 09 be
       0.15026365 -0.055181254 -0.062338814 -0.13411602
0000a0 f5 d8 b6 3c 10 64 a1 3c e4 9c 34 be b3 22 fc 3d
       0.02232025 0.019701034 -0.17637974 0.12311306
0000b0 0a bb 77 bd 34 6b c7 3d d8 b2 c0 3d 61 27 15 bb
       -0.06048111 0.09737244 0.09409112 -0.0022759067
0000c0 b4 f1 94 3c 20 56 bb 39 51 85 6e bd 40 aa f3 bd
       0.01818166 0.00035731588 -0.05823261 -0.11897707
0000d0 51 db 01 be c4 29 11 bd f3 dd 65 be 76 18 bd bd
       -0.12681319 -0.03544022 -0.22447948 -0.09233181
0000e0 ef fa 60 3c a7 cf dc 3d ae d1 b7 bd ab 1f 90 bd
       0.013731702 0.10781794 -0.0897554 -0.0703729
0000f0 3f ca 20 be 9e 09 a1 bd 9d 7d 03 bd d3 43 08 bd
       -0.15702151 -0.078631625 -0.032102216 -0.033267807
000100 49 f1 5c 3e c9 2b 43 bc c2 3e fd bc 27 b0 cd 3b
       0.21576418 -0.011912295 -0.030913714 0.0062771025
000110 87 af e8 3b 09 51 6d 3d cd a3 a7 bd 3a 89 23 3f
       0.0071010026 0.05793861 -0.081855394 0.63881266
000120 9a 1d aa 3c d7 e7 d7 bd 70 28 44 39 76 68 a8 3d
       0.020766068 -0.10542267 0.00018707081 0.08223049
000130 fe 0c 15 3e c1 38 2f 3e 98 49 d9 3c cf 77 96 bd
       0.14555737 0.17111494 0.02652435 -0.073470704
000140 81 2f b5 bc 6a a8 c4 bd b4 7d fb bd 80 60 81 3d
       -0.022117378 -0.09602435 -0.12279835 0.06317234
000150 86 47 3a bd a9 26 09 bd 02 80 66 ba db 2f a7 bd
       -0.045478366 -0.033484135 -0.00087928784 -0.081634246
000160 be 0d 9b bd 26 79 a1 3d fc e2 0b bb d9 b7 75 3d
       -0.075709805 0.07884435 -0.002134501 0.059989784
000170 0b b6 ad bc e0 fe 84 bc db 8e 58 3e 83 27 a7 3b
       -0.021204969 -0.016234815 0.21148245 0.0051011457
000180 14 76 19 3d 10 78 f0 3b 6b e4 da bc e4 68 f6 bd
       0.037466124 0.0073385313 -0.026720246 -0.12031725
000190 cb 2c d1 3a 07 a3 67 be b9 6a 59 3c 8d 19 6e 3d
       0.0015958784 -0.22620784 0.013270074 0.058129836
0001a0 f7 13 ed 3d bf 50 2c 3d e7 29 34 3d bb d6 f7 3d
       0.115760736 0.042069193 0.043985274 0.121015035
0001b0 d4 42 32 bd c2 01 8d 3d 03 dc af 3d c1 b0 3c be
       -0.043520764 0.06885101 0.08586886 -0.18426801
0001c0 28 b1 65 bd 5a 0d 89 3c 53 54 b9 bd 44 88 b7 bd
       -0.056077152 0.01673 -0.09049287 -0.089615375
0001d0 4b 26 0b be 11 fb 20 3e dc 53 98 bd c0 1a f6 3d
       -0.13588826 0.15720774 -0.0743787 0.12016821
0001e0 6f a8 08 3d a6 03 15 3d 98 f5 bc bd 97 97 87 be
       0.033363756 0.036380433 -0.09226531 -0.2648284
0001f0 42 78 98 bd 05 aa 19 be d3 fc cd 3d 04 8c 60 be
       -0.07444812 -0.15006264 0.10057988 -0.21928412
000200 f2 c1 24 bd d4 06 19 3e 18 42 37 3e 5e be ee bb
       -0.040224023 0.14944011 0.17896307 -0.007285877
000210 1d ee 86 3d d2 e9 cb 3b d6 20 8c bc 63 b9 01 3d
       0.06588385 0.006222942 -0.017105501 0.03167094
000220 4e da d6 bc 18 e8 37 bc 5c f2 a6 3c 36 38 4e bd
       -0.026227143 -0.011224769 0.020379238 -0.050346576
000230 08 2e aa bd 80 9c 4b 3e 1e fc ae bd f7 9e 8e bc
       -0.08309561 0.19883919 -0.08544181 -0.017409785
000240 87 bf 35 bd 58 9c d4 3d 60 18 74 3c 02 4c 23 3d
       -0.044372108 0.10381383 0.01489839 0.03986741
000250 67 90 58 bd b8 9d 9a 3d 0b bb 90 bd ff 9f f3 bd
       -0.052872088 0.07549614 -0.070669256 -0.11895751
000260 c5 a4 23 bd 80 47 e3 3d f9 54 e5 bd 94 79 84 3c
       -0.03995206 0.11097622 -0.11197848 0.016171254
000270 82 09 35 be 56 e9 14 bc 7c bc 89 bc 65 b1 2b bd
       -0.17679408 -0.009088835 -0.01681351 -0.041917223
000280 e2 3e 9a 3b 20 55 84 3d 3d 15 85 3d a5 d4 9d 3c
       0.0047072032 0.06461549 0.064981915 0.019266436
000290 f2 46 85 3c 02 3a 4c bb bb 01 18 bd 30 2a 82 3c
       0.01626918 -0.0031162505 -0.037111025 0.015889257
0002a0 9a 8d 99 bd 14 45 0f 3d e1 3b 01 3e df af 5d bd
       -0.074977115 0.034977987 0.12620498 -0.054122802
0002b0 d4 26 f6 bd 61 b8 cf bd f0 18 d4 bd e5 fb f3 3c
       -0.120191246 -0.10142589 -0.10356319 0.029783199
0002c0 11 45 1c be d3 fb 0f 3e bc 92 b3 3c d5 29 78 3d
       -0.15260722 0.14060907 0.021920554 0.06058677
0002d0 6e a8 25 bc 69 70 75 bd fb 43 39 3e 74 08 ff bd
       -0.010110958 -0.059921656 0.18092339 -0.12452784
0002e0 f3 42 d2 bc 42 b6 3b 3a a3 a7 3e 3e 6f 78 b6 bd
       -0.02566669 0.00071606424 0.18618636 -0.0890969
0002f0 10 da 9b 3d 33 c5 54 3d 7a c4 41 bd a7 d4 ee bc
       0.076099515 0.051945876 -0.047306515 -0.029154135
000300 46 90 29 bd 60 81 05 be 6f 6d d2 bd 60 02 b1 bd
       -0.041397355 -0.13037634 -0.10274779 -0.08643031
000310 75 55 b7 3a 15 64 83 3c 71 62 9e 3c f2 7f b8 be
       0.001398726 0.016038934 0.01933405 -0.36035115
000320 13 87 45 3e 9c 97 2e 3d 6e 62 9f bd 2c f3 50 bd
       0.19289808 0.042625055 -0.07782446 -0.051013157
000330 ba 4c f4 3d 92 e4 06 3e 17 a3 c5 bd ca 85 75 bd
       0.11928697 0.1317313 -0.096502475 -0.059942044
000340 87 2c 81 3d 62 53 6b 3d 2e a5 66 3d f4 be 22 bd
       0.06307321 0.057452567 0.05630987 -0.03973289
000350 f7 a8 db 3c 06 9f 11 3d 51 44 89 3d 9c ba 61 3e
       0.026813967 0.035552047 0.067024834 0.22043842
000360 26 15 2d 3d 98 59 ae bd 90 ff 82 be 52 63 98 be
       0.042256497 -0.085131824 -0.25585604 -0.29763275
000370 66 f6 1d bd 4b 76 61 3d a3 e2 f3 bd f5 af 18 3e
       -0.038565062 0.055044454 -0.11908462 0.14910872
000380 08 7e e4 3d fe 30 b1 bd 80 51 fd 3d c7 32 b5 3d
       0.11156851 -0.08651923 0.123690605 0.08847576
000390 b7 53 54 bd fd 33 95 3a 93 7e 7f 3d 8b eb 92 bd
       -0.05183765 0.0011383292 0.06237657 -0.071738325
0003a0 c0 76 86 bd 01 05 91 bd 4e 33 c5 3c bc 7f 1b 3d
       -0.065656185 -0.070810325 0.024072316 0.037963614
0003b0 17 43 eb bd eb a4 30 bd 60 20 ad bd 0f b6 23 3d
       -0.11487406 -0.043126028 -0.08453441 0.039968546
0003c0 93 09 ec bb 6c 85 c9 bd 72 24 f1 3c cd d0 2d 3d
       -0.00720329 -0.09839901 0.029436324 0.042435456
0003d0 ac c8 d5 3d 37 a6 11 3e c4 ea ba bc 4d 19 23 3d
       0.10438666 0.14223562 -0.022817023 0.03981905
0003e0 45 a2 ca 3c 87 19 fd bd 6d 87 0b be 7a 6b 75 3d
       0.02473558 -0.123583846 -0.1362588 0.05991695
0003f0 00 88 1e be a3 d8 bd 3b fa 1d 20 3a 40 25 33 bd
       -0.15481567 0.0057936474 0.00061079825 -0.043736696

network_body._body_endoder.seq_layers.2.bias f4 [128]
000000 7f 32 c0 bd f8 9d 6a 3d d7 66 f6 bd d3 23 38 3d
       -0.09384631 0.057279557 -0.12031334 0.04495604
000010 84 30 60 3d ad 73 06 3f 38 e5 e9 bc 64 de 39 3e
       0.054733768 0.5252026 -0.028551683 0.18151242
000020 bd 04 73 bd fb 2a 12 bb ec 70 bc 3e b7 52 02 b9
       -0.05933069 -0.002230345 0.36804903 -0.0001242858
000030 36 89 92 bb ad 7a b2 bd 3d 4e 49 3d c8 7c 1e bc
       -0.004471923 -0.08714805 0.04914688 -0.009673305
000040 d2 f3 30 3e 87 3f 72 be 66 12 61 bc 30 e2 1f 3d
       0.1728051 -0.23657046 -0.013737297 0.03903407
000050 c3 e6 27 bc 4f e4 8e be 4b b2 9f bc 6d 5c 35 bc
       -0.010247889 -0.2790856 -0.019494196 -0.011069399
000060 86 35 24 bb f4 b8 ee 3c c5 08 95 3c 0f eb 62 bd
       -0.0025056317 0.029140927 0.018192658 -0.05539995
000070 c3 7a 3b 3c 1a a9 41 3d 72 ee 02 bd b8 61 44 bd
       0.011442843 0.04728041 -0.03196568 -0.047944754
000080 e8 c0 5b 3c 97 c1 3e bd e0 16 69 ba ab ee e2 3d
       0.013412692 -0.04657134 -0.0008891653 0.110806786
000090 38 70 03 3e 15 a7 ac be 24 50 77 3d 57 65 e6 bc
       0.12835777 -0.33721223 0.060379162 -0.028124494
0000a0 2b 5e 17 bc 0c 91 0c be da b8 8a 3d ed 63 72 3c
       -0.00923876 -0.13727206 0.06773539 0.014794332
0000b0 92 2f 4e 3d 5d 56 60 3e 18 f1 72 3c 23 b1 5c bc
       0.050338335 0.21907945 0.014827989 -0.013469967
0000c0 a9 bc 25 3d da b4 06 3d af 7a 5f 3e 17 0f c7 3c
       0.040463123 0.032887317 0.21824144 0.024299188
0000d0 11 8f 27 be 38 4a 6e 3d 0c 23 7a bd 5f 17 d1 3c
       -0.16363169 0.05817625 -0.06106858 0.02552384
0000e0 a0 29 1d 3d 51 f8 d0 bd 39 c1 9c 3d a7 e3 40 3d
       0.038369775 -0.102036126 0.07654042 0.047092106
0000f0 c8 92 56 3b d3 d9 02 3e 2e 7e c4 bc 1c a0 c0 bc
       0.0032741297 0.12778406 -0.023985948 -0.023513846
000100 e1 2e 78 3c 53 10 b5 3d 05 15 03 3d ff 55 88 be
       0.015147896 0.08841004 0.032002468 -0.2662811
000110 ca 4e 89 3d 04 ca b0 bc 90 23 6d bd 95 1a a2 bc
       0.06704481 -0.021580704 -0.057895243 -0.019788066
000120 31 f3 79 bd 14 fa 9d 3d e1 9a d7 bc b2 2d 49 be
       -0.06102294 0.07713714 -0.02631897 -0.19646338
000130 5e cc 63 3d 0e 8a 14 bc 2b eb 05 3e 28 ba 29 3d
       0.05561482 -0.009066118 0.1307799 0.041437298
000140 68 c6 5d b9 1f 29 41 bd 90 b1 19 bd f1 0d b7 3d
       -0.00021150114 -0.047158357 -0.037522852 0.08938206
000150 ac 56 0f 3d 27 34 48 bc a4 54 e2 3e 64 5c 9b 3e
       0.034994766 -0.012219465 0.442052 0.30343926
000160 cc 6c f1 3b e3 74 95 bc db 92 08 be 87 a8 ec bd
       0.007367706 -0.018244212 -0.13337271 -0.115555815
000170 d7 a3 bd bd 6c d2 40 be 8f 7d ac bd 6b 9a fd bb
       -0.092597656 -0.1883027 -0.08422386 -0.0077393553
000180 5b 68 99 3e cf 62 db 39 16 c8 34 bc ca e5 5e 3d
       0.2996243 0.00041844553 -0.011034032 0.054418363
000190 f8 5e a0 bd 8f 84 51 3e 1b 7a 30 3d e7 bb 16 be
       -0.07830614 0.20460723 0.0430852 -0.14720117
0001a0 d6 f4 a2 3b 4a 28 94 3a 87 5a 0b bd 04 6a d8 3c
       0.0049730344 0.0011303511 -0.03402188 0.02641774
0001b0 9a 0a 56 bd cd 43 c8 bc a5 e6 92 bd 6c 0a 85 bc
       -0.052256204 -0.024446392 -0.07172898 -0.016240321
0001c0 a6 1a 3d 3d c0 f4 cd bd 22 be b9 bc 24 ea bb 3d
       0.046167992 -0.10056448 -0.02267367 0.09175518
0001d0 0a 42 e1 bc 42 50 69 3e 96 ea c8 bb 47 92 e4 bc
       -0.02749731 0.22784522 -0.0061314804 -0.027901782
0001e0 0f 71 96 bc 2c 60 e0 bc e1 3e 0c 3d 66 c6 2a bc
       -0.018364457 -0.027389608 0.034239653 -0.010423278
0001f0 71 ca 0f 3e 3e 18 2b bd f0 e0 01 3f 67 bb ae 3d
       0.14042069 -0.041771166 0.5073385 0.08531838

action_model._continuous_distribution.log_sigma f4 [1, 2]
000000 e9 89 88 c0 84 6d 89 c0
       -4.2668347 -4.2946186

action_model._continuous_distribution.mu.weight f4 [2, 128]
000000 eb aa 85 bb 30 23 3b be b4 ed 06 3c ca 23 e4 ba
       -0.004079213 -0.18275142 0.008235384 -0.0017405686
000010 be 84 dc 3d 3a aa d8 3c 0a a0 fb 3b c5 7f 53 3f
       0.10767506 0.026448358 0.0076789903 0.82616836
000020 45 8f e4 bb ee b9 39 3c c3 22 31 bf c1 4a 9b ba
       -0.006975087 0.011335833 -0.6919367 -0.001184784
000030 97 77 78 bc 78 7d 83 bd ec 20 23 bc b3 38 2e 3a
       -0.015165231 -0.06420416 -0.00995658 0.0006646022
000040 fa 89 d8 be 85 c9 e2 bb e0 18 07 bb 61 d1 60 be
       -0.42292768 -0.0069209957 -0.0020614192 -0.21954872
000050 a1 10 a4 bb e6 da 9b ba 37 e8 4b 3d 28 15 2d bb
       -0.005006865 -0.0011890798 0.049782004 -0.0026410315
000060 aa a4 da bc e7 5c 0c bd 85 87 d8 be 69 2b 35 bd
       -0.026689846 -0.034268286 -0.42290893 -0.044230852
000070 9d 9c e6 3a 7c 09 b9 3d e6 20 44 bc ff dc 59 bc
       0.0017594282 0.09035012 -0.011970734 -0.0132973185
000080 b0 02 b3 3c ec 93 b4 3c 37 30 ca bc 1c 74 b7 3e
       0.021851867 0.02204319 -0.024681194 0.35830772
000090 75 b3 88 bc 5c 4a 1f bc 62 a9 54 bd 62 48 8f bc
       -0.016687134 -0.0097223185 -0.05191935 -0.01749057
0000a0 8b 25 8b 3c fa ce 7b 3a af 90 d0 be 34 0c e5 bd
       0.016985675 0.0009605732 -0.40735385 -0.11183968
0000b0 2f db d9 3a d0 5d fe 3e 85 95 ea bc 72 c8 08 bd
       0.0016621108 0.49680948 -0.02863575 -0.033394285
0000c0 4b 3c 1c 3e c2 2b 65 bb ae f4 d1 3f 2a c2 3d 3f
       0.15257375 -0.0034968709 1.6402795 0.74124396
0000d0 5e 8c 74 bc 6f e7 f2 3d c3 41 da bc d8 ca 41 3b
       -0.014926044 0.11860549 -0.026642686 0.0029570367
0000e0 83 ca 9f 39 7e 08 5e bb 11 25 03 3e da 21 8b bd
       0.00030477726 -0.0033879573 0.12807108 -0.06793566
0000f0 51 74 5b 3c 3f fb 58 be 79 54 5f bd a7 2b 48 bb
       0.013394431 -0.21189593 -0.05452392 -0.0030543597
000100 b8 05 14 be 09 0e 6d 3b 25 7d 9d 3b 81 73 10 3c
       -0.14455307 0.0036171696 0.004806178 0.008816601
000110 15 6c b3 39 3f 1d 0a bd 08 d2 80 3a ad ce 31 3b
       0.00034222068 -0.033719297 0.0009828219 0.0027131245
000120 92 02 e7 bb 21 64 4b bc 23 d6 b4 ba 9c 4d 46 ba
       -0.007049867 -0.012414009 -0.0013796728 -0.0007564665
000130 6a f5 97 3e 15 59 e8 3b 03 4b b0 bd 61 63 a0 3b
       0.29679424 0.0070906975 -0.08608057 0.0048946594
000140 e3 16 8e bb 74 12 dd bc 51 ab 8e ba 4b f4 4d 3e
       -0.0043362244 -0.026986338 -0.0010884797 0.20112722
000150 00 ca 87 3c ee 72 c1 bc 78 fd f4 3c 0b 65 0a 3c
       0.016575813 -0.023614373 0.02990602 0.008446942
000160 45 62 91 3d 74 e5 58 ba be c9 71 3b 19 11 5b bc
       0.070988216 -0.0008273937 0.003689393 -0.013370776
000170 b5 d5 bb bb ab ca 76 bc 04 56 fe ba c7 bc 89 3b
       -0.005732263 -0.015062968 -0.0019404297 0.004203412
000180 e4 af 63 3c ab 95 b7 3c 1d 40 98 bc b8 2e 26 bc
       0.013896916 0.022410234 -0.01858526 -0.010142975
000190 a3 02 b6 3b 3b 27 33 3c a3 2c 3a be 60 bb bf bc
       0.0055545135 0.010934646 -0.1818109 -0.023404777
0001a0 8c 99 ae 3d 06 32 ec 3b 23 3f 04 be 98 d4 c3 3b
       0.085253805 0.0072081117 -0.1291471 0.005976271
0001b0 5b ab 9f 3b 19 0c 02 3a c7 fd 86 bb cd 68 48 bc
       0.004872722 0.0004960909 -0.004119608 -0.012232018
0001c0 cb b0 13 3b 1a 39 27 3b 60 24 68 bb 48 8c a4 3c
       0.0022535797 0.0025516213 -0.0035422072 0.020086423
0001d0 04 2c a5 3b 7d 21 23 bf 62 4c 50 3b 02 57 29 bc
       0.0050406475 -0.63722974 0.003178381 -0.010335686
0001e0 8a 11 59 3c 31 7a 67 3b 1f ec 0b be 73 74 0c bc
       0.013248811 0.0035320634 -0.13664292 -0.0085726855
0001f0 37 67 e9 be 07 38 9b bb 15 53 2e 3c 11 f0 b4 3e
       -0.4558656 -0.0047369036 0.0106399255 0.35339406
000200 4d 77 81 3b 7c b2 31 bd 65 6f 77 bb 91 3f c0 3a
       0.0039509893 -0.043383107 -0.0037755605 0.0014667382
000210 e2 f2 5c bc 75 a5 ea 3b 6f b3 4d bb f0 b3 23 3e
       -0.013485642 0.0071608373 -0.0031387468 0.1598661
000220 97 08 5b 3b 74 a0 37 3b 8c 9f d1 bc b7 29 d1 bc
       0.0033421868 0.0028019221 -0.025588773 -0.025532587
000230 e2 d0 b6 bc 57 4f 79 3c 7a 5b 17 3b 67 9a 04 bb
       -0.0223164 0.01521667 0.0023095296 -0.0020233633
000240 20 69 81 bd 8a 7d fb 3b 13 fc 66 bb 38 5d a0 bc
       -0.06318879 0.0076748775 -0.0035245463 -0.0195757
000250 29 95 e1 3b d7 ad 48 3a ed 6d 95 3c 01 c8 9b 3b
       0.0068842364 0.00076552987 0.018240893 0.004754067
000260 4d a6 1b 3c a1 d5 51 bb 03 0a fb 3c 5f 19 07 bb
       0.009500098 -0.0032018202 0.030644422 -0.0020614488
000270 a7 44 c8 bb 33 55 d2 3c e7 85 29 3c 7e 24 8d 3c
       -0.0061116996 0.025675392 0.010346866 0.017229315
000280 88 b4 9b bb 35 a9 9a 3d 7a 4d 2b 3c 27 27 e3 3d
       -0.0047517456 0.07551805 0.010455484 0.11091452
000290 f8 21 38 ba ac dc 2a ba 83 55 9e 3b 06 95 7a 3b
       -0.00070241047 -0.0006517868 0.004831971 0.0038235798
0002a0 01 d3 21 bc fa e1 ca 3a 4f 97 1f 3d b3 a2 70 bb
       -0.009876967 0.0015478723 0.03896266 -0.003671807
0002b0 5d d7 4c 3c ff ca 4c 3d 01 5c c6 b9 61 63 d8 3b
       0.0125025185 0.04999828 -0.0003783405 0.0066036438
0002c0 60 4e 46 bd f0 32 0c bb 66 f8 93 3d b0 06 9e 3d
       -0.048414588 -0.0021392666 0.072251126 0.07716119
0002d0 94 ad 71 ba c3 4b 06 3c 17 91 63 bb a4 96 ae 3c
       -0.00092192856 0.008196774 -0.0034723931 0.021312065
0002e0 64 df fa 3a fd df 86 3b 64 49 fa bb f9 47 03 3b
       0.0019140062 0.004116057 -0.0076381434 0.0020031913
0002f0 5d fb 6e 3c 91 10 46 bd fa fe a9 bc 60 2b c7 3a
       0.014586297 -0.048355643 -0.020751465 0.0015195422
000300 f0 f1 07 3d 27 fe 33 3b 7b d8 88 bc 85 2e 76 39
       0.033189714 0.002746472 -0.016704788 0.00023477718
000310 2a 21 64 ba 4d 6e 74 3c d7 dd 84 ba e4 54 34 bc
       -0.00087024516 0.014918876 -0.0010136914 -0.011006568
000320 5f d2 56 3b f0 01 62 ba 8f b7 8c bc e3 e6 aa bb
       0.00327792 -0.00086215045 -0.017177371 -0.005215512
000330 ab 28 41 3d d4 a7 16 3c bb e1 35 3b 0f 71 e6 ba
       0.047157925 0.009195287 0.0027752954 -0.0017581302
000340 59 d8 19 bc d1 c5 5f bc 37 c0 4e 3b b8 2b 3e 3d
       -0.00938996 -0.013658003 0.0031547674 0.046428412
000350 c7 eb a4 bb 18 a7 1d bc 5f c5 2a b9 9a b7 5e bb
       -0.0050329897 -0.009622358 -0.0001628599 -0.0033983947
000360 47 97 46 bc 02 86 d5 bb c7 d0 96 3b c7 13 86 3b
       -0.012121028 -0.006516219 0.004602525 0.004091713
000370 ae b2 32 3c 7f 8a 33 3c 92 69 2e 3b c8 e7 b5 bc
       0.010906858 0.010958313 0.0026613218 -0.022205248
000380 cd 5c 2a bb f8 af 29 3d 1d 96 a8 3c 3a 72 d7 b9
       -0.0025995255 0.041427583 0.020579392 -0.000410931
000390 d1 3a f0 ba 6c 11 22 3c e2 0a 7e bc e8 5f ad 3a
       -0.0018328076 0.009891849 -0.015505524 0.0013227435
0003a0 32 17 26 bc aa bb 33 3b 43 cb 01 bd c2 fe 5c bb
       -0.010137366 0.002742509 -0.031687986 -0.0033721183
0003b0 33 8e c1 ba 0d 17 1b 3b ad 31 1e bc 3c 24 14 3c
       -0.001476711 0.0023664862 -0.009655398 0.009041842
0003c0 41 9f c3 bb ce 4f 62 3c a1 0b ad 3b 82 f4 d3 3a
       -0.0059699123 0.013812972 0.0052809273 0.0016170891
0003d0 f3 c3 27 ba 67 92 f0 bc 11 98 96 bb d2 2c 9d 39
       -0.0006399743 -0.029366685 -0.0045957644 0.00029978767
0003e0 bb 6a d8 3b 43 5a c6 3b 09 f0 4d bb 84 76 03 ba
       0.00660452 0.0060532405 -0.003142359 -0.00050149136
0003f0 b7 46 0a bc fb 64 9e 3b 4c 01 25 bb 4b 7f 94 3d
       -0.008439711 0.004833815 -0.0025177775 0.07250842

action_model._continuous_distribution.mu.bias f4 [2]
000000 5f af 00 3f 35 81 ba 3d
       0.50267595 0.091066755

action_model._discrete_distribution.branches.0.weight f4 [1, 128]
000000 2d 3a 71 bc 7b a7 81 bc c5 0d f2 3b 5a dd fe 3a
       -0.014723343 -0.015826931 0.0073868954 0.001944463
000010 72 3d d9 bb 4b 33 55 3c 8f 7c 2e 3c a8 50 da bb
       -0.0066296393 0.0130127175 0.010649814 -0.006662447
000020 b3 84 49 bb ad 5d f8 3b dd 00 c9 bc 97 d8 4b 3c
       -0.003074926 0.0075795264 -0.024536544 0.012441776
000030 78 42 a2 ba 87 74 23 3c ff df 7c bc 05 13 0b bc
       -0.0012379428 0.009976513 -0.015434264 -0.008488421
000040 16 25 88 3b 7a b4 fe 3b 70 e0 50 3c 52 51 a2 bb
       0.0041548116 0.0077729793 0.012748823 -0.004953542
000050 85 79 08 3c 19 e0 b7 3c 7f e8 9a bb 57 99 ae ba
       0.008329754 0.022445725 -0.0047274227 -0.0013320845
000060 43 52 51 3c 5b 9e 42 3a f7 15 0b 3b 97 89 32 3c
       0.01277596 0.00074241095 0.002122281 0.010897062
000070 90 ff 15 bc 55 5a 74 bc 85 14 56 bb 88 8c de bb
       -0.009155169 -0.014914115 -0.003266604 -0.006791655
000080 78 28 45 bc 32 80 cd 3b c0 c1 2a 3c ce 01 0e 3c
       -0.012033574 0.0062713856 0.01042217 0.008667422
000090 fb ed 66 3b 45 6a d8 3b 97 6a d4 3b b3 2e 18 3b
       0.0035237062 0.006604465 0.006482433 0.0023221194
0000a0 ea 78 0c bb 7a 69 23 3c 6d 11 ef 3b 63 ed 09 bc
       -0.0021434375 0.009973878 0.0072957785 -0.008418414
0000b0 0d 1e 69 bc 87 b1 3d bc 15 0b d4 3b eb ad 1c bc
       -0.014228356 -0.01157797 0.0064710476 -0.00956295
0000c0 fc a5 a5 bc cb 37 85 3c 5b 97 11 bc 95 c3 3b bc
       -0.02022075 0.016261956 -0.008886184 -0.011460205
0000d0 4d dc 5c bb c2 c9 87 b9 d7 86 95 3c 8a 8d 68 ba
       -0.0033700645 -0.00025899528 0.018252773 -0.00088711886
0000e0 9a e6 d9 bb 42 ad 08 3b 76 1b 98 ba ac 7a 43 bb
       -0.0066498043 0.0020855223 -0.0011604864 -0.0029827757
0000f0 97 32 39 bc ef 2d c3 3b b4 d0 c8 bb fd 30 cd bb
       -0.011303565 0.0059564034 -0.006128395 -0.0062619434
000100 f8 dc 68 3c d2 32 da 3b ac 30 af 3b 6f a5 e0 ba
       0.014212839 0.0066588903 0.0053463783 -0.0017139147
000110 de a8 83 3b 07 0e 22 ba 2b 6b 2a bb 90 c0 72 bc
       0.0040179333 -0.00061819 -0.0026003818 -0.014816418
000120 db 95 45 3a 82 71 23 bb d8 26 b2 bb 83 15 cd ba
       0.0007537284 -0.0024939482 -0.0054367594 -0.001564667
000130 7a ab 6f 39 bb 65 51 bc 1f ed ac 3b f6 92 89 3b
       0.00022856696 -0.012780602 0.0052772905 0.0041984273
000140 8e 6f 2d bc c3 c2 12 3c d7 a9 6c bb 77 94 8d 39
       -0.010585679 0.008957568 -0.0036111975 0.0002700423
000150 3e c2 0e 3b cc 53 19 bc 9b bb b3 3b 02 ce d4 3b
       0.0021783258 -0.009358358 0.005485011 0.0064942846
000160 af 27 af bb c0 d1 e6 3c 07 f3 33 3c 90 c5 50 bc
       -0.005345307 0.028176188 0.010983235 -0.012742415
000170 47 58 14 3c 9d 79 2c 39 45 c9 33 bb 08 ca 8d ba
       0.00905425 0.00016448503 -0.0027433198 -0.0010817656
000180 5f 39 43 bc db 6f ca ba 3b 59 ff bb c2 38 4f 3c
       -0.011915534 -0.0015444712 -0.0077926195 0.012647809
000190 f0 ab 30 3c d7 18 fd 3b 63 15 e5 bb 2b fd 6d 3c
       0.010783181 0.0077239084 -0.006991075 0.014525692
0001a0 92 05 04 3c 4a 2e 6d 3b c8 9b e8 3b 07 f0 4f 3c
       0.008057969 0.003619092 0.0070986487 0.012691504
0001b0 77 37 52 bc c3 23 b8 3c d4 c0 09 3c 99 33 4a 3b
       -0.012830607 0.02247799 0.00840779 0.0030853509
0001c0 53 37 f8 3b 74 04 2c 3b d0 73 23 3c 4f e9 84 bc
       0.0075749545 0.0026247771 0.009976342 -0.016224531
0001d0 77 3d 00 3c 73 42 8a bc f5 ea 20 3a f7 74 96 bb
       0.007827154 -0.016877389 0.0006138527 -0.00459158
0001e0 40 ed 2e bc d5 ca 31 3b cf 60 1f 3b 55 b3 ba 3b
       -0.010676682 0.0027128954 0.0024319177 0.0056976476
0001f0 c4 ed 9d bb 80 23 12 bc ed d7 27 3b 7b cf 2c bc
       -0.0048196036 -0.008919597 0.002561088 -0.010547514

exp_avg f4 [128, 27]
000000 9e 4a 51 37 c4 d9 9b 38 f4 b1 b0 38 ab bc 9f 38
       1.2474744e-05 7.431538e-05 8.42548e-05 7.616853e-05
000010 25 67 a3 37 a0 a1 d6 37 84 54 9e 38 d0 80 02 38
       1.9479145e-05 2.558605e-05 7.549769e-05 3.111438e-05
000020 00 d8 56 36 36 ac 14 37 39 32 9c b7 a0 b5 9c 37
       3.2014214e-06 8.861583e-06 -1.8620036e-05 1.8681225e-05
000030 39 32 9c b7 59 b6 9c 37 b2 74 7e bd 8e 79 0d b9
       -1.8620036e-05 1.8681561e-05 -0.062123008 -0.0001349209
000040 54 e1 42 bd ae e3 dc b7 45 66 b3 b7 1c 94 57 37
       -0.04757817 -2.6332065e-05 -2.1386086e-05 1.2849483e-05
000050 5e cb f7 b7 16 04 e3 36 20 23 d4 b6 f2 60 5f b6
       -2.9539395e-05 6.765603e-06 -6.3221814e-06 -3.328602e-06
000060 18 ea 69 b7 73 97 a9 33 04 c4 02 b7 5e 00 9c b8
       -1.3942386e-05 7.897224e-08 -7.794242e-06 -7.438728e-05
000070 ea fc 23 b8 7e b8 62 b9 e8 51 c7 b8 7b 0f de 37
       -3.9097773e-05 -0.00021621768 -9.504316e-05 2.6471671e-05
000080 74 60 d7 37 e6 8a 4a b9 b2 6d 07 b7 9c dc c2 b7
       2.5674912e-05 -0.00019315965 -8.0721675e-06 -2.3229331e-05
000090 47 2d 20 b7 a2 98 47 38 b8 6f ac 38 a2 98 47 38
       -9.547285e-06 4.7587448e-05 8.222408e-05 4.7587448e-05
0000a0 66 6f ac 38 d0 ac 81 3d 28 ad 0c 3a cc d7 7b bd
       8.222349e-05 0.063317895 0.00053663785 -0.061485097
0000b0 5d cd 89 38 9c 75 2b b9 f4 6f 09 b8 de 94 d9 38
       6.570921e-05 -0.00016351644 -3.276761e-05 0.00010375095
0000c0 a5 fc 85 b7 3f 45 a2 37 5e 2e 00 37 61 f8 ec 37
       -1.5972482e-05 1.934415e-05 7.64019e-06 2.8249053e-05
0000d0 5f 95 8b 34 00 69 8d 37 04 23 aa 36 14 2f fd b8
       2.599945e-07 1.6857404e-05 5.070471e-06 -0.00012072749
0000e0 2e e6 7b b7 50 88 67 b6 44 3d 45 b9 ef 9d eb b8
       -1.5014359e-05 -3.4501027e-06 -0.00018810207 -0.00011235091
0000f0 92 89 7b b7 30 63 9d b5 2c df 8d b8 66 f6 d9 b8
       -1.4992796e-05 -1.1726279e-06 -6.764973e-05 -0.000103932616
000100 c8 e9 33 b8 16 1a 05 38 c8 e9 33 b8 0c 19 05 38
       -4.289465e-05 3.1733965e-05 -4.289465e-05 3.1732998e-05
000110 ee 64 66 bd f3 fd 97 39 55 c6 47 bd 7c e0 85 36
       -0.056248598 0.0002899017 -0.04877313 3.9898423e-06
000120 64 2a 6a b8 ac 7b 96 b6 2a ba cb b7 d2 22 13 b7
       -5.5829427e-05 -4.4847457e-06 -2.4286175e-05 -8.76999e-06
000130 d8 4b 3a 38 98 ae da 36 c6 7a 27 38 16 13 5b b6
       4.441649e-05 6.5172317e-06 3.9930244e-05 -3.2644652e-06
000140 3a 91 01 37 e8 29 21 ba 17 69 2f ba a7 0b eb b7
       7.722812e-06 -0.0006147907 -0.000669138 -2.8019609e-05
000150 02 38 b6 b8 77 51 4e b9 74 1b 2a ba f9 2f f7 b7
       -8.6888685e-05 -0.00019676039 -0.0006489076 -2.9467034e-05
000160 0c 32 c6 b8 b7 0a 31 ba fd c5 36 ba 9c 1b 23 ba
       -9.450698e-05 -0.0006753611 -0.00069722516 -0.00062220707
000170 44 44 2e ba 9c 1b 23 ba 45 44 2e ba be f2 c6 3e
       -0.00066477456 -0.00062220707 -0.0006647746 0.38857073
000180 7f 73 d7 3a 7b ad 4e 3d 37 55 68 b6 ce 62 fc 39
       0.0016437619 0.050458413 -3.4620296e-06 0.000481388
000190 dc 1b 5d 36 e5 9b f5 b9 d6 2b fa b4 87 a1 09 3a
       3.2947783e-06 -0.00046846192 -4.6598024e-07 0.00052502047
0001a0 f0 f4 9e 35 07 3a 47 b7 e2 f1 76 35 47 e9 32 36
       1.1843204e-06 -1.1874835e-05 9.199413e-07 2.6659852e-06
0001b0 be 2c c8 37 81 dd 82 39 2a ae 69 38 f7 40 03 39
       2.3862693e-05 0.00024960565 5.5713732e-05 0.00012517335
0001c0 c9 7f da 38 54 c3 fd 38 23 08 55 38 5d 2d b2 38
       0.00010418852 0.00012100363 5.0790735e-05 8.496151e-05
0001d0 bc 71 68 38 3c e7 03 39 c7 eb 92 37 b2 dd c5 38
       5.5419034e-05 0.00012579275 1.7514349e-05 9.434986e-05
0001e0 c7 eb 92 37 0e de c5 38 1c 8a a0 3c d9 75 75 b9
       1.7514349e-05 9.435053e-05 0.019597106 -0.00023408922
0001f0 5b 55 44 3d 8a af 87 b7 e9 11 3f b8 a8 4e 25 37
       0.047932964 -1.6174996e-05 -4.555463e-05 9.85308e-06
000200 8b 05 0b 39 97 78 18 37 78 c7 1b b8 b5 e7 af b6
       0.00013258138 9.087983e-06 -3.714065e-05 -5.2423807e-06
000210 ad 0b fb b7 b6 ea 0c 36 c3 64 13 b7 32 d9 31 b8
       -2.9926969e-05 2.0998245e-06 -8.785343e-06 -4.2402367e-05
000220 09 40 f1 b7 85 dc 25 b9 71 15 a6 b8 dc 4e ab 37
       -2.8759257e-05 -0.00015817776 -7.9194906e-05 2.042151e-05
000230 4a a2 8f 37 6e 1c 14 b9 8a 65 2a b7 8c 56 89 b6
       1.71225e-05 -0.00014124971 -1.0156431e-05 -4.0929935e-06
000240 c5 8c 3a 37 56 b1 34 38 0e 73 3f 38 56 b1 34 38
       1.1119239e-05 4.30805e-05 4.56451e-05 4.30805e-05
000250 92 72 3f 38 a1 d7 9c 3d 1b f8 aa 39 38 2a ed 3b
       4.564465e-05 0.076583154 0.0003260978 0.007237699
000260 54 29 4c 38 2d 99 a5 b8 ea 85 c7 b7 a8 e1 c8 38
       4.867588e-05 -7.896344e-05 -2.3785007e-05 9.578775e-05
000270 c4 f5 3b b7 bd c7 ee 36 d3 05 b2 36 7d 19 9d 37
       -1.120329e-05 7.1162053e-06 5.3054914e-06 1.8727727e-05
000280 dc 48 f0 34 f8 bc 4f 37 a5 24 74 2c 4b ea db 2d
       4.4756496e-07 1.2382159e-05 3.4694827e-12 2.5001464e-11
000290 49 d1 13 12 e7 87 6d 2d b8 70 b8 2c 16 1e f1 2d
       4.6642985e-28 1.3502067e-11 5.242109e-12 2.7411889e-11
0002a0 49 d1 13 12 2d 6b ce 2e 59 ab ad 29 90 2e e3 2e
       4.6642985e-28 9.386834e-11 7.7124674e-14 1.0331036e-10
0002b0 30 dd b5 2c 85 40 28 2f 30 dd b5 2c 85 40 28 2f
       5.168886e-12 1.5302433e-10 5.168886e-12 1.5302433e-10
0002c0 46 34 94 b2 69 40 da 2e 08 8e 0a b3 3c cf ca 2a
       -1.7253239e-08 9.924934e-11 -3.2259805e-08 3.6026206e-13
0002d0 88 4b 37 af 5a b1 a3 2a ee f4 27 2f c1 3c a8 ac
       -1.6670587e-10 2.907768e-13 1.5275578e-10 -4.7815922e-12
0002e0 52 7c a4 2d 00 68 d4 25 ba 41 a0 ad 29 a1 34 ab
       1.869985e-11 3.684661e-16 -1.8219082e-11 -6.41725e-13
0002f0 4d ab 99 2d a9 4d cd 2f 83 26 d8 33 88 f1 16 92
       1.7470159e-11 3.7344464e-10 1.0065289e-07 -4.7629365e-28
000300 7b 97 73 33 38 7e da 30 de 3a 1c 33 03 f6 16 92
       5.6715617e-08 1.5897461e-09 3.637512e-08 -4.7634887e-28
000310 61 3e 2f 33 1c 4f 17 af 64 c7 aa 32 70 d1 ea 30
       4.0802096e-08 -1.3761475e-10 1.9881277e-08 1.7085267e-09
000320 f3 32 98 33 70 d1 ea 30 f3 32 98 33 36 24 07 b7
       7.087319e-08 1.7085267e-09 7.087319e-08 -8.055058e-06
000330 12 95 58 33 f2 f9 60 b7 f7 86 be 2e 64 c7 93 b3
       5.0426998e-08 -1.3409635e-05 8.664174e-11 -6.88149e-08
000340 d6 f4 6c 2e 65 e6 87 33 e0 b6 b0 2f 29 2d 01 b1
       5.3877645e-11 6.328336e-08 3.2144154e-10 -1.8797641e-09
000350 fb 2c ec 2e e8 1f 2f 30 cb ef 89 2e 15 4e 84 b0
       1.07400276e-10 6.370997e-10 6.2726345e-11 -9.626456e-10
000360 ba c6 94 3a 48 3b f3 3a 18 88 71 3b 8c 42 08 3b
       0.0011350729 0.0018557096 0.00368548 0.0020791618
000370 40 25 49 39 ed d6 61 39 6b 25 58 3b cb fc d6 39
       0.0001918273 0.00021537738 0.0032981287 0.00041005606
000380 a7 0d 04 3a 0c 66 03 3a 88 f8 51 ba d4 5e 70 ba
       0.0005037435 0.00050124596 -0.00080097513 -0.0009169404
000390 88 f8 51 ba f8 5d 70 ba 70 d0 9c bf af 51 15 bc
       -0.00080097513 -0.0009169276 -1.225111 -0.009113713
0003a0 48 ed 2b 3f 5c 0a 93 ba d8 a8 0c 3b a0 26 14 3a
       0.6715894 -0.0011218297 0.0021462943 0.00056515075
0003b0 4c 1d bd ba ae ee 98 39 ae 9e e5 b9 65 6c 1d b9
       -0.0014428287 0.0002916953 -0.0004379651 -0.00015013067
0003c0 bd 44 1c ba b1 7f ae 36 55 75 a1 b9 8e b0 95 91
       -0.00059611705 5.2004693e-06 -0.00030795732 -2.3616865e-28
0003d0 a0 d8 fc 1c 04 00 00 80 70 f6 83 1c 11 c6 08 00
       1.6731957e-21 -6e-45 8.732555e-22 8.05737e-40
0003e0 95 5a 21 1c 04 00 00 80 0a 00 35 1c 04 00 00 00
       5.3387506e-22 -6e-45 5.9887927e-22 6e-45
0003f0 3e 66 69 1b ae 45 3d 97 14 7e 92 1c ae 45 3d 97
       1.9306345e-22 -6.115714e-25 9.69406e-22 -6.115714e-25

exp_avg_sq f4 [128, 27]
000000 77 2b 92 36 bf 3c ef 36 7a 6b 9f 36 6f 73 d9 36
       4.356199e-06 7.129827e-06 4.751081e-06 6.480542e-06
000010 e6 32 8f 36 ba 8c df 36 66 73 78 36 89 be ae 36
       4.2676575e-06 6.6623006e-06 3.702205e-06 5.2077853e-06
000020 0d cb ac 36 98 42 db 36 cb 3d af 36 0b bc 00 37
       5.1496377e-06 6.534461e-06 5.2226e-06 7.673177e-06
000030 d3 3d af 36 0b bc 00 37 b0 ea e8 40 93 8a b3 39
       5.2226037e-06 7.673177e-06 7.2786484 0.00034244786
000040 0a 4b 86 3f 47 8d 1e 32 ec ae 31 37 ca c9 94 31
       1.049165 9.228933e-09 1.0590749e-05 4.3303077e-09
000050 c6 a7 e1 36 26 63 88 31 c3 10 71 36 f9 83 b6 31
       6.725054e-06 3.969393e-09 3.5921555e-06 5.3119007e-09
000060 92 8f b4 33 64 03 87 31 a4 7c a3 32 24 15 f3 36
       8.4080185e-08 3.9294026e-09 1.9032377e-08 7.2444254e-06
000070 f3 27 96 37 43 52 f1 36 82 c3 3f 37 4b 02 b3 36
       1.7899996e-05 7.191936e-06 1.1430007e-05 5.3348826e-06
000080 a0 5d 5b 37 1e 6a 83 36 2d 5b 0f 37 a9 93 06 37
       1.3075216e-05 3.916458e-06 8.544693e-06 8.021402e-06
000090 6d 5c 56 37 65 9e ee 36 a6 56 81 37 8b 9e ee 36
       1.27769135e-05 7.1113923e-06 1.5418347e-05 7.1114096e-06
0000a0 aa 56 81 37 e3 4e 39 41 f8 c7 d7 39 04 07 9f 3f
       1.5418354e-05 11.581759 0.00041156984 1.2424016
0000b0 a3 f9 27 33 fa 97 cd 37 49 f9 ba 32 7b 83 a9 37
       3.910976e-08 2.4508674e-05 2.1766612e-08 2.0207595e-05
0000c0 5d 3d a5 31 45 78 df 36 05 3e 18 32 dc 37 e1 34
       4.8091082e-09 6.659919e-06 8.861666e-09 4.195016e-07
0000d0 bf 2f e7 31 fa 94 06 33 f6 51 96 36 49 d8 61 37
       6.728413e-09 3.13348e-08 4.47989e-06 1.3461403e-05
0000e0 8e 3b b4 36 f5 5b 20 37 dd a5 bd 36 e4 70 08 37
       5.371351e-06 9.558154e-06 5.651948e-06 8.132516e-06
0000f0 56 7a a6 36 47 80 0c 37 10 da bf 36 19 95 08 37
       4.9614273e-06 8.374517e-06 5.7176294e-06 8.140946e-06
000100 08 f0 d4 36 c6 c0 46 37 64 ef d4 36 73 c0 46 37
       6.3460357e-06 1.1846603e-05 6.345961e-06 1.1846528e-05
000110 22 39 43 41 dd fe df 39 44 29 a2 40 7e 55 6d 32
       12.201448 0.00042723762 5.0675373 1.3814654e-08
000120 02 2c aa 37 67 9a 8a 31 a9 6d 4d 37 31 fa e9 31
       2.0286072e-05 4.033882e-09 1.2244484e-05 6.809636e-09
000130 94 28 8a 36 6c 54 f9 31 16 cf 1e 34 5e b2 05 32
       4.1174444e-06 7.2564514e-09 1.4790234e-07 7.782175e-09
000140 1a 7d 81 33 e2 53 14 34 16 3a 84 34 c4 a6 42 33
       6.0297864e-08 1.381409e-07 2.462918e-07 4.5320817e-08
000150 19 4f 4c 33 53 11 93 34 f6 a8 c4 34 17 9d c5 32
       4.756939e-08 2.739349e-07 3.663078e-07 2.3005255e-08
000160 74 8f ec 32 f1 a4 83 34 9b 89 d8 34 c7 b4 d9 34
       2.753925e-08 2.4520662e-07 4.0333256e-07 4.0550933e-07
000170 f4 34 e8 34 c7 b4 d9 34 f4 34 e8 34 cd f7 63 3e
       4.3251896e-07 4.0550933e-07 4.3251896e-07 0.22262497
000180 9b 62 03 37 1a ef 6a 3b 69 79 0f 30 83 57 9b 34
       7.831167e-06 0.0035848082 5.219563e-10 2.8934673e-07
000190 a2 da 23 30 76 f3 86 34 0b 25 a9 30 23 d8 b3 35
       5.960975e-10 2.5136586e-07 1.2306897e-09 1.3399443e-06
0001a0 4f 54 d3 31 1d b4 06 35 c4 48 54 31 14 77 21 33
       6.150493e-09 5.018099e-07 3.0891423e-09 3.7594035e-08
0001b0 59 2d da 35 74 ef 0f 38 d0 09 cd 35 be 5f 4d 37
       1.6255464e-06 3.4316865e-05 1.5276546e-06 1.2241244e-05
0001c0 e9 13 b9 35 23 61 c0 36 a9 11 8a 35 fd b3 2d 37
       1.3789369e-06 5.733354e-06 1.0286941e-06 1.035351e-05
0001d0 94 09 db 35 93 ea f2 36 eb d2 e5 35 08 fd b3 37
       1.6319559e-06 7.23947e-06 1.7123215e-06 2.145629e-05
0001e0 4c d2 e5 35 f5 fc b3 37 bf b6 a1 40 00 36 09 39
       1.7123034e-06 2.1456255e-05 5.053558 0.00013085455
0001f0 12 44 17 40 78 74 32 32 20 04 05 38 c3 55 88 31
       2.3635297 1.0387446e-08 3.1713513e-05 3.967871e-09
000200 d6 02 d8 37 36 5c 06 31 2f 7d f0 35 04 c4 6b 31
       2.5750527e-05 1.9551982e-09 1.7917827e-06 3.4308423e-09
000210 0a e4 9e 34 40 d7 a6 31 66 8e 83 33 40 6f 22 36
       2.9595714e-07 4.855707e-09 6.126065e-08 2.4204637e-06
000220 12 2f 26 37 df 2c 15 36 1f 54 ac 36 f0 bf 25 36
       9.90533e-06 2.2228849e-06 5.1357924e-06 2.4698638e-06
000230 7e 1e c2 36 1c 23 dd 35 1c 09 a1 36 a3 42 30 36
       5.7852003e-06 1.6476001e-06 4.7992344e-06 2.6264831e-06
000240 f0 33 b3 36 6c c5 6a 36 71 7e 0f 37 8e c5 6a 36
       5.340662e-06 3.4983632e-06 8.552904e-06 3.498371e-06
000250 79 7e 0f 37 c3 d7 bc 40 12 cf 1e 39 4e ae ed 3f
       8.552911e-06 5.901338 0.00015145194 1.8568819
000260 3f 2f ca 32 20 e8 68 37 cd 70 5b 32 64 2f 3e 37
       2.353738e-08 1.3882323e-05 1.2773126e-08 1.13359165e-05
000270 a7 1f 0e 31 2d e6 2b 36 5a 74 98 31 8a 7c 8c 34
       2.0681712e-09 2.5614966e-06 4.43701e-09 2.6167646e-07
000280 62 18 7e 31 0d 5f ee 32 56 d7 5f 33 1c f2 65 33
       3.6975725e-09 2.775007e-08 5.211708e-08 5.3538415e-08
000290 91 6e 58 33 62 61 62 33 60 b7 5e 33 59 12 62 33
       5.039198e-08 5.2708295e-08 5.185518e-08 5.2636413e-08
0002a0 fa 36 58 33 f2 d3 63 33 4c 37 5b 33 d5 87 5f 33
       5.034142e-08 5.304532e-08 5.1040203e-08 5.2044772e-08
0002b0 9e 2c 65 33 a8 ba 69 33 9e 2c 65 33 ab ba 69 33
       5.3358796e-08 5.4419303e-08 5.3358796e-08 5.4419313e-08
0002c0 1b 6c cb 3a e6 e5 93 36 2c fc a8 3d 4b c4 86 2b
       0.0015519889 4.407705e-06 0.08251223 9.575755e-13
0002d0 18 68 dd 32 07 bc f2 2b c7 6a 11 33 21 49 8d 29
       2.5775122e-08 1.7247322e-12 3.3857557e-08 6.274344e-14
0002e0 39 6f 0f 33 05 60 67 2a 95 c7 0c 2a 9e 3b 67 26
       3.339594e-08 2.0550235e-13 1.2503742e-13 8.022502e-16
0002f0 6d 63 19 29 4d 9a 39 33 c6 da 3c 33 31 74 38 33
       3.4059063e-14 4.3214005e-08 4.3971134e-08 4.2946514e-08
000300 6f 04 3b 33 d1 1d 3a 33 0a a0 3b 33 9b 66 38 33
       4.3543363e-08 4.3333618e-08 4.3684885e-08 4.2934158e-08
000310 f3 ba 3b 33 fe 96 38 33 32 6e 3a 33 0e fd 3b 33
       4.370936e-08 4.2978165e-08 4.340672e-08 4.3769482e-08
000320 82 83 3d 33 0e fd 3b 33 86 83 3d 33 c5 bd d4 39
       4.4124597e-08 4.3769482e-08 4.412461e-08 0.0004057718
000330 d7 2d 74 36 99 c7 83 3d a4 5d cb 2a df 85 ad 32
       3.6385516e-06 0.064345546 3.612502e-13 2.0200728e-08
000340 b2 24 32 2b c2 e3 df 32 11 33 05 29 61 ea e8 32
       6.328923e-13 2.6064189e-08 2.9576226e-14 2.7114938e-08
000350 9b 64 68 2a d2 2b 89 2b c2 c3 2f 27 ab 2f d6 28
       2.0640644e-13 9.746598e-13 2.439225e-15 2.3779445e-14
000360 98 3c a8 3a 77 27 19 3b c9 eb a4 3a 1a 7c d2 3a
       0.0012835441 0.002336947 0.0012582476 0.0016058714
000370 ba 8a 8f 3a 29 a5 2a 3b d5 5a 37 3a a9 81 a2 3a
       0.0010951378 0.0026038385 0.0006994431 0.0012398261
000380 22 db bf 3a 5c e6 17 3b 87 63 c6 3a e2 7f 2d 3b
       0.001463745 0.0023178076 0.0015135863 0.002647393
000390 87 63 c6 3a dc 7f 2d 3b 84 87 ff 44 7b bd 87 3d
       0.0015135863 0.0026473915 2044.2349 0.066279374
0003a0 58 96 e4 42 2c 3b 38 37 d1 1d 4e 3b 0b 7a cd 36
       114.29364 1.0981032e-05 0.0031450877 6.1236838e-06
0003b0 9a 1b 28 3b 3f 1b 09 35 f1 c7 b3 3a 95 5e de 35
       0.0025651217 5.1076125e-07 0.0013716203 1.6567816e-06
0003c0 3b 00 0c 39 df 84 11 36 49 b4 3f 37 b0 6a 42 2b
       0.00013351526 2.1684025e-06 1.1426463e-05 6.9070704e-13
0003d0 5f 95 80 2c 90 82 31 2b 2a b4 b1 2b 07 ed d3 2c
       3.6545623e-12 6.3064224e-13 1.2626612e-12 6.023296e-12
0003e0 b5 53 17 2d 90 82 31 2b 78 d7 ea 2b 8c c9 41 2b
       8.601943e-12 6.3064224e-13 1.6686505e-12 6.8847076e-13
0003f0 77 97 88 2c 8f 76 6e 2c 5d 21 9d 2c 8f 76 6e 2c
       3.8821685e-12 3.3887647e-12 4.4659124e-12 3.3887647e-12
