Assets/results/CubeAgent12/AutoAgentFinale/AutoAgentFinale-161868.pt (torch, 540991 bytes, 52 tensors)

network_body.observation_encoder.processors.0.normalizer.running_mean f4 [33]
000000 2a 21 0c 3e d7 bd df 3e 38 15 1a 3f 8d 1b 05 3e
       0.13684526 0.43699524 0.6018863 0.12998791
000010 b2 df da 3e f6 cd 19 3f d2 33 12 3e 24 a7 f3 3e
       0.4274879 0.60079896 0.1427758 0.47588456
000020 ae 8a 21 3f ac 63 f6 3d 78 e6 e5 3e ce 84 20 3f
       0.63102233 0.1203073 0.44902396 0.62702644
000030 ae 96 fc 3d 34 bd ff 3e 1f 28 25 3f 5b 7f cc 3d
       0.12333427 0.49949038 0.64514345 0.09985229
000040 50 8a f7 3e 29 83 2a 3f 6b 35 ad 3d 6b dc ee 3e
       0.48347712 0.66606385 0.08457454 0.4665254
000050 b0 9b 20 3f 8c 21 96 3d ae 27 0c 3f 79 c0 39 3f
       0.6273756 0.07330617 0.54748046 0.72559315
000060 8c b3 49 3d 81 76 d9 3e 4c d9 1a 3f 41 0a 36 3d
       0.049243495 0.42473224 0.6048782 0.044443373
000070 89 ba 20 3f 3f ce 46 3f 78 1f f7 3c 11 70 cb 3e
       0.6278463 0.77658457 0.030166373 0.39733937
000080 87 68 16 3f
       0.58753246

network_body.observation_encoder.processors.0.normalizer.running_variance f4 [33]
000000 7e 61 95 46 bc 91 1b 47 d8 77 d1 46 d6 05 8f 46
       19120.746 39825.734 26811.922 18306.918
000010 19 c1 1a 47 28 18 cc 46 9c c8 9a 46 0c b6 1d 47
       39617.098 26124.078 19812.305 40374.047
000020 a2 9e d3 46 4d d8 85 46 9d 6f 1c 47 06 a4 c4 46
       27087.316 17132.15 40047.613 25170.012
000030 85 bd 88 46 30 14 1e 47 af d3 d9 46 62 58 63 46
       17502.76 40468.188 27881.842 14550.096
000040 0a e8 1d 47 f8 0d bb 46 ae d4 43 46 cc 5e 1d 47
       40424.04 23942.984 12533.17 40286.797
000050 f7 c9 e0 46 93 d4 2b 46 5a a7 1c 47 68 af ac 46
       28772.982 10997.144 40103.35 22103.703
000060 db db ec 45 31 7f 1a 47 58 c6 e2 46 3b da d6 45
       7579.482 39551.19 29027.172 6875.279
000070 7e be 13 47 d2 7f 9e 46 8e 05 94 45 4d 6a 17 47
       37822.492 20287.91 4736.6943 38762.3
000080 62 09 e4 46
       29188.691

network_body.observation_encoder.processors.1.normalizer.running_mean f4 [6]
000000 76 96 b8 be 0a f1 1f 3d 08 95 ff bc 39 74 8f 42
       -0.36052293 0.039048232 -0.031198993 71.727
000010 4c 2a cf ba 0d 9c ac 3c
       -0.0015805452 0.021070505

network_body.observation_encoder.processors.1.normalizer.running_variance f4 [6]
000000 ab 9f c2 47 c0 de 23 44 b1 bc 1c 47 8c dd 9b 4d
       99647.336 655.48047 40124.69 3.2687347e+08
000010 e8 9b 4d 45 b5 48 2a 44
       3289.7441 681.13605

network_body.processors.0.normalizer.running_mean f4 [33]
000000 2a 21 0c 3e d7 bd df 3e 38 15 1a 3f 8d 1b 05 3e
       0.13684526 0.43699524 0.6018863 0.12998791
000010 b2 df da 3e f6 cd 19 3f d2 33 12 3e 24 a7 f3 3e
       0.4274879 0.60079896 0.1427758 0.47588456
000020 ae 8a 21 3f ac 63 f6 3d 78 e6 e5 3e ce 84 20 3f
       0.63102233 0.1203073 0.44902396 0.62702644
000030 ae 96 fc 3d 34 bd ff 3e 1f 28 25 3f 5b 7f cc 3d
       0.12333427 0.49949038 0.64514345 0.09985229
000040 50 8a f7 3e 29 83 2a 3f 6b 35 ad 3d 6b dc ee 3e
       0.48347712 0.66606385 0.08457454 0.4665254
000050 b0 9b 20 3f 8c 21 96 3d ae 27 0c 3f 79 c0 39 3f
       0.6273756 0.07330617 0.54748046 0.72559315
000060 8c b3 49 3d 81 76 d9 3e 4c d9 1a 3f 41 0a 36 3d
       0.049243495 0.42473224 0.6048782 0.044443373
000070 89 ba 20 3f 3f ce 46 3f 78 1f f7 3c 11 70 cb 3e
       0.6278463 0.77658457 0.030166373 0.39733937
000080 87 68 16 3f
       0.58753246

network_body.processors.0.normalizer.running_variance f4 [33]
000000 7e 61 95 46 bc 91 1b 47 d8 77 d1 46 d6 05 8f 46
       19120.746 39825.734 26811.922 18306.918
000010 19 c1 1a 47 28 18 cc 46 9c c8 9a 46 0c b6 1d 47
       39617.098 26124.078 19812.305 40374.047
000020 a2 9e d3 46 4d d8 85 46 9d 6f 1c 47 06 a4 c4 46
       27087.316 17132.15 40047.613 25170.012
000030 85 bd 88 46 30 14 1e 47 af d3 d9 46 62 58 63 46
       17502.76 40468.188 27881.842 14550.096
000040 0a e8 1d 47 f8 0d bb 46 ae d4 43 46 cc 5e 1d 47
       40424.04 23942.984 12533.17 40286.797
000050 f7 c9 e0 46 93 d4 2b 46 5a a7 1c 47 68 af ac 46
       28772.982 10997.144 40103.35 22103.703
000060 db db ec 45 31 7f 1a 47 58 c6 e2 46 3b da d6 45
       7579.482 39551.19 29027.172 6875.279
000070 7e be 13 47 d2 7f 9e 46 8e 05 94 45 4d 6a 17 47
       37822.492 20287.91 4736.6943 38762.3
000080 62 09 e4 46
       29188.691

network_body.processors.1.normalizer.running_mean f4 [6]
000000 76 96 b8 be 0a f1 1f 3d 08 95 ff bc 39 74 8f 42
       -0.36052293 0.039048232 -0.031198993 71.727
000010 4c 2a cf ba 0d 9c ac 3c
       -0.0015805452 0.021070505

network_body.processors.1.normalizer.running_variance f4 [6]
000000 ab 9f c2 47 c0 de 23 44 b1 bc 1c 47 8c dd 9b 4d
       99647.336 655.48047 40124.69 3.2687347e+08
000010 e8 9b 4d 45 b5 48 2a 44
       3289.7441 681.13605

network_body._body_endoder.seq_layers.0.weight f4 [127, 39]
000000 87 32 92 bd e7 96 79 3e f0 e6 8a 3c cf b7 44 be
       -0.071385436 0.24373971 0.016955823 -0.19210742
000010 b8 c3 5f 3b 80 7a 66 be b5 1c 0a be 64 a0 68 3e
       0.0034143757 -0.22507668 -0.13487513 0.22717434
000020 99 52 6b be 45 be 95 3e d2 5e ad be 35 b0 17 3e
       -0.22980727 0.29246727 -0.33861405 0.14813311
000030 71 10 94 bd 28 5a 8e be 12 04 00 3e eb be 80 bd
       -0.072296984 -0.2780316 0.12501553 -0.06286415
000040 12 31 8e 3d fd bd 9d 3e 8e 93 05 3f e2 10 f5 3d
       0.06942953 0.30809012 0.52178276 0.11966111
000050 79 18 da 3e 23 06 55 be a5 50 f8 3d 11 7e 8f 3e
       0.42596796 -0.20803122 0.12124757 0.2802587
000060 8a 7b d0 3d 5e e6 92 be 78 73 1e be a3 c8 16 3e
       0.10179813 -0.2869138 -0.15473735 0.14724974
000070 f4 c5 aa 3d 4b 31 e2 3d 24 a9 eb bd 94 c7 cd bc
       0.08338538 0.11044558 -0.115068704 -0.02511958
000080 20 0f 9f be b6 ef 1e be 97 0a 0a 3e 87 50 40 3e
       -0.31066227 -0.1552113 0.13480602 0.18780719
000090 90 05 04 3e d6 43 e7 3d 49 71 3f bd 7e 15 0f be
       0.12892747 0.112922356 -0.046738897 -0.13973042
0000a0 c6 41 07 3e dc 38 d7 3d b6 5a b0 bd 77 08 d4 be
       0.13208684 0.10508892 -0.08611052 -0.41412708
0000b0 2b 3e e1 3d 0a 4d 0f be 47 0e 95 bd 47 2c 20 3e
       0.10998186 -0.13994232 -0.07278114 0.1564189
0000c0 12 68 0a be 5b a5 0f 3e 9f 49 0b 3e 58 07 30 bd
       -0.13516262 0.14027922 0.13602303 -0.042975754
0000d0 27 15 a3 3e 34 5b 9d 3d 30 bf f4 bd a2 ed 36 be
       0.31852075 0.07683411 -0.119505286 -0.17864087
0000e0 57 d9 57 3e 65 34 de 3b 2e 7a c6 bd ee 12 61 be
       0.21079002 0.0067811483 -0.09691273 -0.21979877
0000f0 28 ac 13 3e ef 2d b0 bd c3 8f 4a 3e b8 36 26 be
       0.14421141 -0.08602511 0.19781403 -0.16231811
000100 7e b4 89 be 2e 5b 68 bd 0f 6a 19 bd 6d dc 37 3e
       -0.26895517 -0.05672758 -0.03745466 0.1795518
000110 b5 60 8f be b4 b9 ac bd 01 74 a8 3e 6e c5 31 3e
       -0.2800347 -0.084338576 0.32901004 0.1736047
000120 b5 dd 9d bd f6 46 28 3d af 0d a0 3e 9a da 9f 3d
       -0.07708303 0.0410833 0.3126044 0.07805367
000130 dd e1 20 bf b9 4a b4 3d ac ee 33 be 1a f5 be bd
       -0.6284464 0.08803315 -0.17571515 -0.09324093
000140 2c c9 5e be 49 69 ca bd 5c 54 5e 3e 7e 08 83 bb
       -0.21756428 -0.09883363 0.21711868 -0.003998815
000150 b4 0e 3b bd 8d eb d6 3d cd 7c ad 3c fa 24 93 3e
       -0.04566832 0.104941465 0.021177674 0.28739148
000160 b6 0a 51 3e f9 8b c0 bd e9 5c 0a 3e e7 07 02 bc
       0.20414242 -0.09401698 0.13512005 -0.007936454
000170 88 1b 6d 3e 54 95 07 be c7 76 a5 3d f3 d2 c8 3e
       0.23155034 -0.13240558 0.080792956 0.3922344
000180 2e ed e2 be 43 90 3d 3d 9f 89 6c 3d 66 61 6f be
       -0.4432158 0.046280157 0.057748433 -0.23376998
000190 c5 5b 5f bd 13 e4 d3 3e a9 d2 ab be 00 e4 a5 bd
       -0.054530878 0.41384944 -0.33559158 -0.08100128
0001a0 54 93 9e be 84 81 b0 be 3e b9 ae be 6a 12 a0 3e
       -0.30971777 -0.34473813 -0.34125704 0.3126405
0001b0 15 c2 ca bd 8b 37 04 be 2a 17 60 be 1e c3 04 bc
       -0.099002995 -0.12911813 -0.21883836 -0.00810316
0001c0 08 60 90 3b 98 84 da bd aa be 04 3e a0 e5 73 be
       0.004405979 -0.106698215 0.12963358 -0.23818064
0001d0 03 81 18 bf a2 f8 2d 3e 65 6a 94 be 6e af 82 3d
       -0.59571856 0.16989377 -0.28987423 0.06381117
0001e0 25 ef 7a be 79 4a 76 bd a7 f6 72 bd 52 2b 10 3e
       -0.24505289 -0.060129616 -0.059317257 0.14079025
0001f0 9b 42 75 3e b6 1c 07 3e 19 33 39 3e 09 88 8a be
       0.23951189 0.13194546 0.18085898 -0.27056912
000200 d1 85 46 be c6 7e 27 3d 56 0f 2b be 3c ba da 3d
       -0.19386984 0.040892385 -0.16705069 0.10680053
000210 94 db 91 3e ed 96 4d 3d 26 c9 df bd e5 e7 5c 3d
       0.28487837 0.050192762 -0.10927038 0.05393209
000220 7b 0c f6 bd ec 03 32 3e ed bb bd be 2c 15 c2 3e
       -0.12014099 0.17384309 -0.37057438 0.37906778
000230 dc 1a 61 3e 7d 85 97 3e 58 23 40 bc ce 9a 17 3e
       0.21982902 0.2959403 -0.011727177 0.14805147
000240 4e e8 79 be 9b e0 2e be ad de 74 be b6 c4 74 bd
       -0.24405023 -0.17077868 -0.23913069 -0.05975791
000250 b6 3c 6b be 41 14 55 3d ef e3 f6 bd ae 1c 33 be
       -0.22972378 0.05202127 -0.12055194 -0.17491409
000260 0a 72 ba 3d 1f c7 e5 bd 63 67 44 3e 00 66 cc be
       0.091037825 -0.1121962 0.19180064 -0.3992157
000270 ed 3d 5e 3e 49 7c 89 3d 82 9d 19 be e6 8a 1c be
       0.2170331 0.06713159 -0.1500149 -0.1528736
000280 8f 6c 87 3c b1 29 43 3e b3 53 a2 bd 69 86 96 3e
       0.016531257 0.19058873 -0.079261206 0.29399422
000290 99 b5 21 be 5b 3f 49 3e b9 57 87 bd 87 72 c6 bd
       -0.1579193 0.19653074 -0.06608529 -0.09689813
0002a0 69 7d a7 bd eb 11 31 bd b6 6c 92 3c 60 6d 3f 3e
       -0.08178217 -0.04322998 0.017874103 0.18694067
0002b0 f7 9d 5f 3e 19 40 d8 bd 70 82 3b 3d c3 82 34 be
       0.21837603 -0.10559101 0.04577869 -0.17628007
0002c0 07 7d fc 3d b8 eb 46 be 72 09 9d be 37 3f 5c 3e
       0.123285346 -0.19425857 -0.3067127 0.2150849
0002d0 b1 24 4a be 19 9b 43 be 56 dc f5 3d 68 7c 82 be
       -0.19740559 -0.19102134 0.12004916 -0.2548554
0002e0 24 0b 75 be 39 13 42 3e de 3c 82 be 97 70 5e 3d
       -0.23930031 0.18952645 -0.25437063 0.054306593
0002f0 44 4a 5f 3e b8 bf 35 be ea 9f b6 bc b9 dc ff bd
       0.21805674 -0.17748916 -0.02229305 -0.124932714
000300 c8 f9 cd bb b6 cb 9f 3e 52 2f 02 bf a1 3e fb 3d
       -0.0062858798 0.31210107 -0.50853455 0.12267805
000310 55 07 c4 bd 22 46 c8 be a0 82 a6 bd 29 4f 3b be
       -0.09571711 -0.39116007 -0.081303835 -0.18291916
000320 5f e5 63 be 1d 42 08 3e 5e 80 3a be 66 8b 15 3d
       -0.22255467 0.1330647 -0.1821303 0.036509894
000330 31 dc 01 be ac 77 6b bc cc 57 0f 3c 2d c8 85 be
       -0.12681653 -0.014371794 0.00874896 -0.26129285
000340 02 78 8a 3e 3d 07 18 3e 46 a7 0f 3e a9 03 f0 3d
       0.27044684 0.14846511 0.14028654 0.11719448
000350 a3 4e ca 3d 4c 94 06 bd a3 38 02 be f4 70 c6 3d
       0.0987828 -0.03285627 -0.12716918 0.09689513
000360 bc 86 8d be d0 b2 28 be 30 b7 cd 3c 2b 26 07 be
       -0.27641857 -0.16474462 0.025111765 -0.13198154
000370 b8 12 dc 3d 5d 8d 6c bd 9d 11 f7 bd 4d 39 bc bd
       0.10745758 -0.057752002 -0.12063906 -0.09190617
000380 b6 e1 87 3d 9b 36 b1 bd fc 7e 69 3e 1b 0e 65 be
       0.06634848 -0.08652993 0.22802347 -0.22368662
000390 46 11 d0 be 3d 0b c7 3d 72 25 24 3e e1 e7 d0 3e
       -0.4063818 0.097189404 0.16029909 0.4080191
0003a0 a0 e4 67 be c9 e7 65 be e5 53 02 bd d9 63 21 bc
       -0.22645807 -0.224517 -0.03181829 -0.009850466
0003b0 59 c4 ad 3d 2e 62 cd 3d f5 af 3e 3c b3 46 31 3e
       0.08484716 0.10028492 0.011638631 0.17312126
0003c0 db fa b7 bd 98 c3 0f bd 11 e5 36 3b 44 ab 22 bd
       -0.08983394 -0.035098642 0.002790753 -0.039714113
0003d0 de b7 47 3d fe 5f 95 3e 83 18 3f 3d 20 59 84 be
       0.048759334 0.291748 0.046654236 -0.25849247
0003e0 3e 4a 58 be 58 ca 38 3d 28 25 ad be f1 b0 b3 3b
       -0.21122071 0.045114845 -0.3381741 0.0054837395
0003f0 49 32 6e be d5 b6 2f 3b 21 d3 81 be 9c bb 9f bd
       -0.2326137 0.0026811857 -0.2535639 -0.077994555

network_body._body_endoder.seq_layers.0.bias f4 [127]
000000 c8 73 1e bc fa 80 74 bd 6e 03 2e bd 9b 38 85 bd
       -0.009671159 -0.059693314 -0.04248374 -0.06504937
000010 6f 21 0a 3e 3c 67 39 be 2d 98 9e bd 7d 2a 27 be
       0.13489316 -0.18105787 -0.07743869 -0.16324802
000020 69 35 fd 3d aa 4b 95 3c f9 58 87 3d 53 c6 6b bd
       0.12363703 0.018224556 0.06608767 -0.057562184
000030 1b 66 2d 3d 5e c9 a5 bd b7 6c 0b be d7 e7 50 bc
       0.042333703 -0.08095048 -0.1361569 -0.012750587
000040 b7 47 0f bd 5a 89 80 3d 6d 8c 3d bd bd 95 19 3d
       -0.034980502 0.06276198 -0.0462765 0.037496317
000050 c3 af 3d be c8 d7 c8 3c bc 4b d2 bd 86 70 8d 3d
       -0.18524079 0.024516955 -0.102683514 0.06906228
000060 70 ce a6 bd 2d e8 9d bd 05 ba c1 bc e5 7f dc bd
       -0.081448436 -0.077103 -0.023648271 -0.107665814
000070 40 46 2a be e5 30 01 3e 84 fe fc bc bb 57 02 be
       -0.16628361 0.12616308 -0.030883081 -0.12728779
000080 04 71 e5 bd dd 22 a8 bd b9 f1 2c be 6d 81 00 be
       -0.11203197 -0.08209775 -0.16889085 -0.12549372
000090 5f 35 ec bd e1 c5 7a bd 1c f7 8f 3d 60 21 a7 bb
       -0.11533617 -0.06122387 0.07029554 -0.005100414
0000a0 4f bf 3f be 32 0e a9 3d 20 21 d3 bd 59 71 c8 3d
       -0.18725322 0.08254661 -0.103090525 0.09787244
0000b0 d8 8d 89 bc ff 97 03 3e 51 25 18 bc 13 4b c7 bd
       -0.01679127 0.1285095 -0.009286241 -0.09731116
0000c0 02 8c 4c bd fd 48 c1 3c cc 41 3f 3c 7e 66 e8 3b
       -0.04993821 0.023594374 0.011673402 0.007092296
0000d0 d7 e9 af bd 11 9a 22 bc 7c 88 ed bb 59 06 b2 3a
       -0.08589523 -0.009924428 -0.007248936 0.0013582214
0000e0 30 1e 22 be bd 09 40 bd 3c 27 c6 bd 60 f4 21 bd
       -0.15831828 -0.046884287 -0.09675452 -0.039539695
0000f0 2d bb 3c bd 2b a1 68 3d 14 2b 9f 3d b1 e7 1e 3c
       -0.046076942 0.056794327 0.077718884 0.009698794
000100 89 1f 4e bd 98 63 0f be f2 44 1a be 03 9a cd bd
       -0.050323043 -0.14002836 -0.15065363 -0.10039141
000110 18 63 92 bd f9 87 68 bc 3a 8a da 3d 4a 8d 70 3d
       -0.07147807 -0.014192575 0.10670896 0.058728494
000120 87 3d 23 bd ef 76 fc 3c 7c 82 1c bd 7c 57 8a bc
       -0.0398536 0.03081843 -0.038210377 -0.016887419
000130 be 37 9b bd 15 9b 43 bd 36 ed da bd 1d 63 de 3d
       -0.07578991 -0.04775532 -0.10689776 0.10858748
000140 e4 49 8f bd 13 d6 e3 bd 4a ce c6 bd 15 8b 45 be
       -0.069965154 -0.11124816 -0.09707315 -0.19291337
000150 00 b3 da 3c b6 4a 02 bc 04 33 3f 3d 1a 7c b7 bc
       0.026696682 -0.007952383 0.04667951 -0.022398043
000160 88 a5 e5 bc 83 61 41 bd 44 f2 5f bb 3d 97 fb bd
       -0.028033033 -0.047212135 -0.0034171501 -0.12284706
000170 c6 55 54 bc 51 1e 8b 3d 5a 64 b1 3d 30 36 c1 bd
       -0.012959903 0.06792892 0.08661719 -0.094341636
000180 50 7d 23 be 6e ea 7f bd 8b a4 a3 3c 72 7b 42 bd
       -0.15965772 -0.06247943 0.019975921 -0.047481008
000190 ab 78 11 bd fb e9 19 be 0c fc 91 3d 60 e6 8b bd
       -0.03551547 -0.15030663 0.07128152 -0.0683105
0001a0 82 11 d3 bd e5 b0 73 3c 93 d4 44 3d a0 e6 4c bd
       -0.10306074 0.014873718 0.04805429 -0.05002463
0001b0 f3 cc d9 bd 95 fe 42 3c ef e8 d9 bd e6 4e 83 3a
       -0.10634794 0.011901517 -0.10640132 0.001001802
0001c0 13 77 29 bd f1 10 7c bd 9e 19 61 3d b5 78 85 3d
       -0.041373324 -0.061539594 0.05495607 0.06517164
0001d0 f8 a7 a9 bd 0d 26 99 3d 69 73 5e bc ac 22 15 3e
       -0.082839906 0.07477961 -0.013577321 0.14564008
0001e0 86 4f 49 3e b6 2b a0 3c 4f ba 84 bd c9 35 3a bd
       0.19659242 0.019552093 -0.06480848 -0.04546145
0001f0 58 1e 21 be 43 52 d9 bd 4b 94 de bd
       -0.15734231 -0.10611393 -0.108681284

network_body._body_endoder.seq_layers.2.weight f4 [127, 127]
000000 7a 4c de bd 10 eb 67 bd ca a7 92 3d 79 a3 93 3d
       -0.108544305 -0.056620657 0.071609095 0.07208914
000010 6f 36 f4 3d ac e5 37 3e 52 d3 9f 3c 0b 60 11 3e
       0.11924445 0.17958707 0.019509945 0.14196794
000020 fa 91 e5 be 02 a3 8c be 60 17 7e be 67 58 ac be
       -0.44837934 -0.27468115 -0.24813604 -0.33661196
000030 88 a7 05 3c 1c 85 d4 3b 38 75 7f 3c 20 04 37 bc
       0.008157618 0.0064855944 0.015591912 -0.011170417
000040 9d 8c ae bd 03 07 42 3e 44 5c 02 3e 5d 02 4d bd
       -0.085229136 0.18947987 0.12730509 -0.050051082
000050 78 7e 36 3e c4 12 d4 3d 2b c7 93 3e eb f4 9e bd
       0.17821681 0.10355142 0.2886289 -0.07761558
000060 6b 93 50 3b 1f 7e b5 bd 11 9e d3 3d 1c db 2c bd
       0.003182615 -0.08861946 0.10332883 -0.042201146
000070 dd 21 e0 3d ce 9d 55 be 8e 58 06 3c c1 8b 67 3d
       0.10943959 -0.20860979 0.008199824 0.056529764
000080 fb 7c ff 3d 32 04 6e bd e1 c4 1f 3e 8b 0f bd 3d
       0.1247501 -0.05810947 0.15602447 0.0923148
000090 03 65 b2 3d 22 06 48 bd 9c 3f 33 be aa 57 b7 3d
       0.08710673 -0.048833974 -0.17504734 0.089522675
0000a0 7a f1 50 3c a2 ba 97 3c 92 89 8f bd 01 60 c6 bd
       0.012752885 0.01852161 -0.07008661 -0.0968628
0000b0 56 1d 02 be 85 97 40 be cb 90 43 3c 1a b9 0a be
       -0.12706503 -0.188078 0.011936377 -0.13547173
0000c0 1b 0d 0d be 5a 2f 95 3b 40 21 c9 bd a9 40 03 bd
       -0.1377453 0.004552764 -0.09820795 -0.032044087
0000d0 4a 2f 0c be 6d 3f 85 3c 13 6a 48 3d 14 5a e2 bd
       -0.13689914 0.016265595 0.048929285 -0.11052337
0000e0 55 cf 0d bd 16 24 f2 bd e8 53 e8 3d a0 49 68 be
       -0.034621555 -0.11823289 0.11344129 -0.22684336
0000f0 db 85 aa be 09 6b 2e 3d dc 5e 44 3d bf 05 6e bd
       -0.3330525 0.042582545 0.047942027 -0.05811095
000100 2f d3 96 3e ac 13 0f 3c ef 9f 49 be 83 d3 af bd
       0.29457995 0.0087327175 -0.19689916 -0.085852645
000110 73 68 94 bc dc 62 cb 3c 04 00 6e be d4 51 51 bc
       -0.018116212 0.024827413 -0.23242193 -0.012775857
000120 d3 c8 a4 3d 09 bd f9 bd 53 b1 2a 3e aa 0f 46 3e
       0.08046117 -0.12194259 0.16669206 0.19341913
000130 3b 17 ce 3c f2 45 35 be 5d a7 9f 3c 81 19 be bd
       0.025157562 -0.17702463 0.019488985 -0.09282208
000140 ea 47 9d 3d b9 bc b7 bd 2b 7e 8e bd 1e 34 aa 3d
       0.07679732 -0.08971543 -0.069576584 0.08310722
000150 19 ab d7 bd 22 bf ba bd 28 6f a7 3b 37 76 34 be
       -0.10530681 -0.09118487 0.0051096864 -0.1762322
000160 57 c4 62 be e8 94 6c bd cb 14 05 3e 30 20 80 be
       -0.2214521 -0.057759196 0.12996213 -0.25024557
000170 07 77 48 bd e0 1b 10 3e 7c 05 01 be c9 08 c5 3c
       -0.04894164 0.14073133 -0.12599748 0.02405204
000180 02 6a 1a be 90 ce 89 3d 1a 2c 0a be 40 63 09 3e
       -0.15079501 0.06728852 -0.13493386 0.13416767
000190 40 20 8f bd 64 d3 dc 3d 74 bb 6e be 28 1a a8 3c
       -0.06988573 0.10782507 -0.23313695 0.020520285
0001a0 9a 6b 29 bd ac 49 4c 3d ca 51 b9 3d ce fc 9b bd
       -0.041362382 0.049874946 0.09048803 -0.07616578
0001b0 10 cd a6 3d 82 4a 94 bd 39 3b e9 bb de ce ca bc
       0.08144581 -0.07240774 -0.0071176556 -0.024756845
0001c0 04 c8 88 be d7 d5 0f be 9f e7 9b bd 56 4e b6 bd
       -0.267151 -0.14046417 -0.076125376 -0.0890166
0001d0 24 b9 b0 bd 50 a4 ab 3d b3 f8 14 3e 69 d4 57 be
       -0.08629063 0.083809495 0.14547996 -0.21077122
0001e0 5c cf 06 be ae 1b 27 3d 30 af 19 be bb 5f 69 be
       -0.13165039 0.04079788 -0.15008235 -0.22790425
0001f0 05 9b 77 3d fb 6f e7 bd 26 dd ea 3d dc b9 a7 be
       0.060450573 -0.113006555 0.11467962 -0.32758987
000200 08 45 77 3c d1 ea 64 be e6 3d 30 be 95 61 6b be
       0.015092142 -0.223552 -0.17211112 -0.22986443
000210 7f 9e 92 3d a4 4b 97 bd 6b 25 5f 3e 5f ac dd bc
       0.07159137 -0.07387474 0.21791618 -0.027059732
000220 54 fe 37 be df 70 11 be 80 d6 16 bd 30 88 54 be
       -0.17968112 -0.14203213 -0.036825657 -0.20755076
000230 5d f6 94 3b b1 88 44 be 53 c1 45 bd 2b 4c d7 bd
       0.0045459704 -0.19192769 -0.04828007 -0.10512575
000240 e1 0b 5d bd 8b 1f 58 3e 59 b7 e2 bd 04 01 fb 3d
       -0.053966407 0.21105783 -0.11070127 0.12256053
000250 d0 3a 58 3d 57 a2 4a 3d e2 5e af 3c 42 2e c9 bc
       0.052790463 0.049471226 0.021407548 -0.02455819
000260 dd 63 63 be c2 64 1e bc 7e 71 09 bd 75 c8 8a 3d
       -0.22206064 -0.009667577 -0.0335555 0.067765154
000270 91 ca f8 bd 75 d3 07 be 44 10 f0 3c 61 1c 28 3d
       -0.121480115 -0.13264258 0.029304631 0.04104269
000280 32 67 cf bd f4 af e7 bd ad a7 f5 bd bd 01 95 3e
       -0.10127105 -0.11312857 -0.11994872 0.2910289
000290 dd 25 6a be 3c 47 0a 3d 1a c4 4e 3e 5b e1 3b bd
       -0.22866006 0.03375934 0.20191994 -0.045869213
0002a0 66 1f f5 bd 96 1d b8 3d 63 fb 0c be 8c 52 56 be
       -0.119688794 0.08990018 -0.13767771 -0.20929927
0002b0 01 a3 e1 bd 3a a0 3a 3e 93 48 e2 bc 07 ef 3b 3d
       -0.11017419 0.18225184 -0.027622497 0.04588225
0002c0 f4 b8 1d bd 6c d0 0d be 2b 6f ba bd ca f0 ad bd
       -0.038506463 -0.13849038 -0.09103235 -0.084931925
0002d0 78 c0 f5 bd d2 a6 31 bc af 3b 91 3d 42 d6 4f 3d
       -0.11999601 -0.010842996 0.07091462 0.05074144
0002e0 fb 8e a8 3d 65 08 85 bc ce 51 90 bd 4a f0 37 3e
       0.08230396 -0.016239354 -0.07046853 0.17962757
0002f0 56 26 66 be ed f5 dc bd 68 0d e7 ba 03 0b 58 bd
       -0.22475561 -0.10789094 -0.0017627897 -0.052744877
000300 2c fa 5f 3c 71 85 0b 3e 4f e4 0f 3e 35 ef 45 3e
       0.0136704855 0.13625123 0.14051937 0.19329531
000310 61 4b 71 3d fa 6b 8c be bf 2e 1b be aa 9b fd bd
       0.058909778 -0.2742613 -0.15154551 -0.12383206
000320 c6 bd d1 bc 33 c0 bd bc b2 8e 9a 3b fa 12 00 3e
       -0.025603186 -0.023162937 0.0047167176 0.12507239
000330 03 2b 02 3e 52 7d 25 3d a8 c5 62 be 5c 60 70 be
       0.1271172 0.040402718 -0.22145712 -0.23474258
000340 2c fa e5 3b 20 5d d1 3d e6 ce 32 3e 71 4b ec bd
       0.007018348 0.1022284 0.17461738 -0.11537827
000350 7d 95 1f bc 27 88 8e bd df e0 66 bc c8 b6 fd 3c
       -0.009740231 -0.06959563 -0.014091699 0.030970946
000360 c0 2f 27 3c ba 09 74 3e ca 87 ce 3d 5f d9 8c be
       0.010204256 0.23831835 0.100844935 -0.2750959
000370 4b 78 a8 bd a7 db 9d 39 4c c0 6b bd 97 b0 09 bc
       -0.08226069 0.00030109027 -0.057556435 -0.008403919
000380 13 26 8f bd ce 4b 2d be 01 5a 8a 3d e1 2e e5 3d
       -0.06989684 -0.16923448 0.06755448 0.11190582
000390 cc 9d 0d be 06 61 34 3e 57 c4 0f 3d f9 c5 ee 3c
       -0.13829726 0.17615137 0.035099354 0.029147135
0003a0 86 8a 04 bd da 12 bc be af d6 5b be c4 4f 4c 3e
       -0.03235867 -0.36733133 -0.21468614 0.19952303
0003b0 65 61 21 3e 4c 3b 22 3e 23 4e fb bd 7e 62 13 be
       0.1575981 0.15842932 -0.12270763 -0.1439304
0003c0 2a b5 45 be cf 28 16 3e 04 66 f0 3c 03 e4 8e 3c
       -0.1930739 0.14664005 0.02934552 0.017442709
0003d0 4a f9 38 3e c6 c6 47 be 41 bf ca bd dd 30 b8 bd
       0.18063846 -0.1950942 -0.0989976 -0.08993695
0003e0 97 84 0d 3e c3 6f 44 bd df 86 31 3c 37 8c eb bd
       0.1382011 -0.047958147 0.010835378 -0.11501353
0003f0 25 97 ee 3d 7e 30 12 3e 52 77 8c be 58 be 95 3e
       0.11649922 0.14276311 -0.27434784 0.29246783

network_body._body_endoder.seq_layers.2.bias f4 [127]
000000 a8 1e 04 be bd fa 1d be e2 2e 82 3c 71 50 12 bd
       -0.1290232 -0.1542768 0.015891496 -0.035721246
000010 77 98 3d be 50 f1 37 be 12 40 a2 3d 6a 3e 5e be
       -0.18515192 -0.17963147 0.07922377 -0.21703497
000020 d3 7c 8c bb ef 00 fd bd 8c 7e 2f be a4 4b 17 bd
       -0.004287341 -0.12353694 -0.17138118 -0.03693737
000030 4f 13 33 bc 4e 83 55 be 45 58 c0 bd 18 19 a3 bd
       -0.0109298965 -0.2085087 -0.09391836 -0.07963771
000040 8b 19 2b 3d 91 71 9c bc c4 93 b2 3c 9a 4d 15 be
       0.041772407 -0.019097121 0.021798976 -0.14580384
000050 c7 f9 2c bd 5b 64 9a bd 37 3c 03 be 11 d3 45 be
       -0.042230394 -0.075386725 -0.12815939 -0.19318797
000060 9a 8e f1 bb 19 81 cd 3c 10 c9 59 3d 02 af cd bd
       -0.0073717358 0.025085973 0.053170264 -0.10043146
000070 35 fc 2b b9 47 24 51 3d 32 bf ff bd 2c 9d 2b be
       -0.00016401785 0.051059987 -0.124876395 -0.16759175
000080 5d cb 53 bd 13 0b 1b be 25 55 e2 bc bf e4 5c bd
       -0.051707614 -0.15140943 -0.02762849 -0.053929087
000090 ac eb ca bd 75 ed a5 bd 6e 7d c0 bd e4 fb ce bd
       -0.09908232 -0.08101932 -0.09398924 -0.10106638
0000a0 40 a8 b7 bd a6 4b b7 bd 04 69 82 bd a2 78 58 be
       -0.08967638 -0.08949976 -0.063676864 -0.21139768
0000b0 0b ac 19 be ec 0c 40 be fc f2 c9 bd e5 19 8a bc
       -0.15007035 -0.1875493 -0.09860799 -0.01685805
0000c0 ce 01 aa bc d1 6f 95 3d eb c8 d9 bd df fd e1 bd
       -0.020752814 0.07296718 -0.10634025 -0.1103475
0000d0 e2 78 5b be b4 bf 75 be da 21 25 be 0a df c9 bd
       -0.21432832 -0.2399891 -0.16126195 -0.098569945
0000e0 16 92 a2 3d 2e 16 53 bd 73 bf 3d be d5 44 1c be
       0.0793802 -0.051534824 -0.18530063 -0.15260632
0000f0 4f 56 8f bd 98 ae 7d be 34 d2 e0 bd 4f 44 c3 bd
       -0.06998884 -0.24773633 -0.10977593 -0.09534513
000100 4e 2e e3 bd fe 95 80 bd a6 2b 04 be 19 6d 2d 3c
       -0.11092816 -0.06278609 -0.12907276 0.010585093
000110 64 b5 e2 bd 4f 87 04 be 99 e7 06 be 91 10 6a be
       -0.11069754 -0.12942241 -0.13174285 -0.22857882
000120 4d f7 12 be 42 ed 3d be 84 7f c0 bd 81 ee d3 bd
       -0.1435215 -0.18547538 -0.09399322 -0.103482254
000130 32 ea 49 bd 3b c3 3c be b8 89 67 3d 16 f3 8c bd
       -0.04929561 -0.1843385 0.056527823 -0.068823025
000140 cc 1c 60 be e1 eb 1e be c2 5c 23 be 00 45 fe bc
       -0.21885985 -0.15519668 -0.15953353 -0.031038761
000150 61 4c 2f be dc 36 1f 3b 79 f1 07 be c6 d3 32 be
       -0.1711898 0.0024294173 -0.13275708 -0.17463598
000160 9c 85 c6 bd 26 9d c0 3d f7 8a 1c be 52 07 79 be
       -0.09693453 0.09404974 -0.15287386 -0.24319199
000170 67 69 e5 bd 10 4f 55 be 33 ac 11 bd a8 4b 30 be
       -0.112017445 -0.20830941 -0.035564613 -0.1721636
000180 11 c6 b8 3c fe a3 45 be e1 16 bd bd 24 c1 a8 bd
       0.022555383 -0.1930084 -0.092328794 -0.08239964
000190 f3 2e 57 be 87 71 02 bd 0e 9f 6a be 79 eb 93 3d
       -0.21014003 -0.03184655 -0.22912237 0.07222647
0001a0 bb 58 11 be 5a 54 30 be d1 bb a1 bd ff 29 06 bd
       -0.14194004 -0.17219678 -0.07897151 -0.032754894
0001b0 d4 dc 0b be 73 f8 7d bd 0a 15 51 be 1a d9 ac bd
       -0.13658458 -0.062004518 -0.20418182 -0.08439846
0001c0 d9 d8 0d be 97 a3 83 be 35 18 35 be 74 1d f8 3d
       -0.13852252 -0.25710747 -0.17685015 0.12114993
0001d0 65 38 e8 bd 61 d6 13 be 10 6e a2 bd dc 58 df bd
       -0.113388814 -0.14437248 -0.07931149 -0.109056205
0001e0 b1 98 a3 bd 72 21 8a be d9 0e 2a be 39 be 7d bd
       -0.07988108 -0.26978642 -0.16607226 -0.06194899
0001f0 9b 87 1b be 00 67 2e be c3 b8 35 be
       -0.15188448 -0.17031479 -0.17746262

action_model._continuous_distribution.log_sigma f4 [1, 2]
000000 51 03 0b bf fe 84 44 bf
       -0.54301935 -0.7676543

action_model._continuous_distribution.mu.weight f4 [2, 127]
000000 78 ca 24 be 78 3c 24 be ed f5 df bd d7 bc 2b 3c
       -0.1609286 -0.16038692 -0.109355785 0.010482035
000010 6f f2 ec bd 24 73 b2 bd ae 6b e9 3d e1 e0 22 be
       -0.11569678 -0.087133676 0.113974914 -0.15906097
000020 91 38 ed bd ff a9 4b be f4 3f 05 be ce 4f 20 be
       -0.11583055 -0.19889067 -0.13012677 -0.15655443
000030 cd c5 93 bb 46 60 00 be bd 98 09 be 9b 20 9c bd
       -0.0045096637 -0.12536725 -0.13437171 -0.076234065
000040 64 c6 97 3c 05 ff 8e 3c b4 d3 f8 bc 90 26 fe bd
       0.018527217 0.017455587 -0.030374385 -0.12409699
000050 2e d3 7b 3c 31 66 d9 bd f2 26 28 be ac 7e 2e be
       0.015370173 -0.106151946 -0.16421106 -0.17040509
000060 3c 03 82 3d 6d 0f 61 3d a7 bb e5 3c 6c ef 84 bc
       0.06348273 0.05494635 0.028043581 -0.016227446
000070 57 19 a3 3c a4 4e 9d 3d a7 75 39 bd 5e af 3a be
       0.019909544 0.07681015 -0.045278218 -0.1823096
000080 a5 fe 25 bc 0b 8e 48 be 84 5b e6 bb ad 4c e2 bd
       -0.010131513 -0.19585435 -0.0070299525 -0.11049781
000090 d5 6a a8 bd 6d 59 d2 3c e2 2e 8e bd 8a a5 81 3c
       -0.082235016 0.025677407 -0.06942536 0.015826005
0000a0 8d 91 15 be da 20 75 3d ca 6d dd 3c 28 a0 ed bd
       -0.14606304 0.059845783 0.02702989 -0.11602813
0000b0 bd 63 11 be dc 92 22 be ce 9f 3e be 19 47 2a bc
       -0.14198203 -0.15876335 -0.18615648 -0.010392928
0000c0 97 82 ff bc 4f e1 c5 3d 5d e7 12 bd 39 4a f9 bd
       -0.0311902 0.09662115 -0.035865176 -0.1217236
0000d0 6f ee 01 be 1a a5 b6 bd 47 6a 32 be d4 5e af bd
       -0.12688611 -0.089182094 -0.17423354 -0.08563009
0000e0 73 56 c3 3d e5 99 21 bd a4 69 3d be 1f 4b 5a be
       0.09537973 -0.039453406 -0.1849733 -0.21317719
0000f0 9e 88 e3 bd 04 6a db bd 34 cd c8 bd ba b1 01 be
       -0.11110042 -0.1071358 -0.098047644 -0.12665454
000100 b5 c3 26 be d6 70 e7 bb 0e 09 e5 bd 11 8c cf 3d
       -0.16285594 -0.0070630116 -0.11183368 0.101341374
000110 1c 63 52 be 33 49 5c be e1 5c f9 bd 5f 68 ee bd
       -0.2054562 -0.21512298 -0.12175918 -0.11641001
000120 02 28 1b be 35 ee 2d be c2 4e ab bd 97 5c 73 3b
       -0.1515198 -0.169854 -0.08364631 0.0037134045
000130 34 2f 6d bc c0 7e a2 bd 9f 3d 79 3d d6 4b 5e 3c
       -0.014476586 -0.07934332 0.060849782 0.013567885
000140 c8 bb 0e be cd 1e 38 be 6d 44 82 bd a0 be 5d 3d
       -0.1393882 -0.179805 -0.063607074 0.054136872
000150 24 ce 04 be 90 e2 99 3d a6 be 48 be e1 9a e3 bd
       -0.12969261 0.075139165 -0.19603977 -0.11113525
000160 09 e2 9b bd 93 ba de 3d ff b6 08 be 86 04 cb bd
       -0.07611472 0.1087543 -0.13351057 -0.09912972
000170 b3 f5 84 bd 1e a9 14 be 06 e3 2e 3d 9e cf e6 bd
       -0.06492176 -0.14517638 0.042696975 -0.112700686
000180 4a 82 a4 3d 04 64 31 be 93 23 94 bd a6 0b cb bc
       0.08032663 -0.17323309 -0.07233348 -0.024785828
000190 f0 40 48 be 61 58 d6 3c 66 d8 26 be 15 5f 87 3d
       -0.19556022 0.02616519 -0.16293487 0.06609932
0001a0 b2 2b 2c be 45 f2 f9 bd f1 fc b3 bd 63 90 42 bc
       -0.16813543 -0.12204412 -0.08788479 -0.011875245
0001b0 76 9d d5 bd 31 d7 01 be 35 58 13 be e1 83 64 3d
       -0.10430424 -0.12679745 -0.14389117 0.055789832
0001c0 2a c4 89 be a4 5b fc bd f2 70 10 be bf 93 9d 3d
       -0.26907474 -0.123221666 -0.14105585 0.07694196
0001d0 b3 7d 02 be 78 23 29 be db 1c fd bd 73 fc 9d bd
       -0.12743263 -0.16517437 -0.12359019 -0.077141665
0001e0 88 6c 8d bd b7 e5 52 be fa 7d 3e be dc 39 93 bd
       -0.06905466 -0.20595442 -0.18602744 -0.0718877
0001f0 c5 7d 11 be 4e d2 63 be 82 bc d2 bd f9 4d 71 3d
       -0.14208134 -0.22248194 -0.10289861 0.05891225
000200 91 61 8e bd 25 d3 6a be 93 47 ef bd 2c a9 1e bd
       -0.06952203 -0.22932108 -0.116835736 -0.038735554
000210 dc e0 15 bd 6f e9 f1 3c 5c 6f 38 3d 54 55 68 3d
       -0.036591396 0.029530255 0.045028076 0.056722
000220 18 a3 99 bd 76 cf 74 3d c4 ba 4d 3d 3c 30 aa bd
       -0.07501811 0.059768163 0.05022694 -0.08309981
000230 77 05 7c bd 06 68 91 3d c0 8f d2 3d d0 2c 70 bd
       -0.06152865 0.07099919 0.102813244 -0.058636487
000240 19 48 55 bb e7 00 77 bd de 98 c4 bd f4 08 a8 bd
       -0.0032544194 -0.060303595 -0.095994696 -0.08204833
000250 70 28 c7 3c d3 69 67 bd 8e 59 2a 3d b5 a2 20 3e
       0.024311274 -0.056497406 0.041589312 0.15687068
000260 ba 8d 10 bd 80 40 ce bd fc 3b 5b 3c ab 1c ca 3c
       -0.03529141 -0.10070896 0.013381001 0.024671873
000270 40 7c 06 bc 69 9b 97 3a c4 d4 0f 3d fc 81 cf 3c
       -0.008208334 0.0011566702 0.03511502 0.025330536
000280 2b 7d 17 3d 22 4e 1e bd 1e 0f c9 bd 26 cb 8a bc
       0.036984604 -0.038648732 -0.098173365 -0.016942572
000290 cd 49 4f 3d 66 2c 7f 3d b5 17 43 bd 73 bd c1 bd
       0.05060749 0.0622982 -0.04763003 -0.09459963
0002a0 25 e4 99 bd 40 07 93 3d 2b b9 ee bb d1 02 86 bd
       -0.07514218 0.07179117 -0.0072852573 -0.06543506
0002b0 3f 80 98 bc 25 38 3d bd c6 70 9d 3d 8f d6 c2 bd
       -0.01861584 -0.04619612 0.076875255 -0.0951358
0002c0 6f 55 da 3c 7b d9 fe 3d 9d 62 ab bd 66 2f dd bc
       0.026652066 0.12443825 -0.08368418 -0.02700014
0002d0 7c 23 8a bb 09 60 65 bc 2c 8c 85 3d 52 44 9f bd
       -0.004215656 -0.013999947 0.06520876 -0.07776703
0002e0 f8 88 96 3c 94 37 19 bd 64 6a 81 bb e3 e4 7c 3d
       0.018375859 -0.03740652 -0.0039494503 0.06174172
0002f0 fd 61 4b 3d c9 46 8f 3d 5f bd 0e 3d 9e 4b 48 3d
       0.049653996 0.06995923 0.034848567 0.04890024
000300 e5 0c 31 3e 57 5e 89 bd ab e3 d4 3d 88 8d 9d bc
       0.17290075 -0.06707447 0.10394987 -0.019232526
000310 17 46 20 3d 1e 6c 23 3c ee 1b 0d 3d 95 55 a2 bd
       0.039129343 0.009974508 0.034450464 -0.0792648
000320 0c 76 97 bc 32 f4 d4 3d 2f 73 c4 3d c9 b5 75 bd
       -0.018488906 0.10398139 0.09592282 -0.059987817
000330 94 5a fa 3c 99 cd 5a bd d1 d4 c5 3d 36 59 18 bd
       0.03056077 -0.05341873 0.09659732 -0.037194453
000340 f1 21 66 bb cc 24 86 bd 78 28 29 3e fd dd ca bc
       -0.0035115445 -0.06549987 0.16519344 -0.024764055
000350 34 9f ed 3d da ee 34 bd 1b 13 71 3d 88 2f a7 3c
       0.11602631 -0.0441731 0.05885611 0.020408407
000360 c4 c4 19 bc 30 ea 4c 3d 2c f7 bd 3d 2e e9 47 3c
       -0.0093852915 0.050028026 0.0927566 0.01220159
000370 b6 6d 65 bd 6b 2d e1 bc aa 6b 00 bd 80 f3 4d bd
       -0.05601283 -0.027487477 -0.031352676 -0.050281048
000380 c1 95 98 bd 7d f2 73 3d ad 34 e1 bc a0 74 f4 3c
       -0.07450438 0.059557427 -0.027490938 0.029840767
000390 9b d6 ca bd f2 98 78 ba cf ad 03 3c 3b b0 9e 3d
       -0.09904214 -0.000948324 0.008037045 0.07748457
0003a0 b1 4f 10 bd ac 61 31 3d 81 c1 ef bd 25 89 39 bd
       -0.03523225 0.043306038 -0.1170683 -0.045296807
0003b0 7c da 0b be 24 09 a0 3c ad a9 20 be 52 1d ef bb
       -0.13657564 0.019535609 -0.15689726 -0.0072971964
0003c0 c7 99 56 3d b7 ee 92 3d 4b 28 08 be 73 c0 ae 3d
       0.052392747 0.071744375 -0.1329662 0.085328005
0003d0 a6 9d 9b bd 6f c5 cc bc 27 ef 9a 3d 11 24 d5 3c
       -0.075984284 -0.024996487 0.07565146 0.026018174
0003e0 cc de 33 bd 54 e0 09 bc 46 e8 64 bb 8e 12 c3 bd
       -0.043913648 -0.0084153 -0.0034928485 -0.095250234
0003f0 b4 bc 9b 3c e6 8e 1c 3d
       0.01901088 0.038222216

action_model._continuous_distribution.mu.bias f4 [2]
000000 58 88 68 3e 2d 48 64 3c
       0.22708261 0.013933224

exp_avg f4 [127, 39]
000000 e6 89 ab b9 6e 41 76 3a d6 ea 01 39 09 6e 0a ba
       -0.00032718404 0.0009393905 0.00012389882 -0.0005280679
000010 e4 c9 7f 3a 39 d8 39 b9 2b b6 c7 b9 ce 4a 65 3a
       0.0009757562 -0.00017723524 -0.00038091964 0.00087468035
000020 02 be 72 39 ae 22 f2 b9 d5 39 1e 3a 33 cf 67 39
       0.00023149702 -0.00046183675 0.00060358393 0.00022107064
000030 5a 56 59 39 b8 c4 00 bb 4e 1c 3a bb 3b d7 e1 36
       0.00020726901 -0.0019648504 -0.0028398219 6.7305787e-06
000040 5e 84 73 3a b6 8f 3c 3a 50 9e 7d 39 38 c0 f9 ba
       0.00092894386 0.00071930455 0.00024186936 -0.0019054478
000050 62 ef 39 bb c9 4e 3d ba 31 f2 98 3a af 2e 1b 3a
       -0.0028371443 -0.0007221518 0.0011668858 0.0005919737
000060 0c 29 4c ba 90 f1 9c ba 9f 4d 15 bb 6b 72 20 ba
       -0.0007788099 -0.0011973847 -0.0022781861 -0.0006120565
000070 99 05 81 3a 77 96 57 3a c5 3e 83 38 27 f4 96 ba
       0.0009843587 0.000822402 6.2582585e-05 -0.0011516855
000080 65 16 21 bb 2d 14 cb 3a 52 5b 93 39 a0 9b 3e 3b
       -0.0024579999 0.0015493684 0.00028106064 0.002908446
000090 d2 3f ab 3a fb 28 05 3c 65 55 8c 39 5f d9 62 b9
       0.0013065285 0.008127446 0.00026766505 -0.00021634017
0000a0 f1 2a 6b 37 d1 02 50 b8 98 3e 75 35 58 ca ad ba
       1.401709e-05 -4.9593687e-05 9.13607e-07 -0.0013259156
0000b0 09 84 a8 ba 96 10 32 b7 3d 8d 0a 3a 6f 79 e7 39
       -0.0012856732 -1.06134885e-05 0.00052853284 0.00044150228
0000c0 bb 5d a7 b9 d0 f5 ab ba db 42 76 ba 4e 91 7a b9
       -0.00031922557 -0.0013119522 -0.00093941175 -0.00023895988
0000d0 aa 24 95 3a e2 c5 8b 3a 52 1a c6 b8 2e 1f 82 b9
       0.0011378725 0.0010663832 -9.446278e-05 -0.00024818763
0000e0 59 27 06 ba 55 35 eb b9 95 d6 b2 3a e0 0c ad 3a
       -0.00051175576 -0.00044862428 0.0013644273 0.001320269
0000f0 50 6b c6 b9 82 0c bd 38 46 8f 50 39 24 82 d3 b9
       -0.00037845457 9.014552e-05 0.000198898 -0.00040342018
000100 5e f8 85 3a 4b ba b5 3a 09 cb d3 b9 17 67 a2 3a
       0.0010221114 0.0013864724 -0.0004039633 0.0012390342
000110 2e 45 02 3a a4 f5 2a ba 1e fd e4 3a 10 51 e4 3a
       0.0004969415 -0.00065215887 0.0017470454 0.0017419178
000120 e6 65 dd 3a 51 aa 96 3a b3 ba e9 3a 57 cb d0 ba
       0.001689133 0.001149485 0.001783213 -0.0015929741
000130 3c 6a 2b 3a 58 8f c2 39 a4 8c 58 3a 30 59 75 3a
       0.00065389625 0.00037109363 0.0008260703 0.0009359298
000140 83 97 61 3a 80 86 c8 39 d1 c4 42 39 c3 e8 4e 39
       0.0008605646 0.00038247183 0.00018574602 0.00019732401
000150 6f f3 f7 39 22 da 4a 3a 80 87 32 3a ec ff 13 3a
       0.00047292883 0.0007738193 0.0006810352 0.00056457403
000160 25 7e d6 37 92 e5 4f 38 f3 cf 6d b9 04 e8 36 3a
       2.5569529e-05 4.956645e-05 -0.00022679548 0.0006977322
000170 e9 a5 de b7 f9 a5 24 3a bb 5d 00 ba a9 f1 56 b9
       -2.654172e-05 0.00062808354 -0.00048967794 -0.00020498656
000180 13 e9 27 38 83 f0 b9 38 92 7b b7 b8 5b 8d 51 36
       4.003297e-05 8.866286e-05 -8.749137e-05 3.1225707e-06
000190 52 1a fb 39 7e ba 74 39 df a4 fd b7 b5 91 a8 b8
       0.0004789406 0.00023339127 -3.0236724e-05 -8.038004e-05
0001a0 b3 08 58 b9 84 72 1b b9 55 51 97 38 1a b1 57 3a
       -0.00020602606 -0.00014824612 7.21539e-05 0.00082279893
0001b0 2f a7 28 b9 75 86 6d 37 21 97 3a b9 1b 69 b5 39
       -0.00016084009 1.41576065e-05 -0.00017794642 0.0003460132
0001c0 5f ad 3c ba f4 64 e6 3a 83 a3 53 3a fb cd 07 ba
       -0.0007197465 0.0017577694 0.00080733764 -0.0005180535
0001d0 94 7a 54 38 7c 73 a8 3a 42 8f 06 ba ff 56 d9 b9
       5.06589e-05 0.00128518 -0.00051330414 -0.00041454282
0001e0 7a 35 8e 3a 7d 6b 51 3a cf 83 49 3a a2 5f ef 3a
       0.0010849677 0.0007988734 0.00076871825 0.0018262754
0001f0 d3 47 56 ba 66 7f e9 b9 7c e9 58 3a 89 ce ad 39
       -0.0008174155 -0.00044536142 0.0008274538 0.00033151012
000200 a2 f7 86 3a d3 25 46 3a 78 0b 81 ba 11 66 19 b9
       0.0010297189 0.0007558737 -0.0009845337 -0.0001462924
000210 87 60 fe 38 12 2b 7f 3a 4a e7 91 3a 26 5a 50 3a
       0.000121296434 0.0009733896 0.0011131552 0.00079480035
000220 c9 5d 82 ba bc 04 90 b8 6b 6f a2 b9 6e ba 35 3a
       -0.0009946163 -6.867337e-05 -0.0003098206 0.0006932382
000230 b6 c9 96 3a 30 b0 dc 38 50 4f ce b9 2a 62 5b 37
       0.0011504206 0.00010523235 -0.00039350474 1.3076273e-05
000240 23 5f e0 b9 b1 5c b4 3a 50 9e 2a 3a d5 e2 30 ba
       -0.00042795492 0.0013760534 0.0006508576 -0.0006747668
000250 eb 01 e7 3a e6 b9 98 3a 13 f4 9d b8 ee 33 93 3a
       0.0017624473 0.0011652082 -7.531806e-05 0.0011230686
000260 64 f9 01 bb c0 37 10 ba dc c5 ec b8 b1 47 dd 38
       -0.0019832486 -0.00055014715 -0.00011290211 0.00010551455
000270 74 00 82 3a d2 41 14 bb 04 3f a4 ba 30 69 83 3a
       0.0009918348 -0.002262224 -0.0012530987 0.0010025855
000280 53 e8 51 39 fe c4 03 39 e6 fa 8d 3a 20 1f 06 bb
       0.00020018341 0.00012566519 0.001083222 -0.002046533
000290 46 57 ac ba c1 2c a8 39 96 7a 34 39 10 cb d3 38
       -0.0013148568 0.000320768 0.00017211805 0.000100990874
0002a0 ed 54 8a b9 7a 61 c7 ba 5d 4c 51 ba bb 17 76 ba
       -0.00026384686 -0.0015211545 -0.00079840963 -0.00093876914
0002b0 c0 26 37 3a 03 d0 20 3a a5 0a 01 ba 98 2c bd ba
       0.000698667 0.0006134512 -0.00049225456 -0.0014432846
0002c0 5b 20 8d ba 41 12 b6 ba c1 25 3c ba 6a 5d 4c b8
       -0.0010767089 -0.0013890938 -0.00071772566 -4.872439e-05
0002d0 2e 46 07 ba 68 26 9a ba 0f 91 aa ba 93 e8 96 b9
       -0.0005160299 -0.0011760714 -0.0013013202 -0.0002878351
0002e0 81 20 57 ba f7 9c 61 ba 37 53 ca b9 20 b6 17 39
       -0.00082064426 -0.00086064584 -0.00038590442 0.00014468329
0002f0 75 30 85 ba c8 d6 76 3a 9b 88 c3 3a 96 a7 de ba
       -0.0010161536 0.000941616 0.0014918031 -0.00169872
000300 62 8e f7 ba 83 83 ed 3b 86 5b 5c 39 46 06 d5 b7
       -0.0018887038 0.0072483434 0.0002101493 -2.53945e-05
000310 9c e8 83 b9 07 67 a6 38 9c 29 13 b9 f8 bc 5b b9
       -0.00025159575 7.934687e-05 -0.00014034513 -0.00020955864
000320 b4 aa 77 b8 cf 59 96 b9 15 64 3e b9 08 ba f4 b8
       -5.904837e-05 -0.00028677142 -0.00018157095 -0.00011669478
000330 98 5c 93 b9 a9 fd ec b8 6c 93 b2 b8 a6 1e b3 b9
       -0.00028107013 -0.00011300605 -8.515161e-05 -0.00034164375
000340 ed d5 13 3a 56 c0 c4 39 97 76 5d b9 4e 84 80 b8
       0.00056394824 0.00037527335 -0.0002112038 -6.128159e-05
000350 61 86 78 38 ec ce 5a b9 41 76 ed 39 06 c5 8b 39
       5.9252958e-05 -0.00020867185 0.0004529227 0.0002665894
000360 8c 82 2a b9 8f 09 ca b8 0a af 33 39 75 5b 12 b9
       -0.00016261096 -9.633891e-05 0.00017135977 -0.00013957715
000370 4a ef c5 38 4b 68 e8 38 b9 e9 7f b9 8d 34 6a b8
       9.438263e-05 0.00011082048 -0.00024405764 -5.583889e-05
000380 f1 4c 96 39 92 7b 0e 39 ae c0 49 b9 8f e0 a4 b8
       0.00028667555 0.00013588209 -0.00019240633 -7.861957e-05
000390 db 06 42 39 ab 34 e1 b8 b5 35 e3 38 dc 34 4a b7
       0.00018503836 -0.00010738646 0.00010834207 -1.20524455e-05
0003a0 4e bf a8 b7 a3 1b 07 b8 18 7b 49 39 5e 72 61 ba
       -2.0116244e-05 -3.2212247e-05 0.0001921471 -0.0008600111
0003b0 66 54 08 ba 1f 58 00 38 f9 22 70 b9 52 0d 8a b9
       -0.00052005646 3.0599647e-05 -0.00022901212 -0.00026331336
0003c0 0f 9d 9d 39 19 5c d2 b9 f5 10 7c b8 b2 42 f7 38
       0.0003006239 -0.0004012294 -6.0097274e-05 0.00011790301
0003d0 39 7b d2 b9 c8 56 9d b9 ed ed df b8 58 75 08 b8
       -0.0004014613 -0.0003001003 -0.00010677786 -3.253421e-05
0003e0 db 62 f5 39 34 24 b8 b7 54 6c 14 3a 4f b8 40 39
       0.00046803695 -2.1951368e-05 0.0005661894 0.00018379207
0003f0 de b3 d0 38 ae 52 64 38 92 77 f7 39 f5 4f 3e b9
       9.951716e-05 5.4436437e-05 0.00047200598 -0.00018149598

exp_avg_sq f4 [127, 39]
000000 6c 27 91 37 a7 a6 dd 37 65 66 06 38 cf 90 93 37
       1.7303704e-05 2.6422857e-05 3.2043452e-05 1.7591197e-05
000010 16 4b d3 37 31 98 e8 37 b2 f5 92 37 25 37 f0 37
       2.5188125e-05 2.7727425e-05 1.7518967e-05 2.8635908e-05
000020 48 a0 18 38 fe 60 b0 37 15 fe e7 37 25 1b a8 37
       3.6388898e-05 2.1026e-05 2.7655662e-05 2.00398e-05
000030 50 02 b8 37 18 56 fe 37 49 2f 31 38 c8 3d 86 37
       2.1935586e-05 3.031925e-05 4.2244126e-05 1.6002814e-05
000040 8c 3f fd 37 7d a0 cc 37 7a a3 1a 38 04 72 f0 37
       3.0189542e-05 2.4393428e-05 3.686871e-05 2.8663322e-05
000050 c9 0f 33 38 85 63 29 37 f8 37 d9 37 52 89 b3 37
       4.2691627e-05 1.0096356e-05 2.5894478e-05 2.1402408e-05
000060 a1 e4 e3 37 c2 2b e3 37 25 a4 33 38 36 df 9f 37
       2.7166972e-05 2.7080885e-05 4.2829797e-05 1.9058218e-05
000070 f4 24 c1 37 69 7f a2 37 4f ee 91 37 85 85 e1 37
       2.30246e-05 1.9371235e-05 1.7396318e-05 2.6884265e-05
000080 2a ee 31 38 13 50 34 38 79 61 a4 38 c5 6d 38 38
       4.2421896e-05 4.298992e-05 7.838285e-05 4.397125e-05
000090 a5 84 0a 38 1e ea a4 39 3b e3 b1 35 9a 94 1b 38
       3.30253e-05 0.00031454948 1.325366e-06 3.7093276e-05
0000a0 09 19 94 38 74 72 79 38 1e cf 0b 38 ce 36 90 38
       7.061853e-05 5.947282e-05 3.3333075e-05 6.876663e-05
0000b0 2a 62 84 38 23 69 e4 37 c2 a1 9e 38 50 4d 85 38
       6.312535e-05 2.7228676e-05 7.564157e-05 6.356335e-05
0000c0 84 a1 ae 37 8a e1 8e 38 50 e1 82 38 7e 1c b8 37
       2.0817628e-05 6.8130976e-05 6.240851e-05 2.1947777e-05
0000d0 d6 8c 99 38 0a 31 82 38 5f b5 a6 37 e5 0c 8e 38
       7.321841e-05 6.208017e-05 1.98732e-05 6.7734894e-05
0000e0 7f dc 6f 38 64 fe be 37 13 37 a4 38 a8 21 91 38
       5.7187393e-05 2.2768225e-05 7.830388e-05 6.920408e-05
0000f0 a7 a5 82 37 66 a4 87 38 ff 5d 6c 38 b4 89 af 37
       1.5574346e-05 6.467923e-05 5.6354325e-05 2.0925749e-05
000100 42 f0 b4 38 5a f3 9c 38 d4 d2 9b 37 d8 7b 87 38
       8.62782e-05 7.4839874e-05 1.8575614e-05 6.460369e-05
000110 85 39 83 38 e1 dc 88 37 40 78 c5 38 42 0d a3 38
       6.2572806e-05 1.6315318e-05 9.41609e-05 7.774915e-05
000120 21 3c 82 38 2d ce 03 38 5f f5 f3 38 c1 89 78 38
       6.210083e-05 3.142485e-05 0.00011632847 5.92561e-05
000130 7a 13 11 39 f5 09 92 36 1d 00 3a 37 3d 35 92 37
       0.00013835533 4.352298e-06 1.108649e-05 1.7429347e-05
000140 aa 47 76 37 66 1c 47 37 8f f3 97 37 10 0c 7d 37
       1.4679428e-05 1.1867936e-05 1.8114019e-05 1.5082784e-05
000150 52 7f 23 37 40 c8 92 37 35 03 7a 37 50 da 0b 37
       9.745201e-06 1.7497805e-05 1.4901908e-05 8.3358755e-06
000160 0f 41 a5 37 52 38 7f 37 04 7e 0a 37 ad 27 90 37
       1.9699828e-05 1.52122975e-05 8.254781e-06 1.7184613e-05
000170 5a f8 7b 37 ab 2f 86 36 d6 a8 a3 37 68 37 6b 37
       1.501859e-05 3.9990605e-06 1.9509735e-05 1.4019992e-05
000180 10 73 2a 36 02 0c 99 37 d5 f0 85 37 07 30 fa 35
       2.539895e-06 1.8244613e-05 1.5966982e-05 1.8640429e-06
000190 e8 31 8d 37 8f e3 3b 37 54 ae e0 35 54 99 92 37
       1.683175e-05 1.1199051e-05 1.6740037e-06 1.7475955e-05
0001a0 99 0b 8f 37 6f 2b 9a 35 68 8f 83 37 f7 4f 3e 37
       1.7052329e-05 1.1486535e-06 1.5683196e-05 1.1343501e-05
0001b0 c7 20 c1 36 43 f3 96 37 70 6e 97 37 73 69 a0 37
       5.755664e-06 1.7994671e-05 1.805203e-05 1.912259e-05
0001c0 ae d1 60 37 4d 2e 92 37 86 69 93 37 8c 1f 49 38
       1.340026e-05 1.7426117e-05 1.7572904e-05 4.7951515e-05
0001d0 c8 45 5f 35 f8 94 21 38 1b 58 d1 37 98 c9 03 38
       8.317552e-07 3.852413e-05 2.4955769e-05 3.1420583e-05
0001e0 0d 94 15 38 b4 f1 ca 37 63 c8 17 38 7c a4 fe 37
       3.566225e-05 2.4192828e-05 3.618783e-05 3.0355754e-05
0001f0 14 13 01 38 e4 f5 02 38 4c c9 1c 38 dc 3d d1 37
       3.0773765e-05 3.122342e-05 3.738077e-05 2.4943547e-05
000200 94 5d 2b 38 99 3d eb 37 32 fb f4 37 ae 6a ee 37
       4.085673e-05 2.8042867e-05 2.9204039e-05 2.8421488e-05
000210 34 51 16 38 6c 37 ed 37 5f 0b 47 38 0a 09 fb 37
       3.5838413e-05 2.827841e-05 4.7455887e-05 2.992574e-05
000220 13 cd f2 37 36 25 dd 37 e7 0d 86 37 be 92 0c 38
       2.8944143e-05 2.636258e-05 1.5980519e-05 3.3515265e-05
000230 d3 73 7a 38 6e 04 23 38 c7 72 f0 37 56 b0 d9 37
       5.9712514e-05 3.8866354e-05 2.8663677e-05 2.5950529e-05
000240 29 e8 10 37 59 f8 20 38 9f ed 91 38 fb 8b 2f 38
       8.637123e-06 3.8378264e-05 6.958399e-05 4.185362e-05
000250 1d 52 ee 37 cc 16 d9 37 2c a4 ed 37 9a 1f ff 37
       2.8410048e-05 2.5879031e-05 2.832905e-05 3.0413084e-05
000260 c7 02 73 38 1a 13 ca 37 34 d0 33 39 7a 19 4e 36
       5.79383e-05 2.4089171e-05 0.00017148332 3.0711221e-06
000270 10 e0 a0 38 a2 67 56 38 de b4 49 38 ce 87 a0 38
       7.6711294e-05 5.111809e-05 4.809058e-05 7.65469e-05
000280 6a 9a 53 38 cb 7e 4e 38 8b 7e 4f 38 e4 1f 57 38
       5.045013e-05 4.9232312e-05 4.94705e-05 5.1289695e-05
000290 8c 58 50 38 fc 13 aa 38 da 63 48 38 27 0d 52 38
       4.967353e-05 8.109954e-05 4.777671e-05 5.008015e-05
0002a0 b5 cc 2f 38 80 e0 5f 38 af db 43 38 1d 33 a2 38
       4.19139e-05 5.3376425e-05 4.669622e-05 7.7342826e-05
0002b0 3a fb 4e 38 a9 f7 50 38 23 32 ba 37 01 aa 58 38
       4.93482e-05 4.9821716e-05 2.2196275e-05 5.165674e-05
0002c0 f0 61 39 38 24 01 57 38 ea 00 53 38 45 23 55 38
       4.419865e-05 5.1261057e-05 5.030717e-05 5.0816005e-05
0002d0 af 62 dc 36 0d ce 65 38 73 35 40 38 8a d2 a9 37
       6.567999e-06 5.4789754e-05 4.5826146e-05 2.024441e-05
0002e0 59 a3 58 38 aa 38 6b 38 ca 44 17 36 4d 84 72 38
       5.1650542e-05 5.608114e-05 2.2540794e-06 5.782051e-05
0002f0 fd c7 43 38 b0 cc 2f 38 d1 6a 8c 38 4f d0 aa 38
       4.6677877e-05 4.191388e-05 6.695616e-05 8.145032e-05
000300 0a 07 3d 38 de 21 8b 39 44 b0 5a 36 11 64 1b 37
       4.5067667e-05 0.0002653738 3.2587131e-06 9.2620185e-06
000310 e0 d8 59 37 d6 d2 87 37 3a 0d cb 36 7e eb 51 37
       1.2984703e-05 1.6191432e-05 6.051411e-06 1.2512201e-05
000320 a5 45 8d 37 e0 18 47 37 51 d9 7a 37 b3 df 85 37
       1.684094e-05 1.1867116e-05 1.4951759e-05 1.5959004e-05
000330 bd 07 ab 36 67 f6 65 37 9c a0 98 37 ee dd ca 36
       5.097098e-06 1.3706834e-05 1.8194602e-05 6.045905e-06
000340 fe cd 85 37 5e e0 83 37 db c0 98 36 07 72 7c 37
       1.5950758e-05 1.5720896e-05 4.5524043e-06 1.50469195e-05
000350 8d de 97 37 73 cd c8 36 de 8c 8b 37 5d d4 85 37
       1.8104236e-05 5.984382e-06 1.6635688e-05 1.5953725e-05
000360 bb 33 10 36 f5 76 85 37 fc 2f a4 37 26 42 28 36
       2.1487783e-06 1.591023e-05 1.9572668e-05 2.5072454e-06
000370 49 ce 99 37 c2 01 8c 37 a7 53 0e 36 28 28 86 37
       1.833508e-05 1.6690119e-05 2.120834e-06 1.5992744e-05
000380 f6 1f aa 37 f4 a8 c4 35 55 90 a9 37 d4 94 91 37
       2.0280462e-05 1.465231e-06 2.021358e-05 1.735465e-05
000390 6f 60 1d 37 88 e6 15 37 30 0e 00 38 7d d3 a4 37
       9.380382e-06 8.934767e-06 3.053079e-05 1.9648805e-05
0003a0 46 13 25 38 0c 13 2c 35 86 0c 3a 37 b0 9e 87 37
       3.9357015e-05 6.410271e-07 1.108938e-05 1.6167149e-05
0003b0 7c a0 8f 37 99 f0 4c 37 78 99 87 37 16 14 8f 37
       1.712166e-05 1.2215366e-05 1.6164719e-05 1.7056282e-05
0003c0 6c 53 10 37 ab f8 83 37 b8 e4 98 37 a4 28 24 37
       8.602492e-06 1.5732212e-05 1.8226317e-05 9.784624e-06
0003d0 91 22 8a 37 4b 97 8e 37 fc a7 dd 36 8f b1 86 37
       1.6466978e-05 1.699817e-05 6.605869e-06 1.6056727e-05
0003e0 bd de a0 37 c0 4b 3e 37 87 20 81 37 8f 5c 8d 37
       1.9177207e-05 1.1342519e-05 1.5393145e-05 1.685161e-05
0003f0 09 18 3f 36 34 fe 87 37 b0 10 a4 37 6c 58 9f 36
       2.8475208e-06 1.6211627e-05 1.9558094e-05 4.748863e-06
