Assets/results/CubeAgent12/AutoAgentFinale/AutoAgentFinale-67662.onnx (onnx, 89226 bytes, 11 tensors)

60 f4 [33]
0	0x3b7bf1b5	0.003844363
1	0x3efbb0f2	0.49158436
2	0x3eb6da70	0.3571353
3	0x3b7bf1b5	0.003844363
4	0x3efc0fa7	0.49230692
5	0x3eba2446	0.363558
6	0x3b7bf1b5	0.003844363
7	0x3efe4250	0.49659967
8	0x3ebb9920	0.36640263
9	0x3b7bf1b5	0.003844363
10	0x3efe4786	0.49663943
11	0x3ebb91d8	0.36634707
12	0x3b7bf1b5	0.003844363
13	0x3effffe2	0.4999991
14	0x3ebf7507	0.37393972
15	0x3b7bf1b5	0.003844363
16	0x3effe083	0.49975976
17	0x3ebbc6bf	0.3667507
18	0x3b7bf1b5	0.003844363
19	0x3eff82eb	0.4990457
20	0x3ec06d7e	0.37583536
21	0x3b7bf1b5	0.003844363
22	0x3effd4dc	0.49967086
23	0x3eba6f2e	0.36412948
24	0x3b7bf1b5	0.003844363
25	0x3efe72f5	0.4969708
26	0x3ec01b57	0.3752086
27	0x3b7bf1b5	0.003844363
28	0x3eff3e69	0.49852303
29	0x3eb85c58	0.36007953
30	0x3b7bf1b5	0.003844363
31	0x3efd59d2	0.4948259
32	0x3ebf07f2	0.3731075

63 f4 [6]
0	0x3f072eef	0.5280599
1	0x3d73555a	0.05940757
2	0x3ee198e6	0.44061965
3	0x422bc328	42.940582
4	0x3ea29a04	0.3175813
5	0x3f64a386	0.89312017

action_model._continuous_distribution.log_sigma f4 [1, 2]
0	0xbf3a4ad5	-0.72770435
1	0xbee63b9a	-0.44967347

action_model._continuous_distribution.mu.bias f4 [2]
0	0x3d26a6dc	0.040686473
1	0x3b4ad752	0.0030951095

action_model._continuous_distribution.mu.weight f4 [2, 127]
0	0xbde89909	-0.11357314
1	0x3ca2fa4e	0.019894745
2	0xbc5f69a7	-0.013636029
3	0x3d88a3ec	0.066718906
4	0xbc5c685a	-0.013452614
5	0xbd04a0e5	-0.032380003
6	0xbc3bcb4a	-0.011462042
7	0xbd08dc71	-0.033413354
8	0xbc865047	-0.016395701
9	0x3d05afd4	0.032638386
10	0xbd7b316f	-0.06132644
11	0x3d11cf6c	0.035598204
12	0xbd83b2f1	-0.06430615
13	0xbd7b71a3	-0.06138767
14	0xbdec94b8	-0.11551803
15	0xbd9ec994	-0.07753292
16	0xbb9b8d39	-0.0047470597
17	0xbe0f9953	-0.14023332
18	0xbe047277	-0.1293429
19	0xbda57432	-0.08078803
20	0x3dfea3ee	0.12433611
21	0xbb3d272d	-0.0028862462
22	0xbd2b4a60	-0.041818976
23	0x3ca90509	0.020632284
24	0x3daa2356	0.08307521
25	0xbce39568	-0.027781203
26	0xbae95425	-0.0017801566
27	0x3ca44ea5	0.020057032
28	0xbc0ddc7b	-0.008658524
29	0xbdf0f55d	-0.11765549
30	0x3c30a1f2	0.010780798
31	0x3be1706f	0.006879858
32	0xbd546774	-0.051856473
33	0x3cafa992	0.021443162
34	0xbc474d6d	-0.012164456
35	0xbcc590ce	-0.0241169
36	0x3cc25f27	0.023727013
37	0xbdb87802	-0.09007265
38	0xbd4ef0e5	-0.050522704
39	0x3df999f2	0.12187566
40	0xbe044e87	-0.12920581
41	0xbe0b0e7f	-0.13579749
42	0xbd9649e3	-0.073383115
43	0xbb4d06e2	-0.003128462
44	0x3bb72f2e	0.005590341
45	0xbc750f0e	-0.014957203
46	0x3bb7d568	0.005610157
47	0xbc750637	-0.014955095
48	0x3ceff793	0.029292857
49	0xbd1aa4df	-0.03775489
50	0xbcb2e169	-0.021836
51	0xbd5feab4	-0.05466719
52	0xbddebb0f	-0.10875522
53	0xbdd6da53	-0.10490861
54	0xbbb9d149	-0.0056707007
55	0xbbd43fe3	-0.0064773425
56	0x3d1edce0	0.03878486
57	0xbba7e641	-0.005123884
58	0xbca2e3ea	-0.019884069
59	0xbb8906e3	-0.004181729
60	0xba92ce48	-0.0011200393
61	0x3de8084a	0.11329706
62	0xbd404f45	-0.046950597
63	0x3d1a1d9e	0.0376259
64	0xbcdd22f2	-0.026994202
65	0x3dc95d35	0.09832231
66	0xbd8972fd	-0.067113854
67	0x3d02a606	0.031896614
68	0xbd96641b	-0.07343312
69	0xbdc16d3d	-0.09444664
70	0xbbad857e	-0.0052954545
71	0xbb54ea38	-0.0032488238
72	0x3c02fa94	0.007994313
73	0xbd94da34	-0.072681814
74	0xbd5da8a8	-0.05411592
75	0x3d3ee901	0.04660893
76	0xbc511592	-0.01276149
77	0xbcf659e8	-0.030072168
78	0xbc417f83	-0.011810186
79	0x3b273452	0.0025513363
80	0xbb9bcdc0	-0.004754752
81	0xbd0d35a1	-0.034474973
82	0xbd5bdb8a	-0.053676166
83	0xbcc5ff5e	-0.02416962
84	0x3c9f550f	0.019449739
85	0xbd2d1271	-0.042253915
86	0x3c3c6925	0.011499678
87	0xbc8e7d4e	-0.017393734
88	0xbbeac2f8	-0.0071643554
89	0x3d721385	0.059100647
90	0xbd10ea6b	-0.03537981
91	0x3c316a33	0.0108285425
92	0xbd6364d7	-0.05551609
93	0x3c2a7a32	0.01040511
94	0x3b84e75d	0.004055901
95	0xbd4f1ba3	-0.050563466
96	0x3d1c94a7	0.038227703
97	0xbcfde376	-0.03099225
98	0xbe2ac2fc	-0.16675943
99	0xbe209e23	-0.15685324
100	0xbc0ec6a1	-0.008714349
101	0x3dcd9a26	0.10039167
102	0xbc6b36d7	-0.014356337
103	0x3d0c17e1	0.03420246
104	0xbc53ff30	-0.012939259
105	0x3cf79c0b	0.030225774
106	0x3cb511cf	0.022103218
107	0xbc059350	-0.008152798
108	0xbdac2741	-0.084059246
109	0x3c650c0f	0.013979926
110	0x3d1a1f5c	0.037627563
111	0xbb814ffb	-0.003946302
112	0xbdcef494	-0.10105243
113	0xbc0d7562	-0.008633943
114	0x3c7ed09f	0.015552669
115	0xbcd3811f	-0.025818406
116	0xbd6665bb	-0.05624936
117	0x3cbc4fef	0.022987334
118	0x3ca797ed	0.020458186
119	0x3c5e3323	0.013561997
120	0x3d2c165e	0.04201352
121	0xbd18a201	-0.037263874
122	0x3cdfb3e6	0.027307462
123	0xbd16ec1d	-0.03684627
124	0xbbaae93f	-0.0052157934
125	0xba06880e	-0.0005131968
126	0xbda6c72f	-0.0814346
127	0xbd001471	-0.031269494
128	0x3bae7bb4	0.005324805
129	0xbd918c1d	-0.071068026
130	0x3d63c042	0.055603273
131	0x3cf680cd	0.030090714
132	0x3d7192bd	0.05897783
133	0xbcbb1050	-0.022834927
134	0x3d9c650d	0.076364614
135	0xbd2cc711	-0.042182032
136	0x3c8fc1f2	0.017548535
137	0x3cffc933	0.031223869
138	0xbdaff922	-0.0859244
139	0x3daeba9d	0.085316874
140	0x3d5a1cc0	0.053250074
141	0xbd28a0f0	-0.041169107
142	0x3cdfda16	0.027325671
143	0x38ba82c1	8.893526e-05
144	0xbe080650	-0.13283658
145	0x3d5ce345	0.05392768
146	0xbc1f3ad0	-0.009718612
147	0x3d28f04d	0.041244794
148	0x3a8076b7	0.0009801005
149	0x3c85b3b4	0.01632104
150	0x3c2aa0ac	0.010414284
151	0xbdb9d336	-0.090734884
152	0x3d4a1017	0.04933175
153	0x3bc1934c	0.0059074517
154	0x3c96a59e	0.01838952
155	0xba8c8750	-0.0010721479
156	0x3c8b5888	0.017009988
157	0x3dc8400f	0.09777843
158	0x3cd8c711	0.02646211
159	0xbc4bf206	-0.01244784
160	0x3d88fef7	0.06689256
161	0x3d5dc034	0.054138377
162	0x3d890686	0.06690697
163	0x3d8e47df	0.06947302
164	0xbb7515d0	-0.0037397034
165	0x3c7973f4	0.015225399
166	0xbc11fe01	-0.008910657
167	0x3c9a3456	0.018823784
168	0x3e064d16	0.13115343
169	0x3df57c86	0.119866416
170	0x3daf0c1c	0.085472316
171	0x3bd6e55d	0.006558104
172	0x3bc244a5	0.005928593
173	0x3e11e7ab	0.1424853
174	0x3c22ff86	0.009948617
175	0xbde3cbc2	-0.11122848
176	0x3e136204	0.14392859
177	0x3c965639	0.018351661
178	0x3e4f7087	0.2025777
179	0x3a1f868b	0.0006085417
180	0x3d432f07	0.04765227
181	0xbd458133	-0.048218917
182	0x3c34f892	0.011045592
183	0x3dcfbb16	0.10143106
184	0x3c33aedc	0.010966983
185	0x3d28e0cc	0.041230008
186	0xbcdc881b	-0.026920369
187	0x3c6bbad3	0.014387804
188	0xbd8418b8	-0.06450027
189	0x3db630cc	0.08896026
190	0xbdfedeac	-0.12444815
191	0x3d282664	0.041052237
192	0x3d5d3f93	0.054015707
193	0x3e00c1ab	0.12573878
194	0xbcaedf7f	-0.021346806
195	0xbc77d24f	-0.015125825
196	0x3c384c51	0.011248664
197	0x3cc223f4	0.023698784
198	0xbc5c50a9	-0.013446965
199	0x3d0cc4d0	0.034367383
200	0xbd94addb	-0.07259723
201	0x3dd57568	0.10422784
202	0xbd09ccfa	-0.033642747
203	0x3c27a18a	0.010231385
204	0x3c115a87	0.008871681
205	0xbbe213e3	-0.0068993433
206	0x3d36d334	0.044635013
207	0x3c192e7c	0.009349462
208	0x3da303d1	0.07959712
209	0xbc50cddb	-0.012744392
210	0x3bf01407	0.007326606
211	0x3d8e94ba	0.06961961
212	0xbce92fd1	-0.028465183
213	0xbcee7364	-0.029107757
214	0xbdce5a50	-0.100758195
215	0xba84d9e4	-0.0010135737
216	0xb94d3cb4	-0.00019572937
217	0xbe07e62d	-0.13271399
218	0x3b318093	0.0027084693
219	0x3d54670c	0.051856086
220	0xbd3ee660	-0.04660642
221	0x39c9b713	0.00038474108
222	0xbd2302f7	-0.03979775
223	0x3a2b6a60	0.00065389834
224	0x3d62697c	0.05527638
225	0x3cd107d7	0.025516434
226	0x3d120b06	0.035655044
227	0x3d000cdf	0.031262275
228	0x3d78406b	0.06060831
229	0xbc0f1d6d	-0.008735043
230	0x3d4b8ec6	0.049696706
231	0xbaab510e	-0.0013070421
232	0xbe0d62cc	-0.1380722
233	0x3ccf42d1	0.025300415
234	0x3da76132	0.081728354
235	0xbd003917	-0.031304445
236	0x3debd697	0.11515539
237	0xbd43b39a	-0.047778703
238	0x3c0a6082	0.008445861
239	0xbdfa6ee1	-0.1222818
240	0xbd023281	-0.031786446
241	0xbd17b1e3	-0.03703488
242	0xbc23811e	-0.009979514
243	0x3c0792cd	0.008274746
244	0x3d4a7675	0.049429376
245	0x3da80f09	0.08205993
246	0x3c188882	0.00930989
247	0xbd8540b2	-0.0650648
248	0x3d1d8f8c	0.038466975
249	0x3da32c17	0.07967394
250	0xbdbc3968	-0.09190637
251	0xbce8f885	-0.028438816
252	0x3d924845	0.071426906
253	0xbceca7da	-0.028888632

network_body._body_endoder.seq_layers.0.bias f4 [127]
0	0x3a938cbc	0.0011257152
1	0xbcabda7d	-0.020978207
2	0x3c641108	0.013920076
3	0x3c6c596a	0.014425615
4	0xbd95d798	-0.07316512
5	0x3cdc6db3	0.026907777
6	0xbcbd2527	-0.023089005
7	0xbd1e53ce	-0.03865414
8	0xbcd70252	-0.026246224
9	0xbce117ba	-0.027477134
10	0x3ca27bd4	0.019834436
11	0x3c2e5e93	0.010642665
12	0xbdacd491	-0.08438981
13	0xbc60c0e6	-0.013717866
14	0xbd9f24f8	-0.07770723
15	0xbc4b6fd5	-0.0124168
16	0x3cea19f4	0.028576829
17	0xbd2cee1d	-0.04221927
18	0xbd571e99	-0.052519415
19	0xbd63670f	-0.055518206
20	0xbd266f99	-0.04063377
21	0xbdcfcec4	-0.10146859
22	0xbd290f5a	-0.041274406
23	0xbc00b53e	-0.0078557115
24	0xbd2fd93d	-0.042931784
25	0x3d4258e0	0.04744804
26	0xbdb9a66b	-0.09064945
27	0xbcca31c4	-0.024681933
28	0xbc9e9e2c	-0.019362532
29	0x3d2c1033	0.042007636
30	0xbb641f10	-0.0034808554
31	0xbd41a910	-0.04728037
32	0xbd9771fa	-0.07394786
33	0xbd5ec454	-0.05438645
34	0xbcb13252	-0.02163044
35	0xba72b5e3	-0.00092586706
36	0x3c8a27fb	0.016864767
37	0xbd7b1165	-0.061295886
38	0xbd663701	-0.0562048
39	0xbb0f8431	-0.002189886
40	0xbd34a170	-0.04409927
41	0xbd393571	-0.04521698
42	0xbccfabb0	-0.025350422
43	0x3cad4668	0.021151736
44	0xbde33922	-0.110948816
45	0xbdf26f39	-0.1183762
46	0xbcdc56b9	-0.026896821
47	0x3c12075e	0.008912889
48	0xbd5707c1	-0.05249763
49	0xbc713bb3	-0.014723706
50	0xbdc6e00f	-0.097107045
51	0xbb9b76d6	-0.004744391
52	0xbdf45cf0	-0.11931789
53	0xbdd8e4a9	-0.105904885
54	0x3dad759d	0.084696986
55	0x3d0bfd86	0.034177326
56	0x3d246ad6	0.04014095
57	0xbd8a9e6f	-0.067685
58	0xbd77475a	-0.06037078
59	0xbdd1beaa	-0.102414444
60	0xbd30c2ad	-0.043154407
61	0xbbb7750c	-0.00559867
62	0x3d12c4e0	0.035832286
63	0x3bc1e69c	0.0059173834
64	0x3a8c806c	0.0010719425
65	0xbaef285d	-0.0018246282
66	0xbcf59215	-0.029976884
67	0xbcefa213	-0.029252088
68	0xbc209ca5	-0.009802972
69	0xbcbf041a	-0.023317385
70	0x3c014da5	0.007892047
71	0xbbf9b4cb	-0.007620429
72	0x3b4ef35b	0.0031578157
73	0xbc6a3c44	-0.014296595
74	0xbcd67181	-0.02617717
75	0x3d5192f6	0.051165543
76	0x3d0584a7	0.03259721
77	0xbcec9bff	-0.028882978
78	0xbca12fba	-0.019676078
79	0x3c52da1e	0.012869386
80	0xbdc87be0	-0.09789252
81	0x3d1e16b9	0.03859589
82	0xba63c746	-0.0008689057
83	0xbd16b242	-0.036791094
84	0x3b75bc1c	0.0037496155
85	0x3d37c482	0.04486514
86	0xbd8d0670	-0.068859935
87	0xbc8c6ffe	-0.017143246
88	0x3d840398	0.06445998
89	0x3c8efed3	0.017455494
90	0xbcde50ee	-0.0271382
91	0x3d046dc2	0.032331236
92	0x3d074b9d	0.033031095
93	0x3952f8f8	0.00020119909
94	0x3d3120f9	0.043244336
95	0xbd3ae5b7	-0.04562923
96	0xbd5bf9a1	-0.05370486
97	0x3b363a6e	0.0027805823
98	0x3d590f85	0.052993316
99	0xbdc8a145	-0.09796385
100	0x3bc78540	0.0060888827
101	0x3d3a8b83	0.045543205
102	0xbd76aeed	-0.060225416
103	0xbe0348d2	-0.12820747
104	0xbcba731e	-0.02275997
105	0x3dcc2258	0.09967488
106	0xbb9300c4	-0.0044861753
107	0xbd270fed	-0.040786672
108	0x3d874dc5	0.0660663
109	0xbde5e694	-0.1122562
110	0x3d02d715	0.0319434
111	0xbe142d8c	-0.144705
112	0x3d30d9d3	0.043176483
113	0x3d73ed4c	0.059552476
114	0xba180e75	-0.0005800494
115	0xbd8598e2	-0.06523301
116	0x3b610764	0.003433668
117	0xbe08b301	-0.13349535
118	0xbd229945	-0.03969695
119	0x3c419b49	0.011816808
120	0xbce03c4b	-0.0273725
121	0xbd33b116	-0.043870054
122	0xbc6363bc	-0.013878759
123	0xbd2d8543	-0.042363416
124	0xbd839363	-0.06424596
125	0xbd9e667b	-0.0773439
126	0xbd1739f0	-0.036920488

network_body._body_endoder.seq_layers.0.weight f4 [127, 39]
0	0xbd4d3165	-0.050095934
1	0xbd5e1e22	-0.054227956
2	0x3bbe097e	0.0057994714
3	0xbe260852	-0.16214111
4	0xbd8e144d	-0.06937466
5	0x3e9a0ab4	0.3008629
6	0x3d6aff76	0.057372533
7	0x3e4cb1a4	0.1998964
8	0xbe347ca9	-0.17625679
9	0xbe182b2a	-0.14860216
10	0x3c9b501a	0.018959094
11	0x3e6a5a12	0.22885922
12	0xbcffc302	-0.031220917
13	0xbd5efbdc	-0.05443941
14	0xbbec5a8a	-0.0072129415
15	0x3d308232	0.043092914
16	0x3e95a1f5	0.29225126
17	0x3ddb662b	0.10712846
18	0x3d7eb5c8	0.06218508
19	0x3d1789e4	0.036996737
20	0xbe1621de	-0.14661357
21	0xbc1ec751	-0.009691075
22	0xbecd7d13	-0.40134487
23	0x3b85fe52	0.0040891552
24	0xbea5657f	-0.32303998
25	0x3e4843f4	0.19557172
26	0x3e1a7cc6	0.1508666
27	0x3bc6b1bf	0.0060636695
28	0x3dac61c6	0.08417086
29	0xbd7a63c6	-0.061130308
30	0xbda28d18	-0.07937068
31	0x3d701866	0.05861702
32	0xbdccae3b	-0.09994169
33	0xbd43e283	-0.04782344
34	0x3db6e8cb	0.089311205
35	0x3e037a3a	0.12839594
36	0x3eb14a49	0.34626988
37	0x3efbaae5	0.4915382
38	0x3d5110c1	0.05104137
39	0x3e8a7808	0.27044702
40	0x3d411145	0.04713561
41	0x3dc3b499	0.09555931
42	0x3e86113c	0.26185024
43	0x3e4255b5	0.18978007
44	0xbdc544fe	-0.096323
45	0x3e137f3a	0.14404002
46	0xbe722996	-0.23648676
47	0x3e4d9fa8	0.20080435
48	0xbd9e18ac	-0.077195495
49	0xbe7e717d	-0.2484798
50	0x3e0d9c45	0.13829143
51	0xbe38331e	-0.1798825
52	0x3e980330	0.29689932
53	0xbd2abe1a	-0.0416852
54	0xbe88879d	-0.26665965
55	0xbd71a958	-0.05899939
56	0xbe9708e6	-0.29498976
57	0x3db4a94c	0.08821353
58	0xbeb21efc	-0.34789264
59	0xbe1ad18e	-0.15119001
60	0x3e3714a8	0.17878973
61	0xbe99ac8b	-0.30014452
62	0x3e849e67	0.259021
63	0x3bb32621	0.005467192
64	0x3ef1b35d	0.47207156
65	0x3deaf0b5	0.114716925
66	0xbe92a518	-0.28641582
67	0xbc51d9e6	-0.012808299
68	0x3d4efa79	0.050531838
69	0x3e1d592c	0.15366048
70	0x3e33d0c0	0.175601
71	0xbe09579f	-0.13412331
72	0xbe099610	-0.1343615
73	0x3e591577	0.21199594
74	0x3dab4750	0.08363211
75	0xbd358dce	-0.04432469
76	0x3e6bd9be	0.23032281
77	0xbe9517ee	-0.2911982
78	0xbdd7235a	-0.1050479
79	0xbcd0072d	-0.025394047
80	0xbe191f08	-0.14953244
81	0xbe05492c	-0.13016194
82	0x3b3364d7	0.0027373338
83	0x3ebf4b1b	0.37361988
84	0xbe5c1659	-0.214929
85	0xbc395287	-0.01131118
86	0x3e16161c	0.14656872
87	0xbe44bc44	-0.19212443
88	0xbcb3b728	-0.021937922
89	0x3e6e6f50	0.2328465
90	0x3d28580f	0.041099604
91	0xbe8fee32	-0.28111416
92	0x3c06f08a	0.00823606
93	0xbe57c036	-0.21069416
94	0x3ec67c55	0.38766733
95	0xbe9d1f8a	-0.30688125
96	0x3e8aa8f5	0.2708203
97	0xbd4436fa	-0.047903992
98	0x3df09c7b	0.11748596
99	0x3e82540e	0.25454754
100	0x3d528adc	0.051401958
101	0xbc51b012	-0.012798326
102	0x3cf06037	0.029342754
103	0xbe41af76	-0.1891459
104	0x3e8e88f2	0.27838856
105	0xbec211a7	-0.37904093
106	0xbedaba92	-0.42720467
107	0x3e1b2501	0.15150835
108	0x3e0e806a	0.13916174
109	0x3c5bea73	0.013422596
110	0x3d3ab8d7	0.045586433
111	0xbda7dbf5	-0.0819625
112	0xbecbb194	-0.3978392
113	0x3eb42ef9	0.35192087
114	0x3e6aeb96	0.22941431
115	0x3de5a1da	0.11212511
116	0xbe200d76	-0.15630135
117	0x3e87537a	0.26430875
118	0x3e134265	0.14380796
119	0xbe8926b5	-0.26787344
120	0xbdcaebda	-0.09908266
121	0x3e556784	0.2084027
122	0x3c87a7bb	0.016559472
123	0x3e337413	0.17524748
124	0x3e0e5af1	0.13901879
125	0xbe793d97	-0.24339901
126	0xbc837759	-0.01604812
127	0xbdeb2388	-0.114813864
128	0x3e00ec13	0.12590055
129	0xbe6da926	-0.23209056
130	0x3dc3d215	0.09561554
131	0xbe4d26d5	-0.20034344
132	0xbdfe8d9f	-0.12429356
133	0x3c0da26b	0.0086446805
134	0xbdc88743	-0.09791424
135	0x3b502aa7	0.0031763704
136	0xbe50dda3	-0.20397048
137	0xbe84680f	-0.2586064
138	0xbe091e5e	-0.1339049
139	0x3ccc0cfa	0.024908531
140	0xbd7b9d8b	-0.06142954
141	0x3dc7ae47	0.09750038
142	0xbd7560f8	-0.05990693
143	0x3dc2faa6	0.09520464
144	0x3d240034	0.040039256
145	0xb986f15e	-0.00025738304
146	0x3e680f75	0.22662146
147	0xbde64d96	-0.11245267
148	0xbe67be7f	-0.22631262
149	0x3e6769f9	0.22599019
150	0xbd870863	-0.065933965
151	0xbe4b6858	-0.19864023
152	0xbe917685	-0.28410736
153	0x3d9abd63	0.07555654
154	0x3e8b9b49	0.2726691
155	0xbe549e03	-0.20763402
156	0xbd623932	-0.055230327
157	0x3e90e5e7	0.28300402
158	0xbdde93f1	-0.10868061
159	0x3debeb71	0.11519516
160	0xbd14ec14	-0.036357954
161	0xbe37aac4	-0.17936236
162	0xbd215a4b	-0.03939275
163	0x3edd1e4a	0.4318717
164	0x3e276176	0.16345772
165	0x3d82332c	0.063574165
166	0x3d21254f	0.03934222
167	0xbd2eba40	-0.04265809
168	0xbe8b8dac	-0.27256525
169	0xbd346fd3	-0.044051956
170	0x3e99a697	0.3000991
171	0x3e017de0	0.12645674
172	0xbdf41887	-0.11918741
173	0xbd27fac8	-0.041010648
174	0x3daa6118	0.083193004
175	0x3cf02e23	0.029318875
176	0x3d8ca61c	0.0686762
177	0x3e6d1d07	0.23155604
178	0xbc7df9a5	-0.015501414
179	0x3e293a6f	0.16526197
180	0x3e12f9e6	0.14353141
181	0x3d88754c	0.066629976
182	0xbd1c1457	-0.038105335
183	0xbeac3e42	-0.3364125
184	0xbd87601f	-0.066101305
185	0xbe1a1026	-0.15045223
186	0xbe200051	-0.1562512
187	0xbdff0fac	-0.12454161
188	0x3de4e2b4	0.11176053
189	0xbca7409c	-0.02041655
190	0x3e0639f0	0.13108039
191	0x3e85e3de	0.2615041
192	0x3e72a079	0.23694028
193	0x3e15873c	0.14602369
194	0x3dbd3921	0.09239412
195	0x3d8ebcc1	0.06969596
196	0xbeb22036	-0.347902
197	0xbe93cbd6	-0.28866452
198	0xbe46c153	-0.19409685
199	0x3e17b615	0.14815553
200	0x3ed30bff	0.4122009
201	0xbe274919	-0.16336478
202	0x3e089a2d	0.13340063
203	0xbc54225c	-0.012947645
204	0x3e24a762	0.16079476
205	0x3e270aca	0.1631271
206	0xbe04a7ab	-0.12954585
207	0x3e084bf3	0.13310222
208	0xbd8c243e	-0.0684285
209	0xbe99247b	-0.29910645
210	0x3e82df7d	0.25561133
211	0x3e1a6075	0.15075858
212	0x3e2d2d68	0.16911852
213	0xbcce1670	-0.025157183
214	0xbd1e6aa3	-0.038675915
215	0xbdbf2288	-0.09332758
216	0xbdc41bd2	-0.09575619
217	0x3e5aecb5	0.21379359
218	0xbeb29c21	-0.34884742
219	0x3d256cd1	0.04038698
220	0x3e4d267a	0.20034209
221	0xbc84a24a	-0.016190667
222	0xbd8478d6	-0.0646836
223	0xbd0ac6b5	-0.033880908
224	0x3d83884b	0.0642248
225	0x3df29bbe	0.11846112
226	0x3e42876a	0.18996969
227	0x3e3e2f00	0.18572617
228	0xbd2733b9	-0.04082081
229	0xbd32f5b5	-0.043691356
230	0xbd5325ca	-0.05154971
231	0x3e6eca06	0.23319253
232	0x3edab0ed	0.4271311
233	0xbe6eff5e	-0.23339602
234	0x3ce38f38	0.027778253
235	0xbe626656	-0.2210935
236	0xbd6b16dc	-0.057394847
237	0x3d1b825c	0.037966117
238	0xbdca9c21	-0.098930605
239	0x3deece8f	0.11660492
240	0xbe129c9a	-0.14317551
241	0xbdaaa432	-0.08332099
242	0xbea8e5cb	-0.32987818
243	0x3d29f4de	0.04149329
244	0xbe9840fc	-0.2973708
245	0xbeab7513	-0.33487758
246	0xbddf10ff	-0.108919136
247	0x3ea708ce	0.32623905
248	0x3d70963b	0.05873702
249	0x3db6728b	0.08908566
250	0xbe716d81	-0.23576929
251	0x3cd6d048	0.026222363
252	0xbc2ac59c	-0.01042309
253	0x3e255e39	0.16149224
254	0xbdd05acf	-0.1017357
255	0x3e18570c	0.14876956

network_body._body_endoder.seq_layers.2.bias f4 [127]
0	0xbd8870e6	-0.06662159
1	0xbd1578ac	-0.036492035
2	0xbd48dd3d	-0.049039114
3	0xbc8b1d8a	-0.016981859
4	0xbdf0420f	-0.1173135
5	0xbd95705d	-0.07296822
6	0xbd1ee537	-0.038792815
7	0xbd53d202	-0.05171395
8	0xbd78e960	-0.06076944
9	0xbc8dbf10	-0.01730302
10	0xbd58c19a	-0.052919008
11	0xbc713310	-0.014721647
12	0xbd351fcc	-0.044219777
13	0xbd7a8b87	-0.06116822
14	0xbdbcab94	-0.092124134
15	0xbd65025a	-0.055910446
16	0xbd42f1aa	-0.04759375
17	0xbdd58378	-0.10425466
18	0xbd866118	-0.06561488
19	0xbdbb2581	-0.09138013
20	0x3d05d1dd	0.032670844
21	0xbd14ad06	-0.03629782
22	0xbda6804d	-0.0812994
23	0xbd846861	-0.06465221
24	0x3c1bd258	0.009510599
25	0xbd08950b	-0.033345263
26	0xbd1c4765	-0.038154025
27	0xbd4d28c7	-0.050087716
28	0xbd04eaa9	-0.032450352
29	0xbd6142d2	-0.054995365
30	0xbd1139d9	-0.03545556
31	0xbd69e925	-0.05710711
32	0xbdf5bf08	-0.11999327
33	0xbc6f178a	-0.0145930145
34	0xbc932742	-0.017963056
35	0xbd40c23f	-0.047060248
36	0x3c54b50d	0.012982619
37	0xbd969318	-0.07352275
38	0xbdbbdc63	-0.09172895
39	0xbba15941	-0.00492397
40	0xbd6007f4	-0.054695085
41	0xbcc18a82	-0.023625616
42	0x3cd57d50	0.02606073
43	0xbd130f70	-0.035903394
44	0xbda72895	-0.08162037
45	0xbde88ffc	-0.11355588
46	0x3cfeb068	0.031089976
47	0xbba6ee6a	-0.005094339
48	0x3b74fd69	0.003738249
49	0xbd8ea0c0	-0.069642544
50	0xbd89f4db	-0.067361556
51	0xbcb1f834	-0.021724798
52	0xbd9c2504	-0.07624248
53	0xbd4fc11d	-0.050721277
54	0xbdac3187	-0.08407884
55	0xbd78c0df	-0.06073081
56	0x3b886643	0.004162581
57	0x3ba00eba	0.004884568
58	0xbd0ce382	-0.034396656
59	0xbd3852f5	-0.04500099
60	0xbda04345	-0.07825331
61	0x3d045d59	0.032315586
62	0xbce8ba1e	-0.02840906
63	0xbb75c32d	-0.0037500367
64	0xbd33be61	-0.04388273
65	0x3ccb95c7	0.024851693
66	0xbd39183a	-0.04518912
67	0x3c800878	0.015629038
68	0xbde61e23	-0.11236217
69	0xbdcf3f48	-0.10119492
70	0xbd955025	-0.07290677
71	0xbd2275ef	-0.03966325
72	0xbc877999	-0.016537474
73	0xbe074a8f	-0.13212036
74	0xbcd09c82	-0.025465254
75	0xbc0434da	-0.008069241
76	0xbd33c82c	-0.04389207
77	0xbd1a5cee	-0.03768628
78	0xbd5989f3	-0.053110074
79	0xbd76d017	-0.060257044
80	0xbd26398a	-0.040582217
81	0xbcc86c21	-0.024465622
82	0xbda721ad	-0.0816072
83	0xbd92cf06	-0.07168393
84	0xbd467f90	-0.048461497
85	0xbd7c48e2	-0.061592944
86	0xbd143628	-0.03618446
87	0xbd26c72e	-0.040717296
88	0xbdd91f1a	-0.10601635
89	0xbc9e91fb	-0.019356718
90	0xbd5c0fed	-0.053726126
91	0xbd2c4e55	-0.04206689
92	0xbd0410bc	-0.03224252
93	0xbd95f60b	-0.073223196
94	0xbc80a96b	-0.015705785
95	0xbd56cdcf	-0.052442368
96	0xbc45950c	-0.012059461
97	0xbd598b2a	-0.053111233
98	0xbdadba30	-0.08482778
99	0xbd8015cb	-0.06254157
100	0xbd16843e	-0.03674721
101	0x3d0b710a	0.03404335
102	0xbd9cfd8c	-0.07665548
103	0x3c6beb24	0.014399324
104	0xbda2b7a0	-0.0794518
105	0xbd43192a	-0.04763142
106	0xbd04a26c	-0.03238146
107	0x3be43fbc	0.0069656055
108	0xbdec68a3	-0.11543395
109	0xbda61287	-0.081090026
110	0xbc5f05a1	-0.013612182
111	0xbd9ec1f7	-0.077518396
112	0xbd8ad7ef	-0.06779467
113	0xbd8235cd	-0.06357918
114	0xbd481610	-0.048849165
115	0xbdc5326f	-0.0962876
116	0xbdc8f1a3	-0.098117135
117	0xbd437b00	-0.047724724
118	0xbc6b29c3	-0.0143532185
119	0xbc866d34	-0.016409494
120	0x3be15a73	0.0068772375
121	0xbd8f7e54	-0.07006517
122	0xbc1e0f4c	-0.009647202
123	0xbdb677b6	-0.08909552
124	0xbdfa9763	-0.12235906
125	0xbd952adf	-0.07283568
126	0xbd6d9964	-0.058007613

network_body._body_endoder.seq_layers.2.weight f4 [127, 127]
0	0x3d536108	0.051606208
1	0xbdcf1ee0	-0.10113311
2	0x3da73982	0.081652656
3	0x3dd7f9ed	0.105457164
4	0x3d92ac9f	0.07161831
5	0x3e5162e8	0.20447886
6	0xbd451939	-0.048119757
7	0x3d810ade	0.06300901
8	0x3dccb208	0.09994894
9	0xbe02b041	-0.12762548
10	0xbd69f1d8	-0.057115406
11	0xbdb02da9	-0.08602459
12	0x3d4b5cea	0.049649157
13	0x3cffba1f	0.03121668
14	0xbdfdc06e	-0.12390219
15	0x3d8a1382	0.06742002
16	0xbe39ad53	-0.18132524
17	0xbd4cf561	-0.0500387
18	0xbd2a45c7	-0.04157045
19	0x3cefe4f3	0.029283976
20	0xbd7dd346	-0.061969064
21	0xbc60b65e	-0.013715355
22	0x3c25c3f8	0.010117523
23	0x3e38be44	0.1804133
24	0x3df76bb1	0.120810874
25	0xbea7e27b	-0.32789978
26	0x3e491a9c	0.19639057
27	0x3e5a7d54	0.21336871
28	0x3d0260e0	0.03183067
29	0xbd81da3d	-0.06340454
30	0xbe6ee0f0	-0.23327994
31	0xbddc895a	-0.10768385
32	0xbecae8ed	-0.39630833
33	0xbd9b466b	-0.075817905
34	0x3b2a4114	0.002597873
35	0xbd4ae401	-0.049533848
36	0xbaf12a37	-0.0018399422
37	0x3e3a1b82	0.18174556
38	0x3e103056	0.14080939
39	0x3e4fe7ea	0.20303312
40	0x3d470be4	0.048595324
41	0xbe17c33c	-0.1482057
42	0xbcb707c8	-0.022342578
43	0xbe87a590	-0.26493502
44	0xbdc3466b	-0.095349155
45	0x3ce88246	0.028382432
46	0x3ca024e9	0.01954885
47	0xbdd45839	-0.1036839
48	0xbaacf6ae	-0.0013196075
49	0xbd43c366	-0.04779377
50	0xbd77d7cb	-0.06050853
51	0x3d24ca2a	0.04023186
52	0x3d6c178c	0.057639644
53	0x3e253ec2	0.16137221
54	0xbe701d97	-0.23448788
55	0xbe38b38c	-0.18037242
56	0xbd5ecda2	-0.054395325
57	0xbe0b3f6a	-0.1359841
58	0xbe1b77e1	-0.15182449
59	0x3d97fa11	0.07420743
60	0xbe59b906	-0.21261987
61	0x3dfd0193	0.12353816
62	0xbe04fc62	-0.12986901
63	0xbd9d8639	-0.076916166
64	0xbd959336	-0.07303469
65	0xbe0c28d6	-0.13687453
66	0xbe03a58a	-0.12856117
67	0xbafb0bd0	-0.0019153301
68	0x3df2bc0f	0.118522756
69	0x3de206b2	0.11036433
70	0xbbec1c8f	-0.007205553
71	0xbd37b98f	-0.044854697
72	0xbd0e37bf	-0.034721132
73	0x3d17e4ff	0.037083622
74	0x3d0344af	0.032047924
75	0xbd15d6e0	-0.036581874
76	0xbdd8e4f0	-0.10590541
77	0xbd95c526	-0.07312994
78	0x3d216a0b	0.03940777
79	0xbdbe4542	-0.09290554
80	0x3d906769	0.07050974
81	0xbe87047d	-0.26370612
82	0x3e4de55e	0.20107028
83	0xbe2d4079	-0.16919126
84	0xbd567381	-0.052356247
85	0xbde44938	-0.11146778
86	0x3d7597dc	0.059959278
87	0xbdca445a	-0.09876318
88	0xbe20495f	-0.15652989
89	0xbe374462	-0.1789718
90	0xbd3cd29d	-0.046099294
91	0xbe039827	-0.1285101
92	0xbcf85a49	-0.030316489
93	0xbc8069eb	-0.015675506
94	0x3d8f30d8	0.06991738
95	0xbdf971bc	-0.12179896
96	0x3b856fc1	0.00407216
97	0x3ccb038f	0.02478197
98	0xbd875109	-0.06607253
99	0xbd81f7d4	-0.063460976
100	0xbe4d810a	-0.20068756
101	0x3d9cba0d	0.07652674
102	0xbd5c1a2d	-0.0537359
103	0xbe0d2579	-0.13783826
104	0xbd0d0acb	-0.03443412
105	0x3d32e3cc	0.043674275
106	0x3d9b0d34	0.07570878
107	0x3e18176e	0.14852688
108	0xbd85e1f8	-0.06537241
109	0x3c1feae4	0.009760592
110	0xbe09ed11	-0.1346934
111	0xbe20fa75	-0.15720542
112	0xbe188b11	-0.148968
113	0x3d6f688c	0.058449313
114	0xbe5f7e8c	-0.21825618
115	0xbc9114f3	-0.017710185
116	0x3df559f0	0.11980045
117	0x3e1c0194	0.15234977
118	0xbcbd0f81	-0.023078682
119	0xbeaa8222	-0.33302408
120	0x3e0089f4	0.12552625
121	0xbe16d693	-0.14730291
122	0x3e166616	0.1468738
123	0x3d44c9d8	0.048044056
124	0x3d5e5be2	0.054286845
125	0x3cb584a3	0.022157973
126	0xbe0e7f9e	-0.1391587
127	0xbdc70698	-0.097180545
128	0xbd37b88a	-0.044853725
129	0xbdeb8b70	-0.11501205
130	0x3d0f8def	0.035047468
131	0xbcb14b42	-0.021642331
132	0xbdf6d9cd	-0.12053261
133	0x3db7e99c	0.08980104
134	0x3e172f6b	0.14764182
135	0xbc51321c	-0.012768295
136	0x3dda3d4e	0.10656224
137	0xbda494b3	-0.080361746
138	0x3d38318d	0.04496913
139	0xbdca580b	-0.09880074
140	0x3dc86974	0.097857386
141	0x3e2c6639	0.1683587
142	0x3ba19449	0.004931007
143	0xbd3e56fa	-0.046469666
144	0x3e40edb5	0.18840678
145	0xbe10f5b2	-0.14156225
146	0xbc3f1aa3	-0.0116640655
147	0xbd3421aa	-0.043977417
148	0xbd302f1b	-0.043013673
149	0xbe310f1d	-0.17290922
150	0xbd7479dd	-0.05968653
151	0xbd9b53a8	-0.075843155
152	0x3e0898ce	0.1333954
153	0x3d9531ac	0.07284865
154	0x3ca9bf65	0.020721147
155	0xbddc3f66	-0.1075428
156	0x3cc02193	0.02345351
157	0x3e2bc14a	0.16772953
158	0xbe01532b	-0.12629382
159	0xbddc02f3	-0.1074275
160	0x3cdf9993	0.02729491
161	0x3e417687	0.18892871
162	0xbe000b91	-0.12504412
163	0xbe473518	-0.19453847
164	0xbe1b4195	-0.15161736
165	0x3cf97c0f	0.030454664
166	0xbe2ab859	-0.16671886
167	0xbe70a7ac	-0.23501462
168	0xbd56f161	-0.05247629
169	0xbd329887	-0.043602493
170	0xbd98979c	-0.07450792
171	0x3e0e1496	0.1387504
172	0xbe17c328	-0.1482054
173	0xbdc1c873	-0.09462061
174	0xbd831251	-0.06399978
175	0x3a5918fa	0.0008281615
176	0xbe01497f	-0.12625693
177	0x3d264fc4	0.040603414
178	0x3cac2d0e	0.021017577
179	0xbcf208cb	-0.029545208
180	0xbdac4c71	-0.084130175
181	0xbcc74379	-0.024324166
182	0xbd9c7f73	-0.076414965
183	0xbd846aa5	-0.06465653
184	0xbd0a8abf	-0.033823725
185	0x3e2d1f2b	0.16906421
186	0xbe0ff41f	-0.14057969
187	0x3e1f2fb2	0.15545538
188	0xbbf1dbd3	-0.0073809414
189	0xbd6c44ad	-0.05768268
190	0x3d1ba409	0.037998233
191	0xbdc93b4e	-0.098257646
192	0x3df04e21	0.11733652
193	0xbe3592ac	-0.17731732
194	0xbced8ff5	-0.028999308
195	0xbcd7b75b	-0.026332548
196	0xbdb9a90c	-0.09065446
197	0xbe02ca5b	-0.12772505
198	0x3bed66d9	0.0072449264
199	0x3d7a9fa0	0.061187387
200	0xbd86187a	-0.06547637
201	0xbdd34a6b	-0.103169285
202	0x3af6cd13	0.0018829427
203	0xbbc64931	-0.0060512056
204	0x3e14c536	0.14528355
205	0xbd942bb0	-0.07234895
206	0xbd259367	-0.040423777
207	0x3d068fcc	0.03285198
208	0x3e21d05c	0.15802139
209	0xbd9e3163	-0.077242635
210	0xbe65062f	-0.2236564
211	0xbd10b37a	-0.035327412
212	0x3e04fd23	0.12987189
213	0xba1642a8	-0.00057319785
214	0x3e06421f	0.1311116
215	0x3dde04c8	0.10840756
216	0x3d58619b	0.05282746
217	0x3cc95bec	0.024579965
218	0x3b5f5d5c	0.0034082746
219	0xbd6316b9	-0.055441592
220	0xbd65a621	-0.056066636
221	0xbd77cae9	-0.060496245
222	0xbd9165ea	-0.07099517
223	0xbe09ed0d	-0.13469334
224	0x3c77cef9	0.01512503
225	0x3de1ae9b	0.110196315
226	0x3dbe4b6f	0.092917316
227	0x3d44b6ad	0.048025776
228	0x3c6d41a8	0.014480986
229	0x3de53299	0.11191291
230	0x3c3dd17e	0.011585591
231	0x3da30150	0.07959235
232	0x3c71558f	0.014729871
233	0x3dd3c5fd	0.10340498
234	0x3be57e1e	0.0070035597
235	0x3cef5b74	0.029218413
236	0x3d2adec7	0.041716363
237	0x3e0d4d83	0.137991
238	0x3e217f71	0.15771271
239	0x3e565702	0.20931628
240	0x3d274568	0.040837675
241	0x3e0dcd1e	0.13847777
242	0xbe1097d4	-0.14120418
243	0xbd6c60fc	-0.05770968
244	0xbd9701e3	-0.07373407
245	0xbe0ecd06	-0.13945398
246	0xbde17de8	-0.11010343
247	0x3b62d5fc	0.0034612408
248	0x3cb772e5	0.022393653
249	0x3d7a3b71	0.061091844
250	0x3e1cae00	0.1530075
251	0x3d58b4c0	0.05290675
252	0xbe632695	-0.22182687
253	0x3dfcf3a5	0.12351159
254	0xbdf596f2	-0.11991681
255	0x3d9a2479	0.07526488

network_body.observation_encoder.processors.0.normalizer.running_mean f4 [33]
0	0x00000000	0.0
1	0x3f176808	0.59143114
2	0x3f40f24a	0.75369704
3	0x00000000	0.0
4	0x3f16637e	0.58745563
5	0x3f3f665e	0.74765575
6	0x00000000	0.0
7	0x3f0eef6e	0.5583409
8	0x3f3b1fa3	0.7309515
9	0x00000000	0.0
10	0x3f0ed91d	0.5580004
11	0x3f3be486	0.73395574
12	0x00000000	0.0
13	0x3f0104fd	0.50398237
14	0x3f330092	0.69922745
15	0x00000000	0.0
16	0x3f04168a	0.5159689
17	0x3f380306	0.71879613
18	0x00000000	0.0
19	0x3ef0115a	0.46888238
20	0x3f2e0fc7	0.67992824
21	0x00000000	0.0
22	0x3ef681d6	0.48145932
23	0x3f357e05	0.70895416
24	0x00000000	0.0
25	0x3ee3cb59	0.4449108
26	0x3f2b88bf	0.6700553
27	0x00000000	0.0
28	0x3eec3d2d	0.46140423
29	0x3f34c061	0.70606047
30	0x00000000	0.0
31	0x3edb36a1	0.42815116
32	0x3f2abd9d	0.66695577

network_body.observation_encoder.processors.1.normalizer.running_mean f4 [6]
0	0xbf39071e	-0.72276485
1	0x3cfc87f4	0.030826546
2	0x3c53a88d	0.012918604
3	0x4259adb0	54.419617
4	0x3c8fa647	0.017535342
5	0x3e2af6dd	0.16695733
