Assets/results/CubeAgent12/AutoAgentFinale/AutoAgentFinale-2096.pt (torch, 540927 bytes, 52 tensors)

network_body.observation_encoder.processors.0.normalizer.running_mean f4 [33]
0.0 0.77253217 0.8453679 0.0 0.77348584 0.85311246 0.0 0.74964243
0.8318129 0.0 0.76204115 0.85854506 0.0 0.7257987 0.81972635 0.0
0.75202674 0.87161314 0.0 0.68288016 0.81711745 0.0 0.7300907 0.8838513
0.0 0.66523606 0.8352494 0.0 0.7162613 0.90110755 0.0 0.6323319
0.8590494
00000000: 0000 0000 abc4 453f 086a 583f 0000 0000
00000010: 2b03 463f 9465 5a3f 0000 0000 91e8 3f3f
00000020: b1f1 543f 0000 0000 2115 433f 9cc9 5b3f
00000030: 0000 0000 f2cd 393f 96d9 513f 0000 0000
00000040: d384 403f 0a22 5f3f 0000 0000 3cd1 2e3f
00000050: 9c2e 513f 0000 0000 39e7 3a3f 1444 623f
00000060: 0000 0000 e94c 2a3f e8d2 553f 0000 0000
00000070: e75c 373f fcae 663f 0000 0000 81e0 213f
00000080: a9ea 5b3f

network_body.observation_encoder.processors.0.normalizer.running_variance f4 [33]
1.0 369.49786 221.50267 1.0 368.40582 208.26706 1.0 394.5623
232.5787 1.0 381.25848 197.0769 1.0 418.33435 242.30243 1.0
392.05392 173.98703 1.0 455.1154 233.85527 1.0 414.2313 142.33844
1.0 467.9957 202.20464 1.0 427.1755 102.64264 1.0 488.52795
161.27136
00000000: 0000 803f babf b843 af80 5d43 0000 803f
00000010: f233 b843 5e44 5043 0000 803f f947 c543
00000020: 2694 6843 0000 803f 16a1 be43 b013 4543
00000030: 0000 803f cc2a d143 6c4d 7243 0000 803f
00000040: e706 c443 aefc 2d43 0000 803f c58e e343
00000050: f3da 6943 0000 803f 9b1d cf43 a456 0e43
00000060: 0000 803f 73ff e943 6334 4a43 0000 803f
00000070: 7796 d543 0849 cd42 0000 803f 9443 f443
00000080: 7845 2143

network_body.observation_encoder.processors.1.normalizer.running_mean f4 [6]
-0.99895453 0.0011566122 0.0003124727 481.10068 0.0901388 0.011195028
00000000: 7cbb 7fbf 7799 973a 60d3 a339 e38c f043
00000010: b19a b83d 5a6b 373c

network_body.observation_encoder.processors.1.normalizer.running_variance f4 [6]
2.000365 1.0000336 3.3790085 4.4089405e+06 118.39661 7.246625
00000000: fb05 0040 1a01 803f ad41 5840 d98c 864a
00000010: 10cb ec42 5ae4 e740

network_body.processors.0.normalizer.running_mean f4 [33]
0.0 0.77253217 0.8453679 0.0 0.77348584 0.85311246 0.0 0.74964243
0.8318129 0.0 0.76204115 0.85854506 0.0 0.7257987 0.81972635 0.0
0.75202674 0.87161314 0.0 0.68288016 0.81711745 0.0 0.7300907 0.8838513
0.0 0.66523606 0.8352494 0.0 0.7162613 0.90110755 0.0 0.6323319
0.8590494
00000000: 0000 0000 abc4 453f 086a 583f 0000 0000
00000010: 2b03 463f 9465 5a3f 0000 0000 91e8 3f3f
00000020: b1f1 543f 0000 0000 2115 433f 9cc9 5b3f
00000030: 0000 0000 f2cd 393f 96d9 513f 0000 0000
00000040: d384 403f 0a22 5f3f 0000 0000 3cd1 2e3f
00000050: 9c2e 513f 0000 0000 39e7 3a3f 1444 623f
00000060: 0000 0000 e94c 2a3f e8d2 553f 0000 0000
00000070: e75c 373f fcae 663f 0000 0000 81e0 213f
00000080: a9ea 5b3f

network_body.processors.0.normalizer.running_variance f4 [33]
1.0 369.49786 221.50267 1.0 368.40582 208.26706 1.0 394.5623
232.5787 1.0 381.25848 197.0769 1.0 418.33435 242.30243 1.0
392.05392 173.98703 1.0 455.1154 233.85527 1.0 414.2313 142.33844
1.0 467.9957 202.20464 1.0 427.1755 102.64264 1.0 488.52795
161.27136
00000000: 0000 803f babf b843 af80 5d43 0000 803f
00000010: f233 b843 5e44 5043 0000 803f f947 c543
00000020: 2694 6843 0000 803f 16a1 be43 b013 4543
00000030: 0000 803f cc2a d143 6c4d 7243 0000 803f
00000040: e706 c443 aefc 2d43 0000 803f c58e e343
00000050: f3da 6943 0000 803f 9b1d cf43 a456 0e43
00000060: 0000 803f 73ff e943 6334 4a43 0000 803f
00000070: 7796 d543 0849 cd42 0000 803f 9443 f443
00000080: 7845 2143

network_body.processors.1.normalizer.running_mean f4 [6]
-0.99895453 0.0011566122 0.0003124727 481.10068 0.0901388 0.011195028
00000000: 7cbb 7fbf 7799 973a 60d3 a339 e38c f043
00000010: b19a b83d 5a6b 373c

network_body.processors.1.normalizer.running_variance f4 [6]
2.000365 1.0000336 3.3790085 4.4089405e+06 118.39661 7.246625
00000000: fb05 0040 1a01 803f ad41 5840 d98c 864a
00000010: 10cb ec42 5ae4 e740

network_body._body_endoder.seq_layers.0.weight f4 [127, 39]
0.22166288 -0.12481436 0.16481957 -0.09090012 0.15925202 -0.40038556 0.335428 0.04377987
-0.0509931 -0.11529846 -0.1428725 -0.29920557 0.055126302 -0.14485352 0.15021454 0.16479477
-0.23179035 -0.13586383 -0.38082722 -0.000677802 0.16446584 0.2183787 0.031444628 0.20018975
-0.45921904 -0.04203333 -0.1807493 0.15978335 -0.07279176 -0.28606805 0.011262796 0.15914184
0.1445338 -0.11189867 -0.30921233 -0.10818194 -0.10386513 0.13067867 0.39052564 -0.030656455
-0.031681135 -0.14999172 -0.23032911 -0.013723114 0.053416748 0.045110673 -0.060184922 0.24470685
0.014150191 0.14726087 -0.12949581 -0.04713328 -0.06871129 -0.1559187 0.33089152 -0.15897185
-0.17234154 -0.041146826 -0.04819411 0.07470033 0.46312556 -0.11955764 -0.20226882 0.22064216
-0.066064134 0.07275336 -0.0055782977 0.05937821 0.14637627 -0.025592968 -0.17950405 0.16999513
0.111521564 0.13450493 -0.034635104 -0.28216738 -0.025650607 0.17162079 0.075644836 -0.18918358
0.21437149 -0.011432609 -0.016521446 0.24980234 -0.19242024 0.3692785 0.18721475 0.08386629
-0.24905244 0.059815645 0.01532988 0.014206126 -0.033170883 0.01496681 0.14598624 -0.18560266
-0.20742607 0.032468356 0.23435435 0.17157413 0.032240383 0.123923145 -0.14273141 -0.108971655
-0.05171006 0.17463234 0.13038115 0.1401498 0.20217842 -0.029200915 -0.32228613 0.15022203
-0.12546201 0.03081848 -0.18924 0.2783892 -0.08878504 -0.01669358 0.0817134 -0.12921742
-0.1325929 0.13992743 0.023333441 -0.025445815 0.0055814516 0.09197966 -0.20166932 -0.0628664
-0.14356063 0.38251677 0.045047633 0.189797 -0.21983925 0.09049397 0.051006246 0.091636695
0.009910156 0.0037751335 -0.05969978 0.0785489 0.13632612 -0.21653336 -0.11940779 -0.0043606493
0.23203053 -0.31304112 -0.022207206 0.07154641 0.39335826 0.12120456 -0.27114436 0.0033472362
-0.13949727 -0.22616172 -0.2325316 -0.09548883 -0.09415599 -0.026556835 -0.116288535 -0.33652344
-0.35609567 0.044336177 -0.03056706 0.08099182 -0.00693686 -0.10546241 0.058257576 -0.0857461
0.00971072 0.10057612 0.073390074 0.18812282 0.09139746 0.37571508 -0.11949258 0.26562986
0.23373288 0.17231816 -0.24021785 0.21332304 0.28176814 0.20000081 0.023645835 0.05296379
0.2625768 0.0377741 0.18237068 -0.0635166 -0.04120362 -0.20439331 0.078207284 -0.010788249
0.06048205 -0.11785 -0.2576529 0.04 -0.098518364 0.2540514 0.28845042 0.1985138
-0.0003767258 -0.2957135 0.1747227 0.012070823 -0.28006262 -0.25742188 0.14188026 -0.13932277
-0.2821871 0.07887653 -0.24894063 0.16725364 -0.05022496 -0.06539228 -0.13370667 0.24908552
-0.16511329 -0.025395079 0.032846253 -0.0017336917 -0.15678391 -0.13855821 -0.23215897 -0.20441276
0.042981684 -0.06733142 -0.17014389 -0.10162202 0.1330562 0.19041012 -0.0035151464 0.03250963
-0.1963123 -0.19284312 -0.039684586 0.31351426 0.113451675 0.13280815 -0.08206451 0.13573958
0.18121144 -0.3161972 -0.04147926 -0.20057043 0.17799148 -0.22311623 0.18060827 0.13028564
-0.044109657 -0.18889396 0.2408666 -0.17595279 -0.08913464 -0.18072897 0.068688095 0.019975698
00000000: 98fb 623e ac9e ffbd 76c6 283e d829 babd
00000010: f612 233e 56ff ccbe 38bd ab3e 8552 333d
00000020: 24de 50bd 9921 ecbd 2b4d 12be 7931 99be
00000030: 1ecc 613d 7b54 14be d7d1 193e f6bf 283e
00000040: 735a 6dbe e31f 0bbe c9fb c2be 86ae 31ba
00000050: bc69 283e aa9e 5f3e 15cc 003d 8bfe 4c3e
00000060: c21e ebbe 242b 2cbd 5816 39be 3f9e 233e
00000070: d913 95bd 8377 92be 9787 383c 14f6 223e
00000080: ab00 143e 212b e5bd 1451 9ebe 7e8e ddbd
00000090: 3eb7 d4bd a1d0 053e faf2 c73e 3f23 fbbc
000000a0: 14c4 01bd 6e97 19be 65db 6bbe e9d6 60bc
000000b0: 85cb 5a3d f8c5 383d 7784 76bd 6f94 7a3e
000000c0: 34d6 673c 8ecb 163e 8d9a 04be d40e 41bd
000000d0: 81b8 8cbd 27a9 1fbe 9d6a a93e 84c9 22be
000000e0: 4d7a 30be 9389 28bd 3067 45bd 7dfc 983d
000000f0: cb1e ed3e a3da f4bd 8f1f 4fbe 05f0 613e
00000100: a24c 87bd b7ff 943d 27ca b6bb 9136 733d
00000110: a9e3 153e 58a8 d1bc e9cf 37be 3413 2e3e
00000120: 6b65 e43d a9bb 093e 8add 0dbd 3e78 90be
00000130: 3921 d2bc 5cbd 2f3e aeeb 9a3d 57b9 41be
00000140: 3384 5b3e d64f 3bbc fc57 87bc 2fcc 7f3e
00000150: d009 45be 1212 bd3e 39b5 3f3e 17c2 ab3d
00000160: 9a07 7fbe 4001 753d 2d2a 7b3c d0c0 683c
00000170: 31de 07bd 5a37 753c 6b7d 153e a00e 3ebe
00000180: 8067 54be 8afd 043d 96fa 6f3e 21b1 2f3e
00000190: 7e0e 043d 6bcb fd3d 2f28 12be 882c dfbd
000001a0: eecd 53bd d2d2 323e a382 053e 6e83 0f3e
000001b0: dc07 4f3e c236 efbc b002 a5be ced3 193e
000001c0: 1d79 00be 0977 fc3c 21c8 41be 0789 8e3e
000001d0: eed4 b5bd fac0 88bc 5b59 a73d 9251 04be
000001e0: 6fc6 07be 2349 0f3e c625 bf3c be73 d0bc
000001f0: 9ce4 b63b d55f bc3d 6782 4ebe 19c0 80bd
00000200: 8f01 13be 3dd9 c33e de83 383d 255a 423e
00000210: 8a1d 61be e754 b93d edeb 503d 05ac bb3d
00000220: 355e 223c 3b68 773b c287 74bd 3fde a03d
00000230: 1399 0b3e ecba 5dbe 128c f4bd c7e3 8ebb
00000240: 6999 6d3e ed46 a0be e3eb b5bc ed86 923d
00000250: 4166 c93e 193a f83d 6fd3 8abe 4e5d 5b3b
00000260: 5fd8 0ebe f096 67be c41c 6ebe a68f c3bd
00000270: dbd4 c0bd b88d d9bc af28 eebd cd4c acbe
00000280: 2c52 b6be da99 353d c567 fabc 0adf a53d
00000290: 994e e3bb adfc d7bd 7f9f 6e3d a79b afbd
000002a0: b619 1f3c dafa cd3d 894d 963d 45a3 403e
000002b0: 972e bb3d ba5d c03e 87b8 f4bd a300 883e
000002c0: ac57 6f3e 2c74 303e abfb 75be 5b71 5a3e
000002d0: ea43 903e 03cd 4c3e e9b4 c13c 8ff0 583d
000002e0: 7770 863e 04b9 1a3d 61bf 3a3e fe14 82bd
000002f0: 21c5 28bd 7b4c 51be 242b a03d 32c1 30bc
00000300: 07bc 773d 575b f1bd 15eb 83be 0ad7 233d
00000310: ffc3 c9bd 0613 823e c6af 933e 3447 4b3e
00000320: 4883 c5b9 c367 97be 82ea 323e b4c4 453c
00000330: 5e64 8fbe cdcc 83be 0f49 113e a1aa 0ebe
00000340: d47a 90be 058a a13d 4bea 7ebe 8a44 2b3e
00000350: b0b8 4dbd 63ec 85bd 67ea 08be 4610 7f3e
00000360: 7513 29be 5709 d0bc cb89 063d 0a3d e3ba
00000370: f68b 20be 34e2 0dbe 15bb 6dbe 9451 51be
00000380: 900d 303d 0ee5 89bd 333a 2ebe 351f d0bd
00000390: e23f 083e dffa 423e 5f5e 66bb d128 053d
000003a0: 1706 49be ab78 45be 4e8c 22bd f184 a03e
000003b0: 5a59 e83d dcfe 073e 7011 a8bd 51ff 0a3e
000003c0: 7e8f 393e 99e4 a1be 28e6 29bd 5662 4dbe
000003d0: 6643 363e 9578 64be 60f1 383e 9969 053e
000003e0: 54ac 34bd 6b6d 41be bca5 763e f82c 34be
000003f0: 398c b6bd 0411 39be 58ac 8c3d 13a4 a33c

network_body._body_endoder.seq_layers.0.bias f4 [127]
-0.024078531 0.012353008 -0.00057884236 0.0076637766 0.002457502 -0.007226524 -0.017869191 -0.015329215
0.0022974932 0.008082791 -0.0027064688 -0.0019098514 -0.0043718624 -0.01612074 -0.009691707 -0.0033504667
-0.008347767 0.0021469987 -0.010162263 0.018496573 0.0013139993 -0.016624492 0.0038391196 0.002995771
0.011111784 0.0020851349 0.0031071196 0.00019348387 0.0037066618 -0.0034859618 0.0020303263 -0.002365214
-0.0014391567 -0.0026386005 -0.002255669 0.008905755 -0.006344614 0.008563078 0.010846302 0.0021964533
-0.0274911 5.1780047e-05 0.012018468 -0.0020388816 -0.0023727394 0.00977068 0.015971927 -0.026964497
0.0010940528 -0.012365385 -0.004283739 -0.013377397 -0.0014252629 0.0028060419 -0.0214533 0.0053999936
0.0054703197 -0.016649712 0.008734035 0.0019428654 -0.005841009 -0.015848465 0.00035407703 -0.00086026127
0.004590587 0.012997863 -0.005759158 -0.008350759 0.016352307 -0.0071440763 -0.009471734 -0.0055519943
0.0051465994 -0.009507431 0.019144822 -0.014105991 -0.007955203 -0.0008664111 -0.0145706665 0.004958855
-0.011080926 -0.0018278272 0.009544269 -0.01625056 0.0016622051 -0.0023707084 7.0995295e-05 -0.0023017465
-0.0048756497 0.013704155 0.010445018 -0.0065901447 -0.0016808428 0.0022636547 -0.002935367 -0.0101306895
-0.009936638 -0.0026783058 -7.8041805e-05 0.0018657985 -0.0145155275 -0.008379346 -0.024582285 0.010529046
0.019635636 -0.018953703 0.0056488784 0.0018057541 -0.00715613 0.0034173522 -0.010381566 -0.01805824
0.0046509937 -0.0019519327 -0.006228532 -0.0130339805 0.0065530003 -0.008638704 0.0060020806 0.004253083
-0.013703469 -0.009308105 0.004261816 0.0021908297 -0.006825691 -0.012762899 0.00112904
00000000: 5740 c5bc 4564 4a3c 74bd 17ba 6b20 fb3b
00000010: 0b0e 213b 7acc ecbb 6962 92bc 6327 7bbc
00000020: 8a91 163b af6d 043c 035f 31bb fb53 faba
00000030: d741 8fbb a40f 84bc f7c9 1ebc 8193 5bbb
00000040: 13c5 08bc a9b4 0c3b 9f7f 26bc 2086 973c
00000050: 803a ac3a 1630 88bc bd99 7b3b b254 443b
00000060: 330e 363c c2a6 083b d1a0 4b3b eee1 4a39
00000070: 77eb 723b bc74 64bb 390f 053b b501 1bbb
00000080: 16a2 bcba 5fec 2cbb d9d3 13bb 72e9 113c
00000090: 7be6 cfbb 274c 0c3c b0b4 313c 5ff2 0f3b
000000a0: 0435 e1bc 672e 5938 1ce9 443c c29e 05bb
000000b0: f67f 1bbb 3415 203c 8fd7 823c a6e4 dcbc
000000c0: 5266 8f3a 2f98 4abc 9b5e 8cbb df2c 5bbc
000000d0: e3cf baba 92e5 373b d5be afbc 6ef2 b03b
000000e0: 5e40 b33b fa64 88bc 3319 0f3c bfa7 fe3a
000000f0: ef65 bfbb a4d4 81bc 6aa3 b939 2883 61ba
00000100: a36c 963b fdf4 543c 52b7 bcbb 9fd1 08bc
00000110: 46f5 853c db18 eabb 552f 1bbc 81ed b5bb
00000120: cea4 a83b 0ec5 1bbc 9ad5 9c3c d11c 67bc
00000130: 8a56 02bc dd1f 63ba ceb9 6ebc e47d a23b
00000140: c68c 35bc b493 efba 915f 1c3c e51f 85bc
00000150: 59de d93a e35d 1bbb 4fe3 9438 e6d8 16bb
00000160: eac3 9fbb 6487 603c 9521 2b3c 24f2 d7bb
00000170: ba4f dcba d359 143b 495f 40bb 31fb 25bc
00000180: 48cd 22bc 8486 2fbb 60aa a3b8 cf8d f43a
00000190: 89d2 6dbc 8649 09bc ca60 c9bc 0582 2c3c
000001a0: eada a03c cc44 9bbc 3a1a b93b 0eaf ec3a
000001b0: f87d eabb a8f5 5f3b 7217 2abc e0ee 93bc
000001c0: 5d67 983b fed7 ffba b718 ccbb 7a8c 55bc
000001d0: 8dba d63b 5a89 0dbc 1aad c43b 725d 8b3b
000001e0: 8484 60bc 0681 18bc b4a6 8b3b 0694 0f3b
000001f0: 0caa dfbb 7a1b 51bc 4cfc 933a

network_body._body_endoder.seq_layers.2.weight f4 [127, 127]
-0.012034974 -0.07806134 0.08547959 -0.085955575 -0.07964131 -0.10924852 -0.06675931 -0.14629184
0.1630329 0.016860817 -0.031316 0.01712537 -0.016100377 -0.07005692 0.026372602 -0.118909106
-0.08159095 -0.045369443 -0.019610485 0.063836396 0.07456933 0.050402682 -0.032113545 0.050914515
-0.016436666 -0.16047676 0.0058765467 0.037543043 -0.059922166 0.0748606 -0.025440827 -0.04149446
-0.053126585 -0.01047501 -0.12760319 0.103308894 0.055777755 0.12842092 -0.063748285 0.010095591
-0.07317124 -0.06734719 0.05666525 0.071203515 0.07227626 0.050461248 0.010946324 0.03462302
-0.023466587 -0.063885234 -0.048540365 0.08862363 0.17599109 -0.11783757 -0.04481767 -0.031712897
0.046686936 -0.044062402 0.012286288 -0.010227078 0.05184896 -0.17615555 0.14443567 -0.014811228
-0.1837737 0.12464194 -0.0031401226 0.01855352 0.0012202723 -0.12263194 -0.024821406 -0.15192778
0.15825033 0.0018942781 0.06807976 0.05602898 0.14376763 -0.11567566 0.0597332 -0.121485054
0.017818412 0.13647512 0.05625793 0.15903191 0.018164309 -0.011565734 0.10403871 0.21823815
-0.016907178 0.08607545 0.044556834 0.055564176 -0.025155654 -0.09532219 -0.1429491 0.097842626
0.1810328 0.011791185 -0.074355684 -0.008110626 -0.0027392358 -0.0005826937 -0.08777909 0.060412135
-0.12590726 -0.079326615 0.16583295 -0.20737076 0.053616162 0.06466365 0.20938386 -0.052595783
0.22936314 -0.100707226 -0.11298224 -0.03339346 0.12759271 0.07331958 -0.085900456 0.034306962
-0.1630398 0.11940461 0.008731407 -0.08389965 0.02868891 -0.14332588 0.0036307224 0.011884194
0.039544918 0.16549966 -0.07331388 0.0825917 -0.13922666 -0.121568315 -0.04148217 0.061888587
0.009404273 0.08400988 -0.064133815 -0.038331047 0.0592501 0.021953689 0.097820446 0.035530735
0.019157019 -0.008611619 0.021469072 -0.124766886 0.023710312 0.07324837 -0.12084322 -0.078022696
-0.052671276 0.16914193 -0.05659293 0.102558956 0.07759891 -0.10445403 -0.028517442 -0.054585308
-0.16137272 0.011671681 0.036386557 0.07808356 -0.04517502 0.064933464 -0.12536547 0.011241475
-0.097837485 0.06133096 0.045717563 -0.087850764 0.13188232 0.10004743 -0.01863768 0.12973918
-0.024961343 0.051246554 -0.06371587 0.022299672 -0.09504968 -0.1396619 0.005217999 0.09552309
0.15122722 -0.006879613 0.015931396 0.029870152 0.01395014 0.028275264 0.05684207 0.04583085
-0.098000504 0.0040715355 0.22415513 -0.050849684 0.02375507 -0.08674737 -0.04367824 -0.014487821
0.022042649 -0.040412966 -0.013312412 0.08847335 -0.08513896 0.114716426 -0.16810377 0.02219653
-0.08272173 0.0029232358 0.045156207 0.12783794 0.10704822 0.115739524 0.048306104 0.18035723
-0.11046838 -0.026821448 -0.00013298732 -0.011801654 -0.091770776 -0.09708843 -0.19387323 -0.012265164
-0.007316481 0.1837264 -0.16402826 -0.05221988 0.0065197623 0.08451887 -0.2990916 -0.013811044
0.13831273 -0.17256583 0.08463509 0.03444725 -0.0097671645 -0.044014134 0.11054506 -0.06572318
-0.0017190967 0.12864618 -0.081737645 0.101992816 0.18993475 -0.21394281 -0.013818601 -0.053536
-0.032014187 0.045580715 -0.080111705 0.07258944 0.063959174 0.08682556 0.13169616 -0.04323241
00000000: 572e 45bc a0de 9fbd ec0f af3d 7a09 b0bd
00000010: fc1a a3bd b0bd dfbd 1bb9 88bd 87cd 15be
00000020: 19f2 263e b21f 8a3c 3545 00bd 814a 8c3c
00000030: f0e4 83bc 017a 8fbd 5b0b d83c 9e86 f3bd
00000040: 2819 a7bd 4fd5 39bd 2ba6 a0bc a8bc 823d
00000050: ceb7 983d 0b73 4e3d 7e89 03bd bd8b 503d
00000060: 30a6 86bc 0554 24be 0c90 c03b bcc6 193d
00000070: f270 75bd 8450 993d 4869 d0bc 18f6 29bd
00000080: 439b 59bd 609f 2bbc 69aa 02be 9d93 d33d
00000090: 3777 643d c680 033e 768e 82bd fa67 253c
000000a0: ceda 95bd 53ed 89bd d219 683d 26d3 913d
000000b0: 9305 943d 74b0 4e3d 3658 333c ded0 0d3d
000000c0: 003d c0bc 43d6 82bd 43d2 46bd 4e80 b53d
000000d0: 0237 343e d354 f1bd bc92 37bd 62e5 01bd
000000e0: cd3a 3f3d c77a 34bd 6d4c 493c 798f 27bc
000000f0: 935f 543d 1f62 34be f2e6 133e cbaa 72bc
00000100: 2c2f 3cbe 4644 ff3d 84ca 4dbb 8dfd 973c
00000110: 8bf1 9f3a 7426 fbbd 4356 cbbc f592 1bbe
00000120: 600c 223e 6d49 f83a 676d 8b3d a57e 653d
00000130: d237 133e 5ce7 ecbd cdaa 743d 28cd f8bd
00000140: ebf7 913c 22c0 0b3e b76e 663d 43d9 223e
00000150: 51cd 943c 347e 3dbc 3f12 d53d d279 5f3e
00000160: ec80 8abc 5348 b03d 3a81 363d 4397 633d
00000170: 3b13 cebc 4838 c3bd 4061 12be b761 c83d
00000180: aa60 393e d02f 413c cb47 98bd 6ee2 04bc
00000190: c084 33bb eabf 18ba 86c5 b3bd b772 773d
000001a0: d5ed 00be fe75 a2bd 1dd0 293e 0059 54be
000001b0: 9f9c 5b3d 606e 843d b968 563e ad6e 57bd
000001c0: 2cde 6a3e 973f cebd 3c63 e7bd 95c7 08bd
000001d0: aaa7 023e 9328 963d 94ec afbd 7585 0c3d
000001e0: e8f3 26be 678a f43d 2d0e 0f3c 94d3 abbd
000001f0: 0105 eb3c 05c4 12be 6af1 6d3b ecb5 423c
00000200: daf9 213d be78 293e 9625 96bd d625 a93d
00000210: 6f91 0ebe cff8 f8bd 35e9 29bd e37e 7d3d
00000220: 6114 1a3c 5f0d ac3d 9758 83bd 0401 1dbd
00000230: 3cb0 723d 39d8 b33c 1656 c83d ad88 113d
00000240: 2eef 9c3c bf17 0dbc e8df af3c c885 ffbd
00000250: 213c c23c 3e03 963d a67c f7bd 5dca 9fbd
00000260: d6bd 57bd 8b33 2d3e fdcd 67bd 6e0a d23d
00000270: 2dec 9e3d ffeb d5bd 699d e9bc d894 5fbd
00000280: e43e 25be 943a 3f3c 120a 153d 46ea 9f3d
00000290: 7109 39bd d6fb 843d ce5f 00be 2a2e 383c
000002a0: 055f c8bd 2c36 7b3d 5742 3b3d 1aeb b3bd
000002b0: 290c 073e abe5 cc3d 0cae 98bc 59da 043e
000002c0: bb7b ccbc e8e7 513d 777d 82bd cdad b63c
000002d0: 68a9 c2bd 8703 0fbe c0fb aa3b 9ca1 c33d
000002e0: 4fdb 1a3e 606e e1bb 8f82 823c 40b2 f43c
000002f0: 218f 643c 87a1 e73c 3bd3 683d 21b9 3b3d
00000300: 7db4 c8bd 846a 853b ec88 653e c247 50bd
00000310: fe99 c23c 9ba8 b1bd f4e7 32bd 535e 6dbc
00000320: c992 b43c 1188 25bd 4e1c 5abc 8431 b53d
00000330: 565d aebd 72f0 ea3d 6523 2cbe 7fd5 b53c
00000340: 036a a9bd c293 3f3b b7f5 383d f3e7 023e
00000350: 193c db3d d808 ed3d 9fdc 453d 91af 383e
00000360: 3f3d e2bd a7b8 dbbc 8372 0bb9 b95b 41bc
00000370: 51f2 bbbd 4cd6 c6bd b486 46be d4f3 48bc
00000380: 17bf efbb c622 3c3e 06f7 27be 83e4 55bd
00000390: bba3 d53b 3b18 ad3d 8922 99be b847 62bc
000003a0: daa1 0d3e 19b5 30be 2955 ad3d 8f18 0d3d
000003b0: 7506 20bc 2a48 34bd 7365 e23d e099 86bd
000003c0: 5053 e1ba d3bb 033e 1166 a7bd 9ce1 d03d
000003d0: 417e 423e d313 5bbe 6a67 62bc 9148 5bbd
000003e0: 4f21 03bd d8b2 3a3d 9b11 a4bd c6a9 943d
000003f0: 07fd 823d 99d1 b13d 5cdb 063e 7814 31bd

network_body._body_endoder.seq_layers.2.bias f4 [127]
0.00047749505 0.002675929 -0.013798333 -0.007312403 0.004320856 -0.0025873356 -0.011134608 -0.00342283
-0.011652958 0.011754535 0.0062011466 -0.014524204 0.0072626574 0.0042555244 -0.015815418 0.01044142
0.00878503 -0.010142119 0.008510878 0.0046614506 -0.011215406 0.005698538 -0.010204103 -0.0033323078
-0.0029429907 -0.0096236225 -0.012712534 -0.0024687129 -0.0066999104 0.0029558507 0.0053855884 -0.01042467
0.009736631 -0.011424484 0.0034301465 -0.013173876 0.010113929 0.0039785155 0.0050428314 -0.00563339
0.0028771197 0.0005962115 0.01364915 -0.007863903 0.0058674314 0.013401673 -0.0039147143 0.0003043277
-0.0098513905 -0.0050514904 0.004991241 -0.000826286 -0.000894012 -0.010250053 -0.008690826 -0.002295995
0.004120574 -0.0064176335 0.0075025987 -0.0017569219 -0.01209825 0.00728493 -0.009648909 -0.0021398626
0.00812053 0.0109769 0.0037309448 0.006691702 -0.00892576 0.0063789557 0.00029835303 0.0024638465
0.005833663 -0.002269221 0.017755734 0.0032854276 -0.0072180857 0.0048819506 -0.0008130726 -0.011589659
0.0068491925 0.004707766 0.011936872 -0.01253601 -0.0057656914 0.009501896 -2.511461e-05 -0.008060549
0.005371758 -0.014692649 -0.0029818453 -0.008798333 -0.009710665 -0.01410633 -0.0029019685 0.0038843178
0.011628288 0.00042710046 0.01144055 -0.012555237 -0.008044606 -0.0183903 0.0036453065 -0.015070264
-0.01501483 -0.007837119 -0.010516458 0.003476639 -0.016579729 0.0012681467 -0.013381644 -0.00058873545
-0.01260346 0.013254993 -0.010935073 0.013459404 0.0031304266 0.007320533 -0.0043805316 -0.00097062875
-0.011086289 0.0067783175 -0.009235556 -0.009712216 0.003630987 -0.009254556 -0.011406064
00000000: 4d58 fa39 a45e 2f3b 6712 62bc e29c efbb
00000010: f895 8d3b 4a90 29bb ee6d 36bc 8f51 60bb
00000020: 0cec 3ebc 1896 403c fd32 cb3b edf6 6dbc
00000030: 96fb ed3b ed71 8b3b 568f 81bc 7d12 2b3c
00000040: 16ef 0f3c 212b 26bc 3671 0b3c 15bf 983b
00000050: d2c0 37bc cdba ba3b 1c2f 27bc d962 5abb
00000060: 31df 40bb 66ac 1dbc 3b48 50bc 21ca 21bb
00000070: ec8a dbbb f2b6 413b 9779 b03b 3ccc 2abc
00000080: 6486 1f3c c22d 3bbc 4fcc 603b 3ed7 57bc
00000090: e5b4 253c 355e 823b 563e a53b 4d98 b8bb
000000a0: 0f8e 3c3b 144b 1c3a afa0 5f3c 9ad7 00bc
000000b0: 9543 c03b b192 5b3c 0147 80bb 2c8e 9f39
000000c0: ba67 21bc f986 a5bb 908d a33b 1d9b 58ba
000000d0: 215c 6aba d7ef 27bc f763 0ebc 6778 16bb
000000e0: e105 873b 034b d2bb 5cd8 f53b 8448 e6ba
000000f0: bd37 46bc 6cb6 ee3b 7516 1ebc f03c 0cbb
00000100: f90b 053c 75d8 333c de82 743b 1146 db3b
00000110: 5a3d 12bc 8f06 d13b 446c 9c39 7c78 213b
00000120: 5028 bf3b 36b7 14bb 7974 913c 5450 573b
00000130: b185 ecbb c5f8 9f3b 6124 55ba 8ee2 3dbc
00000140: 316f e03b 9b43 9a3b df92 433c d663 4dbc
00000150: 20ee bcbb d7ad 1b3c 37ad d2b7 6510 04bc
00000160: 9205 b03b 70b9 70bc 106b 43bb e226 10bc
00000170: 7b19 1fbc 3d1e 67bc f42e 3ebb 0a90 7e3b
00000180: 9384 3e3c 74ec df39 2571 3b3c 7bb4 4dbc
00000190: 86cd 03bc 41a7 96bc 18e6 6e3b 45e9 76bc
000001a0: c300 76bc 4267 00bc 394d 2cbc 53d8 633b
000001b0: 36d2 87bc f137 a63a af3e 5bbc 5e55 1aba
000001c0: be7e 4ebc 782b 593c 0529 33bc d584 5c3c
000001d0: d827 4d3b 15e1 ef3b 908a 8fbb cb71 7eba
000001e0: 44a3 35bc a61c de3b bb50 17bc fd1f 1fbc
000001f0: daf5 6d3b 6ca0 17bc 80e0 3abc

action_model._continuous_distribution.log_sigma f4 [1, 2]
0.008795798 0.03473802
00000000: 401c 103c 7449 0e3d

action_model._continuous_distribution.mu.weight f4 [2, 127]
0.017985256 -0.0009794135 -0.0027402588 0.0069896565 8.974576e-05 -0.015894102 -0.003546499 -0.016924646
-0.023703001 0.03619219 0.044741374 -0.013007437 0.009950638 0.018948637 -0.051136184 0.014494101
0.027560687 -0.020955611 0.007088858 0.015908113 0.008774852 0.0017659729 -0.008101835 0.009850634
-0.017549831 -0.0125039695 -0.01072365 0.004182327 0.007964276 0.005816084 0.013044688 -0.02878065
0.02541539 0.0029192152 0.0076314365 0.0036302865 0.027325436 -0.014368611 0.026386088 0.0011772043
-0.0019843362 0.01342702 0.031134402 -0.0032649576 0.026442405 0.051969174 0.0145487 -0.003543549
0.01728718 0.012446554 0.020513102 0.006701423 0.011092106 -0.011809964 -0.02991107 0.02801882
-0.0009053622 -0.013949637 0.0046355785 0.0020400025 -0.015924508 0.032695282 -0.032230277 -0.0074016484
0.01798655 0.0083307335 0.0077588568 0.016183639 0.010885844 0.022035846 0.0018151866 0.022939088
0.032955952 -0.0037668645 0.057422664 0.0019488275 -0.029699266 0.03664837 0.0034759056 -0.007155273
-0.00084041094 0.015579292 0.00500358 -0.017266981 -0.057565924 0.04478745 0.020316664 0.014836143
0.01941965 -0.015680427 -0.006890602 0.0026273977 -0.0032383096 -0.006201022 -0.012243333 0.010202958
0.011906639 0.017956244 0.018429996 0.0021536613 0.0049151685 0.004920761 0.015620217 -0.0011522762
-0.0025795752 -0.0051994906 -0.0040559033 -0.0028857095 -6.6003236e-06 0.02110388 -0.00091421447 0.012367653
-0.011399838 0.025650734 -0.018720638 0.035378598 -0.044761226 0.0044249096 0.011216402 -0.0015427504
-0.011382948 0.03148963 -0.015250061 0.00815302 0.032454696 -0.01174269 -0.00013548716 -0.022709597
-0.030879313 0.023165537 0.01139502 -0.042667497 0.05053144 0.023549853 -0.00023294365 0.046164937
-0.0043251044 0.012759178 0.0037757321 -0.020679941 -0.03173508 0.030095212 -0.018824993 -0.005880537
-0.0039185015 -0.015338713 -0.034613952 0.01881032 -0.031480297 0.0069492995 -0.0042917226 -0.009635487
0.01905657 0.0008831468 -0.0065062256 0.0046001924 0.002598394 -0.010530139 0.0042899013 -0.012197884
-0.015269068 -0.02639944 0.018472698 -0.005474338 -0.006099351 -0.00030247477 -0.017234016 -0.0046030963
-0.0009175197 -0.017275255 0.027157238 -0.010880031 -0.053047575 0.0084685385 0.0022643642 0.023296539
0.021587191 -0.0012419452 -0.00395984 0.028151851 -0.015952356 0.028544953 0.023536123 -0.016411144
0.03983466 -0.020782724 -0.019835163 0.007185957 -0.0025946288 0.007576856 0.026121214 0.0016574808
-0.020844994 -0.0025381264 0.020137148 0.026478803 -0.022434585 0.06099483 -0.026001949 0.016361846
-0.009253793 -0.021145921 0.012389157 0.021471204 0.0097020455 -0.002168944 -0.011317237 -0.012018783
-0.0011442197 -0.018813368 0.004403754 -0.010444166 0.0050033126 -0.0017178126 0.006325565 -0.00063057017
0.0011263525 -0.022822896 0.0067667714 -0.015917325 0.01442281 0.008035082 -0.010723424 -0.028914848
0.002534832 -0.019822905 -0.0041302107 0.024788177 0.003115603 -0.020432089 0.0051772436 0.013141129
0.008646966 -0.0011019715 0.03439956 0.006342325 -0.039140657 0.013114241 0.029035743 -0.0030013248
0.00069015304 -0.003061661 -0.011771182 -0.02259061 -0.021074854 0.006441769 0.018732334 0.008126174
0.009233737 0.014615908 0.021708224 0.012049391 0.016106755 0.01788334
00000000: d155 933c aa5f 80ba ea95 33bb 7d09 e53b
00000010: e335 bc38 5934 82bc 616c 68bb 8ea5 8abc
00000020: cc2c c2bc 433e 143d bb42 373d 251d 55bc
00000030: 0008 233c 2c3a 9b3c 2d74 51bd aa78 6d3c
00000040: f3c6 e13c 1aab abbc a749 e83b bb51 823c
00000050: 66c4 0f3c 3878 e73a 8fbd 04bc 8e64 213c
00000060: aac4 8fbc 73dd 4cbc 40b2 2fbc e70b 893b
00000070: 987c 023c d994 be3b 63b9 553c 66c5 ebbc
00000080: f033 d03c 4e50 3f3b 2111 fa3b 1aea 6d3b
00000090: 98d9 df3c 536a 6bbc a327 d83c 6c4c 9a3a
000000a0: a30b 02bb 01fd 5b3c 930d ff3c e6f8 55bb
000000b0: be9d d83c a1dd 543d ac5d 6e3c e33a 68bb
000000c0: d89d 8d3c a2ec 4b3c 180b a83c 9c97 db3b
000000d0: aabb 353c 947e 41bc 0f08 f5bc b987 e53c
000000e0: d455 6dba 058d 64bc 0de6 973b 90b1 053b
000000f0: 1d74 82bc 7deb 053d e503 04bd 8789 f2bb
00000100: 8858 933c a17d 083c 023e fe3b 8d93 843c
00000110: 8a5a 323c 8584 b43c 8eeb ed3a c1ea bb3c
00000120: d2fc 063d 80dd 76bb 0734 6b3d cd6f ff3a
00000130: e04b f3bc 9a1c 163d 05cc 633b c876 eabb
00000140: 064f 5cba 4940 7f3c 12f5 a33b 7c73 8dbc
00000150: 3fca 6bbd 0c73 373d 226f a63c 4b13 733c
00000160: f515 9f3c 3d74 80bc 8fca e1bb 6b30 2c3b
00000170: d239 54bb f131 cbbb 4398 48bc 4f2a 273c
00000180: 1014 433c f918 933c 81fa 963c 7124 0d3b
00000190: 6c0f a13b 563e a13b f0eb 7f3c f907 97ba
000001a0: 170e 29bb 7d60 aabb 62e7 84bb 2c1e 3dbb
000001b0: 5978 ddb6 0be2 ac3c e5a7 6fba b2a1 4a3c
000001c0: 63c6 3abc 7d21 d23c 065c 99bc 26e9 103d
000001d0: 8c57 37bd d5fe 903b 00c5 373c 1d36 caba
000001e0: 8b7f 3abc 45fb 003d 64db 79bc 3f94 053c
000001f0: 37ef 043d 6964 40bc 8f11 0eb9 7a09 babc
00000200: 9df6 fcbc a7c5 bd3c 2eb2 3a3c 1dc4 2ebd
00000210: 0efa 4e3d 9feb c03c 5642 74b9 7217 3d3d
00000220: 9bb9 8dbb df0b 513c 4672 773b fb68 a9bc
00000230: a5fc 01bd 3c8a f63c df36 9abc 85b1 c0bb
00000240: c666 80bb 3a4f 7bbc 5cc7 0dbd 1a18 9a3c
00000250: 7cf1 00bd f3b6 e33b 94a1 8cbb 29de 1dbc
00000260: 861c 9c3c fa82 673a 2d32 d5bb 36bd 963b
00000270: d149 2a3b 9b86 2cbc 4d92 8c3b a2d9 47bc
00000280: 1d2b 7abc a343 d8bc 0e54 973c 1362 b3bb
00000290: 11dd c7bb 7a95 9eb9 5a2e 8dbc 92d5 96bb
000002a0: b485 70ba d684 8dbc db78 de3c 2842 32bc
000002b0: 6a48 59bd a0bf 0a3c ba65 143b 62d8 be3c
000002c0: 9fd7 b03c c4c8 a2ba 8cc1 81bb b69e e63c
000002d0: 84ae 82bc 1bd7 e93c d4ce c03c aa70 86bc
000002e0: ab29 233d 8840 aabc 5a7d a2bc 2d78 eb3b
000002f0: a60a 2abb 4647 f83b 28fc d53c d43f d93a
00000300: 1fc3 aabc b256 26bb a9f6 a43c 13ea d83c
00000310: bcc8 b7bc b7d5 793d 0a02 d5bc 4709 863c
00000320: 399d 17bc 363a adbc e4fb 4a3c 61e4 af3c
00000330: 54f5 1e3c d824 0ebb ef6b 39bc 6eea 44bc
00000340: a4f9 95ba 7e1e 9abc 5e4d 903b 021e 2bbc
00000350: d4f2 a33b 3a28 e1ba af46 cf3b d94c 25ba
00000360: 1ea2 933a 15f7 babc cbbb dd3b 0d65 82bc
00000370: a64d 6c3c 94a5 033c 4db1 2fbc d5de ecbc
00000380: 6d1f 263b a563 a2bc b856 87bb 9310 cb3c
00000390: 252f 4c3b 3261 a7bc dea5 a93b e44d 573c
000003a0: 01ac 0d3c 0770 90ba 8ee6 0c3d 47d3 cf3b
000003b0: f451 20bd 1ddd 563c 5edc ed3c e0b1 44bb
000003c0: 63eb 343a 26a6 48bb eadb 40bc f10f b9bc
000003d0: 2ca5 acbc 7a15 d33b 8d74 993c a523 053c
000003e0: 1a49 173c 9077 6f3c 72d5 b13c cf6a 453c
000003f0: 50f2 833c 1580 923c

action_model._continuous_distribution.mu.bias f4 [2]
0.009341903 -0.009210709
00000000: c80e 193c 83e8 16bc

exp_avg f4 [127, 39]
0.0 -0.000377346 -0.00044684272 0.0 -0.00043486804 -0.00046944327 0.0 -0.00037601797
-0.00040021786 0.0 -0.0004044165 -0.0004283339 0.0 -0.0003240248 -0.00033202267 0.0
-0.0004465496 -0.0005963423 0.0 -0.00026250418 -0.00038358345 0.0 -0.0003354777 -0.00039300387
0.0 -6.2689694e-05 -7.0613874e-05 0.0 -0.00026192763 -0.00047446624 0.0 1.5552961e-06
-0.0003450123 8.460806e-06 5.6979906e-07 0.00017318991 -7.821541e-05 0.0002090627 -0.00016141232 0.0
-0.00019377365 -0.00028269057 0.0 -5.489959e-05 -0.0002592796 0.0 -0.0003857125 -0.00030644998
0.0 -0.000149628 -0.0002646653 0.0 -0.00022128406 -0.00028579702 0.0 -9.9526835e-05
-0.00022399955 0.0 -0.0001040992 -0.00022593208 0.0 -0.00019976667 -0.00045978714 0.0
-0.00023613873 -0.00041596632 0.0 -3.3860277e-05 -0.000114970135 0.0 0.00013344786 0.00014346455
-3.4237964e-06 -9.528585e-07 -0.00020777967 0.00012605649 0.00015926216 0.00011285096 0.0 2.184567e-07
-1.1395163e-05 0.0 2.624387e-05 -2.0478903e-06 0.0 -1.2756981e-05 -1.6151565e-05 0.0
3.1352687e-05 1.4039105e-06 0.0 -1.3271167e-05 -1.5944468e-05 0.0 1.0638172e-06 -1.14527065e-05
0.0 -4.1984196e-05 -1.7130633e-05 0.0 -2.1523907e-05 -2.3901459e-05 0.0 -1.44603955e-05
1.7425185e-05 0.0 -1.3088673e-05 -1.2030979e-05 0.0 6.0521e-07 1.6535214e-05 -4.0050094e-07
-3.1576033e-07 1.3701594e-05 4.5162233e-05 2.2673937e-06 -4.122407e-05 0.0 -9.448157e-05 -9.080783e-05
0.0 0.00014607633 -5.0456456e-06 0.0 -0.00020198064 -0.00011155296 0.0 1.7283839e-05
6.367426e-05 0.0 -0.00011743277 -8.345778e-05 0.0 0.00015676577 0.00014091958 0.0
-1.6084492e-05 -1.54082e-05 0.0 0.00017514694 0.0002071304 0.0 -6.9147456e-05 -4.874563e-05
0.0 0.00011634767 0.00030899743 0.0 8.365446e-06 -1.4802097e-05 -3.5907585e-06 -8.2685256e-07
4.902785e-05 9.230944e-05 -0.0001044603 -3.6186088e-05 0.0 7.1759205e-05 0.000117486474 0.0
0.00013952702 0.00013935944 0.0 1.5850055e-05 0.00012042377 0.0 0.000120386816 0.00021138425
0.0 9.143012e-05 0.00014319643 0.0 8.672889e-05 0.00014308887 0.0 8.187548e-05
9.6752316e-05 0.0 9.595439e-05 0.00019317823 0.0 8.881735e-05 0.000114809656 0.0
0.00010634468 0.0002078916 0.0 0.00015056775 7.122235e-05 -4.791503e-06 1.4260742e-07 -3.2882497e-05
-2.5033605e-05 2.0914367e-05 -6.2084735e-05 0.0 -9.503154e-05 -6.612653e-05 0.0 -0.000107939086
-4.347682e-05 0.0 -2.355747e-05 -3.6089637e-05 0.0 -7.5519594e-05 -6.1410006e-05 0.0
-3.522836e-05 -3.0770487e-05 0.0 -7.513058e-05 -5.3394877e-05 0.0 -1.6808544e-05 -4.296192e-05
0.0 -3.105077e-05 -4.143561e-05 0.0 2.443636e-05 -6.108502e-05 0.0 -2.6591648e-05
-6.0606213e-05 0.0 8.906054e-06 -3.1229945e-05 3.4431282e-06 6.0588303e-07 3.9004834e-05 -0.000104047205
1.5308793e-05 3.4239783e-05 0.0 2.0803274e-05 2.6788164e-05 0.0 -4.0389194e-05 -1.0010902e-05
0.0 6.5981505e-05 1.7525505e-05 0.0 -2.5878846e-05 -2.6758924e-05 0.0 6.0765302e-05
4.550882e-05 0.0 -5.846112e-05 -6.671929e-05 0.0 7.129264e-05 2.655519e-05 0.0
00000000: 0000 0000 86d6 c5b9 3746 eab9 0000 0000
00000010: 00ff e3b9 9c1f f6b9 0000 0000 4724 c5b9
00000020: 55d4 d1b9 0000 0000 dd07 d4b9 0192 e0b9
00000030: 0000 0000 dfe1 a9b9 5413 aeb9 0000 0000
00000040: df1e eab9 db53 1cba 0000 0000 b7a0 89b9
00000050: b31b c9b9 0000 0000 0ee3 afb9 160c ceb9
00000060: 0000 0000 4678 83b8 8916 94b8 0000 0000
00000070: 5553 89b9 c8c1 f8b9 0000 0000 91bf d035
00000080: c4e2 b4b9 e3f2 0d37 4bf4 1835 509a 3539
00000090: 9407 a4b8 d737 5b39 ca40 29b9 0000 0000
000000a0: b82f 4bb9 1636 94b9 0000 0000 fc43 66b8
000000b0: ebef 87b9 0000 0000 7539 cab9 05ab a0b9
000000c0: 0000 0000 76e5 1cb9 c6c2 8ab9 0000 0000
000000d0: 7d08 68b9 07d7 95b9 0000 0000 10b9 d0b8
000000e0: 6ce1 6ab9 0000 0000 d54f dab8 2ee8 6cb9
000000f0: 0000 0000 7578 51b9 960f f1b9 0000 0000
00000100: 029c 77b9 0e16 dab9 0000 0000 3205 0eb8
00000110: 1f1c f1b8 0000 0000 23ee 0b39 f96e 1639
00000120: 60c4 65b6 f0c7 7fb5 6edf 59b9 082e 0439
00000130: 9cff 2639 66aa ec38 0000 0000 ec90 6a34
00000140: da2d 3fb7 0000 0000 4826 dc37 7d6e 09b6
00000150: 0000 0000 d106 56b7 397d 87b7 0000 0000
00000160: b180 0338 ff6d bc35 0000 0000 3aa7 5eb7
00000170: 7cc0 85b7 0000 0000 7bc8 8e35 0025 40b7
00000180: 0000 0000 3018 30b8 c1b3 8fb7 0000 0000
00000190: 3d8e b4b7 fe7f c8b7 0000 0000 ed9a 72b7
000001a0: 4d2c 9237 0000 0000 6c97 5bb7 a9d8 49b7
000001b0: 0000 0000 b775 2235 1ab5 8a37 6e04 d7b4
000001c0: c585 a9b4 e6df 6537 946c 3d38 8729 1836
000001d0: 02e8 2cb8 0000 0000 6824 c6b8 1570 beb8
000001e0: 0000 0000 112c 1939 c44d a9b6 0000 0000
000001f0: c4ca 53b9 8af1 e9b8 0000 0000 c3fc 9037
00000200: dc88 8538 0000 0000 3d46 f6b8 0e06 afb8
00000210: 0000 0000 7e61 2439 d0c3 1339 0000 0000
00000220: 2fed 86b7 dc40 81b7 0000 0000 a6a7 3739
00000230: 2531 5939 0000 0000 4203 91b8 3974 4cb8
00000240: 0000 0000 aeff f338 ef00 a239 0000 0000
00000250: 5159 0c37 8656 78b7 c3f8 70b6 e0f4 5db5
00000260: 41a3 4d38 4196 c138 b211 dbb8 84c6 17b8
00000270: 0000 0000 6e7d 9638 1263 f638 0000 0000
00000280: 004e 1239 0421 1239 0000 0000 bcf5 8437
00000290: 058c fc38 0000 0000 2e78 fc38 07a7 5d39
000002a0: 0000 0000 2cbe bf38 0027 1639 0000 0000
000002b0: 38e2 b538 200a 1639 0000 0000 90b4 ab38
000002c0: 81e7 ca38 0000 0000 1f3b c938 e38f 4a39
000002d0: 0000 0000 7443 ba38 f7c5 f038 0000 0000
000002e0: 5e05 df38 7afd 5939 0000 0000 b9e1 1d39
000002f0: 355d 9538 b3c6 a0b6 a11f 1934 50eb 09b8
00000300: 42ff d1b7 4371 af37 7d33 82b8 0000 0000
00000310: ab4b c7b8 69ad 8ab8 0000 0000 5b5d e2b8
00000320: e15a 36b8 0000 0000 489d c5b7 f45e 17b8
00000330: 0000 0000 4660 9eb8 3fc9 80b8 0000 0000
00000340: 2ac2 13b8 8f0f 01b8 0000 0000 6c8f 9db8
00000350: 50f4 5fb8 0000 0000 1300 8db7 0332 34b8
00000360: 0000 0000 833c 02b8 26cb 2db8 0000 0000
00000370: affc cc37 c51a 80b8 0000 0000 2111 dfb7
00000380: 6d33 7eb8 0000 0000 366b 1537 e6fc 02b8
00000390: 7e10 6736 f7a3 2235 1f99 2338 eb33 dab8
000003a0: 626b 8037 b09c 0f38 0000 0000 b182 ae37
000003b0: 25b7 e037 0000 0000 9167 29b8 7ff4 27b7
000003c0: 0000 0000 8d5f 8a38 bc03 9337 0000 0000
000003d0: 6616 d9b7 5a78 e0b7 0000 0000 3fde 7e38
000003e0: b9e0 3e38 0000 0000 2634 75b8 a5eb 8bb8
000003f0: 0000 0000 f282 9538 d6c2 de37 0000 0000

exp_avg_sq f4 [127, 39]
0.0 1.7684332e-07 2.9191187e-07 0.0 1.9842795e-07 3.1421925e-07 0.0 1.5266724e-07
2.7395117e-07 0.0 1.8385718e-07 3.1769432e-07 0.0 1.3574784e-07 2.5952875e-07 0.0
1.6782829e-07 3.3061417e-07 0.0 1.2007321e-07 2.65235e-07 0.0 1.2040644e-07 3.3813026e-07
0.0 9.97991e-08 2.473629e-07 0.0 9.421894e-08 3.3649323e-07 0.0 8.8071644e-08
2.0119691e-07 3.801245e-10 2.9010173e-12 2.0845546e-07 9.232682e-08 1.2996459e-07 1.061988e-07 0.0
3.2357707e-07 4.493156e-07 0.0 3.2258012e-07 4.7195164e-07 0.0 2.7531564e-07 4.1249007e-07
0.0 3.0901148e-07 4.8601953e-07 0.0 2.3799495e-07 3.7926554e-07 0.0 3.055668e-07
5.1056867e-07 0.0 1.8663384e-07 3.6099587e-07 0.0 2.2133344e-07 5.073755e-07 0.0
1.6999208e-07 3.6025506e-07 0.0 1.3318933e-07 3.5442224e-07 0.0 1.2786553e-07 2.451244e-07
2.9480252e-10 4.1651795e-12 2.1254267e-07 1.2694332e-07 1.7145912e-07 1.2055555e-07 0.0 6.3884302e-09
5.3292077e-09 0.0 6.4483046e-09 5.5944334e-09 0.0 9.341976e-09 6.86188e-09 0.0
8.154738e-09 4.850233e-09 0.0 1.0130645e-08 9.0089145e-09 0.0 6.4082877e-09 3.3395502e-09
0.0 1.1875261e-08 1.3762213e-08 0.0 4.5002486e-09 3.74854e-09 0.0 1.1516159e-08
1.649076e-08 0.0 4.24117e-09 4.8600977e-09 0.0 9.97971e-09 2.5387198e-08 2.2082834e-11
5.6129683e-13 1.5835168e-08 1.5562026e-08 6.111274e-09 7.201806e-09 0.0 8.44207e-08 4.2691948e-08
0.0 9.7039425e-08 5.0159368e-08 0.0 5.969478e-08 3.5451396e-08 0.0 1.13685786e-07
5.7312352e-08 0.0 5.0230934e-08 3.4058644e-08 0.0 1.3830443e-07 6.7987024e-08 0.0
4.5051834e-08 3.7232724e-08 0.0 1.3056643e-07 8.3600064e-08 0.0 5.4420273e-08 3.11026e-08
0.0 1.1894372e-07 1.1956799e-07 0.0 5.2796302e-08 3.071396e-08 1.1934075e-10 4.0573525e-12
8.029713e-08 1.229619e-07 1.1643014e-07 2.355237e-08 0.0 5.0580628e-08 2.5613556e-08 0.0
6.3399604e-08 2.8833892e-08 0.0 4.241093e-08 2.4573186e-08 0.0 6.434581e-08 3.284306e-08
0.0 3.518359e-08 2.5115526e-08 0.0 6.010065e-08 3.033471e-08 0.0 2.8935125e-08
2.413854e-08 0.0 5.3370677e-08 3.2272776e-08 0.0 3.850561e-08 2.3278456e-08 0.0
4.8809273e-08 3.928939e-08 0.0 3.9129787e-08 2.5328376e-08 8.25558e-11 1.654366e-12 3.2980896e-08
5.1232092e-08 7.395762e-08 7.072851e-09 0.0 2.966993e-08 2.5211536e-08 0.0 2.538336e-08
2.2836842e-08 0.0 3.2281203e-08 2.8735103e-08 0.0 2.9899002e-08 2.2157923e-08 0.0
3.025558e-08 2.9275316e-08 0.0 2.8097284e-08 2.3116817e-08 0.0 3.0687783e-08 3.160878e-08
0.0 2.1727137e-08 2.589335e-08 0.0 3.1112044e-08 3.56684e-08 0.0 2.0109127e-08
3.2845616e-08 0.0 2.8748588e-08 4.4105594e-08 3.9894615e-11 9.714572e-13 2.7252831e-08 2.9318054e-08
1.8223954e-08 5.739563e-09 0.0 1.7145993e-08 2.3989628e-08 0.0 1.8166038e-08 2.4179828e-08
0.0 2.0404983e-08 2.4986146e-08 0.0 1.8280172e-08 2.5622963e-08 0.0 1.7979755e-08
2.4882633e-08 0.0 2.0596888e-08 2.961518e-08 0.0 1.8554472e-08 2.8462043e-08 0.0
00000000: 0000 0000 52e2 3d34 10b8 9c34 0000 0000
00000010: 760f 5534 f7b1 a834 0000 0000 daec 2334
00000020: 9013 9334 0000 0000 476a 4534 938f aa34
00000030: 0000 0000 15c2 1134 5c55 8b34 0000 0000
00000040: 4a34 3434 447f b134 0000 0000 79ed 0034
00000050: 9f65 8e34 0000 0000 1249 0134 4588 b534
00000060: 0000 0000 2351 d633 4ccd 8434 0000 0000
00000070: 6955 ca33 47a7 b434 0000 0000 e621 bd33
00000080: 9608 5834 c4f9 d02f 1524 4c2c cdd3 5f34
00000090: 3545 c633 658c 0b34 680f e433 0000 0000
000000a0: 18b8 ad34 7739 f134 0000 0000 132f ad34
000000b0: 8a60 fd34 0000 0000 18cf 9334 3474 dd34
000000c0: 0000 0000 37e6 a534 0277 0235 0000 0000
000000d0: 8e8b 7f34 dc9d cb34 0000 0000 c80c a434
000000e0: 030e 0935 0000 0000 8565 4834 e5ce c134
000000f0: 0000 0000 aca7 6d34 9432 0835 0000 0000
00000100: 1187 3634 1469 c134 0000 0000 ce02 0f34
00000110: 6c47 be34 0000 0000 694b 0934 a499 8334
00000120: c411 a22f 9a8c 922c 4937 6434 ea4d 0834
00000130: 531a 3834 0f72 0134 0000 0000 3a81 db31
00000140: 351c b731 0000 0000 e38f dd31 2839 c031
00000150: 0000 0000 727e 2032 bcc5 eb31 0000 0000
00000160: eb18 0c32 1aa7 a631 0000 0000 0c0b 2e32
00000170: a0c5 1a32 0000 0000 e52f dc31 fd7d 6531
00000180: 0000 0000 f303 4c32 da6e 6c32 0000 0000
00000190: 9ba0 9a31 82cc 8031 0000 0000 9ad8 4532
000001a0: 91a7 8d32 0000 0000 bab9 9131 dffd a631
000001b0: 0000 0000 3b73 2b32 0a13 da32 1f3e c22d
000001c0: b3fd 1d2b e705 8832 42ad 8532 56fb d131
000001d0: c173 f731 0000 0000 c54a b533 4b5c 3733
000001e0: 0000 0000 fd63 d033 cf6e 5733 0000 0000
000001f0: 8d31 8033 3943 1833 0000 0000 6c23 f433
00000200: 9927 7633 0000 0000 7fbd 5733 e047 1233
00000210: 0000 0000 d580 1434 4300 9233 0000 0000
00000220: 047f 4133 d0e9 1f33 0000 0000 d431 0c34
00000230: 9f87 b333 0000 0000 b9bb 6933 ac95 0533
00000240: 0000 0000 006e ff33 9962 0034 0000 0000
00000250: 26c2 6233 5bea 0333 6f37 032f 62c1 8e2c
00000260: d06f ac33 8207 0434 2508 fa33 3650 ca32
00000270: 0000 0000 fd3d 5933 ce04 dc32 0000 0000
00000280: 4d26 8833 66ae f732 0000 0000 5027 3633
00000290: 0215 d332 0000 0000 7c2e 8a33 540f 0d33
000002a0: 0000 0000 c41c 1733 a0bd d732 0000 0000
000002b0: af10 8133 5e49 0233 0000 0000 038d f832
000002c0: 3659 cf32 0000 0000 ae39 6533 4b9c 0a33
000002d0: 0000 0000 5e61 2533 def5 c732 0000 0000
000002e0: 5da2 5133 24bf 2833 0000 0000 a80f 2833
000002f0: b091 d932 c98a b52e d1d4 e82b e1a6 0d33
00000300: 480a 5c33 a2d2 9e33 7505 f331 0000 0000
00000310: dedc fe32 c190 d832 0000 0000 990a da32
00000320: bf2a c432 0000 0000 8fa5 0a33 29d5 f632
00000330: 0000 0000 4d6a 0033 ca55 be32 0000 0000
00000340: 5df2 0133 1a79 fb32 0000 0000 955a f132
00000350: 6b92 c632 0000 0000 93cd 0333 39c2 0733
00000360: 0000 0000 7ba2 ba32 146c de32 0000 0000
00000370: 0ea0 0533 d231 1933 0000 0000 70bc ac32
00000380: 2312 0d33 0000 0000 d0f2 f632 9d6e 3d33
00000390: 5875 2f2e 6fb8 882b 9c19 ea32 15d7 fb32
000003a0: e68a 9c32 bb35 c531 0000 0000 7048 9332
000003b0: c011 ce32 0000 0000 8a0b 9c32 01b4 cf32
000003c0: 0000 0000 0847 af32 1ea1 d632 0000 0000
000003d0: 8606 9d32 7e19 dc32 0000 0000 e671 9a32
000003e0: 7dbd d532 0000 0000 09ed b032 7864 fe32
000003f0: 0000 0000 b761 9f32 b27c f432 0000 0000

exp_avg f4 [127]
0.00027697612 -4.6014855e-05 -9.157208e-05 2.8897404e-05 9.853947e-05 4.960271e-05 0.00016906207 5.1997522e-05
0.00010687106 0.0002089931 -1.2635301e-05 -0.00034359295 0.00012255604 -5.7902824e-05 -0.00010782935 3.1507167e-05
8.164363e-05 3.167055e-05 0.00017999903 -2.5599971e-05 1.736752e-05 0.00014064033 2.483002e-05 -3.643094e-05
-0.00025246406 1.4542969e-05 5.7572146e-05 2.5066e-05 2.1141881e-05 0.0004293331 0.0001103296 -7.142713e-07
-5.4724012e-05 1.5408083e-05 0.000117051815 4.0370436e-05 4.881396e-05 0.00020681365 -0.00029009755 0.00017596284
-5.08333e-06 4.3856704e-05 -0.0003969604 -0.00014862568 -0.0003338421 -0.00028104437 -0.0001130659 -0.00018279746
-0.00016495978 4.630876e-05 0.000120451405 0.00012762994 -8.294129e-05 9.0642265e-05 -2.9562421e-05 0.00016361549
-0.00018011249 8.447215e-06 -4.6384666e-06 0.00019177025 4.04804e-05 -2.7200698e-05 0.00021005236 -0.00015152851
-0.000126475 -0.0002936712 0.00020161673 -5.9191912e-05 0.00010512093 -0.00019529444 -0.00022135231 0.00012423881
1.0209587e-05 0.0001271338 7.800449e-06 9.695574e-05 8.4505205e-05 5.3657346e-05 -0.0002468141 0.00033691953
-8.608455e-05 0.00020518356 -0.00015581331 -9.7251264e-05 -0.00018819657 -0.00014450015 0.00026763554 -0.00016325073
0.00025618315 -2.7007301e-05 -0.0003301501 0.00028825802 3.0264948e-05 -3.5932295e-05 0.00031096282 0.00035573944
0.00029619425 8.796116e-05 -0.00013527926 0.0003698031 1.836295e-05 7.767284e-05 0.00015348548 -0.00015168602
-0.00010225398 9.3216746e-05 -0.00014417608 -1.7663202e-05 0.00015536147 0.00010196813 -0.00010693929 5.356357e-05
9.3539704e-05 0.00016000404 8.188528e-06 0.00018847651 -0.00022215692 -0.00012128138 0.00024071719 1.615493e-06
8.047909e-05 0.0002851904 6.950798e-05 0.00028220593 0.00015146629 6.456909e-05 -0.00019933021
00000000: 1b37 9139 1300 41b8 630a c0b8 b468 f237
00000010: faa6 ce38 810c 5038 4146 3139 ea17 5a38
00000020: f71f e038 2825 5b39 34fc 53b7 4424 b4b9
00000030: 6382 0039 afdc 72b8 7122 e2b8 9026 0438
00000040: 1738 ab38 fed5 0438 1fbe 3c39 85bf d6b7
00000050: 77b0 9137 da78 1339 104a d037 6dcd 18b8
00000060: 275d 84b9 94fd 7337 9f79 7138 d344 d237
00000070: d859 b137 1d18 e139 c160 e738 5abc 3fb5
00000080: 7687 65b8 9b40 8137 b779 f538 6d53 2938
00000090: 97bd 4c38 1edc 5839 3c18 98b9 aa82 3839
000000a0: 7991 aab6 c7f2 3738 1f1f d0b9 67d8 1bb9
000000b0: 8707 afb9 2359 93b9 cb1d edb8 52ad 3fb9
000000c0: 0ef9 2cb9 a73b 4238 db9a fc38 67d4 0539
000000d0: c4f0 adb8 3217 be38 d1fc f7b7 3390 2b39
000000e0: 94dc 3cb9 83b8 0d37 20a4 9bb6 ef15 4939
000000f0: 80c9 2938 0e2d e4b7 8041 5c39 a0e3 1eb9
00000100: 609e 04b9 e2f7 99b9 1469 5339 d544 78b8
00000110: 5f74 dc38 f4c7 4cb9 cf1a 68b9 1a46 0239
00000120: d849 2b37 384f 0539 acde 0237 b754 cb38
00000130: 6338 b138 230e 6138 d466 81b9 93a4 b039
00000140: 4a88 b4b8 8b26 5739 d161 23b9 60f3 cbb8
00000150: a256 45b9 f784 17b9 6f51 8c39 492e 2bb9
00000160: 5250 8639 bd8d e2b7 ff17 adb9 5621 9739
00000170: 7be1 fd37 02b6 16b8 b908 a339 8a82 ba39
00000180: 854a 9b39 ca77 b838 c0d9 0db9 22e2 c139
00000190: 230a 9a37 4ae4 a238 f2f0 2039 e80d 1fb9
000001a0: 3071 d6b8 5c7d c338 f92d 17b9 702b 94b7
000001b0: 87e8 2239 b9d7 d538 9844 e0b8 72a9 6038
000001c0: bf2a c438 c2c6 2739 7661 0937 c7a1 4539
000001d0: cbf2 68b9 7258 feb8 0769 7c39 ebd3 d835
000001e0: e2c6 a838 9c85 9539 d0c4 9138 0af5 9339
000001f0: ecd2 1e39 4469 8738 4c03 51b9

exp_avg_sq f4 [127]
6.764873e-08 1.17908115e-07 8.098232e-09 8.6944894e-08 6.400334e-08 2.2449912e-08 1.9074324e-08 1.5582266e-08
8.1795335e-08 3.5776804e-08 1.7695545e-08 1.1273104e-07 2.5294323e-08 2.6799869e-08 1.4056303e-08 4.1152873e-08
1.700049e-08 1.3124344e-07 4.0679144e-08 8.902155e-08 5.0160065e-08 3.439397e-08 1.5669109e-08 2.9054435e-08
2.2554325e-08 2.1219442e-08 4.8898404e-08 4.5898474e-08 2.034182e-08 1.2119851e-07 9.2617904e-09 8.1891836e-09
1.1348297e-08 6.0915e-08 2.0332365e-08 1.3757764e-08 1.3551927e-07 7.133423e-08 7.3289655e-08 3.4976594e-08
5.8219753e-09 1.0329329e-07 1.1609195e-07 1.1920425e-07 4.565956e-08 2.2969947e-07 3.9593576e-08 1.1610488e-08
6.859046e-08 1.0172698e-08 3.1540722e-08 2.1204393e-08 6.363467e-08 8.99207e-09 9.840135e-09 7.881948e-08
1.0460871e-07 2.6368507e-08 7.3043026e-08 1.2508818e-07 8.619642e-09 2.2249086e-08 5.9170333e-08 2.180295e-08
1.126592e-07 1.4502523e-07 2.1480558e-08 1.266175e-08 5.759018e-08 9.9485476e-08 2.248013e-08 7.579549e-08
7.0043265e-09 8.16652e-08 4.7609126e-09 4.1066183e-08 5.6727693e-08 6.470931e-08 2.569884e-08 1.7707825e-07
2.1511074e-08 7.776069e-08 3.5328384e-08 1.7355152e-08 7.1511565e-08 4.394388e-08 1.0253794e-07 6.631984e-08
6.739896e-08 5.5916686e-08 4.6686846e-08 4.4573042e-08 1.7148531e-08 6.88416e-08 2.034515e-07 8.87645e-08
2.6947157e-08 3.8431107e-08 1.4917893e-08 2.4737417e-07 5.6054104e-09 1.8848587e-08 3.165441e-08 1.05839405e-07
1.6827862e-08 1.2939362e-08 8.808628e-08 2.6506664e-08 1.8183572e-07 3.9680987e-08 1.9404059e-08 1.6103087e-08
3.6463753e-08 2.1673792e-08 1.8278373e-08 5.6008215e-08 6.974757e-08 1.5392532e-08 1.4123891e-07 1.0619536e-08
3.6662346e-08 8.59861e-08 3.0794247e-08 3.1114457e-08 2.1039687e-08 8.578915e-09 8.791402e-08
00000000: 4846 9133 ac34 fd33 6720 0b32 76b6 ba33
00000010: 3572 8933 e1d7 c032 e2d8 a332 c4d9 8532
00000020: 76a7 af33 03a9 1933 ea00 9832 8b16 f233
00000030: ce46 d932 8935 e632 467c 7132 10c0 3033
00000040: 7908 9232 eceb 0c34 31b7 2e33 1d2c bf33
00000050: 936f 5733 92b8 1333 bc98 8632 6193 f932
00000060: 7cbd c132 0c46 b632 5d04 5233 e821 4533
00000070: 23bc ae32 cb22 0234 c91d 1f32 69b0 0c32
00000080: 57f6 4232 60d0 8233 58a7 ae32 495b 6c32
00000090: 4183 1134 6830 9933 6a63 9d33 2c39 1633
000000a0: a30a c831 16d2 dd33 394e f933 3bfd ff33
000000b0: 381b 4433 4fa3 7634 990d 2a33 7777 4732
000000c0: 014c 9333 00c4 2e32 6477 0733 f424 b632
000000d0: 88a7 8833 8b7b 1a32 5f0d 2932 7843 a933
000000e0: 3fa5 e033 f680 e232 d4db 9c33 fa4f 0634
000000f0: 9615 1432 421e bf32 7822 7e33 3249 bb32
00000100: 0def f133 3bb8 1b34 3f84 b832 f786 5932
00000110: 1359 7733 b8a4 d533 541a c132 03c5 a233
00000120: b5aa f031 eb5f af33 6e95 a331 bf60 3033
00000130: c2a4 7333 52f6 8a33 59c0 dc32 e622 3e34
00000140: 5ac7 b832 64fd a633 f8bb 1733 6214 9532
00000150: e691 9933 cfbc 3c33 d432 dc33 b86b 8e33
00000160: f8bc 9033 0c29 7033 bb84 4833 9470 3f33
00000170: 054e 9332 12d6 9333 5374 5a34 cd9e be33
00000180: 6d79 e732 730f 2533 cb24 8032 d9ce 8434
00000190: b699 c031 7be8 a132 64f4 0733 d449 e333
000001a0: dc8c 9032 ea4b 5e32 f229 bd33 c5b0 e332
000001b0: 9f3e 4334 b56d 2a33 faad a632 1053 8a32
000001c0: 529c 1c33 2c2d ba32 9102 9d32 af8d 7033
000001d0: 22c8 9533 8938 8432 75a7 1734 3771 3632
000001e0: ad76 1d33 5ca7 b833 a242 0433 b5a2 0533
000001f0: c3ba b432 7862 1332 3ecb bc33
