Assets/results/CubeAgent12/AutoAgentFinale/AutoAgentFinale-22764.onnx (onnx, 89226 bytes, 11 tensors)

60 f4 [33]
00000000: 9a2d d93b b831 ad3e b79b 663e 9a2d d93b
00000010: 30d4 bb3e a4e2 783e 9a2d d93b 5580 d23e
00000020: 9aba 853e 9a2d d93b 8eb0 d33e 877c 833e
00000030: 9a2d d93b b58b f63e e16f 9c3e 9a2d d93b
00000040: a491 ea3e 4a6f 893e 9a2d d93b dbe2 ff3e
00000050: a948 a73e 9a2d d93b fb29 f63e 2734 8c3e
00000060: 9a2d d93b c0a9 fe3e 3f2e ab3e 9a2d d93b
00000070: df3c fb3e 3d0b 8d3e 9a2d d93b 4725 fc3e
00000080: 8c4b ac3e
0.0066277506 0.33826995 0.22520338 0.0066277506 0.36685324 0.24305207 0.0066277506 0.41113535
0.26118928 0.0066277506 0.41345638 0.25680944 0.0066277506 0.48153463 0.30554107 0.0066277506
0.4581424 0.2684272 0.0066277506 0.49977764 0.32672623 0.0066277506 0.48078904 0.2738354
0.0066277506 0.49738884 0.3343372 0.0066277506 0.49069878 0.27547637 0.0066277506 0.4924719
0.33651388

63 f4 [6]
00000000: d8fa 5f3c bf68 da3b 8b04 9b3d 0d40 3042
00000010: 09f2 f13d 2bd0 bf3e
0.013670646 0.0066653187 0.07569226 44.06255 0.11813743 0.37463507

action_model._continuous_distribution.log_sigma f4 [1, 2]
00000000: 656f c7bd 8964 7abd
-0.09738044 -0.061131034

action_model._continuous_distribution.mu.bias f4 [2]
00000000: d12c 97bc ecc9 9fb9
-0.018453987 -0.00030477287

action_model._continuous_distribution.mu.weight f4 [2, 127]
00000000: 6a12 8e3d 3df1 d2bc 739c ceba 5607 533b
00000010: 0f9e 9fbc bd93 87bd af10 01bd 2bb1 c13b
00000020: fa1f 1fbd f8c6 12bd 91fb dbbc 9f82 023c
00000030: 2d69 1ebb ff4b c1ba 6577 4a3c 05e6 47bc
00000040: db79 67bc 57a5 11bc 60ae c73c d7ba 083d
00000050: 2896 473a 4ac2 7839 977f a9bb 7f18 2f3b
00000060: d5b4 f1bc 8a22 4c3d f9d4 993c ea7c 9fbc
00000070: ed01 013d b320 213c 1c51 ca3d e0dc a43b
00000080: bea6 8bbb b8c0 783c 4f29 2a3d 009e 953d
00000090: 7d50 f6bd 3709 693b c737 16bd ff46 23ba
000000a0: fdd3 ac3d 9f0b 64bc 37bf dc3b 8959 c9bc
000000b0: e340 203a 8746 0cbd b2f1 ff3c c7e3 65bd
000000c0: 4db2 b1bc 1316 bf3d 3831 1dbd 5d56 5d3c
000000d0: 0694 72bc 0dc5 87bc 58f0 56bc 1d1c 21bc
000000e0: 985e 35bc c730 953b 69f8 253d 32bf 2a3b
000000f0: 2afa 823c f774 753d e524 63bd 3324 2bbd
00000100: 0d58 0bbc 127c 5a3c 548a 2a3b 4e21 bebc
00000110: f4e2 12bc 1066 1fbd 9940 a13c 0745 253d
00000120: e45e a2bc 9357 13bc 3df2 81bd d8c8 2539
00000130: 50c5 3abc ad6c d7b9 240f 7fbc 34ea babc
00000140: 3bcf 27bd 81db 103c d22c b9bb 2f30 7e3c
00000150: a5a2 2b3d d369 813d 5ac4 70bc 9a60 e63a
00000160: cbc1 efb9 ba2b 19bc d27d 6abc fe88 d63b
00000170: 4c9c 62bb 15bb 7a3d 9074 393c a9f1 813c
00000180: 9d84 39bc 8408 27bd 7376 23bd cd5a 5f3c
00000190: c218 4cbd 1fdd d73a d103 fe3c 11ba 1abc
000001a0: f7a0 81bc 6bb0 283c ed8e ecbc 89f5 65bd
000001b0: 20cb 11bc e8b7 693d 3cff 7dba 2898 343d
000001c0: 13fa 423d 3a59 04bd 6a42 063b 1c75 e0bb
000001d0: dfdd 30bd b0d3 d33c c487 ad3c 73d8 0e3d
000001e0: 4ded cbb9 80fe 04bd dcad 4bbb 2800 bebc
000001f0: e22e db3c f0ed f9b7 7685 67bd ba7a 673d
00000200: a851 873b 11cb f7bc e096 5c3d e12c 06bd
00000210: 3e8d 76bd ee18 10bd 75a6 9abc e73b 56bc
00000220: dab8 08bd 0a58 8ebc bfc6 38bc 0a42 6e3b
00000230: 0e89 aebb 1d42 2dbd 0a8d b33b cb50 f4bc
00000240: 543c c6bc 4792 5abc b9a5 973c 3158 75bd
00000250: f171 8cbd 0fda 093d 62f8 4f3d c2b5 bcbc
00000260: 501e d1bc 02c1 e7b7 29bd b9bc f3a6 8c3b
00000270: de0a 14bd d7ab 863d af8d ccbc 1858 503d
00000280: b0cd 423d 0b8a 38bd 8b3f c93b 629b 49bb
00000290: 2b75 eb3b a865 463c 693c 4bbc bea2 923d
000002a0: 8df5 013c b45f 753d c620 8abc 555d 123d
000002b0: 8005 453d f11f 03bd 27b2 123c b2d8 e33c
000002c0: c165 b8ba e30f 9f3d 9904 433d 8ee4 a3bc
000002d0: bead 82bd 3c02 1bbd 47dc 92bc 63d9 d03c
000002e0: 2a20 c03c 58ec 643c 1be9 30bd cac6 86ba
000002f0: 5371 4ebc 890b fbbc b3bf 4fbd 46c7 2d3c
00000300: 208f da3b e268 623a 2ec3 30bd 41ee ddbc
00000310: b199 d73b 647a e5bb ff4c 423c b9c1 463b
00000320: f6a1 e43c c12a 8fbd 8ae8 a0bb 2da7 04bd
00000330: 5628 9a3c 0f55 023c 02b2 edbc 1cf4 48bd
00000340: 46c0 c7bc c3cd 4cbb 2a59 7d3d 223f 2cbd
00000350: ea6e 473c 280a b1bc 15a2 3b3a bde9 923c
00000360: c3c8 f4bb ab9f 8d3c 3d3a 46bb 4bbc 323d
00000370: 8005 07bd c081 253d ecb5 493d 6ede cdbc
00000380: b29d fabb bba6 073d 22a3 893c b724 a43c
00000390: 3976 febc 97c8 d0bc 19cb 31bc 105c 333d
000003a0: 29da 8a3c bfc1 cd3c d96a e43b 1ce5 6abb
000003b0: 1820 28bd c1a9 993c 3325 61bc 3634 94bd
000003c0: 2692 87bd effa ecbc e6d4 27bd 4812 243c
000003d0: 74ce b5bc 6496 b73c 80b6 a13c 3dcc a6bc
000003e0: 0714 ad3c 116e 68bb 6aa2 ad3c f551 86bb
000003f0: 34f7 243c 5c59 5e3b
0.06937106 -0.025749797 -0.0015763178 0.0032200417 -0.019484548 -0.06619976 -0.03151005 0.0059110126
-0.038848855 -0.035834283 -0.026853355 0.007965713 -0.0024171576 -0.001474738 0.012357567 -0.012200837
-0.014128174 -0.008889518 0.02437514 0.03338131 0.00076136226 0.00023723501 -0.0051726806 0.0026717482
-0.029505173 0.049837627 0.018778311 -0.019468743 0.031495977 0.009834456 0.09878752 0.005031213
-0.0042618206 0.0151826665 0.0415433 0.07305527 -0.12027071 0.003555847 -0.036674287 -0.0006228536
0.08438871 -0.013918786 0.006736662 -0.024578827 0.00061131845 -0.034246948 0.031243179 -0.05612543
-0.021691466 0.09330382 -0.038377017 0.01350936 -0.014805799 -0.016573453 -0.013118826 -0.009833363
-0.011069916 0.004552934 0.040520106 0.0026053903 0.015988428 0.059926 -0.055455107 -0.04178257
-0.00850488 0.013335245 0.0026022391 -0.02320924 -0.008965243 -0.038915694 0.019684123 0.040349033
-0.019820638 -0.008993047 -0.063450314 0.00015810446 -0.011399582 -0.00041088965 -0.015567575 -0.022816755
-0.040969115 0.008841396 -0.005651095 0.015514418 0.041903157 0.063190125 -0.014695251 0.0017576397
-0.0004573002 -0.009348804 -0.014312224 0.0065470925 -0.0034578023 0.06121357 0.011319295 0.015862303
-0.011323121 -0.040779606 -0.039907884 0.013632488 -0.0498283 0.0016469097 0.03100768 -0.009443776
-0.015823824 0.010295968 -0.028876746 -0.056142364 -0.008898526 0.057060152 -0.0009689217 0.04409042
0.04760177 -0.032311656 0.0020486363 -0.006849898 -0.043180343 0.025857776 0.021182902 0.03487439
-0.0003889598 -0.032469273 -0.003107897 -0.023193434 0.026755754 -2.9793911e-05 -0.056523763 0.056513526
0.004129607 -0.030248197 0.053854823 -0.032757644 -0.060193293 -0.035180025 -0.018878201 -0.013075805
-0.033379413 -0.017375965 -0.0112778535 0.003635528 -0.005326397 -0.04229938 0.0054794597 -0.029823681
-0.024198689 -0.013340539 0.01851164 -0.05989856 -0.0685767 0.033655223 0.050773986 -0.023035888
-0.02552715 -2.7627222e-05 -0.022673206 0.004292363 -0.036143176 0.065757446 -0.024969904 0.050865263
0.04755944 -0.045053523 0.006141608 -0.0030762781 0.0071855984 0.012109198 -0.01240454 0.07159947
0.007932079 0.059905723 -0.01686133 0.03573354 0.04810095 -0.032012884 0.008953608 0.02781329
-0.0014068411 0.07766702 0.047611807 -0.020006444 -0.06380795 -0.037843928 -0.017927302 0.025494283
0.023452837 0.013972364 -0.043191057 -0.0010282632 -0.012600261 -0.030645149 -0.050719928 0.0106065925
0.006669894 0.00086368446 -0.043154888 -0.027091147 0.0065796007 -0.0070031155 0.011859178 0.003032787
0.02790926 -0.069905765 -0.0049105333 -0.032385994 0.018818062 0.00795485 -0.029015545 -0.049060926
-0.024383675 -0.0031250573 0.06185261 -0.042052396 0.01217244 -0.021611288 0.0007157636 0.01793372
-0.0074702217 0.01728805 -0.0030247115 0.0436366 -0.03296423 0.040406942 0.04924576 -0.025130477
-0.0076481933 0.03311799 0.01680142 0.020037038 -0.031062232 -0.025486274 -0.010851645 0.04378897
0.01694973 0.0251168 0.006970745 -0.0035842126 -0.041046232 0.018757703 -0.013741779 -0.07236521
-0.066196725 -0.028928248 -0.04097452 0.010014124 -0.022193171 0.022410579 0.019740343 -0.02036106
0.021127714 -0.0035465995 0.02119561 -0.0040991255 0.010068703 0.0033927774

network_body._body_endoder.seq_layers.0.bias f4 [127]
00000000: c05b 0ebd 77a7 933c 2591 c43b 80f7 0bbc
00000010: 9813 98bd 3a15 303c 3598 3abd 988e 333c
00000020: c92a 6fbd e270 94bb ab1e 99bc 58f6 e5bc
00000030: 3e7c 813d f4f5 8fbd a038 3fbb f7c2 53bc
00000040: 074c 28bc 0804 243c 89f6 dfbc f10b d2bc
00000050: aa32 06bd fa63 cb3a 406d df3c 1fcb 46bd
00000060: c361 54bc 9de1 b8bb 8882 0dbc 0516 34bb
00000070: ef78 5dbd 2333 5bbd 10c9 c7bc 7adc 303c
00000080: 8f1c 0cbd 48dc 97bd c584 97bd cd30 abbc
00000090: 2ea4 23bc ba2e 16bd bcee 463c 18a8 0fbc
000000a0: d407 46bc b548 263c 899c 11bd 54de 4cbd
000000b0: c1ed b2bc fea1 a0bd 7f5a aabc aa04 d6bb
000000c0: 7eac 85bd 0eb5 eb3c 06ae 7fbd 1452 8bbc
000000d0: 9ae8 c7bc 3014 49bc 3e37 bdbb fec7 89bd
000000e0: 4039 b9bc 85dd adbc 97f2 41bd 943b c8bc
000000f0: eabf cabc e980 e4bc 38ee 0ebd 9198 98bd
00000100: d263 5dbc 518b 80bd c636 f0b9 3179 5d3c
00000110: 7c3a 2dbb dcc4 49bd 98bd 6cbc da29 3d3c
00000120: 70db 3bbd f2a0 04bd caf9 59bc fa85 0ebd
00000130: 181b 81bc cfcc 05b9 1780 173d b86a efbc
00000140: 10f8 89bb 70df 11bd fb2e 0d3a 802f a3bb
00000150: f33e fbbc 6ee5 83bc 7dba a6bb 87e5 8dbc
00000160: fe26 f73c f345 bebb 1c1a 94bc 67d7 ddbc
00000170: 9a40 c3ba b6c9 77bc ab32 5fbd a93c a0bc
00000180: 2dbd 96bc db24 2dbd c0de 0f3c 93ff 243c
00000190: 0b80 173c 1900 0cbc b0bd e2bc c64a 0f3c
000001a0: 10bc 723b 88a5 223c 8dac 1c3d 569d b63c
000001b0: 9571 85bc a1d5 0d3a dde9 74bc 9b5c 3dbc
000001c0: 6c35 28ba ee5d 72bd 38b4 d8bc 9801 8bbd
000001d0: c864 88bd 5e52 4fbd f852 103c 0fe3 35bd
000001e0: 8fc3 573b 0fe3 1bbd 7576 34bd 6989 c5bc
000001f0: a29c 37bd 5e08 32bd 2c79 7b3c
-0.03475547 0.01802419 0.005998748 -0.008542895 -0.07425612 0.010747248 -0.045555312 0.01095929
-0.058390412 -0.0045300582 -0.018691381 -0.028071567 0.063225254 -0.07029334 -0.0029178038 -0.012924901
-0.010272033 0.010010727 -0.027339237 -0.02564046 -0.03276316 0.0015517466 0.027273774 -0.048533555
-0.012962761 -0.0056421296 -0.008637078 -0.0027478945 -0.05407041 -0.053515565 -0.024387866 0.010794753
-0.034206923 -0.07415062 -0.07398371 -0.020897293 -0.009987874 -0.036665656 0.01214188 -0.008768104
-0.012086827 0.010149171 -0.035549674 -0.050016716 -0.021841886 -0.078433976 -0.020795105 -0.0065313177
-0.06527041 0.028772857 -0.06242182 -0.017006911 -0.024402905 -0.0122728795 -0.0057744076 -0.067275986
-0.022610307 -0.021223793 -0.047350492 -0.024442472 -0.024749715 -0.0278935 -0.03489515 -0.07450975
-0.013512569 -0.062765725 -0.00045817177 0.013517664 -0.0026432564 -0.049260005 -0.0144495 0.011545623
-0.04586357 -0.032380052 -0.013304183 -0.03479574 -0.01575999 -0.00012760166 0.03698739 -0.029225692
-0.0042104796 -0.035613477 0.0005385724 -0.0049800277 -0.030669665 -0.016100612 -0.005088149 -0.017321361
0.03016996 -0.0058066784 -0.018078856 -0.02708025 -0.0014896572 -0.015123775 -0.05449168 -0.019560175
-0.018400753 -0.042271476 0.008781135 0.010070699 0.009246836 -0.008544945 -0.02767834 0.008745855
0.0037038364 0.009927161 0.038250495 0.02229182 -0.016289512 0.00054105563 -0.0149483355 -0.011557723
-0.0006416652 -0.05917161 -0.026453122 -0.06787413 -0.066598475 -0.05061566 0.008808844 -0.044405993
0.0032922958 -0.038058337 -0.044058282 -0.024113374 -0.04482711 -0.04346501 0.015348714

network_body._body_endoder.seq_layers.0.weight f4 [127, 39]
00000000: b940 5f3c 7c44 30be 609a f3bd a894 0d3d
00000010: 4da8 92bd 0d56 1abe 4a07 843d bc90 9a3e
00000020: 425e 363d 4db6 4c3c e013 123f 7622 b73e
00000030: e77c 603e ced6 973b 0a32 15be 6d2e 2abe
00000040: b739 163d 9432 803e 2ab0 753e c6e6 e8bc
00000050: ac94 74be 8216 f6bd 6be1 d8bc 9293 1a3e
00000060: e019 973d 68ee 4dbd cda8 cd3c 4729 c73d
00000070: db8c 96be 0dcc 55bd 56c6 82be 7ddf 01bc
00000080: 8389 2b3e 75f1 d63d ec24 093e 6b1c 543e
00000090: 2477 4b3d d101 293e 89a7 ddbd b70e 18be
000000a0: 02f9 ee3d 398a f6bb 8e10 abbc 1d2e 7a3e
000000b0: 1eee 80bd acfe 233e a0cd 303e 7ca7 9f3e
000000c0: 8bb5 2b3e e40b c6bd 7545 863e 5b56 39be
000000d0: 128f a43d 3b3a 31be efaa 3cbe ab87 90bb
000000e0: 812c a53e 9558 293e 6f55 9e3c 8ec6 01be
000000f0: 6302 65bd 8a19 0dbe 38c2 433c 44b1 25be
00000100: 1fa8 54be 0762 9f3e 57bf a5bc 665b 083e
00000110: 7a62 003e 3ff7 f33d 44af dc3e 0b80 91be
00000120: 86db 243e 82b6 d4bd a42a 0ebe b6f0 803d
00000130: d53b edbd 6c31 0fbf 195e 52be 9152 bdbb
00000140: 5022 243e 05da 05be 109c 4cbe 604f f9bd
00000150: f461 46be 8084 4bbd 2b48 23be 72f2 43be
00000160: 14a2 e73a 87ed debd 0c10 ec3d 20a5 8d3d
00000170: b3f8 573e 0eba 07be c946 e93c 0d2c b3bb
00000180: f139 0bbe f2c4 ad3e 54f9 9bbe 81f8 5cba
00000190: a1ea 743d f3dd 91be 877d ca3e 4f50 89be
000001a0: 1ff0 e3bb 07f9 933c 62e3 15bc 0b6b 5b3d
000001b0: 9bd6 c2bd 04f1 de3c b360 f0bd ae90 9abe
000001c0: 3139 8e3d d048 cfbd 09c2 3c3e 9005 893d
000001d0: 14ed ecbd 32a5 a3be 1872 23be f700 68be
000001e0: 5166 18be 0d4d f1bd afac babc f5f5 eabe
000001f0: e320 b9bd 3fb3 63be 22d2 ccbd ffcb c43d
00000200: ff0f ebbd c04f 5d3e cb6f 873c 8b33 8fbe
00000210: b8c7 bcbd f38f 933d 6b5b 7bbd a67d 51bd
00000220: e368 133e e2ab f23d 6ada f9bc b427 05bd
00000230: 309a aebc 23ba b0bd 8c1d 16bd cdcf bb3e
00000240: 4f11 beba d64f a2bd 5bd2 3e3d e2f4 f5bc
00000250: c0a5 4b3d c785 55bd d7c3 5d3c 1a93 68be
00000260: 87d1 59be 6bb9 99bd 476d 553e 6ef7 e9bc
00000270: fd8b eabd 0b13 e9bd 6667 c03d 4733 7c3d
00000280: 10a4 d63d 7e9c 8d3e 6776 ef3d 4989 97bd
00000290: 5dcf 013d 9830 813e 81a4 6bbd 7456 753e
000002a0: 4822 16bd 9098 223d 384c c6bc 3e91 073e
000002b0: f59f 25be a41d ad3d d6f0 7a3e 2653 3b3e
000002c0: ca71 45be a48a 063e d001 4abd ecb9 e4bd
000002d0: 7db5 a43d be39 10bd 38e3 00bd dcaf a3b8
000002e0: b4ec 4bbe 358b 333e ba2f 243e 918e 693e
000002f0: bd19 80bd ff10 363c 7739 863e d392 85bd
00000300: 3792 b73d 0f5a 2b3e 0fb3 6cbe 33d1 313d
00000310: 1b29 263e b96a 893d b6a9 f23d 843c 66be
00000320: 1df6 e63d 7dd1 b13e 4254 e93d 0316 82bc
00000330: 077b f5bb 0f59 eebd b6f4 7a3d e4c1 2ebe
00000340: 720c 5fbd c921 6bbe f4f4 b33d 7567 e43d
00000350: 5074 193e 827c a9bd d32c 9bbe 4b41 9abe
00000360: cfb7 f83d e61c 0dbe c4bb c7be ff46 423e
00000370: 72f6 693e b777 30be 38ac 8d3e c5f5 febd
00000380: 66a6 c0bd 581a 3bbe 521a f03d 4847 ae3d
00000390: 30b7 14be 4a26 07bc 5462 c83b 77ce 6b3e
000003a0: 2536 b9bd aadd 72bd 7765 723e 80ab 053e
000003b0: 329f 61bc 523e 0f3d 0abf 7fbd b7bc e2bd
000003c0: 5b42 5cbe 405d 8d3e 48fe 8ebd 0152 27be
000003d0: ed00 663d 4e4f 89be 61d5 f73c 8289 55be
000003e0: c80f 6c3d cb22 933d c33b f5bd 6ab6 123d
000003f0: acb9 573e 0234 77bc ab8d 0bbe f498 8dbd
0.013626271 -0.17213625 -0.11894679 0.034565598 -0.07161007 -0.15071888 0.06446703 0.3018855
0.044523485 0.012494636 0.57061577 0.3576848 0.21922646 0.004633761 -0.1456987 -0.16619273
0.036676135 0.25038588 0.23992983 -0.028430354 -0.23884839 -0.12016012 -0.026474675 0.15095356
0.07377982 -0.05027619 0.025104905 0.0972467 -0.2940434 -0.05219655 -0.25541943 -0.007926819
0.16751675 0.10495273 0.13392991 0.20713966 0.04967417 0.16504599 -0.108229704 -0.14849363
0.11668588 -0.0075238016 -0.020881917 0.24431653 -0.06295417 0.16015118 0.1726594 0.31182468
0.16768472 -0.09670237 0.26224867 -0.18099348 0.08035101 -0.1730737 -0.18424581 -0.004410704
0.32260516 0.16537698 0.019327847 -0.12673399 -0.05591048 -0.13779274 0.011948161 -0.16180903
-0.20767258 0.31129476 -0.02023284 0.13316116 0.12537566 0.11912393 0.43102467 -0.28418002
0.16099367 -0.10386373 -0.13883454 0.06295912 -0.11583678 -0.55934787 -0.20543708 -0.005777665
0.16028714 -0.13071449 -0.19981408 -0.12173343 -0.19373304 -0.04968691 -0.15945499 -0.19135454
0.0017672204 -0.108851485 0.11526498 0.06916261 0.21090965 -0.13254568 0.028476136 -0.0054678977
-0.13596322 0.3393932 -0.3046366 -0.0008429364 0.059794072 -0.28489646 0.39548895 -0.26819083
-0.006956115 0.018063081 -0.009148451 0.05356888 -0.09513589 0.027214535 -0.11737194 -0.30188507
0.06944502 -0.1012131 0.18433394 0.06690514 -0.115686566 -0.31961972 -0.15961492 -0.22656618
-0.1488278 -0.117822744 -0.02278742 -0.45890775 -0.09039476 -0.22236346 -0.10001017 0.09609222
-0.114776604 0.21612453 0.0165328 -0.27969012 -0.09217781 0.072051905 -0.06136648 -0.05114522
0.1439548 0.1184919 -0.030499656 -0.032508567 -0.021313757 -0.08629253 -0.03664927 0.36681977
-0.0014501008 -0.07925384 0.04658733 -0.030023996 0.04971862 -0.052129533 0.013535461 -0.22712365
-0.21271335 -0.07506069 0.20842467 -0.028560366 -0.11452482 -0.11380585 0.09394722 0.06157234
0.10480511 0.27658457 0.11692505 -0.07399232 0.031691898 0.25232387 -0.05752993 0.2395876
-0.036653787 0.039696276 -0.024206266 0.13238999 -0.161743 0.08452919 0.24505934 0.18293437
-0.19281688 0.13138825 -0.049318135 -0.11168274 0.08042429 -0.035211317 -0.031466693 -7.805202e-05
-0.19914514 0.17533572 0.16033831 0.22808291 -0.06254909 0.011112451 0.26215717 -0.06522145
0.08963435 0.16733573 -0.2311518 0.0434124 0.16226618 0.06709809 0.11848776 -0.22484022
0.11277411 0.3473014 0.11393024 -0.015879637 -0.0074914726 -0.1163808 0.06126853 -0.17066151
-0.05445523 -0.22962107 0.087869555 0.11152545 0.14985776 -0.08275701 -0.30307636 -0.3012794
0.12144434 -0.13780555 -0.3901044 0.18972395 0.22847918 -0.17233168 0.27670455 -0.124492206
-0.09406738 -0.18271768 0.1172377 0.085096896 -0.14523005 -0.008248875 0.0061152373 0.23027979
-0.090435304 -0.059293427 0.23671518 0.13053703 -0.013770865 0.034971543 -0.06243805 -0.11071151
-0.21509688 0.27610207 -0.06982094 -0.16339876 0.056153227 -0.26818317 0.030253114 -0.20853236
0.057632238 0.071843706 -0.11974289 0.035818495 0.21066922 -0.015088083 -0.13628261 -0.06913939

network_body._body_endoder.seq_layers.2.bias f4 [127]
00000000: 071f 9fbc 6d9f 2dbb 49f5 58bb 9d3d a0bc
00000010: 3add a3bc f36d 9e3c 5ce7 1d3c f153 28bd
00000020: abf1 a63b 3e2a 93bc e2f8 6abc ca06 fdbc
00000030: 28a0 05bd ae08 fdbc a8d8 1abd d2de 193a
00000040: 0a25 08bc 3bff b8bc 6b98 66bd 6cdb 61bd
00000050: f052 06bc 5bcf 173c 4ced 39bc 22d3 85bc
00000060: 878a 85bc 8e32 1ebd b777 82bd d2fe d4bc
00000070: 23a5 6dbd 769e 38bc 60ed 47bb b43b 08bd
00000080: ff7a 77bc db3a b3bc e15b 0abd 87d5 0cbd
00000090: 529e 183d 6e5f 8cbc fd88 82bb 94de e8bc
000000a0: a633 3bbc 49df 8abc 8a2c 9dbc fde7 3abd
000000b0: 738c 40bd ed22 c2bb 2cb6 dbbc 0ef1 033c
000000c0: 5e01 0bbd a7b0 89bc 9e54 953c 4ddf 90bb
000000d0: f9e0 a1bc aa92 913b 3fac 5abc 1639 36bc
000000e0: 7ac6 5cbc 7860 04bd 5c4d acbc 622b 63bc
000000f0: 604d bfbc 248c 00bd 3684 1ebc 13fb d83c
00000100: 3bbe 43bd 2b77 a9bc ff27 97bc 6e6a 96bc
00000110: 693e 16bc 6704 2a3c 1664 49bd a688 06bd
00000120: 2ccc 0f3c b64e 82bc 5be5 043c d9dc e3bc
00000130: e60b 8bbc a411 1fbd 8eb0 a7bc 61f6 e6ba
00000140: 618d 9abc 49f1 14bd ce2b 11bd f01b 7cbc
00000150: 03e5 31bd 8672 b6bc b668 bcbc d7f2 c8bc
00000160: 9129 e1bc ab91 0bbc 9ff8 d2bc 0eb8 b7bc
00000170: 44e6 e4bc ed63 d2bc d5da 26bd 87f5 59bc
00000180: e908 f13a c0fe 013c e70d 05bb 2128 cdbc
00000190: 6f30 4e3c 99be 35bb 4f81 1abd 5b7b febc
000001a0: 493f 04bc f205 debc dd22 98bc 3c13 14bc
000001b0: ddd7 21bc 0855 11bd ceec 62bc 332f 88bc
000001c0: f5c1 323b e857 dd3a 2bfb aabc 8ea2 d0bc
000001d0: 84e0 f0bb 5536 e6bc 7e8d dbbc b035 52bd
000001e0: 639f bcbc ad06 2ebb bb6a 64bc 05fa afbc
000001f0: e7ed 2fbd 5293 44bd 2d5f 463c
-0.019423975 -0.002649273 -0.0033105186 -0.01956063 -0.02000295 0.019339537 0.00963768 -0.041095678
0.005094727 -0.017964479 -0.014341565 -0.030887026 -0.03262344 -0.030887928 -0.037804276 0.00058696896
-0.008309612 -0.02258264 -0.0562977 -0.055140898 -0.008198485 0.009265746 -0.01134808 -0.016336028
-0.016301407 -0.03862243 -0.0637049 -0.026000414 -0.058018815 -0.011268249 -0.0030506477 -0.033260062
-0.015105008 -0.02187865 -0.03377903 -0.034383323 0.03726036 -0.017135348 -0.0039836154 -0.028426446
-0.011425888 -0.016952174 -0.019186277 -0.045631398 -0.047008943 -0.0059245736 -0.026820265 0.008053077
-0.03393685 -0.016807867 0.018228825 -0.004421151 -0.019760596 0.0044425325 -0.013346731 -0.011122009
-0.013475055 -0.032318562 -0.021032982 -0.013865324 -0.023352325 -0.03138365 -0.009675076 0.026486909
-0.04778884 -0.020686707 -0.018451689 -0.018361297 -0.009170153 0.010377026 -0.049167715 -0.03284516
0.008776706 -0.015906673 0.008111323 -0.02781527 -0.016973447 -0.038835183 -0.02046993 -0.0017621034
-0.018866243 -0.03636292 -0.035442166 -0.01538752 -0.043431293 -0.022271406 -0.022999149 -0.024529858
-0.02748564 -0.008518617 -0.025753317 -0.022426631 -0.02794183 -0.025682414 -0.04073604 -0.013303167
0.0018389496 0.007934272 -0.0020302476 -0.025043549 0.01258479 -0.0027732013 -0.037720975 -0.03106468
-0.008071729 -0.027102444 -0.018571312 -0.009037789 -0.009878126 -0.035481483 -0.013850404 -0.016624069
0.0027276252 0.001688716 -0.02087172 -0.025468137 -0.007350983 -0.02810208 -0.026800867 -0.05132073
-0.02302522 -0.0026554272 -0.013941462 -0.021481523 -0.04295149 -0.047992058 0.012107653

network_body._body_endoder.seq_layers.2.weight f4 [127, 127]
00000000: 5cd0 3fbc 77a4 0abe 1f96 a83d b6dd 923d
00000010: ae2b 953d 7426 1b3e fdd4 14bc dac4 3c3e
00000020: 8e47 e0bc 790a 183e fc24 243e 1dba 9c3d
00000030: 2040 c8bc e0d2 583d 9bf0 b9bd 9747 d4bc
00000040: 072d 443d bfd4 a9be a9f9 d83c d827 79be
00000050: 0181 99bb b4ca d5bd c49e 7dbd bcae 52bd
00000060: bd35 26be 01ac 293e 4a2d 76be 133e b13c
00000070: bebb 40bd 7dfd 60be 8aeb 9b3a b3b2 00bd
00000080: 96ff 0dbe a8e1 0cbd c942 b7bd 460a 19bd
00000090: ed16 b8bd 5e2e d33c c805 cebd 9e0d 5bbc
000000a0: 768c 8d3d 0bda ea3c 5535 383e 56eb d23d
000000b0: aee8 f1bc bc9a 47be d23f cfbd 0c62 debd
000000c0: 4352 07be cf79 39be 4464 dd3d d7bf 0dbc
000000d0: 2fa6 18bd 9e2a 60bd 4227 08bd 8a3c 42be
000000e0: 0a7a a1bc 5e8e 1cbe 485a 443d 572a 0ebe
000000f0: 2a7c cfbd 36cb 873e 5ced 503e 7be8 85bd
00000100: 60c3 603d 30e1 2cbe f6ea 1ebe 9a31 e2bd
00000110: 7a0f 40be d759 2ebc d5d1 6f3d 691d b0bd
00000120: d8e7 76bd 2ca1 17be c678 03bd ce44 593d
00000130: d4c8 4ebe 1035 313d f25e 4abd 3a83 1f3d
00000140: da00 c2bc 601b aebd 7fed 863d 0e33 af3d
00000150: 9c39 ccbc 7e03 bf3d 2ef4 86bd f322 2a3d
00000160: 5279 42be f449 903b a9f8 673d a066 1fbc
00000170: d414 ff3d 8bb8 a73d fe8b 1b3e dd17 6c3d
00000180: 4117 843d 46fd acbd 12dd 05bd 3f40 bfbd
00000190: 7405 31bd 38ec 873e d785 0ebb 12ef 803d
000001a0: 853f ec3b 33a1 e93c 03f2 94b9 4e7f eabb
000001b0: e06f af3c e980 88bd b395 8fbd 3ee0 1dbd
000001c0: e2ce 473e bf4e 6c3d b4df 023e d0e7 ddbd
000001d0: 533f 1c3e 5718 d33d 8d1c 2ebe 20bb 5fbb
000001e0: b104 bbbd a0e6 9bbd 963c e83d 47ff 103e
000001f0: 064b 4bbd 5a51 4e3d 780a 31be 1bf9 16bd
00000200: 75d0 b9bd 06da 9a3d f58e 8dbe 7b14 2d3e
00000210: 9d4a 14be 194b eb3d a504 1b3b 3cd6 583c
00000220: abed 7d3b e01e 3dbe fdb2 5abd ae2a 253d
00000230: f9ba b9bd 7ece 78bc d127 60bd 8258 f0bd
00000240: 068a e3bc 88c7 90bd cb30 37be cce1 06be
00000250: e906 11be 07a2 b93d 25be 073d c6ea d73d
00000260: 5bfc bebd 69e3 2cbd 030c 43bc 302d 93bd
00000270: 4508 9b3d 7818 d8bd b0e4 f73d 93b3 29be
00000280: 6371 a73d 9f06 d1bd 8bd9 573d 6958 bd3c
00000290: 68b5 0dbe 7db9 9cbc 4971 ac3c 9a43 8b3e
000002a0: 61b2 c73c defd 2b3d 9cff d03b a4b6 00bd
000002b0: 5988 ce3d d9aa e13d cf2e 17be 1cb9 29bc
000002c0: ae18 eb3d e823 a03d 9afe 2dbd 77f9 bebd
000002d0: ba33 eb3d 6df0 13be 6eb8 e0bd ca19 053e
000002e0: 929f 40bd 0ff8 fcbc 6da3 3cbd eee2 8abd
000002f0: 4e35 02be 64e1 b93d 285c 2bbd a681 d33d
00000300: e05f 513d 5103 b53d 4887 ef3d 8948 0c3e
00000310: a139 123e 6d0f abbd bf6c 793d 3d75 d2bd
00000320: a936 1c3d 64ec a83d 5c79 153d abf5 0abc
00000330: 50a6 9b3d c134 853d e012 b03d 82d1 9a3d
00000340: 4bc2 55bd 50dd 1fbd d330 96bd cee5 84bd
00000350: 27ae b73d 062a 88bc a88f bc3c 059d 71be
00000360: 8de0 38be 2cdf d1bd 9b17 ca3c 2cdf 57bd
00000370: 23d0 d63d 33dc 1abe d1b4 7ebd ee4a 973c
00000380: b96d 243e 06de 62be 41ce babd b49e 18ba
00000390: 88ab c13d 8453 fabd 488d efbd 12ba 113c
000003a0: 236b e6bd 445a ac3c 7602 64bc 0bc8 8ebd
000003b0: a38f 86bd d858 ffbc 0013 cd3c 1110 24bd
000003c0: b7f2 333d 0ca3 d73d f26f 3fbd 0a14 d83d
000003d0: 2852 173e 6c87 b33c 216d 3b3d 70d7 01bd
000003e0: 07ce d1bc 1a4a 7a3d c329 8fbd 28f8 dabd
000003f0: 3ad8 7abd 182d 003e 7d79 343e 9ad2 0e3e
-0.011707392 -0.13539301 0.08231758 0.07171194 0.07283722 0.15151387 -0.0090839835 0.18434468
-0.02737787 0.14847745 0.16029733 0.07652686 -0.02444464 0.05293548 -0.09079095 -0.025913043
0.047894504 -0.33170125 0.026486235 -0.24331605 -0.004684568 -0.10439053 -0.06191899 -0.05143617
-0.16231437 0.1656952 -0.24040714 0.021636045 -0.047054045 -0.21971698 0.0011895758 -0.03142042
-0.1386703 -0.03439489 -0.08948285 -0.037363313 -0.08988748 0.025778946 -0.100596964 -0.013369946
0.069115564 0.028668424 0.17989095 0.10298793 -0.029529896 -0.1949262 -0.10119595 -0.10858545
-0.13214974 -0.18112873 0.1081014 -0.008651695 -0.03726786 -0.054728143 -0.033240564 -0.18968406
-0.019711513 -0.15288684 0.04793766 -0.13883339 -0.10131104 0.26522225 0.20403045 -0.06538483
0.054873824 -0.16882777 -0.15519318 -0.11044617 -0.18755904 -0.010641537 0.05854972 -0.085993595
-0.060279697 -0.14807576 -0.0320976 0.053044133 -0.20193797 0.043263495 -0.049406953 0.038943507
-0.023682047 -0.08501315 0.065882675 0.0855466 -0.024929814 0.09326838 -0.06589542 0.041537236
-0.18991593 0.004403347 0.056633625 -0.009729058 0.124551445 0.08189496 0.15190122 0.057639945
0.06449748 -0.084467456 -0.032681532 -0.09338426 -0.04321809 0.26547408 -0.0021747255 0.06295599
0.0072097206 0.028519249 -0.00028409073 -0.007156289 0.02141565 -0.06665213 -0.07010975 -0.038543932
0.19512513 0.057692286 0.12780648 -0.1083523 0.15258531 0.10307377 -0.17003079 -0.0034138635
-0.09131754 -0.076123476 0.11339681 0.1415988 -0.049632095 0.05037055 -0.1728915 -0.03685866
-0.09072963 0.07561116 -0.2764813 0.16902344 -0.14481588 0.11488933 0.0023653891 0.013234671
0.0038746397 -0.18468809 -0.053393353 0.040323906 -0.09068865 -0.01518595 -0.054725472 -0.117356315
-0.027775776 -0.070693076 -0.17889707 -0.13172072 -0.14162792 0.090641074 0.03314032 0.10542826
-0.09325477 -0.042209063 -0.011904719 -0.07186353 0.07569937 -0.10551542 0.121041656 -0.16572408
0.08175924 -0.10206341 0.0526977 0.023113446 -0.13838732 -0.019131416 0.021050112 0.27200013
0.02437705 0.041990153 0.0063781273 -0.03142418 0.100846 0.11018915 -0.1476395 -0.010359075
0.11479317 0.078193486 -0.042479135 -0.093249254 0.114844754 -0.14447184 -0.10972677 0.12998119
-0.047027178 -0.030880002 -0.046054292 -0.06781565 -0.12715647 0.09076193 -0.041835934 0.10327463
0.051116824 0.08838523 0.11695725 0.13699545 0.14279796 -0.083525516 0.060894724 -0.10276268
0.038138065 0.08248213 0.03649269 -0.008481423 0.07600081 0.06504203 0.0859735 0.07559492
-0.052187245 -0.03902942 -0.07333531 -0.06489144 0.08968764 -0.0166216 0.02301772 -0.23595054
-0.1805441 -0.10247645 0.02466946 -0.052703068 0.10488918 -0.15123062 -0.06218416 0.018468346
0.16057481 -0.22155008 -0.09121371 -0.00058219885 0.09456545 -0.122229606 -0.11696869 0.00889446
-0.112509035 0.021039136 -0.013916602 -0.06971749 -0.06570365 -0.031170294 0.025033474 -0.040054385
0.043932643 0.105291456 -0.04673762 0.10550697 0.14777434 0.02191516 0.04575837 -0.031699598
-0.025610937 0.061105825 -0.06990387 -0.10691863 -0.061241366 0.12517202 0.17624469 0.13947526

network_body.observation_encoder.processors.0.normalizer.running_mean f4 [33]
00000000: 0000 0000 7346 5e3f 66ae 6c3f 0000 0000
00000010: fdfc 563f e523 693f 0000 0000 30dd 483f
00000020: 00d3 623f 0000 0000 8bff 473f 693b 643f
00000030: 0000 0000 a081 223f 1c2e 503f 0000 0000
00000040: a64b 333f 844a 5d3f 0000 0000 802d 043f
00000050: 0416 413f 0000 0000 572e 233f fe82 573f
00000060: 0000 0000 f7a6 e53e d76d 373f 0000 0000
00000070: 0aa2 183f 27d3 533f 0000 0000 5d9d d33e
00000080: 22b9 323f
0.0 0.86826247 0.9245361 0.0 0.8397978 0.91070396 0.0 0.78462505
0.8860321 0.0 0.781243 0.8915315 0.0 0.6347904 0.8132036 0.0
0.70037305 0.86441827 0.0 0.5163193 0.7542422 0.0 0.63742584 0.84184253
0.0 0.44853947 0.7165198 0.0 0.5962225 0.8274407 0.0 0.41330996
0.6981374

network_body.observation_encoder.processors.1.normalizer.running_mean f4 [6]
00000000: 353e 7fbf 1ef1 183b 82e9 a93b bf51 7543
00000010: ab8d b33c 02a9 3d3d
-0.99704295 0.0023337076 0.005185307 245.31932 0.021918138 0.046303757
