Assets/results/CubeAgent12/AutoAgentFinale/AutoAgentFinale-1396.pt (torch, 188463 bytes, 28 tensors)

network_body.observation_encoder.processors.0.normalizer.running_mean f4 [33]
0	0x00000000	0.0
1	0x3ea37573	0.31925544
2	0x3ecf8e42	0.40538222
3	0x00000000	0.0
4	0x3eec0698	0.4609878
5	0x3f02a696	0.5103544
6	0x00000000	0.0
7	0x3ee107da	0.43951303
8	0x3ef9aed0	0.48766184
9	0x00000000	0.0
10	0x3f0dd5d7	0.5540442
11	0x3f179989	0.5921865
12	0x00000000	0.0
13	0x3ef5ebd7	0.48031494
14	0x3f076ebb	0.52903336
15	0x00000000	0.0
16	0x3f178c3a	0.59198344
17	0x3f21ed62	0.6325284
18	0x00000000	0.0
19	0x3ef9f3e2	0.4881888
20	0x3f0a50dd	0.5402964
21	0x00000000	0.0
22	0x3f1e82dd	0.6191843
23	0x3f2971ce	0.6618928
24	0x00000000	0.0
25	0x3efa51b5	0.48890463
26	0x3f0bb424	0.5457175
27	0x00000000	0.0
28	0x3f243117	0.64137405
29	0x3f2f8008	0.68554735
30	0x00000000	0.0
31	0x3ee5cb9c	0.44881904
32	0x3f0c19d9	0.5472694

network_body.observation_encoder.processors.0.normalizer.running_variance f4 [33]
0	0x3f800000	1.0
1	0x43984e5b	304.61215
2	0x437f1a53	255.10283
3	0x3f800000	1.0
4	0x43ae0fce	348.12347
5	0x43973548	302.41626
6	0x3f800000	1.0
7	0x43ac91bf	345.13864
8	0x43963e1c	300.48523
9	0x3f800000	1.0
10	0x43ad15b2	346.1695
11	0x4397fa49	303.95535
12	0x3f800000	1.0
13	0x43aedabc	349.70886
14	0x439844a7	304.53635
15	0x3f800000	1.0
16	0x43a93714	338.4303
17	0x4391947c	291.16003
18	0x3f800000	1.0
19	0x43af071d	350.05557
20	0x439788f4	303.06995
21	0x3f800000	1.0
22	0x43a533e7	330.4055
23	0x438b9cb6	279.2243
24	0x3f800000	1.0
25	0x43af09fc	350.078
26	0x43946de5	296.85855
27	0x3f800000	1.0
28	0x43a12a0a	322.32843
29	0x4384abc0	265.3418
30	0x3f800000	1.0
31	0x43ad4b9b	346.59067
32	0x4393089c	294.06726

network_body.observation_encoder.processors.1.normalizer.running_mean f4 [6]
0	0xbf7fd10c	-0.99928355
1	0x3a43987d	0.0007461382
2	0x396cc87f	0.00022581404
3	0x43f7a48f	495.2856
4	0x3cd6704d	0.026176596
5	0x4121f570	10.122421

network_body.observation_encoder.processors.1.normalizer.running_variance f4 [6]
0	0x3fffe88a	1.999284
1	0x3f801160	1.0005302
2	0x3f802909	1.0012523
3	0x48880cc9	278630.28
4	0x40a54dc3	5.1657424
5	0x47569a96	54938.586

network_body.processors.0.normalizer.running_mean f4 [33]
0	0x00000000	0.0
1	0x3ea37573	0.31925544
2	0x3ecf8e42	0.40538222
3	0x00000000	0.0
4	0x3eec0698	0.4609878
5	0x3f02a696	0.5103544
6	0x00000000	0.0
7	0x3ee107da	0.43951303
8	0x3ef9aed0	0.48766184
9	0x00000000	0.0
10	0x3f0dd5d7	0.5540442
11	0x3f179989	0.5921865
12	0x00000000	0.0
13	0x3ef5ebd7	0.48031494
14	0x3f076ebb	0.52903336
15	0x00000000	0.0
16	0x3f178c3a	0.59198344
17	0x3f21ed62	0.6325284
18	0x00000000	0.0
19	0x3ef9f3e2	0.4881888
20	0x3f0a50dd	0.5402964
21	0x00000000	0.0
22	0x3f1e82dd	0.6191843
23	0x3f2971ce	0.6618928
24	0x00000000	0.0
25	0x3efa51b5	0.48890463
26	0x3f0bb424	0.5457175
27	0x00000000	0.0
28	0x3f243117	0.64137405
29	0x3f2f8008	0.68554735
30	0x00000000	0.0
31	0x3ee5cb9c	0.44881904
32	0x3f0c19d9	0.5472694

network_body.processors.0.normalizer.running_variance f4 [33]
0	0x3f800000	1.0
1	0x43984e5b	304.61215
2	0x437f1a53	255.10283
3	0x3f800000	1.0
4	0x43ae0fce	348.12347
5	0x43973548	302.41626
6	0x3f800000	1.0
7	0x43ac91bf	345.13864
8	0x43963e1c	300.48523
9	0x3f800000	1.0
10	0x43ad15b2	346.1695
11	0x4397fa49	303.95535
12	0x3f800000	1.0
13	0x43aedabc	349.70886
14	0x439844a7	304.53635
15	0x3f800000	1.0
16	0x43a93714	338.4303
17	0x4391947c	291.16003
18	0x3f800000	1.0
19	0x43af071d	350.05557
20	0x439788f4	303.06995
21	0x3f800000	1.0
22	0x43a533e7	330.4055
23	0x438b9cb6	279.2243
24	0x3f800000	1.0
25	0x43af09fc	350.078
26	0x43946de5	296.85855
27	0x3f800000	1.0
28	0x43a12a0a	322.32843
29	0x4384abc0	265.3418
30	0x3f800000	1.0
31	0x43ad4b9b	346.59067
32	0x4393089c	294.06726

network_body.processors.1.normalizer.running_mean f4 [6]
0	0xbf7fd10c	-0.99928355
1	0x3a43987d	0.0007461382
2	0x396cc87f	0.00022581404
3	0x43f7a48f	495.2856
4	0x3cd6704d	0.026176596
5	0x4121f570	10.122421

network_body.processors.1.normalizer.running_variance f4 [6]
0	0x3fffe88a	1.999284
1	0x3f801160	1.0005302
2	0x3f802909	1.0012523
3	0x48880cc9	278630.28
4	0x40a54dc3	5.1657424
5	0x47569a96	54938.586

network_body._body_endoder.seq_layers.0.weight f4 [127, 39]
0	0xbe067478	-0.13130367
1	0xbe147152	-0.14496353
2	0xbd03cccd	-0.032177735
3	0xbe17f52d	-0.14839621
4	0xbd903dce	-0.07043038
5	0x3e627a69	0.22117008
6	0x3e867390	0.26260042
7	0xbe38aca7	-0.18034612
8	0xbdecd057	-0.11563175
9	0x3de71ded	0.11285005
10	0xbe67d7fd	-0.22640987
11	0xbbce176f	-0.0062894146
12	0xbe70a568	-0.23500597
13	0xbb2615bf	-0.0025342552
14	0x3e097e8a	0.13427177
15	0x3ea252a6	0.3170368
16	0xbdd8fac3	-0.10594704
17	0xbb4dd09e	-0.0031404863
18	0x3d86798d	0.06566153
19	0x3e413803	0.18869023
20	0xbdd1049a	-0.10205956
21	0x3d3a8f69	0.045546923
22	0x3ddf4986	0.10902695
23	0x3a90462c	0.0011007241
24	0xbd915228	-0.07095748
25	0x3d828ff1	0.06375111
26	0xbba86f5e	-0.005140229
27	0x3e1f9240	0.15583134
28	0x3d41921b	0.047258478
29	0xbe214387	-0.15748416
30	0xbd825f62	-0.06365849
31	0x3e2fcab1	0.17167164
32	0xbc9fed39	-0.019522296
33	0x3dd4df63	0.1039417
34	0xbd9dab10	-0.07698643
35	0x3e0b77dc	0.13619941
36	0xbe8f690b	-0.2800983
37	0xbe1efe9e	-0.15526816
38	0x3e248ca4	0.16069275
39	0x3db843da	0.08997317
40	0xbe409ce4	-0.18809849
41	0x3ea7b79c	0.3275727
42	0x3de16ebc	0.11007449
43	0xbcab62f9	-0.020921217
44	0x3e1e0604	0.15431982
45	0x3e042c4e	0.12907526
46	0xbe112019	-0.141724
47	0x3e8114ea	0.2521127
48	0xbe0cd407	-0.13752757
49	0x3eb8c64d	0.3608879
50	0xbe310273	-0.1728609
51	0x3de0d479	0.10978026
52	0x3e566f02	0.20940784
53	0xbda046dc	-0.07826015
54	0xbd2e9d78	-0.042630643
55	0x3d9ac138	0.07556385
56	0x3e3489e6	0.17630729
57	0xbd1bef9d	-0.03807031
58	0xbe0e41f0	-0.1389234
59	0xbe807d15	-0.2509543
60	0x3e44c422	0.19215444
61	0x3d033150	0.03202945
62	0xbe0079d8	-0.1254648
63	0x3ea06623	0.31327924
64	0x3e260a52	0.16214874
65	0xbd398032	-0.045288272
66	0xbe49faa1	-0.19724514
67	0xbd8630ed	-0.065523006
68	0xbcc344e4	-0.02383656
69	0x3d364ecb	0.044508737
70	0x3e06d1ce	0.13165972
71	0xbe94e05e	-0.2907743
72	0x3eae2341	0.34011272
73	0xbcb06c66	-0.021536063
74	0xbe9d6273	-0.30739173
75	0x3e1e8c99	0.15483321
76	0x3e800b90	0.2500882
77	0xbe75f287	-0.24018298
78	0xbd7f6a04	-0.062356964
79	0xbd956485	-0.07294563
80	0x3d8393a3	0.06424644
81	0x3de5d1f0	0.11221683
82	0xbe8ac3c5	-0.27102485
83	0x3d112552	0.035435982
84	0xbd974a38	-0.07387203
85	0x3d5b4e98	0.05354175
86	0x3e55fae1	0.20896484
87	0xbe3cdac1	-0.18442823
88	0xbd8d0a4b	-0.06886729
89	0x3b817752	0.0039509917
90	0xbc290cf7	-0.0103180325
91	0xbd8e46d0	-0.069471
92	0x3e418566	0.18898544
93	0xbe1c1af0	-0.15244651
94	0xbe41da9f	-0.18931054
95	0xbd904e85	-0.070462264
96	0x3dfbc7d8	0.122939765
97	0xbd536907	-0.051613834
98	0xbd637936	-0.055535518
99	0xbe126641	-0.1429682
100	0xbe4bbf1e	-0.19897124
101	0xbd964c58	-0.0733878
102	0xbd079762	-0.033103354
103	0x3d23882f	0.039924797
104	0x3bbef1a5	0.005827146
105	0x3e781adb	0.24228995
106	0x3d0ebd53	0.034848522
107	0x3c88056d	0.01660415
108	0x3e66d9bc	0.22543997
109	0x3e4438a1	0.19162227
110	0x3e335b01	0.17515184
111	0xbd386e2a	-0.045026936
112	0xbc99ab83	-0.018758541
113	0x3db2f263	0.08737638
114	0x3e1ff5e5	0.15621145
115	0x3e3f3c1d	0.18675275
116	0xbd9ac728	-0.07557517
117	0x3deae5e7	0.11469632
118	0x3ba57479	0.005049285
119	0x3d04f24f	0.032457646
120	0x3d59d805	0.053184528
121	0x3dd637e7	0.10459881
122	0xbd3e4805	-0.046455402
123	0x3dca8694	0.0988895
124	0xbdcdaa4f	-0.100422494
125	0x3d59a434	0.053135112
126	0x3cbb6683	0.02287603
127	0xbd975a38	-0.07390255
128	0x3dd688a4	0.10475281
129	0x3d5cc16e	0.053895406
130	0x3e0d4d32	0.13798979
131	0xbe106f1c	-0.14104885
132	0xbdcefce4	-0.10106829
133	0x3cdd296a	0.026997287
134	0x3e129cf2	0.14317682
135	0x3c3c5038	0.011493735
136	0xbea1b33f	-0.31582066
137	0x3e7dcb1d	0.24784513
138	0xbdde6a5a	-0.10860129
139	0xbbe6c27c	-0.0070422273
140	0xbea0d75e	-0.31414312
141	0x3d5595be	0.05214476
142	0x3e04e817	0.1297916
143	0xbe2071f1	-0.15668465
144	0xbd86b8d8	-0.06578225
145	0xbe82aa2d	-0.2552046
146	0x3e1551ea	0.14582029
147	0xbd1d3873	-0.038383912
148	0xbe19bc6d	-0.15013285
149	0xbe29f4be	-0.16597268
150	0x3df48387	0.11939149
151	0xbe3fb456	-0.18721136
152	0x3d82290f	0.063554876
153	0x3deab1d2	0.11459698
154	0xbe05b91a	-0.13058892
155	0xbd95dfcf	-0.07318079
156	0x3ea31e87	0.31859228
157	0x3e5d70c0	0.21625042
158	0x3db1662b	0.08662065
159	0x3d63e2a8	0.055636078
160	0x3e463af9	0.19358434
161	0x3dd390c3	0.103303455
162	0x3e1e7a9c	0.1547646
163	0x3e451ba9	0.19248833
164	0xbd8b30a7	-0.06796389
165	0xbe156a62	-0.14591363
166	0xbd9ded28	-0.077112496
167	0x3d533915	0.05156811
168	0x3dcab066	0.098969266
169	0x3b6ff1c8	0.0036612619
170	0x3dccb26e	0.0999497
171	0x3e1107a8	0.14163077
172	0x3de7468c	0.112927526
173	0xbde701b9	-0.112796254
174	0xbe8efef7	-0.27928898
175	0x3deb3936	0.114855215
176	0xbec4da88	-0.38447976
177	0xbdfce1eb	-0.12347778
178	0xbe90ce7e	-0.2828254
179	0x3e68a20a	0.22718063
180	0xbe0597d3	-0.13046198
181	0xbc906c6e	-0.017629828
182	0xbd2bb6af	-0.041922268
183	0xbe74e4f1	-0.23915459
184	0xbd4c529b	-0.049883466
185	0x3d0583bd	0.03259634
186	0xbd49f629	-0.049307022
187	0xbe4c6cd8	-0.19963396
188	0xbe9235c8	-0.28556657
189	0x3dea6913	0.114458226
190	0x3e52b7b8	0.20577896
191	0xbdf3f8d1	-0.11912692
192	0x3d954f53	0.072905205
193	0xbd9c4084	-0.07629493
194	0xbe53e770	-0.20693755
195	0x3d91e254	0.07123247
196	0xbe23d1dd	-0.15998025
197	0xbe16f147	-0.14740478
198	0xbdecedf4	-0.115688235
199	0x3e140359	0.14454402
200	0xbcbfdd95	-0.023421088
201	0x3dd0c366	0.10193519
202	0x3d80835c	0.06275055
203	0x3bc61f2a	0.0060461955
204	0xbc013a40	-0.007887423
205	0x3e44d3b4	0.19221383
206	0x3dd3424e	0.10315381
207	0xbde5692b	-0.112017
208	0x3e256769	0.16152729
209	0xbe15e88e	-0.14639494
210	0xbdfe1be0	-0.124076605
211	0x3e31944c	0.17341727
212	0x3e05fb7c	0.13084215
213	0xbe40e2f6	-0.18836579
214	0x3deb8b64	0.11501196
215	0x3e1079d8	0.1410898
216	0xbe9d3c2a	-0.30709964
217	0xbe8faeac	-0.28062952
218	0xbe5919e2	-0.2120128
219	0xbd378fdb	-0.044814926
220	0xbc3fa3f4	-0.011696804
221	0xbde89f39	-0.11358494
222	0x3db43a15	0.08800141
223	0xbdad5147	-0.08462768
224	0xbce094ef	-0.027414767
225	0xbca57132	-0.020195577
226	0xbe17035c	-0.14747375
227	0x3e3bd762	0.18343881
228	0x3de5a117	0.11212366
229	0xbd8a40f3	-0.06750669
230	0xbeaf520a	-0.34242278
231	0x3da6bc0f	0.08141338
232	0x3e26be01	0.16283418
233	0xbe2bfb81	-0.1679516
234	0x3c905448	0.017618313
235	0xbbb77ac2	-0.0055993507
236	0x3e656bde	0.2240443
237	0xbdbfce64	-0.09365538
238	0xbe1637c8	-0.14669716
239	0x3d2dd8d6	0.04244312
240	0x3da51cfa	0.080621675
241	0x3e4f7f58	0.20263422
242	0xbea5ba8c	-0.32368886
243	0xbd866660	-0.06562495
244	0xbd8c8dcf	-0.06862985
245	0xbe7a96aa	-0.24471536
246	0x3b209530	0.0024502985
247	0xbe200101	-0.15625383
248	0xbd861552	-0.06547035
249	0x3e89763a	0.26848012
250	0xbc9bf72b	-0.019038757
251	0x3e9e85ad	0.30961362
252	0x3c4773c2	0.012173595
253	0xba85aa22	-0.0010197798
254	0x3d211392	0.039325304
255	0xbde071ef	-0.10959231

network_body._body_endoder.seq_layers.0.bias f4 [127]
0	0x00000000	0.0
1	0x00000000	0.0
2	0x00000000	0.0
3	0x00000000	0.0
4	0x00000000	0.0
5	0x00000000	0.0
6	0x00000000	0.0
7	0x00000000	0.0
8	0x00000000	0.0
9	0x00000000	0.0
10	0x00000000	0.0
11	0x00000000	0.0
12	0x00000000	0.0
13	0x00000000	0.0
14	0x00000000	0.0
15	0x00000000	0.0
16	0x00000000	0.0
17	0x00000000	0.0
18	0x00000000	0.0
19	0x00000000	0.0
20	0x00000000	0.0
21	0x00000000	0.0
22	0x00000000	0.0
23	0x00000000	0.0
24	0x00000000	0.0
25	0x00000000	0.0
26	0x00000000	0.0
27	0x00000000	0.0
28	0x00000000	0.0
29	0x00000000	0.0
30	0x00000000	0.0
31	0x00000000	0.0
32	0x00000000	0.0
33	0x00000000	0.0
34	0x00000000	0.0
35	0x00000000	0.0
36	0x00000000	0.0
37	0x00000000	0.0
38	0x00000000	0.0
39	0x00000000	0.0
40	0x00000000	0.0
41	0x00000000	0.0
42	0x00000000	0.0
43	0x00000000	0.0
44	0x00000000	0.0
45	0x00000000	0.0
46	0x00000000	0.0
47	0x00000000	0.0
48	0x00000000	0.0
49	0x00000000	0.0
50	0x00000000	0.0
51	0x00000000	0.0
52	0x00000000	0.0
53	0x00000000	0.0
54	0x00000000	0.0
55	0x00000000	0.0
56	0x00000000	0.0
57	0x00000000	0.0
58	0x00000000	0.0
59	0x00000000	0.0
60	0x00000000	0.0
61	0x00000000	0.0
62	0x00000000	0.0
63	0x00000000	0.0
64	0x00000000	0.0
65	0x00000000	0.0
66	0x00000000	0.0
67	0x00000000	0.0
68	0x00000000	0.0
69	0x00000000	0.0
70	0x00000000	0.0
71	0x00000000	0.0
72	0x00000000	0.0
73	0x00000000	0.0
74	0x00000000	0.0
75	0x00000000	0.0
76	0x00000000	0.0
77	0x00000000	0.0
78	0x00000000	0.0
79	0x00000000	0.0
80	0x00000000	0.0
81	0x00000000	0.0
82	0x00000000	0.0
83	0x00000000	0.0
84	0x00000000	0.0
85	0x00000000	0.0
86	0x00000000	0.0
87	0x00000000	0.0
88	0x00000000	0.0
89	0x00000000	0.0
90	0x00000000	0.0
91	0x00000000	0.0
92	0x00000000	0.0
93	0x00000000	0.0
94	0x00000000	0.0
95	0x00000000	0.0
96	0x00000000	0.0
97	0x00000000	0.0
98	0x00000000	0.0
99	0x00000000	0.0
100	0x00000000	0.0
101	0x00000000	0.0
102	0x00000000	0.0
103	0x00000000	0.0
104	0x00000000	0.0
105	0x00000000	0.0
106	0x00000000	0.0
107	0x00000000	0.0
108	0x00000000	0.0
109	0x00000000	0.0
110	0x00000000	0.0
111	0x00000000	0.0
112	0x00000000	0.0
113	0x00000000	0.0
114	0x00000000	0.0
115	0x00000000	0.0
116	0x00000000	0.0
117	0x00000000	0.0
118	0x00000000	0.0
119	0x00000000	0.0
120	0x00000000	0.0
121	0x00000000	0.0
122	0x00000000	0.0
123	0x00000000	0.0
124	0x00000000	0.0
125	0x00000000	0.0
126	0x00000000	0.0

network_body._body_endoder.seq_layers.2.weight f4 [127, 127]
0	0x3d887ab5	0.066640295
1	0x3d888b18	0.06667155
2	0x3d71f586	0.05907204
3	0x3d11f5b3	0.035634708
4	0xbd1cc781	-0.0382762
5	0xbea1704a	-0.31530982
6	0xbd60d3b3	-0.054889392
7	0x3e1515e7	0.14559136
8	0xbe1b9c11	-0.15196253
9	0xbca1a0cd	-0.019729996
10	0x3d3442a6	0.044008873
11	0xbca1cd39	-0.019751178
12	0xbcfb4b8e	-0.030675676
13	0xbe09d558	-0.1346029
14	0x3d96656f	0.07343566
15	0x3d8762d2	0.06610645
16	0x3c0a3ef3	0.00843786
17	0x3cdcb412	0.026941333
18	0xbdedb2f7	-0.116064005
19	0x3db0fbf5	0.08641807
20	0x3d0f87d7	0.035041656
21	0x3a5a8258	0.0008335463
22	0xbdf6d909	-0.12053115
23	0x3d7e3e13	0.062070917
24	0xbdd04567	-0.101694874
25	0xbd9a355c	-0.07529709
26	0x3dc2071e	0.09474014
27	0x3d926f3e	0.07150124
28	0xbd315577	-0.043294396
29	0x3d33f97f	0.04393911
30	0x3d4be92e	0.049782924
31	0x3cbd151a	0.023081351
32	0x3cfa176b	0.030528745
33	0x3e109325	0.14118631
34	0xbe37255c	-0.17885345
35	0x3cdc74f5	0.026911238
36	0xbcb1ad29	-0.021689015
37	0xbdfb7b56	-0.12279384
38	0x3da031fd	0.078220345
39	0xbcaa9344	-0.020822175
40	0x3de37574	0.11106387
41	0x3dd5b752	0.10435356
42	0xbd9497ef	-0.072555415
43	0x3dba88f7	0.09108155
44	0xbd7de91d	-0.061989892
45	0xbc47fd4d	-0.012206388
46	0xbd54bdc1	-0.051938776
47	0xbc278108	-0.010223635
48	0x3dc02fd9	0.09384126
49	0xbd08d55c	-0.0334066
50	0x3cd2c947	0.025730742
51	0x3d7146cd	0.05890541
52	0x3d99cb31	0.07509459
53	0xbdcc30ce	-0.09970246
54	0xbd9447dd	-0.07240269
55	0x3e28f3d9	0.1649927
56	0xbdc70907	-0.09718519
57	0x3db43c6a	0.088005856
58	0xbdd2c8d0	-0.10292208
59	0x3e251837	0.16122518
60	0xbdd212ca	-0.1025749
61	0x3dc909a1	0.0981629
62	0x3d4c1470	0.04982418
63	0xbd48acaa	-0.04899279
64	0xbcfb74e0	-0.030695379
65	0xbe2aaf9d	-0.16668554
66	0xbdf6858f	-0.12037193
67	0xbd9e4fcd	-0.077300645
68	0x3d982a30	0.074299216
69	0x3dabf3ab	0.08396085
70	0xbdeccf4f	-0.115629785
71	0xbdafefd2	-0.08590664
72	0xbe29c041	-0.16577245
73	0xbca035ef	-0.019556968
74	0xbd8f1637	-0.06986659
75	0xbd6ae305	-0.05734541
76	0xbb579531	-0.0032895321
77	0xbd50d08b	-0.050980132
78	0xbddb7641	-0.107159145
79	0xbe133f73	-0.14379673
80	0xbd87a05c	-0.06622383
81	0x3c6826de	0.014169423
82	0x3db22c0a	0.08699806
83	0x3e13e264	0.1444183
84	0x3e09e275	0.13465293
85	0x3cbc92f1	0.023019286
86	0x3c3be9eb	0.011469345
87	0xbc9268e6	-0.017872285
88	0xbd9b434b	-0.075811945
89	0xbda4154d	-0.08011875
90	0x3c8e2e2e	0.017356005
91	0xbcc4bcf8	-0.024015889
92	0x3dbfb7b5	0.09361211
93	0x3d2b4603	0.041814815
94	0x3d1fe063	0.03903235
95	0x3d8bbc63	0.06823041
96	0x3d25031c	0.04028617
97	0x3c378c81	0.011202932
98	0xbd9ff295	-0.07809941
99	0xbdfcf0d3	-0.12350621
100	0xbd203529	-0.039113197
101	0xbd28a51d	-0.04117309
102	0xbdfc47e7	-0.12318402
103	0xbba43ab5	-0.0050118812
104	0xbdcc8f0a	-0.0998822
105	0x3c5f5155	0.013630231
106	0x3d89831d	0.06714461
107	0x3db6c224	0.08923748
108	0x3db87a23	0.09007671
109	0x3d8e67a6	0.06953363
110	0x3db0b480	0.08628178
111	0x3e4bcd72	0.1990259
112	0x3c3c2214	0.011482734
113	0x3d9d242d	0.076729156
114	0xbe0b7f49	-0.13622774
115	0x3c0dbd84	0.008651141
116	0xbce55fa5	-0.027999708
117	0x3dbdf376	0.09274952
118	0x3d624b5a	0.055247642
119	0x3cf463bc	0.029832713
120	0xbdf8c54c	-0.121470064
121	0xbc1e5c59	-0.009665572
122	0x3da6589a	0.08122368
123	0xbc978f7c	-0.018501036
124	0xbd118f65	-0.035537142
125	0x3dfe0f02	0.12405206
126	0xbd2865f1	-0.041112844
127	0xbda2fda3	-0.079585336
128	0xbd1a5c5e	-0.037685744
129	0x3d938ff4	0.07205191
130	0xbd18e27c	-0.037325367
131	0x3dc48911	0.09596456
132	0x3cc74267	0.024323655
133	0xbe53b9a0	-0.20676279
134	0xbdd20026	-0.102539346
135	0x3ca70cb5	0.020391801
136	0xbbe46778	-0.0069703422
137	0xbaafcd5f	-0.0013412646
138	0xbd4cd975	-0.05001207
139	0x3e14797b	0.14499466
140	0x3dd073b4	0.101783186
141	0xbde0d5cc	-0.109782785
142	0xbcc8da62	-0.024518196
143	0xbe071f85	-0.13195617
144	0x3d46e182	0.048554905
145	0x3e02227c	0.12708467
146	0xbd112984	-0.035439983
147	0x3e2a44db	0.16627829
148	0xbd40e562	-0.047093756
149	0x3d2be24e	0.041963868
150	0x3d5d77cc	0.054069325
151	0xbe02c4b0	-0.12770343
152	0x3dae0a6c	0.084980816
153	0xba852352	-0.0010157621
154	0xbda1b697	-0.078961544
155	0x3d43f3c7	0.047839906
156	0xbd977539	-0.07395405
157	0x3c2d4d4d	0.010577512
158	0x3c2a0e12	0.010379331
159	0x3d7da6ff	0.061926838
160	0xbbdd0e79	-0.00674611
161	0x3e2b698b	0.1673948
162	0x3d51ed12	0.05125148
163	0x3d79e3c6	0.061008237
164	0xbd4b534d	-0.04963999
165	0x3cf11796	0.029430192
166	0xbe1a1c2b	-0.15049808
167	0x3d8ccd83	0.06875136
168	0x3e0e4ff6	0.1389769
169	0xbb8bdef5	-0.004268522
170	0x3dd1fcbb	0.10253283
171	0x3c963b1c	0.018338732
172	0xbcb9ebde	-0.022695478
173	0x3c878e22	0.016547266
174	0xbe00dc4a	-0.12584034
175	0xbd4d61ae	-0.050141983
176	0xbe748cd4	-0.23881847
177	0x3dcc3461	0.09970928
178	0xbc333aa6	-0.010939276
179	0xbbeb1e12	-0.0071752155
180	0xbe18430b	-0.14869325
181	0x3d28b1a6	0.041185044
182	0xbd2003cb	-0.039066117
183	0x3cfc8777	0.030826313
184	0xbd602bb9	-0.054729197
185	0x3ded1dfd	0.115779854
186	0xba039389	-0.0005019238
187	0xbdde5ec8	-0.10857922
188	0x3e370fa0	0.17877054
189	0xbda0722b	-0.07834276
190	0x3d5e0e3c	0.054212794
191	0x3e3ade1a	0.18248788
192	0x3cadfb72	0.021238063
193	0xbd27e47c	-0.040989384
194	0xbe336c4d	-0.17521782
195	0x3ccea941	0.02522719
196	0x3d1f2a4d	0.0388587
197	0x3dcfcda3	0.10146644
198	0xbe2a1029	-0.16607727
199	0x3d1b95b0	0.03798455
200	0x3ca32b3c	0.019918077
201	0xbd88c15f	-0.066775076
202	0xbc3541e6	-0.011063075
203	0xbd7d6d80	-0.061872005
204	0xbcc54455	-0.024080435
205	0xbe18e769	-0.14932026
206	0x3c9f62c5	0.019456277
207	0x3cd3150c	0.025766872
208	0xbe90210b	-0.2815021
209	0x3d84e2c0	0.06488562
210	0xbcb3a861	-0.021930875
211	0x3cf876cd	0.030330086
212	0xbd4a1b4d	-0.049342442
213	0x3d92d035	0.071686186
214	0xbbf88906	-0.007584694
215	0xbdb5c645	-0.088757075
216	0xbd51cb95	-0.05121954
217	0xbdb785e9	-0.08961088
218	0xbd73f0c5	-0.059555788
219	0x3e1b0675	0.15139182
220	0x3d354988	0.044259578
221	0xbd8578d5	-0.065171875
222	0x3d84ae1f	0.064785235
223	0x3dc93984	0.09825423
224	0xbe5964de	-0.21229884
225	0x3bb52756	0.005528371
226	0xbe549182	-0.20758632
227	0x3e3fa650	0.18715787
228	0x3dcfbfa3	0.10143974
229	0xbda847ab	-0.082167946
230	0x3e15265c	0.14565414
231	0xbdab2b6c	-0.083578914
232	0x3de0eef9	0.109830804
233	0x3d9830c4	0.07431176
234	0x3ba7cd60	0.005120918
235	0xbdd72c4a	-0.10506494
236	0x3d9bfe9c	0.07616922
237	0x3ca31bcf	0.019910721
238	0x3c9efc96	0.019407552
239	0x3b395385	0.0028278541
240	0xbd56db32	-0.052455135
241	0x3ccbfe2f	0.024901478
242	0xbd6fa90d	-0.05851083
243	0xbbfd7b8f	-0.0077356766
244	0xbd7db5a3	-0.0619408
245	0x3de415c2	0.111369625
246	0xbb2069f6	-0.002447722
247	0x3de50ce9	0.11184103
248	0xbc4071e0	-0.0117459
249	0x3dbc036f	0.091803424
250	0xbe194c8b	-0.14970605
251	0xbd1232cd	-0.03569298
252	0x3dc2efae	0.095183715
253	0x3e38ee71	0.18059708
254	0xbc5ce739	-0.013482862
255	0xbd676cac	-0.056500122

network_body._body_endoder.seq_layers.2.bias f4 [127]
0	0x00000000	0.0
1	0x00000000	0.0
2	0x00000000	0.0
3	0x00000000	0.0
4	0x00000000	0.0
5	0x00000000	0.0
6	0x00000000	0.0
7	0x00000000	0.0
8	0x00000000	0.0
9	0x00000000	0.0
10	0x00000000	0.0
11	0x00000000	0.0
12	0x00000000	0.0
13	0x00000000	0.0
14	0x00000000	0.0
15	0x00000000	0.0
16	0x00000000	0.0
17	0x00000000	0.0
18	0x00000000	0.0
19	0x00000000	0.0
20	0x00000000	0.0
21	0x00000000	0.0
22	0x00000000	0.0
23	0x00000000	0.0
24	0x00000000	0.0
25	0x00000000	0.0
26	0x00000000	0.0
27	0x00000000	0.0
28	0x00000000	0.0
29	0x00000000	0.0
30	0x00000000	0.0
31	0x00000000	0.0
32	0x00000000	0.0
33	0x00000000	0.0
34	0x00000000	0.0
35	0x00000000	0.0
36	0x00000000	0.0
37	0x00000000	0.0
38	0x00000000	0.0
39	0x00000000	0.0
40	0x00000000	0.0
41	0x00000000	0.0
42	0x00000000	0.0
43	0x00000000	0.0
44	0x00000000	0.0
45	0x00000000	0.0
46	0x00000000	0.0
47	0x00000000	0.0
48	0x00000000	0.0
49	0x00000000	0.0
50	0x00000000	0.0
51	0x00000000	0.0
52	0x00000000	0.0
53	0x00000000	0.0
54	0x00000000	0.0
55	0x00000000	0.0
56	0x00000000	0.0
57	0x00000000	0.0
58	0x00000000	0.0
59	0x00000000	0.0
60	0x00000000	0.0
61	0x00000000	0.0
62	0x00000000	0.0
63	0x00000000	0.0
64	0x00000000	0.0
65	0x00000000	0.0
66	0x00000000	0.0
67	0x00000000	0.0
68	0x00000000	0.0
69	0x00000000	0.0
70	0x00000000	0.0
71	0x00000000	0.0
72	0x00000000	0.0
73	0x00000000	0.0
74	0x00000000	0.0
75	0x00000000	0.0
76	0x00000000	0.0
77	0x00000000	0.0
78	0x00000000	0.0
79	0x00000000	0.0
80	0x00000000	0.0
81	0x00000000	0.0
82	0x00000000	0.0
83	0x00000000	0.0
84	0x00000000	0.0
85	0x00000000	0.0
86	0x00000000	0.0
87	0x00000000	0.0
88	0x00000000	0.0
89	0x00000000	0.0
90	0x00000000	0.0
91	0x00000000	0.0
92	0x00000000	0.0
93	0x00000000	0.0
94	0x00000000	0.0
95	0x00000000	0.0
96	0x00000000	0.0
97	0x00000000	0.0
98	0x00000000	0.0
99	0x00000000	0.0
100	0x00000000	0.0
101	0x00000000	0.0
102	0x00000000	0.0
103	0x00000000	0.0
104	0x00000000	0.0
105	0x00000000	0.0
106	0x00000000	0.0
107	0x00000000	0.0
108	0x00000000	0.0
109	0x00000000	0.0
110	0x00000000	0.0
111	0x00000000	0.0
112	0x00000000	0.0
113	0x00000000	0.0
114	0x00000000	0.0
115	0x00000000	0.0
116	0x00000000	0.0
117	0x00000000	0.0
118	0x00000000	0.0
119	0x00000000	0.0
120	0x00000000	0.0
121	0x00000000	0.0
122	0x00000000	0.0
123	0x00000000	0.0
124	0x00000000	0.0
125	0x00000000	0.0
126	0x00000000	0.0

action_model._continuous_distribution.log_sigma f4 [1, 2]
0	0x00000000	0.0
1	0x00000000	0.0

action_model._continuous_distribution.mu.weight f4 [2, 127]
0	0xbc4fb247	-0.012676782
1	0x3c58659f	0.013207822
2	0xbb8ace9b	-0.004236055
3	0x3cbc1841	0.022960784
4	0x3d271df4	0.04080005
5	0x3d1c1d48	0.038113862
6	0xbc761093	-0.0150186
7	0x3c0dd1ce	0.008655978
8	0x3c66c9a8	0.0140861645
9	0xbca8eb60	-0.020620048
10	0x3cf28cea	0.029608209
11	0x3c956745	0.01823772
12	0x3c0f57a2	0.008748921
13	0xbca89897	-0.020580573
14	0xbc5f6350	-0.013634518
15	0x3bf7a2c8	0.007557247
16	0xbc347c77	-0.011016003
17	0x3c443188	0.0119747
18	0x3c6cf0e2	0.014461728
19	0x3ba0d3f5	0.0049080797
20	0x3c33b1df	0.010967701
21	0xbc93cc3f	-0.018041728
22	0xbba5efeb	-0.005064001
23	0x3ab955b2	0.0014139919
24	0xbcc04f5b	-0.02347534
25	0xbc41cd8f	-0.011828794
26	0xbd1abc4b	-0.037777226
27	0x3bed7088	0.007246081
28	0xbbdf3ae8	-0.006812442
29	0xbca2fafd	-0.019895071
30	0xbb185f7f	-0.002325028
31	0xbaacda67	-0.0013187648
32	0x3ae4e945	0.0017464539
33	0xbcc16790	-0.023608953
34	0x3cc4ce3a	0.024024118
35	0xbc2416c9	-0.010015198
36	0xbc312eb7	-0.01081436
37	0x3b46efdb	0.0030355367
38	0x3cfa6738	0.030566797
39	0x3bf13c68	0.0073619373
40	0x3a015009	0.00049328856
41	0x3c854f3f	0.016273139
42	0x3d0d4ab9	0.03449509
43	0xbbf9ef5b	-0.0076274103
44	0xbc88aba4	-0.016683407
45	0xbc4562ad	-0.012047452
46	0x3be0dd0a	0.0068622874
47	0x3bbae4eb	0.0057035587
48	0x3c306ac0	0.010767639
49	0x3c1336ab	0.008985202
50	0x3ca4cda7	0.020117594
51	0xbb562c3a	-0.003268017
52	0x39734137	0.0002319858
53	0xbd4933a1	-0.049121503
54	0x3cfecd3a	0.031103719
55	0x3bbf5d97	0.005840014
56	0x3ada70df	0.0016665718
57	0xbc83e8f8	-0.0161023
58	0xbc3b7cbd	-0.011443314
59	0x3ceb39e5	0.02871413
60	0xbc6dbd33	-0.014510441
61	0x3b3977e4	0.002830022
62	0xbca40b71	-0.020024987
63	0x3d0594f5	0.03261276
64	0x3cd74392	0.026277337
65	0x3c0ac91a	0.008470798
66	0xbbe233d7	-0.0069031524
67	0xbbaeb457	-0.005331557
68	0x3b50e5c7	0.003187524
69	0x3ce8dd1a	0.028425742
70	0xbbc9989e	-0.0061522266
71	0x3c0d5f99	0.008628749
72	0xbb43642d	-0.0029814348
73	0x3c145d19	0.009055399
74	0x3bbc871b	0.0057534105
75	0x3c834e18	0.016028449
76	0x3c864697	0.016391082
77	0xbc8ba516	-0.017046493
78	0xbc3d2493	-0.0115443645
79	0xbd0fa336	-0.03506776
80	0x3ca21bb6	0.019788604
81	0x3c92174e	0.017833378
82	0xbc12d4d2	-0.008961873
83	0xbd0f5e98	-0.03500232
84	0xbbd6569b	-0.006541086
85	0xbca6810d	-0.020325208
86	0xbc816a46	-0.015797745
87	0xbb9136f7	-0.004431601
88	0x3cb26a95	0.021779338
89	0xbcae85df	-0.02130407
90	0xbcf0059b	-0.029299548
91	0xbc067893	-0.008207458
92	0xbbf042d3	-0.007332185
93	0xbc975108	-0.018471256
94	0x3b94f7eb	0.0045461557
95	0x3d2c254a	0.04202775
96	0xbd000552	-0.031255074
97	0xbcd4549f	-0.025919257
98	0xbb8963a1	-0.004192785
99	0x3b9065f4	0.004406685
100	0xbaf2a35d	-0.0018511821
101	0xbc98cdff	-0.018652914
102	0x3d1e4825	0.03864302
103	0x3c0a15af	0.008428021
104	0xbbd4d5e7	-0.0064952257
105	0x3b8c9971	0.0042907526
106	0x3b64a177	0.003488628
107	0xbc6ce760	-0.014459461
108	0xbc81b076	-0.015831213
109	0x3c88b48c	0.016687654
110	0x3d0a3587	0.033742454
111	0x3d1646f2	0.036688752
112	0x39fa393d	0.00047726362
113	0x3cc2f183	0.023796802
114	0x3cca03aa	0.02465995
115	0xbc6a1aff	-0.014288663
116	0xbc6de928	-0.014520921
117	0x3d44a4f3	0.04800887
118	0xbc1e572a	-0.009664336
119	0xbba4aba7	-0.0050253454
120	0xbbbd2cf9	-0.0057731834
121	0xba84d404	-0.0010133986
122	0xbd24dc03	-0.040248882
123	0x3a1ddc6e	0.0006021921
124	0xbb6de1cd	-0.0036297918
125	0xbc127c23	-0.008940729
126	0xbc5a790a	-0.013334522
127	0x3bca3a98	0.0061715357
128	0xbc0692ef	-0.008213743
129	0xbcb6cfff	-0.022315977
130	0x3c4e4763	0.012590262
131	0x3b68216b	0.003542031
132	0x3b47f6cb	0.003051209
133	0x3b3a9f3b	0.0028476256
134	0xbc58c142	-0.01322967
135	0xbc0c2bf5	-0.008555402
136	0xbb3219eb	-0.0027176093
137	0xbc227d46	-0.009917563
138	0xbb20a6f0	-0.0024513565
139	0xbbac8b4f	-0.0052656303
140	0xbcd708e2	-0.026249353
141	0xbbc600fb	-0.0060425973
142	0x3b4cb5c8	0.003123628
143	0x3ca7f613	0.02050308
144	0x3bcaef90	0.006193109
145	0x3d324137	0.043519225
146	0xbcc299a7	-0.023754908
147	0xbc8ff2b7	-0.01757179
148	0xbc685dcf	-0.014182522
149	0xbc1e73c4	-0.009671155
150	0x3d006c7e	0.031353466
151	0xbb0cad2d	-0.0021465525
152	0x3bfa7050	0.007642783
153	0x3bd01fcd	0.006351447
154	0xbade3a77	-0.001695468
155	0x3bbb864a	0.0057227956
156	0xbc67cf50	-0.014148548
157	0xbbf6126d	-0.0075095207
158	0xbc96dddd	-0.01841634
159	0x3c9ae234	0.01890669
160	0x3aa95714	0.0012919628
161	0x3c6347ab	0.013872067
162	0xbc99590a	-0.018719215
163	0xbb2289ea	-0.0024801441
164	0x3c38fbfb	0.011290546
165	0xbca360f2	-0.019943688
166	0xbc2c5e8f	-0.010520591
167	0x3c22edf7	0.009944431
168	0x3b5d2c7a	0.0033748434
169	0xbce364c8	-0.027758017
170	0xbcc81e65	-0.024428556
171	0xbce814eb	-0.028330287
172	0x3cd71837	0.026256664
173	0xbc185d93	-0.009299654
174	0x3b83e827	0.0040254775
175	0xbb8635f3	-0.0040957867
176	0xbbbb7010	-0.005720146
177	0x3bb2344f	0.0054383646
178	0x3b0e9e3c	0.0021761796
179	0xbb641def	-0.003480788
180	0x3c2bd283	0.010487202
181	0xbcafb04f	-0.021446375
182	0x3c57f8fa	0.013181919
183	0x3b9a03bb	0.0047001517
184	0x3d0d92cd	0.03456383
185	0xbcb6a243	-0.02229417
186	0xbc548b9f	-0.012972741
187	0xbb990218	-0.004669439
188	0x3bd43a7f	0.0064767
189	0x3aecc5e5	0.0018064348
190	0xbb502c4d	-0.0031764687
191	0x3b54dd22	0.0032480438
192	0xbc0b98e9	-0.008520343
193	0xbc5054d0	-0.012715533
194	0xba19e956	-0.00058712566
195	0x3cbac080	0.02279687
196	0xbc847b82	-0.016172174
197	0xbc2f331b	-0.010693337
198	0xbce12477	-0.027483208
199	0xbb2d8940	-0.0026479512
200	0x3869e6e0	5.5766548e-05
201	0xbc80b8db	-0.015713146
202	0xbb79cc3d	-0.003811612
203	0x3c8931ab	0.016747316
204	0x3b9d6521	0.0048033153
205	0xbc3c5cff	-0.011496781
206	0xbb16bd6d	-0.002300109
207	0xbbc174dc	-0.0059038233
208	0x3bcad66b	0.0061901114
209	0x3d14ed87	0.036359336
210	0xbc1eb447	-0.009686536
211	0xbc36a763	-0.011148307
212	0x3d04a95f	0.032388087
213	0xbc6e182b	-0.014532129
214	0x3cbcf0d3	0.023064053
215	0xbc09b7a3	-0.008405599
216	0xbc1d743a	-0.00961023
217	0xbc9702a5	-0.018433878
218	0xbc7549c0	-0.014971197
219	0x3bc97f86	0.006149235
220	0xbc7628a2	-0.015024336
221	0x3c6099b5	0.013708522
222	0xbba15653	-0.0049236207
223	0x3b26edd9	0.0025471358
224	0xbca0874c	-0.019595765
225	0xbcc271c7	-0.023735894
226	0x3d02ecdd	0.03196417
227	0xbc466a92	-0.012110369
228	0xbce4528d	-0.027871395
229	0x3c89b115	0.016808072
230	0xbcc6a6e1	-0.024249496
231	0x3b7b4bba	0.0038344697
232	0x39299e47	0.00016176059
233	0xbc5e9735	-0.013585855
234	0x3ba287c7	0.0049600336
235	0xbbd4b7b8	-0.0064916275
236	0xbd00d3f8	-0.03145215
237	0x3c9a2021	0.018814148
238	0x3c002e68	0.007823564
239	0x3b202ff9	0.0024442656
240	0x3b9ae65c	0.004727168
241	0xbbd9156a	-0.006624867
242	0x3bc63adc	0.006049497
243	0xbd00bf7b	-0.03143261
244	0x3ba175df	0.0049273814
245	0x3ad64958	0.0016348762
246	0x3cab1fb7	0.020889146
247	0x3b6582aa	0.0035020509
248	0x3c04cad7	0.008105001
249	0x3b8552e3	0.0040687188
250	0xbc0c393a	-0.008558566
251	0xbc1f0a13	-0.009706992
252	0x3d18dda7	0.03732076
253	0xbc97eb25	-0.018544743

action_model._continuous_distribution.mu.bias f4 [2]
0	0x00000000	0.0
1	0x00000000	0.0

network_body.observation_encoder.processors.0.normalizer.running_mean f4 [33]
0	0x00000000	0.0
1	0x3ea37573	0.31925544
2	0x3ecf8e42	0.40538222
3	0x00000000	0.0
4	0x3eec0698	0.4609878
5	0x3f02a696	0.5103544
6	0x00000000	0.0
7	0x3ee107da	0.43951303
8	0x3ef9aed0	0.48766184
9	0x00000000	0.0
10	0x3f0dd5d7	0.5540442
11	0x3f179989	0.5921865
12	0x00000000	0.0
13	0x3ef5ebd7	0.48031494
14	0x3f076ebb	0.52903336
15	0x00000000	0.0
16	0x3f178c3a	0.59198344
17	0x3f21ed62	0.6325284
18	0x00000000	0.0
19	0x3ef9f3e2	0.4881888
20	0x3f0a50dd	0.5402964
21	0x00000000	0.0
22	0x3f1e82dd	0.6191843
23	0x3f2971ce	0.6618928
24	0x00000000	0.0
25	0x3efa51b5	0.48890463
26	0x3f0bb424	0.5457175
27	0x00000000	0.0
28	0x3f243117	0.64137405
29	0x3f2f8008	0.68554735
30	0x00000000	0.0
31	0x3ee5cb9c	0.44881904
32	0x3f0c19d9	0.5472694

network_body.observation_encoder.processors.0.normalizer.running_variance f4 [33]
0	0x3f800000	1.0
1	0x43984e5b	304.61215
2	0x437f1a53	255.10283
3	0x3f800000	1.0
4	0x43ae0fce	348.12347
5	0x43973548	302.41626
6	0x3f800000	1.0
7	0x43ac91bf	345.13864
8	0x43963e1c	300.48523
9	0x3f800000	1.0
10	0x43ad15b2	346.1695
11	0x4397fa49	303.95535
12	0x3f800000	1.0
13	0x43aedabc	349.70886
14	0x439844a7	304.53635
15	0x3f800000	1.0
16	0x43a93714	338.4303
17	0x4391947c	291.16003
18	0x3f800000	1.0
19	0x43af071d	350.05557
20	0x439788f4	303.06995
21	0x3f800000	1.0
22	0x43a533e7	330.4055
23	0x438b9cb6	279.2243
24	0x3f800000	1.0
25	0x43af09fc	350.078
26	0x43946de5	296.85855
27	0x3f800000	1.0
28	0x43a12a0a	322.32843
29	0x4384abc0	265.3418
30	0x3f800000	1.0
31	0x43ad4b9b	346.59067
32	0x4393089c	294.06726

network_body.observation_encoder.processors.1.normalizer.running_mean f4 [6]
0	0xbf7fd10c	-0.99928355
1	0x3a43987d	0.0007461382
2	0x396cc87f	0.00022581404
3	0x43f7a48f	495.2856
4	0x3cd6704d	0.026176596
5	0x4121f570	10.122421

network_body.observation_encoder.processors.1.normalizer.running_variance f4 [6]
0	0x3fffe88a	1.999284
1	0x3f801160	1.0005302
2	0x3f802909	1.0012523
3	0x48880cc9	278630.28
4	0x40a54dc3	5.1657424
5	0x47569a96	54938.586

network_body.processors.0.normalizer.running_mean f4 [33]
0	0x00000000	0.0
1	0x3ea37573	0.31925544
2	0x3ecf8e42	0.40538222
3	0x00000000	0.0
4	0x3eec0698	0.4609878
5	0x3f02a696	0.5103544
6	0x00000000	0.0
7	0x3ee107da	0.43951303
8	0x3ef9aed0	0.48766184
9	0x00000000	0.0
10	0x3f0dd5d7	0.5540442
11	0x3f179989	0.5921865
12	0x00000000	0.0
13	0x3ef5ebd7	0.48031494
14	0x3f076ebb	0.52903336
15	0x00000000	0.0
16	0x3f178c3a	0.59198344
17	0x3f21ed62	0.6325284
18	0x00000000	0.0
19	0x3ef9f3e2	0.4881888
20	0x3f0a50dd	0.5402964
21	0x00000000	0.0
22	0x3f1e82dd	0.6191843
23	0x3f2971ce	0.6618928
24	0x00000000	0.0
25	0x3efa51b5	0.48890463
26	0x3f0bb424	0.5457175
27	0x00000000	0.0
28	0x3f243117	0.64137405
29	0x3f2f8008	0.68554735
30	0x00000000	0.0
31	0x3ee5cb9c	0.44881904
32	0x3f0c19d9	0.5472694

network_body.processors.0.normalizer.running_variance f4 [33]
0	0x3f800000	1.0
1	0x43984e5b	304.61215
2	0x437f1a53	255.10283
3	0x3f800000	1.0
4	0x43ae0fce	348.12347
5	0x43973548	302.41626
6	0x3f800000	1.0
7	0x43ac91bf	345.13864
8	0x43963e1c	300.48523
9	0x3f800000	1.0
10	0x43ad15b2	346.1695
11	0x4397fa49	303.95535
12	0x3f800000	1.0
13	0x43aedabc	349.70886
14	0x439844a7	304.53635
15	0x3f800000	1.0
16	0x43a93714	338.4303
17	0x4391947c	291.16003
18	0x3f800000	1.0
19	0x43af071d	350.05557
20	0x439788f4	303.06995
21	0x3f800000	1.0
22	0x43a533e7	330.4055
23	0x438b9cb6	279.2243
24	0x3f800000	1.0
25	0x43af09fc	350.078
26	0x43946de5	296.85855
27	0x3f800000	1.0
28	0x43a12a0a	322.32843
29	0x4384abc0	265.3418
30	0x3f800000	1.0
31	0x43ad4b9b	346.59067
32	0x4393089c	294.06726

network_body.processors.1.normalizer.running_mean f4 [6]
0	0xbf7fd10c	-0.99928355
1	0x3a43987d	0.0007461382
2	0x396cc87f	0.00022581404
3	0x43f7a48f	495.2856
4	0x3cd6704d	0.026176596
5	0x4121f570	10.122421

network_body.processors.1.normalizer.running_variance f4 [6]
0	0x3fffe88a	1.999284
1	0x3f801160	1.0005302
2	0x3f802909	1.0012523
3	0x48880cc9	278630.28
4	0x40a54dc3	5.1657424
5	0x47569a96	54938.586

network_body._body_endoder.seq_layers.0.weight f4 [127, 39]
0	0xbed4c162	-0.4155379
1	0xbd3cf06c	-0.04612772
2	0x3d804115	0.062624134
3	0x3c1e95c5	0.0096792625
4	0xbe1af907	-0.15134059
5	0x3dde99ed	0.10869203
6	0x3e7c1bcd	0.2461998
7	0xbe6effe0	-0.23339796
8	0x3e8f4397	0.27981254
9	0xbe3172e4	-0.17328984
10	0x3dcc8d1f	0.09987854
11	0xbe904976	-0.28181046
12	0x3d259e68	0.04043427
13	0xbd133cd9	-0.0359467
14	0xbdd6ac18	-0.10482043
15	0xbd8ef2aa	-0.06979878
16	0x3e1b4ecf	0.15166782
17	0xbe8fc19b	-0.28077397
18	0xbd8ed1fc	-0.06973645
19	0xbe2344b1	-0.15944172
20	0xbe2e1ad2	-0.17002419
21	0x3e778ec2	0.24175552
22	0xbd03e9c6	-0.032205366
23	0xbd67f7e9	-0.05663291
24	0x3dd668f9	0.10469241
25	0x3e359c5a	0.17735425
26	0x3bfc032d	0.0076908083
27	0x3d04580b	0.032310527
28	0x3e00a9f6	0.12564835
29	0xbd5edad0	-0.054407895
30	0xbe46670f	-0.19375251
31	0xbda9779e	-0.08274768
32	0xbe4a47ee	-0.19754001
33	0x3bf448da	0.0074549736
34	0xbcec26a9	-0.028827028
35	0xbe89bfc0	-0.26904106
36	0xbdfdbd2f	-0.123895995
37	0xbce232c2	-0.027612094
38	0xbe8e70d4	-0.27820456
39	0x3ed7e8ba	0.42169744
40	0x3dcc534d	0.09976826
41	0x3c8c75d7	0.017146034
42	0x3d99d6c9	0.0751167
43	0x3e993434	0.2992264
44	0x3d5063de	0.05087649
45	0xbdeca358	-0.11554593
46	0xbde67bc9	-0.11254079
47	0x3d4d5083	0.05012561
48	0x3c3c33ec	0.0114869885
49	0xbd95191a	-0.07280178
50	0x3d169015	0.0367585
51	0x3d4c4ccc	0.049877927
52	0x3ead514a	0.3385108
53	0xbc103992	-0.008802788
54	0x3ddf88aa	0.109147385
55	0x3c06fa2e	0.008238358
56	0x3d3dda09	0.046350513
57	0xbe0eee83	-0.13958173
58	0xbd5c2f93	-0.053756308
59	0x3dcfed5e	0.10152696
60	0x3eb96576	0.3621022
61	0x3de23260	0.110447645
62	0xbd91c42c	-0.07117495
63	0x3d9b8196	0.07593076
64	0xbe2ea036	-0.17053303
65	0xbdef40d1	-0.116822846
66	0x3e2d7470	0.16938949
67	0x3dd24d26	0.10268621
68	0xbe7268cf	-0.23672794
69	0xbc7dd80f	-0.015493407
70	0x3e147cec	0.14500779
71	0x3ebebf47	0.37255308
72	0xbd11bd18	-0.035580724
73	0x3e6fb2c3	0.23408036
74	0xbe72de8b	-0.23717706
75	0x3d1b6c3b	0.037945013
76	0xbe2a56f0	-0.16634727
77	0x3e055f1e	0.13024566
78	0x3d0226b7	0.031775203
79	0x3e5d4068	0.216066
80	0xbdbb109e	-0.09134029
81	0xbd8542ce	-0.065068826
82	0x3db3206f	0.087464206
83	0xbd22af5f	-0.03971803
84	0xbcbb39c4	-0.022854693
85	0xbe869b84	-0.26290524
86	0x3d5c4026	0.053772114
87	0xbe4c9b3a	-0.19981089
88	0xbbfa2a88	-0.0076344647
89	0xbda09443	-0.07840779
90	0x3e58b244	0.21161753
91	0xbe7d22e3	-0.2472034
92	0xbe7483f4	-0.23878461
93	0xbd3dfe42	-0.046385057
94	0x3ecae2ac	0.39626062
95	0x3e2f6d21	0.17131473
96	0xbe0433e6	-0.12910423
97	0xbe542a07	-0.20719157
98	0x3e1d28dc	0.15347618
99	0xbea7add3	-0.32749805
100	0x3e664fc4	0.22491366
101	0xbdba0c17	-0.09084337
102	0x3d406742	0.046973474
103	0xbbd84b50	-0.006600775
104	0xbd8bcec6	-0.06826548
105	0x3ca206e1	0.01977867
106	0x3e36d277	0.17853723
107	0x3e337c9d	0.17528005
108	0x3ded9f6f	0.11602675
109	0xbde948ce	-0.113908395
110	0xbe25f66e	-0.16207287
111	0xbd7f8785	-0.0623851
112	0x3baedb66	0.005336213
113	0xbb5e3289	-0.0033904633
114	0x3e4591c9	0.19293894
115	0x3dce1835	0.10063211
116	0xbd801367	-0.06253701
117	0x3d122d14	0.03568752
118	0xbdb475fc	-0.08811566
119	0xbd383a88	-0.044977695
120	0xbd2d8140	-0.04235959
121	0x3e3ae128	0.18249953
122	0xbdc7e2ce	-0.097600564
123	0x3e35ce30	0.17754436
124	0x3e2b84ce	0.1674988
125	0xbdfb6f54	-0.122770935
126	0xbce6a0f4	-0.02815292
127	0x3e0eb049	0.13934435
128	0x3b52d2eb	0.0032169174
129	0x3e006efa	0.12542334
130	0xbe57d27c	-0.21076387
131	0x3ba6e9ee	0.0050938046
132	0xbdce054d	-0.10059605
133	0xbbd5dad5	-0.006526331
134	0x3db3dedd	0.08782742
135	0x3dac4685	0.08411888
136	0xbd44cf9b	-0.04804955
137	0xbd0c3272	-0.034227796
138	0x3cdd8ec3	0.027045613
139	0xbe4b7c85	-0.19871719
140	0x3e8c93c2	0.2745648
141	0xbdb9541e	-0.09049247
142	0x3ec09a70	0.37617826
143	0xbd6809b0	-0.056649864
144	0xbe038f2d	-0.12847586
145	0x3d905dcc	0.0704914
146	0xbe0e5106	-0.13898095
147	0x3cacb132	0.021080587
148	0xbda6a9eb	-0.08137878
149	0x3e31fde0	0.17382002
150	0x3e2e2e76	0.17009911
151	0x3b952310	0.004551299
152	0xbda3f753	-0.08006158
153	0x3d3754b6	0.04475852
154	0x3e3f9cb2	0.18712118
155	0xbc93e26f	-0.018052308
156	0xbe140841	-0.14456274
157	0x3d378f07	0.044814136
158	0xbe6c3754	-0.23067981
159	0xbeaf5004	-0.34240735
160	0xbdc0fe4b	-0.094235025
161	0x3c833ab0	0.016019195
162	0x3cf1dd82	0.029524568
163	0xbd2afed4	-0.04174693
164	0xbd46a781	-0.048499588
165	0x3d5d9e54	0.05410607
166	0x3d9a9fe1	0.07550026
167	0xbd892278	-0.066960275
168	0x3e4cb329	0.19990219
169	0xbd8eadd5	-0.069667496
170	0xbdacd302	-0.08438684
171	0x3e284cab	0.16435497
172	0x3e248cde	0.16069362
173	0xbe332135	-0.17493136
174	0x3d4c3bed	0.049861837
175	0xbdbeb068	-0.093109906
176	0x3d6d938d	0.058002044
177	0x3e0185f1	0.12648751
178	0xbe098246	-0.13428602
179	0x3df4aa73	0.11946573
180	0x3e781a8a	0.24228874
181	0xbdf2b85c	-0.1185157
182	0xbe39051a	-0.18068352
183	0xbd525571	-0.051351015
184	0x3c9f18d7	0.019421024
185	0x3e547b4d	0.2075016
186	0xbe11ed62	-0.1425071
187	0x3da59970	0.080859065
188	0xbe27aa9a	-0.16373673
189	0x3d066518	0.032811254
190	0xbd5fd8bf	-0.054650065
191	0x3b4a0d36	0.0030830628
192	0x3e28ee8d	0.1649725
193	0x3eb1c799	0.34722593
194	0xbeb5947e	-0.35464853
195	0xbe066106	-0.13122949
196	0x3d82cd28	0.06386787
197	0x3ddfcc72	0.10927667
198	0xbde437c8	-0.11143452
199	0x3c827a61	0.015927495
200	0x3e1672f2	0.14692286
201	0xbd57d0c1	-0.052689318
202	0x3dae2ff9	0.08505244
203	0x3e0d5f1d	0.13805814
204	0x3db6a649	0.08918435
205	0xbc78f04a	-0.015194008
206	0xbdaf7f57	-0.0856921
207	0xbc86f195	-0.016472617
208	0xbd429dbb	-0.047513705
209	0xbdb43cff	-0.088006966
210	0xbc38f7ef	-0.011289581
211	0x3dcfea64	0.10152128
212	0x3db1d7c2	0.08683731
213	0xbe81d069	-0.25354317
214	0xbce8da80	-0.028424501
215	0x3cc59dc0	0.024123073
216	0xbbb0af4d	-0.005391991
217	0xbe0017b3	-0.1250904
218	0xbe8b34f2	-0.27188832
219	0x3cf7bc87	0.030241264
220	0x3d5fa46f	0.054600175
221	0xbdb691bc	-0.089145154
222	0xbd273656	-0.040823303
223	0x3dadfd61	0.08495594
224	0xbea09458	-0.31363177
225	0x3e5ed3db	0.21760504
226	0xbdf7a26b	-0.12091526
227	0xbe590297	-0.21192394
228	0x3d0a5342	0.033770807
229	0xbe274b8c	-0.16337413
230	0xbf084236	-0.5322603
231	0x3d31d4f1	0.043415967
232	0x3ca54a38	0.020176992
233	0x3e0d64cc	0.13807982
234	0xbe9ce8d1	-0.30646375
235	0xbe352b22	-0.17692235
236	0x3d9270dd	0.07150433
237	0xbe6b8f18	-0.23003805
238	0xbe2cd4b9	-0.16878022
239	0xbe36c6a4	-0.17849213
240	0x3e05e3df	0.13075207
241	0xbcf97b8c	-0.03045442
242	0xbde4cdbd	-0.11172054
243	0xbc5a7087	-0.013332493
244	0xbdb1a7fe	-0.0867462
245	0x3bcb7484	0.006208958
246	0x3e30547b	0.17219727
247	0x3e489e79	0.19591703
248	0xbe5c09eb	-0.21488158
249	0xbe1872be	-0.1488752
250	0x3e34525c	0.17609543
251	0x3e23e4d2	0.16005257
252	0x3c5b9bfd	0.01340389
253	0x3e370dc7	0.1787635
254	0xbdb2c950	-0.087298036
255	0x3cc67617	0.024226232

network_body._body_endoder.seq_layers.0.bias f4 [127]
0	0x00000000	0.0
1	0x00000000	0.0
2	0x00000000	0.0
3	0x00000000	0.0
4	0x00000000	0.0
5	0x00000000	0.0
6	0x00000000	0.0
7	0x00000000	0.0
8	0x00000000	0.0
9	0x00000000	0.0
10	0x00000000	0.0
11	0x00000000	0.0
12	0x00000000	0.0
13	0x00000000	0.0
14	0x00000000	0.0
15	0x00000000	0.0
16	0x00000000	0.0
17	0x00000000	0.0
18	0x00000000	0.0
19	0x00000000	0.0
20	0x00000000	0.0
21	0x00000000	0.0
22	0x00000000	0.0
23	0x00000000	0.0
24	0x00000000	0.0
25	0x00000000	0.0
26	0x00000000	0.0
27	0x00000000	0.0
28	0x00000000	0.0
29	0x00000000	0.0
30	0x00000000	0.0
31	0x00000000	0.0
32	0x00000000	0.0
33	0x00000000	0.0
34	0x00000000	0.0
35	0x00000000	0.0
36	0x00000000	0.0
37	0x00000000	0.0
38	0x00000000	0.0
39	0x00000000	0.0
40	0x00000000	0.0
41	0x00000000	0.0
42	0x00000000	0.0
43	0x00000000	0.0
44	0x00000000	0.0
45	0x00000000	0.0
46	0x00000000	0.0
47	0x00000000	0.0
48	0x00000000	0.0
49	0x00000000	0.0
50	0x00000000	0.0
51	0x00000000	0.0
52	0x00000000	0.0
53	0x00000000	0.0
54	0x00000000	0.0
55	0x00000000	0.0
56	0x00000000	0.0
57	0x00000000	0.0
58	0x00000000	0.0
59	0x00000000	0.0
60	0x00000000	0.0
61	0x00000000	0.0
62	0x00000000	0.0
63	0x00000000	0.0
64	0x00000000	0.0
65	0x00000000	0.0
66	0x00000000	0.0
67	0x00000000	0.0
68	0x00000000	0.0
69	0x00000000	0.0
70	0x00000000	0.0
71	0x00000000	0.0
72	0x00000000	0.0
73	0x00000000	0.0
74	0x00000000	0.0
75	0x00000000	0.0
76	0x00000000	0.0
77	0x00000000	0.0
78	0x00000000	0.0
79	0x00000000	0.0
80	0x00000000	0.0
81	0x00000000	0.0
82	0x00000000	0.0
83	0x00000000	0.0
84	0x00000000	0.0
85	0x00000000	0.0
86	0x00000000	0.0
87	0x00000000	0.0
88	0x00000000	0.0
89	0x00000000	0.0
90	0x00000000	0.0
91	0x00000000	0.0
92	0x00000000	0.0
93	0x00000000	0.0
94	0x00000000	0.0
95	0x00000000	0.0
96	0x00000000	0.0
97	0x00000000	0.0
98	0x00000000	0.0
99	0x00000000	0.0
100	0x00000000	0.0
101	0x00000000	0.0
102	0x00000000	0.0
103	0x00000000	0.0
104	0x00000000	0.0
105	0x00000000	0.0
106	0x00000000	0.0
107	0x00000000	0.0
108	0x00000000	0.0
109	0x00000000	0.0
110	0x00000000	0.0
111	0x00000000	0.0
112	0x00000000	0.0
113	0x00000000	0.0
114	0x00000000	0.0
115	0x00000000	0.0
116	0x00000000	0.0
117	0x00000000	0.0
118	0x00000000	0.0
119	0x00000000	0.0
120	0x00000000	0.0
121	0x00000000	0.0
122	0x00000000	0.0
123	0x00000000	0.0
124	0x00000000	0.0
125	0x00000000	0.0
126	0x00000000	0.0

network_body._body_endoder.seq_layers.2.weight f4 [127, 127]
0	0x3b7a91b1	0.0038233812
1	0xbd4c1523	-0.049824845
2	0xbce4e254	-0.027939953
3	0x3e43a090	0.19104218
4	0xbe2a0c7b	-0.16606323
5	0xbc38eb86	-0.011286622
6	0xbd2b2961	-0.04178751
7	0x3db4619d	0.08807681
8	0x3d840440	0.06446123
9	0xbb883a4d	-0.0041573406
10	0xbd3571fa	-0.04429815
11	0x3e074efe	0.13213727
12	0xbd16dffe	-0.03683471
13	0xbe366eb0	-0.17815661
14	0x3e1b4869	0.15164341
15	0x3cd08f4d	0.025458956
16	0xbe002977	-0.12515818
17	0x3d70004f	0.058594044
18	0xbd797b57	-0.06090864
19	0xbe168584	-0.1469937
20	0x3dac32bc	0.08408114
21	0x3e23a440	0.15980625
22	0xbd756eaf	-0.05992001
23	0x3e0d58f7	0.13803469
24	0xbd0b97b5	-0.034080226
25	0x3e26a183	0.1627255
26	0x3d2b0016	0.04174813
27	0x3db80b83	0.08986571
28	0x3db1073a	0.086439565
29	0xbd44aed2	-0.048018284
30	0xbcd7f2c5	-0.026360879
31	0xbcc075e6	-0.023493718
32	0x3d498fc3	0.049209367
33	0x3d7cfb7f	0.061763283
34	0xbe1f38c2	-0.15548995
35	0x3b4de927	0.0031419487
36	0xbda413e2	-0.08011605
37	0xbd58804c	-0.05285673
38	0x3dc9a75e	0.09846376
39	0x3d2ba0a0	0.04190123
40	0xbc2186fc	-0.009858843
41	0xbdfbe32a	-0.122991875
42	0x3d9784fd	0.073984124
43	0x3d1c7c6f	0.038204607
44	0xbe1be540	-0.1522417
45	0x3db4e852	0.08833374
46	0x3da2e9a6	0.07954721
47	0xbc417f6b	-0.011810164
48	0xbd4a1d0c	-0.049344108
49	0x3d7a191f	0.061059114
50	0x3cea2d92	0.028586183
51	0x3c608999	0.013704681
52	0x3d90bbf0	0.07067096
53	0xbdbff801	-0.09373475
54	0x3db74702	0.089490905
55	0xbdf1da5b	-0.11809226
56	0x3dac8d47	0.08425384
57	0xbd900bef	-0.07033526
58	0x3c95e84a	0.01829924
59	0xbd98ecd4	-0.074670464
60	0x3c03a68a	0.0080353115
61	0x3d51cddd	0.051221717
62	0xbe14c29c	-0.14527363
63	0x3db13544	0.08652738
64	0xbdab0e91	-0.08352388
65	0xbda79687	-0.08183008
66	0xbde253b0	-0.110511184
67	0x3db7c71c	0.08973524
68	0xbc57699f	-0.013147741
69	0x3d9d89dc	0.0769231
70	0xbd80b68a	-0.062848166
71	0xbd1b8f8d	-0.037978698
72	0xbd9bb487	-0.07602792
73	0xbdf98f9c	-0.121855944
74	0xbbf16efe	-0.0073679676
75	0x3d702ca3	0.05863632
76	0x3ddcf19b	0.1078827
77	0xbdfe58d9	-0.1241929
78	0xbc7c1efb	-0.015388246
79	0xbd1a55f2	-0.03767962
80	0xbd1a72ce	-0.037707143
81	0xbddfa716	-0.10920541
82	0x3c8d41e8	0.01724334
83	0x3e375ea1	0.17907192
84	0xbe24f126	-0.16107616
85	0x39311db2	0.00016891098
86	0x3b500580	0.003174156
87	0x3dfb2138	0.12262195
88	0x3c60096c	0.013674121
89	0xbdd6b426	-0.10483579
90	0xb9dbcb4c	-0.00041922403
91	0x3c8500d2	0.016235743
92	0x3cf683e3	0.030092185
93	0xbdd6c5fa	-0.1048698
94	0xbe0cfe4d	-0.13768883
95	0x3d9e1cbb	0.07720324
96	0x3d99dd84	0.07512954
97	0x3e05cbfb	0.13066094
98	0xbd9e4efd	-0.077299096
99	0x3d19c1cf	0.037538346
100	0xbde9bc70	-0.11412895
101	0x3c92e831	0.017932983
102	0xbe097c71	-0.13426377
103	0x3e10f378	0.14155376
104	0xba7330b0	-0.00092769694
105	0xbe2e9f81	-0.17053033
106	0xbddc8776	-0.107680246
107	0xbb4ff8ce	-0.0031733993
108	0xbd1a81d5	-0.037721474
109	0x3c055a84	0.008139256
110	0xbe0f4cfa	-0.13994208
111	0xbe2e2737	-0.17007147
112	0xbd57b3bc	-0.052661642
113	0x3bae5d3e	0.005321174
114	0x3cbe198a	0.023205537
115	0xbd1780e8	-0.03698817
116	0xbdfdb3b9	-0.12387795
117	0x3d4b2067	0.04959145
118	0xbdb7ba28	-0.08971053
119	0x3ce34625	0.027743408
120	0x3e60b882	0.21945384
121	0x3e9cddb2	0.3063789
122	0x3cb5d0d6	0.022194307
123	0x3dd1e480	0.10248661
124	0x3d381f95	0.044951994
125	0x3cfd5e3b	0.030928722
126	0x3e0725f8	0.13198078
127	0x3c195edf	0.009360998
128	0xbd18a04d	-0.03726225
129	0xbdd2c1e8	-0.10290891
130	0x3d8ed1de	0.06973623
131	0x3b393331	0.0028259272
132	0x3df63b02	0.120229736
133	0xbdc8ed15	-0.09810845
134	0x3e1dfdbc	0.15428823
135	0xbd1b3f24	-0.037902012
136	0xbd241e52	-0.04006798
137	0x3db3490b	0.08754166
138	0x3d570824	0.052497998
139	0xbbdab0b3	-0.006673896
140	0xbe16c3a2	-0.14723065
141	0x3c6019c2	0.013678016
142	0x3b939193	0.004503438
143	0x3e224504	0.1584664
144	0xbc00f65d	-0.007871238
145	0xbd51a311	-0.051180903
146	0x3ca05fee	0.019576993
147	0x3deb7fd6	0.11498992
148	0xbd4bfe62	-0.049803145
149	0x3aa39b48	0.001248219
150	0xbd5cc10a	-0.053895034
151	0x3e22de4f	0.15905116
152	0xbce1d934	-0.02756939
153	0x3e209ab9	0.15684022
154	0x3c94b189	0.018151062
155	0xbdc1298c	-0.094317526
156	0x3e2d51b5	0.169257
157	0x3d8fc9d9	0.07020921
158	0xbc74c2c9	-0.0149390185
159	0xbd0526f3	-0.032507848
160	0x3cc51c3e	0.024061318
161	0xbd4a7f4c	-0.049437806
162	0xbe13f57b	-0.14449112
163	0xbddf1678	-0.108929574
164	0x3cc63ed7	0.024199886
165	0xbd4b2229	-0.049593125
166	0x3dbe7e3a	0.093014196
167	0xbca757f8	-0.020427689
168	0xbd363c75	-0.04449125
169	0xbcd7b697	-0.026332183
170	0xbb3e7c41	-0.002906576
171	0x3e262c9b	0.16227953
172	0x3cc0ec14	0.02355007
173	0xbcebb875	-0.02877448
174	0x3de0d07d	0.10977266
175	0xbd4b551e	-0.04964172
176	0xbdb674e6	-0.08909015
177	0x3c8b85ff	0.017031668
178	0x3ddac1c7	0.10681491
179	0xbda4e13b	-0.08050772
180	0x3c7c603f	0.015403806
181	0x3dbb61f1	0.0914954
182	0xbc947c27	-0.018125607
183	0x3e5e9fd8	0.21740663
184	0x3cf52dd3	0.029929077
185	0xbd4c060c	-0.049810454
186	0xbc85ce86	-0.01633383
187	0x3dd22520	0.10260987
188	0xbd89f101	-0.06735421
189	0x3df4b527	0.119486146
190	0xbc3ad719	-0.011403822
191	0x3e2f2b46	0.17106351
192	0xbe0d0604	-0.13771826
193	0x3ddff726	0.10935812
194	0x3daaee51	0.083462365
195	0xbd19ef1d	-0.03758155
196	0xbda3869f	-0.07984661
197	0xbe042598	-0.12904966
198	0x3d59cad6	0.053171955
199	0xbd764909	-0.060128246
200	0x3c997b94	0.018735684
201	0xbcd49da7	-0.02595408
202	0xbdabddbb	-0.08391901
203	0x3d264e04	0.040601745
204	0xbe2c7430	-0.16841197
205	0x3d1eb106	0.03874304
206	0x3c980698	0.018557832
207	0x3d258258	0.04040751
208	0xbe04bd7d	-0.12962909
209	0x3d7b5d5e	0.06136834
210	0x3d2ba980	0.041909695
211	0x3d25bfe6	0.04046621
212	0x3cb240f2	0.021759484
213	0x3d0fdd67	0.035123255
214	0x3b81adba	0.0039574774
215	0x3d93918f	0.072054975
216	0x3d691c2a	0.056911625
217	0x3d9c8715	0.07642952
218	0xbce7b42a	-0.028284151
219	0xbd504243	-0.050844442
220	0xbd597b31	-0.053096
221	0xbe2d18d9	-0.1690401
222	0xbd733a8d	-0.05938201
223	0x3d3a3984	0.045465007
224	0x3d9b7b91	0.07591928
225	0xbd8eb1c2	-0.06967498
226	0x3c8a5bc8	0.016889468
227	0xbdd0cf2d	-0.10195766
228	0x3a1b2c40	0.00059193745
229	0x3e23846f	0.15968488
230	0xbd5c5ead	-0.053801227
231	0x3cb96905	0.022633085
232	0xbdd7ac23	-0.10530879
233	0xbc39b58c	-0.011334788
234	0x3a49c726	0.0007697217
235	0x3d858fa1	0.06521536
236	0x3bff4aa1	0.007790879
237	0x3e94d48b	0.29068407
238	0x3e24e57c	0.16103166
239	0xbe2b091c	-0.16702694
240	0xbd5d97aa	-0.054099716
241	0xbc72d748	-0.014821835
242	0x3db3aba5	0.08772973
243	0x3e44f85c	0.19235367
244	0x3b6d83e4	0.0036241943
245	0xbd49184f	-0.049095448
246	0xbda98d04	-0.0827885
247	0x3e348290	0.1762793
248	0xbdaeff1b	-0.08544751
249	0x3e077a03	0.13230138
250	0xbc31b7b9	-0.010847026
251	0xbcb7397c	-0.022366278
252	0x3e30c647	0.17263137
253	0x3dcea5ee	0.10090242
254	0xbbdbcfdc	-0.0067081284
255	0x3dc60353	0.09668603
