Assets/results/CubeAgent12/AutoAgentFinale/AutoAgentFinale-77917.onnx (onnx, 89226 bytes, 11 tensors)

60 f4 [33]
00000000: acc7 6a3b 7d07 fe3e 6312 b53e acc7 6a3b
00000010: a0cb fe3e d6bb b83e acc7 6a3b 5231 ff3e
00000020: 014f ba3e acc7 6a3b 5953 ff3e 4b6d ba3e
00000030: acc7 6a3b 80e5 ff3e b681 be3e acc7 6a3b
00000040: a935 ff3e 9f40 ba3e acc7 6a3b c507 fa3e
00000050: af5e bd3e acc7 6a3b c8b9 fe3e 7e11 b93e
00000060: acc7 6a3b 85ce ef3e 63dc b83e acc7 6a3b
00000070: ab31 fe3e dd46 b73e acc7 6a3b d57f ed3e
00000080: 3088 b53e
0.003582458 0.49615088 0.3536559 0.003582458 0.4976473 0.36080807 0.003582458 0.49842316
0.363884 0.003582458 0.49868277 0.3641151 0.003582458 0.49979782 0.37208337 0.003582458
0.49845627 0.36377427 0.003582458 0.48834053 0.369863 0.003582458 0.49751115 0.36146158
0.003582458 0.4683725 0.36105642 0.003582458 0.4964727 0.35796252 0.003582458 0.4638659
0.35455465

63 f4 [6]
00000000: d2ba 153f 1e7f 793d e6d0 d43e c6f6 0642
00000010: ef3b a73e 53e0 593f
0.5848819 0.060912244 0.41565627 33.74099 0.32662913 0.85107917

action_model._continuous_distribution.log_sigma f4 [1, 2]
00000000: b1b8 35bf 2f94 e0be
-0.7098494 -0.43863055

action_model._continuous_distribution.mu.bias f4 [2]
00000000: 1a52 7b3d 2548 593d
0.061357595 0.053047318

action_model._continuous_distribution.mu.weight f4 [2, 127]
00000000: 2ad7 b1bd 3cf7 bfba 832c cabb 5655 86bd
00000010: 22f1 3ebc 414d af3a 997f a2bc 2346 7e3a
00000020: 341d ac3d e365 5f3b 7b6a 893c cbe0 b2bd
00000030: ca9d 87bc 8a7c 4dbd af51 97bd 1d89 fc3b
00000040: ace1 21be 0e5d d73b 1b66 043d 4bc6 a33c
00000050: 1d08 b53c c534 073d 3d99 0ebd ddb5 4dbc
00000060: bc44 4dbd 56d3 803b 851c 4ebe 1d6c d5bc
00000070: 757b 9b3c 5de3 9e3d 3a2c 9b3c 723e 1e3e
00000080: 8b55 f8bc dfef f7bd eadb 363b cbcd 953a
00000090: b491 96bb 4d6e 64bb 06c2 b83d 2a36 f43c
000000a0: 0a38 20bc ca24 4c3d 06dd e53b 068f bcbd
000000b0: 3c0f b23b 150c c6bd 4bb2 babd 3823 2d3d
000000c0: ef19 c1bd 791b 093d e070 853c 18ec 43bd
000000d0: 0fec 523c 5ddd 0e3c 4d50 1b3c 50b5 67bb
000000e0: 0076 913b ed65 8dbc 7d3b 033d 0968 14be
000000f0: b9bb dfbc 2f8d 0d3d a582 5c3d ca6c c4bc
00000100: 57fe 01bb a050 733d bd9f 733d a3f8 1b3d
00000110: 3ca2 c9bc d17a 7e3c ecd2 b0bc d52c f13b
00000120: d81e 123d fc13 82bd a7e5 283d 2fc5 3e3c
00000130: d596 4c3c 32e7 783c 7a37 5c3d b621 39bd
00000140: 0a4d 82bc a418 36ba 1a72 303c 4862 86bd
00000150: a136 dc3a 4e9e 4fbc 9948 923c 27a4 86bd
00000160: faad d7bd d21d 38bd 411a 14bd f0de 1abe
00000170: a495 9c3c 389b 01bd 71db e4bd ea2e 9bbc
00000180: 93eb b7bd eace 153e c7fa 7c3c 62ae 523c
00000190: 4938 3c3b 3cdc 60bc 46e5 0fbe c50c 9c3d
000001a0: 4854 1d3d a685 ccbd a13b 99bc f280 bfbd
000001b0: 25d3 38bd e227 9dbb f16f a7bd 3bd1 183e
000001c0: 0437 b43b f662 b03d 8c2e 783c edee e43c
000001d0: ccce d7bb f767 1ebc 3bdb 98bd e868 b33c
000001e0: a833 87bd 6c5e f9bd d1f1 9bbc 4d9e 1d3d
000001f0: d24e 013b e374 8ebd f207 68be 8c8f 24bc
00000200: a704 58bb ad0a 0a3d ff9f aabd 599c 08bd
00000210: bc69 b7bb 164a 613e 2f63 3bbc 37e3 22be
00000220: 51cb f43b 432a 80bd b1c5 8abd 4d3c 88bc
00000230: 6feb 4abd 8674 c5bc edaf 8539 c814 80bc
00000240: aa38 25be ba47 bb3d d080 82bd f2e6 b43a
00000250: a4f5 20bd d3b8 133d 05c4 8fbc fa8b 02bd
00000260: eebc 643c 14b5 66bd 5a71 54bd e96b 2dbc
00000270: 6399 dfbc bad6 5c3d 48b5 043d ae02 b93d
00000280: 2aa5 32bb 5fee 6fba a288 b0bc f0a0 86bc
00000290: b8d2 223e 61a0 c3bd 956d d2bd 3cee 983d
000002a0: ea1f 413d f706 14be 15e0 9bbd 097e 6b3c
000002b0: 77a6 8c3d e594 51bd eec1 c8bd 5edc b03b
000002c0: a8ec f63b 43ce d73b 7e10 30bd c5af 2cbb
000002d0: 3696 9b3c e966 8e3b ae6b 85bc 806f 02bd
000002e0: 465b 3e3c c2c3 e8bc a3ff 37be f022 2abe
000002f0: 0324 a63c 9368 2b3d 8652 b8bc 5551 463c
00000300: 3393 6f3c 1c4a cb3d 5701 e1bd ed22 10be
00000310: d200 4abd 87f9 923d cc3a 3f3b 225b 45be
00000320: 993e a9bd a931 243d b085 96bc 06f8 86bd
00000330: d4d0 0a3c c504 0fbc 95c0 00bd 56ff 81bc
00000340: b0ea 85bd cac1 3a3b a2d5 0abd 45fe 7b3c
00000350: c8dc 8fbc a404 5cbc 54e7 bd3c 56e9 973d
00000360: 91bb ca3d ea76 40bd 17de d53d 1832 213d
00000370: a160 043e 4c24 3bbd 5924 08bd 7613 c33d
00000380: 1c87 e1bc fd25 d9bb 8a47 193b c828 75bb
00000390: a8ed 7ebd 38eb 033e 860e 313d a020 473d
000003a0: 9599 6ebd 8d23 763d 68b0 9bbd a696 203d
000003b0: dc77 00be 7f5a d83d ab4a 2dbd 25f6 3cbd
000003c0: 8af4 463d 2bca 49bc a853 9ebc 5767 9dbc
000003d0: 1f97 2fbd 4c60 efbc 28f2 183c b3f3 a1bd
000003e0: 9e58 edbd ce8c 94bd 0e4b c33d 3a11 943b
000003f0: 47a3 243d 8164 0bbe
-0.086836174 -0.0014645825 -0.006169857 -0.06559245 -0.01165417 0.0013374464 -0.019836234 0.0009699782
0.084040076 0.0034087829 0.016774407 -0.08734282 -0.016554732 -0.050167598 -0.07388627 0.007706775
-0.15808743 0.0065723723 0.032323938 0.019992014 0.022098595 0.03300931 -0.03481411 -0.012555567
-0.05011438 0.003931443 -0.20128067 -0.026052529 0.018979767 0.0775821 0.018941987 0.15453508
-0.030314228 -0.12106299 0.0027902075 0.0011429129 -0.004595006 -0.0034855783 0.09021382 0.029810984
-0.009778986 0.049839772 0.0070148734 -0.09206967 0.005433945 -0.09670273 -0.09116038 0.042269915
-0.094287746 0.033473466 0.016289175 -0.04783258 0.012873664 0.008719769 0.009479594 -0.0035355873
0.0044391155 -0.017260516 0.032039154 -0.14492811 -0.027311193 0.03455847 0.05383553 -0.023977656
-0.0019835436 0.059403062 0.05947851 0.038078915 -0.024613492 0.015532211 -0.02158495 0.0073600807
0.035673946 -0.06351468 0.04123464 0.011643692 0.012487133 0.01519184 0.053763844 -0.045198165
-0.015905876 -0.0006946421 0.010769391 -0.065617144 0.0016800949 -0.01267202 0.017856883 -0.06574278
-0.1053123 -0.044950314 -0.03615785 -0.15124106 0.019114323 -0.03164217 -0.111746676 -0.018943269
-0.08980479 0.14629713 0.015440649 0.012858959 0.0028720072 -0.013724383 -0.14052305 0.07619623
0.038410455 -0.09986429 -0.018705191 -0.09350766 -0.045123238 -0.004796014 -0.08175648 0.14923565
0.0054997224 0.08612625 0.015147816 0.02794596 -0.0065859314 -0.009668342 -0.0746369 0.02190061
-0.066016495 -0.12176213 -0.019036205 0.038481046 0.0019730818 -0.06955888 -0.22659281 -0.01004399
-0.0032961757 0.033701587 -0.08331298 -0.03335223 -0.0055973213 0.22000918 -0.011437221 -0.15906988
0.0074705263 -0.06258061 -0.06775988 -0.016630316 -0.049540933 -0.024103414 0.00025498812 -0.01563491
-0.16134897 0.0914454 -0.06372225 0.0013801737 -0.03929676 0.036064934 -0.017549524 -0.031871773
0.01396106 -0.056325033 -0.051865913 -0.01058481 -0.02729482 0.053915717 0.032399446 0.09033714
-0.002725909 -0.00091526465 -0.021549527 -0.016434163 0.15900695 -0.09552074 -0.10274807 0.074673146
0.047149576 -0.14455782 -0.076111 0.014373311 0.06867688 -0.051167388 -0.09802614 0.0053973636
0.007535536 0.0065858676 -0.04298448 -0.0026349884 0.018992525 0.004345764 -0.016286697 -0.031844616
0.011618441 -0.028413657 -0.17968611 -0.1661489 0.020280844 0.041847777 -0.022500288 0.012104352
0.014622497 0.099262446 -0.10986584 -0.14075823 -0.04931719 0.071765 0.0029179333 -0.19273046
-0.08263893 0.040086422 -0.018374294 -0.065902755 0.00847264 -0.0087291645 -0.03143366 -0.015868824
-0.06538904 0.0028496855 -0.033895142 0.015380447 -0.017561331 -0.013428841 0.023181595 0.07417552
0.09899057 -0.046988405 0.10442751 0.039354414 0.12927486 -0.045688912 -0.03323779 0.09525196
-0.027530245 -0.006626843 0.0023388588 -0.003740834 -0.062238365 0.12882698 0.04322674 0.048615098
-0.058251936 0.060092498 -0.07602006 0.03920617 -0.12545723 0.10564136 -0.042307537 -0.04613318
0.048573054 -0.012316267 -0.019327 -0.019214315 -0.04286873 -0.029220723 0.009335078 -0.0790781
-0.11589168 -0.07253419 0.095358 0.004518655 0.040194776 -0.13612558

network_body._body_endoder.seq_layers.0.bias f4 [127]
00000000: 0fc2 ba3c 6843 e4bc 075b 0bbc 147b 28bc
00000010: 251a c2bd 1250 b8bc 244d b63c fbee 50bc
00000020: 9859 63bd 20a4 89bd 2600 7eb8 903a 7d3c
00000030: e7bf 8e3b 2ce4 c73c 3e85 a7bb 8865 95bd
00000040: 3511 a63c 4c7b adbc 1207 443d 3007 033b
00000050: c8f6 d23c 2045 403d adc5 33bd 05e4 43bd
00000060: 3eeb 1dbd 7efd c9bd 219d 8e3b 6012 31bd
00000070: ad64 c5bd f3c3 4b3c 06f0 f13c 5688 cab8
00000080: 1413 56bd 4494 a3bb 89f0 dcbb c978 29bd
00000090: 9b89 6ebd d6d9 4d3d 8fb9 b4bd d825 a8bc
000000a0: 873a 873d 3ba8 6d3b c02c 0bbd 3977 443d
000000b0: 0487 653a e01c 82bc e771 deba c50c 99bc
000000c0: 8077 4cbd 6fbf d6bc 45d7 923d 438b e3bc
000000d0: d2a6 4ebd 933f c1bb e2d3 2cbd e8c0 f5bc
000000e0: 1bb7 003e c702 473d fbbe 09be 67ed 18bd
000000f0: 016f 9fbd b8e8 3fbc 9afe dd3b 4c47 443d
00000100: 2a1f 4b3c 4f24 c2bc b6c2 6a3c a0f3 9cbd
00000110: df30 903d c87e 783d f9e5 57bd 85f3 65bc
00000120: 4926 30bd aada dc3c 671c c93c 2907 47bd
00000130: fea8 c0bd 168e 18bc 2361 85bd de0d 9ebc
00000140: ea7c 28bd 4872 a1bd f70c eb3d 9484 a6bd
00000150: d099 80bd d4c9 89bd 9268 68bd eaf0 c7bd
00000160: d51c babc 42eb 4ebd ae68 193d 1f80 42bc
00000170: 007f 0abd 8c99 3ebd c7a0 853d d7a5 ad3d
00000180: 7bda 64bd 1fc8 8cbc f7fd 88ba 4fe2 82bd
00000190: 88be 7ebd b48e 42bd dc94 483d 3346 213d
000001a0: 742e 1b3d 0f04 22bd 7d24 e6bc f67b 973c
000001b0: 5506 453d 6a3e b83b 4df0 8d3c 9a96 f2bd
000001c0: 511c 44bc 687c e03b 4309 1d3d 0b16 723d
000001d0: 1279 adbc 4a8a b4bd cc4d 053d 1678 9d3d
000001e0: d11c 66bd c586 cd3c a030 1bbc 2f40 463d
000001f0: cdaf 1d3d c81a 2bbb 0061 0e3d
0.022797612 -0.027864173 -0.008505589 -0.01028325 -0.09477643 -0.022499118 0.02225358 -0.01275229
-0.055505365 -0.067207575 -6.0558457e-05 0.015455857 0.0043563726 0.024400793 -0.0051123193 -0.07294756
0.020271877 -0.021176957 0.047858305 0.0019993298 0.02575244 0.046940923 -0.04388969 -0.04782488
-0.038554423 -0.09862803 0.0043522273 -0.043230414 -0.09638343 0.012436855 0.029533397 -9.657505e-05
-0.052264288 -0.00499204 -0.006742541 -0.041374955 -0.0582367 0.050256573 -0.08824455 -0.020525858
0.0660296 0.0036263603 -0.033978224 0.047965262 0.00087557756 -0.01588291 -0.0016971201 -0.018682847
-0.04991865 -0.02621433 0.07169966 -0.027776366 -0.05045206 -0.005897471 -0.042194255 -0.029999211
0.12569849 0.048586633 -0.1345176 -0.03733578 -0.07784844 -0.011713199 0.0067747356 0.047919556
0.012397567 -0.023698954 0.014328649 -0.07663655 0.070405714 0.060667783 -0.052709553 -0.01403511
-0.04300526 0.026959736 0.024549676 -0.048590813 -0.09407233 -0.00931122 -0.06512668 -0.019293722
-0.041134752 -0.078831255 0.11477082 -0.08130756 -0.062793374 -0.06727949 -0.05674035 -0.097627476
-0.022718826 -0.050517328 0.037453346 -0.011871367 -0.033812523 -0.046533152 0.065248065 0.08478897
-0.05587242 -0.017185269 -0.0010451664 -0.06390821 -0.062193424 -0.047499374 0.04897009 0.039373588
0.037886098 -0.03955465 -0.02809357 0.018491726 0.04810174 0.0056226747 0.017326498 -0.11845131
-0.011969642 0.006850768 0.03833891 0.059103053 -0.021175895 -0.08815439 0.032544896 0.0768892
-0.056179825 0.025088677 -0.009472042 0.048401054 0.038497735 -0.0026108492 0.034760475

network_body._body_endoder.seq_layers.0.weight f4 [127, 39]
00000000: 3784 98bd 2056 c33c 82a5 39be 79dc e8bd
00000010: f60e a1be 97ff babd 1c7e 573e 8f2a 34bd
00000020: 7a2f a8be e108 863d 95aa 7f3d 196e 79bd
00000030: cee1 ef3d 530c 83bd e2b1 16bd 2962 37be
00000040: aec6 3fbd 8680 c23d 6555 08be d55c 0bbe
00000050: a10e a03e a878 9a3d b152 f7bd a80c 3cbe
00000060: 841b c5bd c533 ab3e 5dfb 7a3e 9430 3bbe
00000070: 2470 7a3d 3453 d1bd 365a 1dbe 0ddc babe
00000080: 9eeb 5e3d 90e5 943d ce30 693e 1c44 b03c
00000090: 1e0a b4be bcf6 c2be 6bf3 8d3e e0b3 513e
000000a0: aab3 1bbe bb4b 1b3e 2540 b5be 5d5c 8ebe
000000b0: 53e3 82bd 2b14 943e 536b 06bb 0624 20bd
000000c0: c95f d3bd 4346 e03d a24d e13d 146d 853d
000000d0: 1ff5 0eba 5fd2 b9bb a633 94be e9eb 7abe
000000e0: 6905 7c3e dbcc 023e 6bd9 1c3e f4f6 08be
000000f0: 5c74 ffbd c4ef 6dbe 77f8 46be 8a15 393e
00000100: e573 d6bc da08 d73d 5a0a f4bd b8e1 e1bd
00000110: c259 953e bc7b 873e d91c debd ed5c afbc
00000120: 9197 423e 9fc0 2a3e 569b 923d 1b6d efbe
00000130: 69e7 9cbe 9189 bdbd fbab 923e 63cc ea3d
00000140: 107d f33e 45df 9bbc ea3a f4bd 7c3f adbe
00000150: 0baa da3c e5b1 cc3e c3bd 7f3e 47c5 f03d
00000160: 805e 93bd 6c18 a4be 80be 023e b7b3 e5bc
00000170: 46b2 ac3e 3995 f33b e4fa aa3c 8237 cc3d
00000180: 0b8f 86be f3b7 00be 6506 7fbc d0c5 76be
00000190: 420b 863e 8c5f e83d 766d aabd 823d 3ebe
000001a0: 8b87 4bbe 0b68 bfbc 7a7e b3bd ad40 19be
000001b0: b9d9 7cbe 118e a53d d1ee 1d3e b4aa e6bc
000001c0: 0635 a6bd 342d d3bd a0aa 4e3d 9453 c33e
000001d0: fd6b df3d 0798 1d3e f473 28bd 7566 8b3e
000001e0: 3ddb 97bd b9cf 5b3d 04ac 8b3e d0aa 383e
000001f0: 67d4 d4bd 4761 b73e 0360 8ebd 7b35 633e
00000200: be25 58bd 07a1 2ebd 5d63 3bbd 9c10 c03e
00000210: b588 fcbb de04 33be bf0c a3bd bd72 753e
00000220: b6c6 c63b 1068 e93d 67fd 26be 33b3 c2be
00000230: cb1f 923d 2ce6 83be dedd 8f3e d05f 5f3e
00000240: aa8f 94be 23a5 4ebd 2974 e8bd fa97 5d3d
00000250: b467 f53c aaac aebd ba4d 3fbe 05c1 e7bd
00000260: 5b1e 42bd f400 833e 9bc4 0cbd 0e3d 023e
00000270: 810c 14be 477c 4b3d df4d ff3d 3e9a abbc
00000280: 5cb0 103e eac3 4cbe 4e23 593e c490 73be
00000290: ba5a bbbd faa0 2abe ed94 a9bd c7c7 02be
000002a0: 351a 21be 8904 8d3b ded3 5a3e c0e3 983c
000002b0: 52c2 223e 93cb 423d 82ea 0f3d 68d5 75bd
000002c0: b3a5 efbd 01dd 3e3d 4109 a93c d510 8d3d
000002d0: 0cc2 b73d 4204 323e bdb6 883c 52c7 883e
000002e0: 9420 e7bc eadb e43d d824 88bc 46ba 573e
000002f0: 8056 a5be 4cc8 cc3d 107b 7bbe 8ec3 243e
00000300: 50aa 31be 3441 223d 2fa7 a2bd 0d3b 34bd
00000310: 9560 503e eb62 65be d782 f13d 0469 1d3e
00000320: 18f2 8abe 9dd4 583e ab1a 143b 971e 393e
00000330: e502 4abc e217 28be 0b44 edbd 7534 3cbd
00000340: 7b41 603b fd19 a73d d22a dabe 189c a53d
00000350: 4ef2 25bd 9857 f8bd ec12 7a3e abc1 e3bd
00000360: bf3e 66be 9329 863e 282c e33d e166 92be
00000370: 0e72 44be 4295 2f3e 3a9b 3dbe 1a37 edbd
00000380: 7ea4 253e 6366 e9bd 8407 d13e ce45 16be
00000390: eedc 8bbe 7f13 60be 7f8f b33e 09c9 fabd
000003a0: a980 babe 50d4 10be 6746 5abe 6476 54be
000003b0: 2850 0c3e a073 8e3e 0da3 2b3d 0e85 6fbe
000003c0: eefa 18be b144 cb3d e4b3 903c 1065 df3d
000003d0: 856c f23d 6758 e53d a67f 36be 15ce 853d
000003e0: b3ca b93d fd99 3c3e bf67 393d 3afd 43be
000003f0: 4b57 04be 9635 72be 351d 8a3e 9d38 b33d
-0.07447093 0.023844779 -0.18129542 -0.11370177 -0.31456727 -0.09130781 0.210442 -0.0439859
-0.32848722 0.06544662 0.06241854 -0.060896013 0.11712991 -0.06398835 -0.036790736 -0.17908539
-0.046820335 0.0949717 -0.13313825 -0.13609631 0.3126116 0.075425446 -0.12076319 -0.18364203
-0.09624389 0.33437935 0.2450995 -0.1828025 0.061142102 -0.10220948 -0.15366444 -0.3649601
0.05442392 0.07270348 0.22772524 0.021516852 -0.3516397 -0.38078868 0.27724776 0.20478773
-0.15205255 0.15165608 -0.354005 -0.27804843 -0.06391015 0.28921637 -0.0020510748 -0.039096855
-0.10321004 0.10950901 0.110011354 0.065149456 -0.0005453396 -0.00567083 -0.28945655 -0.24504055
0.24611439 0.12773459 0.15317313 -0.13375455 -0.12473366 -0.23235995 -0.1943072 0.18074623
-0.02617831 0.10499735 -0.11916037 -0.110293806 0.29170042 0.2646159 -0.10845346 -0.021406615
0.1900313 0.16675042 0.07158534 -0.46762928 -0.30645302 -0.09254754 0.28646836 0.11464765
0.47556353 -0.019027362 -0.119252995 -0.33837497 0.02669241 0.39979473 0.24974732 0.11756378
-0.07195759 -0.32049882 0.12767982 -0.028039796 0.33729762 0.00743356 0.020871587 0.09971525
-0.26281008 -0.12570171 -0.015565489 -0.24098897 0.26180464 0.11346349 -0.08321659 -0.18578151
-0.19875924 -0.023365041 -0.08764358 -0.14966078 -0.2469243 0.08083738 0.15423132 -0.02815757
-0.08115582 -0.10311356 0.05045569 0.38149703 0.10909269 0.15390025 -0.041126207 0.27226606
-0.07414863 0.053664897 0.27279675 0.1803391 -0.10392075 0.35816404 -0.069519065 0.2218837
-0.05277037 -0.042634036 -0.045749057 0.37512672 -0.0077067264 -0.17482325 -0.079614155 0.2396955
0.0060661687 0.113968015 -0.16307603 -0.38027343 0.0713497 -0.25761545 0.2809896 0.21813893
-0.29015857 -0.050450455 -0.11350281 0.054100014 0.029956676 -0.08529027 -0.18681994 -0.113161124
-0.04739223 0.25586665 -0.034367185 0.12718603 -0.14457895 0.049679067 0.124660246 -0.020947572
0.14129776 -0.1999661 0.21204874 -0.23785692 -0.09148164 -0.1666297 -0.082803585 -0.12771522
-0.15732653 0.004303519 0.21369883 0.018663287 0.1589444 0.047557425 0.035135753 -0.060017973
-0.117015265 0.046597484 0.020634295 0.06887976 0.089725584 0.17384437 0.016688699 0.2671457
-0.028213777 0.11174758 -0.016619131 0.21067151 -0.32292557 0.09999141 -0.24558663 0.16090223
-0.17350125 0.039612964 -0.07942044 -0.044001628 0.20349343 -0.22401015 0.11792534 0.15372092
-0.27137828 0.21174856 0.0022598903 0.18078075 -0.012329792 -0.1641536 -0.11585244 -0.045948464
0.0034218717 0.08159254 -0.42610794 0.08086413 -0.040514283 -0.12126082 0.2442128 -0.111209236
-0.22484873 0.26203594 0.110924065 -0.28594115 -0.19184133 0.17146781 -0.18516245 -0.115827754
0.1617603 -0.11396482 0.40826046 -0.14675066 -0.27316993 -0.21882437 0.35070416 -0.12245376
-0.36426285 -0.14143491 -0.21315919 -0.20748287 0.13702452 0.2782259 0.041903544 -0.233906
-0.14939472 0.09925211 0.017663904 0.10907948 0.11837105 0.11198502 -0.17822132 0.06533448
0.09071865 0.18418117 0.045264956 -0.19139567 -0.12923925 -0.23653254 0.26975408 0.087510325

network_body._body_endoder.seq_layers.2.bias f4 [127]
00000000: 5c63 f5bd 34bf c2bd c282 8bbd 734a fabd
00000010: 8adc b8bc 033d b0bd 1de9 223d ee57 843c
00000020: 8fcb 64bc 8ea4 15bd 548b 8ebd 1e67 29bd
00000030: 6931 a4bd dc5c 20be 8678 c0bd 23ba 62bd
00000040: 2414 51bd 8163 0bbd 590f 3bbd cb27 b1bd
00000050: d630 3dbd b1cf 23bd b1c4 0abe d484 88bd
00000060: a440 ebbd 0a45 cdbd 7375 6dbd 9e98 14be
00000070: e52e 50bd d6d3 e23c f621 30bd 4638 c53c
00000080: 821a 6aba 9058 adbd bba5 94bd a27a 7ebd
00000090: 3e9e 95bd ef70 093d ab7b 09bc 369a 9ebc
000000a0: b0be 97bd eb03 41bd 42d8 e8ba 19b7 bcbd
000000b0: 0087 3cbc 0cf1 97bd 4821 cebd 4fca 61bd
000000c0: cc9d a5bd 5912 9b3b c9b3 88bd 20aa f6bd
000000d0: 5ba5 54bc aa17 dabc a361 5cbc 5f94 61bd
000000e0: e234 f1bd cb9a c6bc 6750 2bbd 2d58 48bd
000000f0: 1fc5 693c d0c2 6dbd a5ad cfbc a42d cabd
00000100: 6354 58bc 4cc6 05bd 59a5 c6bc e169 6dbd
00000110: e2aa 31bd da23 dcbd cf04 b3bc cd60 97bd
00000120: 57e1 843b 2ea2 c0bd 9a93 61bc 73ee 63bd
00000130: 1cad bbbd 7dee 36bd 2940 2abb 5358 ffbd
00000140: 9252 a9bd 95bc 12be 632f 9cbd be69 e4bd
00000150: b04a 4abd 0318 0ebd 4d7b edbc 0ee8 62bd
00000160: 4b45 c0bd 23c1 1abd 4483 06be 85a9 03bd
00000170: bb9c 25bd 08cf 8abd 5888 9fbd 4f9a a7bd
00000180: ffc2 00bd a599 37bd 630f cbbd 2275 6dbd
00000190: b391 3dbd fa84 34bd 693c 32bc 7707 98bc
000001a0: fea0 8dbc ebbc c0bd fd4e 3fbd c36d b4bd
000001b0: 04e9 80bd 37e0 0fbe e65a 38bd f6e2 e63b
000001c0: 0814 e9bd f84f e03b 4d85 5abd 2437 e0bd
000001d0: f7a6 c6bd 1b9a 79bd 0fa7 0abe 27f6 89bd
000001e0: 1abc d0bd 13ef a8bd bc0a eabd 00c5 d83c
000001f0: 1e2f c3bc 5e5e ddbd 10e6 abbd
-0.11981842 -0.09509125 -0.068120494 -0.12221231 -0.022566099 -0.08605387 0.039773095 0.01615521
-0.013964548 -0.036533885 -0.069601685 -0.041358106 -0.08017237 -0.15660423 -0.09397988 -0.055353295
-0.0510446 -0.03403044 -0.045668934 -0.08650168 -0.04618915 -0.03999299 -0.13551594 -0.0666596
-0.114869386 -0.10022934 -0.057973336 -0.14511344 -0.050825972 0.027688902 -0.043001138 0.024074685
-0.00089303416 -0.084641576 -0.07258173 -0.06212867 -0.07305573 0.033554967 -0.008391301 -0.019360643
-0.07409418 -0.047122877 -0.0017764645 -0.092146106 -0.011506796 -0.07419023 -0.10064942 -0.055124577
-0.08086738 0.004732412 -0.06674916 -0.120441675 -0.012978877 -0.026622612 -0.013451013 -0.05507314
-0.11777665 -0.024243733 -0.041824725 -0.048912216 0.014268189 -0.058047116 -0.025351355 -0.098719865
-0.013203713 -0.032659814 -0.024248766 -0.057962302 -0.043375857 -0.10749026 -0.021852879 -0.0739151
0.004055183 -0.09405933 -0.013768101 -0.055647325 -0.09163877 -0.044661034 -0.0025978184 -0.124680184
-0.08267702 -0.14329751 -0.07626226 -0.11152981 -0.049387634 -0.034690868 -0.028989458 -0.055397086
-0.093882166 -0.037781846 -0.13136011 -0.03214409 -0.040432673 -0.06777769 -0.077896774 -0.08183729
-0.031435963 -0.04482426 -0.09915044 -0.057973035 -0.046281528 -0.04407213 -0.010878661 -0.018558247
-0.017288681 -0.09411033 -0.04670619 -0.08809998 -0.06294444 -0.14050375 -0.045008563 0.007046099
-0.11380774 0.0068454705 -0.05334978 -0.10948017 -0.09699815 -0.060937982 -0.1354029 -0.06736403
-0.101921275 -0.08248725 -0.11427829 0.026461124 -0.023826178 -0.10809015 -0.0839349

network_body._body_endoder.seq_layers.2.weight f4 [127, 127]
00000000: 5860 403d 1e55 753d 4aba bb3d 66a1 98bd
00000010: cc16 1b3d 20f7 12be 209f 7ebe 6e55 92bd
00000020: f3d6 bd3d 64da 5e3e 2ced 28be 45a8 edbd
00000030: 91d5 9ebd 87f1 3dbe 26c5 12be f009 e03d
00000040: bb15 e7bd d1cc 15bd 1c53 22be 5fbb e3bd
00000050: 2494 1fbe d866 04be 27ad 183e fa62 64bd
00000060: 4c4e a2bd af05 dd3c 1d99 9cbe 8576 4c3e
00000070: 8ca7 bb3c 110b 3bbe f529 1ebd 5e82 b83d
00000080: e1b6 0c3e 8338 4cbe 1bdb 643e 5821 683d
00000090: b3e4 0d3e 5469 97bd 5ff9 39be ba85 18be
000000a0: 752b 973c 6b9e c3bd ffd8 9dbd 6d5c 35be
000000b0: 21d5 a3be 5d2a 4dbe 7737 10bd 609f aebb
000000c0: c288 0bbe 70e7 273e 5478 21be 2d20 6d3e
000000d0: c9cf b4bc 18ad 343c c084 d2bd 1962 f0bd
000000e0: 93e2 a8be 370d 9bbd f3ac 923d aa0c 96bd
000000f0: f268 0d3d d14b 42bd 14ff 903e 158f 51be
00000100: 14bc 3cbd 6b28 76be 448e 81bd ef65 68bd
00000110: 92a8 69be 4130 333e 8ccf a5bd c710 c0bd
00000120: 67c5 633c 631a 74bd 5637 6cbd db34 3abd
00000130: f6f3 e5bd 947e 2f3e 75e4 073e 22d7 0abd
00000140: 62bd a2bd 86ae 943c faee d43d 6450 49bc
00000150: da63 4b3e d9c6 34be 89f3 53bd bfab 61bd
00000160: d210 1b3e 477d 63bd 1baf f3bd 8327 27bd
00000170: b712 46bb e19d b53d 610e 86be 54d1 41be
00000180: 92fb e8bd 5db9 27bd de44 353c 674f 193e
00000190: b7eb 73bd 62ce 263d a697 72be aadf 453d
000001a0: 4673 86bd 4ff2 ccbd 1918 40bd 1994 613d
000001b0: 04ec 10be b57a aabd 671d e5bd 0d2b 52be
000001c0: e1af 33be 6361 36be c427 48be 0e23 67be
000001d0: d905 acbd 8dc3 d93d cc1b 2ebe 6ca0 10be
000001e0: 5ea2 5dbd 1261 92bc 29b4 22be 3805 8dbd
000001f0: a718 28bd d781 9f3c 2993 43be 703a 2cbd
00000200: cc77 603c 6db2 cd3d 8d33 6e3d 7adf f63b
00000210: 6bd5 fe3c 531a de39 a713 083e 7219 85bd
00000220: 61c8 9d3d 3df1 c1bd 8ebb c7bd 8688 89bd
00000230: b4ed 22be 2b3d 4bbd 27ec a93d d7c6 8ebe
00000240: 5cd2 cdbd 76ef 93ba 965d 7e3c c14f be3d
00000250: e513 24bd 998b 8e3d c426 d5bc 2d3f a0bd
00000260: bc84 cabd ef99 9d3d 97e5 f63d 713f d5bd
00000270: 3912 33be f5e5 0abd a54c 30be afac 41bd
00000280: de53 3e3d 7b1e aa3d 56e9 afbc 6960 f0bd
00000290: 6ba5 71bd 9f35 73be 7fcd 50be df25 39be
000002a0: 2109 41bd a2cb b8bd 3266 e7bd 1f02 583d
000002b0: b27f 6c3a 917e 35be 9850 23be 0664 80bd
000002c0: 4872 043e 5354 22bd 98c3 83bd 18e6 07bc
000002d0: 4c6c 74bd 21fa 07bd 1429 8b3d 5f6d 07be
000002e0: 3dca 6f3c 9e03 d13d ec42 32be 7616 153d
000002f0: ea99 783d 7a8a f9bc a300 88bd 517c 18be
00000300: 6e39 4bbc 4bc2 313e 1fec ec3d f5c9 1a3d
00000310: 7e0e 31bc 4d3e 933d 7d9e 3bbe b300 023e
00000320: aa7d 6a3e cc4b a6bb a95f a2bb 8113 243e
00000330: 1da0 cb3c 881e 2e3d 2e4c 813d f75f e5bd
00000340: 4062 b3bd fad2 b13b 888f 353e f581 17bc
00000350: 5961 efbd 1f41 eebd 2605 ad3d b987 663d
00000360: 4f54 a0bd caf5 00be 91e8 91bd c66c a9bd
00000370: c35b 1c3d ff0b a73c 597d bd3c bca6 203d
00000380: a3d3 bcbd 5c64 eabd 1557 9f3d a35d 0bbc
00000390: 85bf 2cbe 71c8 80be d697 94bd 15c2 e6bd
000003a0: 5abb 2e3d 1eeb 6ebd b732 c3bd 0e94 ad3d
000003b0: 8f86 1fbe 9330 56be efe2 85be 66ee 883c
000003c0: 398c 083d fcbf 103d 7377 67be 6dc8 3a3d
000003d0: 705b 8fbd 9b80 d9bd c467 dd3b ac0d af3c
000003e0: 837b ad3c 58d0 b23d b6b0 033d 5b81 093e
000003f0: 6bc6 2ebe c302 9a3d f339 8ebe 0c54 12be
0.04696688 0.059895627 0.09166391 -0.07452659 0.037863538 -0.14352083 -0.24865389 -0.07145201
0.09269514 0.21762997 -0.16496724 -0.116043605 -0.07755578 -0.18549167 -0.14333019 0.109393954
-0.11283442 -0.03657228 -0.15852016 -0.111197226 -0.15583855 -0.12929857 0.14909802 -0.055758454
-0.0792509 0.02698025 -0.30585566 0.19967087 0.022907041 -0.1826594 -0.038614232 0.090092406
0.13741638 -0.19943433 0.22349207 0.056672424 0.13856773 -0.073931366 -0.18161534 -0.14894763
0.01845334 -0.095517 -0.07707404 -0.17711039 -0.31998542 -0.20035692 -0.035209145 -0.0053290576
-0.13626388 0.1639688 -0.15768558 0.23156805 -0.022071736 0.011027597 -0.10279226 -0.11737461
-0.32985362 -0.0757088 0.07161894 -0.07326634 0.03452391 -0.047435585 0.2831961 -0.20464738
-0.046077803 -0.24038856 -0.06325963 -0.056737836 -0.2281821 0.17498876 -0.08096227 -0.093782
0.013902045 -0.059595477 -0.05766996 -0.045460563 -0.112281725 0.1713813 0.13270743 -0.033896573
-0.07946278 0.018149626 0.10397144 -0.012287233 0.19862309 -0.1765398 -0.051745925 -0.05509543
0.15143135 -0.055539396 -0.11898633 -0.040809166 -0.0030223557 0.08868004 -0.26182845 -0.18927509
-0.11376108 -0.04094826 0.0110637825 0.14971696 -0.059550967 0.040724166 -0.23690662 0.048309006
-0.065649554 -0.10007154 -0.04689798 0.055072878 -0.14152533 -0.08324186 -0.11187249 -0.20524235
-0.17547561 -0.17810588 -0.1954642 -0.22571966 -0.08399553 0.106330015 -0.17002791 -0.14123696
-0.054109924 -0.017868552 -0.15889038 -0.06885761 -0.041039135 0.019471092 -0.19099106 -0.042047918
0.013700437 0.10043798 0.05815463 0.0075339647 0.031107625 0.00042362753 0.13288747 -0.06498994
0.07704235 -0.09469841 -0.0975257 -0.06715493 -0.15910989 -0.04961888 0.082969956 -0.27886078
-0.100498885 -0.0011286575 0.015525242 0.092925556 -0.040058035 0.0696022 -0.026019461 -0.0782455
-0.09888598 0.07695376 0.120555095 -0.10412491 -0.1748742 -0.03391071 -0.17216738 -0.047283825
0.0464667 0.08306595 -0.021473568 -0.11737139 -0.058995645 -0.23750924 -0.2039089 -0.18080853
-0.047127847 -0.09023215 -0.11298789 0.052736398 0.00090217136 -0.17724063 -0.15948713 -0.06269078
0.1293422 -0.0396312 -0.06433791 -0.008294605 -0.059673592 -0.033197526 0.067949444 -0.13225316
0.01463562 0.10205768 -0.17408341 0.036398374 0.06069366 -0.030461539 -0.066407464 -0.14891173
-0.012403829 0.17359273 0.11568474 0.037790257 -0.010806678 0.07189617 -0.18322177 0.12695579
0.228995 -0.0050749537 -0.0049552512 0.16023065 0.024856621 0.042509586 0.06313358 -0.111999445
-0.08758974 0.0054267617 0.17730534 -0.009247293 -0.116884895 -0.116335146 0.084482476 0.05628178
-0.078285806 -0.12593761 -0.07124437 -0.082727 0.03817345 0.020391462 0.02313106 0.03922151
-0.09220054 -0.11444923 0.077802815 -0.008506211 -0.16869934 -0.25152925 -0.07255523 -0.11267487
0.04265914 -0.058329694 -0.095311575 0.08475505 -0.15578674 -0.20916967 -0.261497 0.01671524
0.03333685 0.03533934 -0.2260416 0.045601297 -0.06999862 -0.10620233 0.0067567546 0.021368824
0.021177059 0.08731145 0.032150947 0.13428251 -0.17067878 0.07520058 -0.27778587 -0.14289874

network_body.observation_encoder.processors.0.normalizer.running_mean f4 [33]
00000000: 0000 0000 fbe0 0f3f 8454 3e3f 0000 0000
00000010: 8c6f 0c3f 7b3d 3b3f 0000 0000 cc32 0a3f
00000020: 6e27 393f 0000 0000 ae54 093f 0683 393f
00000030: 0000 0000 407d f83e c8e9 313f 0000 0000
00000040: c217 0a3f eb1d 3a3f 0000 0000 df01 c93e
00000050: b114 2a3f 0000 0000 88c9 0c3f 6f93 3b3f
00000060: 0000 0000 cd60 a63e ef5d 243f 0000 0000
00000070: 9434 0f3f 7950 3d3f 0000 0000 5c6e a03e
00000080: a417 233f
0.0 0.5620267 0.7434771 0.0 0.5485771 0.73140687 0.0 0.5398376
0.7232579 0.0 0.53644836 0.7246555 0.0 0.48533058 0.69497347 0.0
0.539425 0.727019 0.0 0.3925924 0.6643782 0.0 0.5499501 0.7327184
0.0 0.32495728 0.6420583 0.0 0.559396 0.73950917 0.0 0.31334198
0.6370795

network_body.observation_encoder.processors.1.normalizer.running_mean f4 [6]
00000000: 8cff 30bf 2d93 023d 2908 493d 71fe 4042
00000010: beb8 343c 5aa9 243e
-0.69139934 0.03187864 0.049080048 48.248478 0.011030374 0.16080227
