Assets/results/CubeAgent12/AutoAgentFinale/AutoAgentFinale-42332.onnx (onnx, 89226 bytes, 11 tensors)

60 f4 [33]
000000 e8 42 9f 3b fa 46 df 3e 3b 2b 8e 3e e8 42 9f 3b
       0.004860271 0.43608838 0.27767357 0.004860271
000010 d4 2f e2 3e 5b 7c 8b 3e e8 42 9f 3b cc 5d ee 3e
       0.44177115 0.27243313 0.004860271 0.46555936
000020 e1 bb 99 3e e8 42 9f 3b a8 17 ef 3e 00 cc 8e 3e
       0.30026153 0.004860271 0.46697736 0.27890015
000030 e8 42 9f 3b dc 5e fc 3e 06 19 a4 3e e8 42 9f 3b
       0.004860271 0.49291122 0.3205034 0.004860271
000040 27 74 f9 3e e0 d5 93 3e e8 42 9f 3b c2 fc ff 3e
       0.4872143 0.2887411 0.004860271 0.49997526
000050 d1 53 a9 3e e8 42 9f 3b 5d af fd 3e cd 22 98 3e
       0.3307176 0.004860271 0.49547854 0.2971405
000060 e8 42 9f 3b 8c 3c fd 3e 33 d1 ab 3e e8 42 9f 3b
       0.004860271 0.49460256 0.33558044 0.004860271
000070 6d 05 ff 3e 9c 69 9a 3e e8 42 9f 3b ca 85 f8 3e
       0.49808827 0.301587 0.004860271 0.48539573
000080 a5 8a ab 3e
       0.33504215

63 f4 [6]
000000 30 88 3e 3e 6d 10 5d 3c b7 8a 83 3e fe 97 fe 41
       0.18606639 0.013492686 0.2569177 31.824215
000010 59 dc 35 3e b0 28 e8 3d
       0.17759837 0.113358855

action_model._continuous_distribution.log_sigma f4 [1, 2]
000000 a6 61 20 be 83 e0 8c bd
       -0.1566225 -0.0687876

action_model._continuous_distribution.mu.bias f4 [2]
000000 5b 34 7a bc 4b 21 5f bc
       -0.015271272 -0.0136187775

action_model._continuous_distribution.mu.weight f4 [2, 127]
000000 f6 db 2a 3d e3 51 cf bc df bc 0e 3d 7d bc 0c bd
       0.041713677 -0.025307601 0.03484809 -0.034359444
000010 a1 1e 1e bd 5b af b1 bd bb ad a3 bb 2a 62 00 3a
       -0.03860343 -0.086760245 -0.0049950755 0.000489744
000020 e5 f7 d8 bb 3a 5c f2 3c d6 55 a8 bc 18 05 52 bd
       -0.006621348 0.029584993 -0.020548742 -0.05127439
000030 3d 4d 82 3c f7 a6 e0 3b 66 03 60 3d b4 ca 11 ba
       0.01590597 0.0068558413 0.05469074 -0.0005561516
000040 6a ec 5c bd 0b 98 70 bc c8 a0 58 3d 5b e1 c5 3c
       -0.0539364 -0.014684687 0.052887708 0.02415531
000050 5b 8b f2 bd bd 13 c5 3c 7d ab 75 3d 27 6a 15 3d
       -0.11842986 0.024057264 0.059977997 0.036478188
000060 d6 a7 9b bc 43 8f 83 bc 20 18 ce 3c 17 81 9c 3c
       -0.019000929 -0.016059523 0.025157988 0.019104524
000070 fc d9 66 3c da 9d be bd d8 d5 9c bd fd a9 28 3c
       0.014090057 -0.093074515 -0.07657975 0.010294435
000080 2c 3a 9e bc 9d b4 75 3d 97 16 5c 3c 9c 70 0e 3b
       -0.019314848 0.0599867 0.01343312 0.00217346
000090 bd 84 ba bc d4 b1 37 bd 5c a2 57 bd 10 67 18 3c
       -0.022768373 -0.044847324 -0.052645072 0.009301916
0000a0 71 c3 44 3d 57 1a 78 3b c2 e1 99 bc 38 65 12 3d
       0.04803795 0.0037857497 -0.018784408 0.03574106
0000b0 cb 50 09 3b 97 f8 49 3d 76 da b8 3a a0 4a b2 bc
       0.0020952697 0.04930934 0.0014103192 -0.0217641
0000c0 41 a6 54 bd e1 1a b5 3d 88 9b 23 3d 37 f7 3d bc
       -0.051916365 0.08843017 0.039943248 -0.011594585
0000d0 c2 ba 03 bb 84 2b 8c 3c ed 9b 4a 3d 1c 93 28 bd
       -0.002010033 0.017110594 0.04946511 -0.04115592
0000e0 20 c2 22 3d 49 65 41 bc 67 ae af 3d 9c aa 38 3d
       0.039735913 -0.011803933 0.085781865 0.04508458
0000f0 d5 97 77 3d 8c 4e 3e bd 9c 41 3e 3d 94 a3 9f 3d
       0.060447533 -0.046461627 0.04644929 0.07794872
000100 2d 9b ea bc b8 ca b5 bc 2e ad 58 bd 10 6c 8f bb
       -0.028638447 -0.02219139 -0.052899532 -0.0043768957
000110 b4 76 2a 3d a9 b7 92 bc 04 e1 aa bc f9 bb 42 3b
       0.04161711 -0.017909842 -0.020859249 0.0029714091
000120 cc 25 d8 3d cb ac 00 3d e8 23 72 bc 84 d5 39 3d
       0.10554084 0.03141479 -0.0147790685 0.04536964
000130 6c 6f 56 3c 38 55 28 3c 2f 09 fb 3b c0 06 6a 3c
       0.0130880885 0.010274224 0.007661007 0.014283836
000140 ae 57 97 bd 79 75 9a 3c 62 d7 f1 bc 9f f3 7d 3d
       -0.073897704 0.018854843 -0.029521648 0.061999913
000150 c9 8d 9a 3b 9a c7 64 3d 22 67 44 bb 38 4a 20 bd
       0.004716609 0.055854417 -0.0029968699 -0.03913328
000160 60 8c bf 3d 42 dd 78 bd a1 b3 4f bd 5c 77 21 3d
       0.09352946 -0.060757883 -0.050708417 0.03942047
000170 3d 3c 38 bd f3 06 c9 bc 5f 01 00 3d dc c8 eb 3b
       -0.044979323 -0.024539446 0.031251308 0.007195575
000180 86 bf 62 bd 43 bc 8f 3a 38 a0 84 bc 5d e1 ea 3d
       -0.055358432 0.001096614 -0.01618968 0.11468766
000190 6d c1 46 3d 6a dd a6 3d f4 b9 fd 3c d7 0f fc bb
       0.04852431 0.081477 0.030972458 -0.007692318
0001a0 41 25 9d bd cb 67 2a bc 33 7b ce 3b ed af 4f bc
       -0.07673121 -0.010400723 0.0063013076 -0.012676221
0001b0 c9 2d f1 3c a8 92 c3 3b 82 93 38 3d ab aa 2f 3d
       0.029440777 0.0059684105 0.04506255 0.04288737
0001c0 08 f6 0b bc 30 ba 09 bc 45 83 8f 3d d1 c4 28 3d
       -0.008542545 -0.008406207 0.070074596 0.041203324
0001d0 ad df 9d 3a d8 85 20 3c d6 a1 52 3d 63 c1 ce 3a
       0.001204481 0.009797536 0.05142387 0.0015774186
0001e0 f8 7b da bc 37 7e 9f 3c b6 54 c5 3c 15 f8 55 bc
       -0.026670441 0.019469364 0.024088245 -0.013059636
0001f0 6c e2 95 3c 86 5c 22 bc 15 d0 4b 3d 84 b3 75 bd
       0.018296443 -0.009909755 0.04975899 -0.059985653
000200 ff 3c 7c bc a9 a1 4d 3c 98 7b 06 3d 3e 4e 1b bd
       -0.015395402 0.01255075 0.032832712 -0.037916414
000210 a2 bc 5e 3c 6c 70 b1 bb a4 2d 01 3b a2 9b d6 3c
       0.013594778 -0.005415013 0.0019711042 0.026197258
000220 07 53 4d bd fe 05 02 bc 7e 7e 4b b9 24 96 b9 3b
       -0.05012801 -0.007935999 -0.0001940671 0.00566365
000230 3e 49 c1 bb dc 5e 67 bd 7f ff 64 bd 6b a5 1e 3e
       -0.0058986237 -0.05648695 -0.055907723 0.1549279
000240 ab 19 02 bd 46 53 54 3d 55 45 11 3d 25 fa 30 3d
       -0.03176276 0.05183723 0.03546651 0.043207306
000250 2a 7f c1 bc 6a 2f 9e 3c 67 ae de bc 84 e1 66 bd
       -0.023620207 0.019309718 -0.02718277 -0.056367412
000260 70 80 5a bc c4 d2 26 bd 67 b4 3f 3d b2 43 67 3d
       -0.013336286 -0.040728346 0.046802904 0.056461044
000270 73 a1 9c 3b e9 0c e0 bc e3 f6 aa bc cd fa b7 3c
       0.0047799884 -0.027349906 -0.020869678 0.022458458
000280 b8 4d 3c bd a9 0f 6d 3d 21 03 e9 3c 00 1f 89 3b
       -0.045972556 0.057876263 0.028443875 0.0041846037
000290 c4 cf 81 3b df e8 12 bd e3 78 af bb 3d fd 92 bd
       0.003961535 -0.035866614 -0.005354987 -0.071772076
0002a0 be fb a9 ba 44 e9 13 bd 4e d6 e4 bc 22 f9 87 3d
       -0.0012968702 -0.03611113 -0.02793422 0.06639315
0002b0 29 ea 18 bc b3 3c 70 bc 20 b3 54 3c 58 02 08 be
       -0.009333172 -0.014662909 0.01298216 -0.13282144
0002c0 f5 95 16 3d e9 20 4c 3d 97 11 7a bc 1e 3f 07 bc
       0.036764104 0.049836073 -0.015262983 -0.008254794
0002d0 50 2c 4c bd af b9 54 bd 98 b5 2a 3d c3 30 fb 3a
       -0.049846947 -0.051934894 0.041677088 0.0019164312
0002e0 33 0e 44 bc ff 4a 6c bd f5 de 7d bd 74 3e fb bc
       -0.011966276 -0.05768871 -0.061980207 -0.030669428
0002f0 c0 d2 1b bd 25 5d 8d bd 73 73 99 bd f4 3b 7c 3d
       -0.038042784 -0.069025315 -0.07492723 0.061580613
000300 40 8a cd bb 12 e0 98 bd 31 ea 93 bd 39 d5 11 bd
       -0.006272584 -0.07464613 -0.07222403 -0.035603736
000310 18 ce 43 3d 45 f6 01 3d 47 5c 3d bb 76 68 d3 3d
       0.04780397 0.031729 -0.0028894113 0.10322659
000320 2c 35 7a 3d 1a da 64 3d 37 b8 67 bc 09 93 7d bc
       0.061085865 0.05587206 -0.014143041 -0.01547695
000330 78 47 9c bc ed 84 03 3d 03 1d 1d 3d 43 de 0d bd
       -0.019077048 0.03210919 0.038357746 -0.034635793
000340 82 90 54 bb 3a 0c b7 bd de 3e 94 3d 50 b0 2a bb
       -0.0032434766 -0.08937879 0.072385535 -0.0026045032
000350 17 df 2e 3c f9 59 28 3b 60 d6 25 3d a4 aa 46 3d
       0.010673306 0.0025688394 0.040487647 0.04850258
000360 3a 5c 42 3d 47 11 1c bd 28 c5 10 3d 95 e0 4f bb
       0.047451235 -0.038102414 0.035344273 -0.0031719555
000370 8a 29 7a 3d 84 79 9f 3c 91 9a 89 bc ba 58 d4 bc
       0.06107477 0.019467123 -0.016797336 -0.025921214
000380 7a 58 22 bc 4f 8b 18 bd 78 81 4c 3d 33 c0 54 bb
       -0.00990879 -0.03724223 0.04992816 -0.0032463192
000390 62 21 01 3c c9 6b c5 3b 6c f2 8e 3d a5 dd 77 bc
       0.007881494 0.006024812 0.06979832 -0.015128528
0003a0 60 95 92 3c 7a ef 85 3c e2 a6 ae bd 79 16 b1 ba
       0.017893493 0.016349543 -0.08527924 -0.0013510726
0003b0 f3 49 12 3d 25 00 8a 3d 92 26 55 3d 88 dc 14 3c
       0.035715055 0.06738309 0.052038737 0.009085782
0003c0 7d 03 eb 3d 5f 05 91 bc ce f6 05 bd d3 03 5e bc
       0.11475275 -0.017702756 -0.032706074 -0.013550716
0003d0 5d cc a6 3b 70 a7 0e 3d 83 eb fd 3c 82 50 87 bd
       0.00509028 0.03482765 0.03099609 -0.066071525
0003e0 53 85 cc bb b0 1b 32 3d cb e4 fe 3c 5e c3 e6 bc
       -0.0062414794 0.043483436 0.031114956 -0.02816933
0003f0 3b 02 ec 3d b4 9e 3b bd
       0.11523863 -0.045805648

network_body._body_endoder.seq_layers.0.bias f4 [127]
000000 d9 bd 9a bc 25 f6 28 bd 0d 21 99 3b 11 b4 82 bd
       -0.018889355 -0.041250367 0.0046731294 -0.06382001
000010 15 28 fc 3c bf 7b ce 3c 19 7f 72 bd 53 b7 86 3d
       0.030780831 0.025205491 -0.05920324 0.06577935
000020 f9 a4 e3 3c 35 2e cc 3c f3 a6 bc ba b2 f5 a0 bc
       0.027788626 0.024924377 -0.0014393016 -0.019648407
000030 ce f0 68 bd 8d 36 1b bd 59 8f bb bc d1 9f 6d bd
       -0.056870274 -0.03789382 -0.022895502 -0.05801374
000040 b7 3a 8a bc 50 96 82 bd 01 23 32 bd c6 23 a4 3c
       -0.0168737 -0.06376326 -0.043490414 0.02003659
000050 ad 16 8b 3c 58 82 97 bd 94 d1 10 3d 29 6f 31 bd
       0.016978586 -0.07397908 0.03535612 -0.0433189
000060 e2 79 a3 bc 5a cb ea bb 85 e7 66 bc 00 5e b9 bc
       -0.01995558 -0.0071653547 -0.0140932845 -0.02262783
000070 ec 81 7a bd 92 3d 9a bc 58 ef 49 3d ad 12 01 bd
       -0.06115906 -0.018828187 0.04930052 -0.03151195
000080 fb e9 f2 3b cf 68 f5 bc 02 0f bc bc 3b 0e 15 bd
       0.0074131466 -0.029957203 -0.022956375 -0.036390524
000090 b4 b8 18 bd 6e b0 3e bd c2 36 95 bc 2e ff b7 3c
       -0.03728552 -0.046554975 -0.018214587 0.022460546
0000a0 da 12 66 3d 83 89 fc bc 3a 6a 28 bd d2 1c 16 bb
       0.056170322 -0.03082729 -0.04111693 -0.0022905362
0000b0 65 af ba bc fa 4b 81 bd e1 39 ed bc 75 71 86 bd
       -0.022788713 -0.063133195 -0.028958263 -0.06564609
0000c0 12 ed 13 bd 94 01 a8 ba 76 3a 75 bc 9c 99 5f 3b
       -0.03611476 -0.0012817853 -0.014967551 0.0034118658
0000d0 8d 65 50 bd 3d 1a 45 bc 2d 18 61 3d 81 41 af bb
       -0.050878096 -0.0120301815 0.054954696 -0.005348385
0000e0 17 23 a0 bc a3 7f a6 3c c0 19 1e bd 2f 4b 1e bc
       -0.019547982 0.020324534 -0.038598776 -0.00966148
0000f0 f7 1f 83 3d 95 4d 4b bc 14 3b 60 3b e2 92 36 bd
       0.06402581 -0.012408634 0.00342149 -0.044573672
000100 ce 6d c3 3c b8 a6 b7 bd e5 d1 88 bd 45 6a 88 3d
       0.02385607 -0.08967346 -0.06680659 0.06660894
000110 56 8f 47 bd c0 9e b9 bc 67 ed 28 3d b3 d5 58 bd
       -0.04872068 -0.022658706 0.04124203 -0.052938174
000120 61 98 a7 bc a5 3e 56 bc fd 94 d7 bc ba 31 d6 bd
       -0.020458402 -0.013076459 -0.02631616 -0.10458703
000130 4a 76 c9 3b 74 6f 3e bd c4 04 e8 bc a3 c0 07 bb
       0.0061481344 -0.04649301 -0.028322585 -0.0020714186
000140 e6 1a 0b 3c b6 4f 45 3b 1d 9c f6 bc d6 bb bc bd
       0.0084903 0.0030107326 -0.030103737 -0.09215514
000150 2c 30 58 bd cc fb 30 3c 53 da f7 3c 7a 1f 84 bd
       -0.052780315 0.010802221 0.030255472 -0.06451316
000160 5f 0b 89 bd 20 96 c4 bd 3a 26 ca 3c 27 c9 1d 3c
       -0.06691622 -0.095989466 0.024676431 0.009630478
000170 31 7c 36 3b d1 24 59 bc 51 26 78 3d e3 96 d5 bd
       0.002784502 -0.013253407 0.060583416 -0.1042917
000180 f6 9e 2e bd 6b 82 8c 3c 0b 36 11 bd 8a f7 7b 3c
       -0.042632066 0.017152032 -0.03545193 0.015378842
000190 aa b6 c0 bd 17 a9 d6 bd df 32 87 bd 1d 18 47 bd
       -0.094098404 -0.1048147 -0.066015 -0.04860698
0001a0 7c dd a0 bd 73 ea 7d bd 66 61 a4 bc 32 5b bd 3c
       -0.07854745 -0.061991166 -0.020065974 0.023114774
0001b0 d8 bd b5 3d dd 8e 98 bd ff fd a3 bd 6a e4 36 3b
       0.088741004 -0.07449124 -0.0800743 0.0027907141
0001c0 9c 65 2b 3c 5b 69 32 bd d3 ea 22 3c 67 0b ba bc
       0.010461237 -0.043557506 0.009943682 -0.022710515
0001d0 13 65 7e 3b ae b4 fa ba 52 93 ca bd 05 b4 85 bd
       0.003881757 -0.0019127333 -0.0989138 -0.065284766
0001e0 e6 6c 89 bd 66 b3 8c bd 6e dd 9c bd fc 5d a6 3c
       -0.06710224 -0.06870155 -0.07659422 0.020308487
0001f0 f5 3d 3a bc 3c c5 c2 bd aa 3e a7 3b
       -0.011367311 -0.09510276 0.0051039057

network_body._body_endoder.seq_layers.0.weight f4 [127, 39]
000000 8f 4a 30 3e 7f a7 ad bd 3e 3c 73 3e 64 af cc bb
       0.17215942 -0.08479213 0.2375345 -0.006246494
000010 88 f3 e6 3e 8c 60 b5 be df 45 72 be c6 bf d3 be
       0.45107675 -0.35425222 -0.23659466 -0.4135725
000020 8a 91 e2 bc df 0e 08 3e 9a dc 15 be e3 90 65 3e
       -0.027657289 0.13286923 -0.14634934 0.22418551
000030 98 d2 1d 3e 28 f8 df bd 33 3f 46 3d b4 74 48 ba
       0.15412366 -0.10936004 0.048400115 -0.00076467847
000040 d0 82 24 bd 97 e8 bb 3d ff 0e c1 be 8d 68 25 3e
       -0.040163815 0.09175222 -0.37706754 0.16153164
000050 73 a5 5b be 8e c2 bc 3d 55 63 6f be 01 63 8f be
       -0.21449833 0.09216796 -0.23377736 -0.2800522
000060 06 63 81 bd 37 82 67 3e 42 7b 1b 3e 8e fc 51 bc
       -0.06317715 0.22608267 0.15183738 -0.012816561
000070 58 c1 08 bd ca f9 aa be e8 c1 83 be e7 e9 94 be
       -0.033387512 -0.333937 -0.25733876 -0.29084703
000080 01 56 34 3c aa 06 36 3e 1e 56 11 3e 87 29 3f 3e
       0.011006833 0.1777598 0.14193007 0.18668185
000090 3e b8 b8 3d ac 30 b1 bd ff 9a 1b bd 57 c7 23 3e
       0.090195164 -0.086518615 -0.037989613 0.15994011
0000a0 b4 0b 26 3d 14 fb 00 be 1a d8 94 bd 73 3f 4a bd
       0.040538505 -0.12595779 -0.072677806 -0.049376916
0000b0 85 e7 23 3e 2f 1f af bd ed 24 c5 3d 24 8b af 3d
       0.16006286 -0.0855087 0.09626184 0.08571461
0000c0 22 aa e6 3d 96 6d 7a be 44 48 d9 be a1 78 e0 bd
       0.11262919 -0.24455866 -0.42437947 -0.10960508
0000d0 7f 92 71 3d 72 c4 b9 3c 47 36 a6 bd ca ac bb bd
       0.0589776 0.02267668 -0.08115821 -0.09163816
0000e0 77 d5 28 3e c7 0d 18 be 16 8c 67 3e 68 47 04 be
       0.1648768 -0.14849006 0.22612032 -0.12917864
0000f0 c9 5c 32 be 92 61 28 3c 82 0a a4 bd 49 89 b5 3d
       -0.17418207 0.010277169 -0.08009817 0.08864076
000100 58 3f 5d be ec 09 f8 3b c1 b5 cb bd bf fa 8b 3e
       -0.21606195 0.007569542 -0.09946776 0.27339742
000110 58 75 4f 3e 9d 10 91 bd 8d 20 27 bd eb 2d 16 3e
       0.20259607 -0.07083247 -0.040802527 0.14665954
000120 66 a9 ab 3e 8e 91 1b be 8a 8c 82 be 03 e4 ef bb
       0.33527678 -0.15192243 -0.25497848 -0.0073208823
000130 ad 6a 90 3c 4c 0e 95 3e f0 88 43 be 88 ce 15 be
       0.017628992 0.2911247 -0.19095206 -0.14629567
000140 9c 92 53 b9 67 e5 8c 3e f7 13 f6 bd 39 78 a5 be
       -0.00020177144 0.2751877 -0.12015527 -0.32318285
000150 2b 7c 6b 3d a6 f1 8f 3e 9c 3c 8a bd 34 69 cf bd
       0.057491463 0.2811405 -0.067498416 -0.10127488
000160 b2 bf 8c 3d 9a 5b bd bd f0 99 54 3e e9 4b 57 3e
       0.068725005 -0.09245987 0.20761847 0.21025051
000170 c6 f1 ae 3e f4 4c e9 ba 1f 34 8e be 75 e4 d9 3d
       0.34168833 -0.0017799423 -0.2777414 0.10639278
000180 a8 49 0a be db 34 85 bb 10 49 30 be 37 6e 02 bd
       -0.1350466 -0.0040651388 -0.17215371 -0.03184339
000190 5f 05 8c bd d0 a8 95 3e ac 90 e5 3d 60 8f 50 3d
       -0.06836962 0.29230356 0.112092346 0.050917983
0001a0 fb 78 1f be 60 a8 32 3e 04 2a 4e bd d8 2b b8 bd
       -0.15573494 0.17447042 -0.050333038 -0.089927375
0001b0 4a 4d 22 be 96 dc 3c 3e fc 27 a2 be 10 72 3d bd
       -0.15849796 0.18443522 -0.3167113 -0.046251357
0001c0 89 0e 4e bd b4 1c 16 be a6 01 18 be 56 1c 83 be
       -0.05030683 -0.14659387 -0.14844379 -0.25607556
0001d0 b8 15 94 3d 2c ae 02 be 8c ef 8a be 7b d1 07 3e
       0.07230705 -0.12761754 -0.27135885 0.13263504
0001e0 25 2c 2a 3e 8a 02 3a 3e f5 c2 2c be 2d c0 77 be
       0.16618402 0.18165031 -0.16871245 -0.24194403
0001f0 b2 6d 18 be 9d e5 e6 bd 13 4c a2 be 3d 55 16 be
       -0.14885595 -0.11274264 -0.31698665 -0.14680953
000200 4f 76 36 be 06 02 af 3a 63 ac 33 be 11 57 ca bd
       -0.17818569 0.0013352043 -0.17546229 -0.09879888
000210 6e 5e 7b 3d d3 80 e9 be f3 70 b2 3e d8 bf 5f 3d
       0.061369352 -0.45606098 0.34851798 0.054626316
000220 99 98 b0 3e 00 a1 8f 3e 7b aa 12 3e fd 3d b8 bd
       0.34491423 0.2805252 0.14322846 -0.08996198
000230 a6 34 dd bd 3c 97 55 be 14 0e d0 3c 33 60 53 be
       -0.108010575 -0.20858473 0.025397338 -0.20642166
000240 82 d3 9c 3e 2d 04 12 3e 86 88 2b 3e 30 30 78 3e
       0.30630118 0.14259405 0.16751298 0.24237132
000250 5c 8c 08 3a c6 df 37 be 8b 0e ba bd ed 32 11 be
       0.00052089035 -0.17956457 -0.09084805 -0.14179583
000260 1c 08 5a 3e cd b4 1f be 7f 02 0b 3e ce 72 7b bd
       0.21292156 -0.15596314 0.13575171 -0.061388783
000270 2d 0a 58 3d 80 38 c8 3d 72 24 6c 3d 59 0f 46 3e
       0.05274408 0.097764015 0.057651944 0.19341792
000280 8d 01 9f bd 7e c5 8e be bc fe 9e 3d 0a f6 18 be
       -0.07763968 -0.2788505 0.077634305 -0.14937606
000290 77 23 48 3e c1 77 21 be f8 2f 9b 3d 64 87 00 be
       0.19544779 -0.15768339 0.07577509 -0.12551647
0002a0 ca 53 35 3d 7a f5 dc 3c f7 b9 99 3e 94 07 2b 3e
       0.04426936 0.026972521 0.30024692 0.1670211
0002b0 c5 ab 4b bd 47 87 99 be 59 9e 11 3e 9f 48 87 3e
       -0.04972436 -0.2998602 0.14220561 0.26422593
0002c0 cc a8 1d 3e 4f 2f 42 bd af 8e 4b 3c df a6 f9 bd
       0.15396422 -0.0474084 0.012424155 -0.12190031
0002d0 fd 1a 28 bb 71 2c 3c bd 5e 4e d1 bd 9b c4 fa bd
       -0.0025650852 -0.04594082 -0.102200255 -0.12244531
0002e0 dd d8 23 be 65 9b e4 bd 7c c1 ac be 46 08 20 3e
       -0.16000696 -0.11162452 -0.33741367 0.15628156
0002f0 47 f4 63 3e a0 68 6e bd 6e 8b 2b be 08 f8 a2 bc
       0.22261153 -0.058205247 -0.16752407 -0.019893661
000300 11 bc 1e 3e 3c f6 4d 3d ba 38 75 3e ca 95 aa 3c
       0.15501429 0.050283656 0.2394742 0.020823378
000310 5e 27 cf bd 53 e8 9d 3d 15 63 1b bd 56 25 66 3b
       -0.101149306 0.07710328 -0.03793629 0.0035117469
000320 d3 0f 29 be 98 3b 1d be 0b 4e ef 3d dd 69 37 3d
       -0.16509943 -0.15354764 0.116848074 0.044778693
000330 ba 3b a0 3e 83 3b c9 3c 1c 0d 1e 3e 7b 60 af bc
       0.31295568 0.02456451 0.15434688 -0.02140831
000340 bf 08 1e be 52 6a a5 be 9b ca 8c 3c c6 bc 69 be
       -0.15433024 -0.32307678 0.017186454 -0.22825918
000350 d9 65 70 bd 0f 78 0b bc 45 cd 82 bd a4 5d 2d 3e
       -0.05869088 -0.008512511 -0.06386808 0.16930252
000360 53 87 b3 bd f5 48 0d be 4a 91 50 be dd 4c d8 b9
       -0.087660454 -0.13797362 -0.20367923 -0.00041255998
000370 34 eb 0e 3f a7 1a e8 3d e5 a1 75 3b de c1 fa 3d
       0.5582764 0.113332085 0.003748053 0.122440085
000380 8e dc 8e bd 78 d7 e4 3d ba c4 b4 be 80 97 a6 3e
       -0.06975661 0.1117391 -0.3530634 0.3253746
000390 9a e8 38 be e8 6c 64 bd 43 2e 25 bd 73 73 03 3d
       -0.1805748 -0.055767924 -0.04032732 0.032092523
0003a0 41 7a 87 3d 02 18 42 3e 98 bc d2 bd cf f5 9d 3a
       0.06615115 0.18954471 -0.10289878 0.0012051406
0003b0 b2 7e a9 3e 18 38 85 3e 4b e4 b2 bd af 67 55 3e
       0.33104473 0.2601936 -0.0873495 0.20840333
0003c0 27 61 82 be 8b 2e f1 3e 12 cc c0 bd 2c ec b5 3e
       -0.25464746 0.47105822 -0.09413923 0.35531747
0003d0 5c ae ec bd 46 f1 9a 3d 7f 17 aa bd 40 5c 19 be
       -0.11556694 0.075655505 -0.08305263 -0.14976597
0003e0 8d dc 8c bd 19 08 bb bc 30 dd 15 be ab b6 8f bd
       -0.06878004 -0.02283101 -0.14635158 -0.07017263
0003f0 56 e9 ad be 7a 46 44 3d 0d 59 c6 bc 76 19 b2 3a
       -0.33967084 0.047918774 -0.024212385 0.001358791

network_body._body_endoder.seq_layers.2.bias f4 [127]
000000 65 d4 5b bd b3 f2 07 bd 0a 25 56 bd a2 ad 8d bd
       -0.053669352 -0.03319044 -0.052281417 -0.069178835
000010 66 78 f2 bc eb 9c 38 bc a1 10 7e bd 78 99 d0 bc
       -0.029598426 -0.011267881 -0.062027577 -0.025463805
000020 8e 51 0e bb 53 eb 65 bd 66 1d 1c bd 35 d3 b3 ba
       -0.002171609 -0.056132626 -0.038113974 -0.0013719561
000030 7f 45 c3 bd 69 ac 76 bd 9b 93 e9 bc 4a f9 67 bb
       -0.0953474 -0.060223017 -0.028512767 -0.003539639
000040 2b 42 ed bb 50 3e 7b bd 26 49 d7 bd b0 d1 6b bd
       -0.007240554 -0.061338723 -0.10511999 -0.05757302
000050 a4 4d b8 3c d7 43 5e bd ab 5b 41 bd f5 26 ae bd
       0.02249796 -0.054263916 -0.047206562 -0.08503524
000060 6d 88 e8 bc b9 18 fc bc 07 53 48 bd ee f1 7e bd
       -0.028385365 -0.030773507 -0.048907306 -0.06224244
000070 e5 e6 5b bd 34 31 82 bc fd 46 58 bc 21 93 94 ba
       -0.053686995 -0.015892603 -0.013200519 -0.0011335352
000080 89 85 89 bd 63 c4 79 bd 44 be 1c bd 4e b8 8e bd
       -0.06714923 -0.060978305 -0.03826739 -0.06968747
000090 4c 7d f7 bc 84 96 99 bc 61 e0 8d bc 4d ea 8b bd
       -0.030211113 -0.01874853 -0.017318906 -0.06831799
0000a0 c8 a5 67 bd ad 24 9d bd 3b c6 88 bc 07 12 aa bc
       -0.056554586 -0.07673011 -0.016696086 -0.02076055
0000b0 dd 98 08 bd 67 a6 c1 bd 60 af 9b bd ce cc 59 bd
       -0.033348907 -0.09455567 -0.076018095 -0.053173833
0000c0 2c f6 2e bb 16 d0 2c bd 84 cd 93 bd 1e be b4 bc
       -0.0026697023 -0.042190634 -0.07216933 -0.022063311
0000d0 08 ea 17 bd 5c ca 5f bd ca 36 7c bd 79 9c ec bc
       -0.037088424 -0.054636344 -0.06157569 -0.028883206
0000e0 f6 9d 82 bd e5 d7 a6 bc 32 5d 27 bd 15 73 9b bc
       -0.06377785 -0.020366618 -0.040860362 -0.018975774
0000f0 4b 89 2d bd 7b db ce bc d7 74 8d bc e8 1b 07 bd
       -0.04236726 -0.02525114 -0.017267628 -0.032985598
000100 c2 c5 0e bd 43 e8 be bc d3 0e 69 3a 68 59 16 bd
       -0.034856565 -0.02330411 0.00088904536 -0.03670636
000110 7b 16 62 bd c3 e2 2a bd c7 22 42 bd c3 65 ea bc
       -0.05519722 -0.041720163 -0.047396448 -0.028612977
000120 a6 8d 66 bb 73 4c 0d bd 30 e4 1b bd 84 05 7a bd
       -0.0035179644 -0.034496736 -0.038059413 -0.061040416
000130 3f 5e 98 bd 74 fd 3a bd de fa 67 bd 34 23 48 bd
       -0.07439851 -0.045651868 -0.05663573 -0.048861697
000140 00 53 04 bc c6 3c 29 bd ec 23 9d bb 78 ea 2c bd
       -0.008076429 -0.041317724 -0.004795542 -0.042215794
000150 dd fb 87 b9 3b 3a 5f bd 0e 19 e7 bc 76 0c 49 bd
       -0.0002593686 -0.054498892 -0.02821019 -0.04908415
000160 c2 26 67 bd 4b 26 06 bc 37 7a a2 3b 16 52 96 bd
       -0.056433447 -0.008187841 0.004958417 -0.073398754
000170 bd 73 f5 bc 51 cb 3f bd 36 e9 6e bd cb 81 09 bc
       -0.029962415 -0.046824757 -0.058327876 -0.008392761
000180 f9 22 74 38 fb 7d 67 bd a1 cc 02 bd 77 94 c7 bc
       5.8206704e-05 -0.05651663 -0.03193343 -0.024362786
000190 f8 2e 93 bd bd 38 bb bc 4b af 41 bd b7 25 60 bd
       -0.07186693 -0.022854203 -0.047286313 -0.054723468
0001a0 bb 61 f8 bc 36 57 8d bd 40 8c 56 bd 45 d4 b6 bc
       -0.030320039 -0.069014 -0.052379847 -0.022318015
0001b0 1f fe 4f bd 2a 0f 7a bd 34 8c 45 bd 2c 5f fd bc
       -0.050779458 -0.061049618 -0.04822941 -0.03092917
0001c0 46 05 dc bc cd 43 31 bd 03 b3 e6 bc 66 30 93 bd
       -0.026857983 -0.04327755 -0.028161531 -0.07186966
0001d0 ee 57 3c bd 26 18 1d bd 7e 89 1d bd 61 49 8d bd
       -0.045982294 -0.038353108 -0.0384612 -0.068987615
0001e0 20 5d 97 bc e5 cb 23 bd 35 96 a8 bd 36 a6 1b bd
       -0.018477023 -0.03998937 -0.08231775 -0.038000308
0001f0 5d 4e 29 bd cb 9f 29 bd 43 5b d4 bc
       -0.0413345 -0.041412156 -0.025922423

network_body._body_endoder.seq_layers.2.weight f4 [127, 127]
000000 a9 0d bd bd 21 de 38 bc f3 2d 95 bc be 34 03 bd
       -0.09231121 -0.011283428 -0.018210387 -0.03203272
000010 71 ff e8 bd a1 ca 13 be ec 80 31 be 9f e6 f6 bd
       -0.113768466 -0.14432766 -0.17334336 -0.12055706
000020 85 ec 87 bd 6b fd 61 bd c2 bd 5c 3b ea 2e d5 3d
       -0.066369094 -0.05517332 0.003368244 0.10409339
000030 09 f1 91 bb 66 d6 83 3e e0 96 82 3d 23 0e 3f be
       -0.0044537825 0.2574951 0.06376433 -0.18657736
000040 7b 6a 89 3c 15 c5 31 be 66 ae 6b bd 25 7a 25 3d
       0.016774407 -0.17360337 -0.057539366 0.04039969
000050 03 51 29 3e 10 6c 47 bc 59 03 a2 3d 73 9a e2 3d
       0.1653481 -0.01217176 0.07910795 0.11064615
000060 2c 52 93 3d 2a f4 54 be 1a 43 af bd af 23 a2 3c
       0.071934074 -0.20796266 -0.085577205 0.019792406
000070 3f 5c 6e bd 98 24 77 bd d3 55 d1 bd 61 c5 b1 bb
       -0.05819344 -0.060337633 -0.10221448 -0.0054251407
000080 8e 7f 94 bd d1 e7 70 be b0 bf 81 bd 36 6d bc 3c
       -0.072508916 -0.23525931 -0.063353896 0.023001295
000090 56 90 e0 bd 13 d9 96 bd bc c3 bd bd eb 55 fc 3d
       -0.1096503 -0.07365622 -0.09265849 0.12321075
0000a0 d8 a1 ac bd 2e f0 1c 3c 8d 74 26 be 63 5d 49 3d
       -0.08429307 0.009578748 -0.16255398 0.049161326
0000b0 3f 19 25 3d ae a9 82 bd 1f bf 89 3d 20 e2 af 3c
       0.04030728 -0.0638002 0.067259066 0.02147013
0000c0 95 18 ce bc 36 4b 1f be 3b 38 b0 bd bb c8 9c be
       -0.025158206 -0.15556034 -0.08604475 -0.30621895
0000d0 9f af af bd 78 a3 06 3d fd 19 f3 bd a5 0c 2d be
       -0.08578419 0.03287074 -0.11870191 -0.16899355
0000e0 1a 48 6e be 5a e2 42 3e 38 85 30 be cf 41 6a 3a
       -0.23269692 0.19031659 -0.17238319 0.0008936198
0000f0 bd d9 c8 bd 15 51 b8 be 24 04 01 be 80 29 ee bd
       -0.09807155 -0.3599936 -0.12599236 -0.11629009
000100 03 ed f7 3d 62 fc 3a be 73 b3 c9 bd bf 4f 3e be
       0.12105753 -0.18260339 -0.0984868 -0.18585108
000110 7c af 4c be f2 2e 8f bd 42 6e 00 3e bb 37 d3 bc
       -0.19988817 -0.06991376 0.1254206 -0.02578341
000120 b9 bf 98 3c a2 76 90 bc 71 07 b7 3e 58 c9 2c 3d
       0.018646108 -0.017634694 0.35747865 0.042184204
000130 86 20 d9 3d 57 7a f7 3c 7b 9f 44 3d de 87 4f bd
       0.106019065 0.030209703 0.048003655 -0.050666682
000140 dc f9 b5 3d 97 d3 1f 3e 93 4e 76 3c 93 d7 ea bd
       0.088855475 0.15608059 0.015033382 -0.11466899
000150 f5 b5 54 3d 00 20 31 be b6 0a 3e 3d 64 72 2a be
       0.05193134 -0.17297363 0.046396933 -0.16645199
000160 94 e4 09 bc 15 bf de bd 5b 09 64 bd 44 8b bd bd
       -0.008416314 -0.1087629 -0.055672985 -0.092550784
000170 e3 53 04 be e4 1e b7 bc ff b6 b3 bd a4 0a 86 bb
       -0.12922625 -0.022353597 -0.08775138 -0.004090624
000180 82 37 8f 3c 0a 0b 8e be fd ee df 3d 07 0c 87 bc
       0.017482523 -0.27742797 0.10934255 -0.016485227
000190 b2 e2 8e 3d 73 b9 4c 3e b6 72 87 3d bd 25 45 be
       0.069768324 0.19992618 0.06613676 -0.19252677
0001a0 25 41 5c be aa 29 e1 3d 15 be 22 be cd 40 5e be
       -0.21509226 0.10994275 -0.15892823 -0.21704407
0001b0 f3 62 0f 3d f2 5b 08 bd 30 6d 99 bd c4 c5 c1 bb
       0.035006475 -0.03329081 -0.07491529 -0.005913468
0001c0 4a bb 85 3d 83 45 3b 3c e5 d8 d8 3d 08 99 5a 3d
       0.06529863 0.011430147 0.10588244 0.0533686
0001d0 65 1e 26 be 03 75 7b bd b5 5f e8 bd b8 e8 b6 3c
       -0.16222532 -0.061390888 -0.1134638 0.022327766
0001e0 9c 5d f8 bc 58 da 5f be a2 aa be bd 29 63 15 3e
       -0.030318074 -0.21860635 -0.093098894 0.14588608
0001f0 15 6c b5 3d 4b a4 04 3e 79 0c 22 be 3a d3 55 bd
       0.08858506 0.12953298 -0.1582507 -0.052203394
000200 14 b9 10 be 7c 11 9f bd bd a4 18 3d fa 1c d5 bd
       -0.14133102 -0.07767007 0.03726648 -0.104059175
000210 54 d1 2e bc 9c 34 68 bb 4b 15 e3 bd 46 40 03 3e
       -0.010670025 -0.0035431748 -0.11088046 0.12817487
000220 de 02 6e be 6f be f0 bb e8 ee 0d 3e b5 0b bd 3c
       -0.23243281 -0.00734692 0.13860667 0.023076871
000230 77 2e 45 3d 2b b3 87 3c 08 00 48 3d ef 60 f9 3c
       0.048140015 0.016564926 0.048828155 0.03044173
000240 21 ea c0 bc bd f8 0a 3e 6b 16 ad bd 68 14 e9 bd
       -0.023549141 0.13571449 -0.084515415 -0.11380845
000250 7a f9 70 bc b7 f4 25 bd 3b 2a d7 3c 08 fe f0 3b
       -0.014707917 -0.04051658 0.026265254 0.0073545016
000260 48 2d c2 3b 25 3e b1 bc d2 c0 cb 3b 53 7e 23 3e
       0.005925808 -0.021636078 0.0062180543 0.15966158
000270 fc 36 28 bd 65 4b 41 bd e3 7f 9d 3d 04 76 bd 3d
       -0.041068062 -0.047191042 0.07690408 0.09251025
000280 24 8c 87 bb bf a3 67 bd f8 da 43 3e eb fa 27 3c
       -0.004136579 -0.056552645 0.19126499 0.010252695
000290 cc 11 da 3c a8 b0 22 be cd b9 27 3e 74 7c 0b 3c
       0.026619814 -0.15887702 0.16379471 0.008513559
0002a0 1a 99 25 3d c1 4b 5e bd f5 22 7e 3b fd 45 b3 bd
       0.040429212 -0.054271463 0.003877816 -0.087535836
0002b0 8b 11 96 be 2e 95 00 be d5 d3 b1 bd 31 9a b6 bc
       -0.2931026 -0.12556908 -0.08682982 -0.022290321
0002c0 09 01 af 3d 32 a7 3a 3e f7 12 b9 bc d6 a7 e4 3c
       0.08545119 0.18227842 -0.022592051 0.027912062
0002d0 30 ec 5c 3c 74 ab d9 bd 91 3c 0e 3e 8f c2 2f 3e
       0.013484046 -0.10628405 0.13890292 0.17164062
0002e0 c7 e4 71 3d 30 3e 0e bd a7 e3 d8 bd 01 8e 35 bc
       0.05905607 -0.034727275 -0.10590296 -0.01108122
0002f0 8c 6b 45 bc 0f d3 5d be d6 8e 2f 3c ff 6d 92 3d
       -0.012049567 -0.21662544 0.010715207 0.07149886
000300 c8 f4 f0 bb ed d3 19 3d 64 53 07 3e 9d cd bf bc
       -0.007353399 0.037555624 0.13215405 -0.023413474
000310 59 b2 82 be bd 4b cc 3d 5f 02 9f bd d3 1a 99 ba
       -0.25526693 0.099753834 -0.07764124 -0.0011680968
000320 73 cc 7c 3e 96 13 82 3c 4d 20 c5 bd 8f d2 fd bc
       0.24687366 0.01587848 -0.096253015 -0.030984191
000330 46 a6 cf 3d 87 5f e6 3d 48 bc db bc 94 01 a2 3d
       0.10139136 0.11248689 -0.026823178 0.07910457
000340 d9 75 cd 3b e2 fa 6f 3d be 8e e1 3d 6e b0 13 3d
       0.006270152 0.05858887 0.11013554 0.03605693
000350 20 53 71 bd 06 99 c0 bc da 06 71 3c 2a 3c d7 3a
       -0.058917165 -0.023510467 0.014711106 0.0016421129
000360 66 24 90 bc 26 97 04 be 6b fa 91 3c 05 da b9 3d
       -0.017595481 -0.12948284 0.017819604 0.09074787
000370 36 fe c1 bc 7f 08 cc bd 19 ab f7 bd 78 32 9e bd
       -0.023680788 -0.09962558 -0.12093181 -0.0772447
000380 24 e9 61 bd 04 3c 05 3c 7d 6e 08 3d 29 52 c1 bc
       -0.05515398 0.008131985 0.033308495 -0.023598747
000390 4f e9 2b bd 76 9e 73 3c 20 e1 f4 bd 50 b6 04 be
       -0.041970547 0.014869323 -0.11957002 -0.12960172
0003a0 69 0a 1f be 53 92 fd 3b 00 d9 9f bd 35 77 aa bd
       -0.15531315 0.0077383905 -0.07805061 -0.08323518
0003b0 41 bc ad bc d7 9a b9 bd 41 04 ff 3d 49 9c a0 bc
       -0.02120793 -0.090627365 0.12451983 -0.019605773
0003c0 69 52 3f 3d 1f 6c ca 3d a7 d8 a5 3c 69 cc be bd
       0.04670945 0.09883904 0.02024491 -0.09316332
0003d0 18 b9 01 3e fe c5 09 3d b1 b4 a0 3d ca 99 54 bd
       0.12668264 0.033636086 0.07846964 -0.051904477
0003e0 8c 56 a9 3d a8 ec 29 be 0a a2 8f 3d b1 58 82 3d
       0.08268461 -0.16594183 0.070133284 0.06364573
0003f0 46 67 7b 3c 4a 90 a1 bd 63 e3 45 3e 87 dd 4d bd
       0.0153444465 -0.07888849 0.19325022 -0.050260093

network_body.observation_encoder.processors.0.normalizer.running_mean f4 [33]
000000 00 00 00 00 f6 a0 3e 3f 6b 5e 5d 3f 00 00 00 00
       0.0 0.74464357 0.86472195 0.0
000010 42 f6 3b 3f 30 1f 5e 3f 00 00 00 00 42 b3 2e 3f
       0.73422635 0.8676634 0.0 0.68242276
000020 b6 d1 54 3f 00 00 00 00 4b c3 2d 3f 38 43 59 3f
       0.83132493 0.0 0.6787612 0.8486819
000030 00 00 00 00 65 83 15 3f 3b 0c 49 3f 00 00 00 00
       0.0 0.5840362 0.7853429 0.0
000040 c4 c9 1c 3f 17 e3 51 3f 00 00 00 00 29 70 fc 3e
       0.6124537 0.81987137 0.0 0.4930432
000050 bb da 3d 3f 00 00 00 00 3c 38 11 3f e4 96 4b 3f
       0.7416188 0.0 0.5672643 0.79527116
000060 00 00 00 00 69 67 da 3e 06 29 35 3f 00 00 00 00
       0.0 0.4265702 0.7076572 0.0
000070 43 40 0b 3f e4 33 48 3f 00 00 00 00 7c 87 c2 3e
       0.5439493 0.7820418 0.0 0.3799399
000080 4a 3e 30 3f
       0.68845046

network_body.observation_encoder.processors.1.normalizer.running_mean f4 [6]
000000 b3 ba 72 bf f2 1f 13 3c ea d3 46 3c f7 2a a4 42
       -0.9481613 0.008979784 0.012135485 82.083916
000010 a2 19 58 3c 20 77 88 3c
       0.013189705 0.016658366
